waights/weights15.pth (torch_old, 670822 bytes, 196 tensors)

ConvBase.1.feature.lis.0.X_conv.conv.weight f4 [1, 1, 3, 1]
000000 6e c6 1c bc 41 26 49 be 56 c7 00 be
       -0.009568794 -0.19643499 -0.1257604

ConvBase.1.feature.lis.0.Y_conv.conv.weight f4 [1, 1, 1, 3]
000000 7c 9c 9c 3e 39 c4 94 bd 7b 22 13 be
       0.30588138 -0.07263989 -0.14368622

ConvBase.1.feature.lis.0.pointwise.weight f4 [16, 1, 1, 1]
000000 df 51 ba be 60 cc 6b be 36 99 45 bf dc e2 6e bf
       -0.36390588 -0.23027182 -0.77186906 -0.9331491
000010 ce 08 fe be 79 87 a9 bd 60 71 b0 3c e1 0f 15 3f
       -0.49616092 -0.082777925 0.021538436 0.58227354
000020 06 54 54 3f 3a 69 28 3f fc 2c 6d 3f 89 89 74 3d
       0.8294071 0.65785563 0.92646766 0.059701476
000030 7a 55 32 3f 94 d6 2a ba 38 1b ec 3e 7a d0 00 bf
       0.69661677 -0.000651696 0.46114516 -0.5031811

ConvBase.1.feature.lis.0.pointwise.bias f4 [16]
000000 cb 53 50 3f ca 00 90 be 18 ce 35 3f 22 b3 85 bf
       0.8137786 -0.28125602 0.710176 -1.0445292
000010 92 8f 99 be 56 3b 50 bf 77 9a a9 be 67 55 6c 3f
       -0.29992348 -0.8134054 -0.3312566 0.92317814
000020 d7 90 2f bf 66 98 84 3e 1a 21 e3 be b4 c7 0a bf
       -0.68580383 0.2589752 -0.44361192 -0.5421097
000030 ec 58 5d 3d 04 72 99 bd 73 08 91 be 63 6c ca be
       0.05403988 -0.0749245 -0.2832676 -0.39535818

ConvBase.1.feature.lis.1.X_conv.conv.weight f4 [16, 1, 5, 1]
000000 96 b4 75 3e ea 00 9b be 76 24 c0 3b 18 09 b7 3e
       0.2399467 -0.30274135 0.0058637215 0.35749125
000010 f5 f3 81 3e 6f 21 c5 3c f1 32 ad 3e c6 99 0d 3b
       0.25381437 0.024063794 0.33827928 0.0021606549
000020 b9 a5 17 3e 94 99 8a be 24 3d 59 be 81 ba 9b be
       0.14809312 -0.27070296 -0.2121473 -0.3041573
000030 59 fa 4c bd fd 44 91 3e d9 91 e0 bd 19 93 1f bd
       -0.050043438 0.28372946 -0.10965318 -0.038958643
000040 95 fc 30 3d ae bc 39 3e d9 32 d3 3e f0 05 0a 3c
       0.04320963 0.18138382 0.4124973 0.008424267
000050 a0 56 c5 be 9a 3e cd bd 58 2d e4 3c d8 fa a4 be
       -0.38542652 -0.10021706 0.027853653 -0.3222263
000060 f1 a4 b4 3e 77 c1 eb 3d 94 71 80 3e 4e 46 c4 be
       0.3528209 0.1151151 0.25086653 -0.38334888
000070 3c 84 61 3e 1f 3f 1f 3e 90 91 8d be 4c 06 33 be
       0.220231 0.15551423 -0.27650118 -0.17482871
000080 4e f0 3b be 1d 9e 47 3e 1b ec 31 bc 6b 59 84 3d
       -0.18353388 0.19493909 -0.010859515 0.064623676
000090 bc de 6f bd 75 4b da 3e 6b c0 cd 3e 14 de 06 3e
       -0.058562025 0.42635694 0.40185866 0.13170654
0000a0 37 68 42 3d 00 2a aa be 6b c2 b0 3e 9c 02 6c 3e
       0.04746267 -0.33235168 0.3452333 0.2304787
0000b0 cd 65 c7 3d 46 3a a1 be 89 52 99 be e4 11 bb 3d
       0.09736214 -0.31489772 -0.29945782 0.09134272
0000c0 05 46 09 3e f5 f9 c7 be 7b 47 90 bd f4 48 90 bd
       0.13405617 -0.3905789 -0.07044884 -0.07045165
0000d0 47 45 e9 be 16 5b ae bc 86 bb bf 3e ca f9 dc be
       -0.45560667 -0.021283668 0.37447757 -0.43159324
0000e0 08 e5 e1 be ed ca 97 3e 02 bd 4a 3e d3 fd be 3e
       -0.4412005 0.29647008 0.19798663 0.37303028
0000f0 eb 00 31 be a6 3c 76 bd f2 da 85 bd a6 61 ce 3e
       -0.17285506 -0.060116433 -0.06535901 0.40308875
000100 ca e5 86 be 28 f7 b4 be 52 57 b2 3e 55 b5 36 be
       -0.2634719 -0.35344815 0.34832245 -0.1784261
000110 c0 2d b3 3d ff 49 9c bd 6d bf ca bc 17 ac 4a ba
       0.087489605 -0.07631301 -0.024749482 -0.0007731332
000120 e9 48 95 be b6 33 e2 be 70 52 81 3e d0 34 b7 3e
       -0.2915719 -0.44180077 0.25258207 0.3578248
000130 e3 77 55 bd 57 a2 24 3e ae d3 49 3e ba 89 d0 be
       -0.052116286 0.16077553 0.19709656 -0.40730077

ConvBase.1.feature.lis.1.X_conv.conv.bias f4 [16]
000000 10 62 a6 3c 61 d3 b1 3d af 7d 59 3d 62 d5 e7 be
       0.020310432 0.086828955 0.053098377 -0.45279986
000010 2d 8e 95 be b7 3a c9 be f8 cb e9 be 40 d0 c8 3d
       -0.29210034 -0.39302608 -0.45663428 0.098053455
000020 b0 8b 22 3e 6e 86 16 be a9 1b 9d 3e 35 76 93 3e
       0.15873599 -0.14699718 0.30685166 0.28801122
000030 a2 7c 85 3d 5c a9 fd 3d 08 67 d4 be cc 1e c4 39
       0.065179124 0.12385818 -0.41484857 0.0003740698

ConvBase.1.feature.lis.1.Y_conv.conv.weight f4 [16, 1, 1, 5]
000000 d3 22 87 3e 1a 37 b4 3e bd ab b9 be 27 9b 4a be
       0.26393756 0.3519829 -0.36263838 -0.19785748
000010 7d ed c6 3c c5 36 ab 3e b3 34 db 3e ba 39 d8 bd
       0.024283165 0.33440223 0.42813644 -0.105578855
000020 16 53 1a b9 8c 2a db be 17 0e a9 be ed cb 5c 3d
       -0.00014717536 -0.42805898 -0.33018562 0.053905416
000030 75 3c 83 3e 35 23 9f be bb 3f 72 be af 8b 89 be
       0.25632063 -0.31081548 -0.23657124 -0.26864383
000040 fa 98 7f 3e 6c a8 ec 3e 07 2d 59 be a3 9b ae be
       0.249607 0.46222246 -0.21208583 -0.34103116
000050 1e d7 85 be 7f e0 c7 3e 4f 1b c7 3e 0a 7b b5 be
       -0.26140684 0.39038464 0.38888022 -0.35445434
000060 8a 3d 4c 3e b4 61 78 be 6d bd 45 be a4 77 b5 be
       0.1994535 -0.24256021 -0.19310541 -0.3544284
000070 17 3d f0 3d 13 21 c2 be 70 30 94 3d 64 d5 e8 bd
       0.11730402 -0.3791586 0.07235801 -0.11368826
000080 58 fa 29 3d 17 33 88 3e ab ca cf 3d 5a 19 b2 be
       0.041498512 0.26601478 0.10146078 -0.34784967
000090 65 78 7d 3e e2 85 81 bd eb 50 dc bd 65 22 73 3d
       0.24752958 -0.06324364 -0.107576214 0.059358973
0000a0 b3 fa 4c bd 75 23 d4 be 0e d5 b7 bd ef 22 32 3e
       -0.050043773 -0.41433302 -0.08976184 0.17396139
0000b0 d0 3b 95 be 59 56 51 3e 12 e5 ae be c9 cf 09 be
       -0.29147196 0.20443095 -0.34159142 -0.1345817
0000c0 57 0c d8 3e 7f 9d a4 3e b0 70 7f 3e 53 ff 08 3e
       0.42196915 0.3215141 0.2494533 0.13378648
0000d0 68 56 ac bd 04 eb 4c 3e 7e 87 8e be 1d 72 ce 3e
       -0.08414918 0.20011526 -0.27837747 0.40321437
0000e0 9b 51 bb be 6d b1 85 3e a1 c3 00 be 8e f1 f8 bd
       -0.36585698 0.26111928 -0.12574627 -0.12155448
0000f0 04 e7 e3 3e 46 0c 66 be c1 3e 2b 3e 3f 60 d9 3e
       0.44512188 -0.2246562 0.16723157 0.42456242
000100 13 33 02 3b 9f 19 9c 3e 4a 46 bd 3c f3 ac 7d 3e
       0.0019866868 0.30488297 0.023104805 0.24773006
000110 6b 52 d0 3e 54 b5 84 be 05 25 98 be 45 3a dc be
       0.4068788 -0.25919592 -0.29715744 -0.43013206
000120 dc 9a b8 3e a2 24 d9 be 91 eb cb 3e 47 7e a7 3e
       0.36055648 -0.4241076 0.3982816 0.3271353
000130 01 0e 9e bd 9f 5d ed be 2d 1e 8a be 31 1f 51 bb
       -0.07717515 -0.4636049 -0.26976147 -0.003190946

ConvBase.1.feature.lis.1.Y_conv.conv.bias f4 [16]
000000 dc 59 48 3e f7 9d 85 3e 43 6d 0d be 92 8c 8c 3e
       0.19565529 0.2609708 -0.13811211 0.27450997
000010 7b 62 f7 3d 54 92 76 3d 9a 40 77 3d 86 a0 15 3e
       0.120793305 0.060198143 0.060364343 0.14612016
000020 51 41 b6 3e 52 30 8a 3d 39 29 d9 be 33 3c 2e be
       0.35596707 0.067474976 -0.42414263 -0.17015152
000030 8f b9 bc be 3d 71 41 3e 9e e3 a5 be ff 3f bd be
       -0.3686032 0.18890853 -0.3240022 -0.36962888

ConvBase.1.feature.lis.1.pointwise.weight f4 [16, 16, 1, 1]
000000 0e bf 3f be 59 82 72 be 39 60 0d be 62 99 2b 3e
       -0.18725225 -0.23682536 -0.13806237 0.1675773
000010 56 05 60 be e1 d5 e3 3d 3b 25 b3 3d 22 07 6c 3e
       -0.21877035 0.111247785 0.087473355 0.23049596
000020 65 f8 37 bd bf 69 be bd 00 cf 41 bd 57 7d 0c 3e
       -0.04491462 -0.09297513 -0.04731655 0.13719688
000030 6b f7 4e be 1b 84 69 3e df 97 65 be bc 1b 5b 3e
       -0.2021157 0.228043 -0.22421215 0.21397299
000040 a8 b2 2d 3e e4 e1 bc 3d 1d a9 84 3d e0 a9 50 bd
       0.16962683 0.09222773 0.06477568 -0.050943255
000050 f7 77 4e be c8 dc 36 be 20 ea 1d 3e 4b 4f 4e 3e
       -0.2016295 -0.17857659 0.15421343 0.20147435
000060 1c f6 df 3c 04 4a 17 3e 2e 2d 54 be 48 91 cb 3d
       0.027339034 0.14774328 -0.2072036 0.099398196
000070 58 39 f0 bd da 5d c1 3d a0 ff 37 3e cd 9f 26 3c
       -0.117296875 0.09441729 0.17968607 0.010169935
000080 2b fc 1e be 4e 07 ca bd 3f 41 18 bd d6 d8 79 3d
       -0.15525882 -0.098646745 -0.0371716 0.060997806
000090 57 01 95 be bf 91 d6 bb 79 57 ae 3d f5 dd 44 be
       -0.29102585 -0.006548136 0.08512778 -0.19225295
0000a0 67 b4 04 3e 85 c8 a3 3c b7 29 50 be 9d b3 40 3e
       0.12959443 0.019993076 -0.20328413 0.18818517
0000b0 78 46 06 3b 52 2d 21 be 6f 3e bb bd 45 d4 78 be
       0.002048878 -0.15739945 -0.09142768 -0.24299724
0000c0 db 57 b9 bb e0 b7 37 be 96 64 11 3e af f0 c5 bd
       -0.005656225 -0.17941236 0.14198527 -0.096650474
0000d0 7e c0 41 be 75 b4 5e 3d 16 74 58 3e ed c2 05 3c
       -0.18921086 0.054371316 0.21138033 0.00816415
0000e0 f5 7e a6 3d b7 2d 66 3c 52 6b 2d 3e 6a a1 ca bd
       0.08129684 0.014048985 0.1693547 -0.098940685
0000f0 c2 04 b1 3d 0b c6 8b be 2a 88 b0 bc 03 d2 86 be
       0.086434856 -0.27299532 -0.021549303 -0.263321
000100 f7 33 33 be 71 c3 51 3e 72 29 68 3e 89 5b 37 3e
       -0.17500292 0.20484711 0.2267206 0.17906012
000110 eb e9 39 be 76 63 52 3e 5f a5 3d 3e 27 5c 1d be
       -0.18155639 0.20545754 0.18520115 -0.15367185
000120 48 9d 70 3e a6 65 f5 3d 51 b8 5a 3c af 47 6e bc
       0.23497498 0.119822785 0.0133496085 -0.014543458
000130 2d de e5 bd 28 d5 1a be 65 18 9a 3d 8d 21 09 be
       -0.11224017 -0.15120375 0.07524184 -0.13391705
000140 46 ab e9 3d b2 43 d1 bd a0 c1 13 bd 8e 92 9d bd
       0.11409621 -0.1021799 -0.036073327 -0.07693969
000150 bd 82 ae bd 11 0c eb 3c b4 3e 55 3d 70 a0 a5 bc
       -0.0852103 0.028692277 0.05206175 -0.020218104
000160 f3 26 15 be 19 56 49 bd 2f 44 04 3d cd c5 64 be
       -0.14565639 -0.049154375 0.032291587 -0.2234108
000170 2b 38 3a 3b 88 ae 0c be 2e e3 cd bc 47 30 39 3e
       0.0028414826 -0.13738453 -0.025132742 0.18084823
000180 fc f3 7b be 04 9a 1a 3d 39 ea 8d bd 9a 43 96 3c
       -0.24604791 0.037744537 -0.0692944 0.018342782
000190 c8 fa 9a 3d 66 83 44 be cc 84 9d bd d8 13 1a 3d
       0.07567364 -0.1919075 -0.076913446 0.03761658
0001a0 a0 fe 26 be 59 08 18 3e c8 09 89 3e a8 de c9 bc
       -0.16308069 0.14846934 0.26765275 -0.024642304
0001b0 5b a8 2f be 1c a6 f1 bc ae ac 14 bd a0 1e 65 3e
       -0.17154066 -0.029498152 -0.036297493 0.22374964
0001c0 d7 53 3f be 09 dc 0a 3e bf 0e 0b be 39 1b 99 3d
       -0.18684326 0.13560499 -0.13579844 0.074758954
0001d0 06 42 39 3e cf c4 39 be 99 50 02 bd ad 5b 07 3e
       0.18091592 -0.18141483 -0.031815145 0.13218565
0001e0 b2 7c 08 be d2 d9 21 bd 38 44 ec bd c3 c7 ba bd
       -0.13328817 -0.03951437 -0.11536449 -0.09120133
0001f0 6b a2 d2 3c c3 07 25 be 3a 42 48 bd fc f7 09 be
       0.025712213 -0.16116242 -0.048891284 -0.13473505
000200 32 b7 45 3d d4 3c a3 3d 8c c1 5e be c2 1e 80 be
       0.04827041 0.079705864 -0.2175352 -0.25023466
000210 12 79 37 bd c6 34 d5 3c b0 81 7b 3e 4d 88 c4 bd
       -0.044793196 0.02602614 0.2456119 -0.0959631
000220 b7 89 e4 3d 76 f3 1c be 5f 03 83 3e 53 2d 87 be
       0.111590795 -0.15327248 0.2558851 -0.26401767
000230 43 47 3f 3e 60 9f 3c be c0 c9 43 3e 95 29 1b 3e
       0.18679528 -0.18420172 0.1911993 0.15152581
000240 20 16 f3 3d b8 73 87 3d 58 5b 6f 3e ee 63 bc bd
       0.118694544 0.066138685 0.23374689 -0.091987476
000250 dc ed 14 3b b8 ed ae ba 26 a5 60 3e 1e 62 f5 bd
       0.0022724783 -0.0013345992 0.21937999 -0.11981605
000260 44 b0 ed bb 5c 7b 59 3e 69 81 0c be 19 34 90 3d
       -0.0072536785 0.21238464 -0.13721241 0.07041187
000270 6b 67 a9 bb 99 86 53 be ff d9 1b 3e 66 74 09 3e
       -0.005169799 -0.20656814 0.15219878 0.13423309
000280 9c ca 89 3e 1b 38 73 3e da fb 24 bd ff ae a4 3d
       0.2691239 0.23751871 -0.040279247 0.0804119
000290 e6 22 01 3e c9 f8 18 3d ed ae 56 be 91 98 44 3c
       0.12610969 0.037346635 -0.20965166 0.011999265
0002a0 21 1c 27 be 9b 4b 5f 3e 82 25 56 3e 2c 2d 10 be
       -0.16319324 0.21806185 0.20912746 -0.14079732
0002b0 3d e5 51 3e a8 df 01 be 03 8e 6f be 4d 7f 48 be
       0.20497604 -0.12682974 -0.23394017 -0.19579811
0002c0 25 83 21 be ca bb ea bb 1c 76 51 bd f2 60 65 3e
       -0.15772684 -0.0071634995 -0.05113803 0.22400263
0002d0 11 34 c9 3b f0 9d 33 bd 65 a8 87 bd ca 85 2b be
       0.00614024 -0.043851793 -0.066239156 -0.16750255
0002e0 0f a4 85 3d 58 6e 0c 3e 42 d7 92 3d 33 42 ed 3d
       0.06525432 0.13713968 0.071699634 0.11584892
0002f0 68 3b 83 3d a3 f8 fe bd e6 ca 5a be c0 48 92 3c
       0.06407815 -0.124497674 -0.21366462 0.017856956
000300 9d 8f 01 3e a0 95 71 be cf ca 87 bd fc cd 07 be
       0.1265244 -0.23592234 -0.066304795 -0.1326217
000310 5e 52 d1 3d 3b 30 1f be 0b 9c cc 3d a6 31 ae 3c
       0.102207884 -0.15545742 0.099907 0.021263909
000320 de c2 15 3e ee 08 4d be 16 65 79 3d 38 ae 1b 3e
       0.14625117 -0.20022938 0.06088742 0.15203178
000330 46 f2 0f 3e c7 fa a8 bd b1 3d 6b bc ef 93 84 be
       0.14057264 -0.08250957 -0.01435797 -0.25894114
000340 e4 93 58 be 25 e2 40 3e 4e e7 14 be a5 6e 62 bd
       -0.21150166 0.18836267 -0.1454136 -0.0552813
000350 ea 3d 17 3e 33 51 ce bd 94 a9 73 be ab e5 4a bd
       0.14769712 -0.10074081 -0.23795158 -0.049535435
000360 3e df d3 bd 01 b5 f4 bc 4e 24 19 3e 97 48 1d be
       -0.103453144 -0.029871466 0.14955255 -0.15359722
000370 bb b2 10 3e f4 30 38 3e 00 3e fb bd 23 c6 57 be
       0.1413068 0.17987424 -0.12267685 -0.21071677
000380 4a cd 0a 3e a9 18 9f bc 1a 52 f8 bd 26 1f 1a 3e
       0.13554874 -0.019420939 -0.12125035 0.15050945
000390 9f f5 67 bd 9c ae cd 3d 0a 43 a3 3d 8f 41 60 3e
       -0.056630727 0.1004307 0.07971771 0.21900009
0003a0 ce be db 3d 57 07 44 be b4 c2 09 be cf 98 3b bc
       0.107297525 -0.19143425 -0.1345318 -0.011450007
0003b0 19 0e 21 3e 1a 11 2f be 75 ce 56 3e 64 ff cf bc
       0.15728034 -0.17096367 0.20977195 -0.025390334
0003c0 70 c2 11 bd e7 dc 0f be 75 89 3c 3e a8 01 64 be
       -0.03558582 -0.14049111 0.1841181 -0.22266257
0003d0 b9 e7 83 bd d7 d6 59 3d 1a 53 f1 ba aa 95 37 be
       -0.06440682 0.053183403 -0.0018411607 -0.17928186
0003e0 86 bc d5 bd 68 f3 9d bd 4f 56 4a bd 82 ad 4f be
       -0.104363486 -0.07712442 -0.049398717 -0.20281032
0003f0 60 52 34 bd 90 45 5d 3e 07 b2 8e 3e fa db d3 bd
       -0.04402387 0.21608567 0.278702 -0.103446916

ConvBase.1.feature.lis.1.pointwise.bias f4 [16]
000000 97 8f 73 3e c2 a6 69 be c3 9c 1a 3e b9 66 2a be
       0.23785244 -0.2281752 0.15098862 -0.16640748
000010 97 74 b0 bd 85 42 82 be 6f aa 4c be 29 d9 e5 3d
       -0.08615988 -0.25441375 -0.1998689 0.11223061
000020 a4 a0 2f be 14 1e 84 3e fb 54 cc bb 2c e7 10 3e
       -0.17151123 0.25804198 -0.0062357164 0.14150685
000030 af 04 94 3d 61 7d b1 3c 01 12 10 3e af 2b 8d be
       0.07227456 0.02166623 0.14069368 -0.2757239

ConvBase.1.feature.lis.2.X_conv.conv.weight f4 [16, 1, 7, 1]
000000 f7 45 8a 3e 85 61 b4 be 76 43 c9 3e 46 20 fb 3d
       0.27006504 -0.35230651 0.3930928 0.12262015
000010 e2 41 b6 3e 29 8c c9 bd 87 ef 95 be 61 4f b1 3d
       0.3559714 -0.098411866 -0.29284307 0.086577184
000020 87 bd f1 3b d9 e7 13 3e 27 41 ac 3d 67 8a 2a be
       0.0073773297 0.14443912 0.08410864 -0.16654359
000030 6c 8c 38 3e 79 6a 9a 3e 6a 17 17 be 30 8f b4 bd
       0.18022317 0.30159357 -0.14755026 -0.08816373
000040 61 00 ab be ad 2f 10 3e 63 fd 76 be 93 6f 9c 3e
       -0.33398727 0.14080687 -0.24120097 0.30553874
000050 76 d8 ae bc 18 48 b6 be be ad 18 3e 58 4e 52 be
       -0.021343451 -0.35601878 0.14910027 -0.20537698
000060 00 fa a4 3e db df b5 bd 87 ed 3d be e0 2e e8 3c
       0.32221985 -0.08880588 -0.1854764 0.028342664
000070 f2 d0 b7 3d 11 33 57 3e 5e 3f 95 3e 77 e7 b4 3e
       0.089754 0.21015574 0.29149908 0.35332844
000080 42 26 42 3e fe a8 8e be 85 93 a2 3e 25 83 28 bd
       0.18959907 -0.27863306 0.31753173 -0.041140694
000090 f8 f6 ed bd 92 33 17 bd d6 ab a6 3e 57 ca a6 be
       -0.11619371 -0.036914416 0.32552975 -0.32576248
0000a0 2c 3d 38 be ca 58 42 be 28 bc 0a be d3 31 87 be
       -0.17992085 -0.18979183 -0.13548338 -0.264052
0000b0 18 a3 6b be 78 2f 52 3d b5 8b a4 3d 4b bb c9 be
       -0.23011434 0.0513148 0.080344595 -0.39400706
0000c0 d8 2c 45 3e 7d 5b 91 be 7a a9 5c be e0 21 b8 3e
       0.19255388 -0.28390113 -0.21549025 0.35963345
0000d0 65 89 85 3e f3 56 8e 3e 1d fd 47 3e 49 a4 ae 3e
       0.26081386 0.27800712 0.19530149 0.34109715
0000e0 fb 9a a1 be c1 ff 9b 3e ad 86 4f 3e 3a 52 33 bd
       -0.31563553 0.30468562 0.20266218 -0.04377959
0000f0 73 8c 0a 3e b7 87 a4 3c cf 6b 03 be 2a eb 7c 3e
       0.1353014 0.020084245 -0.12834094 0.24699083
000100 38 df 7b 3e c5 01 8f 3e a5 fb bb 3d d8 14 b6 be
       0.2459687 0.27931038 0.09178857 -0.35562778
000110 83 0b a4 bd fd d7 b6 be d6 57 b2 3e 0c b7 a8 3e
       -0.08010008 -0.3571166 0.34832639 0.32952154
000120 f8 b1 5b 3e dc cf 2d be ff 9a ce 3d b9 b3 09 be
       0.21454608 -0.16973823 0.10088157 -0.13447465
000130 ee cb 83 3e 11 d1 ed 3d 3b 55 15 3d ef ba e8 3d
       0.25741524 0.11612142 0.036458235 0.1136378
000140 f3 23 90 3e b5 29 e4 bd 7e f6 65 be 45 4a 0c be
       0.28152427 -0.111407675 -0.2245731 -0.13700207
000150 b0 e6 41 3d c6 58 0d be bd 41 c1 3d 35 ed fd 3c
       0.04733914 -0.13803396 0.09436367 0.030996898
000160 de 5a c3 3c 6b 6e 21 3e fd 0c af be b4 eb 0e be
       0.02384704 0.15764777 -0.34189597 -0.13957101
000170 71 f1 b3 3c be 4b 68 3e ba 30 c4 be cf 86 49 be
       0.021965714 0.22685143 -0.38318425 -0.19680332
000180 7c e5 9c be 6a 38 c2 be e3 53 c5 3d f7 15 c0 3e
       -0.30643833 -0.37933666 0.09635141 0.37516758
000190 a7 6b 62 bd c1 d5 49 be 09 ff 3c be 6b ad e8 bc
       -0.055278447 -0.19710447 -0.18456663 -0.028403005
0001a0 c4 0f 28 3d 20 db a0 3e 55 ba 1b 3e 43 66 99 be
       0.04103066 0.3141718 0.15207799 -0.29960832
0001b0 35 ad 4b be 98 78 17 3e ab 51 89 be 06 a7 d4 bc
       -0.19890292 0.14792097 -0.2682012 -0.02595855

ConvBase.1.feature.lis.2.X_conv.conv.bias f4 [16]
000000 2e 89 4a bd a0 58 7c 3e b9 8c 16 be 8c 60 1a be
       -0.04944723 0.24643183 -0.14702119 -0.15075892
000010 16 71 21 bd d0 61 4e 3e bc 04 67 3e 30 07 bc 3d
       -0.039414488 0.201545 0.225604 0.091810584
000020 b4 b6 31 3e 03 bd 9e bd 23 2f ad 3e e3 4d b9 3d
       0.17354852 -0.07750895 0.33825025 0.09048059
000030 05 09 63 3c cc 93 ea bd c0 c2 ba 3e d3 7f b8 bd
       0.013857131 -0.11453971 0.36476707 -0.090087555

ConvBase.1.feature.lis.2.Y_conv.conv.weight f4 [16, 1, 1, 7]
000000 ea 6b 17 3d c7 31 7d 3e c2 aa 8e be 92 ca f4 bd
       0.03696815 0.2472602 -0.27864653 -0.119527
000010 14 9c 80 3d 89 6e ad be 66 b6 ac 3e f5 03 80 3d
       0.062797695 -0.33873394 0.3373291 0.06250755
000020 78 3b a7 be 17 15 d2 3d 6a 61 6a bb 38 85 9e be
       -0.3266256 0.10257929 -0.003576363 -0.30961013
000030 68 49 3b 3e e2 3e 03 3e c0 d8 f6 bd ac f0 46 3d
       0.18289721 0.12816957 -0.120530605 0.048569366
000040 7d e1 6d be 1a c0 83 3e d9 ea 9b 3d 0d 1e 21 3e
       -0.23230548 0.257325 0.07613153 0.1573412
000050 eb 3a 41 bc 0a 6d c2 bd d5 5c 95 3e e8 b8 5b 3d
       -0.011793832 -0.09493454 0.29172388 0.053643137
000060 f9 7f b0 3e f1 cd 83 ba 34 5d e6 3d 08 4d a4 3e
       0.34472635 -0.0010055882 0.11248246 0.3209002
000070 bc db 7f 3e e1 35 4a 3e 98 87 58 3e 65 64 05 bd
       0.24986166 0.19747116 0.21145475 -0.032566447
000080 2b 23 07 3e e5 16 02 3e a3 c8 60 3e 6d 5a 14 3e
       0.1319701 0.12704046 0.21951537 0.1448762
000090 c4 0b 81 bd ed 63 c1 3d ee 2d d5 be 9d 71 04 3e
       -0.06301072 0.094428875 -0.41636604 0.12933965
0000a0 78 58 9e 3d c2 04 91 3e e6 ea 37 3e 79 ba 85 be
       0.07731718 0.28323942 0.179607 -0.2611883
0000b0 25 93 b5 be 98 69 54 3e f2 3c c3 3c ca 08 a5 3e
       -0.35463825 0.20743406 0.023832772 0.32233268
0000c0 34 86 a4 bc ac ee 06 be d6 ab b7 bc 90 74 11 3e
       -0.020083524 -0.13176984 -0.022420805 0.14204621
0000d0 d0 72 8b be 35 dc a3 be 20 9d 0f bc 2f e6 d7 3d
       -0.27236032 -0.32003942 -0.008765489 0.10541951
0000e0 19 eb b9 be 9d 1c de 3d f9 7a b4 be b5 e4 86 be
       -0.36312178 0.10845301 -0.3525007 -0.26346365
0000f0 35 d3 8a 3e 6d 44 fe 3b 16 c5 95 bd 92 5d 99 bd
       0.27114263 0.007759622 -0.07312982 -0.0748855
000100 9e b9 bd be 68 b6 3b be 77 dc f5 3d 54 51 08 3e
       -0.37055677 -0.18331301 0.12004941 0.13312274
000110 be 5c 40 be 5f 25 91 be 2f c5 ad bd a9 fb 23 3d
       -0.18785378 -0.28348824 -0.084848754 0.040034924
000120 96 80 9b 3e e6 b7 12 3e 9d ed d6 3d d5 2b 8a 3e
       0.3037154 0.14327964 0.1049454 0.26986566
000130 e9 86 a1 be 8b 10 5a 3e fd 97 82 be 95 76 24 3e
       -0.3154824 0.21295373 -0.25506583 0.1606086
000140 3b f5 1b be 8c 94 31 be 7c e6 c1 be 77 f0 b1 3e
       -0.15230267 -0.17341822 -0.37871158 0.34753773
000150 37 2a 02 3e 79 c4 28 3e 6b 6b 19 bd ff 13 77 be
       0.12711416 0.16481198 -0.037455957 -0.24128722
000160 7e 44 86 3d 8a 90 9a 3e c9 ff 07 be 50 20 a2 bc
       0.065560326 0.301884 -0.13281168 -0.019790798
000170 40 3c b1 ba 2b b0 59 3e eb 62 e8 3d 08 51 ce 3e
       -0.0013521984 0.21258609 0.11346992 0.40296197
000180 ae e4 2f 3e c5 a2 43 be 9d 0b 5e 3e fe ab 3f bd
       0.17177078 -0.1910506 0.21684118 -0.046794884
000190 bc a3 13 be 2e dd bb bd 11 52 8b 3e d1 14 b6 3e
       -0.14417928 -0.09173046 0.2721105 0.35562757
0001a0 d7 cd 63 3e 9d 2c 86 be 73 c9 bd 3d d2 86 b0 be
       0.2224649 -0.26205912 0.09266939 -0.3447786
0001b0 c6 63 82 be 8a 2c bc 3a 5a 34 4d bd bf d1 a7 3e
       -0.25466746 0.0014356535 -0.050098754 0.3277721

ConvBase.1.feature.lis.2.Y_conv.conv.bias f4 [16]
000000 30 b0 b6 3d a7 88 29 3e b3 9c b0 be 44 5a be be
       0.08920324 0.16556035 -0.34494552 -0.37178242
000010 bf de 7c be 21 ab ad bc ce 72 26 3e a7 c4 77 bd
       -0.24694346 -0.021199765 0.16254732 -0.060490277
000020 83 fb c4 3d 6e 8f ae 3e 3c 80 e1 bd 50 1f a3 3e
       0.096182846 0.34093803 -0.11010787 0.31859827
000030 87 cf 91 be a6 37 e1 3d 35 ea ae 3e fc 90 93 3e
       -0.28478643 0.10996942 0.3416306 0.28821552

ConvBase.1.feature.lis.2.pointwise.weight f4 [16, 16, 1, 1]
000000 5c 97 c5 bd d8 82 b6 bd 6f 91 5b 3e 3d 6b 5f 3e
       -0.0964801 -0.08911675 0.21442197 0.21818252
000010 8e 20 71 3e 30 48 84 3b cb e2 e8 3d e0 c9 ea 3d
       0.23547575 0.0040369257 0.11371382 0.11464286
000020 9c f8 63 be f7 b2 14 3c a8 ba 0c 3e 80 f5 43 3e
       -0.22262806 0.009075872 0.13743079 0.1913662
000030 a6 8f 14 3e 44 3b 67 bd b0 33 59 be 72 de 44 be
       0.14507923 -0.056453004 -0.21211123 -0.19225481
000040 86 e7 32 3e c7 ef 08 be 63 99 0d 3e a1 cb c3 3d
       0.17471132 -0.13372718 0.13828044 0.095603235
000050 0e 21 e7 bd 94 88 62 bd 8a 5c b6 3c ef 6d 0c 3c
       -0.112856016 -0.055306032 0.022260923 0.008571132
000060 b4 2b 93 3d ca 2d cc 3c 2c cc 24 be 7d a2 0b bb
       0.0718607 0.024924178 -0.1609351 -0.0021306567
000070 f3 8f 83 bd 60 ae 3d bd d1 be 58 3e 41 1d 1a be
       -0.064239405 -0.046308875 0.2116654 -0.15050222
000080 1c 88 4e be 53 af 2f 3e 9d cc 55 3e d3 4a 7e 3e
       -0.20169109 0.17156725 0.20878835 0.2483323
000090 ed e8 35 be 0f f6 43 3e 38 f7 ee 3d 50 e4 86 bc
       -0.17764635 0.19136833 0.11668247 -0.01646629
0000a0 a5 a9 01 3e f7 e5 e6 3d 10 59 a9 3d 81 f4 93 3d
       0.1266237 0.11274331 0.082689404 0.0722437
0000b0 a9 b4 26 3e 73 66 26 3d 42 0e 45 be c0 23 08 be
       0.16279854 0.040625047 -0.1924372 -0.13294888
0000c0 bc 8b 80 be 66 87 30 be f4 de 08 3c 61 77 23 3d
       -0.2510661 -0.1723915 0.008353937 0.03990877
0000d0 73 7f 23 3d 18 55 24 be 66 5e 74 be ae bd 75 bd
       0.039916467 -0.16048086 -0.23864135 -0.059995346
0000e0 0e 15 6e 3e f0 90 f0 bd 34 f2 0d 3e c9 85 84 be
       0.23250219 -0.11746395 0.13861924 -0.2588332
0000f0 e9 60 fe 3d 19 d7 79 3e f0 a9 97 bd 06 5d 3f be
       0.12420828 0.2439846 -0.0740546 -0.1868783
000100 50 f7 94 bd 33 d1 41 3e e2 88 84 be 94 95 50 3e
       -0.072737336 0.1892746 -0.25885683 0.2036956
000110 07 22 c9 bd ed 62 f4 bd 45 4b 21 3d cd c3 8e bd
       -0.09820943 -0.11932931 0.039378423 -0.0697094
000120 63 ad 5f 3d 9e 9d 2c 3e 30 a4 4a bd ac 37 5a be
       0.054608714 0.16857001 -0.049472988 -0.213103
000130 7d b0 23 be f2 8f d1 bd ed 79 74 bc 02 53 f3 3d
       -0.15985294 -0.102325335 -0.0149216475 0.11881067
000140 26 ab d3 3d ed fc 31 bd 45 0f ce 3d eb 20 e8 bd
       0.10335378 -0.0434541 0.10061506 -0.113344036
000150 ec 3d 5f 3e 6b fa 7d 3e b9 e3 3e 3e 23 41 ac 3d
       0.21800965 0.24802558 0.18641557 0.08410861
000160 6a 90 87 3e 6b 7a af bd a7 e5 73 3e 59 88 3e 3b
       0.26477367 -0.08568271 0.23818074 0.0029072969
000170 85 82 01 3e ba 3e 02 3d 72 76 24 3e 8a 30 6f be
       0.12647445 0.031798102 0.16060808 -0.2335836
000180 82 21 04 3e d1 0b d7 3d d4 06 9f 3c 60 38 da bd
       0.12903407 0.10500301 0.019412436 -0.10655284
000190 8c 9b ff bd 82 63 db bd 4b 64 e0 bd ec 27 36 3e
       -0.1248084 -0.10712339 -0.10956629 0.17788666
0001a0 42 45 85 3e 98 33 3d 3d cc 45 3a be af ce 31 be
       0.26029402 0.04619178 -0.18190688 -0.17364
0001b0 6b cd 79 3e 41 71 93 bd 4d fd 95 3d 22 ad cf 3d
       0.24394767 -0.07199336 0.07323704 0.10140444
0001c0 12 86 10 3e e8 59 e9 3d b6 ef d9 bc 75 30 68 3d
       0.14113644 0.113941014 -0.02660356 0.056686837
0001d0 b9 3f 4a bd 71 f1 b7 bd e1 81 9e 3d 7f 76 0b be
       -0.049377177 -0.08981598 0.07739616 -0.13619421
0001e0 10 96 f3 3d 0d ae d7 3d 90 00 42 3b 82 04 6a 3e
       0.118938565 0.105312444 0.0029602386 0.22853282
0001f0 f1 27 92 3d fa 33 02 bd 52 07 92 bd 9b df d5 3d
       0.071365245 -0.03178785 -0.071303025 0.1044304
000200 2d be 5f be d6 6b 22 3e 6a 3c 1e 3e 13 32 01 3e
       -0.2184989 0.15861449 0.15452734 0.12616758
000210 67 5b 37 be 9e 73 78 3d b3 54 68 bd 1e e5 3f 3e
       -0.17905961 0.060657136 -0.0567214 0.18739745
000220 3e be 81 ba 8c b7 a5 3d 39 02 7a bd 09 62 b5 bd
       -0.0009898616 0.080916494 -0.061037276 -0.08856589
000230 dd e9 4e 3e 50 d8 85 3e de 06 d8 bd bb 1d ea bd
       0.202064 0.26141596 -0.10548185 -0.11431452
000240 a9 bd bc bd ad 60 53 3e 20 de 80 bd 8e c9 15 3e
       -0.09215862 0.20642348 -0.06292367 0.14627668
000250 54 59 a2 3d 52 75 a0 3d 5b 99 80 3e 3c 8e 5c be
       0.07927194 0.07834877 0.25117 -0.21538633
000260 a1 6d ac 3d 79 99 6f 3e 43 89 47 3e d8 97 37 3d
       0.084193476 0.23398389 0.19485955 0.044822544
000270 92 df 16 3e 87 eb c9 bd 4a 3a 0f bc 3b b7 03 3e
       0.14733723 -0.098593764 -0.008741925 0.12862866
000280 b5 be 60 be 0d 42 95 3d ca 62 b0 3c 7c ad 13 3e
       -0.21947749 0.07287989 0.021531481 0.14421648
000290 85 e8 2f 3d 3c be eb bd b9 7a 13 3d 4c 08 77 3d
       0.042946357 -0.11510894 0.03600571 0.060310647
0002a0 af 04 4d 3e 51 0e 3b bd d4 a4 49 3e 1a 5f 6b 3c
       0.20021318 -0.04566795 0.19691783 0.014365936
0002b0 0a 24 72 3e e3 9e 09 be d5 f7 1d be f3 1a 55 3e
       0.2364656 -0.13439517 -0.15426572 0.20811062
0002c0 db 0a 78 be 18 85 12 be 0b ec 82 3e 0f f1 d6 bc
       -0.24222891 -0.14308584 0.25570711 -0.026237993
0002d0 93 b8 48 be 2e d7 5e be aa a7 6a be 8d 2d 57 3c
       -0.1960166 -0.21761772 -0.22915521 0.013133419
0002e0 91 17 0a be 31 66 dd bc 53 02 ad 3c f6 ba 65 3e
       -0.13485552 -0.027026268 0.021119272 0.22434601
0002f0 da 3f 08 be c1 ae c5 3d 39 65 d4 3c 1f 34 c7 3d
       -0.13305607 0.09652472 0.025927173 0.09726738
000300 ba 77 d0 3c 30 de 6a 3b a8 f2 18 3d 90 15 7d be
       0.025447715 0.0035838 0.03734079 -0.24715257
000310 da f8 d5 3c 6e cc 20 be fe 96 c9 3d 86 1e 38 be
       0.026119638 -0.15702984 0.098432526 -0.17980394
000320 f7 fb 88 3d be 96 df bd 3c 8f 13 be 3e a8 32 3e
       0.066886835 -0.10917424 -0.14410108 0.17446992
000330 b5 55 ae bc 21 65 91 bd 35 85 30 3d ab 02 0c 3d
       -0.021281103 -0.07099367 0.043095786 0.034182232
000340 b1 a4 48 be 35 fa fa 3c e3 18 1b be 92 b9 88 be
       -0.19594075 0.030636886 -0.15146212 -0.2670408
000350 32 65 50 bd 38 78 60 bd 8a db 95 3c cc a7 ff 3d
       -0.050877757 -0.05480215 0.018293161 0.124831766
000360 9e 44 6e 3e 44 f8 4d 3e 13 b0 22 3e 61 33 65 be
       0.23268363 0.20114237 0.1588748 -0.22382881
000370 05 d0 84 3e 5d d8 30 be 42 5b d5 3d 46 bc 84 be
       0.25939956 -0.17270036 0.10417797 -0.2592489
000380 76 b5 0c 3d c6 bf e4 bd ff ac 68 3e a6 55 49 be
       0.034352742 -0.111693904 0.22722243 -0.19661579
000390 29 40 7f bc 5f 07 1e 3e 3c cf 01 3c 2b c6 2c be
       -0.015579262 0.154325 0.007922944 -0.1687247
0003a0 9f f6 0a bb c7 e6 4b be 3d 70 1c be d2 59 8c bd
       -0.0021204127 -0.19912253 -0.1527719 -0.06853069
0003b0 5a d8 4e be 35 d3 0c be 4f 7c 14 3d 9b dc c5 3d
       -0.20199719 -0.13752444 0.036251362 0.09661218
0003c0 82 3d 83 3e 76 7e 5c 3d d8 b9 fa bd b6 da 7b be
       0.25632864 0.05383154 -0.12242478 -0.2459515
0003d0 31 fe 99 bd b8 51 2c 3e b7 c3 ec bc b4 ae 7f 3d
       -0.07519186 0.16828048 -0.028901918 0.06242247
0003e0 d0 7b 87 bd ba b9 54 be 4f 7e 89 be ea 3e ec 3c
       -0.06615412 -0.20773974 -0.26854178 0.028838594
0003f0 c4 b3 0f be 52 79 c3 bd 60 9c 6a 3e e9 5e 26 3d
       -0.14033419 -0.095446244 0.22911215 0.040617857

ConvBase.1.feature.lis.2.pointwise.bias f4 [16]
000000 8b 13 45 3d 94 65 86 be 28 d6 7b bd 39 0d 19 3d
       0.04811434 -0.26249373 -0.061483532 0.037366126
000010 70 dc 56 3c c1 90 e6 bd 0b c2 2f be 49 07 33 3e
       0.01311408 -0.11258078 -0.17163865 0.17483248
000020 9f 7c 3f 3e 79 a1 86 3c e7 b6 cc bb b8 73 f7 bc
       0.18699883 0.016434418 -0.0062473896 -0.030206546
000030 71 74 f3 bd 0f 0d eb 3d c4 99 48 be 1e 93 39 bd
       -0.11887444 0.114771 -0.19589907 -0.045306318

ConvBase.1.feature.lis.3.X_conv.conv.weight f4 [16, 1, 9, 1]
000000 9f 32 93 bd 49 13 44 3d 83 4a a4 3e ac 5a 8f bd
       -0.071873896 0.047869954 0.32088098 -0.06999716
000010 56 fd 55 be c5 7b 74 3e e0 37 a3 bd c3 82 46 be
       -0.20897421 0.2387534 -0.07969642 -0.19385819
000020 27 ac 6c 3e 14 73 1a 3e c4 5f 86 3e 80 61 6a be
       0.23112546 0.15082961 0.26244938 -0.22888756
000030 3e 7c 92 3d e7 95 16 be de 11 d6 3d 48 fe 9a be
       0.071526036 -0.1470562 0.10452627 -0.30272126
000040 6e e8 fc bd e0 d9 22 bd 5b 12 87 3e c8 ed 86 3e
       -0.1234902 -0.039758563 0.26381192 0.26353288
000050 4c b3 97 3e dc 02 83 3b e0 09 8e 3d c1 0c 7b 3e
       0.2962898 0.0039981436 0.06935477 0.24516584
000060 61 eb 9f 3e 08 79 2b 3e c5 fc 68 be 33 49 51 be
       0.31234267 0.16745389 -0.22752674 -0.2043808
000070 44 47 83 bd 8e 5c a5 be c9 90 02 3e 05 4e 97 3e
       -0.06410077 -0.32297176 0.12750544 0.29551712
000080 c0 cb 62 3d 43 0e 13 be 39 b3 a8 3e 10 87 2c 3d
       0.055370092 -0.14360909 0.32949236 0.042120993
000090 d6 fc ef 3d 78 79 1a be 4f 1e ad 3e e6 86 04 be
       0.117181465 -0.15085399 0.33812186 -0.12942085
0000a0 e6 f3 a0 3e 4a bc 88 3e e5 6f cb bd 81 b6 fb 3d
       0.3143608 0.26706153 -0.099334516 0.12290669
0000b0 f5 cf 28 be b4 65 82 3e eb 51 89 3e 46 ed 98 3e
       -0.1648558 0.25468218 0.2682031 0.29868525
0000c0 64 20 02 be 79 57 16 3e 02 db 14 3d 39 fa 21 be
       -0.12707669 0.14681806 0.036341675 -0.15818109
0000d0 17 09 a0 be a0 c8 76 3e d7 4a 09 be 89 8c 51 3e
       -0.31256935 0.2409997 -0.13407455 0.20463766
0000e0 11 1f 45 3e 4a be 0a be 81 d6 44 be 7a 74 50 3e
       0.19250132 -0.13549152 -0.19222452 0.20356932
0000f0 29 0c 8b 3e d3 51 9f 3e b9 1c 11 be 20 fd 45 be
       0.27157715 0.31117114 -0.14171113 -0.19334841
000100 9c 4d a6 3e 0d 3e 44 3e 28 b3 40 3e 3b 80 83 3e
       0.32481086 0.19164295 0.18818343 0.2568377
000110 3b 94 24 3e cc be ee 3d de 3f b5 be 16 13 57 3e
       0.1607217 0.11657485 -0.3540029 0.21003374
000120 7e 25 07 be fb d8 bb 3d 61 04 28 bd 87 37 18 be
       -0.13197896 0.09172245 -0.0410198 -0.14864932
000130 f1 cf 7e 3e ec 4a 8b be 2b bc ed bc 9a bb 05 be
       0.24884011 -0.27205598 -0.02902039 -0.13059846
000140 7b 04 3b be d0 c3 8b be d5 7e 89 be 8a 40 7c be
       -0.18263428 -0.2729783 -0.26854578 -0.24633995
000150 fa 71 20 bd ee bb 5b 3e 05 cf c1 3c a4 73 5d be
       -0.039171197 0.21458408 0.023658285 -0.21626145
000160 9f f3 9e be 91 b5 31 3e 71 62 9f 3d ad db 09 be
       -0.31045243 0.17354418 0.07782448 -0.13462706
000170 66 9b 8a 3e cd b8 81 3e d0 e7 9c be 75 05 aa bd
       0.27071685 0.25336304 -0.3064561 -0.08301822
000180 1d ab 22 be 00 6f 95 3d b6 00 a4 3e f0 67 3d 3e
       -0.15885587 0.07296562 0.32031792 0.1849668
000190 ac 3f 2e 3e 20 e1 3a be c4 a3 45 bd 2d 81 8b 3e
       0.17016476 -0.18249941 -0.048251882 0.2724699
0001a0 c4 da bc be 0a a4 7f be 7d bc 36 be 0c b4 a1 3c
       -0.36885655 -0.2496492 -0.1784534 0.019739173
0001b0 21 d3 27 be 65 4b d9 bd b5 f5 47 3d 81 ac 88 bd
       -0.16389133 -0.106100835 0.04881831 -0.066735275
0001c0 ef fa 2d be a8 82 7b be a2 27 2c 3d 17 1e 6b be
       -0.16990255 -0.2456156 0.042029984 -0.22960697
0001d0 eb a3 34 3e c7 1b 9e 3e 15 d2 67 be 2c 92 2f be
       0.17640655 0.30880567 -0.22638734 -0.17145604
0001e0 9a 9e 9b 3c df 87 b2 bd 19 62 f4 bd c3 38 8b 3d
       0.018996526 -0.087173216 -0.11932773 0.06797936
0001f0 de 05 4d 3e 4f c1 04 3e c3 75 8d 3c e4 ac 72 be
       0.2002177 0.12964366 0.017268067 -0.23698765
000200 c2 40 8d be e6 9c 3c bd 43 13 93 3d ce 57 ff 3c
       -0.2758847 -0.046048068 0.07181408 0.031169798
000210 ab c3 94 3e 2f 6a ab be b2 50 83 be 95 c4 82 3e
       0.29055533 -0.3347945 -0.25647503 0.25540605
000220 bd 4f 73 be 56 5b bd 3c f4 dc c8 3d 2b 92 51 be
       -0.23760886 0.023114841 0.098077685 -0.20465915
000230 30 f0 0e bc 35 7b 8a 3e 8c 4b 32 be bd 2e 88 3e
       -0.008724257 0.27047125 -0.17411631 0.26598158

ConvBase.1.feature.lis.3.X_conv.conv.bias f4 [16]
000000 40 3d a3 bd e2 79 7d be 8b 0e 53 3e 2a 6c 9b 3d
       -0.07970667 -0.24753526 0.20611016 0.0758899
000010 b9 6b d6 3d 0b c3 af 3d a5 4a 92 be e0 eb 66 3e
       0.10469765 0.08582123 -0.28572574 0.22550917
000020 99 41 6d 3e c6 29 15 3e 46 bc 88 3e d1 ca 22 3e
       0.23169555 0.14566717 0.2670614 0.15897681
000030 c8 d1 95 3e de a6 b8 3d 24 9b 5e bd 87 1a 8e bc
       0.29261613 0.090162024 -0.054347172 -0.017346634

ConvBase.1.feature.lis.3.Y_conv.conv.weight f4 [16, 1, 1, 9]
000000 b5 a4 ac be 3e 8f 86 bd 94 95 a3 bc 58 c5 a9 be
       -0.33719411 -0.0657029 -0.019968785 -0.33158374
000010 e5 5f 23 bd 15 03 98 3e 04 5d 3d 3e 36 3d 17 be
       -0.039886374 0.2968985 0.18492514 -0.14769444
000020 b6 6d 10 be 98 8a dd 3d dc 57 c0 bd cd 13 03 be
       -0.14104351 0.1081745 -0.09391758 -0.12800522
000030 06 4a b9 3c 03 dd 3a be fd 0f 2d be 28 90 80 3e
       0.022618305 -0.18248372 -0.1690063 0.25109982
000040 a4 58 b2 3c 36 e6 50 be 6c 51 76 bd 3f 95 40 3e
       0.021770783 -0.20400319 -0.060136244 0.18806933
000050 90 08 a3 3e 2a a3 83 be a8 85 01 3e ce 79 16 3e
       0.3184247 -0.25710422 0.12648642 0.14694902
000060 0c d2 2d be f4 b4 d2 3d f2 ec 58 3e 17 f3 85 3e
       -0.16974658 0.1028842 0.21184137 0.26162025
000070 6f e5 36 3d 55 b8 10 be 0c 6a 0e be d8 b7 43 3e
       0.0446524 -0.14132817 -0.13907641 0.191131
000080 7d fa 81 be fe 00 7f 3e 81 c0 ab be 53 a8 75 3d
       -0.2538642 0.24902722 -0.33545306 0.05997498
000090 39 28 3d 3e d3 47 43 be d5 e2 05 be df 33 17 3d
       0.18472375 -0.19070368 -0.13074811 0.036914703
0000a0 2f 50 03 be 90 64 c5 bc 75 36 30 bd a5 01 b2 bc
       -0.12823556 -0.024095803 -0.043020684 -0.0217293
0000b0 7c fe a9 bd 9f 18 81 3e 49 f0 db bd 72 9e d4 3b
       -0.08300492 0.25214097 -0.1073919 0.0064886147
0000c0 dd 40 31 3e f3 9e 13 3d 51 47 1d bd ef e4 8b 3e
       0.173099 0.036040258 -0.03839809 0.273231
0000d0 aa 93 75 3e b4 57 9e be ec 8d 86 be e4 8d 12 3e
       0.2398211 -0.30926287 -0.26280153 0.1431194
0000e0 61 34 a3 3d b3 18 a7 bd ae 5f 8b 3e 29 c5 01 3e
       0.07968975 -0.08159008 0.27221435 0.12672867
0000f0 2e 3d 99 be f5 11 2f 3e 64 c0 51 be 52 d9 3a be
       -0.2992949 0.17096694 -0.20483547 -0.18246964
000100 ff bc 3b 3e ea 5d 7d be c9 3e 37 3e 36 03 99 3e
       0.18333815 -0.24742857 0.17895044 0.29885262
000110 6d 5d 92 be f4 ec 21 be 56 f3 a7 3e d4 e7 66 be
       -0.28586903 -0.15813047 0.32802838 -0.22549373
000120 84 45 87 3e 66 84 1e be ce 9a 3e 3e 40 c9 83 bd
       0.26420224 -0.15480193 0.18613741 -0.0643487
000130 aa 93 64 be c3 f5 9a 3c 9b fa f2 3d f5 ce 89 3c
       -0.22321954 0.018916016 0.118642054 0.016822318
000140 35 64 a6 be 55 f8 07 3e bc 36 29 3e d8 3b 86 bd
       -0.32498327 0.13278325 0.16524786 -0.06554383
000150 0f f8 0e be d5 34 30 3e 7c 3a 34 be a4 0e 1d 3e
       -0.13961814 0.17207654 -0.17600435 0.15337616
000160 a5 9d 1c be 60 f7 8c 3d 2c de 62 3b 44 28 16 3e
       -0.15294512 0.068831205 0.0034617288 0.14663798
000170 ed 55 97 bc e2 75 8e 3e 31 e0 3f 3e 43 8c fd 3d
       -0.01847359 0.27824312 0.18737866 0.123802684
000180 fe e5 0e be 46 6a 99 3d 65 d4 ac 3e a4 c0 21 3e
       -0.13954923 0.07490973 0.33755794 0.15796143
000190 be de b4 bd aa 5e 05 be 32 e9 89 bc de ef 5b 3e
       -0.08831547 -0.13024393 -0.016834829 0.21478221
0001a0 e9 5f 3e 3e 61 41 9c be 11 3f 9d 3e 68 4b db 3c
       0.18591274 -0.3051863 0.30712178 0.026769355
0001b0 56 f1 49 bd 8c 46 98 3e 2e 5b 40 3e c9 bf b1 bd
       -0.04930242 0.29741323 0.18784782 -0.08679158
0001c0 a2 42 1c 3e 05 72 84 3e 13 dd 17 be e3 29 90 bd
       0.15259793 0.2586824 -0.14830427 -0.07039239
0001d0 2e 89 16 3d 29 8c 85 3e a4 ac c3 3d c5 b2 48 3e
       0.03675192 0.26083496 0.09554413 0.19599445
0001e0 f2 30 79 bd 16 a6 08 3e 52 5f c4 3c 4d 1e 56 bd
       -0.060837694 0.13344607 0.023971234 -0.05227499
0001f0 c4 17 fc 3d c6 67 00 3e 4c 4b 0a be 2e d8 00 be
       0.123092204 0.12539586 -0.13505286 -0.12582466
000200 1a e9 3e ba 40 0e 71 be f0 65 64 3e 2a 0a 60 3e
       -0.00072826596 -0.23540592 0.22304511 0.21878877
000210 15 05 80 3e 90 18 41 bd cf 53 9a 3d b4 2a 4f 3e
       0.25003877 -0.047142565 0.075355165 0.20231134
000220 13 01 f8 bd 5f fa 1c be 1b 76 2f 3e bf e8 99 3e
       -0.1210958 -0.15329884 0.17134897 0.30060384
000230 eb e4 45 be 46 8c 61 be 13 39 53 bd 23 10 5f be
       -0.19325607 -0.22026166 -0.051568102 -0.217835

ConvBase.1.feature.lis.3.Y_conv.conv.bias f4 [16]
000000 b7 c9 b4 3d 6b 52 25 be 86 d7 1a 3e 93 2e d2 bd
       0.088275366 -0.16144721 0.15121278 -0.102627896
000010 27 c2 8d be 2f 74 01 be 85 ee 81 3d 33 f6 65 be
       -0.2768719 -0.12641977 0.06344322 -0.22457199
000020 2c 47 ff 3d 14 f4 da bd 1c 2e 75 3d 07 60 1c 3e
       0.12464747 -0.106910855 0.059858426 0.15271007
000030 ee 49 e9 3d dc 41 dd bd 6f bc 16 3e fb 47 47 3b
       0.11391054 -0.10803577 0.14720319 0.0030407894

ConvBase.1.feature.lis.3.pointwise.weight f4 [16, 16, 1, 1]
000000 a7 41 cc 3d 98 d6 93 bb f8 83 3e 3d 34 81 89 bd
       0.0997346 -0.0045116656 0.046512574 -0.06714097
000010 13 82 47 3d 77 6e 84 bb f6 54 8c bd cc ff a6 3d
       0.048708033 -0.0040414887 -0.068521425 0.08154258
000020 b2 c1 cb 3d 79 4c 06 3d d1 34 bf 3d 6a 92 db 3c
       0.09949054 0.032787774 0.09336246 0.026803214
000030 e7 33 49 be bd c3 03 be bc 4b 10 bd 31 cb d1 3d
       -0.19648705 -0.12867637 -0.035228476 0.10243834
000040 5e 99 82 3e f9 07 96 bd a3 87 9f bd 7c 80 04 3e
       0.25507635 -0.073257394 -0.077895425 0.12939638
000050 1a ca ba 3d f9 97 82 3d 38 e0 71 3e 2d 68 1b 3e
       0.09120579 0.06376643 0.23620689 0.15176459
000060 58 e3 27 be c3 9a d1 bd 11 1d 83 3d 93 ba 8b 3e
       -0.16395319 -0.102345966 0.06402028 0.27290782
000070 a4 90 19 3c 88 0b 4d 3e 5a e1 9d 3d f4 d7 a2 bd
       0.009372864 0.2002393 0.07708998 -0.07951346
000080 59 ab cd 3d 82 e5 a2 bd bb 18 7c be e0 81 ea 3d
       0.100424476 -0.079539314 -0.24618809 0.11450553
000090 99 38 43 be 1c 32 cd 3d 0e 9a 2f be 4a ae 43 3e
       -0.19064559 0.10019323 -0.17148611 0.19109455
0000a0 f6 bf ab bd e5 56 03 bc 8b c9 2f bd 53 ad 80 be
       -0.08386223 -0.008016323 -0.042916816 -0.25132236
0000b0 b0 26 09 3d 75 cc ae 3c 7a 78 2c be 14 44 34 be
       0.03348416 0.021337727 -0.16842833 -0.17604095
0000c0 5d 70 c3 3d 92 65 dc bd 9f 5c 3b be fb b0 cd bd
       0.09542916 -0.107615605 -0.18297051 -0.10043522
0000d0 92 1a 0b be 6e 46 1b 3d f7 a7 1e be 0d 2d 49 be
       -0.13584355 0.037908964 -0.15493761 -0.19646092
0000e0 d4 47 be 3d 15 05 65 bc ae e5 21 3e e4 39 3c 3e
       0.09291044 -0.013978262 0.15810272 0.18381459
0000f0 dd 69 ba 3b c8 5c 1c be 0b b1 66 3d 5c c5 04 3e
       0.0056888894 -0.15269768 0.056321185 0.12965912
000100 d9 79 31 be 5e cd 3a 3e 17 14 7a 3d ea 81 7a 3c
       -0.17331637 0.18242404 0.061054315 0.015289763
000110 74 d3 24 bd 75 b1 e1 bd 75 0d 3c 3e 7d 19 5f 3e
       -0.04024072 -0.11020175 0.18364508 0.21787067
000120 76 38 92 bc 59 c6 4d bd 0a 02 11 3e fb 42 b8 3d
       -0.017849188 -0.050237987 0.14160934 0.089971505
000130 a0 53 d6 3d 34 22 b7 bd 3f a4 39 be 60 0b 69 be
       0.10465169 -0.089420706 -0.18129061 -0.22758245
000140 27 05 6e be e1 f7 7a 3c 53 a5 29 be a3 8e c0 bd
       -0.23244153 0.015317888 -0.16566972 -0.09402206
000150 38 1a 4d 3e 37 a8 0e bd 95 e5 64 be 7c ed 85 bc
       0.20029533 -0.03482839 -0.22353204 -0.016348593
000160 27 a7 9c bd f3 eb 62 3c fd 67 c1 bd 7a df c9 bd
       -0.07649069 0.0138502 -0.09443662 -0.09857078
000170 24 32 37 be 2c a9 6d be 47 ea e6 bd 5d bf 15 bd
       -0.17890221 -0.23209065 -0.112751536 -0.03655945
000180 4c 66 c8 bc 80 b5 de bd 87 26 2a 3e d9 ac 96 bd
       -0.024462841 -0.10874462 0.1661626 -0.07357187
000190 63 12 1e 3e 51 da 3c 3e fe 05 37 3e cf 86 42 be
       0.15436701 0.18442656 0.1787338 -0.18996738
0001a0 1e 8e 6b be 1c c3 d3 bc 91 04 11 3e bd 0d 4c bd
       -0.23003432 -0.025849871 0.14161898 -0.04981779
0001b0 da 67 7d 3e e9 a1 36 be b6 96 4e 3e 37 bc 24 bc
       0.24746647 -0.17835201 0.20174679 -0.01005464
0001c0 aa 9c 2c 3e 32 c5 5b be b2 ed d1 3b 7d be dc bd
       0.16856638 -0.21461943 0.0064065093 -0.1077852
0001d0 00 50 eb bc e4 c4 fb bd 32 a4 e5 3d 27 dd 27 be
       -0.02872467 -0.12293413 0.112129584 -0.16392957
0001e0 28 92 28 be 86 1b ea 3b 7c 13 30 be e5 01 e6 3d
       -0.16462004 0.0071443943 -0.17194933 0.1123083
0001f0 41 5a 96 bd 23 23 d1 bd c5 a5 24 3e 8f 61 25 3e
       -0.07341433 -0.1021178 0.16078861 0.16150497
000200 e6 52 27 be 37 f1 d4 bc a9 77 82 3e 04 62 e6 3c
       -0.16340217 -0.025993926 0.25481918 0.02812291
000210 0e c5 11 be 99 a5 d1 bd f7 40 21 bd 48 1f 22 3e
       -0.14235327 -0.10236663 -0.039368596 0.15832245
000220 d4 14 76 be 5c a3 84 3d 57 c0 a1 bc c0 46 7f be
       -0.24031383 0.06476471 -0.019745035 -0.24929333
000230 6a 43 91 3c a1 27 3f 3e 9c 18 bf 3d fe 57 ca bd
       0.01773234 0.18667461 0.09330866 -0.098800644
000240 09 b1 32 3d c2 93 ec bd 67 1d 3a bc 33 b0 aa bc
       0.043625865 -0.1155162 -0.011359549 -0.020835971
000250 dc ad 85 3e f2 ad 25 be 10 2a 0b be 65 cf f7 3c
       0.26109207 -0.16179636 -0.13590264 0.03025026
000260 92 cd a3 3b 8b 30 f2 bc 29 27 4e 3e 7f 47 4c 3e
       0.004998871 -0.029564163 0.20132126 0.19949149
000270 b7 4a 20 3c 53 ec 82 be bf 3a 67 3e 88 5c f6 3d
       0.009783438 -0.25570926 0.22581004 0.12029368
000280 3c 32 02 3e 3f 5b 7b bd 74 57 13 3e 72 8c ca 3d
       0.12714475 -0.061366316 0.1438883 0.09890069
000290 af 9d 1e 3d 31 9c 48 3d 34 29 34 3e cd 68 34 be
       0.038724598 0.04897708 0.17593843 -0.17618103
0002a0 1a 05 cb bd 3c 23 37 3d ac b6 4d 3e ca 52 6f 3d
       -0.099130824 0.044711336 0.20089215 0.058428563
0002b0 40 0f a3 bd 20 e2 d7 3c 21 11 dd bc 81 ed 22 3e
       -0.07961893 0.026352942 -0.026985707 0.15910913
0002c0 83 82 1d 3e ba 17 86 3d e7 23 4d 3d 0a 0e 1a bd
       0.15381818 0.06547494 0.050083067 -0.037611045
0002d0 55 a1 78 bd 37 1f 24 3e f5 c9 22 be bf d8 76 be
       -0.060700733 0.16027533 -0.15897353 -0.2410612
0002e0 ad 33 31 3e 5d a4 0b be 71 aa 7c 3e fe f9 aa bd
       0.17304869 -0.13636918 0.24674393 -0.083484635
0002f0 f2 93 82 bc 9e a0 5e 3e ca 43 2d 3e 22 b4 43 3e
       -0.015939686 0.21740958 0.1692039 0.19111684
000300 39 24 78 be 30 80 51 3d a7 e0 5c be 21 db 86 3d
       -0.24232568 0.05114764 -0.21570073 0.06584764
000310 b8 1d b9 3d 9b eb 54 3e 80 ae 49 be d7 f3 28 3e
       0.090388715 0.20793001 -0.19695473 0.16499268
000320 9d f4 46 3e 79 47 b7 3b a8 01 14 bd 23 77 49 3e
       0.1942925 0.005593237 -0.036134392 0.19674353
000330 f9 22 06 bd 3f 0c 6d be c6 fa 3e 3e 0f d8 d8 3c
       -0.032748196 -0.23149203 0.1865035 0.026470212
000340 ab 66 8f 3d 74 ab f4 3d 39 18 0a 3e 98 10 d8 3d
       0.07002004 0.119467646 0.13485803 0.1055004
000350 8d e3 2e 3e b6 47 14 be 82 87 bd bd 27 cd c2 bd
       0.17078991 -0.1448048 -0.09254362 -0.09511786
000360 90 36 e9 3d 2b 59 34 be b9 ab b7 3d b0 d4 35 be
       0.1138736 -0.1761214 0.089683 -0.17756915
000370 ae cd 93 bd 47 92 8c bb 14 ab 0d bd b4 19 e5 bd
       -0.07216965 -0.0042898986 -0.03458698 -0.11186543
000380 c4 85 c9 3d 4f 51 b2 3c d9 c4 64 3e ac 78 45 3e
       0.09839967 0.021767287 0.22340716 0.19284314
000390 b5 06 30 3e ce 7d 5a be 68 fa b2 3d 66 33 48 3e
       0.17190059 -0.21337053 0.087391675 0.19550857
0003a0 0c 18 71 ba 8e 4c 46 be e3 4e 7b 3e 14 cf 82 3c
       -0.00091970037 -0.19365141 0.24541812 0.015967883
0003b0 15 f7 01 be 75 0a 29 3d c5 b5 78 3e 2e fb 0b 3e
       -0.1269191 0.04126974 0.2428809 0.13670036
0003c0 a3 9e 76 bc e7 19 06 3e 05 ab 0d 3e ec 73 4c 3d
       -0.01505247 0.13095818 0.1383477 0.04991524
0003d0 04 ac 62 be e0 f7 53 be 0f de 23 be ec 59 49 be
       -0.22135931 -0.20700026 -0.16002677 -0.19663209
0003e0 a6 2f 56 3c 20 30 23 bd 64 8b 10 3e 11 e6 82 3a
       0.013072884 -0.039840817 0.14115673 0.0009986778
0003f0 89 69 01 be 61 86 54 be 77 db df 3c bb 24 4b 3e
       -0.12637915 -0.20754386 0.027326329 0.1983823

ConvBase.1.feature.lis.3.pointwise.bias f4 [16]
000000 90 16 83 3e 53 06 e6 3d f7 1b f7 bd c9 e3 40 be
       0.2560315 0.11231675 -0.12065881 -0.18836893
000010 ea 2e cd bb 53 49 39 3e 97 44 25 3e 56 d8 5c 3e
       -0.006261696 0.18094377 0.16139446 0.215669
000020 4f cb 21 be 25 b5 cf bd c5 93 1b bc b0 d5 29 3d
       -0.15800212 -0.101419725 -0.00949568 0.041463554
000030 51 5d e2 bd 75 32 22 bd 17 aa a9 3d ab 82 51 3e
       -0.11052955 -0.0395989 0.08284395 0.20460002

ConvBase.1.feature.bn.weight f4 [16]
000000 ea f2 7a 3f 6f e4 5f 3f ad 30 f6 3e 5f 8c 07 3e
       0.9802691 0.87457937 0.48084012 0.13237141
000010 26 7c 2b 3f 7d 28 1a 3f b5 0d 64 3f 2b 7d 03 3f
       0.6698631 0.6021803 0.89083415 0.51362866
000020 09 e7 72 3f 08 99 25 3f f9 8f 7b 3e 4d 33 07 3f
       0.9488378 0.6468663 0.2456664 0.52812654
000030 53 f2 4e 3f 20 3e 0f 3e 02 b8 5b 3e 7b 44 95 3e
       0.8083851 0.13988543 0.21456912 0.2915381

ConvBase.1.feature.bn.bias f4 [16]
000000 a3 52 b3 bb 49 42 61 3c c8 02 2e bc 9a f9 1f 3d
       -0.0054724975 0.013748714 -0.01062078 0.039056398
000010 15 1b 5d ba 84 9b 83 bc 86 fc 21 3c d6 8e 02 3d
       -0.00084345165 -0.016065367 0.009886866 0.0318745
000020 96 88 cf bc 8f d8 bf 3c be e4 c5 3c e1 10 88 3c
       -0.025333684 0.023418693 0.024156924 0.016609611
000030 a8 55 16 3d 28 c6 da 3c 1b 31 3c 3d b9 96 d1 3a
       0.036702782 0.026705816 0.045945268 0.0015990353

ConvBase.1.feature.bn.running_mean f4 [16]
000000 ab a9 76 3e fb bc 0b be 46 82 aa 3c f2 4c c2 be
       0.2408816 -0.13646309 0.020814072 -0.3794933
000010 3a 07 d3 39 cf 43 a1 be d8 e5 05 be c2 a3 c0 3e
       0.0004025044 -0.31497046 -0.1307596 0.37624937
000020 f5 74 aa be 03 d3 cb 3d 44 d3 be bd d7 f9 dd bc
       -0.33292356 0.09952357 -0.093176395 -0.027096672
000030 f6 b4 6c bd b8 ef 36 3d 20 8d 3c 3b fd 33 0e 3d
       -0.057789765 0.044662207 0.002877064 0.03471755

ConvBase.1.feature.bn.running_var f4 [16]
000000 bd 54 16 3b 2f b2 fa 3a a9 a8 4f 3b 35 d1 36 3b
       0.0022938692 0.0019126589 0.0031686223 0.0027895693
000010 f6 5f 08 3b 06 e8 8d 3b 2a 60 73 3b 41 dc 79 3a
       0.002080915 0.004330638 0.0037136176 0.00095314166
000020 7a b6 62 3b 57 34 11 3b 31 41 ea 3a 25 70 3e 3b
       0.0034593628 0.002215644 0.0017872212 0.0029058543
000030 eb a4 1f 3b 75 af dd 3a 6e b2 2f 3b 1a 92 21 3b
       0.0024359773 0.0016913252 0.0026809233 0.0024653734

ConvBase.1.bn.weight f4 [64]
000000 62 59 df 3e eb 2c cd 3d e8 ca f3 3d 86 4f 9d 3d
       0.4362288 0.10018333 0.11903936 0.076811835
000010 7c e4 bd 3e be 5f 42 3f a8 12 66 3f b8 d9 aa bb
       0.37088382 0.7592734 0.8987222 -0.0052139424
000020 52 19 31 3f 14 a5 64 3f 08 33 83 3e d3 e3 0d 3f
       0.6917926 0.8931439 0.2562487 0.5542576
000030 fd df 3b 3d d4 72 02 3e ff 50 48 3f b2 e2 42 3f
       0.04586791 0.12739116 0.7824859 0.7612716
000040 33 e9 47 3f a5 37 4f 3f 00 76 4b 3f 97 10 d0 3e
       0.7809021 0.8094428 0.7947693 0.40637657
000050 32 0e b5 3e 01 84 55 3f ff 31 19 3f dd cd 88 3e
       0.35362393 0.83404547 0.59841913 0.2671956
000060 5e d9 5a 3f b7 7f 1f 3f 9b 58 fb 3e bf de 13 3f
       0.85487926 0.6230425 0.49091038 0.5776176
000070 40 e4 4f 3f 80 6c c2 3e 92 12 99 3e 24 18 6f 3f
       0.81207657 0.37973404 0.2989698 0.9339621
000080 a3 8a 31 3f d2 e5 c8 3e e1 d9 05 3e 83 5c 70 3f
       0.6935217 0.3923784 0.13071395 0.9389116
000090 d1 b9 92 3e 90 f5 50 3f b8 c3 97 3e 16 81 eb 3e
       0.28657392 0.816247 0.2964151 0.45996922
0000a0 57 99 b6 3e 68 09 3b 3f e0 2d a0 3e 2e 60 04 3e
       0.35663864 0.7306123 0.31285 0.12927315
0000b0 e7 c9 94 3d de c1 e6 3e 15 70 3d 3e 3f 32 4d 3f
       0.07265072 0.45069784 0.18499787 0.80154794
0000c0 cd 11 40 3f f0 7c fc 3e a4 65 8c 3e b4 11 2e 3f
       0.7502716 0.4931407 0.27421296 0.6799576
0000d0 ef 34 a4 3e 21 2f 7c 3f 8f e8 83 bb f1 5f 6e 3f
       0.32071635 0.98509413 -0.004025526 0.93115145
0000e0 cb de 70 3f c4 ed 61 3e bd c0 98 3e 89 07 2b 3f
       0.94089955 0.22063357 0.29834548 0.6680837
0000f0 fc d6 ec 3e 97 39 14 3e 60 20 5c 3f 16 e5 35 3f
       0.4625777 0.14475094 0.859869 0.7105268

ConvBase.1.bn.bias f4 [64]
000000 00 d7 b9 3c 7b a6 5d 3c df 1b 54 3c 1f fc 3c 3c
       0.022685528 0.013528462 0.012946098 0.01153472
000010 3c 24 f6 bc c2 d6 db bc d1 10 24 3d 8a 32 58 bc
       -0.030046575 -0.026835803 0.0400551 -0.013195643
000020 6e 1e a0 3c 87 40 93 3b 3f 67 e4 ba 7c b2 90 bc
       0.01954576 0.0044937762 -0.0017425789 -0.017663233
000030 53 88 db bb 7b a1 c5 3b 4b 74 2b bd b3 de 26 3d
       -0.0066996007 0.006031213 -0.041858952 0.040739726
000040 3c 53 68 bb 72 10 c1 bc 5b 89 65 bc a6 fb 21 bd
       -0.0035450002 -0.023567412 -0.014009799 -0.03954663
000050 9b ba b2 3c bb 22 2f bc 16 9b ae 3c 06 fe d1 ba
       0.021817496 -0.010689433 0.021314185 -0.001602114
000060 3c 72 db bc b8 ce 4c 3c aa 32 e5 bc a7 e7 b4 3c
       -0.02678787 0.012500457 -0.02797826 0.022083117
000070 1c c8 e8 3a 5a 69 f4 ba 46 a8 20 3c 20 27 e7 bb
       0.0017759833 -0.001864712 0.0098057445 -0.0070542246
000080 4a 31 0e bc 4d 5a cc bc d9 06 ee bc 92 a2 3f 3d
       -0.008678744 -0.024945403 -0.029056 0.0467859
000090 2f 25 90 bb 1b 23 4c 3c b8 4b f0 39 8f 1a 9c bb
       -0.004398964 0.012459542 0.00045832782 -0.004763908
0000a0 5f 9e a1 3c b1 6d 38 bd 51 5d c6 3c 19 48 0b bc
       0.019728838 -0.045026485 0.024214419 -0.008501076
0000b0 4c 7f 02 3d 9a b8 c2 3c c6 ff c3 bb 23 98 f5 3c
       0.03185968 0.023769666 -0.0059814183 0.029979771
0000c0 6c 7d 13 bc 94 79 02 3d 99 e1 2b 3c 14 7b cf 3c
       -0.009002071 0.031854227 0.010490798 0.025327243
0000d0 9d a8 a2 3c 21 65 12 bd 3a 03 8d bc 8d 38 1b 3c
       0.019855792 -0.035740975 -0.017213453 0.009473932
0000e0 80 7a ea bc 20 5f 9e 3c e3 a5 49 3c db e7 cb 3c
       -0.028622866 0.019332469 0.012307617 0.02489083
0000f0 dc 6d 1e 3b 42 35 14 3c d7 39 d0 bb f9 bf db 3b
       0.0024174368 0.009045901 -0.0063545513 0.0067062345
