waights/weights5.pth (torch_old, 670822 bytes, 196 tensors)

ConvBase.1.feature.lis.0.X_conv.conv.weight f4 [1, 1, 3, 1]
00000000: f3d9 d7bb bc98 38be e88f ecbd
-0.006587261 -0.18027014 -0.115508854

ConvBase.1.feature.lis.0.Y_conv.conv.weight f4 [1, 1, 1, 3]
00000000: b67d 9b3e 3ae0 8fbd 6efb 17be
0.30369347 -0.0702519 -0.14842007

ConvBase.1.feature.lis.0.pointwise.weight f4 [16, 1, 1, 1]
00000000: 21d2 b8be 5e58 62be 4656 4bbf 8597 72bf
00000010: 4794 fabe c034 bbbd fc03 093d e66c 183f
00000020: feb7 533f d8f2 263f 0bb0 673f 276d 813d
00000030: 6acd 313f 8023 153c 832b ec3e 9e06 efbe
-0.36097816 -0.22104022 -0.7942852 -0.9476245 -0.48941252 -0.09140921 0.033451065 0.59541166
0.82702625 0.652143 0.90502995 0.06319647 0.6945406 0.009102702 0.46126947 -0.46684736

ConvBase.1.feature.lis.0.pointwise.bias f4 [16]
00000000: d3a7 543f c0eb 9ebe 640c 363f 9320 83bf
00000010: f099 95be 7575 4ebf ea6c a6be 0072 6c3f
00000020: cb92 32bf 3133 863e 620b e8be 3c2e 0dbf
00000030: b1fb 283d c2f4 b1bd 10bc 92be b2a5 cebe
0.8306858 -0.31039238 0.71112657 -1.0244316 -0.29219007 -0.80647975 -0.3250497 0.9236145
-0.6975524 0.2621093 -0.45321184 -0.55148673 0.041255657 -0.08689262 -0.28659105 -0.4036079

ConvBase.1.feature.lis.1.X_conv.conv.weight f4 [16, 1, 5, 1]
00000000: 3016 7e3e 4978 98be 2a1b 20ba 3dc2 ac3e
00000010: 071d 833e 2941 973c 36fc ae3e d286 e9ba
00000020: b525 0f3e c47f 8cbe aab2 65be 94b7 a2be
00000030: e4d7 61bd 5479 933e a52e e4bd 50f6 01bd
00000040: 2fd1 433d 0f0c 493e b247 d73e dd21 683c
00000050: be23 c1be 22b4 cbbd e716 e83c b42d 9fbe
00000060: 309d b43e 40ae 073e dfe5 853e 01b1 c0be
00000070: d694 643e 69a6 243e bdce 8cbe 0e77 35be
00000080: 3704 42be a77e 3f3e 5ae5 06bc e574 8f3d
00000090: 12f0 3bbd 5138 df3e 1be6 cf3e c7cd 173e
000000a0: 9c0b 413d 0c8c abbe 5d23 b13e 7a49 6a3e
000000b0: c6bb ce3d a58d 9dbe b76e 94be ffd5 dc3d
000000c0: 9f1a 153e 7474 c6be 39bf 8abd 136a 8bbd
000000d0: e63b e3be 5c5e 47bc 5f42 bd3e e58c ddbe
000000e0: d9da e1be 7261 953e ec78 433e 0001 bc3e
000000f0: 01a5 2dbe 48f7 5dbd 857a 5ebd 51fc cd3e
00000100: 6b8a 89be dcb2 b9be 52ee aa3e da13 40be
00000110: 1ef4 a03d 967a b2bd 396b f7bb 8add 1a3c
00000120: b2ed 91be 8322 e0be ceeb 803e fef3 b13e
00000130: 1a88 88bd b6f6 283e bc63 573e 015d c5be
0.24813151 -0.2977927 -0.00061075634 0.33741942 0.25608084 0.018463688 0.34176797 -0.0017816669
0.13979228 -0.27441227 -0.22431436 -0.31780684 -0.05513753 0.28803504 -0.11141709 -0.031729043
0.047806915 0.19633506 0.42046887 0.01416823 -0.37722582 -0.09946467 0.028331233 -0.31089556
0.35276175 0.13250065 0.2615194 -0.37635043 0.22322401 0.16079105 -0.2750148 -0.17721197
-0.1894692 0.18700658 -0.008233393 0.07004718 -0.045883246 0.43597654 0.40605244 0.14824592
0.047130212 -0.33505285 0.34597293 0.22879592 0.10094409 -0.3077213 -0.2899072 0.10783004
0.14560936 -0.38760722 -0.06774754 -0.068073414 -0.44381636 -0.012168493 0.369647 -0.43271556
-0.4411228 0.29175907 0.19089097 0.36719513 -0.16957475 -0.054190904 -0.054316062 0.40231565
-0.26863417 -0.3626927 0.3338495 -0.18757573 0.07859062 -0.08714788 -0.0075506237 0.009452233
-0.2850166 -0.4377633 0.25179905 0.34756464 -0.06666584 0.16500363 0.2103414 -0.3854752

ConvBase.1.feature.lis.1.X_conv.conv.bias f4 [16]
00000000: f155 ea3c 4fdd c23d 90f7 453d 3af9 e5be
00000010: cf9b 92be 9e94 c6be f6ea e4be 19d0 bf3d
00000020: 5a5b 2d3e 1f5c 2bbe 54f4 9b3e f9f3 993e
00000030: a5f6 913d 6f95 eb3d 18bd d9be ce9d e9bb
0.028605433 0.095148675 0.048331797 -0.44916707 -0.28634498 -0.3878526 -0.4471051 0.09365863
0.16929379 -0.1673436 0.30459845 0.3006895 0.07127122 0.115031116 -0.4252708 -0.0071294075

ConvBase.1.feature.lis.1.Y_conv.conv.weight f4 [16, 1, 1, 5]
00000000: 6cba 8e3e 2f00 bb3e 1fa6 b6be 4336 4cbe
00000010: 473c cb3c 124f ab3e 3a62 d63e c29f f7bd
00000020: ed4f 8bbb 074e dbbe 5388 a9be 2e9d 313d
00000030: 6317 843e 8ff0 a1be 2d5b 81be f03d 8ebe
00000040: 3597 7c3e ef94 eb3e d702 59be b903 b4be
00000050: 3cd7 87be 5a66 c23e a5b6 c63e eb66 aebe
00000060: 22c1 4f3e 7e76 80be 5017 52be 9626 b9be
00000070: 8466 fc3d 56e7 c0be b660 8f3d 8c08 c8bd
00000080: 1e7b 3f3d 24f0 853e a058 e03d bdce b2be
00000090: b501 813e 7008 b0bd 37b4 dbbd 8f97 963d
000000a0: cd65 63bd 91f3 d0be 45a4 bfbd d524 203e
000000b0: 3d7d 9dbe 8948 523e 802f b3be 6d40 06be
000000c0: d50e d53e 9a36 953e 371a 703e 3880 e23d
000000d0: 2ce5 c1bd d153 403e d9df 86be 049c bf3e
000000e0: 20ab c2be 1b6f 863e 8111 01be ec33 0bbe
000000f0: 0b08 e13e af77 51be 8d7b 2b3e 01bf da3e
00000100: c643 083c 5559 9a3e e1a1 923c c3fb 823e
00000110: db86 cd3e 0e5c 85be f4de 94be 809d d8be
00000120: 0f19 b93e f0fb d3be 72f9 cc3e 1600 a73e
00000130: 9bce 75bd 3060 e4be a36d 82be c04d abbb
0.27876604 0.36523578 -0.35673615 -0.19942574 0.024809016 0.33458763 0.41871816 -0.12091018
-0.0042514713 -0.42832968 -0.3311182 0.04336279 0.25799093 -0.31628844 -0.25264874 -0.2778163
0.24667056 0.46012065 -0.2119249 -0.3515909 -0.26531398 0.37968713 0.38811222 -0.34062895
0.20288518 -0.25090402 -0.20516706 -0.3616225 0.12324241 -0.37676495 0.07000868 -0.09767255
0.046748273 0.26159775 0.10954404 -0.34923354 0.25196615 -0.08595359 -0.10727733 0.07353126
-0.055517007 -0.40810826 -0.09357504 0.1563905 -0.30759612 0.20535482 -0.34997177 -0.13110514
0.41612878 0.2914322 0.234475 0.11059612 -0.09467539 0.18781973 -0.26342657 0.37423718
-0.38021183 0.26256642 -0.12604333 -0.13594025 0.4395145 -0.20455812 0.1674635 0.4272385
0.00831694 0.3014628 0.017899456 0.25582704 0.4014195 -0.26046795 -0.2907635 -0.42307663
0.3615193 -0.4140315 0.40034062 0.32617253 -0.060011487 -0.44604635 -0.2547427 -0.0052277744

ConvBase.1.feature.lis.1.Y_conv.conv.bias f4 [16]
00000000: 8abe 3c3e 43bd 7d3e 4531 21be 642f 923e
00000010: 93cc df3d df76 a03d 8cc9 813d 1ee5 253e
00000020: 0d0e b63e 7cdf 553d 65f6 d9be fda0 22be
00000030: 4ea6 c1be 77d9 563e 657d afbe b6b9 babe
0.1843206 0.24779229 -0.15741451 0.2855178 0.10927691 0.07835173 0.0633727 0.16200683
0.35557595 0.052215084 -0.42570797 -0.15881725 -0.37822193 0.20981394 -0.34275356 -0.3646981

ConvBase.1.feature.lis.1.pointwise.weight f4 [16, 16, 1, 1]
00000000: a7b0 43be b1b1 6cbe 1301 18be 67b6 373e
00000010: ff71 63be 3cb4 e13d 5ab3 ac3d bb18 6b3e
00000020: 0b14 1fbd 5ae5 b7bd 6316 77bd 7721 133e
00000030: f596 4abe e520 653e 71c5 67be 75fa 543e
00000040: 932d 2b3e d36c 9e3d 65ae 843d 3b15 80bd
00000050: ab97 50be 79df 41be d3d7 273e 1588 413e
00000060: eb59 143d f38f 153e ece4 5abe 0193 e23d
00000070: e8ef 10be feb1 c63d 1796 3f3e 901b 4ebc
00000080: db02 45be a710 c1bd 6d6b f0bc 3066 603d
00000090: d207 8bbe f22f 873b 1713 b23d 522c 3abe
000000a0: d94f 243e c292 d93c b1d0 39be 16fe 463e
000000b0: b88a 023c 6bde 28be 2bc1 b7bd 271a 5fbe
000000c0: ae10 75bc 4168 3fbe e06e 163e 70df b8bd
000000d0: d227 3dbe a714 793d 7741 3c3e 5ea6 e8bb
000000e0: ef13 9b3d c990 dabb 9a78 273e f524 ccbd
000000f0: 13f4 993d 6172 7dbe 0b65 3cbc 2f63 83be
00000100: b447 3ebe 2f87 523e ac2a 613e 40b6 353e
00000110: 8802 29be 3b86 543e c86c 403e 3608 2bbe
00000120: e1fb 7b3e f659 f93d 0357 c83c b36f 92bc
00000130: 917a f4bd 8c19 26be 0d29 813d 097d f9bd
00000140: 9521 cf3d e85a 06be 7c3f eebc 3f6d a8bd
00000150: a141 c0bd 41e3 083d 5bf7 303d e44d d9bc
00000160: d6d1 18be cd74 3fbd 530b cc3c bad0 62be
00000170: 74d0 43bb 5712 09be f6e9 e0bc 86a0 233e
00000180: 79d6 73be 5e59 df3c 73a5 92bd 2e49 b43c
00000190: 6cb0 993d 66bf 4abe cb75 89bd 9c1e 5b3d
000001a0: 3bf1 15be 0ad7 143e 1dc3 873e 6c0c efbc
000001b0: 0c90 2fbe c475 1dbd d891 cfbc 2c17 5d3e
000001c0: b86d 1ebe 0408 f53d 5841 1dbe b0ee b03d
000001d0: 3629 3c3e 205c 32be 9b0c 0dbd e7bc 173e
000001e0: 7f97 f0bd 4a6f 0cbd 4382 e4bd 3197 c1bd
000001f0: b9f2 083d 2a98 1bbe 1e75 55bd 7af7 13be
00000200: c843 7d3d b3ca b03d 8d0a 69be 7cfc 7dbe
00000210: 5756 e8bc ce89 603d 3a8d 7d3e c964 d0bd
00000220: 0ecd d83d 29d1 0cbe 5b40 6f3e b506 8fbe
00000230: 6ca3 3e3e c272 32be 5d21 4d3e 325e 253e
00000240: cd54 e93d 191f 8e3d cd92 723e e3b4 c5bd
00000250: 2e08 b5bc 9054 34bc 33ef 603e 7e1e 02be
00000260: 30fb 7abc 4b79 5e3e 506c f1bd 38e1 553d
00000270: 8668 67b8 6028 53be 7870 133e be39 e33d
00000280: a6b0 863e 54d7 803e 0e9c 10bd 6580 bd3d
00000290: 8c4d 023e 59d5 e83c efb0 5dbe f63f f93b
000002a0: 09ae 33be 8390 4e3e 4f81 543e c2b5 15be
000002b0: 878a 393e ee7f ffbd 6cc9 64be 689c 3cbe
000002c0: 9c98 15be d8e5 75bc cc51 57bd 75df 653e
000002d0: 328d 503a 33c6 83bd ecf7 8dbd d081 27be
000002e0: 1315 923d 7ca0 fe3d e6f1 513d 648c ce3d
000002f0: 4abd 643d 382b 11be 8684 56be c238 dd3c
00000300: 23f0 033e c310 5fbe 6263 87bd 696b 0ebe
00000310: 56d9 e63d b02a 33be 4df3 ee3d 3eb5 7f3c
00000320: 3fda 153e b13b 52be d43e 653d f07e 1e3e
00000330: 72ae 163e 667a a6bd db0b a9bc 6c59 81be
00000340: 6ae5 61be 568b 343e 9430 0ebe 451d 99bd
00000350: c63c 1b3e 1d66 e5bd f958 71be c9ef 60bd
00000360: ebed dbbd 3272 18bd 41ac 133e c1b3 2abe
00000370: b6fb 0c3e 3dcb 2c3e 8bf9 edbd 5c0c 4bbe
00000380: 7bdc 123e d966 6f3c 5921 f1bd 46a4 073e
00000390: ff62 63bd 7bf2 b63d aa0b b13d 9cdc 673e
000003a0: 806e df3d 070e 42be 4fa7 fcbd e90f 2e3c
000003b0: 7507 273e 7388 1dbe 55c6 4c3e 14de f3bc
000003c0: bfeb 92bc 3ac8 13be b6a6 403e 134b 5dbe
000003d0: bbfd 8ebd 8553 653d a42f 0dbc e655 33be
000003e0: 7647 debd 81f0 afbd 63ad 28bd d2cd 54be
000003f0: eb30 26bd b086 5c3e 546d 833e 5ff1 d2bd
-0.19110356 -0.23114659 -0.1484416 0.17940675 -0.22211455 0.11020705 0.08432646 0.22958653
-0.038837474 -0.08979292 -0.060324084 0.14368235 -0.19784148 0.2237583 -0.22633912 0.20798667
0.16716604 0.077356 0.064785756 -0.062540494 -0.20370357 -0.18932904 0.16390924 0.18899567
0.036218565 0.14605694 -0.2137639 0.11063195 -0.14154017 0.09701918 0.18709598 -0.012579814
-0.1923937 -0.09427004 -0.0293481 0.054784954 -0.27154404 0.0041255886 0.08695047 -0.1818097
0.16046084 0.026559237 -0.18146016 0.19432864 0.007967643 -0.16491096 -0.08972391 -0.2178732
-0.01495759 -0.18692113 0.14690733 -0.09026992 -0.18472221 0.06081071 0.18384348 -0.0070999106
0.075721614 -0.0066700918 0.163546 -0.099679865 0.075172566 -0.24750663 -0.0114987 -0.2566161
-0.1858204 0.20559381 0.21988934 0.17745304 -0.16504872 0.2075433 0.18791497 -0.16702351
0.24607803 0.12175362 0.024455553 -0.017875528 -0.1193744 -0.16220683 0.06306658 -0.12182052
0.10113827 -0.13120615 -0.029083006 -0.08223962 -0.09387518 0.03341985 0.043204647 -0.026526399
-0.14923796 -0.04674225 0.024907744 -0.22149935 -0.0029878886 -0.13385902 -0.027455311 0.15979204
-0.23812284 0.027264293 -0.07160463 0.022007551 0.07504353 -0.19799575 -0.0671192 0.05349599
-0.14642803 0.14535156 0.26516047 -0.029180728 -0.17144793 -0.03844239 -0.025338098 0.2159087
-0.15471542 0.119644195 -0.15356958 0.08639276 0.18375096 -0.17417955 -0.03443585 0.14818154
-0.117476456 -0.03428582 -0.11157658 -0.094526656 0.033434603 -0.15194765 -0.052113645 -0.14449874
0.06183222 0.08632412 -0.22757931 -0.24803346 -0.028361483 0.05481892 0.24760905 -0.10175473
0.10585986 -0.13751663 0.23364393 -0.27934805 0.18617028 -0.17426589 0.20032258 0.16149214
0.113931276 0.06939525 0.23688813 -0.09653642 -0.022098627 -0.011006489 0.21966247 -0.12706944
-0.015318677 0.21725957 -0.11788237 0.05221674 -5.5172037e-05 -0.2062087 0.14398372 0.11094998
0.26306647 0.25164282 -0.035305075 0.09253005 0.12724894 0.028422045 -0.21649526 0.0076065017
-0.17546858 0.20172314 0.20752452 -0.14620116 0.1811925 -0.124755725 -0.22342461 -0.18419039
-0.14608997 -0.015008412 -0.052568242 0.22448523 0.000795561 -0.06434288 -0.06932053 -0.16358113
0.07132926 0.12432954 0.051256083 0.10085371 0.055844583 -0.14176643 -0.20948991 0.027004603
0.12884574 -0.21783738 -0.06610753 -0.13908161 0.11271922 -0.17496753 0.116675 0.015607176
0.14634036 -0.20530583 0.05596812 0.1547811 0.14714983 -0.081288144 -0.020635536 -0.25263536
-0.22060171 0.17631277 -0.13885719 -0.07476286 0.15159902 -0.11201117 -0.23569097 -0.054916177
-0.107387386 -0.03721828 0.14421178 -0.16670133 0.13767895 0.16874404 -0.11619862 -0.19828933
0.14341919 0.014611923 -0.11773939 0.13246259 -0.055514332 0.08932968 0.08644803 0.2264275
0.10909748 -0.18950664 -0.12336599 0.01062391 0.16311438 -0.15384082 0.19997533 -0.029768981
-0.017934678 -0.14431849 0.18813595 -0.2161067 -0.06981989 0.055987854 -0.008617315 -0.17513236
-0.10853474 -0.08590794 -0.04118098 -0.20781639 -0.040573996 0.21535754 0.25669348 -0.10299944

ConvBase.1.feature.lis.1.pointwise.bias f4 [16]
00000000: c3a9 883e b881 59be 577f 153e 00a5 36be
00000010: 5a72 b4bd 4365 87be d03e 50be 6565 ff3d
00000020: 2f34 38be 4a97 823e 4aa5 d4ba 7ed4 0e3e
00000030: 19e9 903d 5706 703b 9263 013e ddc8 8cbe
0.26692018 -0.2124089 0.14599358 -0.1783638 -0.08810873 -0.26444444 -0.20336461 0.12470511
-0.17988656 0.2550605 -0.0016223576 0.13948247 0.0707571 0.0036624873 0.1263564 -0.27496997

ConvBase.1.feature.lis.2.X_conv.conv.weight f4 [16, 1, 7, 1]
00000000: bb87 843e 0518 b5be 3260 c13e 8ac9 ef3d
00000010: 2912 ad3e d394 cfbd b070 9dbe 209e b73d
00000020: 8eb2 7a3c 0125 283e 0474 bf3d 75b5 26be
00000030: 7d55 453e d9e8 a23e 5891 2abe 235a d0bd
00000040: 0bb5 b2be 35f2 003e 1432 82be 1cad 913e
00000050: ba19 19bd b0a8 b5be 1d42 243e c355 46be
00000060: 33dc a93e caec a3bd 6114 39be f23a 0e3d
00000070: 7065 ba3d 3b57 553e d1e7 923e c5b4 b23e
00000080: 8b79 4b3e cfcb 83be 6fdf ac3e 4700 22bd
00000090: c93f f9bd ce08 45bd 1ddd a53e 4b12 a4be
000000a0: 5a71 42be 41bc 41be 6c30 01be e246 78be
000000b0: 7c5b 55be 9dea 723d 95f8 af3d 7e46 c5be
000000c0: 4ecd 4e3e c0c6 96be 5981 6fbe d973 b53e
000000d0: 367f 7f3e cad2 863e 302f 303e d5c3 a13e
000000e0: b0f8 9fbe 38c6 9a3e 508a 553e 6a9e 1dbd
000000f0: 072c fe3d 64c0 413c 69ef e9bd c470 683e
00000100: 914f 743e b35a 893e 5e89 9f3d 755d bfbe
00000110: d565 c0bd e832 bdbe 7e2c ae3e db63 a73e
00000120: 83cd 5a3e 6f55 36be a1a9 b63d 07a3 14be
00000130: 6ee8 813e df59 e33d d89c fa3c dc48 d63d
00000140: 23c4 903e fdbe eabd 3b0d 6dbe 2319 05be
00000150: 78c1 423d 4e00 0abe 6db5 c73d 160d 223d
00000160: f824 0a3d 1caa 253e 6b34 abbe 0fe5 15be
00000170: 3ee9 923c 5f5b 5f3e 3a4c c7be 306b 4fbe
00000180: 13b7 9cbe 7110 c6be 26c9 bb3d ce8b b73e
00000190: 9c98 8dbd 3ec0 54be 57d9 45be 6323 2fbd
000001a0: 4233 ef3c f9c9 9e3e f5e7 113e 6ae2 a0be
000001b0: 7cd2 5abe b9ad 0b3e 6bd9 8ebe f302 0dbd
0.25884804 -0.35369888 0.37768704 0.117083624 0.33802918 -0.10135808 -0.30750036 0.08965707
0.01530136 0.16420366 0.093483 -0.16280158 0.19270892 0.31818274 -0.16657007 -0.10173442
-0.3490375 0.12592395 -0.25428832 0.28452384 -0.03737805 -0.3548026 0.16040845 -0.19368653
0.3317581 -0.08004148 -0.1807418 0.034724183 0.09101379 0.20834057 0.28692487 0.3490354
0.19870584 -0.2574143 0.33764216 -0.039551046 -0.12170369 -0.0481041 0.3239526 -0.32045206
-0.18988553 -0.1891947 -0.12616128 -0.2424579 -0.2083568 0.059305776 0.08592335 -0.38530344
0.20195505 -0.2944851 -0.23389186 0.35439947 0.24950871 0.26332694 0.172055 0.3159472
-0.3124442 0.30229354 0.20853543 -0.038481154 0.12410741 0.011825655 -0.11422617 0.22699267
0.23858477 0.2682701 0.077898726 -0.3737599 -0.09394423 -0.369529 0.3401832 0.3269337
0.21367459 -0.17806028 0.08919073 -0.14515315 0.25372642 0.11101126 0.030592367 0.104631156
0.2827464 -0.114622094 -0.23149578 -0.1299787 0.047547787 -0.13476679 0.09751401 0.03956326
0.033726662 0.16178173 -0.3343843 -0.1463816 0.017933484 0.21812199 -0.38925344 -0.20255733
-0.30608425 -0.3868442 0.091692254 0.3584885 -0.069138736 -0.2077646 -0.1932119 -0.042758357
0.029199246 0.31013468 0.14248641 -0.3142274 -0.21369356 0.13640489 -0.27900252 -0.03442664

ConvBase.1.feature.lis.2.X_conv.conv.bias f4 [16]
00000000: 9a67 75bd 80a6 793e 1bc9 1abe 2f55 10be
00000010: 9bab 53bd bf03 4b3e c7e0 663e 1039 ae3d
00000020: 4c5e 213e 5fec a7bd a694 a43e be3a b93d
00000030: 233f fc3c bf6a f3bd dc5b b93e 5331 a6bd
-0.059913255 0.24379921 -0.15115778 -0.14094995 -0.051677328 0.19825648 0.22546683 0.085069776
0.15758628 -0.08199381 0.3214466 0.09044407 0.030791825 -0.118855946 0.36202896 -0.081148766

ConvBase.1.feature.lis.2.Y_conv.conv.weight f4 [16, 1, 1, 7]
00000000: 0152 823d 132b 793e a440 8ebe ebec 09be
00000010: 21f7 8e3d 38ab a3be 4e6c b13e 311e 613d
00000020: 9c0c aebe f282 bf3d 4014 01bc 38e0 a5be
00000030: da0d 3f3e d36b f63d 128e e4bd 5df7 2a3d
00000040: 1c7f 6fbe c63b 913e 048d ab3d 51da 2a3e
00000050: 4d54 45bc 4cbf d1bd 94a2 8d3e 7804 e63c
00000060: 755c b73e 49e1 0abc bce7 bd3d 1395 9b3e
00000070: fd72 7c3e d50b 3f3e 709f 573e f9e8 98bc
00000080: 89c8 df3d ff4d 0b3e 6e1e 6c3e 55e7 173e
00000090: e5ce 69bd 486c bd3d 2c19 d7be acfa 093e
000000a0: e0ac a53d 2e62 8f3e 22ec 483e c5c7 7abe
000000b0: dc59 a9be 261f 663e 5abf e23c ad58 a13e
000000c0: 2d6d e1bc 1b74 f7bd c6d5 abbc 48ef 1c3e
000000d0: f251 89be 0954 a0be a215 eeba 2236 e23d
000000e0: a1c1 c8be 9a3b a33d 999c b2be 7437 8abe
000000f0: 436a 833e 4fa9 5cbb 3487 a3bd b2c1 82bd
00000100: a436 bfbe 8fbe 2ebe 24f4 ff3d 2dc8 083e
00000110: 9e01 48be 4035 8cbe 7079 75bd d597 283d
00000120: a6b7 923e c669 113e b1cc f43d f869 923e
00000130: 077e 9abe b657 5a3e d7f8 75be 4a3d 1a3e
00000140: cc14 18be 30bc 30be aaf8 bdbe 69a8 b63e
00000150: 78a1 153e 6cd7 1d3e 19c6 9bbc dd2c 6ebe
00000160: 68e4 543d 0d82 8d3e 4438 08be 8ebd 9dbc
00000170: c01d 253c d287 6b3e 6a12 f73d 5f2f d23e
00000180: ef42 393e c613 3abe f75a 5f3e 8415 57bd
00000190: cc2e 0abe bc0f a0bd ba7d 8c3e 24f6 b23e
000001a0: 1fa1 4f3e d9bc 8abe 43d6 ba3d 65ff afbe
000001b0: 4201 86be 9a30 5a3a 9b96 60bd fd81 a23e
0.06363297 0.24332838 -0.27783692 -0.13469283 0.0698073 -0.31966567 0.34652942 0.054960433
-0.33993995 0.09351148 -0.007878363 -0.32397628 0.18657628 0.120322846 -0.1115991 0.04173981
-0.23388332 0.28365916 0.08376506 0.16684844 -0.012044025 -0.10241565 0.276631 0.028078303
0.35812727 -0.008476564 0.092727154 0.30387172 0.2465324 0.18656857 0.21056914 -0.018665778
0.10926921 0.13603972 0.23058483 0.1483434 -0.057082076 0.09249169 -0.42011392 0.1347453
0.08089614 0.28004593 0.19621328 -0.24490269 -0.3307637 0.2247282 0.027679134 0.31512967
-0.02751788 -0.12082692 -0.020975959 0.15325654 -0.26820332 -0.31314114 -0.0018164406 0.11045481
-0.39210227 0.079703525 -0.348851 -0.26995432 0.2566701 -0.0033670252 -0.07984772 -0.06384601
-0.37346375 -0.1706488 0.12497738 0.13357611 -0.19531867 -0.27384377 -0.059930265 0.041160423
0.28655738 0.14200506 0.11953104 0.28596473 -0.30174276 0.21322522 -0.24020706 0.15062442
-0.14851683 -0.17259288 -0.37103778 0.35675362 0.14612377 0.15414208 -0.019015359 -0.23259301
0.051975638 0.27638283 -0.13302714 -0.019255426 0.010077894 0.2300103 0.12064059 0.41051766
0.1809194 -0.18171605 0.21812044 -0.052510753 -0.13494414 -0.07815501 0.27439672 0.34953415
0.20276307 -0.27097204 0.091228984 -0.34374538 -0.26172835 0.0008323282 -0.05483113 0.31739798

ConvBase.1.feature.lis.2.Y_conv.conv.bias f4 [16]
00000000: 59f1 973d 80a4 2f3e 5351 b1be 7e3d bdbe
00000010: 855f 7abe 319f 30bd 68e5 213e bd4c 88bd
00000020: b95d b03d cafc ad3e 4405 e2bd 356a aa3e
00000030: 6545 96be fc31 d53d da93 a43e 6ee0 9d3e
0.0741908 0.17152596 -0.34632358 -0.36960977 -0.244505 -0.043120567 0.15810168 -0.06655262
0.08611626 0.33981925 -0.110361606 0.33284155 -0.2934982 0.104099244 0.32144052 0.3083529

ConvBase.1.feature.lis.2.pointwise.weight f4 [16, 16, 1, 1]
00000000: deae b7bd f82a afbd 2127 6c3e 88cd 613e
00000010: 6ce5 703e 5d00 b639 584b cb3d b5f8 e73d
00000020: aec8 69be 1e46 fd3b c046 0f3e 0d6a 653e
00000030: 2043 193e 2592 41bd 66a5 53be 2e9e 54be
00000040: b932 2b3e fbca f4bd d688 1e3e 7545 d83d
00000050: 7115 e3bd b9b1 3cbd c9eb 6a3c c22b ad3a
00000060: 84a1 9b3d 8c0e c23c 9bb9 0abe 2207 7bbc
00000070: 2329 4ebd 67aa 19bd f28f 4f3e 9ce9 1bbe
00000080: a07c 42be 8510 393e 6e4e 623e 7733 7a3e
00000090: 5416 37be b022 543e 8ea4 df3d 1215 73bc
000000a0: 1f68 e73d 50ef e93d 7f8a a03d ec9c 953d
000000b0: 5c57 243e 266a 4d3d ebbb 45be 7fb6 12be
000000c0: 6288 7bbe 9429 31be 927a 193c 07e4 553d
000000d0: 9aa8 e93c 3718 32be 1ddf 66be 3822 87bd
000000e0: ee4d 6e3e 747a 01be 6924 0b3e 609f 6dbe
000000f0: 0144 d43d 908c 733e 3e4d a0bd 7e9b 4abe
00000100: 4cf0 85bd 7248 513e 1f32 80be 7c22 4d3e
00000110: ad0f b6bd 38bf 09be a734 f83c 82e9 a2bd
00000120: 5665 673d 2265 313e 87ed 86bd f659 5abe
00000130: a9da 21be 79bb b3bd 7839 83bb 626e d73d
00000140: 8247 fe3d e3c7 0cbd 9afc dc3d ab73 e9bd
00000150: 60a9 603e 2b5b 753e c433 3b3e 051b bf3d
00000160: e196 853e fced a9bd cb2f 773e 059e 81bc
00000170: dcb6 0b3e b58a 493d aae8 183e 2b80 78be
00000180: 242b f73d ede5 f03d 4930 533c 9649 cdbd
00000190: dbb7 12be 945f b9bd 220e f5bd 817f 2d3e
000001a0: 791f 843e a2d7 d53c 2127 48be 5bfc 2fbe
000001b0: 333d 723e 3677 9dbd 2236 a03d 7f49 bc3d
000001c0: 34e6 143e 4ef5 d83d 4b6c c1bc d482 5b3d
000001d0: 1bee 5fbd afa7 fdbd 6739 793d d87f 06be
000001e0: 9400 033e 4f0f c63d 5bb6 1abc 4fde 483e
000001f0: 612c 373d 63e3 50bc 1e58 88bd b7f8 cd3d
00000200: 5428 63be ca35 223e 8429 1c3e 3907 053e
00000210: e91f 39be 30cd 233d cb8d 3ebd ff3d 3f3e
00000220: 3666 f63b 53b4 6c3d 130a 97bd e3bc e2bd
00000230: f8c2 4a3e 1ba1 853e 610f bfbd 8faf f8bd
00000240: ae71 b9bd dde4 433e 5e43 12bd afd5 1c3e
00000250: ba80 8e3d 3e2e 8d3d 7a00 703e 9509 6abe
00000260: 567e df3d dcac 5f3e d271 4f3e d5e5 333d
00000270: fcb2 173e 350a d1bd 4135 edbb ea84 ef3d
00000280: 6d63 4bbe a2d4 a03d 9386 173c b756 153e
00000290: 571c 3c3d eb54 dcbd b040 6a3d ed4d 943d
000002a0: cbf9 673e 1070 a2bd 2269 403e d39a 2f3d
000002b0: c793 5a3e 1a42 07be c77c 0abe 39df 4d3e
000002c0: a0a0 6bbe bc4e 19be 431e 823e 7289 f0bc
000002d0: d5fc 4cbe 7f55 64be c277 62be 8f01 bf3c
000002e0: a33a f7bd f837 e9bc 0096 fb3b 53d0 793e
000002f0: 0853 12be 7602 d33d 7a95 3e3d 611e ad3d
00000300: b38e be3c 0515 883c 2c7b 213d 5d75 85be
00000310: c52d b23c b661 1fbe 0037 c83d 3407 25be
00000320: d0c5 a13d f8c1 fabd 1c19 17be e795 4e3e
00000330: da67 d4bc 95d1 8abd 1f0e 053d 9e0e 1e3d
00000340: f598 32be 9ff4 a93c de88 16be b98d 83be
00000350: dcce 10bd ce67 74bd 1ea6 963b cdf9 033e
00000360: 12a0 713e e14a 573e d2d2 133e 852c 72be
00000370: bfdb 833e cdea 31be 89ee d63d 8be1 7bbe
00000380: 2347 f33c faf7 f8bd d602 653e 7954 53be
00000390: 5ee7 d7bc 0124 213e 3986 403c b60b 30be
000003a0: b7d8 b8bc 0c6e 3bbe 3d73 15be c0f0 8cbd
000003b0: 9f25 57be 83e7 0abe 6c86 d13c fa23 b33d
000003c0: 15d7 823e 3c8f 2c3d c45f 05be d41f 6cbe
000003d0: 1dbc babd 63d2 213e 08b9 1dbd eb1d 753d
000003e0: 2e76 7bbd e32b 44be 4872 82be 9e88 a73c
000003f0: ea65 04be f57b cebd bd43 593e 6cb9 513d
-0.089689 -0.085531175 0.23061801 0.2205106 0.23525017 0.00034714016 0.0992648 0.11326734
-0.2283046 0.007729306 0.13991833 0.22403736 0.14967012 -0.047258515 -0.20668563 -0.20763466
0.16718568 -0.11952778 0.15481886 0.10560123 -0.11088074 -0.046067927 0.014338442 0.0013211893
0.07599166 0.023688577 -0.13547365 -0.015321525 -0.0503322 -0.037516024 0.20269755 -0.15225834
-0.18992853 0.18072708 0.22100231 0.24433695 -0.17879611 0.20716357 0.10920058 -0.0148365665
0.112991564 0.11422598 0.07838916 0.07305321 0.1604895 0.05015006 -0.19309966 -0.14327429
-0.24563745 -0.17301017 0.009367602 0.052219417 0.028522778 -0.1739205 -0.22546048 -0.065983236
0.23271915 -0.12644368 0.13588108 -0.23205328 0.10364533 0.23784089 -0.07827233 -0.19785878
-0.065399736 0.20437792 -0.2503824 0.20032686 -0.08889709 -0.1345185 0.030298544 -0.07954694
0.056493126 0.17323735 -0.065882735 -0.2132338 -0.15806068 -0.08775992 -0.0040046535 0.10519101
0.12415983 -0.034370314 0.107903674 -0.11399015 0.21939611 0.23960559 0.18281466 0.093313254
0.26091674 -0.08297345 0.24139325 -0.01582242 0.13643974 0.049204547 0.14932504 -0.24267642
0.12068775 0.11762605 0.01288993 -0.10023801 -0.14327948 -0.09051433 -0.11965586 0.1694317
0.25805262 0.026103798 -0.19546176 -0.1718611 0.23656158 -0.07688753 0.07822825 0.09193706
0.1454094 0.10593663 -0.023611208 0.053591564 -0.054670434 -0.12385499 0.06084576 -0.13134706
0.1279319 0.09670889 -0.009442891 0.19616054 0.044720057 -0.012749526 -0.06657432 0.10057204
-0.22183353 0.15840831 0.15250212 0.12991036 -0.18078579 0.039990604 -0.046521943 0.18675993
0.0075195087 0.057789158 -0.073749684 -0.110711835 0.19800937 0.26099476 -0.09329105 -0.1214286
-0.09054886 0.19130273 -0.035708778 0.15315889 0.069581464 0.068935856 0.23437682 -0.22855218
0.109127685 0.21843284 0.20258263 0.043920357 0.14814371 -0.10207025 -0.0072390144 0.11695273
-0.19862147 0.078530565 0.009248394 0.1458386 0.045925464 -0.10758384 0.057190597 0.07241426
0.22653882 -0.079315305 0.18790105 0.04287226 0.21345435 -0.1320881 -0.13524161 0.20104684
-0.23010492 -0.14971441 0.25413713 -0.029362414 -0.20018323 -0.22298239 -0.22115996 0.023316173
-0.12071731 -0.02846907 0.0076777935 0.24395876 -0.14289486 0.10303204 0.04652927 0.0845306
0.023261404 0.016611585 0.039424106 -0.26066104 0.02175034 -0.15564618 0.097761154 -0.16116029
0.07899058 -0.12244028 -0.14755672 0.2017437 -0.025928427 -0.06778256 0.03248417 0.03858816
-0.17441161 0.020746527 -0.14700648 -0.25694063 -0.035353526 -0.05966931 0.0045974394 0.1288826
0.23596218 0.21024658 0.1443589 -0.23649795 0.2575359 -0.17374726 0.10494716 -0.24597757
0.029697007 -0.12156673 0.22364363 -0.20637693 -0.026355442 0.1573639 0.011750751 -0.17191967
-0.022564275 -0.18303698 -0.14594741 -0.06881857 -0.21010445 -0.13564877 0.025576793 0.08747096
0.2555472 0.042128786 -0.13024813 -0.23059016 -0.09117911 0.15802912 -0.038506538 0.059842985
-0.061392 -0.19157366 -0.25477815 0.020450886 -0.12929502 -0.10082237 0.21217246 0.051202223

ConvBase.1.feature.lis.2.pointwise.bias f4 [16]
00000000: b1fc 483d 3c96 82be 7775 7abd 84ae f33c
00000010: 7243 1a3d d06a 02be ddad 2cbe 9c0d 293e
00000020: c7ba 3a3e c2ff a33c 9d5c 8c3c 5d8c e0bc
00000030: cc67 bbbd 2b36 fe3d bcb9 46be 3f43 4ebd
0.04906911 -0.25505245 -0.06114718 0.029746301 0.037661977 -0.12736058 -0.16863199 0.16509098
0.18235312 0.020019416 0.017134005 -0.02741068 -0.09150657 0.124126755 -0.1940679 -0.0503571

ConvBase.1.feature.lis.3.X_conv.conv.weight f4 [16, 1, 9, 1]
00000000: eb3e a4bd e4cf 183d c552 9d3e 0c0a 98bd
00000010: 1679 52be 96de 733e bf36 9fbd b712 44be
00000020: 7c71 6f3e 9cdf 0f3e e86e 893e b6bc 59be
00000030: 57ed 8f3d 20b9 24be 640f c23d 8364 9dbe
00000040: 7a26 04be 65b7 56bd e49b 903e 02aa 863e
00000050: 75f6 903e af1d 313b ce88 7f3d 564c 7d3e
00000060: 45ba a03e 9440 263e 087a 71be 0c6e 46be
00000070: fcfc 69bd 7de4 9dbe 5c4f 163e 5333 a03e
00000080: 2357 953d f87b 0dbe eed3 ac3e 9ebc 593d
00000090: 082d e03d 4b85 2bbe b98e a73e 2694 07be
000000a0: 691d a03e aaf5 833e a3eb d1bd a232 f73d
000000b0: 2755 2bbe 49e0 893e 8cc6 913e 674c a23e
000000c0: 6dee f5bd f71e 1a3e 2177 203d 4ce6 20be
000000d0: 8caf 9dbe 7621 803e 84df 02be 49ca 4b3e
000000e0: fee7 3b3e d0d0 f7bd c2bd 2abe 139c 673e
000000f0: 599f 843e 369e a03e 93c5 fdbd 6991 5ebe
00000100: 9416 9a3e 3366 443e f7da 373e d561 813e
00000110: 5ec5 1c3e b2e5 d93d 3f58 afbe eeb6 523e
00000120: bd25 0dbe f738 c43d 7344 01bd 600d 26be
00000130: 438a 793e 0819 88be 69b7 c3bc edbc 04be
00000140: 208e 32be 0493 8dbe e961 89be 8416 7abe
00000150: 8600 07bd e04d 593e 0b8d 8a3c 863f 61be
00000160: e6e5 9ebe 42b6 323e 0bc0 a23d 300f 0bbe
00000170: 893b 8c3e 0ca4 7e3e ff27 9dbe 9a86 a3bd
00000180: b7a1 26be 1a48 853d 7df1 a03e b53a 4a3e
00000190: 4d9a 303e c6fd 31be 6d35 00bd 82fb 8f3e
000001a0: ca89 b8be cda3 79be 9832 2cbe c690 cf3c
000001b0: 91af 1bbe 1378 b3bd 3849 7d3d 0f29 6ebd
000001c0: 69ec 25be a1b1 75be d42e 353d 7b06 70be
000001d0: 4b96 423e 55cb 943e bb01 77be 829e 33be
000001e0: b695 b43b 246f babd 731b f3bd 37d3 7b3d
000001f0: 6c78 3d3e 72b4 ee3d 1bed bf3c 21a9 5ebe
00000200: a82b 7cbe 70e0 f2bc a7db 933d 7f81 f83c
00000210: b855 983e 3139 a6be e63a 76be 04e3 833e
00000220: 86e0 7bbe 7071 90bb 361f b23d 2fa4 66be
00000230: 4803 663b bceb 8d3e 0bcf 34be 214d 8a3e
-0.08019813 0.037307635 0.3072721 -0.07423791 -0.20554003 0.23815379 -0.07774114 -0.19147764
0.23383135 0.14050144 0.26842427 -0.21263394 0.07027691 -0.16086245 0.09475592 -0.30740747
-0.12905303 -0.052420992 0.28243935 0.2630158 0.28313032 0.002702575 0.062386326 0.24736151
0.31392112 0.16235572 -0.23581707 -0.19377917 -0.05712603 -0.30838385 0.1467871 0.31289157
0.07292011 -0.13816822 0.3375544 0.053158395 0.10946089 -0.16750066 0.32726076 -0.13240108
0.31272438 0.25773364 -0.10250022 0.12070204 -0.16731702 0.26928928 0.28471792 0.31698915
-0.12008367 0.15050875 0.03917611 -0.15712851 -0.30797994 0.2502553 -0.12780577 0.19901384
0.18350217 -0.12100375 -0.1667395 0.22618131 0.25902823 0.31370705 -0.123912 -0.21735157
0.3009535 0.19179611 0.17954622 0.25269952 0.15309665 0.10639514 -0.34247014 0.20577595
-0.13783927 0.09581178 -0.03155942 -0.1621604 0.24369149 -0.26581597 -0.023891168 -0.12962694
-0.17437029 -0.27651227 -0.26832512 -0.24422652 -0.032959484 0.21221113 0.016912958 -0.21996889
-0.31034774 0.17452338 0.079467855 -0.13580012 0.27389172 0.24867266 -0.30694577 -0.079846576
-0.16272627 0.06507893 0.3143424 0.19748957 0.17246361 -0.17381963 -0.03130095 0.28121573
-0.36042625 -0.24378891 -0.16816175 0.025337588 -0.15203692 -0.08763137 0.061837405 -0.058144625
-0.16203465 -0.23993541 0.044234112 -0.23439972 0.19002645 0.2906138 -0.24121754 -0.17540935
0.005511011 -0.0910323 -0.1187047 0.061480727 0.18502969 0.11655511 0.02342849 -0.21744205
-0.24626029 -0.029648036 0.0721963 0.030335186 0.29752898 -0.3246551 -0.24045905 0.25759137
-0.24597368 -0.004408054 0.08697359 -0.22523569 0.003509717 0.27718914 -0.17657106 0.2701197

ConvBase.1.feature.lis.3.X_conv.conv.bias f4 [16]
00000000: a828 adbd a7a4 83be f8c2 653e 3cb0 3b3d
00000010: 4428 003e 466f e73d 71e1 88be de2e 593e
00000020: 28ea 6d3e 7d3f 103e 97ea 923e c491 193e
00000030: 41aa 973e fbee d23d 82e8 94bd ad67 ffba
-0.0845502 -0.25711557 0.22437656 0.045822367 0.1251536 0.113005206 -0.26734498 0.21209285
0.23233855 0.14086719 0.28694603 0.14997011 0.2962208 0.10299488 -0.0727091 -0.0019485854

ConvBase.1.feature.lis.3.Y_conv.conv.weight f4 [16, 1, 1, 9]
00000000: d381 a2be 0a87 8cbd f4e6 293b 6b8a aabe
00000010: aa42 42bd 9d71 9a3e 4b7c 473e e4fe 1abe
00000020: b8b0 1ebe 712b cd3d 2405 d7bd f313 03be
00000030: 7b27 dc3c 54a6 40be bd89 17be dd66 823e
00000040: 1b32 d5bb bc92 4bbe 7db4 78bd 8735 3e3e
00000050: 6734 a43e e0ad 84be 6dfc 113e 198b 263e
00000060: 8b48 29be 3d42 e43d c39b 6f3e bd0c 873e
00000070: 3fc2 a83d 0e51 19be 94df fdbd a174 463e
00000080: 21ac 8bbe 74c5 843e aad1 a3be 9541 a43d
00000090: c0ab 3e3e 1e3f 3fbe 4cc9 f0bd 09f0 223d
000000a0: a0a4 edbd ef05 abbc 4c4d debc d218 933b
000000b0: e18f 96bd 1b21 7e3e c3e6 d5bd 7e8e c63c
000000c0: 4d4a 453e e4e3 043d ef5d 03bd 033f 8d3e
000000d0: 8711 833e e5ea 97be 1c91 88be 4ae6 063e
000000e0: 7649 b33d 3def babd 1f19 913e 3afb 0b3e
000000f0: f899 9bbe 4ec1 1c3e 1b94 4abe 3d62 38be
00000100: 0db4 333e 4ffa 81be 2001 363e 1888 a13e
00000110: 7d0e 8dbe 40f3 1cbe 50e3 9e3e 36b6 67be
00000120: 25c8 823e 5d80 22be 6359 293e 709e acbd
00000130: 0ecb 68be bce2 183c 1061 bb3d bae5 573b
00000140: 0c6b a8be 4525 0a3e 6232 253e 9530 83bd
00000150: 6832 08be d396 3e3e 2e51 32be 5ac6 243e
00000160: 5400 1bbe 67f1 6f3d 2416 48bb d98c 253e
00000170: 7966 a6bc 9391 903e 7a9d 463e 8b27 f93d
00000180: bd5c e5bd 9c72 8e3d 8828 ae3e 15c9 1e3e
00000190: 19d2 bbbd 45ef 18be 63cf 48bc e19d 563e
000001a0: e607 333e 0aa5 9abe 7ce0 973e 7036 c43c
000001b0: 58d3 14bd 2d62 963e f385 353e c76a bebd
000001c0: a83c 1b3e 3745 843e d65c 20be 9638 aebd
000001d0: 8f5f f93c 5626 803e c36e e73d a6ca 4a3e
000001e0: 1547 5bbd 4407 fd3d 70bf 7e3c e7dc 27bd
000001f0: 7390 f13d 23ce e93d 7689 12be 065a 0bbe
00000200: 65d7 07bc 7694 68be 7e2c 583e 3d1f 573e
00000210: 4a8b 713e 4036 5ebd 5161 7c3d 7b23 523e
00000220: e88d dcbd 2134 21be e00b 2c3e 0f10 963e
00000230: b517 55be 7434 5bbe b894 f8bc b5d6 7dbe
-0.31739673 -0.06861694 0.0025925012 -0.3330873 -0.047426857 0.30164805 0.19481008 -0.15136296
-0.154971 0.100180514 -0.10499027 -0.12800579 0.026874295 -0.18813449 -0.14798637 0.25469103
-0.006506217 -0.19880193 -0.060719002 0.18575107 0.3207123 -0.25913906 0.14256449 0.16263999
-0.16531579 0.111454464 0.23399262 0.26376906 0.082401745 -0.14972326 -0.1239616 0.19380428
-0.2727976 0.25931895 -0.31995898 0.08020321 0.18620205 -0.18676421 -0.11757144 0.039779697
-0.11603665 -0.020876853 -0.027136467 0.004489043 -0.073516615 0.24817316 -0.10444405 0.024237867
0.19266625 0.032443896 -0.032072004 0.27587137 0.2559931 -0.29671398 -0.2667321 0.13173786
0.08754246 -0.09127662 0.28339478 0.13670054 -0.30390906 0.15308115 -0.1978306 -0.18006225
0.17549153 -0.25386283 0.17773867 0.31549144 -0.27550116 -0.15327168 0.310328 -0.22628102
0.25543323 -0.15869279 0.16538005 -0.08428657 -0.22733709 0.009331401 0.091493726 0.0032943324
-0.3289417 0.1349078 0.16132501 -0.06405751 -0.13300478 0.18612222 -0.1741378 0.1609129
-0.15136844 0.05857983 -0.0030530775 0.1616701 -0.020312535 0.28236064 0.1939601 0.12165745
-0.11199329 0.06955454 0.34015298 0.15506394 -0.09170932 -0.14935024 -0.012256476 0.20958664
0.17483482 -0.3020404 0.29663455 0.02395174 -0.036334366 0.29371777 0.17726879 -0.0929771
0.15159857 0.25834057 -0.15660414 -0.08506887 0.030441074 0.25029248 0.11300423 0.19803867
-0.053534586 0.123549014 0.015548572 -0.040982153 0.117951296 0.114162706 -0.1431025 -0.1360856
-0.0082911 -0.22712883 0.21110722 0.2100801 0.23588291 -0.054250956 0.061616246 0.20521347
-0.10769254 -0.15742542 0.16801405 0.29309127 -0.20809825 -0.21406728 -0.030344352 -0.24788935

ConvBase.1.feature.lis.3.Y_conv.conv.bias f4 [16]
00000000: db0f c93d b4fe 18be d260 1e3e d94a a7bd
00000010: c578 93be 0f1a edbd a8fb a23d 6550 70be
00000020: 8efb 013e 3f3c f2bd c757 8a3d 086f 173e
00000030: d515 ef3d 9234 afbd 8ecf 103e 61dc ad3b
0.09817477 -0.14940912 0.15466622 -0.08168573 -0.28803077 -0.11577236 0.07958156 -0.23468168
0.12693617 -0.11827897 0.067550234 0.14788449 0.11674086 -0.08554949 0.14141676 0.005305812

ConvBase.1.feature.lis.3.pointwise.weight f4 [16, 16, 1, 1]
00000000: e4eb 023e 1487 8a3c e88a 803d 0abf 8bbd
00000010: affc 813d d1ef 8abc 0a27 00bd add8 c63d
00000020: 21d6 d83d 678c ae3c 2135 e83d 7110 593d
00000030: 23da 3abe d020 f9bd b17a 49bd 447a ea3d
00000040: dec8 823e 7e95 b1bd ec5c b2bd ccce 0d3e
00000050: cb58 c83d ea23 863d c6ff 633e d14c 2f3e
00000060: 2cc2 25be 271c b0bd 7282 ab3d d307 7c3e
00000070: ea90 7ebb 2eb4 4a3e 7c4e 8f3d c5c3 96bd
00000080: 365c d33d 3f0f acbd 4d7d 7cbe db2b 0e3e
00000090: 5f68 48be 9a38 d03d ccb7 21be 5570 593e
000000a0: b2e5 9abd 2fe2 d3bb 818e d7bc 12e4 6cbe
000000b0: e4c5 023d abda 203d 6cd0 1bbe 644e 37be
000000c0: 4942 c33d dbd9 dabd 15c5 4ebe edc1 bebd
000000d0: f770 f9bd 62af 3d3d 0104 22be d360 43be
000000e0: bd77 bf3d cb36 a0bc cf91 063e 4b63 323e
000000f0: 49f3 09bc 959f 2ebe fe34 0d3d d35c f73d
00000100: cba9 3fbe a604 2b3e ee11 5b3d 48c1 eb3c
00000110: 5898 3bbd c432 e4bd aa95 2a3e df6d 593e
00000120: 58e4 75bc 3088 48bd c51d 1f3e 1a81 a43d
00000130: 2157 db3d 5380 b6bd da68 27be cb28 5dbe
00000140: 6b29 5cbe 13a8 953c c709 20be ff17 afbd
00000150: 19d2 4f3e 35e2 74bd ab32 70be 58c9 63bd
00000160: a98f a4bd 1af0 c63c fb29 c3bd 96f1 94bd
00000170: c0d8 21be 4679 76be 33fc dabd ce26 26bd
00000180: 3b32 ccbc 220a d0bd fd09 313e c36a 87bd
00000190: 09ad 123e a75f 2d3e 80e4 363e 2e44 43be
000001a0: 6986 5cbe 2921 f0bc 57ab 0a3e 860d 5bbd
000001b0: 5cca 783e a000 34be a684 533e 9b10 cebc
000001c0: 0fa9 303e ec2e 6bbe 7084 a2bb d83e d7bd
000001d0: 92ad c4bc 1cc2 fbbd 5d77 df3d f617 34be
000001e0: d02e 1fbe 1fa1 263c 0861 23be 10eb e93d
000001f0: 29d7 67bd 435e aabd 5ab7 163e 95a1 283e
00000200: fbbf 24be 136e 9abb 195b 703e 2fff 0f3d
00000210: e0de 0fbe b97c dabd 330d 4fbd 8581 473e
00000220: 2892 74be 9cc4 963d 21f2 a8bc ee90 71be
00000230: b8e9 a93b 4850 393e 1ac0 953d 792f aebd
00000240: 9c91 023d 4083 eebd 9666 c5bb e1e4 39bc
00000250: 3bdd 873e 5f80 24be 5d4e 05be 951c ed3c
00000260: 48e7 3d3c 31c4 aebc 2663 563e 4c02 4c3e
00000270: f183 d03b 5985 72be 8d32 643e 6a98 f03d
00000280: 723a 083e a13a 88bd 2d20 1f3e bce4 dc3d
00000290: d068 723d e676 6e3d 2503 413e aadf 0ebe
000002a0: 353c debd 17fd 943d 00b9 433e e5dd 8b3d
000002b0: 7389 90bd 41f2 3d3c fd50 c0bb 1818 153e
000002c0: 1c79 173e d2a3 7e3d 36a3 683d 1204 d2bc
000002d0: 025b 94bd aaa6 273e 0f6d 15be 7c6e 75be
000002e0: 95fe 213e 4e91 0dbe f2cb 7e3e 3efb b6bd
000002f0: d018 abbc 1608 6d3e 5bd5 2c3e ca50 4c3e
00000300: 2a1d 69be 5f7f 5c3d a2a8 5abe efd4 243d
00000310: 79cf a23d df79 3f3e d269 69be 5ec0 3f3e
00000320: 9689 523e f99a 9a3b 39f0 11bd d557 383e
00000330: fbdf f3bc 8cee 67be bc9d 3d3e 2a5d 1e3d
00000340: a1a6 873d 848b 013e 709d f03d 5f03 d03d
00000350: c38f 273e acda 08be cab5 b6bd 4ccb 9cbd
00000360: 101d d63d 43b7 45be 2007 b23d 11bf 35be
00000370: d5fe b0bd d39a 34bd e4fe 4ebd 6bfa f3bd
00000380: 56bc c13d 8173 823d 160c 613e cb24 433e
00000390: 268b 313e c9df 58be a656 c53d f4a3 2c3e
000003a0: 8d43 dc3c 1998 57be ef0b 7a3e b269 cc3c
000003b0: fcf1 0abe b38f ba3c 505c 6a3e f823 343e
000003c0: 405c b8bc 88c4 143e cb15 113e 5c25 7e3d
000003d0: 8618 62be 1c96 51be 4bb0 1bbe af3b 49be
000003e0: 325d 203c 88e2 ebbc c10a 1e3e 26b6 813c
000003f0: edc8 e9bd ff3c 41be 5d36 8f3b 1639 5a3e
0.12785298 0.016910113 0.06276494 -0.06823547 0.06347024 -0.016960056 -0.03128723 0.097092964
0.10587717 0.021307183 0.113382585 0.052994195 -0.18247275 -0.121644616 -0.049189273 0.114491016
0.25543875 -0.086710915 -0.0870913 0.13848418 0.09782561 0.06549819 0.22265539 0.17119147
-0.16187352 -0.0859912 0.0837449 0.2461236 -0.00388437 0.19795296 0.069973916 -0.07361559
0.10320322 -0.084013455 -0.24657173 0.13883917 -0.19571064 0.10167046 -0.15792769 0.21234258
-0.07563342 -0.006466172 -0.026313068 -0.23133877 0.031927004 0.039271038 -0.15216225 -0.17900997
0.09534127 -0.10686084 -0.20192368 -0.09314332 -0.121797495 0.046309836 -0.1582184 -0.19079904
0.0934901 -0.019557377 0.13141559 0.1742069 -0.00841982 -0.17053063 0.034474365 0.12078252
-0.18717115 0.16700992 0.053483896 0.028778687 -0.045799583 -0.11142495 0.16658655 0.21233319
-0.015008055 -0.048958004 0.155387 0.08032437 0.10709978 -0.08911195 -0.16348591 -0.21597593
-0.21500175 0.01826862 -0.1562873 -0.08549499 0.2029499 -0.05978604 -0.23456828 -0.05561194
-0.080352135 0.024284411 -0.095294915 -0.07272641 -0.1580534 -0.240697 -0.106926344 -0.04056435
-0.024926296 -0.10158183 0.17288966 -0.0661216 0.1432382 0.1693102 0.17860603 -0.19068977
-0.21535648 -0.029312687 0.13541923 -0.053479694 0.24295944 -0.17578363 0.2065607 -0.025154402
0.1725199 -0.22967118 -0.0049596354 -0.10510033 -0.024008546 -0.12292883 0.109114386 -0.17587265
-0.15545201 0.01017025 -0.15954983 0.11421788 -0.056601677 -0.0831876 0.1471838 0.16467889
-0.1608886 -0.004712829 0.23472251 0.03515547 -0.14049864 -0.1066832 -0.050549697 0.19483002
-0.23883879 0.07361719 -0.020623269 -0.23590443 0.005185332 0.18097031 0.07312031 -0.085051484
0.031877145 -0.11646128 -0.006024192 -0.011346073 0.26535973 -0.16064595 -0.13018174 0.028944293
0.011590786 -0.021333786 0.2093626 0.19922751 0.006363385 -0.2368368 0.22284909 0.11747821
0.13303545 -0.066518076 0.15539618 0.10785815 0.05918199 0.05821886 0.18848856 -0.13952509
-0.10851327 0.072748356 0.1911354 0.068294324 -0.07057466 0.011593402 -0.0058690296 0.14559972
0.14792293 0.06216795 0.056796275 -0.025636707 -0.07243921 0.16372171 -0.14592384 -0.23967928
0.15819772 -0.1382496 0.24882486 -0.089346394 -0.020885855 0.23147616 0.16878264 0.19952694
-0.22765031 0.053832408 -0.21353391 0.04024213 0.079497285 0.18698834 -0.22794273 0.18725726
0.20560297 0.004718181 -0.035629485 0.18002255 -0.029769888 -0.22649592 0.18517202 0.038663067
0.06623579 0.12650877 0.11748779 0.10156893 0.16363434 -0.13364667 -0.08921392 -0.07655963
0.10454762 -0.1930819 0.08692765 -0.17748667 -0.08642355 -0.044092964 -0.05053605 -0.11912998
0.0945975 0.06369687 0.21977267 0.19057004 0.17338237 -0.21179117 0.096356675 0.16859418
0.02688768 -0.21054114 0.24418615 0.024952743 -0.13568872 0.0227736 0.22886777 0.17591846
-0.022504926 0.14528096 0.1416847 0.062047347 -0.22079667 -0.20467418 -0.15203969 -0.19651674
0.0097878445 -0.028794542 0.1543379 0.015833925 -0.11415277 -0.18870924 0.0043704943 0.21310839

ConvBase.1.feature.lis.3.pointwise.bias f4 [16]
00000000: 2c1d 873e d6f5 ed3d cf7b f9bd 1171 40be
00000010: 519c c6bc e64e 303e 1c74 253e 6e19 503e
00000020: 16ce 24be dce9 f5bd f260 b9bb b4be 373d
00000030: 9727 e0bd 8ce8 b6bc 5818 c93d 1306 4f3e
0.26389444 0.11619155 -0.12181818 -0.18793131 -0.02424446 0.17217597 0.16157573 0.203222
-0.1609424 -0.12007496 -0.0056573087 0.044859603 -0.10945051 -0.022327684 0.09819096 0.20217161

ConvBase.1.feature.bn.weight f4 [16]
00000000: 7042 7b3f ed9e 613f 3dea 033f a1d0 073e
00000010: f693 2c3f 1065 213f ec25 5f3f 376f 053f
00000020: b500 723f a7fb 233f d677 753e 6366 063f
00000030: 0d97 4d3f c52c 153e 5fb9 533e 0184 8c3e
0.9814825 0.88133126 0.51529294 0.1326318 0.6741327 0.63044834 0.8716724 0.52122825
0.9453233 0.64055866 0.23971495 0.5249998 0.8030861 0.1456786 0.20676182 0.2744446

ConvBase.1.feature.bn.bias f4 [16]
00000000: 3986 893b 27c4 603b bf07 463b df6b 8a3c
00000010: e909 a0bb 3c18 a6bb e4a6 8bbb 9f5e 683c
00000020: d1a6 42bc ed35 653b 0995 6bbb 2a84 e13c
00000030: 69b6 693c 0022 a63c 6687 ce3c d338 8bbc
0.004196909 0.0034296603 0.003021702 0.01689714 -0.004883994 -0.005068807 -0.0042618383 0.014182716
-0.011880592 0.003497477 -0.0035946986 0.027528841 0.014264681 0.020279884 0.025211047 -0.01699487

ConvBase.1.feature.bn.running_mean f4 [16]
00000000: 1ad7 893e 3b17 10be 5b75 a93c 6afe c8be
00000010: 8054 bc3b d0a0 acbe 0102 fbbd 0380 bf3e
00000020: a019 b0be 1432 a23d 8462 9dbd 0d7e 0fbc
00000030: d39b 85bd 04fb 0b3d e672 063c 5499 be3c
0.26921922 -0.14071362 0.020685842 -0.39256603 0.005747378 -0.3371644 -0.122562416 0.37402353
-0.3439455 0.07919708 -0.07684806 -0.00875808 -0.06523862 0.034174934 0.008206105 0.023266472

ConvBase.1.feature.bn.running_var f4 [16]
00000000: e964 d43a 6fcb ce3a 07b3 533b b317 1d3b
00000010: c67f f63a aed3 333b 5435 313b b26d 503a
00000020: 3645 6a3b dd38 e03a c526 be3a 1177 143b
00000030: 81d1 e93a 772c d33a 4c3c 3f3b 9b8f 033b
0.001620439 0.0015777181 0.0032302754 0.0023970425 0.001880639 0.0027439403 0.0027039843 0.0007950916
0.003574682 0.001710679 0.0014507404 0.0022653977 0.0017838926 0.0016111274 0.0029180227 0.002007461

ConvBase.1.bn.weight f4 [64]
00000000: cabd d63e fe05 c63d 06a6 ef3d 00e4 b63d
00000010: 80c1 bc3e 33a1 453f b7d2 653f 4816 26b9
00000020: deed 323f bcd5 663f 3a20 853e be77 0d3f
00000030: 5c98 8e3d 0d42 143e d1b9 4c3f 12d0 443f
00000040: 6adf 473f e679 4f3f 3e25 4a3f 83d6 d63e
00000050: 6a9d b63e e68e 543f e25e 153f 8afd 8a3e
00000060: 8a8b 573f 8652 1e3f f100 003f 9a8b 113f
00000070: 218c 4c3f a39b bb3e 4f44 973e b690 713f
00000080: 8907 2f3f 9329 ca3e 8828 143e 8857 733f
00000090: 89cc 963e f5b7 503f 12da 913e 1a2e ec3e
000000a0: a728 b23e 5830 3a3f b546 983e de26 113e
000000b0: 2cc6 963d be71 e93e 6d64 3a3e a83b 4c3f
000000c0: 6879 443f 2036 fc3e 61b1 923e 92e8 263f
000000d0: f219 a23e 20e8 7c3f a057 99ba 897e 6e3f
000000e0: 5a42 703f 9749 673e 6fdf 993e b355 2b3f
000000f0: bfe4 f43e 4a86 0f3e b8fd 593f f23b 353f
0.41941673 0.09669112 0.11701588 0.08930206 0.3686638 0.77199095 0.8977465 -0.00015839294
0.69894207 0.9016988 0.2600115 0.5526084 0.06962654 0.14478321 0.79971033 0.7687999
0.7807528 0.8104538 0.7896308 0.41960534 0.35666972 0.83030546 0.58347905 0.2714656
0.84197295 0.6184467 0.50001436 0.5685364 0.7990132 0.3664218 0.29544303 0.94361436
0.6837087 0.39484844 0.14468586 0.9505544 0.29452923 0.81530696 0.28486687 0.46128923
0.3479664 0.72730017 0.29741445 0.14174983 0.07362017 0.4559459 0.18202372 0.7977853
0.7674775 0.49260044 0.28650954 0.65198624 0.3166042 0.98791695 -0.0011699088 0.9316183
0.93851244 0.22586666 0.3005328 0.6692764 0.4783077 0.14016071 0.8515277 0.70794594

ConvBase.1.bn.bias f4 [64]
00000000: 2a63 e23c 7cd3 2e3c eebc 6739 c81e 5a3c
00000010: 0956 d2bc 74aa 80bc 8511 b23c febb ccbb
00000020: a402 a03c 271f b33b 4a9d 35bc c31d 80bc
00000030: 4ed9 493b ee2a a33c 7215 01bc cae2 d33c
00000040: aecc 14bb 6025 d6bc 8e26 90bc ff1d c5bc
00000050: 560e dd3c b58d 03bc 311b 943c 37a7 ad3b
00000060: 82e9 abbc aa6d af3c a8ba 5ebc 7b46 803c
00000070: 30fd 4a3c 052a 4c3c 4a11 1b3c 4745 13bc
00000080: cd4b 32bc 8d25 a7bc 8ce1 12bd 0ec4 0d3d
00000090: 588a 18bc f7d5 873c 1626 fbbb e14c d43b
000000a0: 9494 bb3c 69b7 c6bc de73 543b 72d3 853a
000000b0: 376b 803c 6693 613c f397 9f3b f70e ec3c
000000c0: fbba bb3c 71d7 e03c dfd0 1b3c e4ca 9e3c
000000d0: e18a b13c ccb0 68bc 4166 84bc 36c5 863c
000000e0: a010 45bc 21d6 cc39 8caa 803c 3747 b93c
000000f0: 9f74 0bbc 2d4b c73b 9c8a 2b3c d1c0 3d3a
0.027635176 0.010670539 0.00022100259 0.013313003 -0.02567579 -0.015706278 0.02173687 -0.0062479964
0.01953251 0.00546636 -0.011084864 -0.015639191 0.003079969 0.019917931 -0.007878648 0.025864977
-0.0022705006 -0.026140869 -0.01759651 -0.024062155 0.026984375 -0.008029391 0.018079372 0.0052994746
-0.020985369 0.021414597 -0.013594307 0.015658608 0.012389466 0.01246119 0.009464571 -0.008988685
-0.01088233 -0.020403648 -0.03585963 0.0346108 -0.0093103275 0.016581519 -0.0076644523 0.0064788912
0.022897996 -0.024257379 0.0032417695 0.001021011 0.015676124 0.013768053 0.0048704087 0.02881573
0.022916308 0.02744648 0.009510248 0.019383855 0.021672668 -0.014202308 -0.01616204 0.01645146
-0.0120278895 0.0003906945 0.015706323 0.022616966 -0.008511691 0.0060819597 0.010470059 0.000723851

ConvBase.1.bn.running_mean f4 [64]
00000000: a30e 2d3e 1248 e83d f95a e73d a80b 233d
00000010: edbe 013e 6312 0f3d 6c9b 923c e42d e63d
00000020: d903 4d3e c2f2 093e 4da0 513d 130f 183d
00000030: 23bb 333e bc34 a63c ef0b 523d 965c 2e3d
00000040: 47f4 503e eda6 453e dbcb b83d c480 543d
00000050: 8e01 233e 7a20 393e eca1 153e f442 d63d
00000060: 52c8 073e 7302 2d3e e536 0d3d d89b ea3d
00000070: b855 ff3d 7c03 573d 449b 663d 5d37 5c3d
00000080: fbe0 983e b9f1 673e 0d6d 043e 7af5 083d
00000090: 7ed6 393e f060 563e 751e 573e be3a 3a3e
000000a0: 7acd 513e 07cb d23d 5e6e 4d3d 9f98 1b3e
000000b0: fe3d 693e 9811 353d 9500 4c3d 2862 903d
000000c0: 83f3 963e 648a a43e 2e46 2d3e 3619 483d
000000d0: ce9a 4b3e ec93 273e 970d 753e a248 383e
000000e0: 4cae 873e 4deb 3b3e 8986 8f3d a7c4 203e
000000f0: bcdc 903e 545b 663d 2c1f 953d 7b46 bc3d
0.16900115 0.11341871 0.112966485 0.03980604 0.12670489 0.034929644 0.017896377 0.11239222
0.20020999 0.13471511 0.051178265 0.03712375 0.17551856 0.020288818 0.051280912 0.042568766
0.20405684 0.19301958 0.09023257 0.051880613 0.15918562 0.18078795 0.1461255 0.10461989
0.1326001 0.16895466 0.03447618 0.11455506 0.124675214 0.052493557 0.056300417 0.053763736
0.29859146 0.22650804 0.12932225 0.03343723 0.18148229 0.20935416 0.21007712 0.18186471
0.2048854 0.10292631 0.050154082 0.15194939 0.22777554 0.04420623 0.049805243 0.07049972
0.2948266 0.32136834 0.16921303 0.048852168 0.19883272 0.16365021 0.23930965 0.17996457
0.26500165 0.18351479 0.070080824 0.15700017 0.28293407 0.05623944 0.07281336 0.091931306

ConvBase.1.bn.running_var f4 [64]
00000000: 7da0 c53d da32 313d e237 303d 4d40 603b
00000010: b00c 6b3d cf62 9c3b e268 9c3b 4c7d 123e
00000020: 7ddf 063f 4cbe 643e ca26 0e3d 6272 e13b
00000030: e896 b93e 7350 6d37 6e50 a53c f016 0c3c
00000040: eae7 bf3e 0fda e23e bfc8 fc3d a0d8 123c
00000050: 88f6 dd3d 44ed 723e 36c1 233f e8ae 313e
00000060: 28ba 193e 9d57 8f3e ef44 093d f83d 243e
00000070: ece1 ea3c bc9c 533c 551c e93a 056b 793d
00000080: 08e9 233f 71ac 523e aa2f 723d be62 0d3c
00000090: 0226 d33d 03e4 4d3e 2159 903d 9d25 c23d
000000a0: 73de 5a3d eed3 b03e 845e 143d d68b 3f3d
000000b0: 0a96 cd3e eaa9 183c 08fe 043d 4258 973c
000000c0: 575a 233f 6ee7 803e e08e c93d faeb cc3b
000000d0: ca8b 183e 0289 3e3e 78d5 863e 642b af3d
000000e0: 7e2f f13e 0c6c 863d 529f 013d 616b 373e
000000f0: 2728 a33e a081 493c 9f93 b43c df6a 053d
0.09649751 0.043261386 0.043022044 0.0034218014 0.057385147 0.004772521 0.004773245 0.1430561
0.52684766 0.22338217 0.03470496 0.0068800906 0.36247945 1.4145032e-05 0.020179953 0.008550391
0.37481624 0.4430699 0.12342977 0.00896278 0.10838038 0.23723322 0.6396669 0.17351878
0.15012419 0.2799653 0.033513006 0.16039264 0.028672181 0.012915786 0.0017784933 0.060893077
0.6402745 0.20573594 0.059127487 0.008629499 0.10309984 0.20106511 0.0704825 0.094798304
0.0534348 0.3453669 0.03622295 0.046764217 0.40153533 0.009317854 0.032468826 0.018474702
0.6380972 0.25176567 0.09841704 0.0062537165 0.14897075 0.18606952 0.2633474 0.08553198
0.47106546 0.06563577 0.03164608 0.17912056 0.3186657 0.012298971 0.022043047 0.032572623
