waights/weights9.pth (torch_old, 670822 bytes, 196 tensors)

ConvBase.1.feature.lis.0.X_conv.conv.weight f4 [1, 1, 3, 1]
-0.0088485535 -0.19288373 -0.12520242
00000000: 86f9 10bc 5083 45be 1035 00be

ConvBase.1.feature.lis.0.Y_conv.conv.weight f4 [1, 1, 1, 3]
0.30947408 -0.072666116 -0.14087829
00000000: 6373 9e3e f9d1 94bd 6642 10be

ConvBase.1.feature.lis.0.pointwise.weight f4 [16, 1, 1, 1]
-0.36004856 -0.22257233 -0.7802866 -0.9416643 -0.49539906 -0.089270055 0.02999795 0.59315753
0.82993025 0.65963125 0.91150963 0.052946 0.69601816 0.00820464 0.46836886 -0.4960935
00000000: 4958 b8be 00ea 63be ddc0 47bf e910 71bf
00000010: f2a4 fdbe 38d3 b6bd 43be f53c 2cd9 173f
00000020: 4f76 543f 98dd 283f b258 693f e8dd 583d
00000030: 3f2e 323f c16c 063c 0bce ef3e f8ff fdbe

ConvBase.1.feature.lis.0.pointwise.bias f4 [16]
0.8241672 -0.30123463 0.71083283 -1.0370386 -0.30171046 -0.8134173 -0.34185323 0.9278783
-0.68381757 0.26731846 -0.4566559 -0.5558925 0.038567968 -0.07926291 -0.27758864 -0.40827465
00000000: 9ffc 523f 6d3b 9abe 24f9 353f aebd 84bf
00000010: cb79 9abe 1e3c 50bf 6307 afbe 6f89 6d3f
00000020: ab0e 2fbf f7dd 883e cdce e9be f94e 0ebf
00000030: 72f9 1d3d 9854 a2bd 1920 8ebe 6009 d1be

ConvBase.1.feature.lis.1.X_conv.conv.weight f4 [16, 1, 5, 1]
0.23760627 -0.30455717 -0.00054019154 0.35052726 0.25456345 0.015036029 0.33159676 -0.008593242
0.14162536 -0.27145958 -0.21237786 -0.3078492 -0.052541964 0.2858762 -0.10480249 -0.043684084
0.04587577 0.18835637 0.42308208 0.013203587 -0.38364795 -0.101754524 0.025374329 -0.31471297
0.3547417 0.12377028 0.25526944 -0.38142687 0.223295 0.15805994 -0.27817193 -0.17259857
-0.17970428 0.19790429 -0.0076630535 0.07680249 -0.045933418 0.43766654 0.40669876 0.13239525
0.04998703 -0.32813177 0.3476122 0.23260675 0.102603406 -0.31392133 -0.29883572 0.098004244
0.1377945 -0.3903218 -0.060630556 -0.063948944 -0.45270774 -0.023750236 0.3707002 -0.43419486
-0.4416085 0.28992352 0.19003734 0.3714827 -0.16780241 -0.06212211 -0.064441 0.39804307
-0.2651369 -0.35520488 0.3456578 -0.17949034 0.0885364 -0.071388304 -0.01699253 -0.0007736633
-0.28787398 -0.4467593 0.2534874 0.35028636 -0.061603505 0.16176595 0.19928025 -0.40461144
00000000: 0f4f 733e ebee 9bbe a49b 0dba 4f78 b33e
00000010: 2456 823e ad59 763c 0dc7 a93e abca 0cbc
00000020: 3d06 113e c0fc 8abe 9579 59be 699e 9dbe
00000030: 3e36 57bd 5e5e 923e b0a2 d6bd 15ee 32bd
00000040: 3be8 3b3d 7ee0 403e 379e d83e dc53 583c
00000050: 816d c4be ad64 d0bd d3dd cf3c 0f22 a1be
00000060: b4a0 b53e 467b fd3d adb2 823e 624a c3be
00000070: 72a7 643e 77da 213e 8d6c 8ebe aebd 30be
00000080: 6604 38be 6ca7 4a3e 5a1a fbbb a04a 9d3d
00000090: ae24 3cbd d415 e03e d23a d03e 9f92 073e
000000a0: 33bf 4c3d e300 a8be 3afa b13e 7730 6e3e
000000b0: bc21 d23d 4cba a0be ff00 99be 73b6 c83d
000000c0: 001a 0d3e 42d8 c7be bf57 78bd aaf7 82bd
000000d0: 4fc9 e7be db8f c2bc 6bcc bd3e ca4e debe
000000e0: 821a e2be db70 943e 2699 423e fb32 be3e
000000f0: 65d4 2bbe c173 7ebd a5f9 83bd 4dcc cb3e
00000100: 06c0 87be 6add b5be 0ffa b03e 51cc 37be
00000110: 9252 b53d 0834 92bd eb33 8bbc aacf 4aba
00000120: 3864 93be a3bd e4be 1ac9 813e bc58 b33e
00000130: f553 7cbd f9a5 253e 1f10 4c3e 3b29 cfbe

ConvBase.1.feature.lis.1.X_conv.conv.bias f4 [16]
0.03235388 0.09076416 0.050840862 -0.4455877 -0.28904325 -0.3931584 -0.4467157 0.10057411
0.16211742 -0.15322639 0.30741212 0.29544154 0.068844736 0.116921164 -0.42707604 -0.0034752425
00000000: 8185 043d 8fe2 b93d 823e 503d 1224 e4be
00000010: 7afd 93be 0f4c c9be ecb7 e4be cdf9 cd3d
00000020: 1c02 263e 61e7 1cbe 1f65 9d3e 1d44 973e
00000030: 78fe 8c3d 5d74 ef3d b6a9 dabe e5c0 63bb

ConvBase.1.feature.lis.1.Y_conv.conv.weight f4 [16, 1, 1, 5]
0.2649883 0.35190645 -0.3595403 -0.19572589 0.026789224 0.33723003 0.42818567 -0.11122608
0.0015104106 -0.42461494 -0.33276364 0.055347733 0.26107258 -0.312185 -0.24016128 -0.268641
0.25204292 0.46044546 -0.20931983 -0.34426218 -0.2660134 0.39243475 0.3898729 -0.34867972
0.19896427 -0.24274167 -0.1997678 -0.35771796 0.11883377 -0.378288 0.07110218 -0.10330505
0.046326425 0.26117185 0.099432185 -0.35385588 0.253295 -0.07776604 -0.103631854 0.066133626
-0.05123659 -0.41842195 -0.08820303 0.1702049 -0.29491955 0.20491333 -0.3398489 -0.14431483
0.41841826 0.31192577 0.24361785 0.1243664 -0.08868726 0.18668443 -0.26906085 0.40082604
-0.36315903 0.2664179 -0.11044139 -0.12014731 0.43847197 -0.21927202 0.16379285 0.43413326
0.001502926 0.3004458 0.019350858 0.24528395 0.40061778 -0.26152492 -0.30538216 -0.42700076
0.36737934 -0.41641253 0.40321892 0.32851374 -0.075576 -0.45748293 -0.26371413 -0.010126104
00000000: 8cac 873e 152d b43e ab15 b8be 5e6c 48be
00000010: 1375 db3c 6aa9 ac3e 273b db3e 80ca e3bd
00000020: f8f8 c53a 2167 d9be ff5f aabe 4eb4 623d
00000030: 4eab 853e b6d6 9fbe d7ec 75be 508b 89be
00000040: c50b 813e 82bf eb3e f057 56be 2243 b0be
00000050: e932 88be 35ed c83e 6c9d c73e 2686 b2be
00000060: 4abd 4b3e 4691 78be ee8f 4cbe cf26 b7be
00000070: 1f5f f33d f7ae c1be 059e 913d 9991 d3bd
00000080: c7c0 3d3d 51b8 853e 1aa3 cb3d 992c b5be
00000090: e2af 813e cd43 9fbd f03c d4bd 1171 873d
000000a0: 75dd 51bd 673b d6be caa3 b4bd 314a 2e3e
000000b0: b2ff 96be cdd4 513e ad00 aebe 44c7 13be
000000c0: eb3a d63e bcb4 9f3e f576 793e d0b3 fe3d
000000d0: aba1 b5bd 342a 3f3e 58c2 89be 1239 cd3e
000000e0: fbef b9be ed67 883e 182f e2bd cb0f f6bd
000000f0: 667f e03e d888 60be 50b9 273e b746 de3e
00000100: d4fd c43a 08d4 993e b185 9e3c b72b 7b3e
00000110: c61d cd3e 98e6 85be 0d5b 9cbe d89f dabe
00000120: 2519 bc3e 0634 d5be b672 ce3e f432 a83e
00000130: 97c7 9abd 343b eabe 8a05 87be f5e7 25bc

ConvBase.1.feature.lis.1.Y_conv.conv.bias f4 [16]
0.19105236 0.2513923 -0.14466664 0.28194922 0.116855696 0.06924963 0.05501831 0.15335402
0.35618892 0.058533978 -0.42347124 -0.15943171 -0.37562278 0.20343804 -0.3377837 -0.37288553
00000000: 3ba3 433e 7eb6 803e 7e23 14be a65b 903e
00000010: 0a52 ef3d c0d2 8d3d e15a 613d d608 1d3e
00000020: 655e b63e 53c1 6f3d 39d1 d8be 1142 23be
00000030: a151 c0be 1052 503e fcf1 acbe daea bebe

ConvBase.1.feature.lis.1.pointwise.weight f4 [16, 16, 1, 1]
-0.18203816 -0.23125355 -0.14326425 0.17290218 -0.21372671 0.11873341 0.08279434 0.2283232
-0.040943254 -0.08707326 -0.04243043 0.13582234 -0.20204373 0.2209636 -0.23425785 0.219764
0.1745844 0.090258464 0.06863786 -0.047725838 -0.20481677 -0.18293212 0.14747958 0.20042995
0.031035151 0.13803568 -0.20297717 0.10023984 -0.124937154 0.102932595 0.18034948 0.010240834
-0.16195531 -0.09329574 -0.02936975 0.046589196 -0.2964502 -0.011361428 0.077795826 -0.18852313
0.1365047 0.01494179 -0.18460934 0.18598457 0.00011862366 -0.15632927 -0.09515643 -0.2385383
-0.010937218 -0.18870777 0.13514498 -0.09696663 -0.18719296 0.058394402 0.20386666 -0.0017012787
0.07960701 0.0043274513 0.16085434 -0.09847499 0.08323438 -0.26453736 -0.012547912 -0.26633328
-0.17188533 0.20722082 0.22409289 0.18142417 -0.17371978 0.2101311 0.1878173 -0.15365452
0.23479865 0.12883393 0.014393859 -0.01491401 -0.1101363 -0.1535163 0.0684119 -0.1257366
0.10512091 -0.120719925 -0.029952561 -0.0824666 -0.08970649 0.021376085 0.051553313 -0.01934984
-0.1560134 -0.040721145 0.02594044 -0.22275114 0.0019518217 -0.13935776 -0.02891649 0.16828363
-0.25335228 0.034654018 -0.065616116 0.022224884 0.07593851 -0.1990629 -0.07239583 0.039850682
-0.15923946 0.14518951 0.26844805 -0.025197988 -0.1782095 -0.03167698 -0.026426245 0.22186425
-0.17260984 0.13347772 -0.13925616 0.07834724 0.18149056 -0.18111348 -0.03447782 0.14087014
-0.13907497 -0.0387076 -0.12248694 -0.092477635 0.027712122 -0.15619214 -0.045503832 -0.13351484
0.050088953 0.07779323 -0.22558711 -0.2609541 -0.037947576 0.03589506 0.24151178 -0.0991512
0.10864085 -0.14474745 0.23129475 -0.26623976 0.19145519 -0.1896869 0.19831866 0.15082122
0.13204625 0.06676377 0.22657284 -0.09532234 -0.009108849 -0.0015478607 0.213408 -0.121286094
-0.006212071 0.21258405 -0.13558483 0.07271295 0.0017983845 -0.2015357 0.15317176 0.1354964
0.27853483 0.23423065 -0.04157389 0.08478823 0.13129668 0.037090816 -0.20935498 0.01156508
-0.16495845 0.20890746 0.20688795 -0.14650959 0.1982155 -0.12271572 -0.22887342 -0.1936299
-0.15216535 -0.014360208 -0.056914646 0.22436957 -0.0075634494 -0.056101665 -0.070686705 -0.1683173
0.06888194 0.1237286 0.058726963 0.09958157 0.04295839 -0.13135631 -0.22012678 0.01700004
0.12097364 -0.23363975 -0.06963416 -0.12598883 0.105350696 -0.15200047 0.10329971 0.01926053
0.14219514 -0.20928779 0.06272986 0.14517546 0.14154656 -0.08225542 -0.017325826 -0.2647491
-0.21487649 0.18616441 -0.14732848 -0.06570274 0.14978954 -0.105644174 -0.23219445 -0.04512431
-0.110254385 -0.028020116 0.14356625 -0.15257719 0.14353302 0.17101684 -0.118716426 -0.20106332
0.13959303 -0.005688722 -0.11994317 0.13778296 -0.059326425 0.10282274 0.08261364 0.22572477
0.104960635 -0.19183382 -0.13841942 -0.0021449423 0.15841989 -0.15593837 0.21318205 -0.026929118
-0.03320668 -0.14113526 0.17866075 -0.21853375 -0.06071831 0.059233185 -0.00916529 -0.17431909
-0.11378024 -0.08252926 -0.04457207 -0.20054404 -0.04756975 0.22084701 0.2862882 -0.09592734
00000000: 3668 3abe bbcd 6cbe ddb3 12be 450d 313e
00000010: 2ddb 5abe 812a f33d 1490 a93d 8fcd 693e
00000020: 1db4 27bd 7753 b2bd 88cb 2dbd 0315 0b3e
00000030: 8de4 4ebe 4844 623e 4ae1 6fbe d009 613e
00000040: 41c6 323e 6ed9 b83d 0292 8c3d 2b7c 43bd
00000050: 7dbb 51be 8f52 3bbe e304 173e 823d 4d3e
00000060: 6e3d fe3c 3a59 0d3e 3fd9 4fbe 8c4a cd3d
00000070: 0ddf ffbd 53ce d23d 89ad 383e 2cc9 273c
00000080: 9dd7 25be d611 bfbd d498 f0bc 50d4 3e3d
00000090: 52c8 97be 4825 3abc 6b53 9f3d 350c 41be
000000a0: e3c7 0b3e 69ce 743c 3b0a 3dbe bd72 3e3e
000000b0: 98c5 f838 c814 20be 60e1 c2bd 6243 74be
000000c0: 0432 33bc 9c3c 41be 7263 0a3e 7196 c6bd
000000d0: 83af 3fbe f82e 6f3d 6cc2 503e 71fd deba
000000e0: 0009 a33d 4bcd 8d3b 00b7 243e 41ad c9bd
000000f0: c976 aa3d 7171 87be c295 4dbc d65c 88be
00000100: b502 30be b231 543e 9b78 653e 42c7 393e
00000110: 99e3 31be 9b2c 573e 2e53 403e 9c57 1dbe
00000120: 0f6f 703e 0bed 033e 38d4 6b3c e459 74bc
00000130: 248f e1bd 6033 1dbe 8a1b 8c3d 18c1 00be
00000140: a249 d73d 023c f7bd 135f f5bc 40e4 a8bd
00000150: 09b8 b7bd e61c af3c 9129 533d 8e83 9ebc
00000160: fac1 1fbe 37cb 26bd 0c81 d43c e018 64be
00000170: 45d4 ff3a cdb3 0ebe 46e2 ecbc 8b52 2c3e
00000180: 64b7 81be 5ff1 0d3d be61 86bd f610 b63c
00000190: a685 9b3d 25d7 4bbe 4444 94bd 783a 233d
000001a0: ab0f 23be 8fac 143e 0672 893e 036c cebc
000001b0: 8d7c 36be b9bf 01bd da7b d8bc 6230 633e
000001c0: a2c0 30be 62ae 083e 2b99 0ebe 8574 a03d
000001d0: a9d8 393e d075 39be 9d38 0dbd 4340 103e
000001e0: ab69 0ebe dc8b 1ebd 6fda fabd ea64 bdbd
000001f0: 8804 e33c d5f0 1fbe 3a62 3abd 1db8 08be
00000200: 132a 4d3d 0f52 9f3d 4f00 67be c79b 85be
00000210: eb6e 1bbd b306 133d dd4e 773e c90f cbbd
00000220: 187f de3d ad38 14be 88d8 6c3e 9450 88be
00000230: d40c 443e 483d 42be 0c14 4b3e e170 1a3e
00000240: 2237 073e 72bb 883d b602 683e 5c38 c3bd
00000250: 483d 15bc 96e1 caba a087 5a3e d864 f8bd
00000260: a18e cbbb a2af 593e c0d6 0abe 87ea 943d
00000270: c5b7 eb3a 605f 4ebe 0fd9 1c3e 91bf 0a3e
00000280: 1e9c 8e3e 29da 6f3e 6249 2abd 74a5 ad3d
00000290: a372 063e 8aec 173d 2761 56be 767b 3d3c
000002a0: deea 28be d6eb 553e 6fda 533e 9c06 16be
000002b0: 01f9 4a3e 6152 fbbd cb5d 6abe eb46 46be
000002c0: 3cd1 1bbe 1447 6bbc 551f 69bd 23c1 653e
000002d0: d0d6 f7bb dcca 65bd 31c4 90bd 5f5b 2cbe
000002e0: f911 8d3d 6c65 fd3d af8b 703d 6cf1 cb3d
000002f0: 23f5 2f3d 4582 06be ea68 61be ab43 8b3c
00000300: 07c1 f73d 423f 6fbe 5b9c 8ebd 3703 01be
00000310: 1bc2 d73d 03a6 1bbe cc8e d33d 42c8 9d3c
00000320: 9a9b 113e 8a4f 56be 8378 803d e0a8 143e
00000330: 95f1 103e 8875 a8bd e4ee 8dbc 328d 87be
00000340: 9508 5cbe e2a1 3e3e 47dd 16be 288f 86bd
00000350: 6e62 193e f95b d8bd 62c4 6dbe 45d4 38bd
00000360: 0dcd e1bd 718a e5bc 0803 133e 323d 1cbe
00000370: 52fa 123e 0a1f 2f3e 9921 f3bd 8be3 4dbe
00000380: 7af1 0e3e 7568 babb c4a4 f5bd fa16 0d3e
00000390: 4400 73bd bb94 d23d 5731 a93d 6524 673e
000003a0: 9af5 d63d 1670 44be d2bd 0dbe 2992 0cbb
000003b0: d338 223e 4fae 1fbe 654c 5a3e 749a dcbc
000003c0: ba03 08bd c385 10be d8f2 363e 50c7 5fbe
000003d0: c3b3 78bd 7f9e 723d 032a 16bc b480 32be
000003e0: 9d05 e9bd 1a05 a9bd 3491 36bd 6b5b 4dbe
000003f0: 80d8 42bd b825 623e 5e94 923e 8e75 c4bd

ConvBase.1.feature.lis.1.pointwise.bias f4 [16]
0.24394257 -0.2376302 0.13777201 -0.17996018 -0.08267386 -0.25985047 -0.19753867 0.11396896
-0.18089493 0.24870472 -0.010502774 0.14797635 0.07448431 0.026391547 0.1280528 -0.27219006
00000000: 15cc 793e 5555 73be 1b14 0d3e 7b47 38be
00000010: ea50 a9bd 1f0b 85be 9447 4abe 8f68 e93d
00000020: 853c 39be 73ac 7e3e d413 2cbc 1d87 173e
00000030: 3b8b 983d 1633 d83c 4620 033e 7f5c 8bbe

ConvBase.1.feature.lis.2.X_conv.conv.weight f4 [16, 1, 7, 1]
0.25698343 -0.3579223 0.38626197 0.119991094 0.35074416 -0.09617168 -0.30536774 0.08801697
0.011200185 0.15681243 0.09066335 -0.16065544 0.18593052 0.30764022 -0.1507559 -0.09183624
-0.33536762 0.13996896 -0.24364746 0.3022067 -0.022211235 -0.35982063 0.1534446 -0.20196787
0.32360622 -0.08800454 -0.18709317 0.022061545 0.09049351 0.21027562 0.28297874 0.35038805
0.18994969 -0.27755004 0.32200786 -0.038782116 -0.12322269 -0.046674244 0.3190141 -0.32760823
-0.18852384 -0.19593991 -0.13497657 -0.25686213 -0.22306381 0.0513922 0.078916386 -0.39697394
0.18935367 -0.29364446 -0.22479059 0.35772258 0.25825784 0.2706513 0.1816572 0.32241943
-0.31090295 0.30673388 0.2036449 -0.038557 0.13232526 0.020438366 -0.11854406 0.24359107
0.24961846 0.28277668 0.0977622 -0.35631892 -0.079934 -0.35883468 0.3439996 0.32758728
0.21459587 -0.17060013 0.09985895 -0.1336774 0.26034594 0.10528969 0.033285197 0.10151316
0.26985455 -0.11869978 -0.22800316 -0.13573019 0.05071884 -0.13827789 0.08970317 0.036755074
0.022174826 0.15751714 -0.34449315 -0.14519082 0.014660897 0.21645288 -0.394747 -0.20248348
-0.3010809 -0.38067898 0.09806652 0.3721662 -0.05416207 -0.19029874 -0.17264178 -0.034268636
0.026827075 0.31878263 0.15506922 -0.29961476 -0.19928627 0.1499801 -0.26807594 -0.026456036
00000000: 5593 833e 9741 b7be 21c4 c53e e4bd f53d
00000010: bd94 b33e a8f5 c4bd 2959 9cbe 3e42 b43d
00000020: fb80 373c 7093 203e b5ad b93d dc82 24be
00000030: 9264 3e3e 0583 9d3e c15f 1abe a314 bcbd
00000040: 4eb5 abbe 0654 0f3e b87e 79be d6ba 9a3e
00000050: 56f4 b5bc 693a b8be 9520 1d3e aad0 4ebe
00000060: b7af a53e b93b b4bd 5a95 3fbe 6aba b43c
00000070: a954 b93d 7e52 573e 97e2 903e 1066 b33e
00000080: 2c82 423e 0a1b 8ebe 37de a43e ffd9 1ebd
00000090: 2d5c fcbd 7e2d 3fbd d155 a33e 44bc a7be
000000a0: 650c 41be 79a4 48be 4c37 0abe 6f83 83be
000000b0: d76a 64be a180 523d ea9e a13d 2b40 cbbe
000000c0: eee5 413e 9158 96be 812f 66be 6a27 b73e
000000d0: 5f3a 843e cf92 8a3e 5804 3a3e 2914 a53e
000000e0: ac2e 9fbe 390c 9d3e 4a88 503e f2ed 1dbd
000000f0: 4680 073e 5c6e a73c 3ac7 f2bd f06f 793e
00000100: fb9b 7f3e 1bc8 903e 8c37 c83d 6f6f b6be
00000110: 70b4 a3bd 2eb9 b7be b720 b03e 85b9 a73e
00000120: 05bf 5b3e cdb1 2ebe d982 cc3d bae2 08be
00000130: 104c 853e 1fa2 d73d 0f56 083d 22e6 cf3d
00000140: 602a 8a3e df18 f3bd a979 69be dbfc 0abe
00000150: 8fbe 4f3d b898 0dbe 4cb6 b73d 7d8c 163d
00000160: fba7 b53c 2c4c 213e 6861 b0be e7ac 14be
00000170: 4234 703c d3a5 5d3e 471c cabe d457 4fbe
00000180: 4727 9abe 5be8 c2be 1ad7 c83d 918c be3e
00000190: 0cd9 5dbd acdd 42be 02c9 30be 455d 0cbd
000001a0: 74c4 db3c 7a37 a33e 77ca 1e3e 1b67 99be
000001b0: b311 4cbe 6294 193e 4041 89be 54ba d8bc

ConvBase.1.feature.lis.2.X_conv.conv.bias f4 [16]
-0.048337374 0.24656987 -0.1482875 -0.14709592 -0.042524394 0.19220847 0.21777397 0.09045056
0.16546734 -0.07960108 0.33693832 0.08334767 0.025579501 -0.11051523 0.3623472 -0.08345994
00000000: 69fd 45bd d07c 7c3e aed8 17be 50a0 16be
00000010: 0f2e 2ebd 4cd2 443e 2400 5f3e 253e b93d
00000020: 4570 293e e405 a3bd 2e83 ac3e 2fb2 aa3d
00000030: 1a8c d13c cf55 e2bd 9285 b93e 0ced aabd

ConvBase.1.feature.lis.2.Y_conv.conv.weight f4 [16, 1, 1, 7]
0.0418773 0.24764416 -0.28308904 -0.12544733 0.06711701 -0.33414766 0.3410614 0.061246216
-0.32886398 0.10173985 -0.012340439 -0.31169242 0.17929883 0.1298031 -0.115801804 0.047361504
-0.2393665 0.2605265 0.08175845 0.15786412 -0.007367581 -0.102115616 0.29072076 0.041307498
0.34952906 -0.0015746403 0.10551249 0.31425798 0.2514205 0.18820496 0.21775949 -0.028073858
0.12337875 0.12867072 0.2115954 0.14711209 -0.052898284 0.096412815 -0.41156408 0.1355336
0.08017354 0.2829281 0.1858953 -0.2562169 -0.34801513 0.21512888 0.021907805 0.32259583
-0.012288391 -0.12613451 -0.023025928 0.1486824 -0.26732233 -0.31124654 -0.006338289 0.11083601
-0.37258595 0.10902117 -0.35414824 -0.25721034 0.27109593 0.001591423 -0.07432214 -0.070409544
-0.3807378 -0.17805716 0.13075525 0.14694762 -0.18847854 -0.27835503 -0.074411094 0.041039478
0.29699898 0.14589539 0.11579917 0.27946225 -0.31658825 0.21325356 -0.2424974 0.15986256
-0.14910853 -0.1684065 -0.37301353 0.34084585 0.13787526 0.16578977 -0.03159868 -0.24368879
0.056696083 0.29219812 -0.13374715 -0.019793555 0.008259271 0.22354677 0.11716834 0.4087783
0.17738627 -0.1819233 0.21845023 -0.05731105 -0.13471122 -0.08563654 0.27078092 0.34592324
0.2106276 -0.26422673 0.08920386 -0.34408006 -0.26126698 -0.0058145067 -0.056878913 0.31936717
00000000: 8887 2b3d 6e96 7d3e 0cf1 90be 4475 00be
00000010: a574 893d 6715 abbe 9a9f ae3e 50dd 7a3d
00000020: dc60 a8be fc5c d03d 8d2f 4abc 2696 9fbe
00000030: 1d9a 373e 1beb 043e 7f29 edbd 23fe 413d
00000040: 7e1c 75be bb63 853e f970 a73d 22a7 213e
00000050: c06b f1bb fe21 d1bd 5ad9 943e 0d32 293d
00000060: 79f5 b23e 2964 ceba ef16 d83d 6ce6 a03e
00000070: 30ba 803e cdb8 403e 58fc 5e3e 26fb e5bc
00000080: 00ae fc3d 42c2 033e 77ac 583e 8da4 163e
00000090: dfab 58bd 1574 c53d 87b8 d2be 52c9 0a3e
000000a0: 0632 a43d f4db 903e 565b 3e3e dd2e 83be
000000b0: 0a2f b2be bf4a 5c3e ff77 b33c 482b a53e
000000c0: 3f55 49bc 6829 01be dfa0 bcbc 3340 183e
000000d0: 79de 88be b55b 9fbe 6cb1 cfbb fdfd e23d
000000e0: 96c3 bebe 7e46 df3d eb52 b5be 13b1 83be
000000f0: 16cd 8a3e 4b97 d03a 3536 98bd e132 90bd
00000100: 11f0 c2be 9e54 36be b4e4 053e 7079 163e
00000110: 8500 41be 8d84 8ebe d864 98bd 0319 283d
00000120: 4010 983e 9a65 153e 1e28 ed3d ad15 8f3e
00000130: db17 a2be 245f 5a3e 3d51 78be 03b3 233e
00000140: e8af 18be c172 2cbe a1fb bebe 5983 ae3e
00000150: 2c2f 0d3e cbc4 293e 9e6d 01bd 8e89 79be
00000160: 273a 683d fe9a 953e 03f5 08be 1826 a2bc
00000170: e551 073c 72e9 643e f4f5 ef3d 644b d13e
00000180: bfa4 353e 1a4a 3abe 6bb1 5f3e febe 6abd
00000190: bdf1 09be 3662 afbd cca3 8a3e da1c b13e
000001a0: c3ae 573e ba48 87be 83b0 b63d 432b b0be
000001b0: c9c4 85be 9e87 bebb ddf9 68bd 1884 a33e

ConvBase.1.feature.lis.2.Y_conv.conv.bias f4 [16]
0.0782568 0.17272878 -0.3416734 -0.37131026 -0.25205213 -0.02815854 0.15669805 -0.06159737
0.096331954 0.3388816 -0.11387353 0.32153586 -0.28567976 0.10670329 0.33098158 0.29932418
00000000: 1a45 a03d d0df 303e d1ef aebe 611c bebe
00000010: fa0c 81be bdac e6bc 7475 203e 864d 7cbd
00000020: b049 c53d e481 ad3e 8636 e9bd 59a0 a43e
00000030: 9e44 92be 4187 da3d 6b76 a93e 0541 993e

ConvBase.1.feature.lis.2.pointwise.weight f4 [16, 16, 1, 1]
-0.08915711 -0.09224468 0.21993974 0.22070874 0.23796068 0.0017956881 0.1193624 0.109086
-0.21885431 0.019595208 0.14722253 0.19476049 0.14367785 -0.054288153 -0.19727693 -0.1988813
0.17644788 -0.12762122 0.14043917 0.09481171 -0.1112528 -0.05402891 0.0152744595 0.0029463535
0.08049748 0.024655495 -0.14646073 -0.009561568 -0.06295887 -0.044153657 0.19936635 -0.15264909
-0.19912168 0.17029299 0.21758728 0.25103605 -0.18228765 0.19289224 0.1168612 -0.015505822
0.11768839 0.105570786 0.08021229 0.07124911 0.16457167 0.045760125 -0.18739936 -0.13627595
-0.25426528 -0.1683771 0.018895434 0.045872707 0.031556677 -0.16381341 -0.2334118 -0.058771554
0.22702298 -0.11745537 0.13933703 -0.23977716 0.12502192 0.24729371 -0.06421324 -0.20155165
-0.07268914 0.20080169 -0.24614981 0.21028963 -0.09599284 -0.12482267 0.032562938 -0.069636844
0.05925913 0.17070092 -0.058169093 -0.20746407 -0.16257718 -0.09762883 0.0013461941 0.10934463
0.10908483 -0.044466645 0.10072404 -0.11342627 0.21628533 0.2505674 0.19270538 0.091469854
0.2647165 -0.079531804 0.24905178 -0.0058725346 0.13951862 0.046358347 0.15636358 -0.23179455
0.12843563 0.10426712 0.019707184 -0.10286912 -0.1392611 -0.105871156 -0.116785325 0.17030235
0.26314244 0.031744964 -0.18941598 -0.16850741 0.24102737 -0.08029014 0.072437674 0.11144858
0.14307038 0.10945144 -0.028062204 0.048883405 -0.054219306 -0.10664877 0.07417387 -0.1301996
0.12110796 0.102589704 0.00454851 0.21370591 0.06835172 -0.02880354 -0.0687562 0.10229875
-0.22120702 0.16388635 0.15462904 0.12320696 -0.17728893 0.057054713 -0.04619633 0.1897994
-0.0001574194 0.07865374 -0.059940167 -0.090737745 0.20267043 0.26430252 -0.11285292 -0.11798435
-0.0926315 0.20948525 -0.06080667 0.14046602 0.08714713 0.06765144 0.23815072 -0.21993308
0.08339737 0.22523978 0.20380974 0.040313832 0.15536623 -0.100848876 -0.0069329566 0.12683676
-0.21676193 0.07932566 0.019183747 0.14307782 0.043098666 -0.10942146 0.043084394 0.06630377
0.20403163 -0.06306341 0.19274054 0.019104213 0.22474512 -0.13201 -0.15204732 0.2027581
-0.24582484 -0.14330103 0.24634297 -0.029975042 -0.19570647 -0.21616913 -0.2322387 0.0186433
-0.121515915 -0.044111256 0.013601463 0.23025215 -0.13508642 0.09268318 0.026262771 0.08559698
0.0149729615 0.013145927 0.04508266 -0.25460175 0.02603921 -0.14838628 0.0960565 -0.17073782
0.071847565 -0.12113645 -0.14445932 0.18131348 -0.0287409 -0.068189085 0.042231318 0.029910086
-0.19303815 0.021531262 -0.14277025 -0.2574423 -0.04688963 -0.054351334 0.00912399 0.119048245
0.23663624 0.21246849 0.15346126 -0.22690694 0.25541463 -0.17466883 0.11167383 -0.25704923
0.033161934 -0.10812153 0.2237571 -0.20505434 -0.019682983 0.16101974 0.011849906 -0.17197458
-0.0062826667 -0.19625677 -0.15343542 -0.07278716 -0.21224357 -0.13261914 0.029652143 0.09633269
0.25165612 0.03571565 -0.12292023 -0.24188483 -0.0854524 0.16699588 -0.028757848 0.05721705
-0.069802426 -0.20291086 -0.26372254 0.025196662 -0.13072778 -0.10123564 0.22490358 0.038417026
00000000: 0198 b6bd c7ea bcbd e237 613e 7901 623e
00000010: f7ab 733e 4b5d eb3a 4674 f43d 7b68 df3d
00000020: 581b 60be 2186 a03c 81c1 163e 4b6f 473e
00000030: 4920 133e 415d 5ebd f702 4abe 8aa7 4bbe
00000040: c1ae 343e 23af 02be 49cf 0f3e a42c c23d
00000050: 82d8 e3bd 6b4d 5dbd ba41 7a3c 9c17 413b
00000060: dddb a43d 52fa c93c cdf9 15be 1fa8 1cbc
00000070: 94f0 80bd 77da 34bd b126 4c3e 0b50 1cbe
00000080: 8ee6 4bbe 4961 2e3e 33cf 5e3e cc87 803e
00000090: 9da9 3abe 8b85 453e ed54 ef3d 220c 7ebc
000000a0: 9c06 f13d 7f35 d83d 5746 a43d 0eeb 913d
000000b0: 7a85 283e f86e 3b3d 9ee5 3fbe ec8b 0bbe
000000c0: 0f2f 82be 0c6b 2cbe 99ca 9a3c 05e5 3b3d
000000d0: 9341 013d b4be 27be 8103 6fbe 71ba 70bd
000000e0: b678 683e 718c f0bd 5eae 0e3e 2588 75be
000000f0: bf05 003e 903a 7d3e 3b82 83bd 8e63 4ebe
00000100: 0bde 94bd f59e 4d3e b20e 7cbe 2a56 573e
00000110: e597 c4bd 07a3 ffbd b760 053d c39d 8ebd
00000120: b4b9 723d 39cc 2e3e b742 6ebd 7671 54be
00000130: a27a 26be a0f1 c7bd c772 b03a 14f0 df3d
00000140: de67 df3d a822 36bd 6848 ce3d 084c e8bd
00000150: e779 5d3e 5f4a 803e 8f54 453e 8c54 bb3d
00000160: ec88 873e 92e1 a2bd 6e07 7f3e 646e c0bb
00000170: f8dd 0e3e 40e2 3d3d c61d 203e 8d5b 6dbe
00000180: a184 033e 008a d53d f670 a13c 0cad d2bd
00000190: 769a 0ebe fad2 d8bd 252d efbd bd63 2e3e
000001a0: 9bba 863e 0207 023d 43f6 41be 358d 2cbe
000001b0: e1cf 763e 286f a4bd 345a 943d 273f e43d
000001c0: 0b81 123e 1428 e03d b5e2 e5bc f739 483d
000001d0: 1015 5ebd ac6a dabd 78e8 973d 0b53 05be
000001e0: 7307 f83d 8d1a d23d ab0b 953b b9d5 5a3e
000001f0: fdfb 8b3d 67f5 ebbc 0dd0 8cbd 0282 d13d
00000200: 1884 62be d3d1 273e 1357 1e3e ee53 fc3d
00000210: 3b8b 35be 34b2 693d 5d38 3dbd c65a 423e
00000220: f310 25b9 3615 a13d d283 75bd b6d4 b9bd
00000230: d688 4f3e a952 873e 6f1f e7bd c7a1 f1bd
00000240: 95b5 bdbd 4d83 563e 6a10 79bd 53d6 0f3e
00000250: 327a b23d d78c 8a3d c8dd 733e 2336 61be
00000260: 3ecc aa3d 42a5 663e 80b3 503e 1e20 253d
00000270: 5318 1f3e db89 cebd db2d e3bb 7fe1 013e
00000280: d7f6 5dbe 7e75 a23d 3c27 9d3c fe82 123e
00000290: 3a88 303d 5c18 e0bd 4379 303d 45ca 873d
000002a0: abed 503e 6427 81bd c75d 453e 7080 9c3c
000002b0: 9623 663e a12d 07be 4bb2 1bbe d29f 4f3e
000002c0: 82b9 7bbe 81bd 12be 5541 7c3e 388e f5bc
000002d0: 4767 48be 715b 5dbe fbcf 6dbe d5b9 983c
000002e0: 56dd f8bd 01ae 34bd acd8 5e3c 38c7 6b3e
000002f0: 1854 0abe aed0 bd3d 0625 d73c 784d af3d
00000300: 2751 753c 0462 573c 98a8 383d 295b 82be
00000310: 2e50 d53c 93f2 17be 45b9 c43d e5d5 2ebe
00000320: d124 933d 6316 f8bd 25ed 13be 3eaa 393e
00000330: 0972 ebbc b8a6 8bbd bffa 2c3d ff05 f53c
00000340: cbab 45be 5462 b03c 5d32 12be 7acf 83be
00000350: 570f 40bd 819f 5ebd ca7c 153c 91cf f33d
00000360: c550 723e 5791 593e f324 1d3e 4b5a 68be
00000370: b5c5 823e 63dc 32be 40b5 e43d f59b 83be
00000380: cfd4 073d d26e ddbd 9520 653e c4f9 51be
00000390: 353e a1bc 5ce2 243e 1c26 423c 1b1a 30be
000003a0: d4de cdbb 89f7 48be 2d1e 1dbe 6f11 95bd
000003b0: 6156 59be 50cd 07be 0de9 f23c 134a c53d
000003c0: 12d9 803e 934a 123d 9abd fbbd a8b0 77be
000003d0: ab01 afbd f800 2b3e 9495 ebbc 6d5c 6a3d
000003e0: 93f4 8ebd ddc7 4fbe a406 87be 3b69 ce3c
000003f0: 81dd 05be a254 cfbd 204d 663e 2c5b 1d3d

ConvBase.1.feature.lis.2.pointwise.bias f4 [16]
0.045498323 -0.259361 -0.042986188 0.03788867 0.02688697 -0.11299883 -0.1652199 0.16906124
0.18280338 0.0102912085 0.0072237486 -0.027473029 -0.10348564 0.11952728 -0.19003792 -0.055599634
00000000: 735c 3a3d f7ca 84be 4912 30bd 2631 1b3d
00000010: 1042 dc3c ee6b e7bd 682f 29be 641e 2d3e
00000020: cf30 3b3e 759c 283c 32b5 ec3b 1e0f e1bc
00000030: 47f0 d3bd b8ca f43d 4d99 42be 71bc 63bd

ConvBase.1.feature.lis.3.X_conv.conv.weight f4 [16, 1, 9, 1]
-0.07160098 0.048443157 0.31707957 -0.067897186 -0.20613277 0.24078277 -0.07753184 -0.19017218
0.233097 0.14361893 0.26931965 -0.22540413 0.07336021 -0.1496119 0.09931595 -0.2998216
-0.124850504 -0.04100977 0.27151644 0.26517838 0.28411195 -0.0070650224 0.061305296 0.2508649
0.31435168 0.16144362 -0.22768092 -0.20078541 -0.06308315 -0.31885684 0.13566296 0.3046764
0.060161926 -0.13521728 0.33396903 0.044012826 0.10906563 -0.15971908 0.3330206 -0.13170147
0.30691418 0.2633869 -0.103230976 0.122420885 -0.16415352 0.25937575 0.276034 0.30710962
-0.124321796 0.15100953 0.041920174 -0.15485813 -0.31099597 0.24579054 -0.13189617 0.20581965
0.19343834 -0.1295723 -0.18994142 0.1994616 0.2687269 0.3068332 -0.13797152 -0.19268039
0.31510252 0.188169 0.17625235 0.25439999 0.15901774 0.118933514 -0.35787496 0.2126303
-0.12574263 0.106874056 -0.030802337 -0.15308316 0.23948212 -0.27136183 -0.028984744 -0.1346978
-0.18416266 -0.27391574 -0.26966238 -0.24421073 -0.035308402 0.2167804 0.025099196 -0.21361846
-0.30506912 0.17505105 0.08341307 -0.12874956 0.2741709 0.2521429 -0.30527115 -0.074288465
-0.1590443 0.077108406 0.31977633 0.18452016 0.16488528 -0.17632812 -0.043294836 0.27312028
-0.3677848 -0.252314 -0.17582262 0.021527175 -0.16595562 -0.10501356 0.048813045 -0.07040679
-0.18066773 -0.25579557 0.036096986 -0.23754218 0.176304 0.30049795 -0.23072006 -0.17770787
0.012035337 -0.08460978 -0.11599682 0.0669439 0.19349009 0.12317569 0.015518886 -0.2311517
-0.26440576 -0.034852445 0.0825919 0.043456696 0.30200502 -0.32809028 -0.2512009 0.25919494
-0.25210643 0.011688565 0.09168465 -0.20702621 -0.0057627633 0.2649367 -0.16753703 0.2759255
00000000: 89a3 92bd 556c 463d 4158 a23e ae0d 8bbd
00000010: 7814 53be c28f 763e 03c9 9ebd 7fbc 42be
00000020: fbb0 6e3e d710 133e 44e4 893e 57d0 66be
00000030: e13d 963d dd33 19be 2966 cb3d 3782 99be
00000040: 9fb1 ffbd dcf9 27bd 3404 8b3e 76c5 873e
00000050: 1f77 913e b481 e7bb 431b 7b3d 5d71 803e
00000060: b4f2 a03e 7a51 253e 3025 69be b19a 4dbe
00000070: bd31 81bd 3441 a3be 3beb 0a3e 8cfe 9b3e
00000080: 5a6c 763d 6676 0abe fdfd aa3e cb46 343d
00000090: cd5d df3d 668d 23be ad81 aa3e c0dc 06be
000000a0: db23 9d3e a6da 863e c36a d3bd cdb7 fa3d
000000b0: dc17 28be e6cc 843e 5454 8d3e 793d 9d3e
000000c0: 6d9c febd 3ea2 1a3e 7db4 2b3d 2193 1ebe
000000d0: dd3a 9fbe 84b0 7b3e ca0f 07be 63c2 523e
000000e0: b314 463e 9aae 04be 0180 42be a93f 4c3e
000000f0: 9296 893e 3e19 9d3e 6848 0dbe 024e 45be
00000100: 1e55 a13e 60af 403e 7f7b 343e b740 823e
00000110: 8cd5 223e 6a93 f33d 633b b7be c2bb 593e
00000120: adc2 00be c9e0 da3d 2f55 fcbc d5c1 1cbe
00000130: cd3a 753e f0ef 8abe 6a71 edbc 38ee 09be
00000140: 2395 3cbe af3e 8cbe 3011 8abe 6112 7abe
00000150: 8b9f 10bd aefb 5d3e d49c cd3c ccbe 5abe
00000160: 0532 9cbe 9540 333e 79d4 aa3d edd6 03be
00000170: 2160 8c3e e018 813e 804c 9cbe 8d24 98bd
00000180: 82dc 22be 03eb 9d3d b9b9 a33e daf2 3c3e
00000190: b0d7 283e 5c8f 34be ed55 31bd 6cd6 8b3e
000001a0: 4a4e bcbe 4d2f 81be d80a 34be c259 b03c
000001b0: 45f0 29be 5911 d7bd 30f0 473d 6f31 90bd
000001c0: f600 39be a3f7 82be 6fda 133d 423e 73be
000001d0: 0989 343e deda 993e e141 6cbe 0df9 35be
000001e0: dd2f 453c e447 adbd be8f edbd e219 893d
000001f0: 4422 463e 8943 fc3d ed42 7e3c 08b3 6cbe
00000200: 3160 87be 70c1 0ebd f125 a93d a6ff 313d
00000210: 67a0 9a3e 73fb a7be 689d 80be 33b5 843e
00000220: 1814 81be 6581 3f3c 29c5 bb3d aefe 53be
00000230: 90d5 bcbb c8a5 873e d48e 2bbe 1b46 8d3e

ConvBase.1.feature.lis.3.X_conv.conv.bias f4 [16]
-0.07975796 -0.24759738 0.21692118 0.0676824 0.11575104 0.09073281 -0.2873246 0.21932527
0.23387897 0.15045375 0.27645332 0.15359774 0.29982176 0.098273635 -0.05623068 -0.01197939
00000000: 2458 a3bd 2b8a 7dbe 9620 5e3e 129d 8a3d
00000010: e20e ed3d 20d2 b93d 361c 93be ce96 603e
00000020: f87d 6f3e 8c10 1a3e 4a8b 8d3e ba48 1d3e
00000030: 3d82 993e b043 c93d 2452 66bd 3445 44bc

ConvBase.1.feature.lis.3.Y_conv.conv.weight f4 [16, 1, 1, 9]
-0.3319652 -0.06664294 -0.016949685 -0.3283153 -0.04364111 0.29568142 0.18055044 -0.14694431
-0.14537093 0.09593956 -0.09769699 -0.13221769 0.029517002 -0.18554035 -0.16601063 0.2506482
0.008705922 -0.20584847 -0.07210104 0.18566673 0.31170213 -0.26024625 0.12767076 0.1522162
-0.17407255 0.11023958 0.21540616 0.25954807 0.06064204 -0.1485513 -0.12546387 0.19179694
-0.2567261 0.2553556 -0.33631945 0.07435201 0.18505704 -0.1873358 -0.12848218 0.03666001
-0.12177551 -0.020267414 -0.036267232 -0.018939191 -0.07987372 0.24736938 -0.10561477 0.009194733
0.17599405 0.03303321 -0.039084498 0.2794514 0.2437569 -0.31056097 -0.26644722 0.14390334
0.08661397 -0.082998574 0.26728994 0.1335551 -0.29802227 0.16018605 -0.20738733 -0.18145554
0.18187682 -0.24960035 0.17362921 0.2986568 -0.28487453 -0.15119866 0.31945282 -0.2295956
0.2657963 -0.14802474 0.18088974 -0.06882112 -0.2234762 0.011657564 0.11008157 0.014231577
-0.3279954 0.12877278 0.15784512 -0.073199846 -0.13654114 0.1758223 -0.17248212 0.15416159
-0.15785666 0.06095733 -0.0042381724 0.15928099 -0.013674562 0.2724061 0.19450587 0.12303218
-0.13291988 0.079908006 0.3287864 0.15259239 -0.08796852 -0.13438909 -0.012945708 0.21312733
0.18513222 -0.305522 0.3022674 0.030006573 -0.04372994 0.30782834 0.18394251 -0.09326277
0.15623613 0.26679286 -0.14744839 -0.068490356 0.032868207 0.2534977 0.092326246 0.19493757
-0.05120491 0.13023949 0.016196318 -0.04271839 0.12486822 0.11909919 -0.13804589 -0.12134748
-0.0035520378 -0.22799112 0.21493347 0.22092825 0.24892388 -0.041865796 0.0723938 0.19814496
-0.110854715 -0.16636659 0.16423714 0.301137 -0.20922416 -0.21943714 -0.043366656 -0.23762016
00000000: 58f7 a9be 187c 88bd 11da 8abc f118 a8be
00000010: 05c1 32bd 8e63 973e 37e2 383e 9278 16be
00000020: 1edc 14be f67b c43d 5c15 c8bd 1364 07be
00000030: a4cd f13c 4afe 3dbe b1fe 29be f654 803e
00000040: 49a3 0e3c f1c9 52be b6a9 93bd 6b1f 3e3e
00000050: 6c97 9f3e ff3e 85be 20bc 023e 90de 1b3e
00000060: 1340 32be 4ac5 e13d 6f93 5c3e 7ce3 843e
00000070: ca63 783d d51d 18be 9a79 00be 6b66 443e
00000080: 9a71 83be f8bd 823e 1032 acbe de45 983d
00000090: 987f 3d3e f5d4 3fbe d590 03be cf28 163d
000000a0: 7065 f9bd d907 a6bc f38c 14bd 5d26 9bbc
000000b0: d594 a3bd 664e 7d3e 8e4c d8bd 81a5 163c
000000c0: c937 343e d54d 073d 1117 20bd 4114 8f3e
000000d0: 699b 793e d901 9fbe c56b 88be 665b 133e
000000e0: aa62 b13d 28fb a9bd 3ada 883e abc2 083e
000000f0: 6096 98be d007 243e 585d 54be 7bcf 39be
00000100: eb3d 3a3e 3c97 7fbe dbcb 313e 8be9 983e
00000110: 13db 91be d2d3 1abe 528f a33e 1c1b 6bbe
00000120: 7416 883e cc93 17be 293b 393e 16f2 8cbd
00000130: f2d6 64be 5eff 3e3c 7272 e13d 8f2b 693c
00000140: 03ef a7be 03dd 033e 27a2 213e cde9 95bd
00000150: 71d1 0bbe c30a 343e 279f 30be 89dc 1d3e
00000160: 2da5 21be 65ae 793d 5ee0 8abb 8e1a 233e
00000170: 450b 60bc d078 8b3e 8c2c 473e 4cf8 fb3d
00000180: 261c 08be cfa6 a33d b156 a83e 2e41 1c3e
00000190: d728 b4bd 4b9d 09be 3c1a 54bc 0d3e 5a3e
000001a0: 4d93 3d3e 616d 9cbe cbc2 9a3e 58d0 f53c
000001b0: 2a1e 33bd ad9b 9d3e 6d5b 3c3e 8d00 bfbd
000001c0: 5dfc 1f3e 1399 883e b6fc 16be ac44 8cbd
000001d0: d0a0 063d 73ca 813e 8b15 bd3d b79d 473e
000001e0: 3dbc 51bd 805d 053e 24ae 843c 7af9 2ebd
000001f0: e9ba ff3d 47ea f33d e75b 0dbe 0785 f8bd
00000200: 4ec9 68bb 8176 69be 8517 5c3e 043b 623e
00000210: e7e5 7e3e 787b 2bbd 3343 943d 83e6 4a3e
00000220: cc07 e3bd 015c 2abe c82d 283e a12e 9a3e
00000230: dc3e 56be 21b4 60be 3ca1 31bd b352 73be

ConvBase.1.feature.lis.3.Y_conv.conv.bias f4 [16]
0.09545603 -0.15806858 0.15075299 -0.09378303 -0.27133396 -0.12743796 0.068140425 -0.22562855
0.12663785 -0.12305789 0.06938138 0.15579386 0.10789401 -0.10475938 0.1484443 0.006477904
00000000: 737e c33d bbdc 21be fe5e 1a3e 5111 c0bd
00000010: 49ec 8abe 197f 02be 358d 8b3d 2c0b 67be
00000020: 5aad 013e c605 fcbd d317 8e3d 6d88 1f3e
00000030: 89f7 dc3d 168c d6bd c801 183e 9944 d43b

ConvBase.1.feature.lis.3.pointwise.weight f4 [16, 16, 1, 1]
0.106401205 -0.001420078 0.047936812 -0.063551836 0.052474584 -0.008746717 -0.059100892 0.08129536
0.10590165 0.03265713 0.11765107 0.031973496 -0.19534692 -0.1392591 -0.037976418 0.11040973
0.25936085 -0.08152076 -0.07902991 0.13808958 0.09063801 0.06448812 0.22541526 0.15914237
-0.16376816 -0.0987224 0.06914784 0.26018527 0.005294738 0.20000699 0.071980335 -0.0775906
0.08826538 -0.07899077 -0.24883403 0.13480224 -0.19238545 0.102179006 -0.16298227 0.19797108
-0.06503536 -0.002872193 -0.04650383 -0.24661195 0.031163892 0.032530945 -0.16738372 -0.18675941
0.09621462 -0.109807104 -0.1918924 -0.09168636 -0.12672338 0.047460184 -0.16024621 -0.19320361
0.094155505 -0.010020555 0.14509495 0.17796168 0.0018052878 -0.1670685 0.037869103 0.11843018
-0.17767331 0.18236126 0.053590234 0.019766953 -0.03776582 -0.116929345 0.16927047 0.22170876
-0.012636236 -0.05433472 0.14786163 0.08771695 0.102680095 -0.08640642 -0.17273754 -0.21686055
-0.23439646 0.0078067295 -0.16679262 -0.09601299 0.20135924 -0.030083839 -0.21552034 -0.035677545
-0.082110666 0.00810155 -0.09254268 -0.08931956 -0.1772793 -0.2321554 -0.10743397 -0.033183802
-0.020433037 -0.10975376 0.16643298 -0.072005495 0.15250213 0.17827083 0.18720478 -0.19325753
-0.2269287 -0.024500074 0.14053826 -0.04699095 0.24738678 -0.18179192 0.20280302 -0.015499829
0.1620558 -0.21938351 0.0009447824 -0.105458215 -0.019290892 -0.11666017 0.113215216 -0.17448065
-0.16278566 0.007990698 -0.16723406 0.11416474 -0.069676876 -0.094294734 0.15560186 0.16871648
-0.15727422 -0.021728855 0.2522834 0.03258178 -0.14391018 -0.0986417 -0.047379367 0.16819577
-0.23241168 0.08034801 -0.024966719 -0.24270225 0.023876047 0.17944792 0.088424765 -0.09291979
0.040343057 -0.11304044 -0.013304072 -0.012668611 0.2572693 -0.15665475 -0.1401062 0.025837092
0.005055992 -0.031766962 0.19858626 0.1893843 0.00415995 -0.24193414 0.22518654 0.1129013
0.12033512 -0.051326696 0.14311896 0.09923219 0.038150396 0.05158397 0.17523764 -0.16908647
-0.101165175 0.046697542 0.20370089 0.06666058 -0.08618001 0.02133482 -0.022346834 0.15275273
0.14924376 0.06295272 0.044565428 -0.033448912 -0.05658598 0.16264011 -0.14923416 -0.23900934
0.1635648 -0.14038408 0.24561843 -0.09156186 -0.023123497 0.22436143 0.16691107 0.19316496
-0.22970754 0.05277764 -0.21825862 0.055171948 0.081329435 0.19621459 -0.20890689 0.17311314
0.20361511 0.009838145 -0.02753571 0.1995316 -0.03987125 -0.23344551 0.18274572 0.0345695
0.07487811 0.13672423 0.1347394 0.11055941 0.16871016 -0.14655866 -0.09449941 -0.08425758
0.11190212 -0.17103012 0.082446665 -0.17739609 -0.071836345 -0.019642029 -0.053825628 -0.10289134
0.09778112 0.041990545 0.22140044 0.18924671 0.17246677 -0.21217571 0.09480472 0.17841959
0.0011301341 -0.19569278 0.23673595 0.015734427 -0.13033159 0.031500287 0.24904145 0.15803967
-0.022746498 0.12908469 0.13940407 0.05991319 -0.22090344 -0.20221412 -0.15886705 -0.19763923
0.008669884 -0.034787916 0.1430814 0.006658161 -0.11962111 -0.19494995 0.015550867 0.2170902
00000000: e0e8 d93d e921 baba 6459 443d 7727 82bd
00000010: 97ef 563d 644e 0fbc c713 72bd 2f7e a63d
00000020: f7e2 d83d 7cc3 053d 0bf3 f03d a4f6 023d
00000030: 0609 48be f099 0ebe 298d 1bbd 7f1e e23d
00000040: f2ca 843e 5bf4 a6bd 6fda a1bd 5b67 0d3e
00000050: 6ca0 b93d 5912 843d 42d3 663e 38f6 223e
00000060: d7b2 27be f82e cabd 629d 8d3d 0137 853e
00000070: 7b7f ad3b a2ce 4c3e 6d6a 933d d2e7 9ebd
00000080: 7bc4 b43d eac5 a1bd 59ce 7ebe 9909 0a3e
00000090: b100 45be 3a43 d13d d3e4 26be eeb8 4a3e
000000a0: 4231 85bd 673b 3cbb cd7a 3ebd d887 7cbe
000000b0: 6b4b ff3c 2b3f 053d a366 2bbe dc3d 3fbe
000000c0: 2c0c c53d 8ce2 e0bd 717f 44be 0fc6 bbbd
000000d0: c6c3 01be 9c65 423d 9517 24be 2bd7 45be
000000e0: 9ad4 c03d 412d 24bc c593 143e 963b 363e
000000f0: 689f ec3a 0114 2bbe a21c 1b3d 868b f23d
00000100: feef 35be e9bc 3a3e 6f81 5b3d 4eee a13c
00000110: 55b0 1abd a778 efbd 3d55 2d3e 9f07 633e
00000120: 3708 4fbc 158e 5ebd 0a69 173e f2a4 b33d
00000130: f149 d23d d9f5 b0bd 1ce2 30be b110 5ebe
00000140: a005 70be 98cf ff3b afcb 2abe 75a2 c4bd
00000150: 1e31 4e3e 6272 f6bc 5db1 5cbe 9e22 12bd
00000160: a329 a8bd 5dbc 043c 0487 bdbd 2ced b6bd
00000170: b488 35be 25ba 6dbe 5706 dcbd bdeb 07bd
00000180: 2f63 a7bc 94c6 e0bd 686d 2a3e 9e77 93bd
00000190: 8529 1c3e a18c 363e 9cb2 3f3e 4de5 45be
000001a0: ff5f 68be 61b4 c8bc 43e9 0f3e 9579 40bd
000001b0: f652 7d3e a927 3abe 98ab 4f3e fff2 7dbc
000001c0: f5f1 253e 12a6 60be 46ab 773a 7afa d7bd
000001d0: ef07 9ebc 87eb eebd 61dd e73d 0eab 32be
000001e0: 49b1 26be 6beb 023c 683f 2bbe 34cf e93d
000001f0: c0b2 8ebd 991d c1bd 1856 1f3e 03c4 2c3e
00000200: 7e0c 21be b600 b2bc 4a2b 813e 7974 053d
00000210: 315d 13be a904 cabd de10 42bd 833b 2c3e
00000220: 54fd 6dbe 7f8d a43d 0187 ccbc f086 78be
00000230: b397 c33c 32c1 373e 0b18 b53d bb4c bebd
00000240: c33e 253d bf81 e7bd 53f9 59bc 0190 4fbc
00000250: cdb8 833e 1a6a 20be 0078 0fbe 4fa8 d33c
00000260: bcac a53b 131e 02bd 325a 4b3e f5ed 413e
00000270: 3150 883b 95bd 77be 4d97 663e cc38 e73d
00000280: 4272 f63d f13b 52bd c78d 123e 3f3a cb3d
00000290: 9743 1c3d b749 533d 7f71 333e 0125 2dbe
000002a0: b02f cfbd ec45 3f3d f796 503e 5885 883d
000002b0: 257f b0bd 5cc6 ae3c b510 b7bc 366b 1c3e
000002c0: 5bd3 183e 5bed 803d 3d8a 363d ba01 09bd
000002d0: b3c6 67bd 218b 263e d7d0 18be ddbe 74be
000002e0: 887d 273e d8c0 0fbe 6683 7b3e c984 bbbd
000002f0: 7d6d bdbc 01bf 653e bcea 2a3e 09cd 453e
00000300: 7438 6bbe 5e2d 583d 307f 5fbe fbfb 613d
00000310: 0c90 a63d 7aec 483e b0eb 55be 9244 313e
00000320: 7b80 503e 2c30 213c 9292 e1bc 0352 4c3e
00000330: 0950 23bd 570c 6fbe b221 3b3e bf98 0d3d
00000340: b259 993d 7001 0c3e 20f9 093e f96c e23d
00000350: 5bc2 2c3e 7913 16be e888 c1bd 3d8f acbd
00000360: f02c e53d 8522 2fbe ccd9 a83d 52a7 35be
00000370: ef1e 93bd 52e8 a0bc 4378 5cbd b2b8 d2bd
00000380: 7841 c83d 47fe 2b3d ccb6 623e e4c9 413e
00000390: 219b 303e 9744 59be fa28 c23d a0b3 363e
000003a0: 0221 943a b063 48be e96a 723e 7ce5 803c
000003b0: a575 05be 7206 013d b904 7f3e 27d5 213e
000003c0: dd56 babc c72e 043e f1bf 0e3e 8867 753d
000003d0: 8334 62be 3811 4fbe 0bae 22be f061 4abe
000003e0: 210c 0e3c c67d 0ebd ee83 123e b42c da3b
000003f0: eafb f4bd f6a0 47be 10c9 7e3c e54c 5e3e

ConvBase.1.feature.lis.3.pointwise.bias f4 [16]
0.26210997 0.10651275 -0.11927928 -0.18584616 -0.021038381 0.18448648 0.16133212 0.2169464
-0.16923909 -0.10350123 -0.0076357764 0.044800915 -0.10836133 -0.024767697 0.08964841 0.20459369
00000000: 4733 863e 5b23 da3d b248 f4bd 754e 3ebe
00000010: af58 acbc 06ea 3c3e 3f34 253e 3227 5e3e
00000020: 034d 2dbe 74f8 d3bd 8935 fabb 2a81 373d
00000030: 8cec ddbd a0e5 cabc 9699 b73d 0281 513e

ConvBase.1.feature.bn.weight f4 [16]
0.97155887 0.87653804 0.48657522 0.13287286 0.6683946 0.6163441 0.87944335 0.5153123
0.94424826 0.64981174 0.23857155 0.5201965 0.8132306 0.14538786 0.21615115 0.2869198
00000000: 15b8 783f cc64 603f 6320 f93e d30f 083e
00000010: e91b 2b3f bac8 1d3f 3323 613f 82eb 033f
00000020: 41ba 713f 105a 263f 1a4c 743e 992b 053f
00000030: e12f 503f 8ee0 143e ba56 5d3e 27e7 923e

ConvBase.1.feature.bn.bias f4 [16]
-0.0011324787 0.0042187427 -0.0048020156 0.037146594 -0.0064629815 -0.008336477 0.007247922 0.024462111
-0.02442212 0.016688451 0.013788657 0.01437298 0.02645004 0.031490922 0.040784087 -0.0044968775
00000000: ae6f 94ba 613d 8a3b 3a5a 9dbb 0727 183d
00000010: 6bc7 d3bb b895 08bc fa7f ed3b c464 c83c
00000020: e610 c8bc 38b6 883c d2e9 613c a67c 6b3c
00000030: c1ad d83c a0fc 003d 370d 273d 8b5a 93bb

ConvBase.1.feature.bn.running_mean f4 [16]
0.25917304 -0.14458652 0.022034874 -0.38276875 0.00069430907 -0.32072505 -0.12946571 0.37506253
-0.3456882 0.091810994 -0.089086205 -0.02146405 -0.05709964 0.04631554 0.009406379 0.026845181
00000000: 54b2 843e 7d0e 14be 7b82 b43c 44fa c3be
00000010: 4b02 363a 1336 a4be a992 04be 3208 c03e
00000020: 0bfe b0be 6707 bc3d d472 b6bd 60d5 afbc
00000030: 50e1 69bd 5db5 3d3d 371d 1a3c 6dea db3c

ConvBase.1.feature.bn.running_var f4 [16]
0.0022826213 0.0017180247 0.003133327 0.0025155887 0.0020203204 0.0042868773 0.0038466172 0.000941903
0.0033687206 0.001995693 0.0017167951 0.0025902798 0.0023914496 0.0015377222 0.0026181135 0.0022485636
00000000: 0898 153b 582f e13a 8158 4d3b 93dc 243b
00000010: 5a67 043b ef78 8c3b 8717 7c3b 0aea 763a
00000020: c1c5 5c3b 2cca 023b 1606 e13a afc1 293b
00000030: deb9 1c3b 658d c93a a894 2b3b a35c 133b

ConvBase.1.bn.weight f4 [64]
0.4333234 0.099145964 0.11084546 0.08238537 0.36586547 0.7648102 0.9022944 -0.0053360136
0.6912019 0.8961204 0.2501062 0.5549755 0.051516257 0.13876887 0.7879766 0.7699301
0.7807942 0.8117765 0.7939776 0.4046614 0.36012924 0.8255293 0.59627956 0.26831967
0.8511882 0.6251364 0.48822796 0.58001447 0.80627567 0.37887603 0.28860626 0.93784887
0.69030756 0.38842434 0.1448883 0.9465252 0.286406 0.8102796 0.29540578 0.46396637
0.35185298 0.7257938 0.3041301 0.13137916 0.072903425 0.4549244 0.17976312 0.80289
0.7516869 0.489973 0.28019238 0.66544527 0.31725836 0.98517376 -0.0040121567 0.9314961
0.9460065 0.23044352 0.29481542 0.6737222 0.45877883 0.14628616 0.8643256 0.7215542
00000000: 91dc dd3e 0a0d cb3d f202 e33d a9b9 a83d
00000010: b852 bb3e 9aca 433f c4fc 663f bad9 aebb
00000020: 9cf2 303f 2668 653f eb0d 803e e012 0e3f
00000030: b602 533d 6d19 0e3e d6b8 493f 241a 453f
00000040: 21e2 473f 96d0 4f3f 1e42 4b3f c72f cf3e
00000050: dc62 b83e e355 533f c7a5 183f 3261 893e
00000060: 78e7 593f f008 203f 04f9 f93e d47b 143f
00000070: 1568 4e3f 0afc c13e 33c4 933e dd16 703f
00000080: ffb7 303f 8edf c63e 995d 143e 7a4f 723f
00000090: cfa3 923e 7c6e 4f3f 6d3f 973e 008d ed3e
000000a0: 1326 b43e 9fcd 393f f1b6 9b3e 4288 063e
000000b0: 644e 953d daeb e83e d313 383e 338a 4d3f
000000c0: 8d6e 403f bedd fa3e 6075 8f3e 9f5a 2a3f
000000d0: b06f a23e 5934 7c3f 6978 83bb 8776 6e3f
000000e0: 7b2d 723f 63f9 6b3e 0cf2 963e 0f79 2c3f
000000f0: 0fe5 ea3e 0acc 153e 7144 5d3f c7b7 383f

ConvBase.1.bn.bias f4 [64]
0.025305998 0.01690669 0.008731216 0.012846128 -0.026300231 -0.026078664 0.03724935 -0.012345464
0.02185475 0.014467246 -0.008412835 -0.015044147 0.0005408072 0.018346652 -0.030941054 0.038989324
-0.010471928 -0.019442007 -0.02430561 -0.035209306 0.023146676 -0.019970514 0.0042867414 0.0007040897
-0.021624593 0.012469281 -0.019673182 0.019217884 0.010803672 -0.0025510585 0.008964248 -0.0024854047
-0.010690219 -0.028238203 -0.026146915 0.053782396 -0.0040730103 0.012162636 -0.004330833 -0.0010162438
0.024413543 -0.037941825 0.017392674 0.0029827436 0.029093094 0.02682339 -0.0074022715 0.024466863
-0.007170121 0.035352517 0.011903013 0.03041487 0.023928227 -0.038875096 -0.01857219 0.014730068
-0.01570364 0.011890797 0.012367348 0.027630609 -0.0021817132 0.0147534385 -0.009220967 0.01207141
00000000: 864e cf3c e67f 8a3c 600d 0f3c 9178 523c
00000010: 9573 d7bc eca2 d5bc c692 183d a144 4abc
00000020: bc08 b33c 0708 6d3c fdd5 09bc ba7b 76bc
00000030: f5c4 0d3a b84b 963c 1878 fdbc 45b3 1f3d
00000040: 7392 2bbc d844 9fbc 8f1c c7bc a237 10bd
00000050: 199e bd3c 3499 a3bc cb77 8c3b a992 383a
00000060: 0f26 b1bc f54b 4c3c a729 a1bc d36e 9d3c
00000070: e201 313c a92f 27bb c8de 123c 2ce2 22bb
00000080: 0726 2fbc ce53 e7bc 0e32 d6bc ee4a 5c3d
00000090: e376 85bb cb45 473c a9e9 8dbb 7c33 85ba
000000a0: e9fe c73c e368 1bbd 157b 8e3c 227a 433b
000000b0: a454 ee3c babc db3c c18e f2bb bb6e c83c
000000c0: 56f3 eabb cdcd 103d db04 433c 9b28 f93c
000000d0: 2105 c43c 7e3b 1fbd b524 98bc 6256 713c
000000e0: eca4 80bc 9ed1 423c 6ba0 4a3c 9659 e23c
000000f0: 13fb 0ebb 68b8 713c 8a13 17bc 2ac7 453c

ConvBase.1.bn.running_mean f4 [64]
0.19577159 0.1363038 0.120814875 0.058670834 0.14927068 0.039150413 0.025013648 0.13508257
0.23140506 0.16753776 0.068176426 0.029462691 0.21434703 0.031490948 0.06927709 0.06313778
0.229688 0.21645285 0.09333466 0.069388926 0.18905881 0.18865602 0.17264633 0.123580456
0.12922959 0.19344279 0.052759632 0.12202036 0.1384997 0.059859257 0.07115975 0.072573826
0.32044804 0.26822776 0.13988142 0.050573673 0.21215272 0.21050996 0.24625331 0.19518054
0.22624926 0.11576772 0.06044107 0.15541045 0.2490807 0.054512918 0.0644013 0.08015309
0.25929254 0.30705658 0.14003254 0.06455736 0.19268689 0.16368239 0.23201513 0.18757978
0.26351124 0.21242298 0.079786964 0.16331837 0.28320205 0.06670373 0.08292608 0.10522617
00000000: 5978 483e 3993 0b3e ca6d f73d d450 703d
00000010: 6ada 183e 2f5c 203d 6ce9 cc3c 1653 0a3e
00000020: 73f5 6c3e 058f 2b3e 15a0 8b3d be5b f13c
00000030: ca7d 5b3e a7fc 003d 26e1 8d3d 614e 813d
00000040: 5533 6b3e d1a5 5d3e 3e26 bf3d c81b 8e3d
00000050: a298 413e 0b2f 413e 33ca 303e c017 fd3d
00000060: c354 043e de15 463e 7c1a 583d cfe5 f93d
00000070: ded2 0d3e fb2e 753d 34bc 913d 96a1 943d
00000080: c411 a43e 2655 893e 133d 0f3e 5726 4f3d
00000090: 903e 593e ec8f 573e d429 7c3e 68dd 473e
000000a0: e3ad 673e a017 ed3d 0e91 773d eb23 1f3e
000000b0: 030f 7f3e f048 5f3d d4e4 833d 4e27 a43d
000000c0: fec1 843e 8536 9d3e b164 0f3e a636 843d
000000d0: b64f 453e 5b9c 273e 6095 6d3e ea14 403e
000000e0: f2ea 863e 6985 593e 5967 a33d ee3c 273e
000000f0: dcff 903e f79b 883d 26d5 a93d d180 d73d

ConvBase.1.bn.running_var f4 [64]
0.094354905 0.044432055 0.03688447 0.0041378117 0.05645884 0.004384589 0.004229714 0.13627245
0.49908665 0.22446026 0.034070812 0.004718988 0.36032802 1.2625771e-05 0.022731287 0.010314608
0.3310319 0.41097844 0.10437425 0.00837945 0.09447197 0.23743457 0.6462662 0.18643522
0.14419812 0.2513041 0.031537157 0.14346348 0.035841737 0.013166123 0.0026735354 0.063286856
0.54461884 0.25386807 0.070888534 0.008051854 0.11375548 0.17608106 0.100232765 0.115178965
0.08101498 0.35173336 0.03578876 0.060686536 0.44993514 0.008840883 0.035456244 0.024283297
0.73365 0.21758321 0.06955857 0.0070375483 0.14672488 0.20599289 0.22868001 0.10579196
0.4675985 0.080126 0.036632255 0.16537973 0.2760893 0.012399482 0.027926633 0.04248466
00000000: 253d c13d 63fe 353d 2c14 173d 7b96 873b
00000010: 6241 673d 99ac 8f3b 6a99 8a3b 018b 0b3e
00000020: 4988 ff3e e9d8 653e d68d 0b3d bea1 9a3b
00000030: ea7c b83e 46d3 5337 f736 ba3c 9afe 283c
00000040: 037d a93e c46b d23e 2bc2 d53d f649 093c
00000050: 857a c13d 0c22 733e b471 253f e0e8 3e3e
00000060: aca8 133e eeaa 803e 1b2d 013d 17e8 123e
00000070: c9ce 123d b9b6 573c 7b36 2f3b 8a9c 813d
00000080: 246c 0b3f fffa 813e 022e 913d eceb 033c
00000090: a2f8 e83d 984e 343e d646 cd3d f3e2 eb3d
000000a0: 2feb a53d 6516 b43e 3c97 123d 7292 783d
000000b0: e65d e63e 5ad9 103c 913a 113d c4ed c63c
000000c0: 7dd0 3b3f 22ce 5e3e b974 8e3d 3c9b e63b
000000d0: 0c3f 163e cdef 523e 182b 6a3e 75a9 d83d
000000e0: 1269 ef3e 1a19 a43d b40b 163d 4e59 293e
000000f0: 945b 8d3e 3227 4b3c 65c6 e43c 6504 2e3d
