waights/weights21.pth (torch_old, 670822 bytes, 196 tensors)

ConvBase.1.feature.lis.0.X_conv.conv.weight f4 [1, 1, 3, 1]
-0.009163456 -0.19649677 -0.12590887
00000000: 5222 16bc 7336 49be 41ee 00be

ConvBase.1.feature.lis.0.Y_conv.conv.weight f4 [1, 1, 1, 3]
0.30670947 -0.072208084 -0.14222349
00000000: 0609 9d3e d5e1 93bd 09a3 11be

ConvBase.1.feature.lis.0.pointwise.weight f4 [16, 1, 1, 1]
-0.36374298 -0.2296935 -0.771567 -0.93372494 -0.49461436 -0.08325799 0.021786071 0.5838427
0.8299604 0.6575776 0.92428017 0.05888518 0.6960234 -0.0020088654 0.46152532 -0.50415677
00000000: 853c babe c634 6bbe 6a85 45bf 9908 6fbf
00000010: 183e fdbe 2a83 aabd b478 b23c b776 153f
00000020: 4978 543f 0157 283f a09d 6c3f 9631 713d
00000030: 972e 323f 2ba7 03bb 0c4d ec3e 6b10 01bf

ConvBase.1.feature.lis.0.pointwise.bias f4 [16]
0.8136378 -0.28067398 0.7117084 -1.043371 -0.29988015 -0.8118469 -0.33009234 0.92217207
-0.6869445 0.25887123 -0.44481426 -0.5423862 0.05265275 -0.07369845 -0.28392854 -0.39456153
00000000: 914a 503f 80b4 8fbe 8632 363f 2e8d 85bf
00000010: e489 99be 33d5 4fbf dd01 a9be 7813 6c3f
00000020: 98db 2fbf c58a 843e b2be e3be d2d9 0abf
00000030: 69aa 573d 37ef 96bd 155f 91be f803 cabe

ConvBase.1.feature.lis.1.X_conv.conv.weight f4 [16, 1, 5, 1]
0.24103351 -0.30121827 0.0066689197 0.35760683 0.2536224 0.023646774 0.33780384 0.001901305
0.1472344 -0.27104357 -0.21212173 -0.30404946 -0.049934056 0.28398025 -0.10926687 -0.03823685
0.044662002 0.1831375 0.41344827 0.00976508 -0.38480926 -0.09907494 0.028255466 -0.3219574
0.35235852 0.11615213 0.2519147 -0.38273156 0.22077769 0.15554911 -0.27696046 -0.1755741
-0.18457578 0.1941547 -0.011819617 0.06625307 -0.05711644 0.42822692 0.40357307 0.13118325
0.048600588 -0.33165956 0.34474733 0.23001365 0.09760998 -0.31442934 -0.29927653 0.0914123
0.13335145 -0.39054486 -0.06848618 -0.06877615 -0.45393518 -0.02015593 0.37435 -0.43320444
-0.44132575 0.29594344 0.1969049 0.37307456 -0.17225806 -0.058456775 -0.06369384 0.4047005
-0.26292497 -0.35274938 0.34805688 -0.1792266 0.086614974 -0.07723105 -0.0244959 -0.00038085357
-0.29156607 -0.44272852 0.25259545 0.35877863 -0.05141812 0.16210733 0.19800048 -0.40651459
00000000: 7dd1 763e 4839 9abe f486 da3b 3e18 b73e
00000010: ccda 813e e1b6 c13c a0f4 ac3e 3635 f93a
00000020: 9dc4 163e 39c6 8abe 7036 59be 5fac 9bbe
00000030: a787 4cbd dc65 913e 4fc7 dfbd 3e9e 1cbd
00000040: 81ef 363d 6688 3b3e 7eaf d33e b7fd 1f3c
00000050: b805 c5be cde7 cabd 0278 e73c 9ad7 a4be
00000060: 5668 b43e 2be1 ed3d f7fa 803e 64f5 c3be
00000070: 8c13 623e 4448 1f3e c3cd 8dbe b2c9 33be
00000080: 6f01 3dbe 7dd0 463e 11a7 41bc b1af 873d
00000090: eef2 69bd 8f40 db3e 21a1 ce3e e754 063e
000000a0: 6911 473d 48cf a9be b982 b03e b388 6b3e
000000b0: bee7 c73d e2fc a0be c63a 99be 5f36 bb3d
000000c0: 488d 083e 7ff5 c7be 7b42 8cbd 83da 8cbd
000000d0: 316a e8be 0d1e a5bc ceaa bf3e f9cc ddbe
000000e0: 73f5 e1be e685 973e 70a1 493e a103 bf3e
000000f0: 6b64 30be 5f70 6fbd ea71 82bd e734 cf3e
00000100: 1a9e 86be 919b b4be 8334 b23e 2e87 37be
00000110: 3163 b13d 502b 9ebd a0ab c8bc 4dad c7b9
00000120: 2648 95be 50ad e2be 3154 813e d5b1 b73e
00000130: ce9b 52bd 77ff 253e a3c0 4a3e ae22 d0be

ConvBase.1.feature.lis.1.X_conv.conv.bias f4 [16]
0.021052489 0.08788393 0.051770076 -0.45175374 -0.2919847 -0.3940813 -0.45619994 0.09856073
0.15845154 -0.1468697 0.3052611 0.28878325 0.066013426 0.12331196 -0.4156657 0.00024661855
00000000: 4576 ac3c 7dfc b33d dc0c 543d 444c e7be
00000010: 057f 95be 06c5 c9be 0a93 e9be 35da c93d
00000020: 1f41 223e 0365 16be 2f4b 9c3e 66db 933e
00000030: 0c32 873d fb8a fc3d 22d2 d4be 954c 8139

ConvBase.1.feature.lis.1.Y_conv.conv.weight f4 [16, 1, 1, 5]
0.26472908 0.35304245 -0.3624771 -0.19732036 0.024550479 0.33344254 0.4279409 -0.105619654
-0.00052204396 -0.42833427 -0.32947242 0.05406841 0.25700247 -0.31027532 -0.23652703 -0.27004108
0.24826036 0.4613227 -0.21255924 -0.34191075 -0.26151222 0.38983735 0.3875702 -0.3531736
0.19852053 -0.24382934 -0.19460319 -0.3546315 0.11682126 -0.38037276 0.07270526 -0.11288113
0.04290451 0.26585716 0.10210427 -0.3500841 0.24589199 -0.06410974 -0.107787974 0.059339046
-0.049579043 -0.41461825 -0.08938721 0.17245063 -0.29204193 0.20425789 -0.34265938 -0.13469958
0.42145038 0.32088673 0.24655984 0.13217877 -0.0843314 0.20141241 -0.27731407 0.4026835
-0.36775452 0.25952995 -0.12624665 -0.12133552 0.44591653 -0.22432262 0.16550389 0.423751
0.001398074 0.30471122 0.023050146 0.2464068 0.40641698 -0.25828728 -0.298424 -0.42964053
0.3614844 -0.42482582 0.39801314 0.32683218 -0.07844333 -0.46560836 -0.26911575 -0.0034461883
00000000: 928a 873e fbc1 b43e 9996 b9be 590e 4abe
00000010: 161e c93c fbb8 aa3e 121b db3e 1e4f d8bd
00000020: c7d9 08ba a14e dbbe 9cb0 a8be d676 5d3d
00000030: d495 833e 68dc 9ebe 2434 72be d342 8abe
00000040: f737 7e3e 7d32 ec3e 21a9 59be ed0e afbe
00000050: eee4 85be c398 c73e 9a6f c63e 2cd3 b4be
00000060: f748 4b3e 66ae 79be 0f46 47be 4392 b5be
00000070: fc3f ef3d 38c0 c2be 7fe6 943d 392e e7bd
00000080: a4bc 2f3d 6e1e 883e 0b1c d13d 393e b3be
00000090: 1ccb 7b3e f84b 83bd f1bf dcbd 800d 733d
000000a0: 6513 4bbd d848 d4be a410 b7bd e696 303e
000000b0: 8586 95be fb28 513e 0d71 afbe b0ee 09be
000000c0: 58c8 d73e 444b a43e 2f7a 7c3e df59 073e
000000d0: f1b5 acbd 0e3f 4e3e 1cfc 8dbe 882c ce3e
000000e0: 524a bcbe 1ce1 843e cd46 01be c27e f8bd
000000f0: 2c4f e43e d4b4 65be da79 293e e4f5 d83e
00000100: 943f b73a 1c03 9c3e a9d3 bc3c 1052 7c3e
00000110: e315 d03e 3b3e 84be 08cb 98be d8f9 dbbe
00000120: 7c14 b93e c582 d9be 61c8 cb3e 8c56 a73e
00000130: e6a6 a0bd 3864 eebe 8ac9 89be 72d9 61bb

ConvBase.1.feature.lis.1.Y_conv.conv.bias f4 [16]
0.19509083 0.26071447 -0.13923125 0.27484122 0.11993377 0.06111912 0.061222974 0.14689305
0.3563294 0.06643144 -0.42353922 -0.17057647 -0.36881033 0.18877457 -0.32451043 -0.36828128
00000000: e4c5 473e 5e7c 853e a392 0ebe fdb7 8c3e
00000010: d69f f53d 0b58 7a3d f1c4 7a3d 226b 163e
00000020: cf70 b63e 350d 883d 22da d8be 99ab 2ebe
00000030: b5d4 bcbe 1f4e 413e 3b26 a6be 5d8f bcbe

ConvBase.1.feature.lis.1.pointwise.weight f4 [16, 16, 1, 1]
-0.18660054 -0.23690043 -0.13968337 0.16825317 -0.21785001 0.11332341 0.08836554 0.23124221
-0.044316098 -0.09146831 -0.046082173 0.13799444 -0.20182577 0.22742388 -0.22571455 0.21445358
0.17138255 0.094698206 0.06530165 -0.049929574 -0.20221321 -0.17947719 0.15371877 0.19914182
0.028595451 0.14623348 -0.20557326 0.10069244 -0.11726318 0.09552746 0.17891586 0.010454865
-0.1549536 -0.09826277 -0.036250696 0.06079488 -0.29382068 -0.007730459 0.08446129 -0.19110395
0.12798214 0.021946244 -0.20253459 0.18646912 0.0013489445 -0.15729158 -0.09269738 -0.2438868
-0.0062678717 -0.17950073 0.14448668 -0.09458423 -0.18737143 0.054697905 0.2102343 0.006941297
0.08017097 0.013689302 0.16883747 -0.10017246 0.086998045 -0.27154407 -0.021137225 -0.2647761
-0.17415941 0.20566411 0.22643849 0.178964 -0.18183032 0.20523474 0.18551573 -0.15423973
0.23388502 0.11996556 0.013013625 -0.014445831 -0.11233967 -0.15068075 0.076106645 -0.13385886
0.11319354 -0.102041274 -0.035826795 -0.07718149 -0.084726036 0.028018476 0.051994905 -0.021054713
-0.14610752 -0.04896101 0.031007836 -0.22352237 0.0027568617 -0.13722414 -0.024243008 0.18177715
-0.24523978 0.034440205 -0.06982393 0.016716262 0.07628463 -0.19168594 -0.07754001 0.037242036
-0.16568512 0.1473705 0.26563677 -0.024605824 -0.17312214 -0.030654518 -0.035761233 0.22479261
-0.1860973 0.13581954 -0.13498083 0.074004434 0.18183453 -0.18252395 -0.030532047 0.13333663
-0.13418697 -0.038041946 -0.11380709 -0.090668164 0.027814522 -0.16114959 -0.048325602 -0.13493319
0.048598893 0.080281906 -0.21582824 -0.25085956 -0.045571588 0.024547063 0.2471279 -0.09589089
0.11289126 -0.15254827 0.2560396 -0.26434216 0.18794633 -0.1838334 0.18920231 0.15157497
0.12034202 0.06610105 0.2352064 -0.09181064 0.0023116767 -0.0029293352 0.2193823 -0.119838536
-0.0063147815 0.21200527 -0.13595128 0.072437845 -0.005442042 -0.20537649 0.15066113 0.13517319
0.26782045 0.2359218 -0.041504305 0.0794779 0.12534007 0.036971435 -0.20812048 0.012947429
-0.1632234 0.219651 0.20860136 -0.14086135 0.20549415 -0.1279784 -0.23287785 -0.19590569
-0.15685529 -0.0086902995 -0.050825518 0.22409563 0.006728449 -0.044542715 -0.06522264 -0.16852754
0.06512648 0.13703673 0.07066414 0.1157992 0.06285517 -0.1253806 -0.21284221 0.01720764
0.12663406 -0.23538065 -0.06469833 -0.13216871 0.099313766 -0.15778445 0.097635284 0.019980678
0.14550062 -0.20115557 0.06061636 0.15172367 0.1381618 -0.08256056 -0.013806773 -0.2596685
-0.21078858 0.18843646 -0.14601155 -0.05350791 0.14581981 -0.10035058 -0.23809081 -0.05070056
-0.10346259 -0.03103536 0.14891697 -0.15338917 0.1410106 0.17951049 -0.12277662 -0.21058668
0.13420756 -0.018722385 -0.12115541 0.1501857 -0.056463927 0.10002757 0.07890347 0.21891174
0.10703854 -0.19228882 -0.13467975 -0.010525265 0.15720765 -0.16931193 0.21019495 -0.025800493
-0.036839265 -0.14069474 0.18307273 -0.22135651 -0.06518579 0.054314423 -0.0025466084 -0.1795448
-0.1063764 -0.07722298 -0.04942866 -0.20236054 -0.043508384 0.215272 0.27873513 -0.10342858
00000000: 3614 3fbe 0796 72be 2809 0fbe 8f4a 2c3e
00000010: 1314 5fbe 1b16 e83d fef8 b43d c2ca 6c3e
00000020: cc84 35bd bd53 bbbd a9c0 3cbd 6a4e 0d3e
00000030: 6aab 4ebe cee1 683e b721 67be b899 5b3e
00000040: e87e 2f3e 22f1 c13d dfbc 853d f482 4cbd
00000050: fb10 4fbe dec8 37be 7468 1d3e d5eb 4b3e
00000060: 0241 ea3c 3bbe 153e cc81 52be d737 ce3d
00000070: ae27 f0bd e7a3 c33d b835 373e e24a 2b3c
00000080: 28ac 1ebe fe3d c9bd 9c7b 14bd 0d04 793d
00000090: aa6f 96be ca4f fdbb 0afa ac3d c1b0 43be
000000a0: c00d 033e 9cc8 b33c 3a65 4fbe c3f1 3e3e
000000b0: 11cf b03a 0b11 21be 20d8 bdbd 76bd 79be
000000c0: b862 cdbb 0acf 37be 51f4 133e 60b5 c1bd
000000d0: 4cde 3fbe e90a 603d a947 573e d273 e33b
000000e0: ad30 a43d 1849 603c bbe3 2c3e 3827 cdbd
000000f0: 082c b23d d307 8bbe f927 adbc bc90 87be
00000100: d856 32be 9d99 523e 7edf 673e 5742 373e
00000110: ba31 3abe 0e29 523e d6f7 3d3e 05f1 1dbe
00000120: 8e7f 6f3e 81b0 f53d 1937 553c 35ae 6cbc
00000130: 5712 e6bd 0e4c 1abe cddd 9b3d 4c12 09be
00000140: 04d2 e73d 04fb d0bd 1ebf 12bd 5411 9ebd
00000150: d884 adbd 0187 e53c 9cf8 543d ef7a acbc
00000160: 369d 15be 578b 48bd 2504 fe3c 0ce3 64be
00000170: 77ac 343b 7c84 0cbe 4699 c6bc ca23 3a3e
00000180: 2320 7bbe 2c11 0d3d d9ff 8ebd 8bf0 883c
00000190: 1e3b 9c3d 5249 44be 4ccd 9ebd 1b8b 183d
000001a0: 5ca9 29be 4be8 163e 8b01 883e 2792 c9bc
000001b0: ee46 31be 2f1f fbbc 5f7a 12bd 0930 663e
000001c0: 4a90 3ebe 4714 0b3e 6a38 0abe a38f 973d
000001d0: d532 3a3e 8fe7 3abe 581e fabc 6689 083e
000001e0: 4f68 09be dfd1 1bbd b113 e9bd 3bb0 b9bd
000001f0: 48db e33c 6604 25be 11f1 45bd ed2b 0abe
00000200: a20f 473d d76a a43d 1402 5dbe aa70 80be
00000210: 46a9 3abd ec16 c93c 190f 7d3e 7162 c4bd
00000220: 8833 e73d 9d35 1cbe 9f17 833e db57 87be
00000230: 0175 403e d33e 3cbe 40be 413e 7836 1b3e
00000240: e175 f63d fd5f 873d f2d9 703e 3807 bcbd
00000250: 807f 173b 17fa 3fbb c1a5 603e e86d f5bd
00000260: 3aec cebb e917 593e d036 0bbe 4b5a 943d
00000270: 2853 b2bb 374e 52be e946 1a3e d76a 0a3e
00000280: c31f 893e 7c95 713e 6b00 2abd 4fc5 a23d
00000290: 2659 003e 5c6f 173d 891d 55be 7421 543c
000002a0: 0924 27be 31ec 603e 989b 553e f53d 10be
000002b0: 0f6d 523e c50c 03be 8877 6ebe 809b 48be
000002c0: ac9e 20be c261 0ebc 6b2e 50bd 5379 653e
000002d0: 527a dc3b 6c72 36bd 7393 85bd 7c92 2cbe
000002e0: 0861 853d 5b53 0c3e 5cb8 903d 2228 ed3d
000002f0: 36ba 803d c663 00be 4ff3 59be 09f7 8c3c
00000300: 5cac 013e a007 71be 8f80 84bd 3c57 07be
00000310: 0465 cb3d 3f92 21be 02f5 c73d 85ae a33c
00000320: 1dfe 143e bafb 4dbe dc48 783d 735d 1b3e
00000330: 497a 0d3e 8315 a9bd ce35 62bc 45f3 84be
00000340: f6d8 57be 7df5 403e 0d84 15be 1c2b 5bbd
00000350: ca51 153e 9b84 cdbd 14ce 73be 64ab 4fbd
00000360: 32e4 d3bd de3d febc b17d 183e 0d12 1dbe
00000370: 1565 103e 99d1 373e 4f72 fbbd 09a4 57be
00000380: b56d 093e b05f 99bc 5420 f8bd 48ca 193e
00000390: b846 67bd 41db cc3d 2498 a13d 662a 603e
000003a0: 0637 db3d 5ce7 44be 7de9 09be 2972 2cbc
000003b0: 0bfb 203e 1b60 2dbe 583d 573e 8e5b d3bc
000003c0: c5e4 16bd 4812 10be 6b77 3b3e 48ab 62be
000003d0: 2180 85bd cd78 5e3d 00e5 26bb 98da 37be
000003e0: dfdb d9bd 1527 9ebd b575 4abd 9a37 4fbe
000003f0: d935 32bd 4370 5c3e 5fb6 8e3e 5dd2 d3bd

ConvBase.1.feature.lis.1.pointwise.bias f4 [16]
0.23850812 -0.22791341 0.15149961 -0.16625533 -0.08617272 -0.2544045 -0.19959182 0.11245809
-0.16910066 0.26033816 -0.006663573 0.14161602 0.0723066 0.021049373 0.14006099 -0.27588895
00000000: 793b 743e 2262 69be b722 1b3e d63e 2abe
00000010: 537b b0bd 4e41 82be cc61 4cbe 6d50 e63d
00000020: b928 2dbe 0b4b 853e 1a5a dabb ca03 113e
00000030: 7c15 943d bc6f ac3c 266c 0f3e 5141 8dbe

ConvBase.1.feature.lis.2.X_conv.conv.weight f4 [16, 1, 7, 1]
0.26771283 -0.3534854 0.39265266 0.122155204 0.3554046 -0.098243535 -0.29289258 0.087541394
0.008075636 0.14554636 0.084649906 -0.165864 0.18187822 0.3026928 -0.14728683 -0.08840973
-0.33416805 0.14023529 -0.24112995 0.3055017 -0.021417426 -0.3565821 0.14861706 -0.20564504
0.32196715 -0.089308575 -0.18565767 0.028447581 0.09141225 0.21123464 0.29152027 0.3533577
0.1895861 -0.27865565 0.31771934 -0.04191419 -0.11702626 -0.038270418 0.32548097 -0.32526046
-0.17918283 -0.18926468 -0.13517725 -0.26358017 -0.22954628 0.051376995 0.080553465 -0.3941442
0.19331652 -0.2840725 -0.21527469 0.36021766 0.2619551 0.278623 0.19571926 0.3410961
-0.31567112 0.30394068 0.20238872 -0.04351447 0.13527583 0.02033384 -0.12940747 0.24797554
0.24674016 0.27984774 0.09295639 -0.35470274 -0.07998363 -0.35633847 0.34753495 0.32820764
0.21353342 -0.17061332 0.10027354 -0.13407342 0.25853422 0.11816679 0.03829293 0.114458814
0.28155166 -0.11106199 -0.22361426 -0.13751683 0.047575213 -0.138656 0.09263529 0.028402852
0.0233908 0.15989459 -0.34119132 -0.13928668 0.020830456 0.22502908 -0.38502708 -0.19784491
-0.30725777 -0.38015613 0.09583055 0.37425432 -0.055598546 -0.19558983 -0.18346912 -0.028232988
0.042134345 0.31482524 0.15238814 -0.29912376 -0.19813345 0.14898515 -0.2669768 -0.025015153
00000000: a811 893e 0afc b4be c509 c93e 822c fa3d
00000010: 97f7 b53e e833 c9bd 04f6 95be e748 b33d
00000020: ac4f 043c 1b0a 153e ee5c ad3d 41d8 29be
00000030: 493e 3a3e 8dfa 9a3e 5cd2 16be 2910 b5bd
00000040: 1318 abbe d799 0f3e c5ea 76be b86a 9c3e
00000050: 9973 afbc ee91 b6be 122f 183e 9d94 52be
00000060: e1d8 a43e 6ae7 b6bd 0b1d 3ebe e70a e93c
00000070: 5936 bb3d e54d 583e 2542 953e 4deb b43e
00000080: dc22 423e f4ab 8ebe 1cac a23e 37ae 2bbd
00000090: 77ab efbd 71c1 1cbd 71a5 a63e 8a88 a6be
000000a0: b47b 37be 9ace 41be e86b 0abe fbf3 86be
000000b0: 2e0e 6bbe af70 523d 37f9 a43d 45cd c9be
000000c0: c4f4 453e f371 91be f870 5cbe 736e b83e
000000d0: fb1e 863e ada7 8e3e a16a 483e 26a4 ae3e
000000e0: a59f a1be 1d9e 9b3e fd3e 4f3e 3b3c 32bd
000000f0: bf85 0a3e 2793 a63c 6483 04be 4ded 7d3e
00000100: 74a9 7c3e 3448 8f3e eb5f be3d 999b b5be
00000110: 75ce a3bd ff71 b6be 1af0 b13e d50a a83e
00000120: 81a8 5a3e 42b5 2ebe 375c cd3d 8b4a 09be
00000130: 995e 843e 6e01 f23d 0cd9 1c3d 6269 ea3d
00000140: 8a27 903e 7874 e3bd 23fb 64be 36d1 0cbe
00000150: 3ade 423d d7fb 0dbe 92b7 bd3d 19ad e83c
00000160: 109e bf3c 68bb 233e a1b0 aebe 2ba1 0ebe
00000170: a2a4 aa3c 066e 663e 4522 c5be db97 4abe
00000180: e450 9dbe d3a3 c2be cf42 c43d 439e bf3e
00000190: 4dbb 63bd b348 48be 54df 3bbe de48 e7bc
000001a0: 1095 2c3d c630 a13e a30b 1c3e c026 99be
000001b0: 7fe3 4abe 908f 183e 2fb1 88be 94ec ccbc

ConvBase.1.feature.lis.2.X_conv.conv.bias f4 [16]
-0.049150072 0.24661566 -0.14695957 -0.15069117 -0.03939404 0.20201151 0.22518627 0.09258044
0.17361785 -0.07809196 0.33767295 0.09111312 0.013796736 -0.11564951 0.36519185 -0.09151373
00000000: 9651 49bd d188 7c3e 927c 16be c94e 1abe
00000010: a55b 21bd 1bdc 4e3e 3b97 663e d09a bd3d
00000020: e1c8 313e adee 9fbd 78e3 ac3e 8499 ba3d
00000030: b40b 623c a6d9 ecbd 6dfa ba3e 8d6b bbbd

ConvBase.1.feature.lis.2.Y_conv.conv.weight f4 [16, 1, 1, 7]
0.036865853 0.24609368 -0.2797784 -0.119626276 0.061690412 -0.33828533 0.33605984 0.06295403
-0.3281034 0.10211833 -0.0034909903 -0.31200522 0.1817338 0.12861069 -0.1220086 0.048965458
-0.231492 0.25822434 0.074971825 0.15627365 -0.009830569 -0.093616456 0.29356098 0.05567161
0.34593776 0.0001579395 0.113793395 0.3204441 0.25138977 0.19728063 0.2110331 -0.03249967
0.13256443 0.12809852 0.22125344 0.1451134 -0.06216388 0.09457382 -0.41578442 0.13154055
0.07841349 0.28304702 0.17845696 -0.2609597 -0.3548642 0.20773116 0.023064518 0.32144788
-0.01875489 -0.13177347 -0.020792989 0.14056273 -0.27250203 -0.32015505 -0.009899768 0.107285924
-0.3638503 0.108857326 -0.35334948 -0.2624386 0.27142787 0.0053245826 -0.07399544 -0.07425512
-0.37158185 -0.18479264 0.11904419 0.13211842 -0.18673953 -0.28462514 -0.086425826 0.03989143
0.30365968 0.14128801 0.10400302 0.26893368 -0.315869 0.21384199 -0.2557481 0.16073309
-0.15176868 -0.17258723 -0.37873125 0.3471726 0.12677509 0.16565666 -0.038828913 -0.2407756
0.06723408 0.30025494 -0.13490394 -0.01933161 -5.273674e-05 0.21285799 0.113071226 0.40503255
0.17268191 -0.18907738 0.21546076 -0.047583636 -0.14411506 -0.09128982 0.2715786 0.3543519
0.22297877 -0.260069 0.09235094 -0.34511787 -0.25381303 0.0015767484 -0.049155343 0.32846498
00000000: a600 173d fbff 7b3e 1d3f 8fbe 9ffe f4bd
00000010: 16af 7c3d bc33 adbe 0910 ac3e 0bee 803d
00000020: 2bfd a7be 6a23 d13d 19c9 64bb 26bf 9fbe
00000030: 6d18 3a3e 85b2 033e a5df f9bd 0190 483d
00000040: 3d0c 6dbe fb35 843e d48a 993d 3306 203e
00000050: 6510 21bc fcb9 bfbd a04d 963e ea07 643d
00000060: c11e b13e 909c 2539 830c e93d 4011 a43e
00000070: 29b6 803e ef03 4a3e 1019 583e 601e 05bd
00000080: f8be 073e 422c 033e 4390 623e 9b98 143e
00000090: 8d9f 7ebd ebaf c13d b2e1 d4be 91b2 063e
000000a0: 4097 a03d 8aeb 903e 6cbd 363e 839c 85be
000000b0: c3b0 b5be 7ab7 543e cdf1 bc3c d194 a43e
000000c0: dba3 99bc a0ef 06be 0f56 aabc adef 0f3e
000000d0: 6385 8bbe 5deb a3be a332 22bc b9b8 db3d
000000e0: 964a babe 97f0 de3d 39ea b4be 5a5e 86be
000000f0: 98f8 8a3e d679 ae3b ec8a 97bd 1113 98bd
00000100: fa3f bebe 483a 3dbe 71cd f33d 0d4a 073e
00000110: a638 3fbe 63ba 91be 0600 b1bd 3265 233d
00000120: 4879 9b3e cead 103e 89ff d43d adb1 893e
00000130: 95b9 a1be 65f9 5a3e 6af1 82be 3797 243e
00000140: 4069 1bbe b5ba 30be 10e9 c1be 9bc0 b13e
00000150: 54d1 013e e6a1 293e 110b 1fbd e18d 76be
00000160: 05b2 893d 04bb 993e 4224 0abe 535d 9ebc
00000170: a531 5db8 72f7 593e e391 e73d 6d60 cf3e
00000180: 87d3 303e 809d 41be bfa1 5c3e 0fe7 42bd
00000190: e692 13be 28f6 babd 5a0c 8b3e 9d6d b53e
000001a0: 8c54 643e c427 85be 7d22 bd3d 4ab3 b0be
000001b0: c8f3 81be e6aa ce3a 1d57 49bd 902c a83e

ConvBase.1.feature.lis.2.Y_conv.conv.bias f4 [16]
0.08924693 0.16540013 -0.34497717 -0.37102997 -0.24685535 -0.020737665 0.1636426 -0.06153656
0.09653782 0.3411503 -0.10949058 0.31898043 -0.28493655 0.10950107 0.34127188 0.2881586
00000000: 18c7 b63d a75e 293e d9a0 b0be a4f7 bdbe
00000010: a6c7 7cbe 09e2 a9bc ed91 273e c30d 7cbd
00000020: 9fb5 c53d 41ab ae3e 993c e0bd 6751 a33e
00000030: 34e3 91be 1942 e03d 30bb ae3e 8689 933e

ConvBase.1.feature.lis.2.pointwise.weight f4 [16, 16, 1, 1]
-0.09544254 -0.09088583 0.21395214 0.21868433 0.23600136 0.0030078348 0.114173695 0.11640847
-0.22157003 0.00830732 0.13571844 0.19047013 0.14590584 -0.057712816 -0.21008684 -0.19189626
0.17501146 -0.13354781 0.13919275 0.09599696 -0.11274329 -0.055657707 0.021697132 0.0076342234
0.07079925 0.025089186 -0.1601678 -0.0016378496 -0.065312944 -0.045909066 0.20989195 -0.15046659
-0.2015538 0.17250659 0.20869853 0.24828571 -0.1785335 0.19143969 0.115714096 -0.01699014
0.12679867 0.11472748 0.08233293 0.0714964 0.16252536 0.040622238 -0.1919109 -0.13381761
-0.25032282 -0.17376672 0.009064108 0.040356625 0.039403908 -0.15984958 -0.23803034 -0.05869029
0.23254119 -0.113571316 0.1400353 -0.26002553 0.12404857 0.24448106 -0.073054835 -0.18608506
-0.07281805 0.1895611 -0.25891936 0.20317572 -0.09789595 -0.1195449 0.037677772 -0.07181009
0.054789536 0.16849348 -0.049923323 -0.21301636 -0.1607958 -0.10298832 -0.014722688 0.11747682
0.10182067 -0.04310737 0.100377984 -0.11331494 0.21790467 0.24743053 0.18680595 0.08634195
0.2639107 -0.08577921 0.23808892 0.0013949147 0.12637395 0.032468654 0.15993957 -0.23309636
0.12772039 0.10572367 0.019227961 -0.105533764 -0.12585133 -0.1081726 -0.10932116 0.17895287
0.26143077 0.04444759 -0.18305899 -0.17264408 0.24315675 -0.07142359 0.074385755 0.09996649
0.14168309 0.11404279 -0.025392354 0.058325674 -0.050053332 -0.089626074 0.078639835 -0.13400811
0.11826075 0.10722725 0.0013054978 0.22973345 0.07119694 -0.032313623 -0.0716095 0.10395712
-0.21825 0.15815862 0.15563579 0.12617654 -0.17846815 0.061609153 -0.05619394 0.18743283
-0.0005616506 0.082033224 -0.06202358 -0.08738299 0.20334958 0.26158738 -0.10574387 -0.113686964
-0.09238951 0.20772327 -0.063465394 0.14639114 0.07833578 0.0765378 0.25073037 -0.21632051
0.08531713 0.2349768 0.19334291 0.04442988 0.14745918 -0.10088219 -0.008080204 0.1284695
-0.21868154 0.07311846 0.02019526 0.14371936 0.04240892 -0.11555481 0.036786795 0.059829216
0.20088495 -0.044927478 0.19664305 0.013411822 0.23692292 -0.13424641 -0.15420799 0.20925312
-0.24328652 -0.14457949 0.25648642 -0.026715104 -0.19582799 -0.21864367 -0.22829919 0.011786828
-0.1341608 -0.027894378 0.020279115 0.22298346 -0.13384077 0.0958633 0.026149036 0.098822184
0.024397794 0.0035663943 0.036421772 -0.24780042 0.026115717 -0.15649937 0.09892937 -0.18006599
0.06691273 -0.109490596 -0.14159228 0.17364652 -0.021449933 -0.07043447 0.042449806 0.03441485
-0.19564302 0.030418048 -0.15197104 -0.2671154 -0.051364373 -0.05470528 0.018579666 0.12384713
0.23309697 0.20011154 0.15953276 -0.22418015 0.25943977 -0.17363656 0.10362929 -0.25852698
0.0324843 -0.10985537 0.22640593 -0.19636491 -0.014954234 0.15456587 0.0068424903 -0.16973798
-0.0034713992 -0.20090924 -0.15224825 -0.067305915 -0.20135258 -0.13808168 0.03612387 0.0962325
0.25748563 0.052565236 -0.12302271 -0.24766992 -0.07289885 0.1685403 -0.029853776 0.061362907
-0.067010894 -0.2081423 -0.26711527 0.029924167 -0.13853459 -0.094581746 0.22930233 0.039007172
00000000: 6177 c3bd 5a22 babd 4516 5b3e c9ee 5f3e
00000010: 57aa 713e 181f 453b e6d3 e93d 9067 ee3d
00000020: 41e3 62be 6d1b 083c c6f9 0a3e 9a0a 433e
00000030: 5768 153e 4664 6cbd 0121 57be 7480 44be
00000040: 3436 333e c2c0 08be 8b88 0e3e 0e9a c43d
00000050: f4e5 e6bd 56f9 63bd 2fbe b13c 8228 fa3b
00000060: 32ff 903d d687 cd3c 0703 24be 1dad d6ba
00000070: cbc2 85bd 250b 3cbd eaed 563e ea13 1abe
00000080: 1f64 4ebe 91a5 303e 11b5 553e 9c3e 7e3e
00000090: 7cd1 36be c408 443e 83fb ec3d e82e 8bbc
000000a0: 83d7 013e 3ef6 ea3d 2b9e a83d b46c 923d
000000b0: 0c6d 263e 8163 263d 4a84 44be 7c07 09be
000000c0: 502a 80be e7ef 31be a081 143c fd4c 253d
000000d0: fe65 213d 9caf 23be 3abe 73be 3b65 70bd
000000e0: 471f 6e3e 1498 e8bd 6a65 0f3e 1122 85be
000000f0: 2d0d fe3d 3e59 7a3e c69d 95bd 158d 3ebe
00000100: a121 95bd 4e1c 423e 1491 84be 4c0d 503e
00000110: ac7d c8bd f5d3 f4bd 0254 1a3d 2b11 93bd
00000120: fe6a 603d 8e89 2c3e 667c 4cbd f620 5abe
00000130: a7a7 24be 8aeb d2bd 6e37 71bc b097 f03d
00000140: 5b87 d03d 5b91 30bd f992 cd3d aa11 e8bd
00000150: 6722 5f3e 6e5e 7d3e 0f4a 3f3e 0cd4 b03d
00000160: 4e1f 873e 03ad afbd 95cd 733e 92d5 b63a
00000170: 2c68 013e dafd 043d 33c7 233e d0b0 6ebe
00000180: 22c9 023e a785 d83d f583 9d3c 1622 d8bd
00000190: 2cdf 00be 9989 ddbd c6e3 dfbd 6c3f 373e
000001a0: 41da 853e ad0e 363d d173 3bbe 9cc9 30be
000001b0: 15fe 783e 8846 92bd 8f57 983d 3bbb cc3d
000001c0: 5f15 113e 448f e93d a003 d0bc e7e6 6e3d
000001d0: b904 4dbd e08d b7bd ec0d a13d 6c39 09be
000001e0: b132 f23d f699 db3d 3d1d ab3a 3f3f 6b3e
000001f0: b4cf 913d 4a5b 04bd 00a8 92bd 78e7 d43d
00000200: ee7c 5fbe 55f4 213e fd5e 1f3e 6c34 013e
00000210: 5bc0 36be e159 7c3d 9e2b 66bd 64ee 3f3e
00000220: bc3b 13ba 0901 a83d 700c 7ebd daf5 b2bd
00000230: df3a 503e c8ee 853e 3e90 d8bd b6d4 e8bd
00000240: b636 bdbd 69b5 543e 25fa 81bd 8fe7 153e
00000250: 826e a03d dabf 9c3d bb5f 803e 2083 5dbe
00000260: bfba ae3d c29d 703e affb 453e 1bfc 353d
00000270: 8aff 163e 529b cebd d562 04bc 828d 033e
00000280: 0eee 5fbe 22bf 953d 8870 a53c 2b2b 133e
00000290: fab4 2d3d 00a8 ecbd c0ad 163d 7b0f 753d
000002a0: c9b4 4d3e e005 38bd cc5c 493e 42bd 5b3c
000002b0: ec9b 723e e477 09be b3e8 1dbe 7346 563e
000002c0: 1a20 79be a50c 14be 3052 833e a2d9 dabc
000002d0: 2287 48be 20e4 5fbe 43c7 69be 8a1d 413c
000002e0: 7361 09be c082 e4bc 6320 a63c c755 643e
000002f0: 8e0d 09be fa53 c43d 8136 d63c 4963 ca3d
00000300: e2dd c73c 2bba 693b ff2e 153d 65bf 7dbe
00000310: a1f0 d53c 5f41 20be 7b9b ca3d 3863 38be
00000320: 8b09 893d 9b3c e0bd 91fd 10be 65d0 313e
00000330: c5b7 afbc f33f 90bd d9df 2d3d 96f6 0c3d
00000340: a556 48be 452f f93c 4c9e 1bbe 5ac3 88be
00000350: 7363 52bd a512 60bd 6234 983c 90a3 fd3d
00000360: f9b0 6e3e 0aea 4c3e 8e5c 233e 7b8f 65be
00000370: 4ad5 843e c8cd 31be 983b d43d a65d 84be
00000380: 420e 053d dafb e0bd f5d6 673e e213 49be
00000390: 9a02 75bc 8446 1e3e f836 e03b cbcf 2dbe
000003a0: 6a80 63bb 27bb 4dbe f7e6 1bbe afd7 89bd
000003b0: 5f2f 4ebe 4965 0dbe a0f6 133d 8c15 c53d
000003c0: 28d5 833e a54e 573d 55f3 fbbd 2f9d 7dbe
000003d0: fe4b 95bd d495 2c3e e88f f4bc ac57 7b3d
000003e0: 023d 89bd 4123 55be 55c3 88be 8723 f53c
000003f0: 03dc 0dbe 13b4 c1bd 3bce 6a3e fcc5 1f3d

ConvBase.1.feature.lis.2.pointwise.bias f4 [16]
0.048188202 -0.26286426 -0.06117062 0.037475415 0.0116004385 -0.11119624 -0.17291936 0.17546383
0.18547195 0.016830266 -0.0059779515 -0.031194469 -0.11822889 0.11587375 -0.19437541 -0.04489581
00000000: fe60 453d 2596 86be 0b8e 7abd d27f 193d
00000010: c40f 3e3c dbba e3bd c611 31be caac 333e
00000020: 5cec 3d3e a0df 893c b1e2 c3bb 8b8b ffbc
00000030: fd21 f2bd 374f ed3d 590a 47be abe4 37bd

ConvBase.1.feature.lis.3.X_conv.conv.weight f4 [16, 1, 9, 1]
-0.0716294 0.047821954 0.3209301 -0.06934097 -0.20871088 0.23885414 -0.07989841 -0.1947445
0.23047589 0.15159212 0.26335186 -0.22852077 0.072699375 -0.14577188 0.105495624 -0.30110297
-0.12341301 -0.03877907 0.2653616 0.26318434 0.29623127 0.0028705664 0.06979139 0.24541171
0.31118625 0.16729574 -0.22768626 -0.20288701 -0.063267395 -0.32239732 0.12786244 0.29507875
0.055144418 -0.14403802 0.32919204 0.04128233 0.11614918 -0.15158081 0.337433 -0.12977959
0.31390467 0.26653862 -0.09974901 0.122342676 -0.16504152 0.2550612 0.26801386 0.29895604
-0.12651289 0.14712857 0.036447093 -0.15816379 -0.3123294 0.24122368 -0.13584898 0.20434521
0.1917325 -0.13669856 -0.19267447 0.20258701 0.27088404 0.30876938 -0.14251633 -0.19465163
0.32297572 0.19150126 0.18963356 0.2560103 0.16000877 0.11593537 -0.35490358 0.2105645
-0.13153043 0.09147688 -0.04110814 -0.14855342 0.24907824 -0.27267653 -0.028726505 -0.13120115
-0.18372191 -0.27440968 -0.2697033 -0.24701834 -0.039290775 0.21437563 0.023266323 -0.21737677
-0.31141126 0.17252554 0.07650477 -0.13537288 0.2706664 0.25329378 -0.3064924 -0.08416775
-0.15983523 0.07223862 0.31963387 0.18563074 0.16980569 -0.18156236 -0.04784954 0.27282915
-0.3678363 -0.24841364 -0.17748497 0.019692054 -0.16365224 -0.10671425 0.04824339 -0.06656172
-0.16996495 -0.24480587 0.041594755 -0.22980243 0.17710985 0.30967924 -0.22517528 -0.17190689
0.018693063 -0.08592293 -0.11780791 0.06903894 0.20061992 0.13023742 0.01644448 -0.237448
-0.27640563 -0.047268607 0.0708539 0.030661806 0.2902838 -0.3349128 -0.25594115 0.2566999
-0.2366744 0.023158565 0.09845706 -0.20363294 -0.007949439 0.27147362 -0.17334713 0.265043
00000000: 6fb2 92bd f4e0 433d f350 a43e a302 8ebd
00000010: 4eb8 55be 2e96 743e c7a1 a3bd 1a6b 47be
00000020: df01 6c3e f73a 1b3e 0ed6 863e 5901 6abe
00000030: 69e3 943d 3945 15be 170e d83d 2b2a 9abe
00000040: f6bf fcbd cdd6 1ebd 7add 873e 19c0 863e
00000050: a0ab 973e 1d20 3c3b caee 8e3d 354d 7b3e
00000060: ce53 9f3e 934f 2b3e 9626 69be 9dc1 4fbe
00000070: 5692 81bd 4311 a5be 5fee 023e 9014 973e
00000080: 1ddf 613d b47e 13be dc8b a83e a917 293d
00000090: 9fdf ed3d 0038 1bbe 05c4 ac3e f1e4 04be
000000a0: 1db8 a03e c077 883e 3549 ccbd cc8e fa3d
000000b0: a500 29be 6297 823e 1d39 893e c410 993e
000000c0: 988c 01be dfa8 163e 8c49 153d b0f5 21be
000000d0: a4e9 9fbe 5703 773e ff1b 0bbe df3f 513e
000000e0: 8655 443e b5fa 0bbe 754c 45be f872 4f3e
000000f0: 50b1 8a3e 0517 9e3e cdef 11be c252 47be
00000100: 135d a53e e818 443e 4d2f 423e c813 833e
00000110: 57d9 233e 866f ed3d ecb5 b5be 389e 573e
00000120: eaaf 06be 3b58 bb3d 0261 28bd 631e 18be
00000130: 5e0e 7f3e 429c 8bbe d953 ebbc 9859 06be
00000140: 9921 3cbe 6d7f 8cbe 8d16 8abe 60f2 7cbe
00000150: 5def 20bd 4985 5b3e 0499 be3c 0498 5ebe
00000160: 4c71 9fbe 89aa 303e 88ae 9c3d 309f 0abe
00000170: c994 8a3e b9af 813e 92ec 9cbe 2460 acbd
00000180: d9ab 23be d7f1 933d 0da7 a33e fc15 3e3e
00000190: 8be1 2d3e 7ceb 39be e1fd 43bd 43b0 8b3e
000001a0: 0a55 bcbe 2560 7ebe 9fbe 35be 3b51 a13c
000001b0: 7494 27be 008d dabd dc9a 453d 8351 88bd
000001c0: 4b0b 2ebe 64ae 7abe 435f 2a3d 5451 6bbe
000001d0: 495c 353e 478e 9e3e 5994 66be 5c08 30be
000001e0: 3222 993c 5cf8 afbd 4645 f1bd 4a64 8d3d
000001f0: 4f6f 4d3e f55c 053e 93b6 863c 9225 73be
00000200: 0a85 8dbe ba9c 41bd d91b 913d 782e fb3c
00000210: 14a0 943e b179 abbe b80a 83be 2b6e 833e
00000220: c65a 72be 08b7 bd3c dba3 c93d 2785 50be
00000230: 5d3e 02bc 97fe 8a3e e981 31be b7b3 873e

ConvBase.1.feature.lis.3.X_conv.conv.bias f4 [16]
-0.07899479 -0.24605605 0.20600307 0.07645412 0.10469927 0.0849444 -0.28569165 0.2260479
0.23197189 0.14608803 0.26483122 0.15934722 0.29139793 0.09036026 -0.053620122 -0.017876862
00000000: 05c8 a1bd 1ef6 7bbe 78f2 523e fa93 9c3d
00000010: 926c d63d 54f7 ad3d 2d46 92be 1a79 673e
00000020: 0a8a 6d3e 1a98 153e f597 873e eb2b 233e
00000030: 1c32 953e cd0e b93d c6a0 5bbd 7f72 92bc

ConvBase.1.feature.lis.3.Y_conv.conv.weight f4 [16, 1, 1, 9]
-0.3381505 -0.066897 -0.019996893 -0.33145905 -0.041833177 0.29666498 0.18490882 -0.14838716
-0.14128518 0.10863942 -0.095277846 -0.1268676 0.023133881 -0.1813512 -0.16891249 0.2512931
0.022439284 -0.20492205 -0.05999387 0.18932033 0.3206465 -0.25684717 0.1264161 0.1452296
-0.17082484 0.1022688 0.21011949 0.2632344 0.044736966 -0.14058769 -0.13748567 0.1900484
-0.25511014 0.24916828 -0.33248943 0.05950511 0.18420738 -0.19023992 -0.13032776 0.036981568
-0.12821454 -0.024395676 -0.042689774 -0.021136766 -0.082093015 0.25312552 -0.10676621 0.0053928685
0.17267515 0.036906686 -0.038063742 0.2732648 0.23918523 -0.30909744 -0.26206934 0.14315324
0.07937959 -0.07994315 0.27233806 0.1266392 -0.29889867 0.17076445 -0.20352584 -0.18339153
0.1843738 -0.24740347 0.17834522 0.29737675 -0.2862837 -0.15730768 0.32898736 -0.22577056
0.2646565 -0.15472426 0.18561877 -0.06408794 -0.2232713 0.019365564 0.11763973 0.015866349
-0.3246081 0.1326073 0.16530396 -0.067323156 -0.14038193 0.17238611 -0.17573634 0.1528361
-0.15294051 0.06949026 0.0029084785 0.14818735 -0.01649913 0.27880794 0.18634982 0.12462637
-0.13935122 0.07332243 0.33681032 0.15730461 -0.08849743 -0.13024838 -0.017665163 0.21327625
0.18467979 -0.30501738 0.30760676 0.026123958 -0.048734523 0.2980329 0.18671046 -0.08810581
0.15272756 0.25823197 -0.1492047 -0.07159225 0.035255376 0.2615925 0.095107846 0.19489938
-0.059561897 0.13367756 0.022249952 -0.05170926 0.12534967 0.12454421 -0.1348147 -0.124379925
-0.0014601934 -0.23469578 0.22513095 0.21835145 0.25092122 -0.046338387 0.07565512 0.20105088
-0.12135855 -0.1535673 0.16981323 0.30041093 -0.1939442 -0.22066699 -0.051404994 -0.21832913
00000000: 1022 adbe 4b01 89bd 86d0 a3bc 00b5 a9be
00000010: 4459 2bbd 79e4 973e bd58 3d3e cef2 17be
00000020: 10ad 10be 587e de3d 0821 c3bd 95e9 01be
00000030: 4483 bd3c 21b4 39be 65f7 2cbe 7da9 803e
00000040: 97d2 b73c 16d7 51be 22bc 75bd 30dd 413e
00000050: c72b a43e 7981 83be 3973 013e 11b7 143e
00000060: b5ec 2ebe 4e72 d13d 9029 573e a9c6 863e
00000070: 1c3e 373d 38f6 0fbe 0bc9 0cbe 0c9c 423e
00000080: cc9d 82be f825 7f3e 0e3c aabe a1bb 733d
00000090: dca0 3c3e 41ce 42be a474 05be fc79 173d
000000a0: ac4a 03be 71d9 c7bc 79db 2ebd 0327 adbc
000000b0: 6220 a8bd ab99 813e 3ea8 dabd a9b6 b03b
000000c0: c1d1 303e 772b 173d bae8 1bbd 5de9 8b3e
000000d0: f9ec 743e 0542 9ebe f42d 86be c396 123e
000000e0: c491 a23d 3cb9 a3bd e56f 8b3e b5ad 013e
000000f0: 3f09 99be e0dc 2e3e 1469 50be fdca 3bbe
00000100: 7ccc 3c3e 5657 7dbe 21a0 363e c441 983e
00000110: c793 92be 4415 21be 0871 a83e 6630 67be
00000120: 0f81 873e 0970 1ebe d912 3e3e 8a40 83bd
00000130: 3ba1 64be 88a4 9e3c 19ed f03d 25fa 813c
00000140: 0833 a6be 35ca 073e 7145 293e b9e0 89bd
00000150: 48c0 0fbe fc85 303e 3af4 33be 1181 1c3e
00000160: 709c 1cbe e950 8e3d 2c9c 3e3b 6dbe 173e
00000170: 2f29 87bc eabf 8e3e 7dd2 3e3e 1c3c ff3d
00000180: 16b2 0ebe 122a 963d 6772 ac3e 7614 213e
00000190: 243e b5bd d55f 05be 88b6 90bc 1765 5a3e
000001a0: b31c 3d3e 3d2b 9cbe a27e 9d3e e901 d63c
000001b0: da9d 47bd c597 983e 0731 3f3e d270 b4bd
000001c0: 9d64 1c3e fb36 843e 1ec9 18be f59e 92bd
000001d0: f167 103d 74ef 853e e7c7 c23d b493 473e
000001e0: 2df7 73bd c5e2 083e 8845 b63c 17cd 53bd
000001f0: aa5b 003e 0911 ff3d dd0c 0abe e7ba febd
00000200: f663 bfba 1754 70be ba88 663e 8697 5f3e
00000210: bf78 803e 52cd 3dbd 12f1 9a3d 48e0 4d3e
00000220: d58a f8bd bf40 1dbe 85e3 2d3e 76cf 993e
00000230: 4f99 46be 87f6 61be 0b8e 52bd ac91 5fbe

ConvBase.1.feature.lis.3.Y_conv.conv.bias f4 [16]
0.08898174 -0.16167715 0.15201628 -0.102268934 -0.27574047 -0.12620826 0.0643495 -0.22522368
0.12498336 -0.107325815 0.06083943 0.1529577 0.11335852 -0.10779472 0.14756054 0.0040916163
00000000: 0f3c b63d b28e 25be 28aa 1b3e 6072 d1bd
00000010: db2d 8dbe bd3c 01be acc9 833d 09a1 66be
00000020: 47f7 ff3d a3cd dbbd c432 793d f1a0 1c3e
00000030: 8328 e83d 7ac3 dcbd 1c1a 173e f712 863b

ConvBase.1.feature.lis.3.pointwise.weight f4 [16, 16, 1, 1]
0.09951625 -0.0034734402 0.045941293 -0.06799393 0.05023318 -0.0039322847 -0.06793203 0.082635336
0.09871211 0.03291239 0.09226835 0.026777606 -0.19729064 -0.12819527 -0.03561094 0.10123415
0.25343174 -0.07205587 -0.07733995 0.12936607 0.0910848 0.06464965 0.23620334 0.1522422
-0.16332254 -0.10301835 0.06365476 0.2742584 0.008371002 0.19891155 0.07522715 -0.08217268
0.09951122 -0.07767998 -0.24683401 0.11390912 -0.18750186 0.100575365 -0.17144336 0.19163465
-0.08576692 -0.009348783 -0.042653438 -0.2503375 0.03376401 0.019635588 -0.16828912 -0.17661373
0.09506545 -0.109809265 -0.18299836 -0.10030425 -0.13578507 0.03902409 -0.15357451 -0.19663198
0.09245027 -0.0143289985 0.15841264 0.18287675 0.004994227 -0.15321238 0.0560257 0.13052037
-0.17356335 0.18051147 0.06164651 0.016385041 -0.041830573 -0.10841923 0.18243393 0.22041784
-0.01976286 -0.049433444 0.14201975 0.08751205 0.10583919 -0.08940177 -0.18102695 -0.228162
-0.23304957 0.016145263 -0.16665857 -0.09423961 0.2009727 -0.03331206 -0.2223058 -0.015960256
-0.07572971 0.013791649 -0.09498692 -0.098100595 -0.17994569 -0.23419617 -0.11260806 -0.035321616
-0.023263345 -0.10755005 0.16686851 -0.07197624 0.1539184 0.18394826 0.17958418 -0.18938766
-0.228076 -0.02564009 0.14172441 -0.049994614 0.24841231 -0.17744406 0.20144014 -0.009636891
0.16909294 -0.2156911 0.006350125 -0.10742714 -0.0287192 -0.12437155 0.11211357 -0.16408136
-0.16456527 0.006981425 -0.17310062 0.112693794 -0.07059295 -0.10280297 0.16051859 0.16142452
-0.16505921 -0.024999779 0.25355068 0.028518202 -0.1420042 -0.1012445 -0.04079377 0.15863538
-0.24202615 0.06479633 -0.019379327 -0.24826214 0.016937247 0.18533519 0.094178334 -0.098916955
0.04338961 -0.1156961 -0.010769643 -0.019541444 0.2608292 -0.16208014 -0.13611217 0.03057912
0.0048623243 -0.03183969 0.20122062 0.19897607 0.008878648 -0.2562294 0.22778992 0.12121717
0.12803432 -0.06120694 0.14468475 0.09923386 0.036894675 0.04845235 0.17595829 -0.17489772
-0.09970483 0.045871817 0.20131424 0.05775803 -0.07946171 0.02496059 -0.027649656 0.15808438
0.15445484 0.06723941 0.050729074 -0.036059197 -0.062381376 0.16001047 -0.15860425 -0.24067168
0.17250188 -0.13717127 0.24582212 -0.08398024 -0.016955612 0.21620485 0.16981535 0.19137095
-0.24320865 0.05130522 -0.21558933 0.06792975 0.09107315 0.2068714 -0.19708934 0.16484411
0.19529706 0.0041572046 -0.034776974 0.19602999 -0.03490427 -0.23047426 0.18690185 0.025405861
0.06975391 0.1179267 0.1355868 0.10500044 0.17013556 -0.14449367 -0.09004194 -0.09562715
0.11502904 -0.17689785 0.09166526 -0.17776237 -0.0731993 -0.004297258 -0.034801256 -0.11057929
0.099504195 0.022574747 0.22366105 0.19072612 0.17094056 -0.21443757 0.08581848 0.19571055
-0.0010166966 -0.19402596 0.24467288 0.016125206 -0.12715158 0.041032072 0.24198261 0.13492295
-0.015443018 0.12863472 0.13859957 0.05022078 -0.21946971 -0.20720674 -0.16276824 -0.19739732
0.011935238 -0.038920656 0.1409448 0.0009402629 -0.12688303 -0.21026736 0.028029455 0.19862114
00000000: 2dcf cb3d a8a2 63bb f02c 3c3d 6740 8bbd
00000010: 4fc1 4d3d 65da 80bb f31f 8bbd b73c a93d
00000020: 9329 ca3d 24cf 063d 30f7 bc3d b65c db3c
00000030: 8f06 4abe 9f45 03be c7dc 11bd da53 cf3d
00000040: cec1 813e 0792 93bd 6864 9ebd 8a78 043e
00000050: ab8a ba3d 0967 843d 4adf 713e 61e5 1b3e
00000060: 063e 27be 49fb d2bd 6d5d 823d 996b 8c3e
00000070: 8726 093c 78af 4b3e b110 9a3d 264a a8bd
00000080: 8acc cb3d ae16 9fbd 0ec2 7cbe 2f49 e93d
00000090: 7d00 40be 75fa cd3d d98e 2fbe e03b 443e
000000a0: 91a6 afbd a32b 19bc 5fb5 2ebd 3d2c 80be
000000b0: 214c 0a3d d0da a03c fc53 2cbe 3bda 34be
000000c0: adb1 c23d aee3 e0bd ec63 3bbe 516c cdbd
000000d0: 3e0b 0bbe b9d7 1f3d a342 1dbe e559 49be
000000e0: 9156 bd3d 2dc4 6abc ec36 223e 0b44 3b3e
000000f0: 9da6 a33b b5e3 1cbe 347b 653d 22a7 053e
00000100: 97ba 31be 00d8 383e 0d81 7c3d ec39 863c
00000110: 8956 2bbd e70a debd f6cf 3a3e 37b5 613e
00000120: b9e5 a1bc b97a 4abd a06d 113e 8539 b33d
00000130: 38c2 d83d 4618 b7bd 215f 39be 4da3 69be
00000140: 8ca4 6ebe 1243 843c 8ba8 2abe b200 c1bd
00000150: cacb 4d3e 3a72 08bd 22a4 63be 15bf 82bc
00000160: 2e18 9bbd 5ef6 613c 8188 c2bd f7e8 c8bd
00000170: af43 38be 1fd1 6fbe 0e9f e6bd 66ad 10bd
00000180: c592 bebc 3343 dcbd 94df 2a3e 4768 93bd
00000190: c99c 1d3e ef5c 3c3e eae4 373e d7ee 41be
000001a0: c18c 69be 2b0b d2bc 3420 113e 27c7 4cbd
000001b0: cc5f 7e3e e5b3 35be 5346 4e3e 0de4 1dbc
000001c0: b326 2d3e 21de 5cbe b614 d03b c302 dcbd
000001d0: 8744 ebbc 83b6 febd cd9b e53d f204 28be
000001e0: cc83 28be 70c4 e43b 4a41 31be 01cc e63d
000001f0: 0993 90bd 5d8a d2bd fc5e 243e 784c 253e
00000200: 4805 29be 56cc ccbc 65d1 813e 019f e93c
00000210: 8d69 11be 4759 cfbd 5e17 27bd 5071 223e
00000220: b4d5 77be f0b3 843d 65c1 9ebc 6e38 7ebe
00000230: fbbf 8a3c 82c8 3d3e 92e0 c03d f994 cabd
00000240: 4eb9 313d 14f2 ecbd 2873 30bc 6115 a0bc
00000250: 688b 853e 56f8 25be fd60 0bbe 1081 fa3c
00000260: 2254 9f3b 566a 02bd c70c 4e3e 62c0 4b3e
00000270: c077 113c 8030 83be c341 693e b540 f83d
00000280: 6e1b 033e 21b4 7abd 3d28 143e 1f3b cb3d
00000290: df1e 173d f975 463d 692e 343e 6318 33be
000002a0: 0c32 ccbd 16e4 3b3d 5225 4e3e af93 6c3d
000002b0: d2bc a2bd 277a cc3c 8881 e2bc dfe0 213e
000002c0: 6929 1e3e d1b4 893d 4ac9 4f3d cfb2 13bd
000002d0: 9d83 7fbd c9d9 233e 2769 22be a372 76be
000002e0: 55a4 303e a076 0cbe cbb8 7b3e d5fd abbd
000002f0: 7fe6 8abc ce64 5d3e 13e4 2d3e bff6 433e
00000300: b00b 79be 6c25 523d 73c3 5cbe c11e 8b3d
00000310: 8f84 ba3d 19d6 533e cad1 49be e5cc 283e
00000320: f4fb 473e 2939 883b 4d72 0ebd 16bc 483e
00000330: c8f7 0ebd 7201 6cbe 3363 3f3e f41f d03c
00000340: 23db 8e3d 8e83 f13d 44d7 0a3e 780a d73d
00000350: 0438 2e3e 26f6 13be e967 b8bd 2bd8 c3bd
00000360: 5894 eb3d b624 35be ffba bb3d 5707 36be
00000370: 84e9 95bd 03d0 8cbb c38b 0ebd 6577 e2bd
00000380: dbc8 cb3d adee b83c 6707 653e b54d 433e
00000390: 0b0b 2f3e 8695 5bbe 99c1 af3d 5968 483e
000003a0: ad42 85ba beae 46be 878b 7a3e 0219 843c
000003b0: 0634 02be 3f11 283d 4aca 773e 3e29 0a3e
000003c0: b604 7dbc d2b8 033e 0ced 0d3e 4eb4 4d3d
000003d0: abbc 60be 012e 54be b8ac 26be 8622 4abe
000003e0: 048c 433c 446b 1fbd d553 103e fa7b 763a
000003f0: a0ed 01be 5450 57be 079e e53c 5763 4b3e

ConvBase.1.feature.lis.3.pointwise.bias f4 [16]
0.25568238 0.11138558 -0.122258544 -0.18759276 -0.0064596385 0.18160713 0.16136591 0.21510363
-0.1591407 -0.10072358 -0.009006403 0.041765694 -0.11101735 -0.039401803 0.0832605 0.2025965
00000000: cde8 823e 1f1e e43d b062 fabd 5118 40be
00000010: 60ab d3bb 38f7 393e 1b3d 253e 2044 5c3e
00000020: c8f5 22be 2a48 cebd 988f 13bc 8112 2b3d
00000030: 105d e3bd c963 21bd 7b84 aa3d 7575 4f3e

ConvBase.1.feature.bn.weight f4 [16]
0.979548 0.8741508 0.48178577 0.13187017 0.66977066 0.60325706 0.890748 0.5141687
0.9494544 0.64701223 0.24348469 0.52779984 0.80733 0.14134678 0.21470377 0.29312783
00000000: a8c3 7a3f 59c8 5f3f a0ac f63e f908 073e
00000010: 1776 2b3f 0e6f 1a3f 1008 643f 8fa0 033f
00000020: 720f 733f 98a2 253f 0d54 793e e41d 073f
00000030: 2ead 4e3f 36bd 103e 4edb 5b3e da14 963e

ConvBase.1.feature.bn.bias f4 [16]
-0.004254114 0.011878186 -0.011419628 0.039785355 -0.0005895928 -0.015052332 0.009625851 0.03149157
-0.026444776 0.021810243 0.023209304 0.017006531 0.035759777 0.026452228 0.044920474 0.0025082363
00000000: 1866 8bbb b99c 423c 6419 3bbc f8f5 223d
00000010: e78e 1aba 0e9e 76bc bfb5 1d3c 4efd 003d
00000020: b7a2 d8bc 65ab b23c 7021 be3c 4851 8b3c
00000030: d878 123d 58b2 d83c 88fe 373d 3961 243b

ConvBase.1.feature.bn.running_mean f4 [16]
0.24086791 -0.13648875 0.021182442 -0.3778287 3.398534e-05 -0.3146834 -0.13109618 0.3753706
-0.33471587 0.09991558 -0.093756065 -0.027212216 -0.058661673 0.0457452 0.0033257282 0.03456813
00000000: 14a6 763e b5c3 0bbe cd86 ad3c c372 c1be
00000010: 7b8b 0e38 2f1e a1be 143e 06be 9330 c03e
00000020: e15f abbe 8aa0 cc3d 2e03 c0bd 27ec debc
00000030: 3947 70bd 525f 3b3d 76f4 593b 5097 0d3d

ConvBase.1.feature.bn.running_var f4 [16]
0.002265033 0.0018835758 0.003178277 0.0027537846 0.0020707953 0.004282329 0.0037198004 0.000955166
0.0034582585 0.002209174 0.0017882772 0.00284954 0.0024269999 0.0017070198 0.00273106 0.0024347575
00000000: f370 143b 51e2 f63a a44a 503b d778 343b
00000010: 2eb6 073b c852 8c3b e5c7 733b 1b64 7a3a
00000020: f3a3 623b cac7 103b a064 ea3a 59bf 3a3b
00000030: 4d0e 1f3b 14be df3a 95fb 323b 7490 1f3b

ConvBase.1.bn.weight f4 [64]
0.4366257 0.10180043 0.11849603 0.07629081 0.37194136 0.7600594 0.89750177 -0.0045050513
0.69347787 0.89320034 0.25610977 0.55363333 0.045113526 0.1278305 0.78341806 0.76218885
0.7802352 0.8087726 0.79581994 0.4069675 0.35494718 0.8336587 0.59723616 0.2671727
0.8549719 0.6230078 0.4887632 0.57757 0.81414926 0.37987795 0.29863197 0.9339325
0.6944174 0.3917011 0.13089032 0.93850607 0.28704876 0.8158077 0.29718438 0.4597214
0.35629517 0.73064524 0.31339446 0.12689328 0.07274508 0.4503845 0.18518229 0.8037433
0.75048834 0.49392036 0.27334428 0.6800608 0.3205981 0.98542005 -0.0034288878 0.9313004
0.940571 0.2196596 0.2972444 0.66721034 0.4645277 0.14364639 0.8610289 0.7102631
00000000: 678d df3e be7c d03d 0cae f23d 5b3e 9c3d
00000010: 196f be3e 4193 423f adc2 653f 1c9f 93bb
00000020: c487 313f c7a8 643f d220 833e eaba 0d3f
00000030: f6c8 383d 00e6 023e 168e 483f cf1e 433f
00000040: 7ebd 473f b90b 4f3f dbba 4b3f 0b5e d03e
00000050: a3bb b53e a86a 553f 78e4 183f dcca 883e
00000060: 70df 5a3f 707d 1f3f 2c3f fa3e a1db 133f
00000070: 166c 503f 5d7f c23e 4ae6 983e 3316 6f3f
00000080: 57c5 313f 0c8d c83e 1d08 063e ef41 703f
00000090: 0ef8 923e c6d8 503f 8d28 983e 9a60 eb3e
000000a0: 526c b63e 910b 3b3f 3d75 a03e 50f0 013e
000000b0: 5ffb 943d cc98 e63e 6da0 3d3e 1fc2 4d3f
000000c0: 0120 403f 21e3 fc3e c8f3 8b3e 7718 2e3f
000000d0: 6f25 a43e 7d44 7c3f 31b7 60bb b469 6e3f
000000e0: 43c9 703f 72ee 603e 6b30 983e 4cce 2a3f
000000f0: 93d6 ed3e 0a18 133e 646c 5c3f cdd3 353f

ConvBase.1.bn.bias f4 [64]
0.021893203 0.014614423 0.014181382 0.010895917 -0.029516818 -0.025818365 0.040286615 -0.015216573
0.019609645 0.0037025157 -0.0034516747 -0.018072227 -0.0075377626 0.004260672 -0.04090982 0.041217886
-0.0030629148 -0.023225032 -0.01397237 -0.038115762 0.022183359 -0.011078196 0.0226804 -0.001890898
-0.026830679 0.0122110285 -0.028958244 0.02188195 0.0018074943 -0.0025923622 0.00814886 -0.0069352863
-0.008225575 -0.02518042 -0.02943168 0.047352057 -0.0042377175 0.012387794 0.0005688358 -0.005702103
0.020082867 -0.044793315 0.023571782 -0.009237012 0.03160381 0.023534253 -0.0046504075 0.030771906
-0.009253575 0.031440467 0.011362537 0.025704553 0.019809812 -0.037247524 -0.016545458 0.010123268
-0.028510964 0.018599888 0.012208833 0.024755826 0.0033208884 0.0069382847 -0.0066641145 0.007006586
00000000: 6059 b33c 5571 6f3c 0759 683c ca84 323c
00000010: 41cd f1bc 0981 d3bc 9403 253d ef4e 79bc
00000020: 68a4 a03c e8a5 723b 7e35 62bb 350c 94bc
00000030: 56ff f6bb 1b9d 8b3b 0e91 27bd 16d4 283d
00000040: 2fbb 48bb 6c42 bebc 5eec 64bc 461f 1cbd
00000050: e0b9 b53c 5281 35bc 3fcc b93c 02d8 f7ba
00000060: 03cc dbbc c410 483c d739 edbc c641 b33c
00000070: 72e9 ec3a 9fe4 29bb cc82 053c 6641 e3bb
00000080: 90c4 06bc 2b47 cebc b51a f1bc 3bf4 413d
00000090: 8ddc 8abb 2df6 4a3c ed1d 153a b5d8 babb
000000a0: d384 a43c 3279 37bd 9c19 c13c d656 17bc
000000b0: ff72 013d e8ca c03c 7262 98bb 5d15 fc3c
000000c0: 4e9c 17bc b8c7 003d ef29 3a3c 5b92 d23c
000000d0: 3048 a23c dc90 18bd 578a 87bc 10dc 253c
000000e0: d38f e9bc cb5e 983c 8f07 483c bbcc ca3c
000000f0: 43a3 593b 8d5a e33b a55e dabb 8197 e53b

ConvBase.1.bn.running_mean f4 [64]
0.1937822 0.14083228 0.114735216 0.06029769 0.1511984 0.030991854 0.02021942 0.13641319
0.23031868 0.16767745 0.07363927 0.032953102 0.21545894 0.0264528 0.0705088 0.06817758
0.23678574 0.21778117 0.09205155 0.07047191 0.19611521 0.18642196 0.17470671 0.13255583
0.13046911 0.19070247 0.06434267 0.14190003 0.14421473 0.054577798 0.075631514 0.07610134
0.34091067 0.27780893 0.13889411 0.0527217 0.22240488 0.20579109 0.24557891 0.19814833
0.23883344 0.12173847 0.069640264 0.1617215 0.23907548 0.050392933 0.06833494 0.08028187
0.25321624 0.30957055 0.13461195 0.06666099 0.19486499 0.15782306 0.23542415 0.1969353
0.2677433 0.21988817 0.087873064 0.16696161 0.29808939 0.06043802 0.08337076 0.10982625
00000000: d76e 463e 5636 103e 4cfa ea3d b6fa 763d
00000010: c1d3 1a3e a1e2 fd3c 32a3 a53c e6af 0b3e
00000020: a9d8 6b3e a3b3 2b3e 30d0 963d d5f9 063d
00000030: 45a1 5c3e 8bb3 d83c eb66 903d b0a0 8b3d
00000040: f677 723e 0702 5f3e 8685 bc3d 9453 903d
00000050: 6dd2 483e 66e5 3e3e 51e6 323e b7bc 073e
00000060: b299 053e 8247 433e 17c6 833d 3e4e 113e
00000070: 07ad 133e f88c 5f3d b2e4 9a3d 05db 9b3d
00000080: d88b ae3e f93c 8e3e 423a 0e3e b6f2 573d
00000090: 1bbe 633e e6ba 523e 0a79 7b3e 65e7 4a3e
000000a0: c190 743e 0552 f93d 8e9f 8e3d 529a 253e
000000b0: 34d0 743e d268 4e3d 30f3 8b3d d26a a43d
000000c0: 8fa5 813e 0880 9e3e b7d7 093e 8f85 883d
000000d0: b08a 473e 5e9c 213e 0713 713e 68a9 493e
000000e0: a615 893e 5d2a 613e cbf6 b33d fcf7 2a3e
000000f0: 2c9f 983e db8d 773d 4abe aa3d 96ec e03d

ConvBase.1.bn.running_var f4 [64]
0.09656767 0.04672693 0.035923775 0.004193881 0.057941284 0.0033889988 0.0022731014 0.1336069
0.4985286 0.22018771 0.03594816 0.005739779 0.3528103 6.8559393e-07 0.022064975 0.01139611
0.3695796 0.41675922 0.11243963 0.008320182 0.10879706 0.20364335 0.6574555 0.18274307
0.13736497 0.25391337 0.03152558 0.14171882 0.04251345 0.011924705 0.0029708059 0.066473655
0.5138692 0.23920198 0.07107947 0.008466903 0.12756081 0.17083 0.088384196 0.12059711
0.09154785 0.34989443 0.036070134 0.05869201 0.47734123 0.008209671 0.035164937 0.024823317
0.7504594 0.22586808 0.067486204 0.0074131233 0.14690308 0.18929096 0.21933536 0.1061699
0.4795861 0.0744238 0.036893316 0.16524304 0.2701153 0.011919863 0.027906725 0.04614556
00000000: 45c5 c53d bd64 3f3d cf24 133d d36c 893b
00000010: d753 6d3d f719 5e3b 50f8 143b 3fd0 083e
00000020: 243f ff3e e378 613e 613e 133d c214 bc3b
00000030: 8da3 b43e a809 3835 9bc1 b43c c0b6 3a3c
00000040: 8a39 bd3e 7761 d53e c046 e63d 5f51 083c
00000050: fed0 de3d e287 503e 014f 283f 0021 3b3e
00000060: 67a9 0c3e ef00 823e f720 013d bd1e 113e
00000070: 9522 2e3d d65f 433c dab1 423b 5723 883d
00000080: ef8c 033f 5df1 743e 1d92 913d c4b8 0a3c
00000090: 4d9f 023e 0fee 2e3e c602 b53d 9efb f63d
000000a0: 707d bb3d 5d25 b33e 47be 133d 0867 703d
000000b0: 1266 f43e db81 063c 1c09 103d 455a cb3c
000000c0: 1b1e 403f f649 673e 3536 8a3d c9e9 f23b
000000d0: c36d 163e 7dd5 413e 7399 603e 9b6f d93d
000000e0: 4f8c f53e 816b 983d 721d 173d 7935 293e
000000f0: 8d4c 8a3e 874b 433c a59c e43c 2003 3d3d
