waights/weights12.pth (torch_old, 670822 bytes, 196 tensors)

ConvBase.1.feature.lis.0.X_conv.conv.weight f4 [1, 1, 3, 1]
0	0xbc1f93ea	-0.009739855
1	0xbe481789	-0.19540228
2	0xbdfe7ee3	-0.124265455

ConvBase.1.feature.lis.0.Y_conv.conv.weight f4 [1, 1, 1, 3]
0	0x3e9c27dc	0.3049916
1	0xbd96d4d0	-0.073648095
2	0xbe13b235	-0.1442345

ConvBase.1.feature.lis.0.pointwise.weight f4 [16, 1, 1, 1]
0	0xbeba6281	-0.36403278
1	0xbe6d9db0	-0.23204684
2	0xbf45f96a	-0.773337
3	0xbf6eca9a	-0.93277895
4	0xbefe8f7e	-0.4971885
5	0xbda83f27	-0.0821517
6	0x3ca0f24d	0.019646788
7	0x3f1516d5	0.58237964
8	0x3f53e9a6	0.82778394
9	0x3f2877d4	0.65807843
10	0x3f6d20d2	0.92628205
11	0x3d7bee9b	0.06150685
12	0x3f32203b	0.6958043
13	0xbae9c3d7	-0.0017834854
14	0x3eec0c70	0.4610324
15	0xbf00d7fe	-0.5032958

ConvBase.1.feature.lis.0.pointwise.bias f4 [16]
0	0x3f5069f9	0.814117
1	0xbe8fd152	-0.28089386
2	0x3f35bd09	0.7099157
3	0xbf85976d	-1.0436836
4	0xbe99a36e	-0.300075
5	0xbf50b667	-0.81528324
6	0xbea9eb10	-0.3318715
7	0x3f6c5762	0.92320836
8	0xbf2fc79a	-0.6866394
9	0x3e849624	0.25895798
10	0xbee3757d	-0.44425574
11	0xbf0aace8	-0.54170084
12	0x3d5fc2ae	0.05462902
13	0xbd9a1062	-0.07522656
14	0xbe918f1b	-0.28429493
15	0xbeca6ede	-0.3953771

ConvBase.1.feature.lis.1.X_conv.conv.weight f4 [16, 1, 5, 1]
0	0x3e75be86	0.2399846
1	0xbe9b056a	-0.30277568
2	0x3baa818e	0.0052034324
3	0x3eb6cb54	0.35702002
4	0x3e81e6a3	0.25371274
5	0x3ccbab52	0.024861965
6	0x3eadde38	0.33958602
7	0x3b47084b	0.0030369933
8	0x3e182e51	0.14861418
9	0xbe8a6ed3	-0.27037677
10	0xbe5a8b0f	-0.21342109
11	0xbe9c76a7	-0.30559275
12	0xbd4e5d5a	-0.050381996
13	0x3e912d80	0.28355026
14	0xbde1f4f1	-0.11033047
15	0xbd20052a	-0.039067425
16	0x3d2fdc49	0.04293469
17	0x3e398ee8	0.1812092
18	0x3ed2d485	0.41177765
19	0x3bf78698	0.0075538866
20	0xbec66f64	-0.3875686
21	0xbdd0cf3d	-0.101957776
22	0x3cd7e366	0.02635355
23	0xbea53c49	-0.32272556
24	0x3eb439cc	0.35200346
25	0x3dea37bb	0.11436411
26	0x3e7fc884	0.24978834
27	0xbec4ab9a	-0.38412172
28	0x3e60a4b7	0.21937834
29	0x3e1e4bfa	0.1545867
30	0xbe8ccdfd	-0.27500907
31	0xbe315204	-0.17316443
32	0xbe3ac2a5	-0.18238313
33	0x3e4862c3	0.19568925
34	0xbc2b9bc9	-0.010474154
35	0x3d82c38f	0.06384956
36	0xbd700530	-0.058598697
37	0x3eda3f30	0.42626333
38	0x3ecdcfa1	0.4019747
39	0x3e0699fc	0.13144678
40	0x3d40d67f	0.04707956
41	0xbeaa51be	-0.3326549
42	0x3eb103a7	0.345731
43	0x3e6af183	0.22943692
44	0x3dc5364e	0.096294984
45	0xbea1067d	-0.31450263
46	0xbe999d1a	-0.3000267
47	0x3db98d6b	0.090601765
48	0x3e08c8fa	0.13357916
49	0xbec82223	-0.39088544
50	0xbd90759d	-0.07053683
51	0xbd90366d	-0.07041631
52	0xbee93d4e	-0.45554584
53	0xbcb1ab61	-0.021688165
54	0x3ebf40bc	0.37354076
55	0xbedd1171	-0.4317737
56	0xbee22026	-0.44165152
57	0x3e97d101	0.29651645
58	0x3e4ae420	0.19813585
59	0x3ebf1a72	0.37324864
60	0xbe30a4a0	-0.172503
61	0xbd7553da	-0.05989442
62	0xbd855c2f	-0.06511723
63	0x3ece534b	0.40297922
64	0xbe869666	-0.2628662
65	0xbeb4f383	-0.35342035
66	0x3eb2140e	0.34780926
67	0xbe36f149	-0.1786548
68	0x3db1fa00	0.08690262
69	0xbd9deea1	-0.077115305
70	0xbcc5c2c5	-0.024140725
71	0xba6dfa48	-0.00090781273
72	0xbe953f3b	-0.29149804
73	0xbee25d0b	-0.4421161
74	0x3e810e01	0.25205997
75	0x3eb75957	0.35810348
76	0xbd54da00	-0.051965714
77	0x3e23c6e6	0.15993842
78	0x3e490927	0.19632398
79	0xbed0959e	-0.4073915

ConvBase.1.feature.lis.1.X_conv.conv.bias f4 [16]
0	0x3ca7ae55	0.02046887
1	0x3dafd8b3	0.08586254
2	0x3d5c3cb7	0.05376884
3	0xbee7e6b4	-0.452932
4	0xbe95852d	-0.29203168
5	0xbec90d0b	-0.39267763
6	0xbeea04c2	-0.45706755
7	0x3dc7b4f2	0.097513095
8	0x3e21ec19	0.1581272
9	0xbe162c5e	-0.14665362
10	0x3e9c63ee	0.3054499
11	0x3e93df6d	0.28881398
12	0x3d843141	0.06454707
13	0x3dfe134a	0.12406023
14	0xbed4d9e4	-0.41572487
15	0x39deac38	0.00042471453

ConvBase.1.feature.lis.1.Y_conv.conv.weight f4 [16, 1, 1, 5]
0	0x3e86eebe	0.2635402
1	0x3eb37afe	0.35054773
2	0xbeba1116	-0.3634116
3	0xbe4b448e	-0.1985037
4	0x3cb9e569	0.0226924
5	0x3eab7193	0.33485088
6	0x3edbd9e4	0.42939675
7	0xbdda3b96	-0.10655896
8	0x3a2f727b	0.0006692779
9	0xbedaf197	-0.42762443
10	0xbea9b5cf	-0.3314652
11	0x3d5b5352	0.053546257
12	0x3e832fb6	0.25622338
13	0xbe9fe19f	-0.31226823
14	0xbe720783	-0.23635678
15	0xbe895a6e	-0.26826805
16	0x3e800aad	0.25008145
17	0x3eec6fdd	0.46179095
18	0xbe58d3ae	-0.211745
19	0xbeae425e	-0.3403501
20	0xbe8548ff	-0.26032254
21	0x3ec883b8	0.39162993
22	0x3ec794bf	0.38980672
23	0xbeb4f45b	-0.35342678
24	0x3e4b5a15	0.19858582
25	0xbe77c30c	-0.24195498
26	0xbe458eb1	-0.19292714
27	0xbeb4d3d3	-0.3531786
28	0x3df28421	0.11841608
29	0xbec183f5	-0.37795988
30	0x3d90aed4	0.07064596
31	0xbde999b9	-0.114062734
32	0x3d294684	0.041327015
33	0x3e882eb6	0.26598138
34	0x3dd16de9	0.10226042
35	0xbeb29fb2	-0.34887463
36	0x3e7c190c	0.2461893
37	0xbd836daa	-0.06417401
38	0xbddcc276	-0.10779278
39	0x3d7214a6	0.059101723
40	0xbd44123c	-0.047868952
41	0xbed418a9	-0.41425064
42	0xbdb97fbd	-0.09057567
43	0x3e31ecfe	0.17375562
44	0xbe94a4bc	-0.29031932
45	0x3e51ea92	0.20499638
46	0xbeaf4b6c	-0.3423723
47	0xbe0b37da	-0.13595524
48	0x3ed7f502	0.42179114
49	0x3ea4397a	0.320751
50	0x3e7de396	0.24793848
51	0x3e09704e	0.13421747
52	0xbdae1201	-0.08499528
53	0x3e4d4a01	0.20047761
54	0xbe8e3fcb	-0.27783045
55	0x3ecf316c	0.40467393
56	0xbebb6079	-0.3659704
57	0x3e8588f5	0.26081052
58	0xbe004089	-0.12524618
59	0xbdf60937	-0.12013476
60	0x3ee2f1de	0.44325155
61	0xbe670b37	-0.22562872
62	0x3e2caa29	0.16861786
63	0x3ed959e1	0.42451385
64	0x3a10541f	0.0005505699
65	0x3e9c03ee	0.30471748
66	0x3cbd53c0	0.023111224
67	0x3e7d1f81	0.24719049
68	0x3ecff3f7	0.40615818
69	0xbe85237d	-0.26003638
70	0xbe9877ae	-0.29778808
71	0xbedc4f2b	-0.4302915
72	0x3eb85d66	0.36008757
73	0xbed8e43c	-0.4236163
74	0x3ecb93d3	0.39761218
75	0x3ea7a531	0.3274322
76	0xbd9d3d64	-0.07677725
77	0xbeed2fa4	-0.4632541
78	0xbe8a7ab8	-0.27046752
79	0xbb8d7516	-0.0043169362

ConvBase.1.feature.lis.1.Y_conv.conv.bias f4 [16]
0	0x3e48cb86	0.19608888
1	0x3e858a98	0.260823
2	0xbe0bad58	-0.13640344
3	0x3e8c9d90	0.2746396
4	0x3df96651	0.121777184
5	0x3d709934	0.058739856
6	0x3d6f9f3f	0.05850148
7	0x3e1576fb	0.14596169
8	0x3eb5eba0	0.3553133
9	0x3d8dc26b	0.06921848
10	0xbed94b1e	-0.42440122
11	0xbe2ce995	-0.1688598
12	0xbebcee44	-0.36900532
13	0x3e422d32	0.18962553
14	0xbea632fe	-0.3246078
15	0xbebe05e7	-0.37113878

ConvBase.1.feature.lis.1.pointwise.weight f4 [16, 16, 1, 1]
0	0xbe3f6c9c	-0.18693775
1	0xbe73d69d	-0.23812337
2	0xbe0d95fa	-0.13826743
3	0x3e2ae7f5	0.16690047
4	0xbe610281	-0.21973611
5	0x3de1a9d6	0.11018722
6	0x3db2a8d6	0.08723609
7	0x3e6bd1be	0.23029229
8	0xbd36f1a2	-0.044664033
9	0xbdbf062f	-0.09327351
10	0xbd3f0659	-0.046636913
11	0x3e0b7bef	0.13621496
12	0xbe4f1214	-0.2022174
13	0x3e694f99	0.2278427
14	0xbe6587fc	-0.22415155
15	0x3e5a712f	0.21332239
16	0x3e2da80a	0.16958633
17	0x3dbd9cc2	0.09258415
18	0x3d85ea2e	0.06538807
19	0xbd4cf61e	-0.050039403
20	0xbe4d7214	-0.20063049
21	0xbe37244b	-0.17884938
22	0x3e1df45e	0.1542525
23	0x3e4f9c9b	0.20274584
24	0x3ce37419	0.02776532
25	0x3e172e7d	0.14763828
26	0xbe54d452	-0.20784119
27	0x3dc8e0db	0.09808513
28	0xbdefc5c8	-0.11707646
29	0x3dc0a5ce	0.09406625
30	0x3e38640d	0.18006916
31	0x3c1d5494	0.0096026845
32	0xbe1f66e4	-0.15566593
33	0xbdcbcc27	-0.09951048
34	0xbd1c57a7	-0.03816953
35	0x3d72219d	0.059114087
36	0xbe943ab4	-0.28951037
37	0xbc07e7cf	-0.008295014
38	0x3db1e004	0.08685306
39	0xbe442234	-0.19153672
40	0x3e044235	0.12915881
41	0x3caf2046	0.021377694
42	0xbe505323	-0.20344214
43	0x3e414e61	0.18877555
44	0x3b62b1aa	0.003459076
45	0xbe22db5b	-0.1590399
46	0xbdbd66d2	-0.09248127
47	0xbe7b460c	-0.2453844
48	0xbbcdeb27	-0.006284136
49	0xbe363065	-0.17791899
50	0x3e108c0c	0.14115924
51	0xbdc413c5	-0.09574083
52	0xbe43ac82	-0.19108775
53	0x3d5a5801	0.053306583
54	0x3e5915f1	0.21199776
55	0x3bfd2b69	0.007726122
56	0x3da5e81e	0.081009135
57	0x3c49c119	0.0123141045
58	0x3e2e9449	0.17048754
59	0xbdc88b37	-0.09792178
60	0x3dafa913	0.0857717
61	0xbe8bbdbc	-0.27293193
62	0xbcb45458	-0.022012874
63	0xbe86f8e0	-0.26361752
64	0xbe32fed6	-0.17480025
65	0x3e53db1b	0.20689051
66	0x3e694def	0.22783636
67	0x3e36b4b9	0.17842378
68	0xbe39ec3c	-0.18156523
69	0x3e50df80	0.20397758
70	0x3e3ed7c6	0.18636999
71	0xbe1dd928	-0.1541487
72	0x3e6f5153	0.23370866
73	0x3df1d995	0.118090786
74	0x3c5d6e85	0.013515119
75	0xbc5b2cfd	-0.013377425
76	0xbde760bd	-0.11297748
77	0xbe1b08f1	-0.1514013
78	0x3d992995	0.07478634
79	0xbe0a0f94	-0.13482505
80	0x3deb6111	0.11493123
81	0xbdcf76b3	-0.10130062
82	0xbd0f7f82	-0.03503371
83	0xbd9ec43b	-0.07752272
84	0xbdb08d5b	-0.086207114
85	0x3ce1491d	0.027500683
86	0x3d57b71a	0.052664854
87	0xbcad178b	-0.02112939
88	0xbe149f13	-0.14513807
89	0xbd498138	-0.0491955
90	0x3d057cdc	0.03258978
91	0xbe64b8f7	-0.22336183
92	0x3b1c33ec	0.0023834659
93	0xbe0d88f5	-0.13821776
94	0xbcd27c2e	-0.02569398
95	0x3e370ce3	0.1787601
96	0xbe7cbe7a	-0.24682036
97	0x3d1b6f6f	0.03794807
98	0xbd8d8b28	-0.069113076
99	0x3ca0210a	0.019547004
100	0x3d9957f2	0.07487477
101	0xbe4613f0	-0.19343543
102	0xbd9dd90a	-0.077074125
103	0x3d11afdd	0.035568107
104	0xbe254b86	-0.16142091
105	0x3e181b62	0.14854196
106	0x3e8937c8	0.2680037
107	0xbcc04932	-0.023472402
108	0xbe2f840b	-0.17140214
109	0xbcff47c1	-0.031162145
110	0xbd1c837a	-0.038211323
111	0x3e64bd1f	0.22337769
112	0xbe3e9eee	-0.18615314
113	0x3e0a0d97	0.13481747
114	0xbe0bf620	-0.13668108
115	0x3d9ba73a	0.07600255
116	0x3e39f9d9	0.18161716
117	0xbe37e19d	-0.17957158
118	0xbd06dadd	-0.032923568
119	0x3e0662b6	0.13123593
120	0xbe09b2e7	-0.13447152
121	0xbd26afd1	-0.040695015
122	0xbdee5a77	-0.116383485
123	0xbdbe37db	-0.09287997
124	0x3cc38170	0.023865432
125	0xbe23bc74	-0.15989858
126	0xbd420276	-0.04736563
127	0xbe0a6ce3	-0.135181
128	0x3d40c222	0.04706014
129	0x3da2ab94	0.07942882
130	0xbe5ec7b5	-0.2175587
131	0xbe7efd17	-0.24901234
132	0xbd3b6a66	-0.045755766
133	0x3cdebc2a	0.027189333
134	0x3e79e756	0.24404654
135	0xbdc781b4	-0.09741536
136	0x3de00a13	0.109394215
137	0xbe1f9138	-0.1558274
138	0x3e81c909	0.2534869
139	0xbe880dbe	-0.26572984
140	0x3e3dc261	0.18531181
141	0xbe3cda74	-0.18442708
142	0x3e4560d6	0.19275221
143	0x3e1a6204	0.15076452
144	0x3df2333d	0.11826179
145	0x3d890c92	0.06691851
146	0x3e6ec98b	0.2331907
147	0xbdbe1602	-0.092815414
148	0x3b669c81	0.0035188498
149	0x38c4cc46	9.384057e-05
150	0x3e5ef5f0	0.21773505
151	0xbdf380c4	-0.118897945
152	0xbc033f0f	-0.00801064
153	0x3e5a6ca0	0.213305
154	0xbe0baf90	-0.1364119
155	0x3d8eddb4	0.0697588
156	0xbb93478f	-0.0044946144
157	0xbe543da0	-0.20726633
158	0x3e1b5e53	0.151727
159	0x3e0b5256	0.13605627
160	0x3e8ac25e	0.27101415
161	0x3e7338d2	0.23752144
162	0xbd247bb9	-0.040157054
163	0x3da653c4	0.08121446
164	0x3e019aee	0.12656757
165	0x3d1886dd	0.03723799
166	0xbe57a9e6	-0.21060905
167	0x3c3fdb81	0.011710049
168	0xbe278b5a	-0.16361752
169	0x3e5d315c	0.2160086
170	0x3e567424	0.20942742
171	0xbe111972	-0.14169863
172	0x3e5132ef	0.20429586
173	0xbe033186	-0.1281186
174	0xbe711ce1	-0.23546173
175	0xbe473388	-0.19453251
176	0xbe21536e	-0.15754482
177	0xbbea527c	-0.007150946
178	0xbd5406e5	-0.051764388
179	0x3e664b61	0.22489692
180	0x3bedce0d	0.007257229
181	0xbd2ba72f	-0.041907486
182	0xbd8c4a5a	-0.06850119
183	0xbe2c45fc	-0.16823572
184	0x3d86df67	0.06585579
185	0x3e0cf033	0.13763504
186	0x3d91722a	0.07101853
187	0x3decf154	0.11569467
188	0x3d8467cd	0.06465111
189	0xbdfc5a20	-0.123218775
190	0xbe59b446	-0.21260175
191	0x3ca51132	0.0201498
192	0x3e011b37	0.12608038
193	0xbe732b7f	-0.23747061
194	0xbd86649b	-0.06562158
195	0xbe087842	-0.13327125
196	0x3dd19964	0.10234335
197	0xbe1fd598	-0.15608823
198	0x3dcf1c41	0.10112811
199	0x3ca53cbe	0.020170566
200	0x3e1543df	0.14576672
201	0xbe4dcf6c	-0.20098656
202	0x3d77e8a5	0.0605246
203	0x3e1b4b62	0.15165475
204	0x3e1007e7	0.14065515
205	0xbda92e90	-0.08260834
206	0xbc6e47f1	-0.014543519
207	0xbe84d7a1	-0.25945762
208	0xbe5a6336	-0.21326908
209	0x3e41a705	0.18911369
210	0xbe13f569	-0.14449085
211	0xbd691756	-0.05690702
212	0x3e17323a	0.14765254
213	0xbdd2b315	-0.102880634
214	0xbe717699	-0.23580398
215	0xbd41f830	-0.04735583
216	0xbdd3a604	-0.10334399
217	0xbce75d05	-0.028242597
218	0x3e1843a1	0.14869548
219	0xbe1edcbd	-0.15513892
220	0x3e1242ef	0.14283346
221	0x3e373a9d	0.17893453
222	0xbdfa1f50	-0.12213004
223	0xbe575849	-0.21029772
224	0x3e0bfa40	0.13669682
225	0xbc97af98	-0.018516347
226	0xbdf8c9b7	-0.12147849
227	0x3e1a9425	0.15095575
228	0xbd68d947	-0.056847837
229	0x3dcdfc80	0.10057926
230	0x3da28203	0.07934954
231	0x3e5f05c8	0.21779549
232	0x3ddc782c	0.107651085
233	0xbe437926	-0.19089183
234	0xbe094ab7	-0.13407408
235	0xbc317c3b	-0.0108328415
236	0x3e210af8	0.1572684
237	0xbe2f641d	-0.17128034
238	0x3e57c759	0.21072139
239	0xbcce4ab1	-0.0251821
240	0xbd0ff817	-0.035148706
241	0xbe10cba1	-0.14140178
242	0x3e3c6f5e	0.18401858
243	0xbe64a237	-0.22327505
244	0xbd82c6b5	-0.063855566
245	0x3d5c896e	0.053842
246	0xbb1da088	-0.0024051983
247	0xbe363cef	-0.17796682
248	0xbdd6617d	-0.10467813
249	0xbd9fc658	-0.07801503
250	0xbd4a35d1	-0.04936773
251	0xbe501dfd	-0.2032394
252	0xbd31d2ee	-0.04341405
253	0x3e5e3631	0.2170036
254	0x3e8edd1c	0.27903068
255	0xbdd06de8	-0.10177213

ConvBase.1.feature.lis.1.pointwise.bias f4 [16]
0	0x3e71619d	0.23572393
1	0xbe68a7c7	-0.22720252
2	0x3e1ad61e	0.15120742
3	0xbe2ade30	-0.1668632
4	0xbdb1b3c1	-0.086768635
5	0xbe82ac38	-0.25522017
6	0xbe4bd963	-0.19907145
7	0x3de60eed	0.112333156
8	0xbe315142	-0.17316154
9	0x3e841737	0.25798962
10	0xbbb8c521	-0.005638734
11	0x3e1229c3	0.14273743
12	0x3d958fe3	0.07302835
13	0x3cbb6b24	0.022878237
14	0x3e0f3237	0.13983999
15	0xbe8d2cd5	-0.27573267

ConvBase.1.feature.lis.2.X_conv.conv.weight f4 [16, 1, 7, 1]
0	0x3e8a326f	0.26991603
1	0xbeb4ed2f	-0.35337207
2	0x3ec89a92	0.39180428
3	0x3dfa6315	0.1222593
4	0x3eb60156	0.35547894
5	0xbdca52a5	-0.098790444
6	0xbe962007	-0.2932131
7	0x3dae23f8	0.08502954
8	0x3bb41709	0.00549591
9	0x3e12406c	0.14282387
10	0x3da96322	0.08270861
11	0xbe2c06d0	-0.16799474
12	0x3e3695e7	0.1783062
13	0x3e998ed8	0.29991794
14	0xbe16baf0	-0.14719748
15	0xbdb4dc1d	-0.08831046
16	0xbeaad70b	-0.3336719
17	0x3e10c0f8	0.14136112
18	0xbe76d636	-0.24105152
19	0x3e9c792b	0.30561194
20	0xbcac64c6	-0.021044146
21	0xbeb6ba3d	-0.35688964
22	0x3e17ed44	0.14836603
23	0xbe531f34	-0.20617372
24	0x3ea4a38a	0.3215602
25	0xbdb75d38	-0.08953327
26	0xbe3ebc36	-0.18626484
27	0x3ce09f7a	0.027419794
28	0x3db4a918	0.088213146
29	0x3e55d860	0.20883322
30	0x3e94b193	0.29041728
31	0x3eb42f10	0.35192156
32	0x3e412ee4	0.18865544
33	0xbe8f2ba4	-0.27962983
34	0x3ea23e68	0.31688237
35	0xbd26b159	-0.040696476
36	0xbdef442b	-0.11682924
37	0xbd175f72	-0.036956258
38	0x3ea6d497	0.32584068
39	0xbea6f78d	-0.3261074
40	0xbe378b76	-0.17924294
41	0xbe41baff	-0.1891899
42	0xbe0c9593	-0.13728933
43	0xbe884c7e	-0.2662086
44	0xbe6dfafa	-0.23240271
45	0x3d4a959c	0.049459085
46	0x3da18be3	0.078880094
47	0xbecab0ac	-0.39587915
48	0x3e43a92c	0.19107503
49	0xbe92260d	-0.28544655
50	0xbe5d98cd	-0.2164032
51	0x3eb8092f	0.35944507
52	0x3e851759	0.25994375
53	0x3e8d9536	0.276529
54	0x3e46dd12	0.19420269
55	0x3eae3dd0	0.34031534
56	0xbea1191b	-0.31464466
57	0x3e9c13fa	0.3048399
58	0x3e507d30	0.20360255
59	0xbd2c91df	-0.0421313
60	0x3e0b6ada	0.1361498
61	0x3ca83461	0.020532789
62	0xbe0217b0	-0.12704349
63	0x3e7cf7e8	0.24703944
64	0x3e7c122d	0.24616309
65	0x3e8f22be	0.27956194
66	0x3dbd6317	0.092474155
67	0xbeb56c38	-0.35434127
68	0xbda14f19	-0.07876415
69	0xbeb64629	-0.35600403
70	0x3eb29ab8	0.34883666
71	0x3ea90786	0.33013552
72	0x3e5cb6da	0.21554127
73	0xbe2c950c	-0.16853732
74	0x3dd08fda	0.101836875
75	0xbe090bd3	-0.13383417
76	0x3e83f4ea	0.25772792
77	0x3deea0a0	0.116517305
78	0x3d147a5e	0.03624951
79	0x3de9f8ae	0.11424385
80	0x3e90a03d	0.28247252
81	0xbde30429	-0.11084778
82	0xbe664883	-0.22488599
83	0xbe0c129e	-0.13678977
84	0x3d47918a	0.04872278
85	0xbe0be2f9	-0.13660802
86	0x3dc33b22	0.09532763
87	0x3d048738	0.032355517
88	0x3cc1cbaa	0.023656685
89	0x3e20bbd1	0.15696646
90	0xbeaf7fb2	-0.3427711
91	0xbe0e4cc4	-0.13896471
92	0x3cbbf949	0.022946017
93	0x3e69095c	0.22757477
94	0xbec4092a	-0.38288242
95	0xbe48fd43	-0.19627862
96	0xbe9c6dd8	-0.30552554
97	0xbec1c3e5	-0.37844768
98	0x3dc33519	0.09531612
99	0x3ebfaa41	0.3743458
100	0xbd6a6a0c	-0.05723004
101	0xbe4ad7cd	-0.19808884
102	0xbe3d3b9f	-0.18479775
103	0xbceaec53	-0.028677141
104	0x3d28329d	0.041063894
105	0x3ea03cbf	0.31296346
106	0x3e1acf57	0.15118156
107	0xbe9a155f	-0.3009443
108	0xbe4d506b	-0.20050208
109	0x3e160ea5	0.14654024
110	0xbe89eca4	-0.26938355
111	0xbcde78a2	-0.027157132

ConvBase.1.feature.lis.2.X_conv.conv.bias f4 [16]
0	0xbd4e0da2	-0.05030597
1	0x3e7e1365	0.24812086
2	0xbe15351c	-0.14571041
3	0xbe1a8488	-0.15089619
4	0xbd20939d	-0.039203275
5	0x3e4dfa4c	0.20115012
6	0x3e67d192	0.22638538
7	0x3dbb554c	0.091471285
8	0x3e33241f	0.17494248
9	0xbd9e4ea8	-0.07729846
10	0x3eaddcc0	0.3395748
11	0x3db8c8cc	0.09022674
12	0x3c4f94d3	0.01266976
13	0xbde8e6d6	-0.113721535
14	0x3eba62e1	0.36403564
15	0xbdb8e072	-0.090271845

ConvBase.1.feature.lis.2.Y_conv.conv.weight f4 [16, 1, 1, 7]
0	0x3d186195	0.037202436
1	0x3e7de645	0.24794872
2	0xbe8e610a	-0.2780841
3	0xbdf40ac6	-0.11916117
4	0x3d7ea152	0.062165566
5	0xbeadba68	-0.3393128
6	0x3ead501c	0.3385018
7	0x3d7e191d	0.06203567
8	0xbea75df6	-0.32688874
9	0x3dd21330	0.10257566
10	0xbb0efb40	-0.0021817237
11	0xbe9e0cb2	-0.3086906
12	0x3e3a9966	0.1822258
13	0x3e03235e	0.1280646
14	0xbdf6f92c	-0.120592445
15	0x3d48ef2f	0.04905623
16	0xbe6ee712	-0.23330334
17	0x3e839ee1	0.25707152
18	0x3d9a873b	0.075453244
19	0x3e21251d	0.15736814
20	0xbc56afb2	-0.013103412
21	0xbdc0d67c	-0.0941591
22	0x3e958e3a	0.29210073
23	0x3d59dfc0	0.0531919
24	0x3eb06f93	0.34460124
25	0xba15cf92	-0.00057148293
26	0x3de81e72	0.11333932
27	0x3ea4d68a	0.3219493
28	0x3e7fb71b	0.24972193
29	0x3e49e628	0.19716704
30	0x3e58caf4	0.2117117
31	0xbd040fa2	-0.03224147
32	0x3e05b8a8	0.13058722
33	0x3e0096b5	0.1255749
34	0x3e5eb89b	0.21750109
35	0x3e14e61e	0.14540908
36	0xbd82a86e	-0.06379782
37	0x3dc09d55	0.09405009
38	0xbed59e4b	-0.4172233
39	0x3e02b384	0.12763792
40	0x3d9c79c0	0.076404095
41	0x3e906c64	0.28207695
42	0x3e3937ac	0.18087643
43	0xbe8665ab	-0.26249442
44	0xbeb66360	-0.35622692
45	0x3e537123	0.20648627
46	0x3cbc5077	0.022987587
47	0x3ea52aad	0.32259122
48	0xbc9f84fd	-0.019472593
49	0xbe050b9d	-0.12992711
50	0xbcb151fe	-0.021645542
51	0x3e1150c0	0.1419096
52	0xbe8b7f89	-0.2724574
53	0xbea3af74	-0.31969798
54	0xbc163f01	-0.009170295
55	0x3dd55018	0.10415667
56	0xbeb9b584	-0.36271298
57	0x3ddce2f5	0.10785476
58	0xbeb47645	-0.35246482
59	0xbe86d4c7	-0.2633421
60	0x3e8bac25	0.27279773
61	0x3c151a3e	0.009100495
62	0xbd92e06a	-0.0717171
63	0xbd993af9	-0.07481951
64	0xbebdedf8	-0.37095618
65	0xbe3afcb1	-0.18260457
66	0x3df78385	0.12085632
67	0x3e092629	0.13393463
68	0xbe3fc61b	-0.18727915
69	0xbe909912	-0.28241783
70	0xbda7792b	-0.08177408
71	0x3d271d9a	0.040799715
72	0x3e9c2570	0.30497313
73	0x3e13f71a	0.1444973
74	0x3dd6c748	0.10487229
75	0x3e89eb5b	0.26937374
76	0xbea11b33	-0.31466064
77	0x3e5a0447	0.21290694
78	0xbe82fa03	-0.2558137
79	0x3e249bb9	0.16075028
80	0xbe1d51f9	-0.15363301
81	0xbe327ae0	-0.17429686
82	0xbec24900	-0.3794632
83	0x3eb26f32	0.3485046
84	0x3e02fa53	0.12790804
85	0x3e28c05b	0.16479628
86	0xbd13534f	-0.03596812
87	0xbe782415	-0.24232514
88	0x3d83b27b	0.06430527
89	0x3e9b4999	0.30329588
90	0xbe072664	-0.13198239
91	0xbcafb215	-0.02144722
92	0xbaeac256	-0.00179107
93	0x3e596803	0.21231084
94	0x3de81094	0.11331287
95	0x3ecd6319	0.40114668
96	0x3e2e945d	0.17048784
97	0xbe451dd4	-0.1924966
98	0x3e5ea474	0.21742421
99	0xbd3f4a58	-0.04670176
100	0xbe12f895	-0.14352639
101	0xbdbc16e0	-0.091840506
102	0x3e8a2a0a	0.26985198
103	0x3eb5bc6c	0.35495317
104	0x3e63b2fe	0.22236249
105	0xbe871945	-0.26386467
106	0x3dbed047	0.093170695
107	0xbeb0eb62	-0.34554583
108	0xbe82dfbf	-0.2556133
109	0x3a703401	0.00091630226
110	0xbd51da2b	-0.05123345
111	0x3ea748d3	0.32672748

ConvBase.1.feature.lis.2.Y_conv.conv.bias f4 [16]
0	0x3db69f72	0.089171305
1	0x3e28713f	0.1644945
2	0xbeb07692	-0.34465462
3	0xbebeb57b	-0.37247834
4	0xbe7e4470	-0.24830794
5	0xbcb676b2	-0.022273395
6	0x3e24fd93	0.16112356
7	0xbd7acec1	-0.061232332
8	0x3dc5f7db	0.09666415
9	0x3eae2d85	0.34019104
10	0xbde41025	-0.11135892
11	0x3ea32f1e	0.31871885
12	0xbe9251d7	-0.28578064
13	0x3de1da5c	0.11027977
14	0x3eaeff2e	0.34179062
15	0x3e943999	0.28950194

ConvBase.1.feature.lis.2.pointwise.weight f4 [16, 16, 1, 1]
0	0xbdc7c23f	-0.097538464
1	0xbdb540a3	-0.08850219
2	0x3e5c8583	0.21535306
3	0x3e607c78	0.21922481
4	0x3e70498c	0.23465556
5	0x3b5f6f74	0.003409353
6	0x3deb4c19	0.11489124
7	0x3de9fbe5	0.11424998
8	0xbe63b797	-0.22238003
9	0x3c1c4235	0.009537269
10	0x3e0daed4	0.13836223
11	0x3e44fef6	0.19237885
12	0x3e14f0f1	0.14545037
13	0xbd630d80	-0.055432796
14	0xbe58ad28	-0.21159804
15	0xbe43a62b	-0.19106357
16	0x3e337f05	0.17528923
17	0xbe091b9e	-0.13389441
18	0x3e0ca0bc	0.1373319
19	0x3dc33938	0.09532398
20	0xbde76d88	-0.11300188
21	0xbd5f58b3	-0.05452795
22	0x3cb31c1f	0.021863995
23	0x3bf62129	0.007511277
24	0x3d92ed72	0.07174195
25	0x3cc8d977	0.024517758
26	0xbe223f6c	-0.15844506
27	0xba7beb36	-0.00096099393
28	0xbd82a86d	-0.06379781
29	0xbd42acf8	-0.047528237
30	0x3e582d5b	0.21111052
31	0xbe1ae3cf	-0.15125965
32	0xbe4e9122	-0.20172551
33	0x3e2e7bf5	0.17039473
34	0x3e55d1a0	0.20880747
35	0x3e7d6673	0.24746113
36	0xbe34cc94	-0.17656165
37	0x3e4608eb	0.1933934
38	0x3df12799	0.11775131
39	0xbc7a4f89	-0.015277752
40	0x3e0130e4	0.12616307
41	0x3de5ca4c	0.11220226
42	0x3dab5bf3	0.08367147
43	0x3d92cf3a	0.071684316
44	0x3e24e8df	0.16104458
45	0x3d300bb4	0.04297991
46	0xbe45d4f5	-0.19319518
47	0xbe08f6fe	-0.1337547
48	0xbe8101f5	-0.25196806
49	0xbe2e496b	-0.17020194
50	0x3bfd9c3d	0.0077395723
51	0x3d24eba1	0.040263776
52	0x3d2056a1	0.039145116
53	0xbe247164	-0.1605888
54	0xbe75148b	-0.23933618
55	0xbd75f132	-0.060044475
56	0x3e6d551e	0.23177001
57	0xbdf27f1c	-0.118406504
58	0x3e0cab6f	0.13737272
59	0xbe851f75	-0.26000562
60	0x3e00239c	0.12513584
61	0x3e78ffd8	0.24316347
62	0xbd978667	-0.07398682
63	0xbe408641	-0.18801214
64	0xbd93022a	-0.07178147
65	0x3e42fc74	0.19041616
66	0xbe848d08	-0.25888848
67	0x3e51d700	0.20492172
68	0xbdcac511	-0.09900869
69	0xbdf1baed	-0.118032314
70	0x3d1e5e70	0.03866428
71	0xbd8ae160	-0.06781268
72	0x3d5f7e6b	0.05456392
73	0x3e2c1815	0.16806062
74	0xbd49c095	-0.049255926
75	0xbe5ae77a	-0.21377364
76	0xbe23bf77	-0.15991007
77	0xbdcebb9c	-0.100943774
78	0xbc7d475a	-0.015458906
79	0x3df07152	0.11740364
80	0x3dd7831f	0.10523056
81	0xbd309bdf	-0.0431174
82	0x3dcc1391	0.099646695
83	0xbde617d8	-0.112350166
84	0x3e5f9e93	0.21837835
85	0x3e7f3194	0.24921256
86	0x3e3d8aa7	0.18509923
87	0x3da7280c	0.08161935
88	0x3e8810a7	0.26575205
89	0xbdafec8d	-0.0859004
90	0x3e759297	0.23981701
91	0x3b8b46d5	0.004250387
92	0x3e0099f8	0.12558734
93	0x3cf7e976	0.03026269
94	0x3e249352	0.16071823
95	0xbe6ee98a	-0.23331276
96	0x3e05f247	0.13080703
97	0x3dd4197b	0.103564225
98	0x3c9dcdb0	0.019263119
99	0xbddd09d4	-0.1079289
100	0xbdfa2ed7	-0.12215965
101	0xbdd957f1	-0.106124766
102	0xbde117df	-0.10990881
103	0x3e357d02	0.17723468
104	0x3e84aa6c	0.25911272
105	0x3d3db044	0.046310678
106	0xbe3a58c0	-0.18197918
107	0xbe320611	-0.17385127
108	0x3e79fdaf	0.24413179
109	0xbd9308e5	-0.07179431
110	0x3d9594c4	0.073037654
111	0x3dd1fec9	0.102536745
112	0x3e0f5b95	0.1399978
113	0x3de870c1	0.11349631
114	0xbcd3dbda	-0.02586167
115	0x3d6d2574	0.057897046
116	0xbd4f691f	-0.05063736
117	0xbdb681bf	-0.08911466
118	0x3d9f04dd	0.077645995
119	0xbe0c0393	-0.13673238
120	0x3df4e08e	0.11956893
121	0x3dd94e80	0.10610676
122	0x3b8ed828	0.004359264
123	0x3e69ca81	0.22831155
124	0x3d92676b	0.07148632
125	0xbd00b92a	-0.031426586
126	0xbd8f0148	-0.06982666
127	0x3dd5022d	0.104008056
128	0xbe5f4e60	-0.21807241
129	0x3e20fed8	0.15722215
130	0x3e20165a	0.15633526
131	0x3e00fa7d	0.12595554
132	0xbe391ba4	-0.1807695
133	0x3d70fe7c	0.058836445
134	0xbd6cb875	-0.0577931
135	0x3e3e5e45	0.18590648
136	0x39aeee36	0.00033365347
137	0x3da65f6f	0.08123671
138	0xbd7fd86c	-0.062462255
139	0xbdb46b15	-0.08809487
140	0x3e4fc703	0.2029076
141	0x3e85632b	0.26052222
142	0xbdd82f91	-0.105559476
143	0xbdec61d3	-0.11542096
144	0xbdbcde6f	-0.09222113
145	0x3e535f78	0.20641887
146	0xbd82a6bd	-0.06379459
147	0x3e137404	0.14399725
148	0x3da57cd2	0.08080448
149	0x3d9faac0	0.0779624
150	0x3e8157b4	0.25262225
151	0xbe59ec56	-0.21281561
152	0x3da98130	0.08276594
153	0x3e6ee616	0.23329958
154	0x3e48e5d8	0.19618928
155	0x3d33158b	0.043721717
156	0x3e176e6f	0.14788221
157	0xbdc788ff	-0.09742927
158	0xbc155489	-0.009114393
159	0x3e03e7fd	0.12881465
160	0xbe5feb0b	-0.21867006
161	0x3d977276	0.073948786
162	0x3ca78e6b	0.020453652
163	0x3e12fcd8	0.14354265
164	0x3d2f2c0f	0.042766627
165	0xbde81cca	-0.11333616
166	0x3d16e52a	0.03683964
167	0x3d7921d3	0.060823273
168	0x3e4d73de	0.20063731
169	0xbd3b3aba	-0.045710303
170	0x3e4a6c42	0.1976786
171	0x3c6eb278	0.014568917
172	0x3e721db4	0.23644143
173	0xbe09b5b9	-0.13448228
174	0xbe1cce86	-0.15313157
175	0x3e553f67	0.20824967
176	0xbe76af65	-0.24090345
177	0xbe1270d0	-0.14300847
178	0x3e823bdd	0.25436297
179	0xbcd0c00c	-0.0254822
180	0xbe48f445	-0.19624431
181	0xbe5f5abc	-0.21811956
182	0xbe6cc683	-0.23122601
183	0x3c498694	0.012300152
184	0xbe09b099	-0.13446273
185	0xbce2cc27	-0.027685238
186	0x3caaceba	0.020850528
187	0x3e668ee5	0.22515447
188	0xbe075367	-0.13215409
189	0x3dc6a022	0.09698512
190	0x3ccdfffb	0.025146475
191	0x3dc74ee9	0.09731848
192	0x3cdd2f82	0.027000193
193	0x3b7bd986	0.0038429215
194	0x3d13e3f4	0.036106065
195	0xbe7d78f9	-0.24753179
196	0x3cdbce83	0.02683187
197	0xbe208fcb	-0.15679853
198	0x3dc75a9b	0.097340785
199	0xbe37a3fa	-0.17933646
200	0x3d882c0b	0.066490255
201	0xbde153ea	-0.110023335
202	0xbe146c61	-0.14494468
203	0x3e347e79	0.1762637
204	0xbcb87ef4	-0.022521473
205	0xbd8fb13a	-0.07016225
206	0x3d2b5cfd	0.041836727
207	0x3d0c95f3	0.03432269
208	0xbe47d579	-0.19515027
209	0x3cf72b45	0.030172
210	0xbe1a4faf	-0.1506946
211	0xbe88c464	-0.26712334
212	0xbd51e24b	-0.0512412
213	0xbd592359	-0.053012226
214	0x3c8e420e	0.017365482
215	0x3e015e55	0.12633641
216	0x3e6f3ae5	0.2336231
217	0x3e4efd06	0.20213708
218	0x3e221519	0.1582836
219	0xbe65e004	-0.22448736
220	0x3e84e7c3	0.2595807
221	0xbe2f1b0b	-0.1710016
222	0x3dd530b3	0.10409679
223	0xbe85315a	-0.26014215
224	0x3d0b40b9	0.03399727
225	0xbde31d55	-0.11089579
226	0x3e6783f8	0.22608936
227	0xbe493d7f	-0.19652365
228	0xbc856f7a	-0.016288508
229	0x3e1c5209	0.15265669
230	0x3c0c3a72	0.008558856
231	0xbe2ddfe6	-0.16979942
232	0x37a873dc	2.0081112e-05
233	0xbe4bb0ba	-0.19891635
234	0xbe1c5b31	-0.15269162
235	0xbd8bece8	-0.06832296
236	0xbe4e34ea	-0.20137373
237	0xbe0e5856	-0.13900885
238	0x3d1388e6	0.03601923
239	0x3dc88e40	0.09792757
240	0x3e838413	0.25686702
241	0x3d5cf21f	0.053941842
242	0xbdfc59b7	-0.12321799
243	0xbe7be644	-0.24599558
244	0xbd9b10bd	-0.07571552
245	0x3e2aa0db	0.16662924
246	0xbce78d3b	-0.028265586
247	0x3d7bdfad	0.06149261
248	0xbd876abe	-0.06612156
249	0xbe533540	-0.20625782
250	0xbe88eba6	-0.26742285
251	0x3cf6a1b1	0.030106397
252	0xbe11afb4	-0.14227182
253	0xbdc5ba8b	-0.09654721
254	0x3e6afaee	0.22947285
255	0x3d27b556	0.04094442

ConvBase.1.feature.lis.2.pointwise.bias f4 [16]
0	0x3d4144c1	0.04718471
1	0xbe86a68a	-0.26298934
2	0xbd792c67	-0.06083336
3	0x3d1a38d6	0.03765186
4	0x3c52ef27	0.012874401
5	0xbde62a95	-0.11238591
6	0xbe2e1043	-0.16998391
7	0x3e32f7a7	0.17477284
8	0x3e3e46be	0.18581674
9	0x3c7b0095	0.015319963
10	0xbbf052bd	-0.007334082
11	0xbceb141f	-0.028696118
12	0xbdf3b009	-0.118988104
13	0x3de7d198	0.11319274
14	0xbe47db12	-0.19517162
15	0xbd3dc4b6	-0.046330176

ConvBase.1.feature.lis.3.X_conv.conv.weight f4 [16, 1, 9, 1]
0	0xbd92929e	-0.07156871
1	0x3d48b0b7	0.048996653
2	0x3ea4d658	0.3219478
3	0xbd8d2071	-0.06890953
4	0xbe557243	-0.20844369
5	0x3e755df2	0.23961619
6	0xbda1103d	-0.07864425
7	0xbe458984	-0.1929074
8	0x3e6e6a22	0.23282674
9	0x3e1a0b80	0.1504345
10	0x3e86ef8b	0.26354632
11	0xbe6a4b1f	-0.22880219
12	0x3d8d87b2	0.069106475
13	0xbe18979e	-0.14901587
14	0x3dd4e3a8	0.103949845
15	0xbe9abec0	-0.30223656
16	0xbdfc6b94	-0.123252064
17	0xbd26af63	-0.040694606
18	0x3e872071	0.26391938
19	0x3e87b352	0.26503998
20	0x3e986609	0.29765347
21	0x3bc44546	0.0059897033
22	0x3d9162a8	0.07098895
23	0x3e7d6a60	0.2474761
24	0x3ea04234	0.3130051
25	0x3e2b866b	0.16750495
26	0xbe684cf7	-0.2268561
27	0xbe51b5b4	-0.2047947
28	0xbd840492	-0.06446184
29	0xbea54046	-0.322756
30	0x3e0271d1	0.1273873
31	0x3e977aec	0.2958597
32	0x3d618b3e	0.055064432
33	0xbe135c12	-0.14390591
34	0x3ea8af8f	0.3294644
35	0x3d2fb99a	0.042901613
36	0x3deffefc	0.11718556
37	0xbe1a89a1	-0.15091564
38	0x3ead387b	0.33832154
39	0xbe044bca	-0.12919536
40	0x3ea08ece	0.3135895
41	0x3e883db4	0.26609576
42	0xbdcc2d88	-0.09969622
43	0x3dfb0ae0	0.122579336
44	0xbe28d934	-0.16489106
45	0x3e8314fc	0.25601947
46	0x3e8a2220	0.2697916
47	0x3e99beb9	0.30028322
48	0xbe014807	-0.12625133
49	0x3e188436	0.14894184
50	0x3d1be755	0.038062412
51	0xbe20792b	-0.15671222
52	0xbe9f592a	-0.31122714
53	0x3e77fab0	0.24216723
54	0xbe08089a	-0.13284531
55	0x3e535b4e	0.20640299
56	0x3e46b314	0.1940425
57	0xbe0a48aa	-0.13504282
58	0xbe44b4f7	-0.19209658
59	0x3e4f7ce9	0.20262493
60	0x3e8b3796	0.27190846
61	0x3e9f0082	0.31055075
62	0xbe1127c8	-0.14175332
63	0xbe46cb6e	-0.1941354
64	0x3ea5b73f	0.32366368
65	0x3e426a3d	0.18985839
66	0x3e3fc680	0.18728065
67	0x3e835217	0.25648567
68	0x3e21e778	0.15810955
69	0x3dece2f1	0.11566723
70	0xbeb5a4f0	-0.354774
71	0x3e54eaa0	0.20792627
72	0xbe081859	-0.13290538
73	0x3dbabbdb	0.09117862
74	0xbd234567	-0.03986111
75	0xbe16aa10	-0.14713311
76	0x3e7f3ea1	0.24926235
77	0xbe8c2baf	-0.27377078
78	0xbcfc7913	-0.030819451
79	0xbe0546ac	-0.1301524
80	0xbe395d3a	-0.1810197
81	0xbe8c292f	-0.2737517
82	0xbe8a0e8a	-0.26964217
83	0xbe7d3157	-0.24725853
84	0xbd22f9dd	-0.03978907
85	0x3e5b35ad	0.21407194
86	0x3cbfc36a	0.02340861
87	0xbe5de79b	-0.21670382
88	0xbe9f2d39	-0.3108919
89	0x3e314db1	0.17314793
90	0x3d9f8707	0.07789426
91	0xbe0afc85	-0.13572891
92	0x3e89e286	0.26930636
93	0x3e8136f3	0.25237235
94	0xbe9cf56d	-0.30655995
95	0xbda8f8df	-0.082505934
96	0xbe21c40f	-0.15797447
97	0x3d922bfc	0.071372956
98	0x3ea36944	0.3191625
99	0x3e3d05ea	0.18459287
100	0x3e2daa3e	0.16959473
101	0xbe3ba528	-0.18324721
102	0xbd461191	-0.048356596
103	0x3e8ba0cb	0.27271113
104	0xbebcbb6e	-0.36861748
105	0xbe7ee3cc	-0.24891585
106	0xbe36a4da	-0.17836323
107	0x3ca15ebc	0.019698493
108	0xbe277d21	-0.16356327
109	0xbdd875c4	-0.10569337
110	0x3d4a9913	0.04946239
111	0xbd889279	-0.066685624
112	0xbe2d7fbe	-0.16943261
113	0xbe7a4f90	-0.24444413
114	0x3d2fe8ce	0.04294663
115	0xbe6a1732	-0.22860411
116	0x3e35bd26	0.17747936
117	0x3e9e72d6	0.30946988
118	0xbe67c5ef	-0.226341
119	0xbe2e7d5e	-0.17040011
120	0x3ca2702f	0.019828884
121	0xbdb1cd6e	-0.08681761
122	0xbdf64ae0	-0.12026
123	0x3d88577f	0.066573136
124	0x3e4c21bc	0.19934744
125	0x3e04683c	0.12930387
126	0x3c8bf3f2	0.017084096
127	0xbe731ca1	-0.2374139
128	0xbe8d85f0	-0.2764125
129	0xbd3e76b6	-0.04649993
130	0x3d92958d	0.07157431
131	0x3cfef7a4	0.031123944
132	0x3e94cb0d	0.29061165
133	0xbeab5fd9	-0.33471563
134	0xbe838326	-0.25685996
135	0x3e82be3a	0.25535756
136	0xbe740d56	-0.23833212
137	0x3cb885bb	0.022524705
138	0x3dca021a	0.09863682
139	0xbe514bb8	-0.2043904
140	0xbc1206d9	-0.008912765
141	0x3e89fce1	0.26950744
142	0xbe340716	-0.17580828
143	0x3e8845f1	0.2661586

ConvBase.1.feature.lis.3.X_conv.conv.bias f4 [16]
0	0xbd9ec977	-0.0775327
1	0xbe7e3145	-0.24823482
2	0x3e53dd43	0.20689873
3	0x3d98403f	0.07434129
4	0x3dd4d3de	0.10391973
5	0x3daf9b1d	0.085745074
6	0xbe91821d	-0.2841958
7	0x3e6580f5	0.22412474
8	0x3e6d8190	0.23193955
9	0x3e1768f6	0.14786133
10	0x3e88e5a5	0.26737705
11	0x3e23cf6d	0.15997095
12	0x3e967b41	0.2939091
13	0x3db418ca	0.08793791
14	0xbd5b82c3	-0.0535915
15	0xbc8a83e8	-0.0169086

ConvBase.1.feature.lis.3.Y_conv.conv.weight f4 [16, 1, 1, 9]
0	0xbead202f	-0.33813617
1	0xbd89cfd9	-0.06729097
2	0xbca5f237	-0.020257099
3	0xbea9d46c	-0.33169878
4	0xbd1efe03	-0.038816463
5	0x3e986e79	0.29771784
6	0x3e3dbfa8	0.18530142
7	0xbe177dc4	-0.1479407
8	0xbe115378	-0.14191997
9	0x3ddb5b85	0.10710815
10	0xbdbe30f6	-0.09286682
11	0xbe03faed	-0.1288869
12	0x3cb79b67	0.022412969
13	0xbe3c5f0c	-0.18395633
14	0xbe2d1bc5	-0.16905124
15	0x3e807ed1	0.25096753
16	0x3ca3ebba	0.020009864
17	0xbe504474	-0.20338613
18	0xbd7a61eb	-0.061128538
19	0x3e433514	0.19063216
20	0x3ea46d2a	0.32114536
21	0xbe82fd57	-0.25583908
22	0x3e01a48a	0.12660423
23	0x3e160794	0.14651328
24	0xbe2c7902	-0.16843036
25	0x3dd20b12	0.10256018
26	0x3e587c06	0.21141061
27	0x3e8506ab	0.2598165
28	0x3d3186f1	0.04334158
29	0xbe10937e	-0.14118764
30	0xbe0f346f	-0.13984846
31	0x3e43c083	0.19116406
32	0xbe81fcf9	-0.25388315
33	0x3e7f75a0	0.24947214
34	0xbeac64cb	-0.3367065
35	0x3d783896	0.06060084
36	0x3e3cf926	0.18454418
37	0xbe431317	-0.19050251
38	0xbe063b9c	-0.13108677
39	0x3d160c80	0.036633015
40	0xbe02d72a	-0.12777391
41	0xbcc658ec	-0.024212323
42	0xbd3119a4	-0.043237343
43	0xbcae2ed5	-0.021262566
44	0xbdaa81ca	-0.083255365
45	0x3e80ee51	0.2518182
46	0xbdddb5a1	-0.108256586
47	0x3be680aa	0.007034381
48	0x3e3200e2	0.1738315
49	0x3d10eec5	0.03538396
50	0xbd1c9eee	-0.038237505
51	0x3e8c0780	0.27349472
52	0x3e758395	0.23975976
53	0xbe9eb1e4	-0.30995095
54	0xbe861b37	-0.26192638
55	0x3e14cc36	0.14531025
56	0x3da508fb	0.080583535
57	0xbda6b6eb	-0.081403576
58	0x3e8c0eef	0.27355143
59	0x3e02c9a7	0.12772237
60	0xbe991d71	-0.29905275
61	0x3e307468	0.17231905
62	0xbe507948	-0.20358765
63	0xbe397503	-0.18111043
64	0x3e3a6dc0	0.18205929
65	0xbe7ce3b7	-0.24696241
66	0x3e369e4c	0.17833823
67	0x3e988183	0.2978631
68	0xbe922e53	-0.28550968
69	0xbe220b0c	-0.15824527
70	0x3ea7ba67	0.327594
71	0xbe64d989	-0.22348608
72	0x3e881ee3	0.26586065
73	0xbe1cea29	-0.153237
74	0x3e3f96df	0.18709897
75	0xbd8198a7	-0.06327944
76	0xbe641208	-0.22272503
77	0x3c9b1797	0.018932147
78	0x3df5880e	0.11988841
79	0x3c8d574f	0.017253546
80	0xbea60a38	-0.3242967
81	0x3e0727da	0.13198796
82	0x3e2a4315	0.16627152
83	0xbd85c1cf	-0.06531107
84	0xbe0f572c	-0.13998097
85	0x3e310994	0.1728881
86	0xbe345118	-0.1760906
87	0x3e1de2d2	0.15418556
88	0xbe1c8463	-0.15284877
89	0x3d8c7cb8	0.06859726
90	0x3b2cccee	0.0026367265
91	0x3e14c564	0.14528424
92	0xbc93d3ac	-0.018045269
93	0x3e8e2dbb	0.27769265
94	0x3e3e4c35	0.18583758
95	0x3dfdc179	0.123904176
96	0xbe0ef7f0	-0.13961768
97	0x3d9bea51	0.07613052
98	0x3eac2b6b	0.33626875
99	0x3e21d9a8	0.15805686
100	0xbdb3c62d	-0.087780334
101	0xbe0509ad	-0.12991972
102	0xbc828901	-0.01593447
103	0x3e5bcd1d	0.21464963
104	0x3e3e2dc8	0.18572152
105	0xbe9bf39e	-0.30459303
106	0x3e9cfed9	0.30663183
107	0x3ce4db58	0.027936623
108	0xbd49c3ba	-0.049258925
109	0x3e97907e	0.29602426
110	0x3e406303	0.1878777
111	0xbdb02eb2	-0.086026564
112	0x3e1b41aa	0.15161768
113	0x3e843217	0.25819466
114	0xbe1824f2	-0.14857844
115	0xbd8e2f99	-0.06942672
116	0x3d14a99a	0.036294557
117	0x3e854fc5	0.26037422
118	0x3dc24b32	0.094869986
119	0x3e4905d6	0.19631132
120	0xbd777795	-0.060416777
121	0x3e08655a	0.13319913
122	0x3cc2a3fe	0.023759838
123	0xbd512b8d	-0.051066924
124	0x3dfad0f4	0.12246886
125	0x3dfe9ef8	0.12432665
126	0xbe097cee	-0.13426563
127	0xbdfc52af	-0.12320458
128	0xba48b627	-0.00076565373
129	0xbe703b57	-0.23460136
130	0x3e655101	0.22394182
131	0x3e611367	0.21980058
132	0x3e80a8a6	0.2512867
133	0xbd3ddabd	-0.046351183
134	0x3d9d23c4	0.076728374
135	0x3e4d8058	0.2006849
136	0xbdf49ef3	-0.1194438
137	0xbe1d72af	-0.1537578
138	0x3e2d7f0f	0.16943
139	0x3e9a8c6d	0.3018526
140	0xbe46b0fa	-0.19403449
141	0xbe6237c3	-0.22091584
142	0xbd509c98	-0.05093059
143	0xbe5f88ec	-0.21829575

ConvBase.1.feature.lis.3.Y_conv.conv.bias f4 [16]
0	0x3db6adb7	0.08919852
1	0xbe2591d9	-0.16168918
2	0x3e1b2d66	0.15154037
3	0xbdd11acb	-0.102101885
4	0xbe8dbe5f	-0.27684304
5	0xbe0183fa	-0.12648001
6	0x3d823400	0.063575745
7	0xbe6644bb	-0.22487156
8	0x3dffe992	0.12495722
9	0xbddb9a0c	-0.107227415
10	0x3d7583e9	0.059940252
11	0x3e1c96df	0.15291928
12	0x3de81a91	0.11333192
13	0xbddcd67a	-0.10783096
14	0x3e1789d5	0.14798672
15	0x3b7d0a64	0.003861093

ConvBase.1.feature.lis.3.pointwise.weight f4 [16, 16, 1, 1]
0	0x3dcd850b	0.100351416
1	0xbb698a7e	-0.0035635526
2	0x3d4477e9	0.047965918
3	0xbd85924c	-0.065220445
4	0x3d4597b2	0.04824037
5	0xbb9e3b67	-0.0048288587
6	0xbd8d0d6e	-0.06887327
7	0x3da69c95	0.081353344
8	0x3dccc590	0.099986196
9	0x3d0c2652	0.034216233
10	0x3dc05e6d	0.0939301
11	0x3cd1b749	0.025600092
12	0xbe483fde	-0.19555613
13	0xbe039bb0	-0.12852359
14	0xbd0c5a08	-0.034265548
15	0x3dd23a06	0.10264973
16	0x3e83a817	0.2571418
17	0xbd981133	-0.074251555
18	0xbd9ec2d9	-0.07752008
19	0x3e0425c3	0.1290503
20	0x3dbb5781	0.091475494
21	0x3d81431e	0.0631163
22	0x3e7153d5	0.23567136
23	0x3e1b9482	0.1519337
24	0xbe27b814	-0.16378814
25	0xbdcf2945	-0.101152934
26	0x3d8329aa	0.06404431
27	0x3e8afcf1	0.27146104
28	0x3c1a5560	0.009419769
29	0x3e4e31f1	0.20136239
30	0x3d9bf98e	0.07615958
31	0xbda09044	-0.078400165
32	0x3dcd40c8	0.10022122
33	0xbda16f50	-0.07882559
34	0xbe7c4c68	-0.24638522
35	0x3decf5a9	0.115702935
36	0xbe43b0fc	-0.19110483
37	0x3dc9b66c	0.09849247
38	0xbe2f22be	-0.17103097
39	0x3e455f16	0.19274554
40	0xbdaa77e6	-0.0832365
41	0xbc1d9ef8	-0.009620421
42	0xbd287a9e	-0.04113256
43	0xbe8064c8	-0.2507689
44	0x3d0162c1	0.03158832
45	0x3cae8655	0.021304289
46	0xbe2c3e6d	-0.16820689
47	0xbe343673	-0.17598896
48	0x3dc73dfb	0.09728619
49	0xbdd7fb64	-0.10545996
50	0xbe3b12d6	-0.18268904
51	0xbdce4cc3	-0.10073235
52	0xbe0ba524	-0.13637215
53	0x3d1594a3	0.036518704
54	0xbe1d68be	-0.15371987
55	0xbe4a0f08	-0.19732296
56	0x3dbd52eb	0.09244331
57	0xbc566780	-0.0130862
58	0x3e21506f	0.15753339
59	0x3e3cb7d9	0.18429507
60	0x3bdd1f40	0.00674811
61	0xbe1cff46	-0.15331754
62	0x3d63fff6	0.055664025
63	0x3e02a7f9	0.12759389
64	0xbe3076e7	-0.17232858
65	0x3e3c27e8	0.18374598
66	0x3d7b2435	0.061313827
67	0x3c6f75fa	0.01461553
68	0xbd1f790f	-0.03893381
69	0xbde4ff36	-0.1118149
70	0x3e3ad6fb	0.18246071
71	0x3e5f6295	0.2181495
72	0xbc8aa56a	-0.016924579
73	0xbd52cd7f	-0.051465508
74	0x3e10606b	0.1409928
75	0x3db84d3b	0.089991055
76	0x3dd5edf8	0.104457796
77	0xbdb49c2f	-0.08818852
78	0xbe386bf4	-0.18009931
79	0xbe69e5d4	-0.22841579
80	0xbe6e92eb	-0.23298232
81	0x3c682441	0.0141688
82	0xbe2701a1	-0.16309215
83	0xbdbdfa4f	-0.09276258
84	0x3e4c6069	0.19958653
85	0xbd0eac5e	-0.03483235
86	0xbe652806	-0.22378549
87	0xbc8e374c	-0.017360352
88	0xbd9e24cc	-0.07721862
89	0x3c4f7c1e	0.012663869
90	0xbdc076a1	-0.09397627
91	0xbdc98dce	-0.098415
92	0xbe381600	-0.17977142
93	0xbe6e59ba	-0.23276415
94	0xbde67bfa	-0.112541154
95	0xbd137bfa	-0.036006905
96	0xbcc86b9c	-0.024465375
97	0xbde1ae33	-0.11019554
98	0x3e2a065a	0.16603985
99	0xbd95b25b	-0.07309409
100	0x3e1d713d	0.15375228
101	0x3e3d2ac1	0.1847334
102	0x3e37788e	0.17917082
103	0xbe428696	-0.18996653
104	0xbe6ab802	-0.22921756
105	0xbccfe8b9	-0.025379525
106	0x3e11262e	0.1417472
107	0xbd4f4c8a	-0.050610103
108	0x3e7d5ba5	0.24741991
109	0xbe371b8a	-0.17881599
110	0x3e4f0c2b	0.20219485
111	0xbc29edc1	-0.010371626
112	0x3e2cacf1	0.16862847
113	0xbe5bd52f	-0.21468042
114	0x3bc87d91	0.0061184843
115	0xbdddb0fa	-0.10824771
116	0xbce15e73	-0.027510857
117	0xbdfca70a	-0.12336548
118	0x3de8534c	0.113440126
119	0xbe25d420	-0.161942
120	0xbe28cdde	-0.16484782
121	0x3bb96f03	0.0056589856
122	0xbe2f8957	-0.17142235
123	0x3de81227	0.11331587
124	0xbd94ace1	-0.072595365
125	0xbdd23182	-0.10263349
126	0x3e250c2e	0.16117927
127	0x3e242396	0.160292
128	0xbe278fef	-0.163635
129	0xbcd9a3bc	-0.026567332
130	0x3e82e380	0.25564194
131	0x3cdeb45a	0.027185608
132	0xbe109a66	-0.14121398
133	0xbdd0e8ac	-0.10200629
134	0xbd1ed4cb	-0.038777154
135	0x3e21f64a	0.15816608
136	0xbe7659b9	-0.24057664
137	0x3d85e4a2	0.06537749
138	0xbca8005b	-0.020507982
139	0xbe7d93d4	-0.24763423
140	0x3ca7422e	0.0204173
141	0x3e3d90e6	0.18512306
142	0x3dbf98e2	0.09355332
143	0xbdcc7041	-0.09982348
144	0x3d31228c	0.043245837
145	0xbdeb3fa9	-0.114867516
146	0xbc4ac383	-0.012375715
147	0xbcad4066	-0.021148872
148	0x3e85faf4	0.26168025
149	0xbe24e136	-0.16101536
150	0xbe0b5190	-0.13605332
151	0x3cf9b235	0.030480484
152	0x3ba98541	0.005173356
153	0xbcf0cf9e	-0.029395875
154	0x3e4d529b	0.20051043
155	0x3e4b4b49	0.19852938
156	0x3c3226f7	0.010873548
157	0xbe825937	-0.2545869
158	0x3e6694b1	0.22517659
159	0x3df626c6	0.12019114
160	0x3e02b653	0.12764864
161	0xbd7c51be	-0.061601393
162	0x3e14f4c7	0.145465
163	0x3dccc267	0.09998017
164	0x3d1723cf	0.036899384
165	0x3d45fa2d	0.04833429
166	0x3e3524e5	0.17689855
167	0xbe3277d4	-0.17428523
168	0xbdcd31ab	-0.10019239
169	0x3d3a35db	0.045461517
170	0x3e4c055a	0.19923916
171	0x3d6f5031	0.058426086
172	0xbd9e3e87	-0.0772677
173	0x3cd70199	0.026245879
174	0xbcd55d18	-0.026045367
175	0x3e24d68c	0.16097468
176	0x3e1d2313	0.15345411
177	0x3d8470ff	0.06466865
178	0x3d4ec2ad	0.050478626
179	0xbd194cbc	-0.037426695
180	0xbd750864	-0.059822455
181	0x3e248f9d	0.16070409
182	0xbe23fc20	-0.16014147
183	0xbe76d5be	-0.24104974
184	0x3e310457	0.17286812
185	0xbe0c265f	-0.13686512
186	0x3e7c34a4	0.24629456
187	0xbdaa6718	-0.08320445
188	0xbc8194f9	-0.015818106
189	0x3e5e5f8a	0.21716133
190	0x3e2e1ae5	0.17002447
191	0x3e43f5d5	0.19136746
192	0xbe79070a	-0.24319091
193	0x3d4d18b3	0.050072383
194	0xbe5d5006	-0.21612558
195	0x3d85d6f9	0.065351434
196	0x3dbbc4a0	0.091683626
197	0x3e557ee1	0.20849182
198	0xbe4928d1	-0.19644476
199	0x3e26a1a8	0.16272604
200	0x3e468844	0.19387919
201	0x3badfb03	0.005309464
202	0xbd1766a8	-0.036963135
203	0x3e4b9baf	0.19883607
204	0xbd000c76	-0.031261884
205	0xbe6bff9f	-0.2304673
206	0x3e40d37e	0.18830678
207	0x3ce9756f	0.02849838
208	0x3d94df0f	0.072691076
209	0x3df76a71	0.12080849
210	0x3e0d136a	0.13776937
211	0x3dd514cf	0.104043595
212	0x3e2c9762	0.16854623
213	0xbe16b2bb	-0.14716618
214	0xbdbaeb12	-0.09126867
215	0xbdbf5984	-0.093432456
216	0x3dea6a16	0.114460155
217	0xbe340976	-0.17581734
218	0x3db9688e	0.09053145
219	0xbe344484	-0.17604262
220	0xbd90956d	-0.07059751
221	0xbba3ae58	-0.0049951486
222	0xbd137320	-0.035998464
223	0xbde49820	-0.11161828
224	0x3dc8f8b4	0.09813061
225	0x3cb9b441	0.02266896
226	0x3e65cc92	0.22441319
227	0x3e4694e1	0.1939273
228	0x3e30578c	0.17220896
229	0xbe5d67a9	-0.21621574
230	0x3db38748	0.08766037
231	0x3e459335	0.19294436
232	0xbaf4113b	-0.0018620858
233	0xbe46c8a0	-0.1941247
234	0x3e7ac0bd	0.24487586
235	0x3c89c622	0.01681811
236	0xbe016371	-0.1263559
237	0x3d1c7f27	0.0382072
238	0x3e798973	0.24368839
239	0x3e0b9dd2	0.13634422
240	0xbc6dba62	-0.014509769
241	0x3e07108c	0.13189906
242	0x3e0e2af7	0.13883577
243	0x3d4a68e0	0.049416423
244	0xbe62edd9	-0.22161044
245	0xbe53e6d1	-0.20693518
246	0xbe237fce	-0.15966722
247	0xbe48e3af	-0.19618104
248	0x3c3a542a	0.011372605
249	0xbd26f1dd	-0.040758003
250	0x3e10839b	0.14112704
251	0x3b0aa5b5	0.0021155898
252	0xbe019ac7	-0.12656699
253	0xbe553392	-0.20820454
254	0x3cde949e	0.027170476
255	0x3e4b4a36	0.19852528

ConvBase.1.feature.lis.3.pointwise.bias f4 [16]
0	0x3e835f76	0.25658768
1	0x3de5cfc3	0.11221268
2	0xbdf486bf	-0.11939763
3	0xbe4170b6	-0.18890652
4	0xbc04d228	-0.008106746
5	0x3e3836ba	0.17989627
6	0x3e254740	0.16140461
7	0x3e5e31c4	0.21698672
8	0xbe214aa6	-0.15751132
9	0xbdd1c58c	-0.10242757
10	0xbc152dfb	-0.009105201
11	0x3d249de1	0.040189628
12	0xbde46275	-0.11151592
13	0xbd1dee97	-0.038557615
14	0x3daa774d	0.08323536
15	0x3e52e98a	0.205969

ConvBase.1.feature.bn.weight f4 [16]
0	0x3f7b1b40	0.98088455
1	0x3f5ff8e2	0.8748914
2	0x3ef6f864	0.48236382
3	0x3e087859	0.13327159
4	0x3f2b952d	0.670245
5	0x3f1a4fa6	0.60277784
6	0x3f644912	0.89173996
7	0x3f035d66	0.5131439
8	0x3f72b673	0.94809645
9	0x3f25bb3b	0.64738816
10	0x3e7b5772	0.24545076
11	0x3f078c26	0.52948225
12	0x3f4ea434	0.80719304
13	0x3e0e446e	0.13893291
14	0x3e5c097d	0.21487994
15	0x3e95990c	0.29218328

ConvBase.1.feature.bn.bias f4 [16]
0	0xbbcb1030	-0.006196998
1	0x3c6a5bc5	0.014304106
2	0xbc2804d1	-0.010255055
3	0x3d1e039f	0.038577672
4	0xba50a5cf	-0.0007959278
5	0xbc82e4de	-0.015978273
6	0x3c35068a	0.011048922
7	0x3cf73eb0	0.030181259
8	0xbccafc71	-0.024778577
9	0x3cbfe6b2	0.023425434
10	0x3cb8024d	0.022462035
11	0x3c82e8c4	0.015980132
12	0x3d18f9ff	0.03734779
13	0x3cd33068	0.025779918
14	0x3d3f547b	0.046711426
15	0x3ace5902	0.0015743079

ConvBase.1.feature.bn.running_mean f4 [16]
0	0x3e75284f	0.23941158
1	0xbe0b2349	-0.13587679
2	0x3cac732e	0.021051016
3	0xbec28232	-0.37989956
4	0xba836dc5	-0.0010027221
5	0xbea1d1f9	-0.3160551
6	0xbe04b5f5	-0.12960036
7	0x3ec14c20	0.3775339
8	0xbeaa688a	-0.33282882
9	0x3dca29cf	0.098712556
10	0xbdbd89ad	-0.09254775
11	0xbcd31096	-0.025764745
12	0xbd6a03b8	-0.057132453
13	0x3d369f85	0.044585723
14	0x3b56cca7	0.003277579
15	0x3d10d91f	0.035363313

ConvBase.1.feature.bn.running_var f4 [16]
0	0x3b11435d	0.0022165396
1	0x3af66d56	0.0018800895
2	0x3b5190cf	0.0031977182
3	0x3b3b4239	0.0028573407
4	0x3b049041	0.0020227584
5	0x3b8cb77b	0.0042943335
6	0x3b70ed3d	0.0036762499
7	0x3a71db1e	0.00092260714
8	0x3b640bc2	0.0034797047
9	0x3b16d90c	0.0023017554
10	0x3ae9f3f4	0.0017849193
11	0x3b3f4112	0.0029183072
12	0x3b216095	0.0024624218
13	0x3ade1850	0.0016944502
14	0x3b31f3eb	0.0027153443
15	0x3b1c3557	0.0023835504

ConvBase.1.bn.weight f4 [64]
0	0x3edffdca	0.43748313
1	0x3dcfef70	0.10153091
2	0x3df4b39a	0.11948319
3	0x3d9b9453	0.0759665
4	0x3ebdad7b	0.37046418
5	0x3f4216e8	0.758162
6	0x3f6614a9	0.89875275
7	0xbbbcdc2c	-0.005763551
8	0x3f3091f5	0.6897271
9	0x3f647cc5	0.89252883
10	0x3e8448c9	0.2583678
11	0x3f0e8449	0.556706
12	0x3d41a2a3	0.047274243
13	0x3e026c45	0.12736614
14	0x3f4806e3	0.7813551
15	0x3f42b97e	0.7606429
16	0x3f477378	0.77910566
17	0x3f4eff7c	0.8085859
18	0x3f4b1bd6	0.7933935
19	0x3ed09f1f	0.407464
20	0x3eb5003b	0.35351738
21	0x3f556960	0.83363914
22	0x3f194efb	0.5988614
23	0x3e89d2be	0.26918596
24	0x3f5afb24	0.8553946
25	0x3f1efc24	0.62103486
26	0x3efb8e51	0.49132016
27	0x3f14126f	0.5784063
28	0x3f4f732b	0.8103511
29	0x3ec2ee2f	0.38072345
30	0x3e98b4cd	0.2982544
31	0x3f6eb1ad	0.9323986
32	0x3f312e73	0.692115
33	0x3ec8feb1	0.39256814
34	0x3e05a5a9	0.13051476
35	0x3f70cc72	0.9406196
36	0x3e92a3aa	0.2864049
37	0x3f514649	0.8174787
38	0x3e97b144	0.2962743
39	0x3eec1d68	0.46116185
40	0x3eb6179d	0.3556489
41	0x3f3b2d8c	0.73116374
42	0x3e9f92b1	0.31166604
43	0x3e04a2c6	0.12952718
44	0x3d978668	0.07398683
45	0x3ee6ec77	0.45102283
46	0x3e3ea721	0.18618442
47	0x3f4d34a2	0.80158436
48	0x3f408e4c	0.7521713
49	0x3efbe50b	0.49198183
50	0x3e8c5c88	0.27414346
51	0x3f2dcf57	0.678945
52	0x3ea470bf	0.32117268
53	0x3f7c84e8	0.986403
54	0xbb811e67	-0.003940392
55	0x3f6e2428	0.9302392
56	0x3f709c1f	0.9398822
57	0x3e63db26	0.22251567
58	0x3e99c21b	0.30030903
59	0x3f2ab639	0.666843
60	0x3eec8bc1	0.46200374
61	0x3e158902	0.14603046
62	0x3f5bde79	0.8588634
63	0x3f363669	0.71176773

ConvBase.1.bn.bias f4 [64]
0	0x3cbf7dda	0.02337544
1	0x3c62192f	0.01379995
2	0x3c47e87d	0.012201426
3	0x3c42c267	0.011887169
4	0xbcf5ed7d	-0.03002047
5	0xbcdc9d84	-0.026930578
6	0x3d27cca9	0.040966664
7	0xbc53d53e	-0.012929259
8	0x3c9c817c	0.019104712
9	0x3b7df35a	0.0038749785
10	0xbace919c	-0.0015759948
11	0xbc8ea5ac	-0.017412983
12	0xbba4db05	-0.005030992
13	0x3bc61859	0.006045383
14	0xbd31f8cf	-0.043450173
15	0x3d28cd18	0.041211218
16	0xbba31295	-0.0049765804
17	0xbcbdf810	-0.023189574
18	0xbc760dbf	-0.015017926
19	0xbd1d0f69	-0.038344774
20	0x3ca9d486	0.020731222
21	0xbc38f5c1	-0.011289061
22	0x3c9ca8fb	0.019123545
23	0xbae26a18	-0.001727405
24	0xbcd5b5ca	-0.02608766
25	0x3c4b7876	0.012418857
26	0xbce2a36e	-0.02766582
27	0x3cbc1791	0.022960456
28	0x3b14663d	0.0022643947
29	0xbace4a91	-0.0015738775
30	0x3c308543	0.01077396
31	0xbbba20c1	-0.005680174
32	0xbc1f7575	-0.009732594
33	0xbcd490d7	-0.025947971
34	0xbced5b2b	-0.028974136
35	0x3d3d951a	0.046284772
36	0xbb935d26	-0.004497188
37	0x3c4bc221	0.012436421
38	0x39a440c4	0.00031328772
39	0xbb7cefcd	-0.003859508
40	0x3ca2f35a	0.01989143
41	0xbd41f01e	-0.047348134
42	0x3cc15ebe	0.023604747
43	0xbc1613be	-0.00915998
44	0x3d0281eb	0.03186218
45	0x3cc7a1bb	0.024369111
46	0xbbaf74e8	-0.0053545125
47	0x3cf5aac6	0.029988658
48	0xbc02b766	-0.007978296
49	0x3d029f57	0.03189024
50	0x3c33eca7	0.010981715
51	0x3cceee9c	0.025260262
52	0x3ca5b0de	0.020225938
53	0xbd15b7a8	-0.0365521
54	0xbc993692	-0.018702779
55	0x3c2036af	0.009778663
56	0xbcef4772	-0.029208872
57	0x3cad7c25	0.02117736
58	0x3c5f4bc1	0.013628901
59	0x3cc43422	0.02395064
60	0x3b3a65d2	0.0028442037
61	0x3c19b5b6	0.009381702
62	0xbbc2dbbc	-0.0059466045
63	0x3beeb34c	0.0072845574

ConvBase.1.bn.running_mean f4 [64]
0	0x3e3ed99f	0.18637703
1	0x3e0d9b46	0.13828763
2	0x3de56e29	0.11202652
3	0x3d70700a	0.0587006
4	0x3e161f49	0.14660372
5	0x3ce9d38e	0.02854326
6	0x3c9c3c5b	0.019071748
7	0x3e07078b	0.13186471
8	0x3e64be20	0.22338152
9	0x3e27c944	0.1638537
10	0x3d939c62	0.07207562
11	0x3d0560cc	0.032563016
12	0x3e57641c	0.21034282
13	0x3cd331cb	0.02578058
14	0x3d90358f	0.070414655
15	0x3d85a95b	0.065264426
16	0x3e6d3873	0.23166065
17	0x3e57bb56	0.21067557
18	0x3db9ce6a	0.090725735
19	0x3d8dad98	0.06917876
20	0x3e45d0ee	0.19317982
21	0x3e3af3c9	0.18257059
22	0x3e2d0ad2	0.16898659
23	0x3e0820e3	0.13293795
24	0x3e0762be	0.13221261
25	0x3e3e0b80	0.18559074
26	0x3d816c69	0.06319506
27	0x3e0fc5b6	0.14040264
28	0x3e10e5ca	0.14150158
29	0x3d54180a	0.051780738
30	0x3d9d5747	0.076826625
31	0x3d965ac2	0.073415294
32	0x3ead3860	0.33832073
33	0x3e8f4af5	0.27986875
34	0x3e0ca50f	0.1373484
35	0x3d524804	0.05133821
36	0x3e60edf3	0.2196577
37	0x3e50a20a	0.20374313
38	0x3e778496	0.24171671
39	0x3e476e49	0.19475664
40	0x3e76d094	0.24103004
41	0x3df3d89f	0.119065516
42	0x3d8cab56	0.06868617
43	0x3e22b581	0.15889551
44	0x3e760082	0.24023631
45	0x3d48e98c	0.049050853
46	0x3d8dba26	0.069202706
47	0x3da19596	0.078898594
48	0x3e815695	0.2526137
49	0x3e9d60ed	0.3073801
50	0x3e06c75a	0.13161984
51	0x3d8691f7	0.06570809
52	0x3e46f7ba	0.19430438
53	0x3e216460	0.15760946
54	0x3e70d571	0.23518921
55	0x3e498114	0.19678146
56	0x3e85cf64	0.2613479
57	0x3e6139c0	0.21994686
58	0x3db1accf	0.08675539
59	0x3e262108	0.16223538
60	0x3e9822be	0.29714006
61	0x3d72daa7	0.059290554
62	0x3dabb340	0.083837986
63	0x3dde0fe1	0.108428724

ConvBase.1.bn.running_var f4 [64]
0	0x3dc480d6	0.09594886
1	0x3d40f8e6	0.047112368
2	0x3d148754	0.03626187
3	0x3b8a1569	0.004213978
4	0x3d6dc827	0.05805221
5	0x3b520f5e	0.0032052617
6	0x3af33461	0.0018555039
7	0x3e08218a	0.13294044
8	0x3f002191	0.5005122
9	0x3e62e09f	0.22155999
10	0x3d162677	0.036657777
11	0x3bc82e5d	0.0061090426
12	0x3eb56a25	0.35432544
13	0x35083caa	5.0752226e-07
14	0x3cb4e8d9	0.022083687
15	0x3c37fb57	0.011229358
16	0x3ec53b50	0.38521814
17	0x3edd7f9a	0.43261415
18	0x3debdb06	0.11516385
19	0x3c102e39	0.008800083
20	0x3debca56	0.11513202
21	0x3e4c4dc4	0.1995154
22	0x3f295dbb	0.66158646
23	0x3e396afe	0.1810722
24	0x3e114063	0.14184718
25	0x3e8858a4	0.26630127
26	0x3d022303	0.03177167
27	0x3e168ed0	0.14702916
28	0x3d29ffa8	0.04150358
29	0x3c3e9ca7	0.0116340285
30	0x3b39f66c	0.0028375639
31	0x3d87e221	0.066349275
32	0x3f07d020	0.5305195
33	0x3e6492e0	0.22321653
34	0x3d93772e	0.07200466
35	0x3c08d999	0.008352661
36	0x3dfabf35	0.12243501
37	0x3e3597dc	0.17733711
38	0x3daed8b1	0.08537424
39	0x3df3bd18	0.11901301
40	0x3db80c0c	0.08986673
41	0x3eb49c6c	0.3527559
42	0x3d165897	0.03670558
43	0x3d60ac99	0.054852102
44	0x3ef1f7db	0.4725941
45	0x3bf9e040	0.0076256096
46	0x3d11ceff	0.035597797
47	0x3ccad619	0.024760293
48	0x3f40a55c	0.7525232
49	0x3e705920	0.23471498
50	0x3d880d93	0.06643214
51	0x3bf35648	0.007426057
52	0x3e165873	0.14682178
53	0x3e408e9b	0.188044
54	0x3e6add6d	0.2293603
55	0x3dd4fe65	0.104000844
56	0x3ef25d27	0.47336695
57	0x3d9619f1	0.07329167
58	0x3d1bbb09	0.038020167
59	0x3e2c9d98	0.16856992
60	0x3e8d993a	0.27655965
61	0x3c39ce9c	0.011340763
62	0x3ce3dd8e	0.027815606
63	0x3d3acfee	0.045608453
