waights/weights16.pth (torch_old, 670822 bytes, 196 tensors)

ConvBase.1.feature.lis.0.X_conv.conv.weight f4 [1, 1, 3, 1]
00000000: b207 16bc df9e 49be 5da1 00be
-0.009157108 -0.19689511 -0.12561555

ConvBase.1.feature.lis.0.Y_conv.conv.weight f4 [1, 1, 1, 3]
00000000: c7bf 9c3e 047e 93bd 57e4 12be
0.30615065 -0.0720177 -0.14344917

ConvBase.1.feature.lis.0.pointwise.weight f4 [16, 1, 1, 1]
00000000: c714 babe 7e95 6bbe 4086 45bf 5a10 6fbf
00000010: 62c7 fdbe 1019 abbd 9515 b23c 6630 153f
00000020: a45e 543f 106f 283f 260c 6d3f a3ab 713d
00000030: 4649 323f affa 99ba a004 ec3e 6ff5 00bf
-0.36343977 -0.23006245 -0.77157974 -0.93384326 -0.4956618 -0.0835439 0.021738807 0.58276975
0.8295691 0.6579447 0.9259666 0.059001576 0.69643056 -0.0011747683 0.4609728 -0.503745

ConvBase.1.feature.lis.0.pointwise.bias f4 [16]
00000000: 8b26 503f ea03 90be 24e9 353f a8a6 85bf
00000010: d7a6 99be 6131 50bf d960 a9be 4e1a 6c3f
00000020: 878e 2fbf a6a1 843e c31f e3be f9bf 0abf
00000030: 0438 5c3d ab86 98bd b7d5 90be 9ba1 cabe
0.8130881 -0.28127986 0.7105887 -1.0441484 -0.300101 -0.81325346 -0.330817 0.9222764
-0.68576854 0.25904578 -0.4436017 -0.5419918 0.05376436 -0.07447561 -0.2828805 -0.3957642

ConvBase.1.feature.lis.1.X_conv.conv.weight f4 [16, 1, 5, 1]
00000000: 1c73 753e 88f0 9abe 04aa bf3b f8d6 b63e
00000010: 8dc6 813e 4de0 c13c bbf3 ac3e 4884 f43a
00000020: 08b4 173e 7783 8abe 4e07 59be cb8c 9bbe
00000030: 08f4 4bbd 236d 913e 23bb dfbd 52b6 1dbd
00000040: eb6b 333d 9477 3a3e 4c93 d33e 58b6 133c
00000050: 5d1b c5be 17bb cbbd a4c8 e83c 35a4 a4be
00000060: 8fc9 b43e d770 ed3d 79da 803e 95e2 c3be
00000070: 213a 623e d2c0 1f3e 5cb8 8dbe 6b78 33be
00000080: ab43 3cbe 6c59 473e 7d32 37bc fcaa 853d
00000090: d6f4 6dbd 6a8d da3e f30e ce3e b54a 073e
000000a0: d391 433d a51c aabe 2abb b03e dc2a 6c3e
000000b0: ee1f c83d 2723 a1be 4c65 99be 36c1 ba3d
000000c0: 460f 093e f11e c8be d5df 8ebd 1674 8fbd
000000d0: 51ec e8be fc87 aabc 8fb1 bf3e ce3a ddbe
000000e0: e8e8 e1be 0bab 973e af0a 4a3e 76bc be3e
000000f0: 3c6e 30be 0148 75bd f86a 85bd 2a8a ce3e
00000100: 9ec3 86be a4f1 b4be 474a b23e 0ef5 36be
00000110: 52fe b23d de38 9cbd a86c c9bc 71ba 07ba
00000120: 1212 95be d4e8 e1be 1ec5 813e 9869 b73e
00000130: 2906 54bd 4531 253e ea6b 4a3e 8459 d0be
0.23969692 -0.30261636 0.005849125 0.35710883 0.25346795 0.023666525 0.33779702 0.0018655146
0.1481477 -0.27053425 -0.21194193 -0.30380854 -0.049793273 0.28403577 -0.10924365 -0.038503952
0.04380409 0.18209678 0.41323316 0.009015642 -0.3849744 -0.09947794 0.028415985 -0.3215653
0.35310027 0.11593788 0.2516668 -0.38258806 0.22092487 0.15600899 -0.27679718 -0.17526405
-0.18385188 0.19467705 -0.011181471 0.06526753 -0.058094822 0.42686015 0.4024578 0.13212092
0.04774649 -0.3322498 0.34517795 0.23063225 0.09771715 -0.31472132 -0.29960096 0.09118883
0.13384733 -0.39086106 -0.06976286 -0.070045635 -0.45492795 -0.020816796 0.37440154 -0.43208927
-0.44123006 0.29622683 0.19730638 0.3725316 -0.17229551 -0.05988312 -0.06514543 0.40339786
-0.2632112 -0.35340607 0.34822294 -0.17866918 0.08739914 -0.07628034 -0.024587944 -0.0005177623
-0.2911535 -0.44122946 0.253457 0.3582275 -0.051763687 0.16132076 0.19767728 -0.40693295

ConvBase.1.feature.lis.1.X_conv.conv.bias f4 [16]
00000000: 7095 a63c f638 b23d ddca 583d 5ae5 e7be
00000010: 72ac 95be 7a70 c9be 7bdb e9be dce9 c93d
00000020: 6e8e 223e 2b63 16be 49eb 9c3e 6257 933e
00000030: cf8a 853d 9f86 fd3d 2e4d d4be 204b 1639
0.02033493 0.08702271 0.05292784 -0.4529217 -0.29233128 -0.39343625 -0.45675263 0.09859058
0.15874645 -0.14686267 0.30648258 0.28777605 0.06520616 0.123791926 -0.41465133 0.00014333101

ConvBase.1.feature.lis.1.Y_conv.conv.weight f4 [16, 1, 1, 5]
00000000: 7986 873e a5be b43e 214e b9be 7e0c 4abe
00000010: d671 cd3c 38f8 aa3e a805 db3e 4c3f d8bd
00000020: 0ebb d1b9 f62d dbbe 2fdc a8be 6f65 5d3d
00000030: 3232 833e c806 9fbe ae09 72be 34fd 89be
00000040: 58ec 7e3e 5d73 ec3e 6ed2 59be 2701 afbe
00000050: d34a 86be ad7a c73e 6ed1 c63e 93c7 b5be
00000060: 636b 4b3e cc44 79be 3089 46be aaa6 b5be
00000070: 8375 ef3d c13c c2be ee1a 943d 65c8 e8bd
00000080: ae9c 2b3d 9f6b 883e ab18 d03d e157 b2be
00000090: e38a 7d3e f057 81bd 8258 dbbd 4499 733d
000000a0: 7bb4 4cbd c832 d4be 7ab9 b8bd b4d4 313e
000000b0: fe2c 95be ef99 513e bfcf aebe e4af 09be
000000c0: 5a21 d83e cab1 a43e 5502 7f3e bc41 083e
000000d0: 90f0 acbd 6fe1 4c3e ad83 8ebe b4a6 ce3e
000000e0: 90fe babe 97a1 853e 02ac 00be f11a f9bd
000000f0: 7d15 e43e fa14 66be d036 2a3e e853 d93e
00000100: 976b f73a 61fe 9b3e 1354 be3c db78 7d3e
00000110: aa4b d03e 5a8d 84be 0925 98be 3226 dcbe
00000120: 2093 b83e 5619 d9be 39f6 cb3e 5076 a73e
00000130: 1c43 9fbd 38a9 edbe be3c 8abe 30c5 7bbb
0.26469782 0.353017 -0.3619242 -0.19731328 0.025078695 0.333925 0.42777753 -0.10558948
-0.00040002953 -0.42808503 -0.32980487 0.054051813 0.25624233 -0.3105986 -0.23636505 -0.2695099
0.24894845 0.46181765 -0.21271679 -0.34180567 -0.2622896 0.38960782 0.38831657 -0.35503826
0.19865184 -0.2434265 -0.1938827 -0.35478717 0.116923355 -0.37936977 0.07231699 -0.11366347
0.04189747 0.26644608 0.10160955 -0.3483267 0.24760012 -0.06315601 -0.10710241 0.059472337
-0.049976807 -0.41444993 -0.09019752 0.17366296 -0.2913589 0.20468877 -0.34142873 -0.13446003
0.42212945 0.32166892 0.24903233 0.13306326 -0.08444321 0.20007871 -0.27834836 0.4036156
-0.3652234 0.26099846 -0.12565616 -0.12163342 0.44547644 -0.2246894 0.16622472 0.42446828
0.0018876669 0.30467513 0.02323345 0.24753134 0.40682727 -0.25889093 -0.29715756 -0.4299789
0.36049747 -0.42402142 0.3983629 0.32707453 -0.07776472 -0.46418166 -0.26999468 -0.0038417093

ConvBase.1.feature.lis.1.Y_conv.conv.bias f4 [16]
00000000: eb32 483e a08e 853e 6c94 0ebe fa5a 8c3e
00000010: a2f7 f63d c7f8 763d bbcf 793d ccf2 153e
00000020: 5571 b63e 22f6 873d 9ad0 d8be 2cd8 2ebe
00000030: 688b bcbe 6510 413e 48bc a5be f60b bdbe
0.19550674 0.26085377 -0.13923806 0.2741316 0.12058951 0.060295846 0.060989123 0.14643401
0.3563334 0.06638743 -0.4234665 -0.1707465 -0.3682511 0.1885391 -0.3237021 -0.36923188

ConvBase.1.feature.lis.1.pointwise.weight f4 [16, 16, 1, 1]
00000000: 7204 40be 5a99 72be 094d 0ebe 791d 2c3e
00000010: bf65 5fbe bcb2 e53d 4573 b33d 3e69 6c3e
00000020: 27a0 38bd 4611 bebd 2b85 41bd 756a 0c3e
00000030: ce2e 4fbe 115a 693e 9421 65be 0bca 5b3e
00000040: 09ac 2d3e 8e80 bd3d 9aa3 843d 576f 51bd
00000050: 93b1 4ebe ae0e 37be feed 1d3e d214 4e3e
00000060: 2eb0 e23c 190f 173e 4f18 54be a7ba cb3d
00000070: 28b1 f0bd f4d5 c03d ed18 383e 44b6 303c
00000080: a507 1fbe 3427 cbbd b11e 17bd 95b8 793d
00000090: e910 95be 8de3 d4bb fe8d ad3d b8c7 44be
000000a0: 545e 043e 7965 a83c 00b5 50be 801d 403e
000000b0: 1a5b 073b 1a0c 21be 565d bbbd 4d0b 79be
000000c0: 26cc c3bb 5805 38be a6d9 113e e994 c5bd
000000d0: 7ffa 40be 91f1 5f3d 317f 583e 6978 013c
000000e0: 3c70 a63d a095 693c 6cbd 2d3e f220 cabd
000000f0: 4142 b23d e2b9 8bbe 7908 b1bc 07a8 86be
00000100: ed58 33be 70a7 513e fc99 673e 1e71 373e
00000110: 37dc 39be 7ee2 523e 2dad 3d3e 567c 1dbe
00000120: ecc2 703e d06e f53d 022d 573c b2ef 6bbc
00000130: a992 e5bd 3c8e 1abe 68fb 9a3d eeaf 08be
00000140: 91e7 e73d 2aa7 d1bd 9fdc 11bd 946f 9ebd
00000150: 3506 aebd 077a ea3c faf7 543d ae73 a6bc
00000160: 9c40 15be f03f 4abd b7e4 023d 6173 64be
00000170: fc73 393b be93 0cbe c091 cbbc 4bd8 393e
00000180: 7c97 7bbe 0321 183d ecea 8dbd 6a30 973c
00000190: db8f 9b3d af45 44be 6347 9ebd af08 1c3d
000001a0: 0c5d 27be 5441 183e ebe7 883e f41e cabc
000001b0: b7d0 2fbe fb15 f3bc 5231 14bd 60a0 653e
000001c0: dffe 3ebe 72d3 0a3e 2824 0bbe 56af 993d
000001d0: f6d7 393e 8aaf 39be 5e7c 02bd 1184 073e
000001e0: 2611 09be cc13 21bd baac ebbd bdeb babd
000001f0: 2d6c d63c fc2b 25be 189e 49bd 6a6f 09be
00000200: a4d0 473d ab32 a33d 6cda 5ebe f447 80be
00000210: 467d 36bd 9d0a d33c 1db8 7b3e 4f91 c4bd
00000220: ad5c e43d 7a82 1cbe 1ed9 823e 7214 87be
00000230: 188e 3f3e 20da 3cbe 4843 443e ee08 1b3e
00000240: bd9d f33d 56b6 863d 24e7 6f3e 6dba bbbd
00000250: e225 153b cbc2 cdba c4fb 603e 2366 f4bd
00000260: cf5a cbbb e66a 593e 63c2 0bbe 2fb7 913d
00000270: e7fd 9ebb 7b9e 52be e543 1b3e f0a6 093e
00000280: 4768 893e aaa4 723e c02e 27bd d64e a53d
00000290: a335 013e 1e6d 1a3d e765 56be 82d9 4a3c
000002a0: 0e15 27be 2e11 603e 9e3d 563e 193f 10be
000002b0: a749 523e 5d10 02be 1472 6fbe 7671 48be
000002c0: ef06 21be 76fb 01bc d9bd 53bd 32d1 653e
000002d0: 869e e03b c433 30bd 712e 88bd b6dd 2bbe
000002e0: 1454 853d 8818 0c3e fcd7 923d 9ab4 ed3d
000002f0: 426a 823d ae68 febd da28 5abe 7703 983c
00000300: 3266 013e 1c6a 71be 39bf 85bd 5ae5 07be
00000310: 80d5 cf3d 2244 20be e007 cc3d 96a1 ac3c
00000320: d8da 153e 081c 4dbe 5f5a 793d a7e9 1b3e
00000330: a0da 0f3e 6298 a8bd ab85 6dbc 24b3 84be
00000340: 2164 58be 95af 403e 0479 14be 5c53 62bd
00000350: c194 163e c4c2 cebd 1ecf 73be ee65 49bd
00000360: d37a d3bd 789f f2bc 9a43 193e a156 1dbe
00000370: 5609 113e 2b48 383e ee07 fcbd 561d 58be
00000380: 3758 0a3e 0f1b 9cbc dc86 f7bd 1240 1a3e
00000390: 27df 68bd 9298 cc3d cc03 a33d c36a 603e
000003a0: d164 dc3d 4f19 44be fca5 09be 2bd9 3cbc
000003b0: 0fd0 203e d3ac 2ebe f863 563e a31b d2bc
000003c0: daa1 14bd 4a20 10be cd41 3c3e ddbb 63be
000003d0: d6f9 84bd 252f 5b3d 6f0b efba 8e9a 37be
000003e0: c189 d6bd c102 9ebd 2dd5 49bd 551d 4fbe
000003f0: 7aa3 33bd b130 5d3e 5b9e 8e3e 8e3b d4bd
-0.18751696 -0.23691311 -0.13896574 0.16808118 -0.21816157 0.112157315 0.0876222 0.23087022
-0.04507461 -0.092806384 -0.04724614 0.13712485 -0.20232698 0.22788264 -0.2237609 0.21463792
0.16960157 0.092530355 0.06476517 -0.051131573 -0.20184927 -0.17876694 0.15422818 0.2012513
0.0276719 0.14751853 -0.20712398 0.099477105 -0.1175254 0.09415808 0.17978258 0.010785643
-0.1553026 -0.09919587 -0.036894504 0.060967047 -0.29114464 -0.0064968527 0.084743485 -0.19216812
0.12926608 0.020556198 -0.20381546 0.18761253 0.0020653666 -0.15727273 -0.09148662 -0.24320717
-0.005975264 -0.17970788 0.14243183 -0.09647543 -0.18845557 0.054673735 0.2114227 0.007902243
0.08126876 0.014256865 0.1696679 -0.09869565 0.08704043 -0.27290255 -0.021610485 -0.2630007
-0.17514391 0.20474029 0.22617334 0.17914245 -0.18150412 0.20594212 0.18523093 -0.15379462
0.23511857 0.119840264 0.013133289 -0.01440041 -0.11209614 -0.1509332 0.07567483 -0.13348362
0.11323465 -0.10236962 -0.03561079 -0.077361256 -0.08497278 0.02862264 0.0519943 -0.020318832
-0.14575428 -0.04937738 0.0319564 -0.22309639 0.0028297892 -0.13728234 -0.024849772 0.18148915
-0.24569505 0.037140857 -0.069295734 0.018455703 0.07595798 -0.19167207 -0.0772846 0.03809422
-0.16344088 0.1486867 0.2673944 -0.024672963 -0.17169462 -0.029673567 -0.036179848 0.2242446
-0.18651913 0.13557222 -0.13588011 0.07504146 0.18148789 -0.18133369 -0.031856887 0.13233973
-0.13385448 -0.03932552 -0.11507554 -0.09126995 0.02617463 -0.1613006 -0.049223036 -0.13421407
0.04878296 0.079686485 -0.21763009 -0.25054896 -0.044553064 0.025761897 0.24581952 -0.09598028
0.11150489 -0.15284148 0.25556272 -0.26382786 0.18706548 -0.18442583 0.19166291 0.15140125
0.118953206 0.065777466 0.23428017 -0.09166417 0.0022758176 -0.0015698312 0.21971041 -0.119335435
-0.0062058936 0.21232185 -0.13648371 0.071150176 -0.004852045 -0.20568268 0.15162618 0.13442588
0.2683737 0.23695627 -0.04081607 0.080716774 0.12618117 0.03770172 -0.2093731 0.0123809595
-0.16316625 0.21881554 0.20921943 -0.1408657 0.20535909 -0.12701555 -0.23383361 -0.19574532
-0.15725301 -0.007933488 -0.051694725 0.22443083 0.006854835 -0.043018118 -0.06649483 -0.16783795
0.06510177 0.13681233 0.07170102 0.11606713 0.06367923 -0.1242231 -0.21304646 0.01855634
0.1263664 -0.23575634 -0.065306135 -0.13271084 0.10148144 -0.1565099 0.099624395 0.021073144
0.14634264 -0.20030224 0.0608772 0.1522585 0.14048243 -0.0823219 -0.014497201 -0.25917923
-0.21131946 0.18816979 -0.14499289 -0.05525528 0.14705183 -0.10095742 -0.23809478 -0.049169473
-0.10326161 -0.029617056 0.14967194 -0.15365078 0.14163718 0.1799628 -0.123062 -0.21104941
0.13510214 -0.019055871 -0.12086269 0.15063503 -0.05685344 0.09990038 0.079597086 0.21915726
0.10761417 -0.1915028 -0.13442224 -0.011526386 0.15704368 -0.17058115 0.20936573 -0.025647944
-0.036287166 -0.14074817 0.18384476 -0.22239633 -0.06492965 0.053511757 -0.001823766 -0.17930052
-0.10475493 -0.07715369 -0.049275566 -0.20226033 -0.043857075 0.21600606 0.2785519 -0.10362922

ConvBase.1.feature.lis.1.pointwise.bias f4 [16]
00000000: e19a 733e 012f 6abe 4509 1a3e e634 2abe
00000010: 3c82 b0bd 262d 82be 4582 4cbe 8dde e53d
00000020: 276f 2ebe 7243 843e 291b d9bb 55c9 103e
00000030: 8b1b 943d 8def b43c 4188 103e 100d 8dbe
0.2378955 -0.22869493 0.15042599 -0.16621742 -0.0861859 -0.2542507 -0.19971569 0.11224089
-0.17034589 0.25832707 -0.006625552 0.14139302 0.07231816 0.022086883 0.14114477 -0.27549028

ConvBase.1.feature.lis.2.X_conv.conv.weight f4 [16, 1, 7, 1]
00000000: f2bc 893e d699 b4be 3112 c93e 4cdf f93d
00000010: 85fe b53e f39e cabd 3917 96be 09c4 b13d
00000020: 4cf3 fd3b 8372 143e 3fb7 ac3d 3546 2abe
00000030: 1ef0 383e 9693 9a3e 2ce7 16be d876 b4bd
00000040: 90d8 aabe 5677 103e 45a1 76be d0af 9c3e
00000050: a3a9 aabc d775 b6be 8151 183e 4b96 52be
00000060: 6ad2 a43e 098f b6bd b63e 3ebe aceb e63c
00000070: 6f34 b83d c13a 573e 6728 953e 09d7 b43e
00000080: f5e4 413e 42bc 8ebe 30a2 a23e 671c 2bbd
00000090: e7b2 eebd 28b9 18bd f491 a63e 00dc a6be
000000a0: 448b 38be afb5 42be 04ee 0abe 1e3e 87be
000000b0: b28d 6bbe 5980 513d a8ee a33d 0ecc c9be
000000c0: 361a 453e 1a6e 91be c909 5dbe 08e0 b73e
000000d0: 4673 853e d13d 8e3e ecda 473e 0991 ae3e
000000e0: 07cf a1be 35fd 9b3e 140d 503e 6367 31bd
000000f0: d2e5 0a3e 1689 a53c 9166 03be fb16 7d3e
00000100: e9e4 7b3e 3e1c 8f3e 7dc2 bc3d aafb b5be
00000110: c4a5 a4bd e70e b7be ed44 b23e 5685 a83e
00000120: 7221 5b3e 0a4e 2ebe eaff cd3d a1ca 09be
00000130: 86d6 833e e3ca ee3d cf7e 183d 859f e93d
00000140: 3144 903e 3186 e3bd 23a1 65be bc0b 0cbe
00000150: 9c65 433d d835 0dbe a518 c13d bb3c fb3c
00000160: 6d57 c23c b7ce 213e 45eb aebe 9cd3 0ebe
00000170: 58e0 b13c 639e 673e 7c9b c4be bacb 49be
00000180: e504 9dbe 7855 c2be 7852 c43d c1bd bf3e
00000190: 9dfc 64bd c63b 4abe 0d8d 3dbe b87c efbc
000001a0: b14c 253d 0ef5 a03e 02f4 1b3e 8a37 99be
000001b0: f936 4bbe b1fb 173e a115 89be 8eb2 d0bc
0.26901966 -0.35273618 0.3927169 0.122007936 0.35545745 -0.098935984 -0.29314592 0.08679969
0.0077499505 0.14496808 0.08433389 -0.16628344 0.18060347 0.30190724 -0.14736623 -0.0881173
-0.3336835 0.14108023 -0.24084957 0.30602884 -0.020832842 -0.3563678 0.14874841 -0.20565145
0.32191783 -0.089140005 -0.1857861 0.028188549 0.08994376 0.21018507 0.29132387 0.3532031
0.18934996 -0.27878004 0.31764364 -0.041775133 -0.11655217 -0.037285954 0.32533228 -0.32589722
-0.18021876 -0.1901462 -0.13567358 -0.2641458 -0.23003271 0.051147792 0.080045044 -0.39413494
0.1924828 -0.28404313 -0.21585764 0.3591311 0.2606451 0.27781537 0.19517106 0.34095028
-0.31603262 0.3046662 0.20317489 -0.043311488 0.13564232 0.02020697 -0.12832095 0.24715798
0.24599041 0.27951235 0.09216783 -0.35543567 -0.0803943 -0.35753557 0.3481821 0.32914227
0.21399477 -0.17021957 0.10058577 -0.13456203 0.25749606 0.11659791 0.03723031 0.11407379
0.28177026 -0.11109579 -0.2242475 -0.13676351 0.047704324 -0.13790071 0.09428529 0.030668607
0.023723328 0.15801512 -0.3416387 -0.1394791 0.02171342 0.22619013 -0.38399875 -0.19706622
-0.30667797 -0.37955832 0.09586042 0.37449458 -0.055904973 -0.19749364 -0.18510838 -0.029234275
0.04035634 0.31436962 0.152298 -0.29925185 -0.19845189 0.14842106 -0.26774314 -0.025475767

ConvBase.1.feature.lis.2.X_conv.conv.bias f4 [16]
00000000: 6ad7 4abd 8810 7c3e 885b 16be 71a4 1abe
00000010: 15b8 20bd 3819 4e3e 090e 673e 85f1 bc3d
00000020: c8a7 313e 089e 9ebd daf3 ac3e 6d21 b93d
00000030: 54c7 653c 73f0 ebbd 72c8 ba3e 5d6d b9bd
-0.04952184 0.24615681 -0.14683354 -0.15101792 -0.039238054 0.20126808 0.22563948 0.09225754
0.1734916 -0.07744986 0.33779794 0.090395786 0.014024574 -0.115204714 0.36481053 -0.090540625

ConvBase.1.feature.lis.2.Y_conv.conv.weight f4 [16, 1, 1, 7]
00000000: 1fa3 173d a662 7d3e 38b8 8ebe 7d12 f4bd
00000010: 5c97 803d b67e adbe aa84 ac3e a0a9 7f3d
00000020: 4b2f a7be e211 d23d 95bb 70bb d6a4 9ebe
00000030: aa8d 3b3e bf45 033e 7c90 f7bd f5f9 453d
00000040: 82b0 6dbe a9d1 833e 67ed 9c3d 3e09 213e
00000050: a446 3ebc 616f c1bd 9c8c 953e 64a1 5d3d
00000060: b4aa b03e dbb6 8bba 2c83 e63d d12f a43e
00000070: 13f1 7f3e e1de 493e 31b2 583e a1cc 06bd
00000080: 5837 073e 2b36 023e 0fed 603e afb2 143e
00000090: a72a 80bd cea1 c03d 0d5c d5be 42e9 043e
000000a0: 7e47 9f3d f42d 913e 5bb3 373e 62bb 85be
000000b0: 5fad b5be 3da0 543e 7224 c23c 4013 a53e
000000c0: 4912 a2bc f7e1 06be e3a2 b3bc f44e 113e
000000d0: f066 8bbe c690 a3be 30f9 0cbc 0c6c d93d
000000e0: 104c babe c4eb de3d 6c6f b4be 7ce3 86be
000000f0: d50a 8b3e 3287 fe3b 9904 97bd 76d6 98bd
00000100: 511e bebe d70d 3cbe c09d f53d 8138 083e
00000110: dfbf 40be 6577 91be c376 aebd 2778 243d
00000120: a45e 9b3e ffaa 123e f544 d63d 4c0d 8a3e
00000130: 4564 a1be 6999 5a3e 6c92 82be 73dc 243e
00000140: dade 1bbe 7535 31be f9eb c1be 3ac3 b13e
00000150: 6a7a 023e 8bae 283e 1124 1abd 6f72 77be
00000160: 0d03 873d 235a 9a3e 755e 08be 8cd4 a3bc
00000170: ba5f d8ba 8799 593e e8a6 e73d 2eac ce3e
00000180: c3fb 2f3e 1e5e 43be 76d0 5d3e 12eb 40bd
00000190: d4ea 13be 9a05 bbbd 8476 8b3e 03ea b53e
000001a0: e9df 633e 23e8 85be 442a bd3d 927a b0be
000001b0: 4114 82be 8754 b23a c69b 4bbd 88d2 a73e
0.0370208 0.24744663 -0.27874923 -0.11917589 0.062788695 -0.33885735 0.33694965 0.062417626
-0.3265327 0.10257317 -0.0036732901 -0.30985135 0.1831576 0.12819575 -0.12088105 0.04833408
-0.23211864 0.25745896 0.076624684 0.15726182 -0.011613522 -0.09445072 0.2920884 0.054108992
0.34505236 -0.0010659354 0.11255488 0.3206773 0.24994306 0.19713928 0.21161725 -0.032909993
0.13204706 0.12715976 0.2196543 0.14521287 -0.06258135 0.09405862 -0.41671792 0.12979606
0.07777308 0.28355372 0.17939512 -0.26119524 -0.35483834 0.20764251 0.02369902 0.3224125
-0.01978411 -0.13172136 -0.021928256 0.14190274 -0.27226973 -0.3194639 -0.008604333 0.106163114
-0.36386156 0.108848125 -0.35241258 -0.26345432 0.27156702 0.0077675814 -0.07373924 -0.0746278
-0.37132505 -0.18364654 0.11992979 0.13302805 -0.18823193 -0.28411403 -0.08518746 0.04015365
0.30345643 0.14323042 0.10462371 0.2696327 -0.31521812 0.21347584 -0.25502336 0.1609972
-0.1522173 -0.17305548 -0.37875345 0.3471926 0.1274201 0.16472833 -0.03763205 -0.24164747
0.06592379 0.30146894 -0.13317282 -0.019998811 -0.0016508021 0.21249972 0.11311132 0.40365738
0.17185883 -0.19078872 0.21661553 -0.04709918 -0.14445049 -0.09131928 0.27238858 0.355301
0.22253384 -0.2615367 0.09236577 -0.34468514 -0.25406078 0.0013605513 -0.049709104 0.3277781

ConvBase.1.feature.lis.2.Y_conv.conv.bias f4 [16]
00000000: 7290 b73d 2eba 293e bd9e b0be a24e bebe
00000010: cf70 7dbe 54b2 b0bc 463a 263e c1e1 77bd
00000020: dc11 c63d 0b9c ae3e 59bb e2bd 4d19 a33e
00000030: 9eac 91be ff24 e13d 7901 af3e 5ac6 933e
0.08963098 0.16574928 -0.34496108 -0.37169367 -0.24750064 -0.021569408 0.16233167 -0.06051803
0.09671375 0.34103426 -0.1107089 0.3185524 -0.2845201 0.109933846 0.3418081 0.28862268

ConvBase.1.feature.lis.2.pointwise.weight f4 [16, 16, 1, 1]
00000000: 2a82 c5bd fdfd b7bd e990 5b3e 5f6f 5f3e
00000010: 5e40 713e ecb8 623b 2222 e93d c45e eb3d
00000020: 01e8 63be bdc6 193c 829d 0c3e 9de1 433e
00000030: 4d76 143e 3d7d 68bd a283 58be 8cc8 44be
00000040: 57ce 323e 2be7 08be 23df 0d3e 55a9 c33d
00000050: 325b e7bd d74c 62bd e655 b13c 0d18 0d3c
00000060: ad33 943d 5983 ce3c b751 25be bc38 b5ba
00000070: 417d 84bd 83e9 3ebd 843a 583e d23e 1abe
00000080: d376 4ebe 63be 2f3e 6e5a 553e 47d6 7d3e
00000090: dac3 35be c656 443e 3911 ef3d 6d5d 83bc
000000a0: a7e3 013e 10bb e73d 00f3 a93d b345 943d
000000b0: d3a1 263e 0bbc 273d cf5a 45be 90ae 08be
000000c0: c66f 80be df08 31be 5ade 183c 301a 263d
000000d0: a6ff 203d 5c79 24be fecb 73be f43f 73bd
000000e0: 739f 6e3e 079c efbd 8822 0e3e 9ca9 84be
000000f0: de61 fe3d 9282 7a3e 5173 97bd 392b 3fbe
00000100: 8e4a 95bd 1a08 423e 08c0 84be 8844 503e
00000110: ee8c c8bd f9d5 f3bd 3e97 213d f7b7 8ebd
00000120: d206 603d 8b96 2c3e d464 4abd 1f0b 5abe
00000130: 27f8 23be c63e d1bd 48c9 7abc e687 f23d
00000140: 0769 d23d 1ead 31bd 5dce ce3d 57b7 e7bd
00000150: a9ae 5e3e 1f57 7e3e 1210 3f3e 647e ad3d
00000160: 978a 873e 5114 aebd 66e6 733e d7be 093b
00000170: 4475 023e 1e86 043d 8412 243e c3fa 6ebe
00000180: fa45 043e 34be d63d ca7f a23c 7b24 d9bd
00000190: 4bad 00be 8dcf dbbd 411b e0bd 39e4 353e
000001a0: 1e78 853e cf60 3c3d b10c 3abe 72cc 31be
000001b0: 1dee 793e ed59 92bd 1c44 963d 59e4 cd3d
000001c0: 855e 103e 752a e93d b531 d4bc 0b33 6b3d
000001d0: a125 4ebd b953 b8bd f7fa 9e3d c2f2 0abe
000001e0: de25 f43d 006e d93d 7f4b 293b fe72 6a3e
000001f0: 53d1 923d 3b82 02bd 61d9 91bd 4419 d53d
00000200: f4c8 5fbe 8d82 223e 3a38 1e3e a40f 013e
00000210: 5166 37be ace0 783d 5d4b 67bd c52b 403e
00000220: 5878 8bba 280d a63d d764 79bd 33d2 b5bd
00000230: e0d9 4e3e f3a6 853e 7690 d8bd 5df5 e7bd
00000240: 9744 bcbd d799 533e 6526 81bd cacb 153e
00000250: 7a68 a23d 5fd3 9f3d beb3 803e 20bf 5cbe
00000260: f592 ac3d dee7 6f3e 1330 473e 50bd 363d
00000270: 1bc1 163e ef83 cabd 0750 08bc f2b3 033e
00000280: 0c98 60be 345e 953d 5fba b23c 18ac 133e
00000290: 0893 2e3d 6ddf ebbd 1c59 123d d31f 773d
000002a0: 3627 4d3e 72f7 3cbd 73a6 493e 1a65 663c
000002b0: f72e 723e d952 09be 0c48 1ebe 210c 553e
000002c0: 8166 78be 7c99 12be ace9 823e 155a d6bc
000002d0: 2157 48be 70c4 5ebe 287f 6abe e776 563c
000002e0: 4df6 09be 452c dcbc 0dfa a93c 0a24 653e
000002f0: 9b92 08be a34e c63d 8453 d63c a10f c83d
00000300: b6f6 cc3c 2a6b 5f3b c80a 193d 5677 7dbe
00000310: e3eb d73c 09aa 20be 9955 ca3d b3a8 37be
00000320: 0bca 883d ac7b e0bd 69cb 12be d911 333e
00000330: e543 abbc 8f11 90bd f674 2f3d 247d 0c3d
00000340: ae81 48be 89bf f83c b654 1bbe 03dc 88be
00000350: 4235 51bd d550 5ebd 86fe 983c 0bee fe3d
00000360: 074b 6e3e 2cb0 4d3e 2957 233e be53 65be
00000370: 17d7 843e 59d4 30be f045 d53d 1cac 84be
00000380: 4f42 0b3d f4d3 e3bd 3ca7 683e 8b3f 49be
00000390: 2788 7dbc 4816 1e3e c0e1 f73b 3fc6 2cbe
000003a0: 8e0c 4dbb c911 4cbe f18e 1cbe aa49 8cbd
000003b0: 5eae 4ebe 2cfd 0cbe c95d 143d 8a98 c53d
000003c0: 1694 833e c229 5b3d adb4 fabd 4b54 7cbe
000003d0: 102d 98bd 0754 2c3e 2081 ecbc 7f4e 803d
000003e0: a439 88bd 56ff 54be ebe4 88be 4e56 ec3c
000003f0: 3e4b 0fbe 43dd c2bd c1b5 6a3e f0e8 263d
-0.096439674 -0.08983991 0.21441998 0.21819828 0.2355971 0.0034595085 0.113834634 0.114926845
-0.22256471 0.009385762 0.1373196 0.19129033 0.14498253 -0.05676006 -0.21143964 -0.19217128
0.17461525 -0.13369434 0.13854651 0.09553782 -0.11296691 -0.05524906 0.021647405 0.008611691
0.07236419 0.025209116 -0.16144453 -0.0013826112 -0.06469203 -0.046609413 0.21116072 -0.15063027
-0.20162515 0.1716247 0.20835277 0.24788772 -0.17750493 0.19173726 0.11673207 -0.01603576
0.12684499 0.11314976 0.08298302 0.072398566 0.16272669 0.040950816 -0.19272922 -0.1334784
-0.25085276 -0.1728854 0.0093303565 0.040552318 0.039306305 -0.1606192 -0.23808286 -0.059387162
0.23303013 -0.11699682 0.1388036 -0.25910652 0.124210104 0.24463871 -0.07395042 -0.18668832
-0.07289611 0.18948403 -0.25927758 0.20338643 -0.09792505 -0.119060464 0.039450876 -0.06968682
0.054694004 0.16854303 -0.049412563 -0.21293305 -0.16012631 -0.10217051 -0.015306778 0.11842327
0.102739386 -0.043377988 0.100979544 -0.11314266 0.21746315 0.24837922 0.18658474 0.08471373
0.26472923 -0.08499969 0.23818359 0.002101829 0.12740046 0.032354467 0.16022688 -0.23337846
0.12917319 0.10485497 0.019836325 -0.10602661 -0.12566106 -0.107329465 -0.10942698 0.17762841
0.26068205 0.04599076 -0.18168904 -0.17363146 0.2440724 -0.07146058 0.073372096 0.100533195
0.14098556 0.11385051 -0.025902608 0.057421725 -0.050328854 -0.09000344 0.077627115 -0.13569167
0.11921285 0.10616684 0.0025832353 0.22895429 0.07168832 -0.03186248 -0.0712154 0.1040521
-0.21854001 0.15870114 0.15451136 0.12603623 -0.17910124 0.06076114 -0.056468356 0.18766697
-0.0010640724 0.08107978 -0.060887184 -0.08877983 0.202003 0.26103935 -0.10574429 -0.11326096
-0.0919277 0.20664154 -0.06306151 0.1462852 0.079300836 0.07803988 0.25137132 -0.21557283
0.08426467 0.23428294 0.19451933 0.044614136 0.14722101 -0.098884456 -0.008319861 0.12861612
-0.21933001 0.072933584 0.021817384 0.14421117 0.04262069 -0.115172245 0.035729513 0.060333084
0.20034489 -0.04613442 0.19692402 0.01406219 0.23650728 -0.1341051 -0.15457171 0.20805408
-0.24257852 -0.14316362 0.25568902 -0.026166001 -0.19564487 -0.21754622 -0.22900069 0.013089872
-0.13472863 -0.026876578 0.020749116 0.22377029 -0.13337176 0.096829675 0.02616287 0.09768606
0.025019985 0.0034090974 0.037363797 -0.24752554 0.026357597 -0.15689863 0.09879608 -0.17935447
0.06679162 -0.109610885 -0.14335407 0.17487277 -0.020906398 -0.07034599 0.042836152 0.03429903
-0.19580719 0.030364769 -0.15169033 -0.26730356 -0.05107618 -0.054276306 0.018676054 0.12447747
0.23270808 0.20086735 0.15951218 -0.22395226 0.2594535 -0.17268504 0.1041373 -0.2591256
0.033998784 -0.11124411 0.22720045 -0.19653146 -0.015474356 0.15438187 0.0075647533 -0.168725
-0.0031288 -0.1992866 -0.15288903 -0.06849988 -0.20183703 -0.13768452 0.036222253 0.09648235
0.25698918 0.05350662 -0.122414924 -0.2464153 -0.0743047 0.16828929 -0.028870165 0.06264972
-0.06651619 -0.20800528 -0.2673715 0.028849747 -0.13993546 -0.095148586 0.22920896 0.04074949

ConvBase.1.feature.lis.2.pointwise.bias f4 [16]
00000000: 2f8d 443d 5b67 86be 895b 7cbd 25c6 193d
00000010: 72b9 513c c7de e5bd a5be 2fbe 3f60 333e
00000020: 1b54 3f3e ae31 843c d068 c5bb b42e fcbc
00000030: ac2b f3bd 94cb ea3d bf1d 48be 375e 38bd
0.047986206 -0.2625073 -0.061610732 0.03754248 0.012800561 -0.11224132 -0.17162569 0.17517184
0.18684427 0.01613697 -0.0060244575 -0.030783989 -0.11873564 0.11464611 -0.19542597 -0.045011725

ConvBase.1.feature.lis.3.X_conv.conv.weight f4 [16, 1, 9, 1]
00000000: a204 93bd ccaa 433d b135 a43e 99f7 8fbd
00000010: 4c42 56be c212 743e 6f88 a3bd b7c8 46be
00000020: 7860 6c3e b5b6 1a3e 373a 863e a36b 6abe
00000030: 5cc9 923d be58 16be cc00 d73d fcea 9abe
00000040: daf6 fcbd 518d 20bd de7e 873e 96f7 863e
00000050: c6ca 973e 0a1a 8b3b 86d8 8f3d e1a2 7b3e
00000060: a42c a03e cfcb 2b3e 4a63 68be 18ff 50be
00000070: f2f2 82bd 9d54 a5be 06b1 023e c14b 973e
00000080: ee47 623d 7a2a 13be eb9f a83e ab61 2a3d
00000090: c31d ef3d 14dd 1abe 8fea ac3e da00 05be
000000a0: f0bb a03e 8995 883e 42d2 cbbd e32c fb3d
000000b0: 320c 29be a758 823e 953e 893e 90e0 983e
000000c0: 8638 02be ca4d 163e af5d 153d 90c1 21be
000000d0: bbe9 9fbe 050f 773e 5173 09be 07ae 513e
000000e0: 24ea 443e fb28 0bbe 70d5 44be 7ff0 4f3e
000000f0: d4ff 8a3e 573e 9f3e 9d19 11be 3336 46be
00000100: 4427 a63e 4aed 433e 4be6 403e e865 833e
00000110: d9c2 243e fc22 ee3d b177 b5be 3b37 573e
00000120: 280c 07be ebee bc3d 0907 26bd 918c 17be
00000130: 7a1a 7f3e 933e 8bbe 2b3a eabc 98b1 05be
00000140: a5c5 3abe ffdd 8bbe 4890 89be 205a 7cbe
00000150: 6951 20bd 44ab 5b3e 6256 c03c 86da 5dbe
00000160: c613 9fbe 5f9a 313e 7185 9e3d 894d 0abe
00000170: 975e 8a3e 069c 813e de21 9dbe c4d6 aabd
00000180: 7be9 22be b651 943d a9c9 a33e 569f 3d3e
00000190: 6136 2e3e 6503 3bbe 9d40 45bd 8992 8b3e
000001a0: acae bcbe 0140 7fbe 3099 36be 1b8d a23c
000001b0: 766e 27be b6fb d8bd 1a79 473d a740 88bd
000001c0: a7e7 2dbe 96ff 7abe ab12 2e3d 94c2 6abe
000001d0: 75ef 343e 9251 9e3e 9d44 67be ac3b 2fbe
000001e0: 3685 9d3c ac8d b1bd e5d8 f3bd 25df 8b3d
000001f0: 3625 4d3e 3f24 053e 4361 8c3c 20d4 72be
00000200: d670 8dbe 2ab6 3ebd 43a2 913d 6fd5 fa3c
00000210: 4a78 943e 9cb0 abbe 987d 83be 60f3 823e
00000220: 64ef 72be 69fa bb3c 599e c93d c482 51be
00000230: 4a98 08bc 2590 8a3e e635 32be d8f2 873e
-0.07178618 0.047770306 0.32072213 -0.070296474 -0.20923728 0.2383528 -0.07985007 -0.19412504
0.23083675 0.1510876 0.2621629 -0.22892623 0.071673125 -0.1468229 0.10498199 -0.30257404
-0.12351771 -0.03919727 0.2646398 0.26360768 0.2964689 0.0042450475 0.070237204 0.24573852
0.31284058 0.16776966 -0.22694126 -0.2040981 -0.063939944 -0.32291117 0.12762842 0.29549983
0.05524438 -0.14371672 0.32934508 0.04159705 0.116755985 -0.15123397 0.33772704 -0.12988606
0.31393385 0.26676586 -0.09952213 0.12264421 -0.16508558 0.2545826 0.2680556 0.29858828
-0.12716874 0.14678112 0.036466297 -0.15796494 -0.3123301 0.24126823 -0.13422896 0.20476542
0.19229943 -0.13589852 -0.19222045 0.20306586 0.27148306 0.3110225 -0.14169927 -0.19356613
0.32451832 0.19133487 0.1883785 0.25663686 0.16089953 0.116277665 -0.3544288 0.21017163
-0.13188231 0.092252575 -0.040534053 -0.14799716 0.24912444 -0.27196178 -0.02859219 -0.13056028
-0.18239458 -0.27317807 -0.2686789 -0.24643755 -0.03914014 0.21452051 0.02347869 -0.21665391
-0.31069773 0.17344044 0.07740296 -0.1350614 0.2702529 0.2531435 -0.306899 -0.083417445
-0.15909378 0.072421476 0.31989792 0.18517813 0.17012931 -0.18263014 -0.048157323 0.27260235
-0.36852014 -0.2492676 -0.17831874 0.019842675 -0.16350731 -0.10594885 0.048699476 -0.066529565
-0.169829 -0.24511561 0.042498272 -0.22925788 0.1766947 0.30921608 -0.22584768 -0.17112607
0.019228559 -0.086696 -0.11906604 0.06829671 0.20033726 0.13002108 0.017136222 -0.23713732
-0.2762515 -0.046560444 0.07111027 0.030619351 0.28998023 -0.3353318 -0.25681758 0.25576305
-0.23724133 0.022946553 0.098446555 -0.2046004 -0.00833709 0.270631 -0.17403373 0.26552463

ConvBase.1.feature.lis.3.X_conv.conv.bias f4 [16]
00000000: 4710 a3bd a822 7dbe a1cf 523e 8e72 9b3d
00000010: ddd6 d53d 1335 af3d f673 92be bce3 663e
00000020: 7298 6d3e 591a 153e 3e98 883e cf15 233e
00000030: 5c9d 953e a47c b83d 79b7 5ebd de39 8ebc
-0.07962089 -0.24720252 0.20587017 0.07590209 0.104413725 0.08555045 -0.28604096 0.22547811
0.23202685 0.14560832 0.26678652 0.15926288 0.29221618 0.09008148 -0.054374192 -0.017361578

ConvBase.1.feature.lis.3.Y_conv.conv.weight f4 [16, 1, 1, 9]
00000000: bea8 acbe ce54 86bd 1b64 a3bc e4b3 a9be
00000010: 949d 24bd d2fd 973e cc24 3d3e 134c 17be
00000020: 6389 10be 6f33 de3d 6f0f c2bd 3b64 03be
00000030: 72c9 b93c c3d3 3abe 045a 2dbe 4f99 803e
00000040: c1fd b33c 4a72 51be 0df1 75bd e6aa 403e
00000050: 6e5a a33e 90b4 83be 359e 013e 37bd 163e
00000060: a9d5 2dbe 0565 d33d 1b1c 593e 4019 863e
00000070: 64f6 353d 22b1 10be f6f1 0dbe 9581 433e
00000080: 5d1c 82be 78d8 7e3e 4887 abbe c727 763d
00000090: b14a 3d3e 28ff 42be 389f 05be dbd0 173d
000000a0: ec16 03be 16b4 c4bc d5fb 2ebd 9513 aebc
000000b0: 0429 a9bd 67fe 803e 5f2f dcbd 5d67 c63b
000000c0: 795a 313e 65cd 143d 2d0d 1cbd 3ae2 8b3e
000000d0: 3ce7 753e 8b2b 9ebe 769d 86be a012 123e
000000e0: fd99 a23d 8078 a6bd 6b53 8b3e a97f 013e
000000f0: a64b 99be 7603 2f3e dda2 51be a866 3bbe
00000100: f62c 3c3e 00a8 7dbe 783d 373e 2ef4 983e
00000110: cf84 92be 3def 21be 600e a83e 7c1a 67be
00000120: 7344 873e 0a56 1ebe 6579 3e3e 0921 83bd
00000130: d18c 64be 9ac2 993c d884 f33d 6a9b 893c
00000140: 115d a6be bcdc 073e 242f 293e 45d1 87bd
00000150: 5f0d 0fbe 01fe 2f3e db45 34be 09ee 1c3e
00000160: d2c9 1cbe e79d 8c3d fc9a 783b 41f8 153e
00000170: 41c8 91bc 1695 8e3e 837e 3f3e 44c8 fc3d
00000180: 3921 0fbe 5c0b 983d ffb4 ac3e 4662 213e
00000190: 9384 b5bd eab6 05be 808f 8cbc 76b5 5b3e
000001a0: 8c05 3e3e f259 9cbe ce20 9d3e a36a d83c
000001b0: 5bbc 49bd 8f35 983e 0afa 3f3e 3583 b2bd
000001c0: 86d8 1b3e 9a5c 843e c479 18be e494 91bd
000001d0: 0466 143d ef97 853e 3d03 c43d d250 483e
000001e0: ec25 79bd 8597 083e c206 bf3c 9ee3 56bd
000001f0: fd54 fc3d bf5c 003e f223 0abe c1a2 00be
00000200: 5989 0bba 210e 71be 3ff6 643e 8a43 603e
00000210: 9755 803e 5851 3fbd 1cb2 9a3d 5049 4f3e
00000220: 5e2d f7bd 772b 1dbe 8d64 2f3e 69d6 993e
00000230: a5ca 45be c8df 61be 7299 53bd 2c88 5ebe
-0.3372249 -0.06559144 -0.019945195 -0.33145058 -0.04018934 0.29685837 0.18471068 -0.14775114
-0.14114909 0.10849654 -0.094756 -0.12831204 0.022679064 -0.18244843 -0.1692887 0.25116965
0.021971585 -0.20453754 -0.060044337 0.18815193 0.3190493 -0.25723696 0.12658007 0.14720617
-0.16976036 0.10322002 0.21202128 0.2619114 0.04442443 -0.14130071 -0.13861832 0.190924
-0.25412264 0.24887264 -0.3350165 0.06009653 0.18485524 -0.19042647 -0.13049018 0.037064414
-0.12801713 -0.024011653 -0.042720634 -0.021249572 -0.08259776 0.25194094 -0.10751223 0.0060548023
0.17319669 0.036328692 -0.038098503 0.27321035 0.2401399 -0.30892596 -0.26292008 0.14264917
0.07939527 -0.08128452 0.2721208 0.12646355 -0.29940528 0.17091164 -0.20472284 -0.18300879
0.18376526 -0.24771118 0.17894542 0.29873794 -0.2861695 -0.15813918 0.32823467 -0.22568697
0.2641941 -0.15462509 0.18600996 -0.06402785 -0.22319342 0.018769551 0.11890572 0.01679774
-0.3249288 0.13267797 0.16521889 -0.06631712 -0.13969944 0.17186739 -0.17604773 0.15325178
-0.15311363 0.06866055 0.0037934175 0.14645483 -0.017795684 0.2784812 0.18700604 0.12342885
-0.13977517 0.07424042 0.3373184 0.15760145 -0.08863177 -0.13058057 -0.01715827 0.2145594
0.18556803 -0.30537373 0.3068909 0.026418036 -0.049251895 0.29728362 0.18747726 -0.08716432
0.15219316 0.258519 -0.148902 -0.07108477 0.036230102 0.2609248 0.0957093 0.1956208
-0.06082718 0.1333905 0.023318652 -0.052463166 0.12320898 0.1253538 -0.13490275 -0.12562086
-0.00053228956 -0.23540546 0.2235956 0.21900764 0.250653 -0.046708435 0.07553503 0.2024281
-0.120692 -0.15348612 0.17128201 0.30046394 -0.19315584 -0.22058022 -0.05166001 -0.21731633

ConvBase.1.feature.lis.3.Y_conv.conv.bias f4 [16]
00000000: cf5d b53d a25d 25be 7698 1a3e 0df9 d2bd
00000010: 00d7 8dbe 2451 01be d357 823d 7aa1 66be
00000020: 8a01 003e 4ccf dabd 3c50 733d 3a6f 1c3e
00000030: d87a e83d d8ef ddbd 4a5a 163e 3830 643b
0.08855783 -0.16149 0.15097222 -0.10301409 -0.27703094 -0.12628609 0.063644074 -0.22522536
0.12500587 -0.1068407 0.05940269 0.15276805 0.113515556 -0.10836762 0.1468288 0.003481878

ConvBase.1.feature.lis.3.pointwise.weight f4 [16, 16, 1, 1]
00000000: dbc6 cb3d f85c 89bb b60e 3d3d 86fc 88bd
00000010: 5651 483d f183 93bb c6e0 8bbd 41cf a73d
00000020: da6c ca3d 4be1 043d db38 bf3d f430 de3c
00000030: 9598 49be 9ba3 03be b8f9 0fbd dee3 d03d
00000040: d241 823e 5704 95bd 9809 9fbd 8fcd 043e
00000050: 9b19 ba3d 1850 833d 9f09 723e 054b 1b3e
00000060: 575c 27be 0db1 d1bd b28b 833d 890c 8c3e
00000070: e49e 1b3c ec22 4d3e 9c2a 9d3d befb a3bd
00000080: 9713 cd3d 794e a2bd 7eb0 7cbe 82b8 e83d
00000090: f608 42be 24d3 ce3d 1940 2fbe c771 433e
000000a0: 9b63 acbd 5f47 fcbb 2343 2fbd 259d 80be
000000b0: a79f 083d 61e2 a83c e6b5 2cbe fd51 34be
000000c0: aa42 c33d 26ba dcbd fb79 3bbe a644 cdbd
000000d0: 9783 0abe f74f 1e3d 7a99 1ebe b820 49be
000000e0: 4ef7 bd3d 9bc5 67bc d274 213e 195f 3c3e
000000f0: 94e6 bc3b 9659 1cbe 7d30 683d 34a4 043e
00000100: fc12 31be d174 3a3e 9460 7a3d 4da8 813c
00000110: 2d01 26bd f5bf e1bd 2556 3c3e 6b6f 5f3e
00000120: 6f1b 98bc 2299 4cbd ca77 113e e35b b73d
00000130: 05c0 d63d b9ff b6bd f863 39be ec5a 69be
00000140: b9bc 6ebe f054 7e3c 5330 2abe 973a bfbd
00000150: 0f2b 4d3e 9a55 0ebd 7270 64be 7c61 85bc
00000160: d0e9 9bbd e385 623c 74bc c0bd 0b20 c9bd
00000170: a840 37be 59df 6dbe 4b6d e6bd db23 14bd
00000180: 8776 c7bc bf30 debd a750 2a3e c285 95bd
00000190: f216 1e3e 6cd9 3c3e 91fe 363e a597 42be
000001a0: c7fa 6abe 2d14 d7bc e968 113e 4e9f 4cbd
000001b0: 1565 7d3e d86b 36be 9188 4e3e 57a0 26bc
000001c0: 7b23 2c3e 4c17 5cbe 020e cf3b 5828 ddbd
000001d0: 15ee eabc 0ef0 fbbd dec2 e43d 4a4b 28be
000001e0: e414 29be 517d ec3b 2318 30be b58b e63d
000001f0: 8600 95bd bae5 d2bd 7198 243e d22c 253e
00000200: 19bb 27be 8429 d6bc 2dc1 823e ca1f e63c
00000210: 9fea 10be 9ba6 d0bd b70d 21bd 4837 223e
00000220: 9dfe 75be d0e6 833d 00e3 a3bc 6083 7ebe
00000230: a756 933c 261e 3f3e 24ca c03d f42c cbbd
00000240: 1945 333d 3476 edbd ecf5 33bc 521d abbc
00000250: 289a 853e 5715 26be bc66 0bbe 322b fa3c
00000260: 6230 ab3b a292 f2bc 53a2 4d3e 334e 4c3e
00000270: d6d4 1c3c 9b91 82be 87f6 673e da7e f63d
00000280: e39e 023e f4c5 7bbd d3ee 133e 3164 ca3d
00000290: b70a 1e3d cdd2 483d 6686 343e fb2c 34be
000002a0: 63eb c9bd 50ab 383d 893c 4e3e 6e00 703d
000002b0: 481e a2bd 3192 d73c b095 dabc 1a7c 223e
000002c0: e41c 1e3e 71f1 863d 5ff3 4c3d 8d56 19bd
000002d0: 7581 78bd ddce 233e ec1f 23be df73 76be
000002e0: e0ec 303e c175 0bbe 2e5d 7c3e 19b4 abbd
000002f0: 5274 81bc 3a96 5e3e 0075 2d3e f856 433e
00000300: 3a4e 78be 5ca2 523d f4ee 5cbe 0dd9 873d
00000310: f6e1 b83d 7ff2 543e 243c 49be 7226 293e
00000320: 3c63 473e 0ec6 ac3b 8ee3 13bd 8138 493e
00000330: 1655 07bd 830d 6dbe a7e0 3e3e bd27 d63c
00000340: 3183 8f3d 3208 f53d 3f66 0a3e bb1a d83d
00000350: af97 2e3e 9637 14be 1594 bcbd 0ad7 c2bd
00000360: 4b10 ea3d ab3b 34be dba5 b83d c2e9 35be
00000370: 8a96 93bd c75b 85bb 2904 0dbd e177 e4bd
00000380: 5db1 c93d 5a30 b53c e187 643e 3235 453e
00000390: f5d9 2f3e cf6d 5abe 7587 b23d 9d27 483e
000003a0: e402 95ba bd4c 46be 72b0 7b3e 2703 853c
000003b0: e05d 02be 5a15 263d a161 783e d5b0 0b3e
000003c0: ebda 76bc 02f8 053e 0dc8 0d3e 8c99 4c3d
000003d0: 02f3 61be 462b 54be 76a5 24be e1d2 49be
000003e0: 4d59 5e3c c453 23bd 1e63 103e 5cc9 703a
000003f0: d55b 01be 18be 54be 0e6a e13c 1012 4b3e
0.09950038 -0.004191991 0.046156608 -0.0668879 0.048905693 -0.0045018126 -0.068299815 0.081938274
0.09884043 0.03244142 0.09337016 0.027122952 -0.19687112 -0.1285538 -0.03515026 0.10199712
0.25440842 -0.072762184 -0.07765502 0.1296904 0.09086915 0.06411761 0.23636483 0.15165336
-0.16343819 -0.10238848 0.06423129 0.27353314 0.009498332 0.20032853 0.07674143 -0.080070004
0.10013502 -0.07925124 -0.24676701 0.11363317 -0.18948731 0.10098866 -0.17114295 0.19086371
-0.08417436 -0.007698938 -0.042788636 -0.25119892 0.03335538 0.020615758 -0.16866264 -0.17609401
0.095341995 -0.107776925 -0.1830825 -0.10022859 -0.1352676 0.03865048 -0.15488234 -0.19641387
0.09275685 -0.014146234 0.1576722 0.18395652 0.0057647917 -0.1526855 0.056686867 0.12953264
-0.17292398 0.18208624 0.06112726 0.015827322 -0.040528465 -0.11022941 0.18392237 0.21819846
-0.018567769 -0.049950726 0.14205852 0.08953073 0.104858436 -0.08935494 -0.18104541 -0.2278859
-0.2331418 0.01552318 -0.16619997 -0.09337347 0.20035957 -0.034749605 -0.2230852 -0.016281836
-0.076129556 0.013825866 -0.094109446 -0.09820565 -0.17895758 -0.23229732 -0.11251315 -0.036167007
-0.02434851 -0.10849141 0.16632329 -0.07300903 0.1543844 0.18442315 0.17870547 -0.1900316
-0.22947226 -0.026254738 0.14200176 -0.049956612 0.24745591 -0.17814577 0.20169283 -0.010170064
0.1681041 -0.21493262 0.0063188085 -0.107987106 -0.02867798 -0.12301646 0.111699805 -0.1643497
-0.16511875 0.0072170873 -0.17196707 0.11257116 -0.072754905 -0.10297723 0.16073777 0.16130379
-0.16379966 -0.026142843 0.25538006 0.02809133 -0.14152001 -0.101880275 -0.03931972 0.158414
-0.24022909 0.06440508 -0.020005703 -0.24854803 0.017985655 0.18663844 0.09413555 -0.099206835
0.04376707 -0.11594811 -0.010983925 -0.020888004 0.26094174 -0.16219078 -0.13613409 0.030538175
0.0052242735 -0.029610936 0.20081453 0.19951706 0.009572228 -0.25501713 0.22652636 0.12035914
0.12755923 -0.06146808 0.14446573 0.09882391 0.038584437 0.04902916 0.17629394 -0.17595284
-0.098593496 0.04508525 0.2014028 0.05859416 -0.07915932 0.026314827 -0.026682705 0.15867653
0.15440708 0.0658902 0.050036784 -0.037436057 -0.060670335 0.15996881 -0.15930146 -0.24067639
0.1727786 -0.13619138 0.2464492 -0.0838396 -0.015802536 0.21736994 0.16939163 0.19076145
-0.24248591 0.05142437 -0.21575528 0.06633196 0.09027474 0.2079563 -0.19651848 0.16518572
0.19471449 0.0052726334 -0.036105685 0.19650461 -0.03304013 -0.23149686 0.18640386 0.026141996
0.07007445 0.11964454 0.13515566 0.105519734 0.1705005 -0.1447433 -0.09207932 -0.09513672
0.11428889 -0.17600887 0.090160094 -0.17764953 -0.072064474 -0.0040697786 -0.034427796 -0.111556776
0.098482825 0.022117782 0.22317459 0.19258574 0.17172988 -0.21330951 0.08717243 0.19546361
-0.0011368659 -0.19365211 0.24579027 0.016236855 -0.12731123 0.040547706 0.24255992 0.13641675
-0.015066843 0.13082889 0.13845845 0.04995112 -0.22065356 -0.20719633 -0.16078743 -0.1970935
0.013571096 -0.039874807 0.1410031 0.00091852783 -0.12632687 -0.2077564 0.027516391 0.19831109

ConvBase.1.feature.lis.3.pointwise.bias f4 [16]
00000000: 8086 833e a4bd e43d d420 f7bd 4d77 40be
00000010: 51a2 c5bb af1f 393e 0f47 253e 7265 5c3e
00000020: ce6b 22be da58 d1bd 4f30 21bc a1df 283d
00000030: 4bcb e2bd 0e37 22bd 09ab a93d a9da 503e
0.25688553 0.111689836 -0.12066808 -0.1879551 -0.0060313125 0.18078493 0.16140388 0.21523073
-0.15861437 -0.10222025 -0.009838178 0.041228894 -0.11073931 -0.039603285 0.082845755 0.20395912

ConvBase.1.feature.bn.weight f4 [16]
00000000: 8edc 7a3f e2d8 5f3f 8e7c f63e 89cc 073e
00000010: 2469 2b3f 6e5d 1a3f 5a0c 643f 3b86 033f
00000020: 6d0f 733f dba5 253f 55d2 7a3e ae34 073f
00000030: e5d1 4e3f e0ac 0f3e 8182 5b3e 6680 953e
0.9799279 0.8744031 0.48141903 0.13261618 0.66957307 0.6029881 0.89081347 0.51376694
0.9494541 0.647062 0.24494298 0.5281476 0.80789024 0.1403079 0.21436502 0.29199523

ConvBase.1.feature.bn.bias f4 [16]
00000000: 9d27 a4bb 6485 5b3c 5b79 29bc a0d7 1f3d
00000010: 22f7 89ba 1273 7abc c411 203c 3f4d 033d
00000020: 494a d1bc 34ab bf3c b127 c43c 57fe 8e3c
00000030: 3e1e 153d f45c da3c 3386 3a3d b007 0d3b
-0.005009605 0.013398502 -0.010343875 0.039023995 -0.0010525922 -0.015286224 0.009769861 0.03205609
-0.025548117 0.023397066 0.023944708 0.017455263 0.036405794 0.026655652 0.04553814 0.0021519475

ConvBase.1.feature.bn.running_mean f4 [16]
00000000: 0614 773e 0c64 0cbe 9d8f a53c 115a c2be
00000010: dad4 4e39 674c a1be dcf0 05be dc7c c03e
00000020: 7e88 aabe f9dc ca3d f1f3 bebd 3607 e0bc
00000030: 2bd6 6dbd fc1c 393d 6e5e 623b 76c5 0e3d
0.24128732 -0.1371004 0.020210082 -0.3795934 0.00019724984 -0.31503603 -0.13080162 0.3759526
-0.3330726 0.099054284 -0.09323872 -0.027347188 -0.058065575 0.045193657 0.0034541148 0.034856282

ConvBase.1.feature.bn.running_var f4 [16]
00000000: a7b4 143b 9dc7 f53a f02d 4c3b aedf 343b
00000010: 0448 063b 94a5 8e3b 46bd 713b c5b6 763a
00000020: 6e65 613b ff76 0e3b d775 e23a 6722 3c3b
00000030: 988b 1f3b 9e2b dd3a 680f 303b 1075 203b
0.0022690685 0.0018751506 0.003115531 0.0027599144 0.0020489702 0.0043532345 0.0036886497 0.000941139
0.0034392732 0.0021738408 0.0017277551 0.0028707029 0.002434468 0.0016873961 0.0026864652 0.0024483837

ConvBase.1.bn.weight f4 [64]
00000000: 6b6c df3e d4a3 ce3d 78f0 f33d e6bb 9d3d
00000010: 78ca bd3e 3850 423f ba17 663f a2d2 afbb
00000020: 0025 313f 10a5 643f 7369 833e 2605 0e3f
00000030: 909d 3b3d 34e6 023e d76c 483f 74e0 423f
00000040: 9de1 473f b644 4f3f 4a8d 4b3f 0712 d03e
00000050: e34c b53e 9578 553f 5026 193f 531d 893e
00000060: fccc 5a3f 1178 1f3f f6fe fa3e 220c 143f
00000070: 0bf2 4f3f 6652 c23e 1210 993e 8421 6f3f
00000080: ae83 313f cbdd c83e ba9a 053e 545d 703f
00000090: 6096 923e c1c7 503f 3b01 983e 714c eb3e
000000a0: 5098 b63e dc11 3b3f d05d a03e 8dd3 033e
000000b0: 0565 953d 9d93 e63e 1a58 3d3e a24d 4d3f
000000c0: 1b09 403f 689e fc3e 3504 8c3e 53fa 2d3f
000000d0: 9c23 a43e ad3c 7c3f fdc7 6fbb 4d56 6e3f
000000e0: efcb 703f d20e 623e 6c99 983e 9a18 2b3f
000000f0: 1933 ed3e 7312 143e d809 5c3f a704 363f
0.43637404 0.100898415 0.119111 0.077018544 0.37068534 0.75903654 0.89879954 -0.0053656856
0.6919708 0.89314365 0.2566639 0.55476606 0.04580456 0.12783128 0.78291076 0.7612374
0.78078634 0.8096422 0.79512465 0.40638754 0.35410222 0.8338712 0.59824085 0.26780185
0.8546903 0.6229258 0.49022645 0.57831013 0.81228703 0.3795349 0.29895073 0.93410516
0.6934155 0.39231715 0.13047305 0.9389241 0.28630352 0.815548 0.2968844 0.45956758
0.3566308 0.73074126 0.31321573 0.12873669 0.072946586 0.45034495 0.1849064 0.80196583
0.75013894 0.49339604 0.2734696 0.6796009 0.32058418 0.98530084 -0.0036587708 0.93100435
0.9406118 0.22075966 0.29804552 0.66834414 0.46328047 0.14460163 0.8595252 0.7110085

ConvBase.1.bn.bias f4 [64]
00000000: 7fc3 b73c ffd7 6e3c 13c9 5f3c 7548 403c
00000010: 1edc fbbc 3fc9 dbbc 4f4d 243d 8a62 5ebc
00000020: 8ecf 9e3c 3d15 893b ea98 caba d87a 8bbc
00000030: 0ab6 e2bb 2117 cb3b 4395 2bbd d204 263d
00000040: 0b6d 72bb dd99 c5bc 4e10 64bc 6242 21bd
00000050: 3916 b43c 4fec 31bc fc97 b03c 235a a4ba
00000060: 3b0d dfbc 21a6 4b3c 9099 e7bc 7131 b53c
00000070: 4918 f23a 7047 e3ba 2e5c 163c 7aa1 eabb
00000080: 8ed9 0fbc 9630 cbbc 3ba7 edbc bfcc 413d
00000090: eeaa 91bb 82f7 4b3c 7d1a ea39 4d50 a8bb
000000a0: 07ab a23c b5ce 36bd f509 c73c 002f 11bc
000000b0: 62bd 033d d6f0 c03c 791b b5bb e150 f33c
000000c0: d61c 13bc bf03 023d bbcb 293c 4eb5 cd3c
000000d0: fbc7 a13c f00d 12bd 829c 89bc 88e9 193c
000000e0: 19df edbc 1aca 9e3c 7348 533c 52c1 cc3c
000000f0: 5424 183b a988 093c 9d80 d6bb b3c0 e63b
0.022432087 0.014577865 0.01365878 0.011736025 -0.030744608 -0.02682936 0.04011279 -0.013573298
0.01938608 0.00418344 -0.0015456949 -0.01702635 -0.0069186734 0.0061978255 -0.041890394 0.04053194
-0.0036991264 -0.02412122 -0.013919903 -0.03936995 0.021983253 -0.010859563 0.021556847 -0.001253907
-0.027227988 0.012429745 -0.028271466 0.022118302 0.0018470372 -0.0017340016 0.009177251 -0.007160363
-0.008779896 -0.024803441 -0.029010406 0.0473144 -0.0044454252 0.012449147 0.00044651693 -0.0051365257
0.019856943 -0.044630725 0.02429674 -0.008861303 0.03216303 0.02355234 -0.0055269566 0.029701652
-0.008979043 0.031741854 0.010363515 0.025110867 0.019748678 -0.035657823 -0.016798262 0.009394057
-0.029037045 0.019383479 0.012895691 0.024994526 0.0023215013 0.008394399 -0.0065460936 0.0070420145

ConvBase.1.bn.running_mean f4 [64]
00000000: a05f 463e 6a33 113e 3e5e ed3d 6aa0 753d
00000010: bf24 1b3e 0e44 fd3c c0e0 a53c c171 0c3e
00000020: 0b6c 6d3e a94e 2d3e fc40 993d 462c 083d
00000030: 7e37 5e3e 0d59 da3c ae9d 913d 1118 8b3d
00000040: 675d 7b3e 4191 5f3e 3269 be3d a71c 903d
00000050: 4742 4a3e 4c2b 403e aaee 323e 6b23 0b3e
00000060: 9e17 093e e6f2 463e 4824 873d 0a33 153e
00000070: b30d 163e a4d5 5e3d e154 9c3d b55a 9b3d
00000080: 4d38 b03e 9fd0 8f3e 2d75 0f3e 7c1d 563d
00000090: 9b95 643e 0da4 533e 3503 7e3e 8fb1 4b3e
000000a0: 20b8 773e 69b4 fc3d cbb3 913d d121 273e
000000b0: c27b 783e b068 4f3d 12de 8d3d 855b a53d
000000c0: eaa0 833e 49dc 9f3e 57ea 093e ec02 883d
000000d0: 1e8a 483e 97ee 213e 8382 723e a927 4a3e
000000e0: 6745 893e 9849 643e 3437 b53d 584c 2b3e
000000f0: a754 993e 9f7f 773d b464 ab3d c401 e03d
0.19372416 0.14179769 0.11590241 0.059967436 0.15150736 0.03091624 0.02024877 0.13715269
0.23185746 0.16924538 0.07483098 0.033245347 0.21700856 0.02665379 0.07110153 0.067917
0.24547349 0.21832754 0.09297408 0.07036715 0.19751845 0.18766516 0.17473856 0.1358773
0.13387915 0.19428596 0.06598717 0.14570251 0.14653663 0.054402962 0.07633377 0.0758566
0.34417954 0.28088853 0.14009543 0.052274212 0.22322695 0.20668049 0.24805911 0.19891952
0.24191332 0.12339098 0.07114371 0.16321494 0.2426596 0.050636947 0.06927122 0.080740966
0.25708705 0.31222752 0.134683 0.06641182 0.19583938 0.15813671 0.23682599 0.19741692
0.26810762 0.22293699 0.0884842 0.16728342 0.29947397 0.060424443 0.08368817 0.10937837

ConvBase.1.bn.running_var f4 [64]
00000000: e9c5 c33d a941 3e3d 9dfe 123d 235f 8a3b
00000010: c4f3 6b3d 5008 5a3b 271d 113b 5d59 073e
00000020: d898 fd3e 980a 603e a95f 143d 8a2d b93b
00000030: 399f b33e b4e1 7234 a981 b23c 05e6 373c
00000040: 5231 be3e b6da d83e 3729 e13d 3473 073c
00000050: 90a6 d93d b314 503e 7c42 273f 7ae9 393e
00000060: c013 093e d10a 813e 32c7 013d 2d8d 0d3e
00000070: bd3d 313d 7840 3d3c 4657 4c3b 3394 863d
00000080: 4440 013f 489f 763e 960e 953d 95fb 0a3c
00000090: 6299 033e a596 2d3e 4b38 bb3d bd98 f63d
000000a0: bc3f c03d 81e9 b23e b9b6 133d 1c80 733d
000000b0: 7749 f13e 6e25 043c 60f7 0e3d d2d5 c93c
000000c0: cc70 3e3f 6056 633e 4af4 883d 11e9 f03b
000000d0: 586b 173e ce70 3d3e 82e0 663e d50b db3d
000000e0: 3690 f63e 62c2 9c3d 3e1d 193d 9f8b 283e
000000f0: bbc0 873e b646 403c 962f e53c 20c9 3a3d
0.09559233 0.046449337 0.03588735 0.004222767 0.05760552 0.0033269115 0.002214262 0.13217683
0.49530673 0.21879041 0.03622404 0.0056511806 0.35082415 2.2620117e-07 0.021790342 0.0112242745
0.37147003 0.42354363 0.10994189 0.008267213 0.106274724 0.20320396 0.6533582 0.1815547
0.1338644 0.25203565 0.031684108 0.13823386 0.04327177 0.011551015 0.0031179949 0.065712355
0.50488687 0.24084198 0.07278173 0.008482833 0.1285148 0.16951998 0.091415964 0.12040851
0.09387156 0.34943774 0.03606293 0.059448346 0.47126362 0.008065565 0.034903884 0.02463809
0.74390864 0.22200918 0.066872194 0.0073520024 0.14787042 0.18500063 0.2254658 0.10695616
0.481569 0.07654263 0.037381403 0.16459511 0.2651423 0.011735609 0.027976792 0.045601964
