waights/weights20.pth (torch_old, 670822 bytes, 196 tensors)

ConvBase.1.feature.lis.0.X_conv.conv.weight f4 [1, 1, 3, 1]
0	0xbc11dee8	-0.008903243
1	0xbe49887b	-0.1968097
2	0xbe00c180	-0.12573814

ConvBase.1.feature.lis.0.Y_conv.conv.weight f4 [1, 1, 1, 3]
0	0x3e9d0e30	0.30674887
1	0xbd933435	-0.07187692
2	0xbe117347	-0.14204131

ConvBase.1.feature.lis.0.pointwise.weight f4 [16, 1, 1, 1]
0	0xbeba090d	-0.3633503
1	0xbe6b5b87	-0.22984134
2	0xbf459368	-0.7717805
3	0xbf6f0d80	-0.93379974
4	0xbefd13d9	-0.49429205
5	0xbdab8e86	-0.083767936
6	0x3cb48082	0.022033934
7	0x3f156141	0.5835152
8	0x3f547ae1	0.83
9	0x3f285801	0.65759283
10	0x3f6cbbad	0.9247387
11	0x3d710b8c	0.058848903
12	0x3f32399e	0.69619167
13	0xbb006bef	-0.0019595583
14	0x3eec6cd7	0.46176788
15	0xbf011418	-0.50421286

ConvBase.1.feature.lis.0.pointwise.bias f4 [16]
0	0x3f50641b	0.8140275
1	0xbe8fa30a	-0.28054076
2	0x3f362fe9	0.71166855
3	0xbf858a33	-1.04328
4	0xbe999241	-0.29994395
5	0xbf4fcef5	-0.81175166
6	0xbea9085c	-0.3301419
7	0x3f6c204f	0.922368
8	0xbf2fb898	-0.6864104
9	0x3e848114	0.2587973
10	0xbee3ab45	-0.44466606
11	0xbf0ac33e	-0.54204166
12	0x3d581ebc	0.052763686
13	0xbd972f9f	-0.0738213
14	0xbe91257a	-0.28348905
15	0xbeca0ae4	-0.39461434

ConvBase.1.feature.lis.1.X_conv.conv.weight f4 [16, 1, 5, 1]
0	0x3e7630b8	0.24042022
1	0xbe9a8e33	-0.30186614
2	0x3bd1221e	0.006382241
3	0x3eb6d6c8	0.3571074
4	0x3e81ad48	0.25327516
5	0x3cc02415	0.023454705
6	0x3eacf74c	0.33782423
7	0x3af2b551	0.0018517171
8	0x3e16b80d	0.14718647
9	0xbe8af1e1	-0.27137664
10	0xbe5950e9	-0.21222271
11	0xbe9ba7ea	-0.30401546
12	0xbd4c41bf	-0.049867388
13	0x3e9184d9	0.28421667
14	0xbddf4027	-0.10900908
15	0xbd1cc48f	-0.03827339
16	0x3d369dd7	0.04458412
17	0x3e3b56c5	0.18294819
18	0x3ed39551	0.41324857
19	0x3c1c95fd	0.009557244
20	0xbec4b8fb	-0.3842238
21	0xbdca0508	-0.09864241
22	0x3ceb067f	0.028689621
23	0xbea48a4b	-0.3213676
24	0x3eb48cf6	0.35263795
25	0x3dee8b29	0.116476364
26	0x3e8120bd	0.2522029
27	0xbec3c386	-0.3823511
28	0x3e628f15	0.22124894
29	0x3e1fc7e7	0.156036
30	0xbe8df097	-0.27722618
31	0xbe33e829	-0.17569031
32	0xbe3d18af	-0.18466447
33	0x3e46a53e	0.19398972
34	0xbc436d84	-0.011927966
35	0x3d87985d	0.06620858
36	0xbd6a4a10	-0.057199538
37	0x3edb2174	0.4279896
38	0x3ece6a46	0.40315455
39	0x3e063e54	0.13109714
40	0x3d4af6cf	0.04955178
41	0xbea96a5b	-0.33088955
42	0x3eb0cc48	0.34530854
43	0x3e6bf95a	0.23044339
44	0x3dc93a5f	0.098255865
45	0xbea0ec97	-0.31430504
46	0xbe991c40	-0.29904366
47	0x3dbc15ba	0.091838315
48	0x3e0933ad	0.13398619
49	0xbec7e52c	-0.39042032
50	0xbd8d5129	-0.06900246
51	0xbd8db148	-0.06918579
52	0xbee88c4d	-0.4541954
53	0xbca6dc3f	-0.020368693
54	0x3ebf840a	0.37405425
55	0xbedd9cbc	-0.4328364
56	0xbee1d88d	-0.44110528
57	0x3e97b1e7	0.29627916
58	0x3e4a06d5	0.19729169
59	0x3ebf1ead	0.3732809
60	0xbe30b419	-0.17256202
61	0xbd70e3f6	-0.05881115
62	0xbd842fe1	-0.06454445
63	0x3ecee19a	0.40406495
64	0xbe86c2dd	-0.26320544
65	0xbeb4875b	-0.35259518
66	0x3eb2424f	0.34816214
67	0xbe372f07	-0.17889033
68	0x3db23250	0.087010026
69	0xbd9d6bc9	-0.07686574
70	0xbcc782f9	-0.024354445
71	0xb978bd20	-0.00023721578
72	0xbe954be1	-0.29159454
73	0xbee2b416	-0.4427802
74	0x3e815137	0.25257275
75	0x3eb7c155	0.35889688
76	0xbd52f0a8	-0.05149904
77	0x3e25ad3c	0.16179365
78	0x3e4ab7fd	0.19796748
79	0xbed016cb	-0.4064239

ConvBase.1.feature.lis.1.X_conv.conv.bias f4 [16]
0	0x3caaef91	0.020866187
1	0x3db320ac	0.08746466
2	0x3d55a17d	0.05215596
3	0xbee78a0b	-0.45222506
4	0xbe95733f	-0.29189488
5	0xbec9cddf	-0.3941488
6	0xbee97fd1	-0.4560533
7	0x3dc96643	0.09833958
8	0x3e2258e3	0.1585422
9	0xbe16bc94	-0.14720374
10	0x3e9c447d	0.30521002
11	0x3e93ea5c	0.2888974
12	0x3d861ea3	0.06548812
13	0x3dfd82c8	0.1237846
14	0xbed4b499	-0.41544035
15	0x39667466	0.00021977871

ConvBase.1.feature.lis.1.Y_conv.conv.weight f4 [16, 1, 1, 5]
0	0x3e87af1b	0.26500782
1	0x3eb4ecb4	0.3533684
2	0xbeb95fc3	-0.36205873
3	0xbe49cb40	-0.1970644
4	0x3ccd4be9	0.02506061
5	0x3eaacb1b	0.33358082
6	0x3edb229a	0.42799836
7	0xbdd82ce5	-0.10555438
8	0xba103cc8	-0.0005502221
9	0xbedb33da	-0.42812997
10	0xbea87ede	-0.32909292
11	0x3d5fe014	0.054657057
12	0x3e8383c1	0.25686458
13	0xbe9efc7f	-0.31052014
14	0xbe729165	-0.23688276
15	0xbe8a845e	-0.27054113
16	0x3e7db6ec	0.2477681
17	0x3eec021e	0.46095365
18	0xbe5a0b08	-0.2129327
19	0xbeaf43cd	-0.34231415
20	0xbe8610c2	-0.2618466
21	0x3ec75415	0.38931337
22	0x3ec648d7	0.38727447
23	0xbeb4d935	-0.35321966
24	0x3e4b1c62	0.19835046
25	0xbe7a0554	-0.24416095
26	0xbe4785fc	-0.19484705
27	0xbeb5aa84	-0.35481656
28	0x3deefb04	0.11668971
29	0xbec2bce8	-0.3803475
30	0x3d94f263	0.07272794
31	0xbde73fe1	-0.11291481
32	0x3d31dd61	0.043424014
33	0x3e882625	0.26591602
34	0x3dd0caf2	0.10194959
35	0xbeb314cc	-0.34976804
36	0x3e7bdece	0.24596712
37	0xbd835f5f	-0.06414675
38	0xbddbe630	-0.10737264
39	0x3d74c034	0.05975361
40	0xbd4bae9f	-0.04972708
41	0xbed47295	-0.4149367
42	0xbdb7fbd3	-0.089835785
43	0x3e3057a9	0.1722094
44	0xbe958661	-0.29204085
45	0x3e50ce81	0.20391275
46	0xbeaf4d11	-0.34238485
47	0xbe09dcac	-0.13463086
48	0x3ed7ed97	0.42173454
49	0x3ea47350	0.32119226
50	0x3e7cd524	0.24690682
51	0x3e07b081	0.13250925
52	0xbdac7d32	-0.084223166
53	0x3e4e5e9c	0.20153278
54	0xbe8dea2e	-0.27717727
55	0x3ece437e	0.40285867
56	0xbebc26bf	-0.3674831
57	0x3e84ef5a	0.2596386
58	0xbe015380	-0.12629509
59	0xbdf92845	-0.12165884
60	0x3ee44ece	0.44591373
61	0xbe655c5f	-0.22398518
62	0x3e29cd88	0.1658231
63	0x3ed92383	0.42409906
64	0x3b0021a2	0.0019551297
65	0x3e9c3ab4	0.30513537
66	0x3cbf2d7a	0.023337115
67	0x3e7c3999	0.24631347
68	0x3ed03b2a	0.4067014
69	0xbe843219	-0.2581947
70	0xbe98a661	-0.29814437
71	0xbedbeca0	-0.42953968
72	0x3eb918c5	0.3615171
73	0xbed96d44	-0.42466176
74	0x3ecbda9e	0.3981523
75	0x3ea75f4f	0.32689902
76	0xbda10bba	-0.07863565
77	0xbeee4d76	-0.46543473
78	0xbe89d5cb	-0.26920924
79	0xbb7592e0	-0.0037471578

ConvBase.1.feature.lis.1.Y_conv.conv.bias f4 [16]
0	0x3e480410	0.195328
1	0x3e8591c7	0.26087782
2	0xbe0e63d6	-0.13905272
3	0x3e8ca22a	0.2746747
4	0x3df5d3d0	0.12003291
5	0x3d7a9569	0.061177645
6	0x3d7a51ce	0.06111317
7	0x3e163979	0.14670362
8	0x3eb69f6a	0.35668498
9	0x3d883139	0.066500135
10	0xbed8dea7	-0.4235737
11	0xbe2ebcec	-0.17064255
12	0xbebcb150	-0.3685403
13	0x3e412da7	0.18865071
14	0xbea60435	-0.32425085
15	0xbebcac22	-0.36850077

ConvBase.1.feature.lis.1.pointwise.weight f4 [16, 16, 1, 1]
0	0xbe3ef965	-0.18649824
1	0xbe7235e2	-0.23653367
2	0xbe0f25d4	-0.13979274
3	0x3e2c68e1	0.16836883
4	0xbe5e8f1f	-0.21734284
5	0x3de90d69	0.11379511
6	0x3db40925	0.08790807
7	0x3e6c53ee	0.23078892
8	0xbd35ecd0	-0.044415295
9	0xbdbcbf10	-0.0921613
10	0xbd3cdeef	-0.046111044
11	0x3e0d2088	0.13781941
12	0xbe4ed02d	-0.201966
13	0x3e692151	0.22766615
14	0xbe66d7ea	-0.22543302
15	0x3e5bd6c4	0.21468645
16	0x3e2ef4b8	0.1708554
17	0x3dc1990d	0.0945302
18	0x3d855ed9	0.065122314
19	0xbd4ce7c0	-0.0500257
20	0xbe4f1eee	-0.20226642
21	0xbe37bbbc	-0.17942709
22	0x3e1d6300	0.15369797
23	0x3e4c482f	0.19949411
24	0x3cec3e0e	0.028838184
25	0x3e15d135	0.14630587
26	0xbe52b84b	-0.20578115
27	0x3dce2748	0.10066086
28	0xbdef82f8	-0.11694902
29	0x3dc34155	0.095339455
30	0x3e375322	0.17902806
31	0x3c2e1408	0.010624893
32	0xbe1e613a	-0.15466776
33	0xbdca2e0e	-0.098720655
34	0xbd1449c3	-0.036203157
35	0x3d770401	0.060306553
36	0xbe96299f	-0.2932863
37	0xbbfa2dd6	-0.0076348586
38	0x3dad3080	0.08456516
39	0xbe442e8b	-0.1915838
40	0x3e02ec50	0.12785459
41	0x3cb1fa70	0.021725863
42	0xbe4fb8b3	-0.20285301
43	0x3e3f1324	0.18659645
44	0x3ac5fa9f	0.0015104598
45	0xbe213bce	-0.1574547
46	0xbdbd252b	-0.09235605
47	0xbe79d1d5	-0.24396451
48	0xbbce96a8	-0.0063045807
49	0xbe37f68a	-0.17965141
50	0x3e13a8cd	0.14419861
51	0xbdc22bba	-0.094809964
52	0xbe3fe2d2	-0.18738869
53	0x3d60fc4d	0.054928113
54	0x3e576eef	0.21038412
55	0x3be1c8cd	0.0068903924
56	0x3da564f2	0.080758944
57	0x3c637793	0.013883489
58	0x3e2d12cd	0.16901703
59	0xbdccc3ae	-0.099982604
60	0x3db214dd	0.086953856
61	0xbe8b09dd	-0.27155963
62	0xbcadaab7	-0.021199567
63	0xbe873f21	-0.2641535
64	0xbe329b50	-0.1744206
65	0x3e525174	0.20538884
66	0x3e67a796	0.22622523
67	0x3e37455d	0.17897554
68	0xbe39c255	-0.18140538
69	0x3e52aed5	0.20574506
70	0x3e3e003f	0.18554781
71	0xbe1d927e	-0.15387914
72	0x3e6ffba6	0.2343584
73	0x3df5cefe	0.12002371
74	0x3c56219d	0.0130695375
75	0xbc6d685d	-0.014490214
76	0xbde59e0c	-0.11211786
77	0xbe1a947b	-0.15095703
78	0x3d9b9071	0.075959094
79	0xbe089297	-0.1333717
80	0x3de760ac	0.112977356
81	0xbdd15b77	-0.10222524
82	0xbd109efb	-0.035307866
83	0xbd9ea64d	-0.07746563
84	0xbdae148a	-0.08500011
85	0x3ce3c7b6	0.02780519
86	0x3d55beec	0.05218403
87	0xbca8b063	-0.02059192
88	0xbe15ab64	-0.14616162
89	0xbd476a3d	-0.0486853
90	0x3d004639	0.03131697
91	0xbe652d1f	-0.22380494
92	0x3b504d53	0.003178437
93	0xbe0cbbb3	-0.13743477
94	0xbcc7bbcc	-0.02438154
95	0x3e3a3e24	0.18187767
96	0xbe7b3e1c	-0.24535412
97	0x3d106c5b	0.035259586
98	0xbd8f29b3	-0.06990375
99	0x3c8d86f4	0.017276265
100	0x3d9c702f	0.07638585
101	0xbe440764	-0.19143444
102	0xbd9f2844	-0.07771352
103	0x3d18970b	0.03725342
104	0xbe28ee59	-0.16497172
105	0x3e173741	0.14767171
106	0x3e8822d8	0.26589084
107	0xbcc9c124	-0.02462823
108	0xbe30f78a	-0.17281929
109	0xbcf9b681	-0.030482532
110	0xbd13dfc7	-0.036102083
111	0x3e66a2e8	0.22523081
112	0xbe3e253a	-0.18568888
113	0x3e0b6c3a	0.13615504
114	0xbe09fe48	-0.13475907
115	0x3d97e0b9	0.07415909
116	0x3e3a8c0e	0.18217489
117	0xbe3af1fb	-0.1825637
118	0xbcfbbd48	-0.030729905
119	0x3e08c360	0.1335578
120	0xbe098974	-0.1343134
121	0xbd1b8111	-0.037964884
122	0xbde99962	-0.114062086
123	0xbdba6328	-0.09100944
124	0x3ce1519a	0.027504731
125	0xbe2539bd	-0.16135307
126	0xbd47cca5	-0.04877915
127	0xbe09d950	-0.13461804
128	0x3d488802	0.048957832
129	0x3da3ab66	0.07991676
130	0xbe5d4fe2	-0.21612504
131	0xbe805e64	-0.25072014
132	0xbd3b3f7a	-0.045714833
133	0x3cc9cd51	0.024634035
134	0x3e7d33e7	0.2472683
135	0xbdc3bd69	-0.095576115
136	0x3de70cee	0.11281763
137	0xbe1ba415	-0.15199311
138	0x3e830b0f	0.25594375
139	0xbe87320e	-0.26405376
140	0x3e40e9f4	0.18839246
141	0xbe3c5cf6	-0.18394837
142	0x3e41fd2d	0.18944235
143	0x3e1b23c3	0.15150361
144	0x3df61b40	0.12016916
145	0x3d873a40	0.06602907
146	0x3e714804	0.23562628
147	0xbdbc3f2b	-0.09191736
148	0x3b059276	0.0020381487
149	0xbb562772	-0.003267732
150	0x3e60db65	0.21958692
151	0xbdf55d13	-0.11980643
152	0xbbdc66af	-0.006726108
153	0x3e58fa8d	0.21189328
154	0xbe0b3aee	-0.13596699
155	0x3d93fa0e	0.072254285
156	0xbbb07fdf	-0.005386337
157	0xbe5264ae	-0.20546219
158	0x3e1a277b	0.15054123
159	0x3e0a1e9c	0.13488239
160	0x3e88f75b	0.26751217
161	0x3e718387	0.2358533
162	0xbd298ba2	-0.04139293
163	0x3da2efc8	0.07955891
164	0x3e004609	0.12526716
165	0x3d170db4	0.036878303
166	0xbe5523cf	-0.20814441
167	0x3c523144	0.012829129
168	0xbe2736e5	-0.16329534
169	0x3e6177a6	0.22018299
170	0x3e559c3d	0.20860381
171	0xbe104e47	-0.1409236
172	0x3e525cd7	0.20543228
173	0xbe02e79c	-0.12783664
174	0xbe6e938d	-0.23298474
175	0xbe48f74c	-0.19625586
176	0xbe207a4a	-0.1567165
177	0xbc0e636b	-0.008690695
178	0xbd514503	-0.051091205
179	0x3e6587db	0.22415106
180	0x3bd728dd	0.0065661506
181	0xbd3666ea	-0.04453174
182	0xbd85a6e3	-0.06525972
183	0xbe2c3fee	-0.16821262
184	0x3d858c81	0.065209396
185	0x3e0c0187	0.13672458
186	0x3d91604d	0.07098446
187	0x3decaf22	0.115568414
188	0x3d810677	0.06300061
189	0xbe0053b2	-0.12531927
190	0xbe5a4c23	-0.21318106
191	0x3c8d148c	0.017221712
192	0x3e01dfe1	0.1268306
193	0xbe7117ad	-0.23544188
194	0xbd84baa9	-0.06480915
195	0xbe07a293	-0.13245611
196	0x3dcb774a	0.09934862
197	0xbe216b0a	-0.15763488
198	0x3dc87895	0.09788624
199	0x3ca86438	0.0205556
200	0x3e150ca1	0.14555599
201	0xbe4dea0b	-0.20108812
202	0x3d796e32	0.060896106
203	0x3e1b53f9	0.15168752
204	0x3e0deb5f	0.13859318
205	0xbda93d91	-0.08263696
206	0xbc6a566f	-0.014302834
207	0xbe84e1d3	-0.2595354
208	0xbe579ee8	-0.21056712
209	0x3e41370c	0.18868655
210	0xbe158fee	-0.14605686
211	0xbd5b924d	-0.05360632
212	0x3e1543a0	0.14576578
213	0xbdcdd687	-0.100506835
214	0xbe73a42d	-0.23793097
215	0xbd4dc60c	-0.0502377
216	0xbdd37be9	-0.10326368
217	0xbcfcd15a	-0.030861545
218	0x3e18c52b	0.14918964
219	0xbe1cf1ed	-0.15326662
220	0x3e1091cc	0.14118117
221	0x3e37ad4a	0.17937198
222	0xbdfbf4ef	-0.12302577
223	0xbe57a35c	-0.2105841
224	0x3e090381	0.13380243
225	0xbc99f8e1	-0.018795433
226	0xbdf8ff33	-0.121580504
227	0x3e19f118	0.15033376
228	0xbd67d95a	-0.056603767
229	0x3dcd8fe6	0.10037212
230	0x3da1c692	0.078992024
231	0x3e5fd8a8	0.21859992
232	0x3ddbfe54	0.107418686
233	0xbe44bac9	-0.19211878
234	0xbe0a05ca	-0.13478771
235	0xbc28bd66	-0.010299062
236	0x3e21243d	0.1573648
237	0xbe2d7a65	-0.16941221
238	0x3e576824	0.2103582
239	0xbcd2ee3b	-0.025748363
240	0xbd16bfb8	-0.03680393
241	0xbe0fcdaf	-0.14043306
242	0x3e3b93e0	0.18318129
243	0xbe62c6af	-0.22146104
244	0xbd84ffde	-0.06494115
245	0x3d5dc535	0.05414315
246	0xbb222e5d	-0.0024746873
247	0xbe37b11e	-0.17938659
248	0xbdda61e0	-0.106631994
249	0xbd9eda47	-0.07756477
250	0xbd4aa80f	-0.04947668
251	0xbe4ef2c6	-0.20209798
252	0xbd31ccc6	-0.043408178
253	0x3e5c8d39	0.21538247
254	0x3e8eb56c	0.2787279
255	0xbdd3e800	-0.10346985

ConvBase.1.feature.lis.1.pointwise.bias f4 [16]
0	0x3e73e933	0.23819427
1	0xbe69d62e	-0.2283561
2	0x3e1a98a3	0.15097289
3	0xbe2a4640	-0.16628361
4	0xbdb08512	-0.08619131
5	0xbe82656c	-0.25468004
6	0xbe4c9450	-0.19978452
7	0x3de5e298	0.1122486
8	0xbe2d179a	-0.16903535
9	0x3e850a80	0.25984573
10	0xbbd5f292	-0.006529161
11	0x3e1108ca	0.14163509
12	0x3d949962	0.07255818
13	0x3cad7de9	0.021178203
14	0x3e0fca41	0.14041997
15	0xbe8d4f47	-0.27599546

ConvBase.1.feature.lis.2.X_conv.conv.weight f4 [16, 1, 7, 1]
0	0x3e894acf	0.26814887
1	0xbeb51fed	-0.3537592
2	0x3ec8d60b	0.39225802
3	0x3dfa8176	0.12231724
4	0x3eb5ddd1	0.35520795
5	0xbdcad3c7	-0.099036746
6	0xbe964225	-0.2934734
7	0x3db24e90	0.08706391
8	0x3bf8d76c	0.0075940397
9	0x3e146aa9	0.14493813
10	0x3dac4eae	0.084134445
11	0xbe2a5b7c	-0.16636461
12	0x3e399d62	0.18126443
13	0x3e9ad02b	0.30236945
14	0xbe16e867	-0.14737092
15	0xbdb557f9	-0.0885467
16	0xbeab2fe9	-0.3343499
17	0x3e0f73a2	0.14008954
18	0xbe76e416	-0.24110445
19	0x3e9c78aa	0.3056081
20	0xbcaf0fd8	-0.02136986
21	0xbeb6c810	-0.3569951
22	0x3e17cb00	0.14823532
23	0xbe530f97	-0.20611416
24	0x3ea494d7	0.32144806
25	0xbdb7cced	-0.08974633
26	0xbe3eaabe	-0.1861982
27	0x3ce43e9a	0.027861882
28	0x3dbae1ea	0.09125121
29	0x3e580d34	0.21098787
30	0x3e9533d7	0.29141113
31	0x3eb4e4f6	0.35330933
32	0x3e41f725	0.18941934
33	0xbe8eb1a2	-0.27869898
34	0x3ea2b26d	0.31776753
35	0xbd291e7e	-0.041288845
36	0xbdee73d8	-0.11643189
37	0xbd1a0655	-0.037603695
38	0x3ea6f288	0.32606912
39	0xbea6406a	-0.3247102
40	0xbe371b74	-0.17881566
41	0xbe4187c1	-0.18899442
42	0xbe0a9b38	-0.13535774
43	0xbe870389	-0.26369885
44	0xbe6b0eec	-0.22954911
45	0x3d531c35	0.051540572
46	0x3da5258c	0.08063802
47	0xbec9bd4b	-0.39402232
48	0x3e4642e8	0.1936146
49	0xbe919e83	-0.28441247
50	0xbe5c9043	-0.21539406
51	0x3eb84b27	0.35994837
52	0x3e85ee10	0.2615819
53	0x3e8e7d88	0.27830148
54	0x3e47ff71	0.19531037
55	0x3eae90e6	0.34094924
56	0xbea1a212	-0.31568962
57	0x3e9bcce3	0.30429754
58	0x3e4fb6ba	0.20284548
59	0xbd31efc0	-0.043441534
60	0x3e0aa161	0.13538124
61	0x3ca7294e	0.020405438
62	0xbe04521f	-0.12921952
63	0x3e7e6fc0	0.24847317
64	0x3e7d123c	0.24713987
65	0x3e8f88ef	0.2803416
66	0x3dbf22c8	0.09332806
67	0xbeb56871	-0.35431245
68	0xbda30a63	-0.079609655
69	0xbeb65b67	-0.3561661
70	0x3eb1de9c	0.3474015
71	0x3ea806b9	0.3281763
72	0x3e5aa2fe	0.21351239
73	0xbe2e9da9	-0.1705233
74	0x3dcd5b97	0.10027235
75	0xbe0998a9	-0.13437141
76	0x3e842183	0.25806817
77	0x3df1e496	0.118111774
78	0x3d1ce8f4	0.0383081
79	0x3dea92ed	0.11453805
80	0x3e901c7e	0.28146738
81	0xbde2e1a4	-0.11078194
82	0xbe64c204	-0.22339636
83	0xbe0c56d9	-0.13705005
84	0x3d40ff55	0.047118504
85	0xbe0e681d	-0.13906904
86	0x3dbddc0c	0.09270486
87	0x3cec03a5	0.028810332
88	0x3cbf83f8	0.023378357
89	0x3e232ec3	0.15935807
90	0xbeaec608	-0.3413546
91	0xbe0e7b7d	-0.13914295
92	0x3cad964c	0.021189831
93	0x3e669b49	0.22520174
94	0xbec4fd14	-0.38474333
95	0xbe4a3f67	-0.19750749
96	0xbe9d2595	-0.30692735
97	0xbec27e98	-0.37987208
98	0x3dc54251	0.096317895
99	0x3ebfe001	0.3747559
100	0xbd615e4d	-0.055021573
101	0xbe4809b8	-0.19534957
102	0xbe3bc5ca	-0.1833717
103	0xbce53355	-0.027978579
104	0x3d2d7e47	0.042356756
105	0x3ea13996	0.31489247
106	0x3e1c44e9	0.15260662
107	0xbe9910e5	-0.29895702
108	0xbe4ad73f	-0.19808672
109	0x3e188a16	0.14896426
110	0xbe88bab8	-0.26704955
111	0xbccd9326	-0.02509458

ConvBase.1.feature.lis.2.X_conv.conv.bias f4 [16]
0	0xbd49b636	-0.049246036
1	0x3e7c51b0	0.24640536
2	0xbe168b6a	-0.1470162
3	0xbe1a689e	-0.15078971
4	0xbd225ea9	-0.039641056
5	0x3e4edc25	0.20201166
6	0x3e66b214	0.22528869
7	0x3dbd65a9	0.09247906
8	0x3e31a49c	0.1734795
9	0xbd9fd598	-0.07804412
10	0x3eace5d1	0.33769086
11	0x3dbab225	0.091160096
12	0x3c6640c7	0.01405353
13	0xbdecba32	-0.115589514
14	0x3ebadd9d	0.36497203
15	0xbdbb4b3b	-0.091452084

ConvBase.1.feature.lis.2.Y_conv.conv.weight f4 [16, 1, 1, 7]
0	0x3d17b881	0.03704119
1	0x3e7bf08e	0.24603483
2	0xbe8f4e25	-0.27989307
3	0xbdf4c30e	-0.11951266
4	0x3d7d08c9	0.061775956
5	0xbead5493	-0.33853588
6	0x3eac0f63	0.3360549
7	0x3d7f2a28	0.062296063
8	0xbea7ef95	-0.32799974
9	0x3dd13772	0.102156535
10	0xbb774d89	-0.0037735424
11	0xbe9f8aff	-0.31160733
12	0x3e3a3d09	0.18187346
13	0x3e035bcf	0.12827991
14	0xbdfa321f	-0.12216591
15	0x3d4702d3	0.048586678
16	0xbe6d3f66	-0.23168716
17	0x3e84342f	0.25821063
18	0x3d99cae2	0.075094
19	0x3e201e1a	0.15636483
20	0xbc215a94	-0.009848256
21	0xbdbf978b	-0.093550764
22	0x3e964cf3	0.29355583
23	0x3d641550	0.055684388
24	0x3eb13f9d	0.34618846
25	0x382c185e	4.103069e-05
26	0x3de954ef	0.11393153
27	0x3ea4392e	0.32074875
28	0x3e8093ba	0.25112706
29	0x3e4a412d	0.19751425
30	0x3e5810b2	0.21100119
31	0xbd0352c0	-0.03206134
32	0x3e085c26	0.13316402
33	0x3e03135e	0.12800357
34	0x3e626125	0.2210737
35	0x3e143e61	0.1447692
36	0xbd805981	-0.062670715
37	0x3dc19ec9	0.09454114
38	0xbed4f439	-0.41592577
39	0x3e06532c	0.13117665
40	0x3d9f9300	0.0779171
41	0x3e90ac4b	0.2825645
42	0x3e37be1d	0.17943616
43	0xbe85971a	-0.26091844
44	0xbeb5b641	-0.3549061
45	0x3e548bf1	0.20756508
46	0x3cbc49fc	0.022984497
47	0x3ea47fa0	0.3212862
48	0xbc9c6ced	-0.019094909
49	0xbe06ca4b	-0.13163106
50	0xbcaa5764	-0.020793624
51	0x3e104739	0.1408967
52	0xbe8b6087	-0.27222082
53	0xbea3ddcc	-0.32005155
54	0xbc1cc16a	-0.009567598
55	0x3ddbdaf4	0.10735121
56	0xbeba3c14	-0.3637396
57	0x3ddf1147	0.10891967
58	0xbeb519f0	-0.3537135
59	0xbe868f1b	-0.26281056
60	0x3e8b1745	0.2716619
61	0x3bb78fdf	0.0056018676
62	0xbd97b284	-0.07407096
63	0xbd97f5e1	-0.074199446
64	0xbebe7f88	-0.37206674
65	0xbe3d4de1	-0.1848674
66	0x3df3a654	0.11896959
67	0x3e073065	0.13202055
68	0xbe3f4b01	-0.18680955
69	0xbe91695a	-0.2840069
70	0xbdb04e1e	-0.0860865
71	0x3d22b799	0.039725874
72	0x3e9b5d1d	0.30344477
73	0x3e110d69	0.14165272
74	0x3dd50f91	0.1040336
75	0x3e89b36c	0.268947
76	0xbea19098	-0.3155563
77	0x3e5b13b1	0.2139423
78	0xbe82bf0c	-0.25536382
79	0x3e248291	0.16065432
80	0xbe1ba490	-0.15199494
81	0xbe305e9d	-0.17223592
82	0xbec1e4e3	-0.3786994
83	0x3eb1abd9	0.34701422
84	0x3e0181c5	0.1264716
85	0x3e298287	0.16553698
86	0xbd1e82df	-0.038699027
87	0xbe76c969	-0.2410027
88	0x3d89ccc3	0.06728508
89	0x3e99e8ce	0.30060428
90	0xbe09e2ed	-0.13465472
91	0xbca16662	-0.01970214
92	0xb8f20824	-0.000115409755
93	0x3e59d496	0.21272501
94	0x3de6f592	0.112773076
95	0x3ecf1d10	0.4045186
96	0x3e3067b5	0.17227061
97	0xbe420620	-0.18947649
98	0x3e5cb43a	0.21553126
99	0xbd42025f	-0.047365543
100	0xbe139d7a	-0.14415541
101	0xbdbbae9e	-0.09164165
102	0x3e8b18dd	0.27167407
103	0x3eb5984d	0.3546776
104	0x3e642b31	0.22282101
105	0xbe854ea8	-0.26036572
106	0x3dbd52f1	0.092443354
107	0xbeb0b50f	-0.34513137
108	0xbe81e561	-0.25370315
109	0x3ace4db2	0.0015739708
110	0xbd4a5a7e	-0.049402706
111	0x3ea82430	0.3284011

ConvBase.1.feature.lis.2.Y_conv.conv.bias f4 [16]
0	0x3db74632	0.089489356
1	0x3e2965cf	0.16542743
2	0xbeb08857	-0.3447902
3	0xbebe05d8	-0.37113833
4	0xbe7cea3b	-0.24698727
5	0xbcade067	-0.021225167
6	0x3e275278	0.16340053
7	0xbd7ba173	-0.061433267
8	0x3dc66aed	0.09688363
9	0x3eaeb8cf	0.34125373
10	0xbde0aa82	-0.10970022
11	0x3ea366b2	0.31914288
12	0xbe91b245	-0.2845632
13	0x3de048bd	0.10951374
14	0x3eaeb6d9	0.34123877
15	0x3e93b314	0.28847563

ConvBase.1.feature.lis.2.pointwise.weight f4 [16, 16, 1, 1]
0	0xbdc36615	-0.09540955
1	0xbdb84438	-0.08997387
2	0x3e5b1c35	0.21397479
3	0x3e5fece8	0.21867716
4	0x3e71e289	0.23621573
5	0x3b5e99f0	0.0033966266
6	0x3de9b1b3	0.114108466
7	0x3ded6074	0.115906626
8	0xbe6300da	-0.22168294
9	0x3c0f5f23	0.00875071
10	0x3e0b1ed2	0.13585976
11	0x3e438d2c	0.19096822
12	0x3e1520ec	0.1456334
13	0xbd6dac1f	-0.058025476
14	0xbe5792cd	-0.21052094
15	0xbe447825	-0.19186457
16	0x3e33b646	0.1755
17	0xbe08771c	-0.13326687
18	0x3e0e7007	0.13909923
19	0x3dc4d7c3	0.09611466
20	0xbde5843e	-0.11206864
21	0xbd62c849	-0.055366788
22	0x3cb104b6	0.021608692
23	0x3c015270	0.00789319
24	0x3d92586c	0.071457714
25	0x3cca66ee	0.024707284
26	0xbe243af2	-0.16038111
27	0xbaf62ebf	-0.0018782242
28	0xbd858e21	-0.065212496
29	0xbd3b18a9	-0.045677815
30	0x3e56c2c8	0.2097274
31	0xbe1a0946	-0.150426
32	0xbe4ea3e0	-0.20179701
33	0x3e302301	0.17200853
34	0x3e562d89	0.20915808
35	0x3e7eb9c0	0.24875546
36	0xbe3701f1	-0.17871834
37	0x3e437d82	0.19090846
38	0x3decbfc2	0.115600124
39	0xbc8f8307	-0.017518533
40	0x3e01e259	0.12684001
41	0x3deac9de	0.11464284
42	0x3da78bb6	0.081809446
43	0x3d937840	0.0720067
44	0x3e265e4d	0.1624691
45	0x3d2496df	0.040182944
46	0xbe44389b	-0.19162218
47	0xbe08aadd	-0.13346429
48	0xbe8001c4	-0.25001347
49	0xbe31f9bd	-0.17380424
50	0x3c11e669	0.008905032
51	0x3d253c14	0.040340498
52	0x3d2105f5	0.03931232
53	0xbe23d592	-0.1599944
54	0xbe73ee39	-0.23821343
55	0xbd71502e	-0.058914356
56	0x3e6e5632	0.23275068
57	0xbde989e7	-0.11403256
58	0x3e0f2780	0.13979912
59	0xbe852477	-0.26004383
60	0x3dfe25f3	0.12409582
61	0x3e7a4dce	0.24443743
62	0xbd95cb13	-0.07314124
63	0xbe3ed180	-0.18634605
64	0xbd946971	-0.07246674
65	0x3e42027f	0.18946265
66	0xbe848d43	-0.25889024
67	0x3e5031f5	0.20331557
68	0xbdc8c41d	-0.09803031
69	0xbdf49e56	-0.11944263
70	0x3d1d4515	0.03839596
71	0xbd914798	-0.070937335
72	0x3d60a9a8	0.054849297
73	0x3e2ca491	0.16859652
74	0xbd4bbd21	-0.049740914
75	0xbe5a19a6	-0.21298847
76	0xbe248219	-0.16065253
77	0xbdd23eaa	-0.102658585
78	0xbc6f57e1	-0.014608354
79	0x3df15851	0.11784423
80	0x3dd06fd5	0.1017758
81	0xbd2f4f72	-0.042800374
82	0x3dcd0aeb	0.10011848
83	0xbde7fbf6	-0.113273546
84	0x3e5eaa09	0.21744551
85	0x3e7da117	0.24768482
86	0x3e3f8c31	0.18705823
87	0x3daf3aa2	0.08556105
88	0x3e874696	0.2642104
89	0xbdb085a2	-0.086192384
90	0x3e73feec	0.23827714
91	0x3a9965fe	0.001170337
92	0x3e01b646	0.12667188
93	0x3d02e2ab	0.03195445
94	0x3e23d2c4	0.1599837
95	0xbe6ed4e8	-0.23323405
96	0x3e02dedc	0.12780327
97	0x3dd83497	0.10556906
98	0x3ca22789	0.019794242
99	0xbdd7e788	-0.10542208
100	0xbe013b6f	-0.12620328
101	0xbddcfe7c	-0.107907265
102	0xbddf7940	-0.109117985
103	0x3e37220c	0.17884082
104	0x3e85e3e5	0.26150432
105	0x3d33d07f	0.04390001
106	0xbe3b66ef	-0.18300985
107	0xbe30b3a4	-0.17256027
108	0x3e7909b1	0.24320103
109	0xbd922459	-0.07135839
110	0x3d984da1	0.074366815
111	0x3dcd373c	0.10020301
112	0x3e114ccb	0.1418945
113	0x3de9462a	0.11390336
114	0xbccea5b8	-0.025225505
115	0x3d6ea625	0.058263917
116	0xbd4c40ae	-0.04986637
117	0xbdb7a9d5	-0.0896794
118	0x3da02c61	0.078209646
119	0xbe09621c	-0.13416332
120	0x3df291d3	0.1184422
121	0x3ddaead3	0.106893204
122	0x3ab6313d	0.0013900172
123	0x3e6b296e	0.22965023
124	0x3d9238d0	0.071397424
125	0xbd04529c	-0.032305345
126	0xbd931bf5	-0.07183067
127	0x3dd50555	0.10401408
128	0xbe5fa3a5	-0.21839769
129	0x3e21dab0	0.15806079
130	0x3e1ee924	0.15518624
131	0x3e012da7	0.12615071
132	0xbe36c56a	-0.17848745
133	0x3d7b9333	0.061419677
134	0xbd673641	-0.056448225
135	0x3e400485	0.18751724
136	0xba108cef	-0.0005514165
137	0x3da7388b	0.081650816
138	0xbd7cca57	-0.061716404
139	0xbdb366e0	-0.08759856
140	0x3e4ff1ae	0.20307037
141	0x3e85ce52	0.26133972
142	0xbdd8c189	-0.10583789
143	0xbde87b74	-0.11351672
144	0xbdbd3836	-0.09239237
145	0x3e545e4a	0.20739093
146	0xbd81e90d	-0.06343279
147	0x3e159adb	0.14609854
148	0x3da1d741	0.079023845
149	0x3d9d8bd1	0.076926835
150	0x3e8055f8	0.2506559
151	0xbe5d63e5	-0.21620138
152	0x3daea783	0.08528044
153	0x3e706dcc	0.23479384
154	0x3e4635d5	0.19356473
155	0x3d37b62a	0.04485146
156	0x3e1723ec	0.14759797
157	0xbdcde190	-0.10052788
158	0xbc06c7db	-0.00822636
159	0x3e037c13	0.128403
160	0xbe602b4e	-0.2189152
161	0x3d95d609	0.073162146
162	0x3ca5a63a	0.020220865
163	0x3e13462a	0.14382234
164	0x3d2bcf63	0.041945826
165	0xbdecb81e	-0.11558555
166	0x3d16513c	0.036698565
167	0x3d754481	0.059879784
168	0x3e4e2454	0.20131046
169	0xbd3ac243	-0.04559542
170	0x3e4917cd	0.19637986
171	0x3c5d53d5	0.013508757
172	0x3e723ae7	0.23655282
173	0xbe0994de	-0.13435695
174	0xbe1db129	-0.15399612
175	0x3e561888	0.20907795
176	0xbe7917b0	-0.24325442
177	0xbe1419a5	-0.14462908
178	0x3e836fce	0.25671238
179	0xbcd9e00e	-0.026596095
180	0xbe4841ee	-0.195564
181	0xbe6002c5	-0.21876056
182	0xbe69eae4	-0.2284351
183	0x3c43aa46	0.011942452
184	0xbe09098a	-0.13382545
185	0xbce441bf	-0.027863381
186	0x3ca65a5f	0.020306764
187	0x3e641ceb	0.22276656
188	0xbe08ccce	-0.13359377
189	0x3dc43afb	0.09581562
190	0x3cd8704f	0.02642074
191	0x3dcb3233	0.09921684
192	0x3cc882f2	0.024476502
193	0x3b724d3d	0.0036972307
194	0x3d1429b6	0.03617259
195	0xbe7de32d	-0.24793692
196	0x3cd7fbf2	0.026365254
197	0xbe206920	-0.15665102
198	0x3dcb46b1	0.09925593
199	0xbe37eb26	-0.17960796
200	0x3d893aba	0.06700654
201	0xbde0f38c	-0.10983953
202	0xbe112e87	-0.14177905
203	0x3e317d77	0.17333017
204	0xbcb177d4	-0.021663584
205	0xbd8f8988	-0.07008654
206	0x3d2d5c1b	0.042324167
207	0x3d0c1024	0.03419508
208	0xbe4841a6	-0.19556293
209	0x3cf9cd89	0.030493515
210	0xbe1bb9d8	-0.15207613
211	0xbe88ed6b	-0.26743636
212	0xbd51bff3	-0.051208448
213	0xbd5f12c6	-0.054461263
214	0x3c95d0f5	0.018288115
215	0x3dfdec57	0.12398594
216	0x3e6eda81	0.2332554
217	0x3e4d28f2	0.2003515
218	0x3e239476	0.15974602
219	0xbe651ef9	-0.22375096
220	0x3e84bcd6	0.2592532
221	0xbe3192f0	-0.17341208
222	0x3dd43c87	0.10363107
223	0xbe849156	-0.25892133
224	0x3d0712be	0.03297686
225	0xbde1cfec	-0.11025986
226	0x3e67fdfd	0.22655483
227	0xbe491267	-0.19635926
228	0xbc752668	-0.01496277
229	0x3e1dbbab	0.15403621
230	0x3be9da17	0.007136594
231	0xbe2de6c9	-0.16982569
232	0xbb6fed26	-0.0036609857
233	0xbe4dbc28	-0.20091307
234	0xbe1c1573	-0.15242557
235	0xbd89924d	-0.06717358
236	0xbe4e8a80	-0.20170021
237	0xbe0ce554	-0.13759357
238	0x3d13d14d	0.036088277
239	0x3dc45a9b	0.09587594
240	0x3e840123	0.25782117
241	0x3d57b6ca	0.052664556
242	0xbdfce7f1	-0.12348927
243	0xbe7d9a9f	-0.24766015
244	0xbd95503c	-0.07290694
245	0x3e2c9def	0.16857122
246	0xbcf02cb2	-0.029318187
247	0x3d7d7316	0.061877333
248	0xbd88fdb4	-0.06689015
249	0xbe54da92	-0.20786503
250	0xbe8882e2	-0.26662356
251	0x3cf2a36e	0.029618945
252	0xbe0e944a	-0.13923755
253	0xbdc0e4c1	-0.09418631
254	0x3e6adffa	0.22937003
255	0x3d1e84a9	0.038700733

ConvBase.1.feature.lis.2.pointwise.bias f4 [16]
0	0x3d4600df	0.048340674
1	0xbe86a43d	-0.2629718
2	0xbd7b4ad5	-0.061350662
3	0x3d1a52a3	0.037676465
4	0x3c3f84ae	0.011689348
5	0xbde3fadb	-0.11131831
6	0xbe30d683	-0.1726933
7	0x3e340785	0.17580993
8	0x3e3e5b5a	0.18589535
9	0x3c86f9d6	0.016476553
10	0xbbbd7070	-0.005781226
11	0xbcfe2db5	-0.031027654
12	0xbdf25cbe	-0.118340954
13	0x3decaf6a	0.11556895
14	0xbe475bf4	-0.19468671
15	0xbd37fb5c	-0.04491745

ConvBase.1.feature.lis.3.X_conv.conv.weight f4 [16, 1, 9, 1]
0	0xbd926660	-0.07148433
1	0x3d44768b	0.047964614
2	0x3ea466ac	0.32109582
3	0xbd8dd4e6	-0.06925373
4	0xbe55693e	-0.20840928
5	0x3e74c7c8	0.23904335
6	0xbda2f50e	-0.07956897
7	0xbe470a65	-0.19437559
8	0x3e6c71bf	0.23090266
9	0x3e1b0c58	0.15141428
10	0x3e86c5b4	0.2632271
11	0xbe6a2b6e	-0.2286813
12	0x3d9531b0	0.07284868
13	0xbe155dd3	-0.14586572
14	0x3dd7cedf	0.105375044
15	0xbe9a74e6	-0.3016731
16	0xbdfd48ce	-0.12367402
17	0xbd1f3f4e	-0.03887873
18	0x3e87e024	0.26538193
19	0x3e86dd83	0.26340875
20	0x3e97b7d9	0.29632452
21	0x3b5d96e1	0.0033811855
22	0x3d8f1982	0.06987287
23	0x3e7b6f5f	0.24554203
24	0x3e9f6bf1	0.3113704
25	0x3e2b69fe	0.16739652
26	0xbe68b028	-0.22723448
27	0xbe4fe1fe	-0.20301053
28	0xbd825bf1	-0.06365193
29	0xbea529a8	-0.32258344
30	0x3e02d877	0.12777887
31	0x3e97253d	0.29520598
32	0x3d61f4a6	0.055164956
33	0xbe1370f3	-0.14398555
34	0x3ea88243	0.32911882
35	0x3d284bdf	0.04108798
36	0x3dee3b13	0.11632361
37	0xbe1b0898	-0.15139997
38	0x3eacda4e	0.33760303
39	0xbe04ced1	-0.12969519
40	0x3ea0beb8	0.31395507
41	0x3e888073	0.266605
42	0xbdcc18e1	-0.09965683
43	0x3dfad16e	0.12246977
44	0xbe28f04d	-0.16497917
45	0x3e82a44e	0.2551598
46	0x3e894aa3	0.26814756
47	0x3e991846	0.29901332
48	0xbe018256	-0.12647375
49	0x3e16bf43	0.14721398
50	0x3d15d07d	0.036575783
51	0xbe21ed01	-0.15813066
52	0xbe9fe372	-0.31228215
53	0x3e773048	0.24139512
54	0xbe0aea07	-0.13565837
55	0x3e51434f	0.20435832
56	0x3e44574c	0.19173926
57	0xbe0c1d5b	-0.13683073
58	0xbe457806	-0.19284067
59	0x3e4f2b3d	0.20231338
60	0x3e8a951b	0.27066883
61	0x3e9e0aa1	0.30867484
62	0xbe11de36	-0.14244923
63	0xbe475b99	-0.19468535
64	0x3ea57956	0.32319134
65	0x3e43f22c	0.1913535
66	0x3e416f96	0.18890223
67	0x3e82f992	0.25581032
68	0x3e23ee8a	0.16008964
69	0x3ded7f4d	0.11596546
70	0xbeb5c4f6	-0.35501832
71	0x3e57869b	0.21047442
72	0xbe066c7c	-0.13127321
73	0x3dbbe566	0.09174614
74	0xbd29386e	-0.04131358
75	0xbe1832a7	-0.14863072
76	0x3e7f441d	0.24928327
77	0xbe8b5890	-0.27216005
78	0xbce70db5	-0.028204778
79	0xbe064191	-0.13110949
80	0xbe3c3908	-0.1838113
81	0xbe8c42e6	-0.2739479
82	0xbe89d84c	-0.26922834
83	0xbe7c5c9c	-0.24644703
84	0xbd1ee88a	-0.038795985
85	0x3e5bd8cb	0.21469419
86	0x3cc212c3	0.023690587
87	0xbe5e14ea	-0.21687666
88	0xbe9f27c2	-0.3108502
89	0x3e313c36	0.17308125
90	0x3d9ca1f8	0.076480806
91	0xbe0ab74b	-0.13546483
92	0x3e8a78c5	0.27045265
93	0x3e81a132	0.25318295
94	0xbe9d09d3	-0.30671558
95	0xbdaca437	-0.08429759
96	0xbe23d144	-0.15997797
97	0x3d939960	0.07206988
98	0x3ea3b6c1	0.31975368
99	0x3e3df5ae	0.1855075
100	0x3e2dd4f3	0.16975765
101	0xbe3a2396	-0.18177637
102	0xbd444d2a	-0.047925152
103	0x3e8bb06b	0.27283034
104	0xbebc51f9	-0.3678129
105	0xbe7e54b6	-0.24837002
106	0xbe35ba33	-0.1774681
107	0x3ca07e99	0.019591616
108	0xbe275da5	-0.16344316
109	0xbdda21d3	-0.10650983
110	0x3d469a40	0.048486948
111	0xbd8802a6	-0.0664113
112	0xbe2e091e	-0.16995665
113	0xbe7a9c97	-0.24473797
114	0x3d2b4dac	0.04182212
115	0xbe6b01c3	-0.22949891
116	0x3e358b3d	0.17728896
117	0x3e9e745f	0.3094816
118	0xbe66901a	-0.22515908
119	0xbe2fbe96	-0.17162547
120	0x3c9af875	0.018917302
121	0xbdb03710	-0.08604252
122	0xbdf1e25b	-0.11810752
123	0x3d8d5634	0.069012076
124	0x3e4d8003	0.20068364
125	0x3e054e4f	0.13018154
126	0x3c87f839	0.016597854
127	0xbe7306f4	-0.23733121
128	0xbe8d6c67	-0.27621767
129	0xbd3fef82	-0.04685927
130	0x3d91eb8d	0.07125006
131	0x3cfd126b	0.030892571
132	0x3e94aff5	0.29040495
133	0xbeab68d9	-0.3347843
134	0xbe8308ab	-0.2559255
135	0x3e834a9d	0.25642863
136	0xbe72aeec	-0.2369954
137	0x3cbc0eb4	0.02295623
138	0x3dc962ef	0.09833323
139	0xbe511a8e	-0.20420286
140	0xbc07617d	-0.008262989
141	0x3e8b0d02	0.27158362
142	0xbe3126d0	-0.17299962
143	0x3e87c6f5	0.2651898

ConvBase.1.feature.lis.3.X_conv.conv.bias f4 [16]
0	0xbda1ffd1	-0.07910121
1	0xbe7c498a	-0.24637428
2	0x3e52d476	0.2058886
3	0x3d9cefda	0.076629356
4	0x3dd63416	0.10459153
5	0x3daec006	0.08532719
6	0xbe926653	-0.28593692
7	0x3e67476f	0.22585844
8	0x3e6d6a9a	0.23185197
9	0x3e1569a2	0.14591077
10	0x3e87d685	0.26530853
11	0x3e2329e2	0.15933946
12	0x3e954381	0.29153064
13	0x3db97881	0.090561874
14	0xbd5d7bf4	-0.05407329
15	0xbc9135df	-0.017725883

ConvBase.1.feature.lis.3.Y_conv.conv.weight f4 [16, 1, 1, 9]
0	0xbead02cf	-0.33791205
1	0xbd893d38	-0.0670113
2	0xbca3ecbb	-0.020010343
3	0xbea9c8cf	-0.33161017
4	0xbd2c01fc	-0.04199408
5	0x3e97bce5	0.29636303
6	0x3e3d0ba8	0.18461478
7	0xbe183a3a	-0.14865962
8	0xbe110b11	-0.14164378
9	0x3ddf740e	0.109108075
10	0xbdc4505e	-0.09585641
11	0xbe028376	-0.12745461
12	0x3cbf43f2	0.023347829
13	0xbe39da9f	-0.18149804
14	0xbe2d0d83	-0.16899686
15	0x3e80ae7a	0.25133115
16	0x3cb6f34f	0.022332815
17	0xbe51a3b2	-0.20472601
18	0xbd755bfd	-0.05990218
19	0x3e41bbcf	0.189193
20	0x3ea41cd3	0.3205324
21	0xbe83688d	-0.25665703
22	0x3e01c41c	0.12672466
23	0x3e15b4f4	0.1461981
24	0xbe2e711b	-0.17035334
25	0x3dd247a4	0.102675706
26	0x3e582130	0.2110641
27	0x3e86cdea	0.26328975
28	0x3d3644b7	0.044499125
29	0xbe10156c	-0.14070672
30	0xbe0c6e44	-0.13713938
31	0x3e42e7eb	0.19033782
32	0xbe82b597	-0.25529167
33	0x3e7f447b	0.24928467
34	0xbeaa49f4	-0.33259547
35	0x3d738e00	0.059461594
36	0x3e3c62b2	0.18397024
37	0xbe4322c1	-0.19056226
38	0xbe059f64	-0.13049084
39	0x3d16eeae	0.036848716
40	0xbe0373f9	-0.12837209
41	0xbcc763ce	-0.024339583
42	0xbd2e3ee2	-0.04254044
43	0xbcacebac	-0.02110847
44	0xbda834b4	-0.08213177
45	0x3e81ba54	0.2533747
46	0xbdda60c2	-0.10662986
47	0x3bb96087	0.005657259
48	0x3e30eed4	0.17278606
49	0x3d163c01	0.036678318
50	0xbd1c5450	-0.038166344
51	0x3e8be561	0.2732344
52	0x3e75077f	0.23928641
53	0xbe9e5686	-0.30925387
54	0xbe864b7d	-0.26229468
55	0x3e12a015	0.14318879
56	0x3da28172	0.07934846
57	0xbda394e8	-0.07987386
58	0x3e8b4dac	0.27207696
59	0x3e01a01a	0.1265873
60	0xbe9905b1	-0.29887155
61	0x3e2ea978	0.17056835
62	0xbe502629	-0.20327057
63	0xbe3b498a	-0.18289772
64	0x3e3cc1a0	0.18433237
65	0xbe7d638e	-0.24745008
66	0x3e363fa9	0.17797722
67	0x3e987ef5	0.2978436
68	0xbe92a02b	-0.28637823
69	0xbe214b78	-0.15751445
70	0x3ea83b2d	0.32857648
71	0xbe678ca6	-0.22612247
72	0x3e879935	0.26484075
73	0xbe1e9be5	-0.15489157
74	0x3e3e2b25	0.18571146
75	0xbd82de9d	-0.06390116
76	0xbe64d8ac	-0.22348279
77	0x3c9f45a3	0.019442385
78	0x3df13eb1	0.117795356
79	0x3c83798a	0.016049165
80	0xbea62d88	-0.32456613
81	0x3e07645a	0.13221875
82	0x3e28c99f	0.16483162
83	0xbd8a0158	-0.067385375
84	0xbe0ffcc9	-0.14061274
85	0x3e300591	0.17189623
86	0xbe3433d3	-0.17597894
87	0x3e1c727f	0.15278052
88	0xbe1cc596	-0.15309748
89	0x3d8dbeee	0.069211826
90	0x3b44a616	0.0030006221
91	0x3e179fe6	0.1480709
92	0xbc88cf5f	-0.016700445
93	0x3e8eae18	0.27867198
94	0x3e3f3a59	0.18674602
95	0x3dfe8bf1	0.124290355
96	0xbe0f26b5	-0.1397961
97	0x3d968235	0.07349054
98	0x3eacafd8	0.33727908
99	0x3e2164fe	0.15761182
100	0xbdb58ab1	-0.08864344
101	0xbe056f9d	-0.13030858
102	0xbc90206f	-0.01759359
103	0x3e5a405f	0.21313618
104	0x3e3cf816	0.18454012
105	0xbe9c33df	-0.30508325
106	0x3e9d6ca1	0.3074694
107	0x3cd62504	0.026140697
108	0xbd4775b4	-0.048696235
109	0x3e98805f	0.2978544
110	0x3e3f17d1	0.18661429
111	0xbdb47a2a	-0.088123634
112	0x3e1c6033	0.15271072
113	0x3e843bd7	0.25826904
114	0xbe188ad5	-0.1489671
115	0xbd91ea05	-0.07124714
116	0x3d1089f5	0.035287816
117	0x3e85e0be	0.26148027
118	0x3dc26a2e	0.094929084
119	0x3e479c4b	0.19493215
120	0xbd760ca6	-0.060070656
121	0x3e08bf5a	0.13354245
122	0x3cb4f18c	0.022087835
123	0xbd54f6ff	-0.051993366
124	0x3e004d6f	0.12529539
125	0x3dfe87ff	0.12428283
126	0xbe09d2a1	-0.13459255
127	0xbdfee6d1	-0.124463685
128	0xbaa1b085	-0.0012335932
129	0xbe707646	-0.23482618
130	0x3e66884c	0.2251293
131	0x3e601d94	0.21886283
132	0x3e802d03	0.2503434
133	0xbd3fa895	-0.04679163
134	0x3d9ab49f	0.07553982
135	0x3e4e49e2	0.20145372
136	0xbdf86942	-0.12129451
137	0xbe1db327	-0.15400372
138	0x3e2e7f69	0.1704079
139	0x3e99c8e5	0.30036083
140	0xbe467784	-0.19381529
141	0xbe61f6bf	-0.22066782
142	0xbd529dcb	-0.051420014
143	0xbe5f3ef2	-0.21801355

ConvBase.1.feature.lis.3.Y_conv.conv.bias f4 [16]
0	0x3db5ad35	0.08870927
1	0xbe256c52	-0.16154602
2	0x3e1b8744	0.15188318
3	0xbdd1738d	-0.10227118
4	0xbe8d2c33	-0.27572784
5	0xbe00ddaa	-0.12584558
6	0x3d8329b8	0.064044416
7	0xbe668950	-0.22513318
8	0x3e002369	0.12513508
9	0xbddaf595	-0.10691372
10	0x3d791801	0.060813908
11	0x3e1c6a43	0.1527491
12	0x3de88879	0.11354155
13	0xbddca136	-0.10772936
14	0x3e16d302	0.1472893
15	0x3b7ea89a	0.0038857819

ConvBase.1.feature.lis.3.pointwise.weight f4 [16, 16, 1, 1]
0	0x3dcb8d9b	0.099391185
1	0xbb777e69	-0.0037764555
2	0x3d3bb489	0.04582647
3	0xbd8b44e1	-0.06800247
4	0x3d4c9446	0.049946092
5	0xbb819050	-0.003953971
6	0xbd8b9dd0	-0.0681721
7	0x3da89732	0.08231963
8	0x3dca2086	0.098694846
9	0x3d059e0b	0.032621425
10	0x3dbe9e91	0.09307588
11	0x3cda2230	0.02662763
12	0xbe49eddb	-0.19719641
13	0xbe034ecb	-0.12823026
14	0xbd123bd6	-0.035701595
15	0x3dcfd8a5	0.101487435
16	0x3e81ecde	0.25376028
17	0xbd93d6bf	-0.07218694
18	0xbd9e3883	-0.077256225
19	0x3e04c058	0.12963998
20	0x3dbaf854	0.09129396
21	0x3d83fc42	0.06444599
22	0x3e71ccbc	0.23613256
23	0x3e1b8a66	0.15189514
24	0xbe2707a0	-0.16311502
25	0xbdd22bf4	-0.1026229
26	0x3d814ed2	0.06313862
27	0x3e8c824a	0.27443153
28	0x3c166c2d	0.009181065
29	0x3e4bc597	0.19899593
30	0x3d9a124e	0.075230226
31	0xbda77d74	-0.08178225
32	0x3dcc8c63	0.09987714
33	0xbd9fbed6	-0.07800071
34	0xbe7cce1d	-0.24688001
35	0x3de92f9a	0.113860324
36	0xbe3fbdb2	-0.18724707
37	0x3dcec9ad	0.1009706
38	0xbe2f618b	-0.17127053
39	0x3e43eced	0.19133349
40	0xbdafcbcf	-0.08583795
41	0xbc15886b	-0.009126763
42	0xbd2ff5cd	-0.042959023
43	0xbe8040df	-0.25049493
44	0x3d0a8524	0.03381838
45	0x3ca42611	0.020037683
46	0xbe2c4cd0	-0.16826177
47	0xbe346eb6	-0.17620358
48	0x3dc39484	0.095498115
49	0xbde06eb5	-0.10958616
50	0xbe3b8e46	-0.18315992
51	0xbdcd9e61	-0.10039974
52	0xbe0ac2cc	-0.13550872
53	0x3d1e74e0	0.03868568
54	0xbe1d4d34	-0.15361482
55	0xbe492365	-0.19642408
56	0x3dbd1eed	0.09234414
57	0xbc6b691b	-0.014368321
58	0x3e222bba	0.15836993
59	0x3e3b9cc0	0.18321514
60	0x3bafb225	0.0053618127
61	0xbe1d1510	-0.15340066
62	0x3d65de3d	0.056120146
63	0x3e05201d	0.13000531
64	0xbe31984d	-0.17343254
65	0x3e395c0e	0.18101522
66	0x3d7c2bfe	0.06156539
67	0x3c87a862	0.016559783
68	0xbd2970a7	-0.0413672
69	0xbddf29ef	-0.1089667
70	0x3e3aa29a	0.1822609
71	0x3e61a470	0.22035384
72	0xbca2096b	-0.019779881
73	0xbd4a8094	-0.049439028
74	0x3e1120ed	0.14172716
75	0x3db41a1b	0.08794042
76	0x3dd856c1	0.10563422
77	0xbdb75a0d	-0.08952723
78	0xbe3981c4	-0.18115908
79	0xbe6997b9	-0.22811784
80	0xbe6f05b6	-0.23342022
81	0x3c846a33	0.016163921
82	0xbe2b2eb3	-0.16717033
83	0xbdc0dc72	-0.094170466
84	0x3e4e03ff	0.20118712
85	0xbd081680	-0.033224583
86	0xbe6334ce	-0.22188112
87	0xbc801be6	-0.015638303
88	0xbd9b114f	-0.07571661
89	0x3c68af58	0.014201961
90	0xbdc1d541	-0.09464503
91	0xbdc81a44	-0.09770635
92	0xbe385a4c	-0.18003196
93	0xbe6fd70c	-0.23421878
94	0xbde6eb02	-0.11275293
95	0xbd0f7515	-0.035023768
96	0xbcc2e404	-0.023790367
97	0xbddc7e5b	-0.10766288
98	0x3e2a75a8	0.16646445
99	0xbd93ee2e	-0.072231635
100	0x3e1dfb7c	0.15427965
101	0x3e3cb7e3	0.18429522
102	0x3e376414	0.1790927
103	0xbe4246c2	-0.18972304
104	0xbe69ea02	-0.22843173
105	0xbcd47a74	-0.025937296
106	0x3e113e05	0.14183815
107	0xbd4caf74	-0.049972013
108	0x3e7e3428	0.24824584
109	0xbe35b803	-0.17745976
110	0x3e4e3b2a	0.20139757
111	0xbc1fd700	-0.00975585
112	0x3e2cafa4	0.16863877
113	0xbe5d290a	-0.21597686
114	0x3bcbe9ec	0.006222954
115	0xbddbf9af	-0.10740983
116	0xbced1250	-0.028939396
117	0xbdfdf5e0	-0.124004126
118	0x3de512cc	0.11185226
119	0xbe2871c9	-0.16449656
120	0xbe281c38	-0.16417015
121	0x3bdbefb2	0.0067119235
122	0xbe315f20	-0.17321444
123	0x3de6188a	0.11235149
124	0xbd917c5b	-0.07103797
125	0xbdd236f1	-0.102643855
126	0x3e247bc0	0.16062832
127	0x3e255d82	0.16148952
128	0xbe287c51	-0.16453673
129	0xbcc8b0dd	-0.024498397
130	0x3e81e803	0.25372323
131	0x3cea6b5d	0.028615648
132	0xbe11851f	-0.14210938
133	0xbdd00cd0	-0.10158694
134	0xbd251702	-0.040305145
135	0x3e226fd6	0.15862975
136	0xbe77ad7f	-0.24187277
137	0x3d84398d	0.064562894
138	0xbc9c5db2	-0.019087646
139	0xbe7e39ed	-0.24826784
140	0x3c8aaa45	0.016926894
141	0x3e3dad79	0.18523206
142	0x3dbfe28c	0.09369382
143	0xbdcb0932	-0.09913863
144	0x3d32ecc7	0.04368284
145	0xbdec97cd	-0.11552391
146	0xbc2dd084	-0.010608796
147	0xbca188ba	-0.019718517
148	0x3e8587e6	0.26080245
149	0xbe263749	-0.16232027
150	0xbe0b90b2	-0.13629416
151	0x3cf8797f	0.030331371
152	0x3ba13a6b	0.004920294
153	0xbd00cc86	-0.03144505
154	0x3e4dd542	0.20100883
155	0x3e4b8e30	0.19878459
156	0x3c18e00f	0.0093307635
157	0xbe8307d8	-0.25591922
158	0x3e68cdcc	0.22734755
159	0x3df7b901	0.120958336
160	0x3e03712a	0.12836137
161	0xbd7bfff6	-0.0615234
162	0x3e141a51	0.14463164
163	0x3dca5798	0.098799884
164	0x3d178f1e	0.03700172
165	0x3d4601ff	0.048341747
166	0x3e33f15e	0.17572543
167	0xbe333753	-0.17501573
168	0xbdcc9322	-0.09989001
169	0x3d3b0da7	0.045667317
170	0x3e4de4d6	0.20106825
171	0x3d6d6c8e	0.057964854
172	0xbda262a4	-0.079289705
173	0x3cca779f	0.024715243
174	0xbce48fd3	-0.027900612
175	0x3e21cd98	0.15801084
176	0x3e1e6542	0.15468314
177	0x3d896045	0.06707815
178	0x3d50b274	0.050951436
179	0xbd1474c4	-0.03624417
180	0xbd7f180d	-0.062278796
181	0x3e23b385	0.1598645
182	0xbe22a866	-0.15884551
183	0xbe767972	-0.24069765
184	0x3e30e3e6	0.17274436
185	0xbe0c1ce7	-0.136829
186	0x3e7c0d5b	0.2461447
187	0xbdac99af	-0.0842775
188	0xbc893e98	-0.01675348
189	0x3e5dae2d	0.21648474
190	0x3e2dac2c	0.1696021
191	0x3e441e36	0.1915215
192	0xbe7923cc	-0.24330062
193	0x3d523144	0.051316515
194	0xbe5c8ded	-0.21538515
195	0x3d8a8780	0.06764126
196	0x3dba5db9	0.090999074
197	0x3e53c2f4	0.20679837
198	0xbe49bb79	-0.19700421
199	0x3e28e66d	0.1649415
200	0x3e48244a	0.19545093
201	0x3b7a4533	0.0038188219
202	0xbd0e0faf	-0.034682926
203	0x3e48f630	0.19625163
204	0xbd0ebdfa	-0.034849145
205	0xbe6be165	-0.230352
206	0x3e3f633e	0.18690202
207	0x3cd40bd5	0.025884548
208	0x3d8eb9b0	0.06969011
209	0x3df1e22d	0.11810718
210	0x3e0abdb2	0.13548926
211	0x3dd76796	0.10517804
212	0x3e2e5e9c	0.17028278
213	0xbe140cab	-0.14457957
214	0xbdb868fd	-0.090044
215	0xbdc3b0c0	-0.09555197
216	0x3debe6b1	0.1151861
217	0xbe35224a	-0.17688861
218	0x3dbae2cb	0.091252886
219	0xbe35ce56	-0.17754492
220	0xbd955563	-0.07291677
221	0xbb952bf6	-0.0045523597
222	0xbd0e44ac	-0.03473346
223	0xbde38829	-0.11109955
224	0x3dcac5af	0.099009864
225	0x3cb9fe04	0.022704132
226	0x3e64ba88	0.22336781
227	0x3e43c5f9	0.1911849
228	0x3e2f90fa	0.17145148
229	0xbe5ba91a	-0.21451226
230	0x3db064e2	0.08612992
231	0x3e483823	0.19552664
232	0xba758397	-0.0009365617
233	0xbe464c95	-0.19365151
234	0x3e7b4793	0.24539022
235	0x3c85cb9b	0.016332438
236	0xbe022cbd	-0.12712379
237	0x3d291d79	0.041287873
238	0x3e77e7c4	0.24209505
239	0x3e0a8c9c	0.135302
240	0xbc76a221	-0.015053303
241	0x3e04403d	0.1291513
242	0x3e0e2d36	0.13884434
243	0x3d4cdf08	0.050017387
244	0xbe612dd8	-0.21990144
245	0xbe5453ed	-0.2073514
246	0xbe263ff5	-0.16235335
247	0xbe49da88	-0.1971227
248	0x3c4be713	0.012445229
249	0xbd1ffc71	-0.039059106
250	0x3e108b5c	0.14115661
251	0x3ab33e39	0.001367516
252	0xbe01f61b	-0.12691538
253	0xbe56f8d8	-0.20993364
254	0x3ce400e2	0.027832452
255	0x3e4b418c	0.19849223

ConvBase.1.feature.lis.3.pointwise.bias f4 [16]
0	0x3e82fdc8	0.25584245
1	0x3de2fd33	0.1108345
2	0xbdf95f4e	-0.12176381
3	0xbe40210d	-0.18762608
4	0xbbd96ca4	-0.0066352654
5	0x3e39b4ef	0.18135427
6	0x3e253f5f	0.16137455
7	0x3e5c24bc	0.21498388
8	0xbe22ee0a	-0.15911117
9	0xbdcf4974	-0.10121432
10	0xbc142049	-0.0090409005
11	0x3d2acd7d	0.041699875
12	0xbde332d2	-0.110936776
13	0xbd22a2b0	-0.039705932
14	0x3da97d8a	0.08275898
15	0x3e4f8533	0.20265655

ConvBase.1.feature.bn.weight f4 [16]
0	0x3f7ac2f6	0.97953737
1	0x3f5fd259	0.8743034
2	0x3ef6ba8f	0.48189208
3	0x3e07410a	0.13208404
4	0x3f2b56c1	0.6692925
5	0x3f1a77f4	0.60339284
6	0x3f640fdb	0.89086694
7	0x3f03a21d	0.5141924
8	0x3f732b80	0.9498825
9	0x3f2593de	0.6467875
10	0x3e79cb4a	0.24393955
11	0x3f070d59	0.5275474
12	0x3f4eb904	0.8075106
13	0x3e1005af	0.14064668
14	0x3e5bd88c	0.21469325
15	0x3e9610e9	0.29309776

ConvBase.1.feature.bn.bias f4 [16]
0	0xbb8efe20	-0.00436379
1	0x3c46e649	0.012139865
2	0xbc3927df	-0.01130101
3	0x3d24033b	0.040042143
4	0xba11e602	-0.0005565585
5	0xbc76182e	-0.015020413
6	0x3c1c3b46	0.009535616
7	0x3d020d39	0.03175089
8	0xbcd4c9c0	-0.025975108
9	0x3cb427ac	0.021991573
10	0x3cbebcb3	0.023283338
11	0x3c8c4a40	0.017125249
12	0x3d14f239	0.036363814
13	0x3cd84d7d	0.026404137
14	0x3d35fd1e	0.044430844
15	0x3b2be00d	0.0026226074

ConvBase.1.feature.bn.running_mean f4 [16]
0	0x3e771a73	0.24131183
1	0xbe0c4e31	-0.13701703
2	0x3caaafc9	0.020835774
3	0xbec18012	-0.37793022
4	0xb93c13eb	-0.00017936497
5	0xbea140ad	-0.31494656
6	0xbe06288e	-0.13101408
7	0x3ec02f6b	0.37536177
8	0xbeab43c6	-0.33450145
9	0x3dcb728f	0.0993396
10	0xbdbf784d	-0.093491174
11	0xbcddc64b	-0.027072093
12	0xbd703505	-0.058644313
13	0x3d3b4f75	0.045730073
14	0x3b51ea70	0.0032030605
15	0x3d0e7900	0.034783363

ConvBase.1.feature.bn.running_var f4 [16]
0	0x3b13a1a6	0.002252677
1	0x3af61a54	0.0018776157
2	0x3b4dbac4	0.0031391839
3	0x3b352d70	0.002764549
4	0x3b0673fc	0.002051591
5	0x3b8dceea	0.0043276446
6	0x3b74d325	0.0037357297
7	0x3a78d6df	0.00094924675
8	0x3b617923	0.0034404479
9	0x3b107a95	0.002204572
10	0x3aea0b54	0.0017856159
11	0x3b3bb261	0.0028640258
12	0x3b206ed7	0.0024480128
13	0x3addd12f	0.0016923303
14	0x3b31c524	0.0027125562
15	0x3b216c88	0.002463134

ConvBase.1.bn.weight f4 [64]
0	0x3edf6bf5	0.43637052
1	0x3dcf48a6	0.101212785
2	0x3df34260	0.118778944
3	0x3d9d2611	0.07673276
4	0x3ebe4e17	0.37168953
5	0x3f427bc3	0.75970095
6	0x3f65db75	0.8978799
7	0xbb9821fd	-0.0046427236
8	0x3f3170cf	0.6931276
9	0x3f64a014	0.8930676
10	0x3e831a7b	0.2560614
11	0x3f0dd8d3	0.5540897
12	0x3d3a2507	0.04544547
13	0x3e02f52e	0.12788841
14	0x3f487fac	0.7831981
15	0x3f43172e	0.76207244
16	0x3f47cf1f	0.78050417
17	0x3f4f1143	0.80885714
18	0x3f4ba228	0.79544306
19	0x3ed02185	0.40650573
20	0x3eb57501	0.3544083
21	0x3f556486	0.8335651
22	0x3f18e8c5	0.5973018
23	0x3e88cf04	0.2672044
24	0x3f5ada62	0.85489476
25	0x3f1f7cbc	0.62299705
26	0x3efa72ed	0.48915806
27	0x3f13dd57	0.5775961
28	0x3f506beb	0.8141467
29	0x3ec23613	0.3793188
30	0x3e98ee25	0.2986919
31	0x3f6f26e1	0.934187
32	0x3f31c401	0.69439703
33	0x3ec87fc8	0.3915999
34	0x3e05f38c	0.13081187
35	0x3f703e86	0.93845403
36	0x3e92d0a7	0.28674814
37	0x3f50e373	0.8159706
38	0x3e984104	0.29737103
39	0x3eeb3ee2	0.45946413
40	0x3eb68be8	0.35653615
41	0x3f3b0c61	0.73065764
42	0x3ea04328	0.31301236
43	0x3e0233dd	0.12715097
44	0x3d959bdb	0.07305118
45	0x3ee68f47	0.45031187
46	0x3e3d9ae7	0.18516122
47	0x3f4dc68f	0.803811
48	0x3f40117e	0.7502669
49	0x3efcd285	0.49379364
50	0x3e8bd1bb	0.2730845
51	0x3f2e199e	0.6800784
52	0x3ea43adf	0.32076165
53	0x3f7c3e37	0.9853243
54	0xbb728f1a	-0.0037011565
55	0x3f6e5fd1	0.93114954
56	0x3f70caf1	0.94059664
57	0x3e60d4a6	0.21956119
58	0x3e983b5c	0.29732788
59	0x3f2ad849	0.66736275
60	0x3eedcef2	0.4644695
61	0x3e1345aa	0.14382043
62	0x3f5c8237	0.8613619
63	0x3f35ebd9	0.71063

ConvBase.1.bn.bias f4 [64]
0	0x3cb677b9	0.022273885
1	0x3c6db278	0.014507882
2	0x3c63ae4d	0.013896537
3	0x3c385dec	0.0112528615
4	0xbcf4a73f	-0.029864905
5	0xbcd5c579	-0.026095139
6	0x3d255342	0.040362604
7	0xbc759ed7	-0.014991484
8	0x3ca2a2b7	0.01985298
9	0x3b82f0ed	0.0039960057
10	0xbb45313f	-0.0030089167
11	0xbc9139bd	-0.017727727
12	0xbbebbd3b	-0.007194189
13	0x3b9b25e3	0.004734741
14	0xbd28c5e8	-0.041204363
15	0x3d28901b	0.041153055
16	0xbb4debed	-0.003142114
17	0xbcbf524f	-0.023354677
18	0xbc6631d6	-0.014049968
19	0xbd1e3ac4	-0.038630262
20	0x3cb563b3	0.022142267
21	0xbc39a09c	-0.011329796
22	0x3cb59a87	0.022168411
23	0xbaef4399	-0.0018254399
24	0xbcdca539	-0.026934253
25	0x3c462f45	0.012096231
26	0xbceea66b	-0.029132089
27	0x3cb5cd32	0.022192571
28	0x3affb4c6	0.0019508831
29	0xbb37a853	-0.0028023913
30	0x3c0ac974	0.008470882
31	0xbbdb6bf6	-0.0066962196
32	0xbc045896	-0.008077761
33	0xbccf98b4	-0.02534137
34	0xbcf13cb6	-0.029447895
35	0x3d411caf	0.047146495
36	0xbb8e278a	-0.0043382095
37	0x3c4a729e	0.012356428
38	0x399263d8	0.0002792168
39	0xbbbca5fb	-0.005757091
40	0x3ca1b8ee	0.019741502
41	0xbd36c139	-0.044617865
42	0x3cc30359	0.023805307
43	0xbc123c74	-0.008925546
44	0x3d032094	0.03201349
45	0x3cbf5731	0.023357006
46	0xbba1bfe4	-0.004936205
47	0x3cfbe9c4	0.030751117
48	0xbc16934c	-0.009190392
49	0x3d00f431	0.03148288
50	0x3c37f0df	0.011226862
51	0x3cd49eea	0.025954682
52	0x3ca582a1	0.02020389
53	0xbd193c9b	-0.037411314
54	0xbc877d42	-0.01653922
55	0x3c1ed4aa	0.009694258
56	0xbce99b1b	-0.028516343
57	0x3c9b1051	0.018928679
58	0x3c4a3218	0.012341045
59	0x3ccc44fc	0.024935238
60	0x3b4eefa1	0.0031575935
61	0x3be9cbfe	0.0071349135
62	0xbbd948ea	-0.0066310065
63	0x3be00555	0.006836573

ConvBase.1.bn.running_mean f4 [64]
0	0x3e46f2d8	0.19428575
1	0x3e11049f	0.14161919
2	0x3debd54d	0.11515293
3	0x3d7893c4	0.060687795
4	0x3e1b327a	0.15155974
5	0x3d007399	0.031360243
6	0x3ca6f126	0.02037866
7	0x3e0c1554	0.13680011
8	0x3e6cf1b2	0.23139074
9	0x3e2c258b	0.16811197
10	0x3d97572c	0.073896736
11	0x3d074e9b	0.03303395
12	0x3e5d75f2	0.21627024
13	0x3cd84dba	0.02640425
14	0x3d8fcd56	0.070215866
15	0x3d8c3455	0.06845919
16	0x3e74c80e	0.2390444
17	0x3e5f6984	0.21817595
18	0x3dba7b64	0.09105566
19	0x3d915631	0.07096518
20	0x3e48c56a	0.19606557
21	0x3e3fa35f	0.18714665
22	0x3e326890	0.174227
23	0x3e07708b	0.13226525
24	0x3e02feca	0.12792507
25	0x3e42c609	0.19020857
26	0x3d83d449	0.064369746
27	0x3e122cb8	0.14274871
28	0x3e139e9e	0.14415976
29	0x3d5d59ef	0.054040845
30	0x3d99ab3d	0.07503364
31	0x3d9d509e	0.07681392
32	0x3eae54bc	0.34049022
33	0x3e8d76ea	0.27629787
34	0x3e0e4c49	0.13896288
35	0x3d584d65	0.052808184
36	0x3e630d7b	0.22173111
37	0x3e525984	0.2054196
38	0x3e7a07f2	0.24417093
39	0x3e4a4208	0.19751751
40	0x3e73911f	0.23785828
41	0x3df65f21	0.12029863
42	0x3d8d5ea5	0.06902818
43	0x3e2468e2	0.16055635
44	0x3e755c47	0.23960982
45	0x3d4c52e2	0.04988373
46	0x3d8a903c	0.06765792
47	0x3da22a8d	0.07918272
48	0x3e821d2c	0.2541288
49	0x3e9e2095	0.30884233
50	0x3e094c40	0.13407993
51	0x3d890dc6	0.0669208
52	0x3e462d81	0.19353296
53	0x3e215aba	0.15757266
54	0x3e6fb82d	0.23410101
55	0x3e4896c5	0.19588764
56	0x3e89cbd5	0.26913324
57	0x3e616525	0.2201124
58	0x3db43132	0.08798446
59	0x3e2b274a	0.16714206
60	0x3e98aafb	0.29817948
61	0x3d76eb13	0.060282778
62	0x3daa744b	0.083229624
63	0x3de167f5	0.11006156

ConvBase.1.bn.running_var f4 [64]
0	0x3dc4e205	0.09613422
1	0x3d3f4232	0.04669399
2	0x3d12a67c	0.035803303
3	0x3b899f57	0.004199903
4	0x3d6c0633	0.0576231
5	0x3b60ab28	0.0034281705
6	0x3b18ca70	0.0023314022
7	0x3e0902fd	0.13380046
8	0x3effb46c	0.49942338
9	0x3e619960	0.22031164
10	0x3d13f7ef	0.03612512
11	0x3bbc9791	0.005755373
12	0x3eb50050	0.353518
13	0x352dfafb	6.4812747e-07
14	0x3cb4fd4c	0.022093438
15	0x3c3a193e	0.011358557
16	0x3ebdee13	0.370957
17	0x3ed57ed0	0.41698313
18	0x3de58f44	0.112089664
19	0x3c06d07d	0.008228418
20	0x3dd91c69	0.10601122
21	0x3e51b95d	0.20480867
22	0x3f28bb7f	0.65911096
23	0x3e3c39c8	0.18381417
24	0x3e0842a4	0.13306671
25	0x3e81c219	0.25343397
26	0x3d024ca1	0.03181136
27	0x3e0ff0aa	0.1405665
28	0x3d2a8081	0.041626457
29	0x3c42240f	0.011849417
30	0x3b404a07	0.0029340999
31	0x3d87d7fb	0.06632992
32	0x3f027d9b	0.5097291
33	0x3e773d7c	0.24144548
34	0x3d92b9aa	0.07164319
35	0x3c0ace53	0.008472043
36	0x3e0384cc	0.12843627
37	0x3e2e567d	0.1702518
38	0x3db53d73	0.08849611
39	0x3dfa1e47	0.12212806
40	0x3dbc3dee	0.091915
41	0x3eb39649	0.35075596
42	0x3d152fb6	0.036422454
43	0x3d73fc3a	0.059566714
44	0x3ef4bca6	0.47800177
45	0x3c059830	0.00815396
46	0x3d0fe829	0.035133515
47	0x3ccb2991	0.024800094
48	0x3f403225	0.75076514
49	0x3e61fa8b	0.22068231
50	0x3d87d924	0.06633213
51	0x3beff141	0.007322461
52	0x3e16a542	0.14711478
53	0x3e410521	0.18849613
54	0x3e6210f6	0.22076783
55	0x3dd9b965	0.10631064
56	0x3ef78cf5	0.4834973
57	0x3d953d66	0.072871014
58	0x3d185df8	0.03719899
59	0x3e29dbf1	0.16587807
60	0x3e88d6fc	0.2672652
61	0x3c420caf	0.011843844
62	0x3ce3c513	0.027803933
63	0x3d3e3ce8	0.046444803
