waights/weights1.pth (torch_old, 670822 bytes, 196 tensors)

ConvBase.1.feature.lis.0.X_conv.conv.weight f4 [1, 1, 3, 1]
-0.02051309 -0.15021284 -0.10565808
00000000: 110b a8bc 65d1 19be 4363 d8bd

ConvBase.1.feature.lis.0.Y_conv.conv.weight f4 [1, 1, 1, 3]
0.30895013 -0.06691582 -0.1493647
00000000: b62e 9e3e 290b 89bd 0ff3 18be

ConvBase.1.feature.lis.0.pointwise.weight f4 [16, 1, 1, 1]
-0.350752 -0.2248739 -0.78787816 -0.9456383 -0.49335113 -0.08926286 0.037617844 0.5892885
0.83204854 0.66798466 0.90841305 0.07024433 0.6921078 -0.0052259793 0.46995714 -0.45575893
00000000: c495 b3be 5845 66be 62b2 49bf 5a15 72bf
00000010: 8598 fcbe 72cf b6bd 2b15 1a3d 9cdb 163f
00000020: 2201 553f 0b01 2b3f c28d 683f 42dc 8f3d
00000030: fa2d 313f b13e abbb 399e f03e 3c59 e9be

ConvBase.1.feature.lis.0.pointwise.bias f4 [16]
0.8339223 -0.29914883 0.6901754 -0.99674815 -0.27472913 -0.80902076 -0.30574754 0.9112009
-0.7080062 0.24538742 -0.4593733 -0.5416236 0.030238602 -0.08334043 -0.28945887 -0.4130218
00000000: ef7b 553f 092a 99be 56af 303f e32a 7fbf
00000010: 4ca9 8cbe fc1b 4fbf f18a 9cbe 7644 693f
00000020: e53f 35bf d746 7b3e fa32 ebbe d8a7 0abf
00000030: f2b6 f73c 63ae aabd f433 94be 9877 d3be

ConvBase.1.feature.lis.1.X_conv.conv.weight f4 [16, 1, 5, 1]
0.24698684 -0.29430014 0.015655685 0.3382517 0.24417804 0.022547262 0.34414116 0.0070607485
0.13234374 -0.27602357 -0.22488846 -0.31837913 -0.061421953 0.2885008 -0.11562107 -0.06961487
0.02398552 0.18196921 0.42384094 0.014468123 -0.37279558 -0.0898987 0.030271491 -0.3206671
0.3517837 0.1275068 0.25875494 -0.37599823 0.22317196 0.16752508 -0.2824104 -0.18446521
-0.19621247 0.1822812 -0.0089754015 0.06805245 -0.04177487 0.44303775 0.39625633 0.13598174
0.06688167 -0.32584366 0.36262333 0.24283686 0.10488976 -0.32469454 -0.2906016 0.09212015
0.13637975 -0.394219 -0.06938884 -0.06439314 -0.43074954 -0.012043479 0.38007477 -0.43420437
-0.44355467 0.2932462 0.18976505 0.3525442 -0.17503019 -0.053381953 -0.0528176 0.39506838
-0.2793435 -0.3578551 0.33912605 -0.1765671 0.09326971 -0.067691125 -0.010226351 0.009731655
-0.29532367 -0.4445562 0.24520743 0.35782772 -0.080850765 0.14620046 0.2029834 -0.38705054
00000000: 1eea 7c3e 82ae 96be 5a40 803c 542f ad3e
00000010: cf09 7a3e 09b5 b83c 4533 b03e da5d e73b
00000020: 1e85 073e f652 8dbe 2949 66be 9702 a3be
00000030: 9695 7bbd 60b6 933e bdca ecbd 3e92 8ebd
00000040: 487d c43c 2356 3a3e ae01 d93e b50b 6d3c
00000050: 10df bebe cf1c b8bd ebfb f73c 7a2e a4be
00000060: fe1c b43e 2591 023e 877b 843e d782 c0be
00000070: 3187 643e b28b 2b3e 1998 90be 73e4 3cbe
00000080: eceb 48be eca7 3a3e 900d 13bc 155f 8b3d
00000090: 201c 2bbd d8d5 e23e 1ce2 ca3e cc3e 0b3e
000000a0: 42f9 883d fbd4 a6be c4a9 b93e 3aaa 783e
000000b0: 71d0 d63d 5d3e a6be bcc9 94be 7da9 bc3d
000000c0: 22a7 0b3e 13d7 c9be bc1b 8ebd 8de0 83bd
000000d0: 348b dcbe 0352 45bc 2999 c23e 0950 debe
000000e0: 9919 e3be 5e24 963e c551 423e ac80 b43e
000000f0: 1d3b 33be 09a7 5abd 4557 58bd 6746 ca3e
00000100: 1c06 8fbe c938 b7be eea1 ad3e 02ce 34be
00000110: 3104 bf3d a5a1 8abd 6d8c 27bc 8571 1f3c
00000120: aa34 97be df9c e3be a817 7b3e 3235 b73e
00000130: 1695 a5bd 93b5 153e e1da 4f3e 7d2b c6be

ConvBase.1.feature.lis.1.X_conv.conv.bias f4 [16]
0.019765176 0.10960967 0.035450693 -0.43821803 -0.29423255 -0.3826187 -0.44619918 0.104970455
0.1717722 -0.16702138 0.30744457 0.30574164 0.0866136 0.11497473 -0.43042368 -0.0049435585
00000000: 94ea a13c 097b e03d bf34 113d 1d5e e0be
00000010: a6a5 96be 99e6 c3be 3874 e4be c0fa d63d
00000020: 0de5 2f3e a707 2bbe 6069 9d3e 2b8a 9c3e
00000030: 7962 b13d df77 eb3d 7e60 dcbe 93fd a1bb

ConvBase.1.feature.lis.1.Y_conv.conv.weight f4 [16, 1, 1, 5]
0.27045766 0.36624032 -0.35901597 -0.2077053 0.019969758 0.3255587 0.42602578 -0.10722862
0.0027122642 -0.42384467 -0.32772315 0.036743153 0.23954894 -0.31679982 -0.261597 -0.27624357
0.24966528 0.4567063 -0.20832106 -0.35700265 -0.2653539 0.38302383 0.3954777 -0.3379461
0.19893314 -0.24337323 -0.19955383 -0.37407565 0.12287268 -0.38083333 0.08889963 -0.088335305
0.04353967 0.27244315 0.10932674 -0.34221932 0.26378012 -0.08757939 -0.09805694 0.0780818
-0.03510225 -0.41115493 -0.09246467 0.14718582 -0.31722122 0.22471881 -0.34622052 -0.11946583
0.40881705 0.29617354 0.24368408 0.12159788 -0.08525974 0.17990199 -0.25507444 0.37297523
-0.39687228 0.23654766 -0.12194328 -0.13536315 0.42681798 -0.19031788 0.17325537 0.4214741
0.019209167 0.30089954 0.011784009 0.24821231 0.39418653 -0.27426776 -0.29045266 -0.41726723
0.3814319 -0.42438972 0.37979823 0.3313364 -0.06489843 -0.43857217 -0.24062131 -0.011804948
00000000: 6d79 8a3e da83 bb3e f1d0 b7be b3b0 54be
00000010: 9e97 a33c a1af a63e 0d20 da3e ae9a dbbd
00000020: 3ec0 313b 2b02 d9be 54cb a7be fd7f 163d
00000030: 514c 753e 9633 a2be 0bf0 85be cc6f 8dbe
00000040: 41a8 7f3e 68d5 e93e 1e52 55be 0dc9 b6be
00000050: 77dc 87be b31b c43e 0e7c ca3e 4507 adbe
00000060: 21b5 4b3e d536 79be d757 4cbe d886 bfbe
00000070: aca4 fb3d 96fc c2be 0211 b63d 24e9 b4bd
00000080: a756 323d ab7d 8b3e b3e6 df3d 5f37 afbe
00000090: 300e 873e d35c b3bd 14d2 c8bd 5ae9 9f3d
000000a0: 60c7 0fbd e682 d2be 1e5e bdbd e1b7 163e
000000b0: d26a a2be b01c 663e d143 b1be 80aa f4bd
000000c0: 7850 d13e 0fa4 973e 5288 793e 4f08 f93d
000000d0: a99c aebd 3a38 383e 1e99 82be 9cf6 be3e
000000e0: d832 cbbe 8d39 723e 66bd f9bd a39c 0abe
000000f0: e387 da3e b1e2 42be db69 313e 74cb d73e
00000100: 8b5c 9d3c 810f 9a3e b711 413c 5e2b 7e3e
00000110: d1d2 c93e d36c 8cbe 36b6 94be 0da4 d5be
00000120: 0b4b c33e 9c49 d9be ea74 c23e eda4 a93e
00000130: 78e9 84bd 888c e0be 6f65 76be 8a69 41bc

ConvBase.1.feature.lis.1.Y_conv.conv.bias f4 [16]
0.19164798 0.2525578 -0.14761655 0.2745892 0.12035596 0.06755717 0.051019683 0.15248325
0.35098508 0.051434703 -0.42901126 -0.15768869 -0.3719786 0.20105755 -0.34045023 -0.3813603
00000000: 5e3f 443e 424f 813e cb28 17be f596 8c3e
00000010: 307d f63d 6a5b 8a3d 04fa 503d 9224 1c3e
00000020: 51b4 b33e 32ad 523d 5da7 dbbe 2579 21be
00000030: fb73 bebe 08e2 4d3e 7e4f aebe a841 c3be

ConvBase.1.feature.lis.1.pointwise.weight f4 [16, 16, 1, 1]
-0.19379796 -0.22637728 -0.12702894 0.16352345 -0.21495451 0.09717318 0.1027946 0.23173428
-0.064301446 -0.0757183 -0.057932932 0.14606562 -0.18172531 0.21729687 -0.21931191 0.2041366
0.16902366 0.09395252 0.044909514 -0.06128248 -0.19842267 -0.17658398 0.16584979 0.19681148
0.050523892 0.14056319 -0.20447879 0.101402335 -0.13334599 0.099495605 0.19146869 -0.017574247
-0.19439006 -0.11862586 -0.039076973 0.06911402 -0.24607517 0.02856656 0.09216437 -0.19410022
0.17581293 0.03117314 -0.17774169 0.2103952 0.008175455 -0.17795606 -0.09946316 -0.21943283
0.0020537002 -0.16386873 0.14829232 -0.071461394 -0.19259061 0.053609572 0.18767986 0.019616943
0.09239533 0.0047634915 0.17548446 -0.09532647 0.08746676 -0.24578428 -0.044456847 -0.24263306
-0.19036448 0.1875636 0.21636975 0.16536352 -0.14714755 0.20793667 0.1967753 -0.17861797
0.24373427 0.13377917 0.042847447 -0.02923098 -0.11863242 -0.1643359 0.05392605 -0.12538177
0.08467366 -0.12476976 -0.05176514 -0.06917801 -0.06115353 0.05652721 0.03798567 -0.022819435
-0.17464933 -0.04590944 0.030531002 -0.21651357 -0.0011358734 -0.13115735 -0.032169893 0.15917842
-0.24359742 0.03427597 -0.08358016 0.02242222 0.08215888 -0.19561253 -0.07176954 0.035431344
-0.16351824 0.12290423 0.2455564 -0.015428898 -0.17949308 -0.043060515 -0.00842772 0.21792692
-0.13761428 0.13005799 -0.14977759 0.07007728 0.1850618 -0.17250234 -0.024204448 0.1425074
-0.115974605 -0.053384546 -0.10241314 -0.09549731 0.020142734 -0.14390239 -0.032625794 -0.14284015
0.06183606 0.075705536 -0.21776411 -0.23270796 -0.0174104 0.041175723 0.2477734 -0.10632227
0.10267985 -0.14480208 0.24867141 -0.2555452 0.16931738 -0.17252688 0.21430539 0.16637339
0.116082564 0.066270575 0.22606112 -0.08878748 -0.038588416 -0.018839858 0.2198108 -0.12638457
-0.044093348 0.23589452 -0.115459874 0.040238034 0.010958095 -0.22469433 0.12971202 0.09142975
0.23782036 0.23792663 -0.03120124 0.0748342 0.15474817 0.0418013 -0.2317038 0.0088146245
-0.18701313 0.20542388 0.19656776 -0.17784856 0.16451749 -0.12324164 -0.22040613 -0.16082391
-0.13302307 -0.009505194 -0.058999434 0.23216088 0.00415371 -0.06261706 -0.07274541 -0.16670549
0.073818386 0.13300683 0.038387563 0.09426189 0.06733069 -0.14859161 -0.21325943 0.026322184
0.12307896 -0.20826317 -0.0697701 -0.14834702 0.12419307 -0.1849665 0.10498132 -0.0025754983
0.1520796 -0.21930528 0.041233756 0.16552554 0.11859888 -0.08547807 -0.0040444667 -0.24177669
-0.2415459 0.18053423 -0.124408476 -0.09759611 0.14407407 -0.12095979 -0.22398175 -0.057118334
-0.08446191 -0.01951214 0.14752561 -0.15400268 0.14052433 0.18043676 -0.118880115 -0.21732934
0.13472746 0.025481554 -0.11615816 0.13193363 -0.03344125 0.11555995 0.08457549 0.23492591
0.1130245 -0.18784231 -0.12591943 0.01356384 0.16741258 -0.15322945 0.21252422 0.0003894206
-0.012896168 -0.15708855 0.18374737 -0.22173618 -0.071918905 0.050467018 -0.011950626 -0.18032947
-0.10243531 -0.090046905 -0.04693836 -0.19497803 -0.043375697 0.21218891 0.24527633 -0.093437485
00000000: f972 46be 72cf 67be e013 02be b172 273e
00000010: 091d 5cbe bb02 c73d fa85 d23d c04b 6d3e
00000020: 7ab0 83bd 3212 9bbd 154b 6dbd 3a92 153e
00000030: 3316 3abe 1283 5e3e 4d93 60be 2f09 513e
00000040: 8a14 2d3e 2e6a c03d 0af3 373d 5603 7bbd
00000050: 502f 4bbe 6ed2 34be 87d4 293e f388 493e
00000060: 24f2 4e3d ccef 0f3e e362 51be 07ac cf3d
00000070: da8b 08be 5ac4 cb3d 5e10 443e def7 8fbc
00000080: 300e 47be 1df2 f2bd 2d0f 20bd a78b 8d3d
00000090: 21fb 7bbe 6b04 ea3c acc0 bc3d 35c2 46be
000000a0: 4e08 343e d05e ff3c eb01 36be d771 573e
000000b0: 58f2 053c 1d3a 36be 57b3 cbbd 00b3 60be
000000c0: 5f97 063b 34cd 27be f1d9 173e 5a5a 92bd
000000d0: 7936 45be b695 5b3d 262f 403e b6b3 a03c
000000e0: c339 bd3d 1017 9c3b 33b2 333e 863a c3bd
000000f0: c621 b33d e0ae 7bbe 6218 36bd cd74 78be
00000100: e8ee 42be ac10 403e 0890 5d3e 0e55 293e
00000110: d9ad 16be 5aed 543e 777f 493e a1e7 36be
00000120: 7a95 793e 68fd 083e ce80 2f3d cf75 efbc
00000130: 8ef5 f2bd ac47 28be 90e1 5c3d 1464 00be
00000140: 6269 ad3d 4a87 ffbd af07 54bd 33ad 8dbd
00000150: 207c 7abd 1389 673d dd96 1b3d d3ef babc
00000160: 46d7 32be 890b 3cbd 271c fa3c bcb5 5dbe
00000170: 96e1 94ba 1d4e 06be 94c4 03bd abff 223e
00000180: 9a71 79be f664 0c3d 132c abbd ceae b73c
00000190: ea42 a83d a74e 48be e9fb 92bd 7520 113d
000001a0: 5371 27be 37b5 fb3d 2373 7b3e 7dc9 7cbc
000001b0: 09cd 37be 3960 30bd 6b14 0abc 3c28 5f3e
000001c0: c2ea 0cbe ec2d 053e 4c5f 19be ad84 8f3d
000001d0: d780 3d3e 74a4 30be 6848 c6bc 76ed 113e
000001e0: 1884 edbd c1a9 5abd fbbd d1bd 1894 c3bd
000001f0: 6002 a53c 265b 13be a0a2 05bd b044 12be
00000200: cf47 7d3d 810b 9b3d 8efd 5ebe ff4a 6ebe
00000210: 41a0 8ebc e0a7 283d 4fb8 7d3e 7ebf d9bd
00000220: d049 d23d ff46 14be b8a3 7e3e d2d6 82be
00000230: 8961 2d3e e3aa 30be df72 5b3e c95d 2a3e
00000240: b2bc ed3d deb8 873d 917c 673e 36d6 b5bd
00000250: e30e 1ebd 0c56 9abc 1516 613e f56a 01be
00000260: 3a9b 34bd 558e 713e 3a76 ecbd a3d0 243d
00000270: 9589 333c 4516 66be 3ad3 043e 853f bb3d
00000280: 2e87 733e 0aa3 733e be99 ffbc ac42 993d
00000290: 4e76 1e3e d737 2b3d c343 6dbe 376b 103c
000002a0: 5f80 3fbe a35a 523e 0f49 493e ef1d 36be
000002b0: 4677 283e 1d66 fcbd 25b2 61be 06af 24be
000002c0: 3337 08be acbb 1bbc 64a9 71bd 95bb 6d3e
000002d0: d81b 883b 603d 80bd 8cfb 94bd d8b4 2abe
000002e0: 182e 973d f132 083e 473c 1d3d 610c c13d
000002f0: ace4 893d 6628 18be ae60 5abe 9fa1 d73c
00000300: d210 fc3d f142 55be a0e3 8ebd 48e8 17be
00000310: f058 fe3d dc67 3dbe 7200 d73d b1c9 28bb
00000320: c1ba 1b3e 9091 60be bae4 283d 877f 293e
00000330: f8e3 f23d 200f afbd 7287 84bb 4f94 77be
00000340: cf57 77be f7dd 383e dfc9 febd 78e0 c7bd
00000350: 2788 133e c4b9 f7bd 795b 65be eaf4 69bd
00000360: 5efa acbd ecd7 9fbc f410 173e e1b2 1dbe
00000370: 9ce5 0f3e 6ac4 383e 6b77 f3bd 958b 5ebe
00000380: fff5 093e b1be d03c 54e4 edbd 9c19 073e
00000390: b1f9 08bd b2aa ec3d ea35 ad3d 6b90 703e
000003a0: 6479 e73d bc59 40be 06f1 00be de3a 5e3c
000003b0: 346e 2b3e 2ee8 1cbe f39f 593e 262b cc39
000003c0: 734a 53bc d2db 20be 4528 3c3e cf0e 63be
000003d0: 384a 93bd 81b6 4e3d 8fcc 43bc 4aa8 38be
000003e0: 9bc9 d1bd 836a b8bd 7042 40bd 52a8 47be
000003f0: b7aa 31bd 0d48 593e b829 7b3e 275c bfbd

ConvBase.1.feature.lis.1.pointwise.bias f4 [16]
0.2501049 -0.2293818 0.14823988 -0.18548924 -0.09737119 -0.239919 -0.20471546 0.12780912
-0.19366896 0.23779956 -0.016814867 0.12334312 0.08238858 0.0093111005 0.12378404 -0.25635183
00000000: c00d 803e 10e3 6abe 32cc 173e e4f0 3dbe
00000010: 8c6a c7bd 54ad 75be eea0 51be 65e0 023e
00000020: 2851 46be ba81 733e 55bf 89bc 519b fc3d
00000030: 58bb a83d 968d 183c 7d82 fd3d 8c40 83be

ConvBase.1.feature.lis.2.X_conv.conv.weight f4 [16, 1, 7, 1]
0.25943583 -0.35059124 0.37395805 0.116089225 0.344599 -0.102606475 -0.30936074 0.094468944
0.027197639 0.17711133 0.10920267 -0.15451236 0.19273424 0.3194579 -0.14703265 -0.09323661
-0.3439603 0.13288328 -0.24785212 0.28779602 -0.032737862 -0.36031407 0.15041623 -0.20908496
0.31591037 -0.08906505 -0.18269186 0.033904776 0.10726427 0.20670164 0.28034467 0.34778273
0.20475902 -0.2501001 0.34914076 -0.029939959 -0.11424888 -0.05266236 0.3103286 -0.3154096
-0.18651985 -0.19849034 -0.12875845 -0.25201848 -0.2129735 0.05192567 0.091781154 -0.37526518
0.20944846 -0.28630248 -0.22478195 0.36317086 0.26803386 0.26827446 0.17057607 0.31995833
-0.3205035 0.29548553 0.19717647 -0.041186854 0.121296346 0.012444404 -0.12081809 0.23341456
0.2518271 0.2797345 0.09785949 -0.36616316 -0.08521039 -0.35849684 0.33450624 0.316463
0.204804 -0.19075036 0.06986841 -0.16348532 0.23893687 0.11504742 0.028851278 0.107411206
0.29185945 -0.10736855 -0.2248974 -0.12289238 0.028771222 -0.14229807 0.08799357 0.030147364
0.013245412 0.13234547 -0.3490672 -0.12850836 0.021105776 0.22028793 -0.37417772 -0.18403806
-0.2886962 -0.37584686 0.09325154 0.36325422 -0.05371744 -0.19793637 -0.1979179 -0.047041513
0.0339349 0.29898077 0.13206284 -0.32679012 -0.22692597 0.12635328 -0.28795302 -0.04644134
00000000: c6d4 843e b280 b3be 6e77 bf3e 30c0 ed3d
00000010: 486f b03e 5823 d2bd 8864 9ebe ef78 c13d
00000020: 95cd de3c ac5c 353e a6a5 df3d 7d38 1ebe
00000030: 205c 453e fc8f a33e ba8f 16be d6f2 bebd
00000040: 901b b0be 8e12 083e f2cc 7dbe 005a 933e
00000050: 2318 06bd 167b b8be b606 1a3e 5e1a 56be
00000060: 01bf a13e bd67 b6bd 9313 3bbe bcdf 0a3d
00000070: 5fad db3d 98a9 533e 5689 8f3e 9410 b23e
00000080: 59ac 513e 1f0d 80be 94c2 b23e a544 f5bc
00000090: 51fb e9bd 7db4 57bd 64e3 9e3e 5e7d a1be
000000a0: 0fff 3ebe 0d41 4bbe 41d9 03be 9108 81be
000000b0: ba15 5abe 03b0 543d c2f7 bb3d c222 c0be
000000c0: a879 563e 3d96 92be 3d2d 66be 88f1 b93e
000000d0: bc3b 893e 455b 893e 7eab 2e3e 94d1 a33e
000000e0: 0919 a4be e149 973e a1e8 493e 8cb3 28bd
000000f0: 386a f83d 9de3 4b3c 7a6f f7bd 3a04 6f3e
00000100: 7bef 803e 5c39 8f3e 8e6a c83d bd79 bbbe
00000110: c982 aebd e68c b7be 6744 ab3e 7007 a23e
00000120: 24b8 513e 1054 43be 2b17 8f3d b268 27be
00000130: deab 743e fb9d eb3d 8459 ec3c 68fa db3d
00000140: 9a6e 953e 0be4 dbbd 814b 66be 00af fbbd
00000150: a0b1 eb3c 96b6 11be f935 b43d 9bf7 f63c
00000160: 4903 593c 9285 073e f0b8 b2be b297 03be
00000170: 05e6 ac3c 2993 613e 3994 bfbe 7974 3cbe
00000180: fdcf 93be 006f c0be aafa be3d 75fc b93e
00000190: d206 5cbd d5af 4abe fdaa 4abe 9aae 40bd
000001a0: 52ff 0a3d 0214 993e 7b3b 073e 0951 a7be
000001b0: 485f 68be c162 013e 946e 93be 4639 3ebd

ConvBase.1.feature.lis.2.X_conv.conv.bias f4 [16]
-0.048747182 0.22758442 -0.14610206 -0.15577227 -0.048078895 0.19834074 0.21833262 0.08855521
0.15615134 -0.07283801 0.31080252 0.090320095 0.030935057 -0.121809885 0.36752036 -0.09158685
00000000: 20ab 47bd e40b 693e c79b 15be c482 1fbe
00000010: 60ee 44bd d619 4b3e 9692 5f3e 6f5c b53d
00000020: 23e6 1f3e 182c 95bd 8221 9f3e bef9 b83d
00000030: 846b fd3c 7677 f9bd a12b bc3e e391 bbbd

ConvBase.1.feature.lis.2.Y_conv.conv.weight f4 [16, 1, 1, 7]
0.070743896 0.24990574 -0.26040286 -0.12713505 0.07849778 -0.3127749 0.34194556 0.060078148
-0.34325063 0.08783119 -0.02474354 -0.32593957 0.18706621 0.10980086 -0.11184083 0.027207203
-0.23432812 0.28258294 0.073161274 0.16812316 -0.02755032 -0.09828384 0.27420604 0.02945478
0.36069712 -0.010169493 0.1045106 0.3096313 0.24971147 0.18890826 0.20460384 -0.03755271
0.11845397 0.14008434 0.2387436 0.14965263 -0.05843066 0.094413854 -0.4032408 0.11529616
0.076094575 0.28123632 0.19842519 -0.2300707 -0.32717 0.24214572 0.025868032 0.30908296
-0.0255337 -0.12389467 -0.009823962 0.14694685 -0.2709925 -0.3111079 -0.0027414593 0.097888
-0.3799347 0.067129135 -0.36879772 -0.24440709 0.24602205 -0.00593184 -0.06279711 -0.086069
-0.3899545 -0.16247468 0.10166247 0.121271454 -0.19359635 -0.27959374 -0.0480603 0.03834111
0.28159752 0.12576567 0.11234358 0.2852641 -0.31440482 0.21617836 -0.23589931 0.16668424
-0.14571151 -0.17165585 -0.3581368 0.3691947 0.15575095 0.15941665 -0.024059508 -0.23258588
0.07468543 0.27909845 -0.136434 -0.038092162 -0.010158513 0.22107297 0.113762446 0.3927717
0.16692746 -0.19651945 0.21681936 -0.055103686 -0.11769818 -0.07164071 0.27832487 0.35472125
0.21349317 -0.27562153 0.083430216 -0.34401286 -0.2579231 -0.00582997 -0.047831137 0.32373103
00000000: 2de2 903d 4ae7 7f3e 8653 85be b12f 02be
00000010: 72c3 a03d 0824 a0be 7d13 af3e 8114 763d
00000020: 8cbe afbe d7e0 b33d f7b2 cabc 8de1 a6be
00000030: 498e 3f3e 46df e03d ce0c e5bd a4e1 de3c
00000040: b6f3 6fbe b6ae 903e 94d5 953d 7a28 2c3e
00000050: 35b1 e1bc 0a49 c9bd bc64 8c3e 274b f13c
00000060: 4bad b83e f29d 26bc a709 d63d fe87 9e3e
00000070: 5db4 7f3e 2b71 413e ab83 513e dfd0 19bd
00000080: ff97 f23d 4572 0f3e 3479 743e 8a3e 193e
00000090: fd54 6fbd 0d5c c13d 9475 cebe 6520 ec3d
000000a0: 79d7 9b3d 35fe 8f3e f92f 4b3e a797 6bbe
000000b0: d482 a7be 0cf5 773e 32e9 d33c 1f40 9e3e
000000c0: 0d2c d1bc 7dbc fdbd aff4 20bc 3c79 163e
000000d0: 87bf 8abe 8949 9fbe 0eaa 33bb 8179 c83d
000000e0: cd86 c2be 007b 893d 0ed3 bcbe da45 7abe
000000f0: 34ed 7b3e e15f c2bb c59b 80bd f244 b0bd
00000100: 1ea8 c7be c35f 26be 6a34 d03d 2b5d f83d
00000110: 1f3e 46be e926 8fbe e1da 44bd 910b 1d3d
00000120: 8d2d 903e b7c8 003e 6414 e63d 230e 923e
00000130: abf9 a0be dc5d 5d3e 978f 71be 46af 2a3e
00000140: 6635 15be 8dc6 2fbe b55d b7be 1607 bd3e
00000150: 2d7d 1f3e 1e3e 233e 7218 c5bc fe2a 6ebe
00000160: adf4 983d fee5 8e3e 5bb5 0bbe 8706 1cbd
00000170: e46f 26bc f460 623e 49fc e83d 5f19 c93e
00000180: 08ef 2a3e 653c 49be e505 5e3e 67b4 61bd
00000190: be0b f1bd 5db8 92bd 9980 8e3e 069e b53e
000001a0: f49d 5a3e 441e 8dbe 76dd aa3d 7422 b0be
000001b0: 7f0e 84be 5509 bfbb 95ea 43bd 13c0 a53e

ConvBase.1.feature.lis.2.Y_conv.conv.bias f4 [16]
0.063599624 0.1619493 -0.33797708 -0.35516167 -0.23230731 -0.0342113 0.16620153 -0.062377173
0.075277016 0.33305424 -0.100152686 0.3251605 -0.29201588 0.1311736 0.31188843 0.29038072
00000000: 8540 823d 0ad6 253e 550b adbe c0d7 b5be
00000010: f8e1 6dbe 2621 0cbd bc30 2a3e 357f 7fbd
00000020: d62a 9a3d 1686 aa3e da1c cdbd 707b a63e
00000030: 1b83 95be 5f52 063e d7af 9f3e c8ac 943e

ConvBase.1.feature.lis.2.pointwise.weight f4 [16, 16, 1, 1]
-0.09285642 -0.08499724 0.24075672 0.21003816 0.23647542 0.0062860143 0.10438847 0.120678045
-0.22419369 0.019203572 0.11770367 0.23064059 0.12504315 -0.044481054 -0.18389694 -0.20155579
0.16549845 -0.121100836 0.12543379 0.09692049 -0.100094676 -0.024527803 0.027489522 0.010494219
0.067942604 0.022893598 -0.13864747 -0.014370942 -0.03923379 -0.022339208 0.18844175 -0.1622957
-0.18274382 0.17078297 0.21418938 0.22778904 -0.16347638 0.22397898 0.11953322 -0.00071747607
0.14011209 0.12065143 0.08251197 0.067953564 0.1607344 0.0621504 -0.20823807 -0.1540224
-0.23894534 -0.17731194 0.012377549 0.0626027 0.021410313 -0.19215722 -0.23270588 -0.072354876
0.25003287 -0.12535226 0.1408887 -0.20825602 0.09831369 0.23518138 -0.09030226 -0.18728323
-0.07733189 0.20167063 -0.24622601 0.2040146 -0.10138628 -0.1317647 0.028443344 -0.069747224
0.07190417 0.15470573 -0.073182926 -0.23270427 -0.15754741 -0.084027804 0.010011001 0.10312559
0.123576455 -0.021241602 0.09373976 -0.116066985 0.2168887 0.24031422 0.18504523 0.11079543
0.26538178 -0.087835245 0.23471381 -0.0091532655 0.14984612 0.0469508 0.13183641 -0.2509171
0.11205236 0.12723638 0.04510815 -0.09191507 -0.16852093 -0.063892536 -0.10992172 0.19383414
0.24175765 0.02796349 -0.22013314 -0.15614915 0.2574007 -0.060832568 0.07396066 0.05584443
0.12266237 0.11960116 -0.030250117 0.07770366 -0.07561601 -0.13362874 0.060459558 -0.13976301
0.12356378 0.07967631 -0.012152102 0.20310059 0.058418255 -0.024353066 -0.076985694 0.11045181
-0.22479552 0.17208731 0.14482667 0.13083898 -0.18261354 0.038289793 -0.043497477 0.17792495
-0.031470887 0.019639054 -0.076906696 -0.10808444 0.20046154 0.2386443 -0.10403417 -0.11097014
-0.12384426 0.2110197 -0.05855165 0.15429273 0.06997799 0.06025477 0.22101459 -0.21643707
0.09098061 0.22300482 0.19282657 0.043541 0.15472515 -0.09921882 -0.006678394 0.10890116
-0.17778802 0.06636569 0.009434646 0.14203042 0.053685535 -0.118462965 0.066468574 0.060572267
0.22251149 -0.09318626 0.17992936 0.04380067 0.22779784 -0.13968225 -0.14227884 0.20245884
-0.24132693 -0.12328663 0.22780696 -0.031943522 -0.18122408 -0.19903354 -0.23108742 0.01536963
-0.13098192 -0.01817498 0.005392508 0.24796775 -0.18082802 0.09685424 0.04029104 0.07804509
0.02614756 0.019871289 0.05467454 -0.25613356 0.02107799 -0.14043869 0.127948 -0.13808686
0.08581431 -0.12701358 -0.14519083 0.21755011 -0.02073479 -0.06399492 0.046544462 0.030934094
-0.1545037 0.0146910325 -0.13862057 -0.25508788 -0.040454213 -0.07426895 0.017249089 0.11612415
0.24113679 0.2204923 0.15886655 -0.23740096 0.23595473 -0.18572627 0.117835686 -0.23643245
0.058252808 -0.13317543 0.21602075 -0.22452116 -0.0070999283 0.1692188 0.01160931 -0.1664032
-0.024250861 -0.18442577 -0.14122845 -0.06737745 -0.21598028 -0.12003645 0.017164297 0.083372705
0.25884357 0.033721138 -0.13719295 -0.23346078 -0.07258533 0.15759581 -0.040314943 0.070112586
-0.069429405 -0.19020216 -0.25089425 0.017588109 -0.11682961 -0.08641485 0.20477964 0.051123533
00000000: 822b bebd 0813 aebd ee88 763e 3e14 573e
00000010: 9d26 723e e9fa cd3b 9fc9 d53d 0d26 f73d
00000020: 0893 65be cf50 9d3c 9f0e f13d 0c2d 6c3e
00000030: 500b 003e c431 36bd 7b4f 3cbe a464 4ebe
00000040: 6d78 293e b703 f8bd b771 003e 407e c63d
00000050: 70fe ccbd 88ee c8bc b531 e13c f2ef 2b3c
00000060: 7e25 8b3d 5b8b bb3c 9af9 0dbe 1974 6bbc
00000070: 9cb3 20bd b700 b7bc e0f6 403e d830 26be
00000080: 3221 3bbe bbe1 2e3e 7654 5b3e 8841 693e
00000090: 5a66 27be bf5a 653e d5cd f43d 0115 3cba
000000a0: 8b79 0f3e 1918 f73d 09fc a83d 3d2b 8b3d
000000b0: 8f97 243e 6b91 7e3d 5c3c 55be 0cb8 1dbe
000000c0: 16ae 74be 4391 35be 34cb 4a3c d835 803d
000000d0: ae64 af3c ddc4 44be 734a 6ebe cb2e 94bd
000000e0: 4f04 803e 585c 00be 2145 103e 1141 55be
000000f0: b058 c93d 63d3 703e 64f0 b8bd 2dc7 3fbe
00000100: 2f60 9ebd bf82 4e3e ac22 7cbe 34e9 503e
00000110: 9ca3 cfbd 53ed 06be 0402 e93c a2d7 8ebd
00000120: 7e42 933d 2e6b 1e3e eee0 95bd 074a 6ebe
00000130: 1c54 21be c516 acbd 2e05 243c 8233 d33d
00000140: a715 fd3d de02 aebc a2fa bf3d 87b4 edbd
00000150: 1218 5e3e ee14 763e 7f7c 3d3e b7e8 e23d
00000160: 1fe0 873e f7e2 b3bd d158 703e 94f7 15bc
00000170: 4371 193e 7b4f 403d 2000 073e 3578 80be
00000180: b57b e53d 414a 023e 53c3 383d f83d bcbd
00000190: c090 2cbe 17da 82bd a41e e1bd 757c 463e
000001a0: 518f 773e b013 e53c 956a 61be 90e5 1fbe
000001b0: 06ca 833e 922b 79bd b078 973d 21bd 643d
000001c0: 6936 fb3d 74f1 f43d 18cf f7bc 1923 9f3d
000001d0: 91dc 9abd f9d5 08be 71a4 773d 091e 0fbe
000001e0: 020f fd3d 552d a33d 9c19 47bc 9af9 4f3e
000001f0: fb47 6f3d 1580 c7bc adaa 9dbd 8f34 e23d
00000200: cc30 66be a837 303e 714d 143e a7fa 053e
00000210: 0bff 3abe c2d5 1c3d 692a 32bd f531 363e
00000220: 9ee7 00bd 15e2 a03c 4281 9dbd 605b ddbd
00000230: ca45 4d3e 2c5f 743e de0f d5bd 5044 e3bd
00000240: 0fa2 fdbd 8c15 583e dbd3 6fbd eafe 1d3e
00000250: 9f50 8f3d b5cd 763d a651 623e aea1 5dbe
00000260: 0b54 ba3d 605b 643e 5474 453e 0c58 323d
00000270: 4570 1e3e 3d33 cbbd 6ed6 dabb 9207 df3d
00000280: 100e 36be bcea 873d c693 1a3c 6c70 113e
00000290: 5de5 5b3d b69c f2bd ad20 883d a01a 783d
000002a0: 0dda 633e 70d8 bebd 673f 383e 5568 333d
000002b0: d643 693e dd08 0fbe 8bb1 11be 5f51 4f3e
000002c0: 681e 77be b37d fcbd 3a46 693e 36d7 02bd
000002d0: ce92 39be 73cf 4bbe 2ea2 6cbe e7d0 7b3c
000002e0: 2020 06be b2e3 94bc a3b3 b03b 42eb 7d3e
000002f0: fb2a 39be 845b c63d 3808 253d 1bd6 9f3d
00000300: 6833 d63c 1dc9 a23c 69f2 5f3d f023 83be
00000310: c0ab ac3c 29cf 0fbe cd04 033e a466 0dbe
00000320: 6abf af3d d90f 02be e8ac 14be 75c5 5e3e
00000330: 02dc a9bc c50f 83bd 68a5 3e3d 7f69 fd3c
00000340: 3836 1ebe a8b2 703c 8df2 0dbe e19a 82be
00000350: 51b3 25bd 521a 98bd f64d 8d3c 80d2 ed3d
00000360: 90ec 763e bcc8 613e eaad 223e 3d19 73be
00000370: 1e9e 713e 072f 3ebe d653 f13d 591b 72be
00000380: 7f9a 6e3d 245f 08be 8b34 5d3e e0e8 65be
00000390: 84a6 e8bb b147 2d3e fa34 3e3c 9a65 2abe
000003a0: bea9 c6bc 1cda 3cbe 319e 10be 30fd 89bd
000003b0: ef29 5dbe acd5 f5bd 249c 8c3c 4fbf aa3d
000003c0: 2587 843e 2d1f 0a3d 4f7c 0cbe 5810 6fbe
000003d0: 9ea7 94bd cc60 213e 4821 25bd 3097 8f3d
000003e0: 0131 8ebd 5bc4 42be 3675 80be f014 903c
000003f0: 5d44 efbd 45fa b0bd c1b1 513e e966 513d

ConvBase.1.feature.lis.2.pointwise.bias f4 [16]
0.041607294 -0.24540265 -0.0633968 0.047851745 0.025845949 -0.13440362 -0.17591722 0.164589
0.1984718 0.009642908 0.011811364 -0.05269421 -0.09408278 0.10945659 -0.19677007 -0.06572461
00000000: 696c 2a3d d54a 7bbe 2ed6 81bd 3100 443d
00000010: e2ba d33c 1aa1 09be a523 34be 058a 283e
00000020: 313c 4b3e 4afd 1d3c 7484 413c e2d5 57bd
00000030: 79ae c0bd c72a e03d 187e 49be a09a 86bd

ConvBase.1.feature.lis.3.X_conv.conv.weight f4 [16, 1, 9, 1]
-0.083074234 0.040510084 0.30984706 -0.07363859 -0.1992341 0.23731236 -0.08584346 -0.19559954
0.24010237 0.13693756 0.26457852 -0.19904791 0.07210493 -0.147671 0.112036616 -0.3045429
-0.13124281 -0.051585443 0.28420088 0.27266994 0.2872469 0.015908794 0.0675793 0.24535044
0.32264242 0.1748294 -0.23303328 -0.19789895 -0.05676047 -0.31276494 0.15595512 0.32061112
0.06595243 -0.14542212 0.33246675 0.047762763 0.11908434 -0.16674057 0.31816003 -0.13584667
0.3164274 0.26220846 -0.098665684 0.12432914 -0.16359092 0.27675533 0.28745145 0.31928843
-0.11400474 0.15386395 0.037064295 -0.16551226 -0.30501193 0.26008964 -0.119620614 0.19744302
0.17512333 -0.10561634 -0.16441655 0.22386406 0.249556 0.3110105 -0.1163788 -0.20412683
0.30124652 0.19256902 0.1776281 0.250241 0.14186066 0.10241821 -0.32757834 0.20323613
-0.13069515 0.12205969 -0.023018558 -0.15595351 0.247826 -0.27936047 -0.034355953 -0.12862931
-0.15268448 -0.28093573 -0.263937 -0.24572796 -0.03226019 0.21090437 0.027674656 -0.19920863
-0.30078983 0.18065779 0.07178996 -0.13835058 0.2717109 0.24317336 -0.30066237 -0.08158192
-0.16574878 0.07613367 0.31154832 0.19762193 0.1774849 -0.17166638 -0.03299252 0.28933233
-0.3587033 -0.22277866 -0.16963196 0.022712853 -0.15913048 -0.0922953 0.0630139 -0.07210479
-0.15364413 -0.24017082 0.039999496 -0.23824498 0.20681413 0.30147746 -0.22644259 -0.155159
0.022300702 -0.08035989 -0.11499812 0.06457568 0.19743522 0.12216646 0.019253273 -0.22020395
-0.24810655 -0.038022146 0.07418878 0.033115465 0.30312476 -0.3174812 -0.22982667 0.24434304
-0.24445945 0.0015619356 0.09521839 -0.22996324 0.015542221 0.30179006 -0.16918413 0.25458577
00000000: d322 aabd e7ed 253d 46a4 9e3e d4cf 96bd
00000010: 0604 4cbe 0302 733e b2ce afbd 3f4b 48be
00000020: 65dd 753e 5c39 0c3e d676 873e 37d3 4bbe
00000030: c0ab 933d 1137 17be 7473 e53d 0ced 9bbe
00000040: 8464 06be 424b 53bd c782 913e 659b 8b3e
00000050: 0712 933e 2953 823c 0467 8a3d 253d 7b3e
00000060: 6331 a53e 7a06 333e 47a0 6ebe 06a6 4abe
00000070: ab7d 68bd ba22 a0be b3b2 1f3e 2427 a43e
00000080: 1112 873d 89e9 14be 1539 aa3e e3a2 433d
00000090: 7ee2 f33d 0abe 2abe dfe5 a23e 641b 0bbe
000000a0: c602 a23e 3040 863e 3c11 cabd 47a0 fe3d
000000b0: 6184 27be e0b2 8d3e d62c 933e c679 a33e
000000c0: 517b e9bd 838e 1d3e bbd0 173d 0c7c 29be
000000d0: 862a 9cbe 782a 853e a7fb f4bd 812e 4a3e
000000e0: 8853 333e 614d d8bd d05c 28be 9f3c 653e
000000f0: 9c8b 7f3e c53c 9f3e 0258 eebd a006 51be
00000100: fc3c 9a3e d030 453e 24e4 353e 971f 803e
00000110: ec43 113e a3c0 d13d 59b8 a7be 221d 503e
00000120: f3d4 05be 6efa f93d 6a91 bcbc 47b2 1fbe
00000130: 19c6 7d3e 5608 8fbe d4b8 0cbd 67b7 03be
00000140: 5259 1cbe cfd6 8fbe c022 87be 1ca0 7bbe
00000150: 4323 04bd 51f7 573e f6b5 e23c 59fd 4bbe
00000160: 2001 9abe 5bfe 383e 9d06 933d c6ab 0dbe
00000170: b11d 8b3e 7002 793e 6bf0 99be 6c14 a7bd
00000180: 0cba 29be f8eb 9b3d 4383 9f3e 675d 4a3e
00000190: 9abe 353e 50c9 2fbe 2a23 07bd 5e23 943e
000001a0: f5a7 b7be 1720 64be 00b4 2dbe 4e10 ba3c
000001b0: 1af3 22be 5105 bdbd 6e0d 813d adab 93bd
000001c0: e354 1dbe 57ef 75be 83d6 233d 7ef6 73be
000001d0: 15c7 533e 415b 9a3e 91e0 67be 00e2 1ebe
000001e0: f6af b63c ba93 a4bd 2284 ebbd 4140 843d
000001f0: 752c 4a3e 6932 fa3d 0ab9 9d3c 257d 61be
00000200: a50f 7ebe 1cbd 1bbd 49f0 973d 15a4 073d
00000210: 2b33 9b3e e58c a2be af57 6bbe 1035 7a3e
00000220: 9453 7abe ddb9 cc3a dc01 c33d 7c7b 6bbe
00000230: cda4 7e3c 3a84 9a3e 9b3e 2dbe 1159 823e

ConvBase.1.feature.lis.3.X_conv.conv.bias f4 [16]
-0.0745757 -0.25491259 0.21873976 0.048308462 0.13195525 0.11943181 -0.25030956 0.22868751
0.22606485 0.1395294 0.2793971 0.15800497 0.2930538 0.09553011 -0.06915631 -0.0020695557
00000000: 25bb 98bd e783 82be 51fd 5f3e 18df 453d
00000010: 471f 073e aa98 f43d 9328 80be 0f2d 6a3e
00000020: 8b7d 673e cce0 0e3e 230d 8f3e 0ecc 213e
00000030: 260b 963e 4aa5 c33d d3a1 8dbd 62a1 07bb

ConvBase.1.feature.lis.3.Y_conv.conv.weight f4 [16, 1, 1, 9]
-0.29679063 -0.08413637 -0.0076929266 -0.3303977 -0.039772674 0.3083507 0.18947415 -0.15216433
-0.16217078 0.09133898 -0.09393205 -0.13537718 0.034945633 -0.18630864 -0.15500273 0.27797014
-0.003527559 -0.18734194 -0.049327042 0.17555544 0.3261183 -0.26029798 0.12354276 0.16035211
-0.17891681 0.113252275 0.22562505 0.2525648 0.09442326 -0.14311041 -0.11446863 0.21880391
-0.2848881 0.27766106 -0.31688395 0.08656708 0.16826554 -0.19400778 -0.13738124 0.040725883
-0.13034727 -0.0300086 -0.021868661 -0.0053663235 -0.07503817 0.2570381 -0.09906273 0.021616118
0.19734222 0.02629722 -0.03977452 0.29494715 0.27334592 -0.28964117 -0.27714837 0.11611215
0.091465145 -0.09338023 0.26551732 0.11849078 -0.31037477 0.14056519 -0.20894274 -0.17838494
0.17860413 -0.25222933 0.17745298 0.31460536 -0.2876627 -0.16683298 0.29173076 -0.23914014
0.25286067 -0.16570431 0.16139314 -0.08994905 -0.2243157 0.019481327 0.102544755 0.023703024
-0.32397482 0.12133574 0.15466724 -0.05211604 -0.13193879 0.20038895 -0.17036428 0.17613696
-0.1551771 0.070410796 -0.00042377747 0.1669901 -0.019653188 0.27133653 0.21297522 0.103692524
-0.09018554 0.077485844 0.3231771 0.14794046 -0.08422883 -0.15823582 -0.009519137 0.2144033
0.15206462 -0.29935715 0.29518306 0.015707554 -0.01116394 0.30607048 0.19930822 -0.08919577
0.16266058 0.26464662 -0.14267722 -0.08550391 0.043942105 0.23817724 0.11583131 0.19255519
-0.06509882 0.14417602 0.004180589 -0.04052805 0.12994386 0.10403907 -0.15826371 -0.12860782
-0.014912399 -0.23600578 0.1947972 0.19828935 0.22950785 -0.072937824 0.0735742 0.19529685
-0.1228941 -0.15037972 0.17121184 0.29585236 -0.21230313 -0.22045058 -0.03151537 -0.23567137
00000000: f1f4 97be b04f acbd f214 fcbb e329 a9be
00000010: ace8 22bd 25e0 9d3e 8305 423e f7d0 1bbe
00000020: 1910 26be ee0f bb3d 725f c0bd 51a0 0abe
00000030: 2723 0f3d b1c7 3ebe 09b9 1ebe 1a52 8e3e
00000040: 9f2e 67bb 91d6 3fbe 270b 4abd cec4 333e
00000050: faf8 a63e c745 85be fd03 fd3d 5833 243e
00000060: f835 37be cff0 e73d 410a 673e 2c50 813e
00000070: fb60 c13d 898b 12be 876e eabd 220e 603e
00000080: dadc 91be 9729 8e3e 9d3e a2be 154a b13d
00000090: cd4d 2c3e faa9 46be abad 0cbe 2fd0 263d
000000a0: c179 05be 98d4 f5bc e825 b3bc fcd7 afbb
000000b0: 9dad 99bd 7f9a 833e 67e1 cabd 4914 b13c
000000c0: 1414 4a3e 446d d73c 9bea 22bd 5003 973e
000000d0: fff3 8b3e d94b 94be 64e6 8dbe 35cc ed3d
000000e0: 1452 bb3d 223e bfbd e3f1 873e 4bab f23d
000000f0: 71e9 9ebe 52f0 0f3e 16f5 55be 8baa 36be
00000100: 00e4 363e 3424 81be 3cb6 353e f413 a13e
00000110: 8748 93be 44d6 2abe bc5d 953e 27e1 74be
00000120: f476 813e 64ae 29be 3e44 253e 3537 b8bd
00000130: 04b3 65be 4e97 9f3c fc02 d23d d82c c23c
00000140: 07e0 a5be df7e f83d 1761 1e3e a177 55bd
00000150: f61a 07be c332 4d3e f973 2ebe 3f5d 343e
00000160: bfe6 1ebe 8933 903d 732e deb9 74ff 2a3e
00000170: b9ff a0bc 9fec 8a3e 2d16 5a3e bf5c d43d
00000180: 32b3 b8bd e6b0 9e3d 7877 a53e b47d 173e
00000190: 2a80 acbd 9208 22be 28f6 1bbc 8a8c 5b3e
000001a0: d4b6 1b3e 5745 99be 3c22 973e 21ad 803c
000001b0: f5e8 36bc 45b5 9c3e 7417 4c3e 46ac b6bd
000001c0: 7f90 263e c37f 873e fa19 12be ad1c afbd
000001d0: a3fc 333d bce4 733e f738 ed3d 302d 453e
000001e0: 8852 85bd e1a2 133e 53fd 883b be00 26bd
000001f0: 0110 053e 7012 d53d e20f 22be c5b1 03be
00000200: 2353 74bc 80ab 71be eb78 473e 5d0c 4b3e
00000210: 1b04 6b3e 6d60 95bd 12ae 963d e6fb 473e
00000220: e7af fbbd 24fd 19be 2852 2f3e f679 973e
00000230: fe65 59be ccbd 61be 4316 01bd d653 71be

ConvBase.1.feature.lis.3.Y_conv.conv.bias f4 [16]
0.08873013 -0.14684716 0.15084963 -0.07587196 -0.28370774 -0.1296934 0.088896476 -0.23573194
0.1215089 -0.13229793 0.068096206 0.15906446 0.12256949 -0.09633606 0.14264129 0.002323893
00000000: 24b8 b53d 1a5f 16be 5378 1a3e c262 9bbd
00000010: 2442 91be 59ce 04be 5b0f b63d b763 71be
00000020: a8d9 f83d 1c79 07be 0676 8b3d cbe1 223e
00000030: b605 fb3d d74b c5bd 8f10 123e 744c 183b

ConvBase.1.feature.lis.3.pointwise.weight f4 [16, 16, 1, 1]
0.14829586 -0.00012228871 0.08001108 -0.06832686 0.08344315 -0.00041680827 -0.03549218 0.071199715
0.09633773 0.02302896 0.13297026 0.069610305 -0.18157166 -0.11423838 -0.043162186 0.076602735
0.24966627 -0.10371721 -0.06884358 0.13037284 0.08859165 0.064199045 0.18460675 0.17407063
-0.1608872 -0.0772398 0.09686763 0.22438085 -0.008395861 0.19875483 0.060449228 -0.07413171
0.099594936 -0.09627345 -0.2381992 0.121228814 -0.19190556 0.10815581 -0.1507335 0.22167753
-0.060756713 0.006563455 -0.027828991 -0.23287532 0.04759207 0.04702789 -0.14654525 -0.18862948
0.09965975 -0.119148225 -0.17784548 -0.08287758 -0.12790023 0.044466622 -0.1785649 -0.19727483
0.12281304 -0.016691756 0.13254213 0.16700912 0.00045832517 -0.17163792 0.033688348 0.107602276
-0.16885675 0.17275923 0.059831474 0.036794525 -0.057514142 -0.10084513 0.15695705 0.2035675
-0.014543092 -0.05310316 0.18119901 0.06664131 0.11063791 -0.09931924 -0.14812574 -0.20392284
-0.2118777 0.019070307 -0.16602574 -0.08620401 0.21143255 -0.04150807 -0.22606835 -0.064301625
-0.06890216 0.041058082 -0.09855356 -0.077898145 -0.15154248 -0.24318707 -0.11156903 -0.02226339
-0.030786978 -0.10194708 0.17264158 -0.067326225 0.14288661 0.1684766 0.18471415 -0.19169454
-0.2156859 -0.03421185 0.1294249 -0.053186525 0.24102098 -0.17483935 0.20541196 -0.025499007
0.16581829 -0.22265902 0.005592085 -0.13763309 -0.03660234 -0.13490461 0.13159114 -0.16994496
-0.15709367 0.007384742 -0.15261991 0.11740045 -0.06956173 -0.069180705 0.15945666 0.16373207
-0.15824294 -0.017521149 0.22662832 0.03288568 -0.13473362 -0.10402003 -0.05454966 0.1985665
-0.23512568 0.069714 -0.013325591 -0.22962087 0.0125816995 0.18759361 0.08025924 -0.1075638
0.0273456 -0.099839196 -0.011058112 -0.0075125615 0.25953087 -0.16821218 -0.117238425 0.04757846
0.0051259976 -0.018412143 0.20442252 0.18530005 0.033894517 -0.22136585 0.23465405 0.108926065
0.11837665 -0.06514515 0.15728933 0.103102125 0.078058265 0.06854776 0.19300638 -0.13327809
-0.11842461 0.07145137 0.1710957 0.055539772 -0.06019699 0.015545011 0.004385767 0.14687312
0.14954086 0.079255775 0.074421436 -0.04753973 -0.078094535 0.17199206 -0.1410199 -0.23268607
0.17300403 -0.13987139 0.22860958 -0.09108977 -0.015966823 0.25070423 0.15309225 0.20536381
-0.22103365 0.03505913 -0.24294429 0.017360859 0.085336484 0.1757432 -0.2286613 0.1890719
0.18579403 0.018675609 -0.03640518 0.19525906 -0.02925811 -0.23091263 0.17622057 0.045095246
0.076981515 0.10996569 0.1351727 0.101030484 0.15565272 -0.13367279 -0.09743845 -0.06622877
0.103154294 -0.19297196 0.061555643 -0.17380717 -0.08991167 -0.03446002 -0.05569312 -0.11040466
0.09749938 0.044298317 0.22276741 0.19225466 0.16462284 -0.20448127 0.10186955 0.14616716
0.039358217 -0.21768765 0.2369358 0.035374187 -0.15002306 0.0077849273 0.22895992 0.19242133
-0.0076289074 0.1432833 0.13466436 0.036978606 -0.22576112 -0.1984503 -0.12576424 -0.20177762
0.014577787 -0.022818811 0.14831524 -0.018331496 -0.09875414 -0.19326246 -0.0030491133 0.22494258
00000000: dfda 173e a03a 00b9 d9dc a33d f4ee 8bbd
00000010: 3ee4 aa3d 0f87 dab9 4060 11bd 28d1 913d
00000020: b74c c53d 3ba7 bc3c 5b29 083e d98f 8e3d
00000030: eced 39be d0f5 e9bd d5ca 30bd e5e1 9c3d
00000040: 84a8 7f3e b069 d4bd ddfd 8cbd 7580 053e
00000050: 8a6f b53d ca7a 833d 8d09 3d3e 923f 323e
00000060: 9dbf 24be e62f 9ebd 8962 c63d 18c4 653e
00000070: cb8e 09bc 6386 4b3e 9c99 773d 5ed2 97bd
00000080: 6ef8 cb3d 042b c5bd 7eea 73be d046 f83d
00000090: e482 44be cb80 dd3d e259 1abe 6fff 623e
000000a0: 08dc 78bd 4012 d73b a0f9 e3bc de76 6ebe
000000b0: e7ef 423d 51a0 403d f50f 16be 1628 41be
000000c0: 691a cc3d fc03 f4bd 201d 36be b8bb a9bd
000000d0: 47f8 02be a222 363d b8d9 36be 6a02 4abe
000000e0: 6785 fb3d 26bd 88bc 20b9 073e 7004 2b3e
000000f0: 5d4b f039 dac1 2fbe cbfc 093d 955e dc3d
00000100: c9e8 2cbe cce7 303e d911 753d dbb5 163d
00000110: f393 6bbd e487 cebd 59b9 203e 0074 503e
00000120: 2646 6ebc b382 59bd 3c8c 393e 3d7b 883d
00000130: 2196 e23d e367 cbbd 46ae 17be 26d1 50be
00000140: 78f6 58be 5539 9c3c a702 2abe ba8b b0bd
00000150: c681 583e 5e04 2abd 767e 67be 92b0 83bd
00000160: 931c 8dbd 852c 283d 73d6 c9bd 1089 9fbd
00000170: f42d 1bbe 0806 79be 4e7e e4bd b661 b6bc
00000180: f934 fcbc a1c9 d0bd f4c8 303e 55e2 89bd
00000190: de50 123e 2185 2c3e b525 3d3e 934b 44be
000001a0: c4dc 5cbe ba21 0cbd f687 043e 1dda 59bd
000001b0: 34ce 763e 1609 33be 8357 523e 4be3 d0bc
000001c0: 45cc 293e ba00 64be cf3d b73b b0ef 0cbe
000001d0: 56ec 15bd 6f24 0abe d4bf 063e 0d06 2ebe
000001e0: 2add 20be b5fb f13b 6548 1cbe a66f f03d
000001f0: 6176 8ebd 9dae 8dbd 9b48 233e 61a9 273e
00000200: 700a 22be 8388 8fbc 4111 683e 23b3 063d
00000210: 9cf7 09be 7408 d5bd 776f 5fbd 0455 4b3e
00000220: c9c4 70be 37c6 8e3d 9453 5abc bc21 6bbe
00000230: 7923 4e3c 8a18 403e f55e a43d 694a dcbd
00000240: e103 e03c 7e78 ccbd 152d 35bc ef2b f6bb
00000250: 3be1 843e d03f 2cbe b31a f0bd a2e1 423d
00000260: fcf7 a73b 10d5 96bc 2354 513e 4cbf 3d3e
00000270: fad4 0a3d bbad 62be 2749 703e a114 df3d
00000280: 756f f23d d26a 85bd 7410 213e 3527 d33d
00000290: 03dd 9f3d c562 8c3d 77a3 453e 0d7a 08be
000002a0: 9a88 f2bd 1955 923d b633 2f3e ac7d 633d
000002b0: 1e91 76bd 80b0 7e3c 7bb6 8f3b e865 163e
000002c0: 3d21 193e da50 a23d 446a 983d 05b9 42bd
000002d0: 07f0 9fbd b01e 303e 8567 10be 4245 6ebe
000002e0: f827 313e 723a 0fbe a118 6a3e 468d babd
000002f0: dbcc 82bc 4e5c 803e 37c4 1c3e e44a 523e
00000300: a556 62be 2a9a 0f3d 63c6 78be 5c38 8e3c
00000310: e5c4 ae3d 07f6 333e 3026 6abe 109c 413e
00000320: ca40 3e3e 97fd 983c 991d 15bd fef1 473e
00000330: b4ae efbc 5c74 6cbe 2a73 343e cbb5 383d
00000340: 7ca8 9d3d b135 e13d b66a 0a3e 12e9 ce3d
00000350: 6d63 1f3e 85e1 08be cf8d c7bd f3a2 87bd
00000360: 8f42 d33d 719a 45be c521 7c3d 82fa 31be
00000370: 9c23 b8bd f325 0dbd 781e 64bd d71b e2bd
00000380: c1ad c73d 2772 353d 241d 643e 68de 443e
00000390: e492 283e 8a63 51be fca0 d03d d8ac 153e
000003a0: 1536 213d 83e9 5ebe 4c9f 723e 86e4 103d
000003b0: a59f 19be b418 ff3b 7874 6a3e 190a 453e
000003c0: eafb f9bb dbb8 123e 74e5 093e e176 173d
000003d0: ec2d 67be 8e36 4bbe 57c8 00be cb9e 4ebe
000003e0: acd7 6e3c 84ee babc f3df 173e ef2b 96bc
000003f0: 9c3f cabd 98e6 45be a2d3 47bb 5957 663e

ConvBase.1.feature.lis.3.pointwise.bias f4 [16]
0.25080457 0.10949029 -0.121693455 -0.18386585 -0.015708322 0.17626916 0.1632494 0.1877768
-0.1605416 -0.09365253 -0.012449792 0.032655243 -0.12081442 -0.031009747 0.10965992 0.204
00000000: 7569 803e 723c e03d 6b3a f9bd 5447 3cbe
00000010: bdae 80bc e77f 343e da2a 273e 9048 403e
00000020: 0465 24be e6cc bfbd 36fa 4bbc 81c1 053d
00000030: 8d6d f7bd 2708 febc 6195 e03d 60e5 503e

ConvBase.1.feature.bn.weight f4 [16]
0.9680479 0.8872834 0.5238854 0.14255112 0.671974 0.6262984 0.86591893 0.50123596
0.95402014 0.6535339 0.23430623 0.53429043 0.7976511 0.124931954 0.20682749 0.27594084
00000000: fdd1 773f 0125 633f 5b1d 063f ecf8 113e
00000010: 7d06 2c3f 1855 203f ddac 5d3f 0051 003f
00000020: aa3a 743f ff4d 273f f9ed 6f3e 42c7 083f
00000030: dd32 4c3f 53dc ff3d 96ca 533e 1e48 8d3e

ConvBase.1.feature.bn.bias f4 [16]
-0.0043831063 0.0060757925 -0.0075630373 0.014412712 -0.0023919917 0.003359859 0.011411422 -0.0020194154
-0.004626409 -0.00804705 6.3401145e-05 0.0097539015 0.017357267 0.0048173536 0.005917114 -0.010933817
00000000: 29a0 8fbb 7117 c73b 5bd3 f7bb 4c23 6c3c
00000010: f6c2 1cbb 1531 5c3b f9f6 3a3c 2b58 04bb
00000020: 2299 97bb c6d7 03bc 3bf6 8438 d4ce 1f3c
00000030: d430 8e3c e4da 9d3b 5ae4 c13b c123 33bc

ConvBase.1.feature.bn.running_mean f4 [16]
0.25923282 -0.13747503 0.017114382 -0.3664516 -0.00044695783 -0.33030537 -0.12763788 0.36728883
-0.35146123 0.07039303 -0.092566095 -0.012773602 -0.069128275 0.03096391 0.010925665 0.019045353
00000000: 2aba 843e 41c6 0cbe 7633 8c3c 8b9f bbbe
00000010: aa55 eab9 c91d a9be 81b3 02be 480d bc3e
00000020: baf2 b3be 392a 903d 4b93 bdbd 5f48 51bc
00000030: 2093 8dbd 07a8 fd3c 8f01 333c 0005 9c3c

ConvBase.1.feature.bn.running_var f4 [16]
0.001638343 0.0014512718 0.0033158418 0.0022418404 0.001982884 0.0025803545 0.0031017761 0.0008229276
0.0038893113 0.0018830154 0.0017389331 0.0019532673 0.0019898966 0.0016253799 0.0033484143 0.0018799787
00000000: abbd d63a 9a38 be3a 984e 593b d7eb 123b
00000010: 46f3 013b 2a1b 293b 2b47 4b3b bdb9 573a
00000020: d1e3 7e3b 83cf f63a eaec e33a 6302 003b
00000030: ed68 023b b30a d53a 1271 5b3b 9e69 f63a

ConvBase.1.bn.weight f4 [64]
0.41062155 0.10890033 0.11996836 0.0921399 0.35788363 0.7564632 0.8951594 -0.00019420148
0.6944595 0.9179709 0.25622672 0.54269403 0.07718189 0.15970142 0.8159385 0.75929177
0.7709926 0.83658475 0.77496773 0.4109241 0.3572176 0.8349258 0.5938455 0.25408047
0.84015846 0.60589683 0.50458354 0.5807036 0.77361166 0.36180353 0.29079646 0.9557549
0.69848025 0.40138245 0.13497496 0.95560217 0.29855517 0.8106986 0.29763454 0.4560166
0.32910395 0.7355613 0.29736197 0.14676328 0.07785589 0.45406494 0.18824391 0.80806863
0.760057 0.48920542 0.28104642 0.66626805 0.31160194 0.9974441 0.010643435 0.94285774
0.9401136 0.21407002 0.30492583 0.6671101 0.4670357 0.14931795 0.8361389 0.7095803
00000000: fd3c d23e 2307 df3d f9b1 f53d d8b3 bc3d
00000010: 863c b73e 93a7 413f 2b29 653f 90a2 4bb9
00000020: 19c8 313f 2400 6b3f 2630 833e ffed 0a3f
00000030: 8a11 9e3d c588 233e 58e1 503f f260 423f
00000040: c55f 453f 6b2a 563f 4964 463f a564 d23e
00000050: 3ae5 b63e b2bd 553f 4206 183f d616 823e
00000060: a014 573f 0e1c 1b3f 632c 013f fea8 143f
00000070: 6a0b 463f 503e b93e 46e3 943e 5aac 743f
00000080: 9acf 323f 0082 cd3e e036 0a3e 58a2 743f
00000090: 39dc 983e f289 4f3f 8e63 983e 027b e93e
000000a0: 5080 a83e bf4d 3c3f d43f 983e 1d49 163e
000000b0: e972 9f3d 337b e83e 03c3 403e 96dd 4e3f
000000c0: 1893 423f 2279 fa3e 51e5 8f3e 8b90 2a3f
000000d0: 4a8a 9f3e 7f58 7f3f cd61 2e3c 205f 713f
000000e0: 49ab 703f 2c35 5b3e 3d1f 9c3e bac7 2a3f
000000f0: 4e1f ef3e cee6 183e 330d 563f 0ea7 353f

ConvBase.1.bn.bias f4 [64]
0.004408511 0.005102333 0.011257597 0.017348338 -0.013015751 -0.0010017621 0.009942278 -0.0063838214
0.011426939 -0.0082799075 -0.0070014475 -0.004327053 0.013717523 0.0054278867 0.0021100205 0.010070731
-0.0035991382 -0.011395093 0.0053412984 -0.023903575 0.01758532 -0.0051787933 0.027263595 0.010797456
-0.008868741 0.00032878303 0.0014759412 0.009797275 0.012746406 0.016087744 -0.006680507 -0.0013042813
0.004100809 -0.014953897 -0.011378427 0.010395844 0.004734031 0.009677612 0.0010990197 0.006462744
0.008041587 -0.009910008 0.0074257385 0.0061603254 -0.00060596596 0.014588124 -0.0009860856 0.020827
0.0100410525 0.024888286 0.00758427 0.014301557 0.0049892836 -0.006066344 -0.010271136 0.02206321
-0.01470593 0.005991639 0.018345196 0.01905995 0.004474289 0.007923789 -0.0009655009 0.0011500337
00000000: 4575 903b 7931 a73b c971 383c 1a1e 8e3c
00000010: 0440 55bc 8f4d 83ba f0e4 223c 602f d1bb
00000020: 0e38 3b3c 73a8 07bc 666c e5bb f4c9 8dbb
00000030: 76bf 603c 6adc b13b 4548 0a3b b5ff 243c
00000040: 85df 6bbb 7cb2 3abc 0f06 af3b 6ed1 c3bc
00000050: 170f 903c deb2 a9bb e757 df3c d0e7 303c
00000060: 324e 11bc 8360 ac39 5e74 c13a c084 203c
00000070: 4dd6 503c 72ca 833c 28e8 dabb 6bf4 aaba
00000080: 1460 863b 3101 75bc 956c 3abc 5453 2a3c
00000090: ee1f 9b3b d98e 1e3c fb0c 903a 6dc5 d33b
000000a0: dcc0 033c 965d 22bc 9c53 f33b 8edc c93b
000000b0: b0d9 1eba 0703 6f3c 8b3f 81ba 629d aa3c
000000c0: 3a83 243c 85e2 cb3c 7885 f83b 1451 6a3c
000000d0: 257d a33b 2fc8 c6bb 4448 28bc e8bd b43c
000000e0: 24f1 70bc 8355 c43b aa48 963c 9d23 9c3c
000000f0: 0e9d 923b c8d2 013c ab19 7dba babc 963a

ConvBase.1.bn.running_mean f4 [64]
0.1423824 0.10619603 0.09506025 0.036653306 0.11346332 0.03554833 0.025598219 0.08907939
0.18045634 0.11710509 0.04533371 0.02738661 0.15572302 0.004908234 0.037429303 0.039827682
0.18956108 0.17546146 0.08028743 0.052720565 0.15330163 0.17405915 0.15727483 0.09848506
0.11346164 0.13177554 0.027402326 0.10943451 0.104246534 0.030978706 0.037813373 0.04964496
0.3127435 0.20390935 0.11706623 0.029815234 0.17221949 0.20855644 0.2127527 0.17643914
0.21011609 0.09245423 0.039812434 0.14410298 0.21751754 0.025463099 0.034430508 0.05753462
0.23484133 0.3316913 0.15597625 0.043379027 0.20221727 0.17277832 0.2222651 0.15926583
0.23942302 0.179164 0.05642293 0.15233096 0.2843748 0.04036953 0.05369627 0.097040474
00000000: b1cc 113e 4e7d d93d f3ae c23d c721 163d
00000010: 755f e83d 209b 113d 5bb3 d13c 416f b63d
00000020: 8cc9 383e cbd4 ef3d d7af 393d e259 e03c
00000030: db75 1f3e 40d5 a03b 784f 193d 5a22 233d
00000040: 4d1c 423e 2bac 333e bc6d a43d 85f1 573d
00000050: 1afb 1c3e 903c 323e a70c 213e 89b2 c93d
00000060: 945e e83d 2bf0 063e d87a e03c 331f e03d
00000070: 357f d53d 0ec7 fd3c 32e2 1a3d 8358 4b3d
00000080: eb1f a03e 9dcd 503e 6bc0 ef3d 143f f43c
00000090: 4e5a 303e d28f 553e d8db 593e 76ac 343e
000000a0: ac28 573e a558 bd3d 5d12 233d bb8f 133e
000000b0: ebbc 5e3e fd97 d03c 0107 0d3d 6ca9 6b3d
000000c0: 3f7a 703e 71d3 a93e 3db8 1f3e 35ae 313d
000000d0: 0b12 4f3e cdec 303e 7699 633e 9516 233e
000000e0: 4f2b 753e c576 373e bb1b 673d a6fc 1b3e
000000f0: 9399 913e 855a 253d 9ff0 5b3d 28bd c63d

ConvBase.1.bn.running_var f4 [64]
0.09090256 0.04642443 0.0423716 0.0036926144 0.057192948 0.0050084484 0.0072728847 0.13943456
0.5735286 0.24959943 0.035435956 0.009269623 0.38160297 1.3189224e-06 0.021150902 0.0087720975
0.48162243 0.4414827 0.09901634 0.0076157763 0.087963685 0.26874655 0.66140234 0.17179962
0.16401038 0.34271342 0.035185024 0.15613572 0.041232638 0.010677846 0.0009582351 0.06412421
0.53472936 0.26828927 0.062805526 0.011743676 0.08016418 0.18410777 0.052792303 0.08690284
0.059893265 0.30748245 0.038553648 0.061295915 0.3649741 0.0052762 0.034823716 0.022158837
0.6743544 0.25051934 0.09539575 0.0073139984 0.11965075 0.18341908 0.24552937 0.07468143
0.51211846 0.049435545 0.035396412 0.19492197 0.28140882 0.009317487 0.024981331 0.033274673
00000000: 1f2b ba3d 8b27 3e3d d88d 2d3d caff 713b
00000010: 2743 6a3d e91d a43b 6151 ee3b efc7 0e3e
00000020: c5d2 123f fe96 7f3e 4b25 113d 9edf 173c
00000030: 7761 c33e d405 b135 a844 ad3c d8b8 0f3c
00000040: 3797 f63e 050a e23e 14c9 ca3d c38d f93b
00000050: 4e26 b43d 2699 893e aa51 293f 3dec 2f3e
00000060: 56f2 273e 2278 af3e 2c1e 103d 0be2 1f3e
00000070: 8ee3 283d 22f2 2e3c 1232 7b3a 8e53 833d
00000080: 06e4 083f 365d 893e 2fa0 803d 8c68 403c
00000090: 1e2d a43d bf86 3c3e be3c 583d 1efa b13d
000000a0: a452 753d 576e 9d3e 6eea 1d3d 6d11 7b3d
000000b0: e3dd ba3e f9e3 ac3b 50a3 0e3d 7386 b53c
000000c0: 7da2 2c3f 1244 803e d95e c33d 44aa ef3b
000000d0: 740b f53d 36d2 3b3e 0d6c 7b3e 94f2 983d
000000e0: 321a 033f ed7c 4a3d d4fb 103d a099 473e
000000f0: d114 903e 5fa8 183c a6a5 cc3c 064b 083d
