waights/weights23.pth (torch_old, 670822 bytes, 196 tensors)

ConvBase.1.feature.lis.0.X_conv.conv.weight f4 [1, 1, 3, 1]
0	0xbc15a2e2	-0.009133073
1	0xbe484655	-0.1955808
2	0xbe0060eb	-0.12536971

ConvBase.1.feature.lis.0.Y_conv.conv.weight f4 [1, 1, 1, 3]
0	0x3e9ced5e	0.30649847
1	0xbd95665a	-0.07294913
2	0xbe126144	-0.14294916

ConvBase.1.feature.lis.0.pointwise.weight f4 [16, 1, 1, 1]
0	0xbeba7aea	-0.364219
1	0xbe6a8242	-0.22901252
2	0xbf45641a	-0.7710587
3	0xbf6f051c	-0.9336717
4	0xbefd1504	-0.49430096
5	0xbdab514b	-0.08365115
6	0x3cb3c71f	0.021945534
7	0x3f1589cd	0.5841339
8	0x3f54afb1	0.83080584
9	0x3f2836cd	0.6570862
10	0x3f6cbaef	0.9247274
11	0x3d7007d8	0.05860123
12	0x3f3246a7	0.69639057
13	0xbafba1e1	-0.0019198024
14	0x3eec0c27	0.46103022
15	0xbf0121b8	-0.50442076

ConvBase.1.feature.lis.0.pointwise.bias f4 [16]
0	0x3f504f0d	0.8137062
1	0xbe8fc24b	-0.2807792
2	0x3f36345b	0.7117364
3	0xbf856c1c	-1.0423617
4	0xbe99e452	-0.30057007
5	0xbf4fbe40	-0.81149673
6	0xbea8aa3b	-0.32942376
7	0x3f6c25d9	0.9224525
8	0xbf2ff5bc	-0.68734336
9	0x3e848e2b	0.25889716
10	0xbee3c163	-0.4448348
11	0xbf0afc1d	-0.54290944
12	0x3d58f75c	0.052970275
13	0xbd96be99	-0.07360572
14	0xbe916ecb	-0.2840484
15	0xbec9ca8f	-0.39412352

ConvBase.1.feature.lis.1.X_conv.conv.weight f4 [16, 1, 5, 1]
0	0x3e76dc83	0.24107556
1	0xbe9a5426	-0.30142325
2	0x3bdd25ce	0.0067488914
3	0x3eb721ed	0.3576807
4	0x3e82107b	0.254032
5	0x3cc02efa	0.0234599
6	0x3eacb969	0.33735207
7	0x3ab4bdb7	0.001378945
8	0x3e16733b	0.14692394
9	0xbe8a77bc	-0.27044475
10	0xbe5837be	-0.21115014
11	0xbe9b49bd	-0.30329695
12	0xbd49fcc8	-0.049313337
13	0x3e91d9b9	0.28486422
14	0xbdddc4b0	-0.10828531
15	0xbd1c37bf	-0.0381391
16	0x3d342b42	0.043986566
17	0x3e3af44a	0.18257251
18	0x3ed3a3ee	0.41336006
19	0x3c233995	0.009962459
20	0xbec52233	-0.38502654
21	0xbdcb4ef6	-0.0992717
22	0x3ce882c8	0.028382674
23	0xbea4f415	-0.3221747
24	0x3eb475fd	0.35246268
25	0x3dee5d4d	0.116388895
26	0x3e811b42	0.2521611
27	0xbec3d555	-0.38248697
28	0x3e626037	0.22107016
29	0x3e1f9f7f	0.15588187
30	0xbe8dc3f4	-0.27688563
31	0xbe33f9e0	-0.17575788
32	0xbe3d376a	-0.1847817
33	0x3e467fa6	0.19384632
34	0xbc46d244	-0.012135092
35	0x3d879fd2	0.0662228
36	0xbd690080	-0.056885242
37	0x3edb6d40	0.4285679
38	0x3eceaeab	0.40367636
39	0x3e06a9cf	0.13150714
40	0x3d48ddf8	0.04903981
41	0xbea997c3	-0.33123598
42	0x3eb0e9db	0.34553418
43	0x3e6c1e68	0.23058474
44	0x3dc9ad8d	0.09847555
45	0xbea0a708	-0.31377435
46	0xbe995cba	-0.29953557
47	0x3db9d37a	0.09073539
48	0x3e088626	0.13332424
49	0xbec7e93d	-0.39045134
50	0xbd8bd6f3	-0.06828108
51	0xbd8d09a0	-0.068866014
52	0xbee8a5b9	-0.45438936
53	0xbca70990	-0.020390302
54	0x3ebfc513	0.37455043
55	0xbedd9266	-0.43275756
56	0xbee1aa7e	-0.44075388
57	0x3e97ba5b	0.29634365
58	0x3e4a154f	0.19734691
59	0x3ebf5981	0.37372974
60	0xbe306307	-0.17225276
61	0xbd6d5023	-0.057937752
62	0xbd808323	-0.06275012
63	0x3ecf71ad	0.40516415
64	0xbe8661b3	-0.26246414
65	0xbeb46748	-0.35235047
66	0x3eb24fc9	0.34826496
67	0xbe373124	-0.1788984
68	0x3db20a37	0.086933546
69	0xbd9d9f07	-0.07696348
70	0xbcc6d84c	-0.02427306
71	0xb9070f1f	-0.00012880236
72	0xbe952720	-0.29131413
73	0xbee277f4	-0.44232142
74	0x3e812203	0.2522126
75	0x3eb7a8c5	0.35870948
76	0xbd52e429	-0.05148712
77	0x3e25c61a	0.16188851
78	0x3e4a1bd6	0.19737181
79	0xbed066cf	-0.40703437

ConvBase.1.feature.lis.1.X_conv.conv.bias f4 [16]
0	0x3caecf5a	0.021339107
1	0x3db5ca60	0.088764906
2	0x3d553de5	0.05206098
3	0xbee76acc	-0.45198667
4	0xbe957a31	-0.29194787
5	0xbec9b868	-0.39398503
6	0xbee95400	-0.455719
7	0x3dc983bc	0.098395795
8	0x3e227c9d	0.15867849
9	0xbe16e646	-0.1473628
10	0x3e9cbc26	0.30612296
11	0x3e93c046	0.2885763
12	0x3d869d49	0.065729685
13	0x3dfda0c0	0.12384176
14	0xbed4f600	-0.41593933
15	0xb90c08e9	-0.0001335476

ConvBase.1.feature.lis.1.Y_conv.conv.weight f4 [16, 1, 1, 5]
0	0x3e8750ed	0.2642893
1	0x3eb4cfc1	0.35314754
2	0xbeb9d1c5	-0.36292854
3	0xbe4a2273	-0.19739704
4	0x3cca662c	0.024706922
5	0x3eaa7b10	0.33297014
6	0x3edaadf6	0.42710847
7	0xbdd82652	-0.10554184
8	0xba74485f	-0.00093186455
9	0xbedb60fd	-0.42847434
10	0xbea867d8	-0.32891726
11	0x3d62a540	0.055333376
12	0x3e83fb94	0.25777876
13	0xbe9e3106	-0.30896777
14	0xbe719306	-0.23591241
15	0xbe8a1ee8	-0.26976705
16	0x3e7e6f1c	0.24847072
17	0x3eec5e78	0.46165824
18	0xbe5956d1	-0.21224524
19	0xbeaf0ccc	-0.3418945
20	0xbe85c9fe	-0.2613067
21	0x3ec7b511	0.3900533
22	0x3ec69cf3	0.38791618
23	0xbeb4be20	-0.35301304
24	0x3e4b7df0	0.1987226
25	0xbe7970e7	-0.24359475
26	0xbe471be5	-0.19444235
27	0xbeb58a54	-0.35457098
28	0x3df03414	0.11728683
29	0xbec2bbc8	-0.3803389
30	0x3d95a699	0.073071666
31	0xbde7a698	-0.11311072
32	0x3d2d5dc0	0.042325735
33	0x3e87e50c	0.26541936
34	0x3dd07389	0.101782866
35	0xbeb2feac	-0.34959924
36	0x3e7c0673	0.24611835
37	0xbd842967	-0.06453209
38	0xbddcc09c	-0.10778925
39	0x3d7344b2	0.059391685
40	0xbd48b62e	-0.049001865
41	0xbed49556	-0.41520184
42	0xbdb8c00e	-0.090210065
43	0x3e30bacd	0.17258759
44	0xbe95e36d	-0.29275075
45	0x3e514cc5	0.20439442
46	0xbeaf8dc3	-0.34287843
47	0xbe09f7ac	-0.13473386
48	0x3ed77856	0.42083997
49	0x3ea40a48	0.32039094
50	0x3e7d226c	0.24720162
51	0x3e07cb13	0.1326106
52	0xbdabbdd4	-0.08385816
53	0x3e4ee952	0.20206192
54	0xbe8e0cdd	-0.2774419
55	0x3ece0514	0.4023825
56	0xbebc19c2	-0.36738402
57	0x3e84adb9	0.2591379
58	0xbe021a63	-0.12705378
59	0xbdf8bcd6	-0.121453926
60	0x3ee42da3	0.44566068
61	0xbe650f12	-0.2236903
62	0x3e29ef31	0.1659515
63	0x3ed94240	0.42433357
64	0x3a99df1f	0.0011739469
65	0x3e9c4845	0.30523887
66	0x3cc002ee	0.023438897
67	0x3e7bd9d4	0.24594814
68	0x3ed03151	0.40662625
69	0xbe8423e8	-0.25808644
70	0xbe98fb55	-0.2987925
71	0xbedbaf2b	-0.4290708
72	0x3eb923f1	0.36160234
73	0xbed996b8	-0.42497802
74	0x3ecbce06	0.3980562
75	0x3ea72b0d	0.32650033
76	0xbda17223	-0.07883098
77	0xbeeeb18c	-0.46619833
78	0xbe897fa0	-0.26855183
79	0xbb342f95	-0.0027494181

ConvBase.1.feature.lis.1.Y_conv.conv.bias f4 [16]
0	0x3e48a993	0.19595937
1	0x3e85cf94	0.26134932
2	0xbe0e552d	-0.1389968
3	0x3e8c28b3	0.273748
4	0x3df646f2	0.120252505
5	0x3d78de29	0.060758743
6	0x3d7b6d92	0.06138379
7	0x3e15fc65	0.14647062
8	0x3eb66611	0.35624745
9	0x3d879df8	0.06621927
10	0xbed8cfcd	-0.4234604
11	0xbe2fa145	-0.17151363
12	0xbebc8cc2	-0.3682614
13	0x3e40f999	0.18845214
14	0xbea5b004	-0.32360852
15	0xbebcc224	-0.36866868

ConvBase.1.feature.lis.1.pointwise.weight f4 [16, 16, 1, 1]
0	0xbe40368b	-0.18770806
1	0xbe721976	-0.23642525
2	0xbe0e7ffc	-0.1391601
3	0x3e2c50e8	0.16827738
4	0xbe5f68e8	-0.21817362
5	0x3de74095	0.11291615
6	0x3db41922	0.08793856
7	0x3e6e035a	0.23243466
8	0xbd350eca	-0.044203557
9	0xbdb96379	-0.09052176
10	0xbd3d560a	-0.04622463
11	0x3e0d01e3	0.13770251
12	0xbe4e7dbc	-0.20165151
13	0x3e692c7f	0.2277088
14	0xbe66cfc4	-0.22540194
15	0x3e5bbfc1	0.21459867
16	0x3e300e7d	0.17193027
17	0x3dc14fe0	0.09439063
18	0x3d85eea4	0.06539658
19	0xbd4ee0f3	-0.050507497
20	0xbe4e5452	-0.20149353
21	0xbe377517	-0.1791576
22	0x3e1d3fc4	0.15356356
23	0x3e4be6c6	0.19912252
24	0x3cebe960	0.028797805
25	0x3e16036a	0.1464974
26	0xbe524743	-0.20534997
27	0x3dcf26a8	0.10114795
28	0xbdf0715b	-0.11740371
29	0x3dc553af	0.09635102
30	0x3e372b47	0.17887603
31	0x3c36ce09	0.011157521
32	0xbe1f032d	-0.15528555
33	0xbdc7fb03	-0.097646736
34	0xbd121ebf	-0.035673853
35	0x3d7849bb	0.06061719
36	0xbe9652a5	-0.29359928
37	0xbc034544	-0.00801212
38	0x3dac58cf	0.084153764
39	0xbe444b87	-0.19169436
40	0x3e0273c1	0.12739469
41	0x3cb0033a	0.021485914
42	0xbe4fe22c	-0.20301121
43	0x3e400356	0.18751273
44	0x3935c449	0.00017334627
45	0xbe21963d	-0.15779968
46	0xbdbd21d7	-0.0923497
47	0xbe78b804	-0.24288946
48	0xbbcbfe1f	-0.006225362
49	0xbe38c358	-0.18043268
50	0x3e148b23	0.14506201
51	0xbdc207a2	-0.09474112
52	0xbe3f8871	-0.18704392
53	0x3d61d25d	0.05513226
54	0x3e567269	0.20942082
55	0x3bd5fbb5	0.00653025
56	0x3da2fe6d	0.07958684
57	0x3c5cd18b	0.013477693
58	0x3e2cbdc2	0.16869262
59	0xbdce1b90	-0.10063851
60	0x3db1babd	0.086781956
61	0xbe8ab2c5	-0.27089515
62	0xbca79620	-0.020457327
63	0xbe877d6f	-0.26462886
64	0xbe33213d	-0.17493148
65	0x3e5271e5	0.2055126
66	0x3e66f4eb	0.22554366
67	0x3e37c318	0.17945516
68	0xbe3921fa	-0.18079367
69	0x3e52d2a6	0.20588169
70	0x3e3e2b37	0.18571173
71	0xbe1e0db3	-0.15434913
72	0x3e6fa757	0.23403679
73	0x3df66596	0.12031095
74	0x3c58e5e9	0.013238409
75	0xbc681b37	-0.014166645
76	0xbde60819	-0.11232013
77	0xbe1a81d4	-0.15088588
78	0x3d9b1796	0.07572858
79	0xbe084d20	-0.13310671
80	0x3de75869	0.1129616
81	0xbdd0adb7	-0.101893835
82	0xbd139edc	-0.036040172
83	0xbd9e4ab1	-0.0772909
84	0xbdae1a99	-0.08501167
85	0x3ce59077	0.028022988
86	0x3d54572f	0.051840957
87	0xbca50643	-0.020144587
88	0xbe164bf9	-0.14677419
89	0xbd480a5d	-0.04883801
90	0x3d014ee9	0.031569395
91	0xbe652309	-0.22376646
92	0x3b4a476e	0.003086533
93	0xbe0c45ca	-0.13698497
94	0xbcc7ec9b	-0.024404814
95	0x3e39fac4	0.18162066
96	0xbe7b5142	-0.24542716
97	0x3d0a52e2	0.03377045
98	0xbd8f5866	-0.069992825
99	0x3c891422	0.016733233
100	0x3d9d7256	0.076878235
101	0xbe43b5fd	-0.19112392
102	0xbd9f406e	-0.07775961
103	0x3d1838e3	0.037163626
104	0xbe29b0d6	-0.16571364
105	0x3e16bfd4	0.14721614
106	0x3e881b01	0.26583102
107	0xbcccc244	-0.024994977
108	0xbe316d3d	-0.17326827
109	0xbcf8bd81	-0.0303638
110	0xbd11a15c	-0.035554275
111	0x3e66d27e	0.22541234
112	0xbe3e4a8a	-0.18583122
113	0x3e0b1b88	0.13584721
114	0xbe0aa4e3	-0.13539462
115	0x3d97ae45	0.07406286
116	0x3e3a9487	0.18220721
117	0xbe3b305e	-0.1828017
118	0xbcf97e81	-0.03045583
119	0x3e08a8f6	0.13345703
120	0xbe089ca7	-0.13341008
121	0xbd1a700d	-0.037704516
122	0xbde875b9	-0.11350579
123	0xbdb9ea1e	-0.090778574
124	0x3ce48593	0.027895724
125	0xbe2569e8	-0.16153681
126	0xbd4a14bb	-0.049336176
127	0xbe09d1fa	-0.13459006
128	0x3d48b269	0.04899827
129	0x3da37848	0.07981926
130	0xbe5cf846	-0.21579084
131	0xbe8090de	-0.25110525
132	0xbd39878c	-0.045295283
133	0x3cc8ab9d	0.024495894
134	0x3e7e088e	0.24807951
135	0xbdc37f32	-0.09545745
136	0x3de901fb	0.11377331
137	0xbe1b9480	-0.15193367
138	0x3e83779e	0.25677198
139	0xbe873b00	-0.264122
140	0x3e40577c	0.18783373
141	0xbe3bdc60	-0.18345785
142	0x3e414e03	0.18877415
143	0x3e1ada29	0.15122284
144	0x3df73579	0.12070746
145	0x3d87ef83	0.0663748
146	0x3e707a79	0.2348422
147	0xbdbcef7f	-0.09225368
148	0x3b0b0c65	0.0021217105
149	0xbb56d37f	-0.003277987
150	0x3e6076b6	0.21920285
151	0xbdf49cbc	-0.11943957
152	0xbbe5acb6	-0.007009114
153	0x3e591294	0.21198493
154	0xbe0b8987	-0.13626681
155	0x3d928c0c	0.07155618
156	0xbbaed98c	-0.005335992
157	0xbe532202	-0.20618442
158	0x3e1a81bf	0.15088557
159	0x3e0aac24	0.13542229
160	0x3e8957b4	0.26824725
161	0x3e710b28	0.23539412
162	0xbd2b236a	-0.04178182
163	0x3da1ec68	0.07906419
164	0x3e008a35	0.12552722
165	0x3d18e482	0.037327297
166	0xbe5517bd	-0.20809837
167	0x3c4e834d	0.012604547
168	0xbe275262	-0.1634002
169	0x3e60ddee	0.2195966
170	0x3e548e59	0.20757426
171	0xbe1130a6	-0.14178714
172	0x3e521798	0.20516813
173	0xbe03500d	-0.12823506
174	0xbe6e31bf	-0.23261164
175	0xbe485148	-0.19562256
176	0xbe2115da	-0.15730992
177	0xbc0f2fb0	-0.008739397
178	0xbd4e7c43	-0.050411474
179	0x3e64af8e	0.22332594
180	0x3bc19662	0.0059078196
181	0xbd39e3b5	-0.045383174
182	0xbd84b92e	-0.06480633
183	0xbe2cbd12	-0.16869
184	0x3d867e27	0.065670304
185	0x3e0be56a	0.13661733
186	0x3d914c9d	0.07094691
187	0x3dee3452	0.11631073
188	0x3d809596	0.06278531
189	0xbe00f5dc	-0.12593788
190	0xbe5a9ebe	-0.21349618
191	0x3c897bd8	0.016782686
192	0x3e01bdf5	0.12670119
193	0xbe7049b1	-0.23465611
194	0xbd84b1d1	-0.06479228
195	0xbe0659ed	-0.13120241
196	0x3dcbc11c	0.09948942
197	0xbe20c731	-0.15700985
198	0x3dc66c80	0.096886635
199	0x3c9a933f	0.01886904
200	0x3e153cce	0.14573976
201	0xbe4e56a7	-0.20150243
202	0x3d78f516	0.060780607
203	0x3e1b68df	0.15176724
204	0x3e0dd851	0.1385205
205	0xbda9989c	-0.08281061
206	0xbc64877b	-0.013948317
207	0xbe84c043	-0.25927934
208	0xbe58102f	-0.21099924
209	0x3e41458f	0.18874191
210	0xbe162789	-0.14663519
211	0xbd5b72f6	-0.053576432
212	0x3e150b0e	0.14554998
213	0xbdcdfaf5	-0.10057632
214	0xbe72d654	-0.23714572
215	0xbd4e106e	-0.050308637
216	0xbdd471e2	-0.10373284
217	0xbcf8dd6c	-0.03037902
218	0x3e18cbda	0.14921513
219	0xbe1d0d60	-0.15337133
220	0x3e108dc1	0.14116575
221	0x3e380155	0.17969258
222	0xbdfc216c	-0.12311062
223	0xbe58594a	-0.21127811
224	0x3e094e70	0.13408828
225	0xbc8d5e41	-0.017256858
226	0xbdf7be3f	-0.120968334
227	0x3e1a9cd2	0.15098885
228	0xbd6ca11c	-0.057770833
229	0x3dca6c82	0.098839775
230	0x3da17b59	0.07884855
231	0x3e607501	0.21919633
232	0x3ddb4516	0.107065365
233	0xbe44cfcf	-0.19219898
234	0xbe096a31	-0.13419415
235	0xbc264031	-0.01014714
236	0x3e21f624	0.15816551
237	0xbe2d9581	-0.16951562
238	0x3e569fe7	0.20959435
239	0xbcd91ee2	-0.026503984
240	0xbd190b3f	-0.03736424
241	0xbe104fcf	-0.14092945
242	0x3e3b6bcb	0.18302839
243	0xbe63154c	-0.22176093
244	0xbd86890f	-0.065691106
245	0x3d5e1371	0.05421776
246	0xbb0aa382	-0.0021154587
247	0xbe376c7a	-0.17912474
248	0xbdda7067	-0.1066597
249	0xbd9dbe64	-0.0770233
250	0xbd4abb0e	-0.049494796
251	0xbe4ff9b5	-0.203101
252	0xbd33419b	-0.043763738
253	0x3e5c397a	0.215063
254	0x3e8e84b7	0.27835628
255	0xbdd55be0	-0.104179144

ConvBase.1.feature.lis.1.pointwise.bias f4 [16]
0	0x3e732cf2	0.23747614
1	0xbe68fae5	-0.22751959
2	0x3e1b8801	0.151886
3	0xbe2a71f1	-0.16645028
4	0xbdb01a5e	-0.08598779
5	0xbe8228d0	-0.25421762
6	0xbe4cb464	-0.19990689
7	0x3de6ed74	0.11275759
8	0xbe2d1f92	-0.16906574
9	0x3e85f0dc	0.26160324
10	0xbbcfd4ef	-0.0063425223
11	0x3e0fa6e8	0.14028513
12	0x3d946bca	0.07247122
13	0x3caeb566	0.021326732
14	0x3e0f955a	0.14021817
15	0xbe8d24c8	-0.27567124

ConvBase.1.feature.lis.2.X_conv.conv.weight f4 [16, 1, 7, 1]
0	0x3e88e07a	0.26733762
1	0xbeb4dfa4	-0.35326874
2	0x3ec93a75	0.39302412
3	0x3dfa1b6b	0.12212261
4	0x3eb59040	0.35461617
5	0xbdc924f4	-0.098215014
6	0xbe95fbb8	-0.2929361
7	0x3db37108	0.087617934
8	0x3c029ee5	0.007972454
9	0x3e151313	0.14558057
10	0x3dae0bc3	0.08498337
11	0xbe29b508	-0.16572964
12	0x3e3a652b	0.18202655
13	0x3e9b2f69	0.3030961
14	0xbe172e6a	-0.147638
15	0xbdb55907	-0.08854871
16	0xbeab2947	-0.3342993
17	0x3e0f688f	0.1400473
18	0xbe771460	-0.24128866
19	0x3e9c4bf0	0.30526686
20	0xbcb428c1	-0.02199209
21	0xbeb6a31d	-0.3567132
22	0x3e1833b4	0.14863473
23	0xbe524c00	-0.20536804
24	0x3ea52935	0.32258
25	0xbdb65d38	-0.08904499
26	0xbe3e1fe4	-0.18566853
27	0x3cea532a	0.028604109
28	0x3dbae5c8	0.091258585
29	0x3e57e459	0.21083201
30	0x3e951d84	0.2912408
31	0x3eb4fdea	0.3534997
32	0x3e42a3af	0.19007753
33	0xbe8e76a0	-0.2782488
34	0x3ea2ccd9	0.3179691
35	0xbd2e8b3f	-0.042613264
36	0xbdf074fb	-0.11741062
37	0xbd1d63e6	-0.03842535
38	0x3ea6a2f5	0.325462
39	0xbea6967f	-0.32536694
40	0xbe37ab5e	-0.17936465
41	0xbe41d7e5	-0.18930013
42	0xbe0b084d	-0.13577385
43	0xbe876a50	-0.26448298
44	0xbe6c1676	-0.23055443
45	0x3d50353a	0.05083201
46	0x3da40a9d	0.08009837
47	0xbeca3cd0	-0.3949952
48	0x3e450792	0.19241169
49	0xbe91abb8	-0.28451324
50	0xbe5cc1a7	-0.21558248
51	0x3eb8322c	0.35975778
52	0x3e85e644	0.2615224
53	0x3e8e8c5c	0.2784146
54	0x3e4824ca	0.19545284
55	0x3eae6c9d	0.3406724
56	0xbea20412	-0.3164373
57	0x3e9b0018	0.3027351
58	0x3e4f8e6c	0.20269173
59	0xbd30f8a8	-0.043205887
60	0x3e0a6863	0.13516383
61	0x3ca22bd3	0.019796288
62	0xbe048979	-0.12943067
63	0x3e7d3aee	0.24729511
64	0x3e7be07a	0.2459735
65	0x3e8f0050	0.27929926
66	0x3dbd27d5	0.09236113
67	0xbeb5f296	-0.3553664
68	0xbda40457	-0.0800864
69	0xbeb65f80	-0.35619736
70	0x3eb1db1c	0.3473748
71	0x3ea7e6af	0.32793185
72	0x3e5a91de	0.21344706
73	0xbe2e818b	-0.17041604
74	0x3dce14be	0.1006255
75	0xbe08e1f6	-0.13367447
76	0x3e848a5c	0.2588681
77	0x3df0b342	0.11752941
78	0x3d1cb29c	0.038256273
79	0x3de966c5	0.11396555
80	0x3e90256a	0.28153545
81	0xbde3a89d	-0.11116145
82	0xbe64a1fe	-0.2232742
83	0xbe0c23c1	-0.13685514
84	0x3d41ac18	0.047283262
85	0xbe0e8fc6	-0.13922033
86	0x3dbd9975	0.09257785
87	0x3ce7aab7	0.028279645
88	0x3cbd17b5	0.023082593
89	0x3e23c2e2	0.1599231
90	0xbeae4d09	-0.34043148
91	0xbe0e86b9	-0.1391858
92	0x3caa4f1c	0.020789675
93	0x3e6666df	0.2250018
94	0xbec53238	-0.38514876
95	0xbe4adde4	-0.19811207
96	0xbe9da9e1	-0.3079367
97	0xbec2f2e5	-0.3807594
98	0x3dc4f671	0.096173175
99	0x3ebfbb28	0.37447476
100	0xbd6246d6	-0.055243336
101	0xbe475929	-0.19467606
102	0xbe3b26ad	-0.18276472
103	0xbce60f8f	-0.02808359
104	0x3d2bf16a	0.041978277
105	0x3ea14e1e	0.3150491
106	0x3e1c2f5c	0.15252441
107	0xbe991f3a	-0.29906636
108	0xbe4ac5d1	-0.19802023
109	0x3e1898af	0.14901994
110	0xbe88ae73	-0.26695594
111	0xbccb4c21	-0.024816575

ConvBase.1.feature.lis.2.X_conv.conv.bias f4 [16]
0	0xbd4aaab5	-0.049479205
1	0x3e7c78fc	0.24655527
2	0xbe170cbd	-0.14750953
3	0xbe19180f	-0.14950584
4	0xbd21e1b8	-0.039521903
5	0x3e4f09c1	0.20218565
6	0x3e66163e	0.22469422
7	0x3dbe65d4	0.09296766
8	0x3e3203d9	0.1738428
9	0xbda0b000	-0.07846069
10	0x3ead0642	0.33793837
11	0x3dbaa8c3	0.0911422
12	0x3c61d930	0.013784692
13	0xbdebb4f6	-0.11509125
14	0x3ebabbde	0.36471456
15	0xbdbb54c0	-0.09147024

ConvBase.1.feature.lis.2.Y_conv.conv.weight f4 [16, 1, 1, 7]
0	0x3d15e472	0.036594816
1	0x3e7b445e	0.24537799
2	0xbe8f3e38	-0.27977157
3	0xbdf3d972	-0.11906709
4	0x3d7c4237	0.061586585
5	0xbeacf595	-0.33781114
6	0x3eac0e2e	0.33604568
7	0x3d815d5f	0.06316637
8	0xbea803da	-0.32815439
9	0x3dd2b5ce	0.10288583
10	0xbb6ca6d5	-0.0036110182
11	0xbe9f5ff2	-0.31127888
12	0x3e3ae4e0	0.18251371
13	0x3e037bd9	0.12840213
14	0xbdf7cf7a	-0.1210012
15	0x3d48826f	0.048952516
16	0xbe6d0d16	-0.23149523
17	0x3e84891a	0.2588585
18	0x3d99f4c5	0.07517389
19	0x3e20103f	0.15631197
20	0xbc261ba0	-0.010138422
21	0xbdc0c2f0	-0.094121814
22	0x3e964c38	0.29355025
23	0x3d66ff23	0.05639566
24	0x3eb14bee	0.34628242
25	0xb9894195	-0.0002617954
26	0x3de8365e	0.11338495
27	0x3ea3f0ad	0.3201956
28	0x3e808e2c	0.2510847
29	0x3e4a265c	0.19741195
30	0x3e57f45d	0.21089311
31	0xbd052b9d	-0.032512296
32	0x3e07a1c5	0.13245304
33	0x3e02d562	0.12776712
34	0x3e628948	0.22122681
35	0x3e14e98c	0.14542216
36	0xbd7c1c15	-0.06155022
37	0x3dc24e18	0.094875515
38	0xbed502a7	-0.41603586
39	0x3e05d5d6	0.13069853
40	0x3da067a6	0.07832269
41	0x3e90eb08	0.28304315
42	0x3e369e82	0.17833903
43	0xbe85f57a	-0.26163846
44	0xbeb62a57	-0.35579178
45	0x3e54e622	0.20790914
46	0x3cb9191c	0.02259498
47	0x3ea4b66e	0.32170433
48	0xbc9ba138	-0.018997774
49	0xbe0700c6	-0.13183889
50	0xbca9e206	-0.02073766
51	0x3e0ff516	0.14058337
52	0xbe8af5bf	-0.27140614
53	0xbea3b32c	-0.31972635
54	0xbc1be342	-0.009514632
55	0x3ddd299e	0.107989535
56	0xbeba8a88	-0.36433816
57	0x3ddfc4e5	0.109262265
58	0xbeb4cba5	-0.35311618
59	0xbe86368f	-0.262135
60	0x3e8b32c0	0.27187157
61	0x3badd803	0.0053052916
62	0xbd981f01	-0.074277885
63	0xbd995350	-0.07486594
64	0xbebde1a9	-0.37086228
65	0xbe3c650d	-0.18397923
66	0x3df23a86	0.11827569
67	0x3e074b88	0.13212407
68	0xbe3e328b	-0.18573968
69	0xbe923543	-0.2855626
70	0xbdb10f83	-0.08645537
71	0x3d22923c	0.03969024
72	0x3e9b7b89	0.30367687
73	0x3e10a134	0.14123994
74	0x3dd4b2cf	0.103856675
75	0x3e89d072	0.26916844
76	0xbea1d232	-0.3160568
77	0x3e5aa3cf	0.2135155
78	0xbe82eae2	-0.25569826
79	0x3e251bfc	0.16123956
80	0xbe1bd26b	-0.15216987
81	0xbe2ff168	-0.17181933
82	0xbec19c0d	-0.3781437
83	0x3eb141e8	0.34620595
84	0x3e02269d	0.12710042
85	0x3e295740	0.1653719
86	0xbd1fd273	-0.03901906
87	0xbe7682a3	-0.24073271
88	0x3d87feb5	0.066403784
89	0x3e9988bc	0.29987133
90	0xbe09d783	-0.13461117
91	0xbca03f4b	-0.01956143
92	0xb967516b	-0.00022060207
93	0x3e59a6fc	0.21255106
94	0x3de8e330	0.113714576
95	0x3ecfd600	0.40592957
96	0x3e306efb	0.17229836
97	0xbe41f68d	-0.18941708
98	0x3e5be01e	0.21472213
99	0xbd452080	-0.048126698
100	0xbe13d32e	-0.14436027
101	0xbdbac200	-0.09119034
102	0x3e8ae37d	0.27126685
103	0x3eb5289c	0.35382545
104	0x3e63e190	0.22254014
105	0xbe84f1a8	-0.2596562
106	0x3dbd52c9	0.09244306
107	0xbeb0eec0	-0.34557152
108	0xbe81e580	-0.25370407
109	0x3b0fddc8	0.002195226
110	0xbd4989fe	-0.049203865
111	0x3ea857a0	0.32879353

ConvBase.1.feature.lis.2.Y_conv.conv.bias f4 [16]
0	0x3db4a5ad	0.08820663
1	0x3e28bdfb	0.16478722
2	0xbeb0d872	-0.34540135
3	0xbebdbd05	-0.37058273
4	0xbe7c373e	-0.24630448
5	0xbca9103f	-0.02063763
6	0x3e2763fa	0.16346732
7	0xbd7a9da5	-0.061185498
8	0x3dc515db	0.09623309
9	0x3eaed2ce	0.34145206
10	0xbdddf261	-0.10837246
11	0x3ea2e827	0.31817743
12	0xbe91fe2c	-0.2851423
13	0x3de08b4b	0.10964068
14	0x3eaec162	0.34131914
15	0x3e932e1b	0.28746113

ConvBase.1.feature.lis.2.pointwise.weight f4 [16, 16, 1, 1]
0	0xbdc38bb7	-0.09548133
1	0xbdbb8dbc	-0.09157893
2	0x3e5a9ee3	0.21349673
3	0x3e6038ff	0.21896742
4	0x3e71a7f4	0.23599225
5	0x3b538ca9	0.0032279885
6	0x3de9a6a5	0.11408738
7	0x3dedd795	0.11613385
8	0xbe62405b	-0.22094862
9	0x3c001a48	0.007818766
10	0x3e0b15f8	0.13582599
11	0x3e434f79	0.19073285
12	0x3e15187e	0.14560124
13	0xbd6f0e0c	-0.058363006
14	0xbe56cea7	-0.20977269
15	0xbe44c216	-0.19214663
16	0x3e32b49f	0.17451714
17	0xbe08e91e	-0.13370177
18	0x3e0e75a0	0.13912058
19	0x3dc43f9d	0.09582446
20	0xbde771c3	-0.11300995
21	0xbd62eb37	-0.0554001
22	0x3cac3597	0.021021647
23	0x3bf99e4b	0.007617747
24	0x3d92f4d8	0.071756065
25	0x3cc8ea20	0.024525702
26	0xbe246dd5	-0.16057523
27	0xbaf014c2	-0.0018316733
28	0xbd84fed7	-0.06493919
29	0xbd3be2b9	-0.045870516
30	0x3e56cd2d	0.20976706
31	0xbe1a3b16	-0.15061602
32	0xbe4ec3f0	-0.20191932
33	0x3e309373	0.17243747
34	0x3e55c895	0.20877297
35	0x3e7e3caf	0.24827836
36	0xbe373162	-0.17889932
37	0x3e436f5d	0.1908545
38	0x3dec79b5	0.11546651
39	0xbc89b153	-0.016808188
40	0x3e0182a4	0.12647492
41	0x3deb93da	0.1150281
42	0x3da8dab4	0.08244839
43	0x3d92428b	0.07141598
44	0x3e2699d5	0.1626962
45	0x3d252c14	0.04032524
46	0xbe4446f1	-0.19167687
47	0xbe09341c	-0.13398784
48	0xbe8000ec	-0.25000703
49	0xbe320dc0	-0.17388058
50	0x3c191bb8	0.009344988
51	0x3d274eef	0.04084676
52	0x3d205117	0.039139833
53	0xbe241d0b	-0.16026704
54	0xbe736077	-0.23767267
55	0xbd6f46b3	-0.058417033
56	0x3e6dbdd7	0.2321695
57	0xbde872ea	-0.11350043
58	0x3e0f33ab	0.13984554
59	0xbe852a3f	-0.26008794
60	0x3dfdf2d5	0.12399832
61	0x3e7aa428	0.24476683
62	0xbd94ff6d	-0.07275281
63	0xbe3e6e6b	-0.18596809
64	0xbd940bf3	-0.07228842
65	0x3e420b0d	0.18949528
66	0xbe84a21c	-0.2590493
67	0x3e4fe22d	0.20301123
68	0xbdc8bf81	-0.098021515
69	0xbdf5f05f	-0.12008738
70	0x3d1b87c2	0.037971266
71	0xbd946dfd	-0.07247541
72	0x3d5fbca0	0.054623246
73	0x3e2bde79	0.16784085
74	0xbd4bb741	-0.04973531
75	0xbe5a5db7	-0.21324812
76	0xbe240471	-0.1601732
77	0xbdd47ec5	-0.10375742
78	0xbc72d870	-0.0148221105
79	0x3df14c5f	0.11782145
80	0x3dcf6523	0.10126712
81	0xbd303965	-0.043023486
82	0x3dcd812c	0.10034403
83	0xbde6c7ae	-0.11268555
84	0x3e5e1fd0	0.21691823
85	0x3e7e02e5	0.24805792
86	0x3e3fdf27	0.1873747
87	0x3db0bfef	0.086303584
88	0x3e8789e5	0.26472393
89	0xbdadb465	-0.08481673
90	0x3e74c259	0.23902263
91	0x3a9d3b0f	0.001199575
92	0x3e01e14e	0.12683603
93	0x3d04eae1	0.03245056
94	0x3e233f32	0.15942076
95	0xbe6ed8e7	-0.23324929
96	0x3e029804	0.12753302
97	0x3dd99c7c	0.1062555
98	0x3c9bddf6	0.019026738
99	0xbdd6b5c1	-0.104838856
100	0xbe010158	-0.12598169
101	0xbdde3391	-0.10849679
102	0xbde049d7	-0.10951584
103	0x3e36bac1	0.17844678
104	0x3e861922	0.2619105
105	0x3d381eea	0.044951357
106	0xbe3b3b01	-0.18284227
107	0xbe30751d	-0.17232175
108	0x3e78f774	0.24313146
109	0xbd9272e6	-0.071508214
110	0x3d976f56	0.073942825
111	0x3dcdc1ad	0.10046706
112	0x3e116044	0.14196879
113	0x3de931d3	0.11386456
114	0xbcd61b1e	-0.026135977
115	0x3d6f3886	0.058403514
116	0xbd4d7efa	-0.050169922
117	0xbdb9c7f4	-0.09071341
118	0x3da23c81	0.079216965
119	0xbe08f39d	-0.13374181
120	0x3df1814e	0.11792241
121	0x3dda12d1	0.1064812
122	0x3b026610	0.001989726
123	0x3e69b862	0.22824243
124	0x3d924799	0.071425624
125	0xbd00b478	-0.03142211
126	0xbd92d636	-0.07169764
127	0x3dd2e137	0.102968626
128	0xbe5ea4bf	-0.21742533
129	0x3e221ef0	0.15832114
130	0x3e1fa61b	0.15590708
131	0x3e01ce8d	0.12676449
132	0xbe36562d	-0.17806311
133	0x3d7d298d	0.061807204
134	0xbd65d7be	-0.05611395
135	0x3e40295b	0.18765776
136	0xba348110	-0.0006885687
137	0x3da9849f	0.082772486
138	0xbd7fa1d5	-0.062410194
139	0xbdb37e50	-0.087643266
140	0x3e506b09	0.2035333
141	0x3e8605c6	0.2617628
142	0xbdd99fb3	-0.10626163
143	0xbde8ca86	-0.11366753
144	0xbdbdae86	-0.09261803
145	0x3e55068b	0.20803277
146	0xbd80c33c	-0.06287238
147	0x3e16b359	0.14716853
148	0x3da05d33	0.07830276
149	0x3d9c5a9f	0.07634472
150	0x3e80881c	0.25103843
151	0xbe5d3b94	-0.21604759
152	0x3dafed77	0.08590215
153	0x3e706897	0.23477398
154	0x3e45be30	0.19310832
155	0x3d33b5e6	0.043874644
156	0x3e16b694	0.14718086
157	0xbdceee2f	-0.10104024
158	0xbbf09c22	-0.007342831
159	0x3e038b5f	0.12846135
160	0xbe600191	-0.21875598
161	0x3d9642da	0.0733697
162	0x3cad14cc	0.02112808
163	0x3e137cfe	0.1440315
164	0x3d2dc38b	0.042422812
165	0xbded3fd0	-0.11584437
166	0x3d16f212	0.03685195
167	0x3d740844	0.059578195
168	0x3e4de39d	0.20106359
169	0xbd32bca1	-0.04363692
170	0x3e4984dc	0.19679588
171	0x3c64a497	0.013955257
172	0x3e729592	0.23689869
173	0xbe09bc1b	-0.13450663
174	0xbe1d6f36	-0.15374455
175	0x3e56fbd6	0.20994505
176	0xbe789a26	-0.24277553
177	0xbe13cef7	-0.1443442
178	0x3e836325	0.2566158
179	0xbcdcd835	-0.026958564
180	0xbe48e923	-0.19620185
181	0xbe5fdd77	-0.21861826
182	0xbe6a4638	-0.22878349
183	0x3c39334b	0.011303733
184	0xbe090549	-0.13380922
185	0xbce4cd52	-0.027929936
186	0x3ca54cba	0.020178188
187	0x3e642ee1	0.22283508
188	0xbe09511b	-0.13409846
189	0x3dc34163	0.09533956
190	0x3cd4f697	0.02599649
191	0x3dcb2fdd	0.099212386
192	0x3cc2df1e	0.023788031
193	0x3b3df17e	0.0028983052
194	0x3d12270a	0.03568176
195	0xbe7e2341	-0.24818136
196	0x3cd2aadb	0.025716236
197	0xbe1fbb34	-0.15598756
198	0x3dc9e23c	0.09857604
199	0xbe384e8d	-0.17998715
200	0x3d89dbb3	0.067313574
201	0xbde11d3b	-0.109919034
202	0xbe10c9bd	-0.14139457
203	0x3e31f5d6	0.17378935
204	0xbcaf4d39	-0.021399127
205	0xbd901d9f	-0.070369
206	0x3d2a0784	0.041511074
207	0x3d0bd0c8	0.034134656
208	0xbe49180c	-0.1963808
209	0x3cf7fb00	0.030271053
210	0xbe1bbdb7	-0.15209089
211	0xbe88994a	-0.2667945
212	0xbd529a7e	-0.051416866
213	0xbd601f54	-0.054717377
214	0x3c9d15dd	0.019175464
215	0x3dfc7344	0.12326673
216	0x3e6e94fb	0.23299019
217	0x3e4c3ec0	0.19945812
218	0x3e238be7	0.15971337
219	0xbe65cf36	-0.22442326
220	0x3e848be6	0.25887984
221	0xbe329477	-0.17439447
222	0x3dd4589e	0.10368465
223	0xbe83f6c2	-0.257742
224	0x3d043413	0.032276224
225	0xbde0b928	-0.10972816
226	0x3e67ca86	0.2263585
227	0xbe491f7f	-0.19640921
228	0xbc7f5973	-0.015585291
229	0x3e1df4c9	0.1542541
230	0x3bd794a8	0.0065790005
231	0xbe2e16ba	-0.17000857
232	0xbb5f8ff5	-0.0034112905
233	0xbe4d6e2f	-0.20061563
234	0xbe1bf671	-0.15230729
235	0xbd8aeb2e	-0.06783138
236	0xbe4e794e	-0.20163462
237	0xbe0d4d6d	-0.13799067
238	0x3d133bf0	0.035945833
239	0x3dc6c561	0.09705616
240	0x3e83ea09	0.25764492
241	0x3d5602f6	0.052248918
242	0xbdfc4d46	-0.12319426
243	0xbe7d6aab	-0.24747722
244	0xbd96643f	-0.07343339
245	0x3e2c9694	0.16854316
246	0xbcf2e1bf	-0.02964866
247	0x3d74e78e	0.05979114
248	0xbd8a3253	-0.0674788
249	0xbe54f113	-0.20795088
250	0xbe8880b7	-0.26660702
251	0x3cf447ef	0.029819457
252	0xbe0d1221	-0.13776447
253	0xbdc4d772	-0.096114054
254	0x3e6a61c1	0.22888853
255	0x3d2107da	0.03931413

ConvBase.1.feature.lis.2.pointwise.bias f4 [16]
0	0x3d45f0a7	0.048325207
1	0xbe8678de	-0.2626409
2	0xbd7d2c4d	-0.061809827
3	0x3d1b91e3	0.037980925
4	0x3c4a6ead	0.012355489
5	0xbde2e77f	-0.110793106
6	0xbe31ae66	-0.17351684
7	0x3e32d531	0.17464139
8	0x3e3d610a	0.18494049
9	0x3c8a421c	0.016877227
10	0xbbd9f441	-0.006651432
11	0xbcfbda0a	-0.030743618
12	0xbdf2f0a0	-0.11862302
13	0x3deee979	0.11665625
14	0xbe474bc1	-0.19462492
15	0xbd38fb67	-0.04516163

ConvBase.1.feature.lis.3.X_conv.conv.weight f4 [16, 1, 9, 1]
0	0xbd924127	-0.07141333
1	0x3d444708	0.047919303
2	0x3ea468e9	0.3211129
3	0xbd8dbf00	-0.06921196
4	0xbe55f137	-0.20892797
5	0x3e7441d3	0.23853235
6	0xbda4197c	-0.08012673
7	0xbe477dae	-0.19481537
8	0x3e6bda22	0.2303243
9	0x3e1aca55	0.15116246
10	0x3e86b04f	0.26306388
11	0xbe69f7a3	-0.22848372
12	0x3d962b04	0.07332423
13	0xbe149a0e	-0.14511892
14	0x3dd775da	0.10520525
15	0xbe9acf1f	-0.30236146
16	0xbdfd74a8	-0.12375766
17	0xbd1dbd99	-0.038510893
18	0x3e87fd98	0.26560664
19	0x3e875e81	0.26439288
20	0x3e97ead4	0.29671347
21	0x3b2b239f	0.002611376
22	0x3d8e52f7	0.06949418
23	0x3e7aa4d0	0.24476933
24	0x3e9f1a62	0.31074816
25	0x3e2b439b	0.16725008
26	0xbe68f61e	-0.22750136
27	0xbe4f093d	-0.20218368
28	0xbd80bd79	-0.06286139
29	0xbea53c4c	-0.32272565
30	0x3e029650	0.12752652
31	0x3e96e9ed	0.29475346
32	0x3d615d53	0.05502064
33	0xbe12e4f1	-0.14345147
34	0x3ea8a568	0.32938695
35	0x3d29f3ff	0.04149246
36	0x3ded3f73	0.115843676
37	0xbe1b85c8	-0.15187752
38	0x3eacb23b	0.3372973
39	0xbe04cc60	-0.12968588
40	0x3ea09ba6	0.3136875
41	0x3e885b96	0.26632375
42	0xbdccbcaf	-0.09996926
43	0x3dfb008b	0.12255963
44	0xbe28ac59	-0.16471995
45	0x3e82cf16	0.2554862
46	0x3e896118	0.2683189
47	0x3e9955e5	0.29948345
48	0xbe00eba4	-0.1258989
49	0x3e170aa0	0.14750147
50	0x3d16c38a	0.036807574
51	0xbe21c6d9	-0.1579851
52	0xbe9fb669	-0.31193855
53	0x3e77415e	0.2414603
54	0xbe0b2dac	-0.13591641
55	0x3e514e24	0.20439965
56	0x3e44c72b	0.19216602
57	0xbe0c325b	-0.13691084
58	0xbe45392c	-0.1926009
59	0x3e4ee717	0.20205341
60	0x3e8aaa1c	0.27082908
61	0x3e9e0c92	0.30868965
62	0xbe1292f0	-0.14313865
63	0xbe47b702	-0.19503406
64	0x3ea59cc4	0.32346165
65	0x3e44977a	0.19198409
66	0x3e4314cd	0.19050904
67	0x3e8323a0	0.25613117
68	0x3e23ef1a	0.16009179
69	0x3dec87a9	0.115493126
70	0xbeb5c6e2	-0.35503298
71	0x3e56f314	0.20991164
72	0xbe06aba0	-0.13151407
73	0x3dba3025	0.09091214
74	0xbd2a8eb6	-0.041640006
75	0xbe18854b	-0.14894597
76	0x3e7e94c4	0.24861437
77	0xbe8ba3b3	-0.2727333
78	0xbcedde12	-0.029036555
79	0xbe067a55	-0.13132603
80	0xbe3ceaf8	-0.18449008
81	0xbe8c5f90	-0.27416658
82	0xbe89eb8c	-0.2693752
83	0xbe7cc9d5	-0.24686368
84	0xbd20524e	-0.039140992
85	0x3e5b812d	0.21435995
86	0x3cbe5b6a	0.023236949
87	0xbe5ea48f	-0.21742462
88	0xbe9f59a3	-0.31123075
89	0x3e30e064	0.17273098
90	0x3d9c0499	0.076180644
91	0xbe0b0296	-0.13575205
92	0x3e8a7313	0.2704092
93	0x3e81af6c	0.2532915
94	0xbe9cd9e5	-0.3063499
95	0xbdacbabb	-0.084340535
96	0xbe242e5e	-0.16033313
97	0x3d93af28	0.07211143
98	0x3ea3681e	0.31915373
99	0x3e3e1b0a	0.18565002
100	0x3e2dfcd4	0.16990978
101	0xbe39e165	-0.18152387
102	0xbd447999	-0.047967527
103	0x3e8b9aa4	0.2726642
104	0xbebc405f	-0.3676786
105	0xbe7e736b	-0.24848716
106	0xbe361f2c	-0.17785329
107	0x3c9f5cdd	0.01945346
108	0xbe271dd1	-0.16319968
109	0xbdd9868d	-0.10621367
110	0x3d4708ec	0.048592493
111	0xbd8721cc	-0.06598243
112	0xbe2d7122	-0.16937688
113	0xbe7a2c24	-0.24430901
114	0x3d2be24f	0.04196387
115	0xbe6ada68	-0.22934878
116	0x3e360c5f	0.17778157
117	0x3e9ebba7	0.31002542
118	0xbe666d55	-0.22502644
119	0xbe302a13	-0.1720355
120	0x3c97f977	0.018551571
121	0xbdafb03e	-0.085785374
122	0xbdf1925a	-0.117954925
123	0x3d8d2470	0.068917155
124	0x3e4d37f3	0.20040874
125	0x3e053742	0.1300936
126	0x3c879de6	0.016554784
127	0xbe72e543	-0.23720269
128	0xbe8d4a80	-0.275959
129	0xbd3ee19f	-0.046601888
130	0x3d927337	0.07150882
131	0x3d007ec5	0.031370897
132	0x3e951586	0.29117984
133	0xbeaaf609	-0.33390835
134	0xbe82acb4	-0.25522387
135	0x3e837ce3	0.25681219
136	0xbe72a13b	-0.23694317
137	0x3cc05970	0.023480147
138	0x3dcad604	0.099041015
139	0xbe50a40f	-0.20375083
140	0xbc027394	-0.007962126
141	0x3e8b4565	0.2720138
142	0xbe31cf69	-0.17364277
143	0x3e87a219	0.26490858

ConvBase.1.feature.lis.3.X_conv.conv.bias f4 [16]
0	0xbda256ee	-0.07926737
1	0xbe7c5ef2	-0.24645594
2	0x3e531274	0.20612508
3	0x3d9c42cb	0.07629927
4	0x3dd6a5ab	0.104808174
5	0x3dadd53d	0.084879376
6	0xbe922f45	-0.2855169
7	0x3e677951	0.22604872
8	0x3e6d287b	0.23159973
9	0x3e151c24	0.14561516
10	0x3e87b57f	0.26505658
11	0x3e22e901	0.15909196
12	0x3e951cbc	0.29123485
13	0x3db8b703	0.09019282
14	0xbd5c4980	-0.053781033
15	0xbc904c56	-0.017614525

ConvBase.1.feature.lis.3.Y_conv.conv.weight f4 [16, 1, 1, 9]
0	0xbeacf3a3	-0.3377963
1	0xbd88928a	-0.06668575
2	0xbca3112a	-0.019905645
3	0xbea9c970	-0.33161497
4	0xbd2be2f0	-0.04196447
5	0x3e97defd	0.29662314
6	0x3e3d5f51	0.18493392
7	0xbe17e824	-0.14834648
8	0xbe109df7	-0.14122759
9	0x3ddec0f9	0.1087665
10	0xbdc2d3f8	-0.09513086
11	0xbe020366	-0.12696609
12	0x3cbe5c7f	0.023237465
13	0xbe395c95	-0.18101723
14	0xbe2d2ef5	-0.16912444
15	0x3e8087e1	0.25103667
16	0x3cb843a6	0.022493195
17	0xbe51d507	-0.2049142
18	0xbd7251b2	-0.059159942
19	0x3e41f268	0.18940127
20	0x3ea43ba1	0.32076743
21	0xbe83eb4d	-0.25765458
22	0x3e0165f8	0.12636554
23	0x3e14f9de	0.14548442
24	0xbe2f0ced	-0.17094775
25	0x3dcf7021	0.10128809
26	0x3e560e5f	0.2090392
27	0x3e86fa52	0.26362854
28	0x3d329c3b	0.043606024
29	0xbe0f731f	-0.14008759
30	0xbe0c1fb6	-0.13683972
31	0x3e426990	0.18985581
32	0xbe826449	-0.25467137
33	0x3e7ed0cd	0.24884339
34	0xbeaa5756	-0.33269757
35	0x3d7871c5	0.060655374
36	0x3e3cd168	0.18439257
37	0xbe42a89b	-0.1900963
38	0xbe054c40	-0.13017368
39	0x3d174661	0.036932353
40	0xbe031518	-0.12801015
41	0xbcc7791f	-0.024349747
42	0xbd317d2c	-0.043332264
43	0xbcaf839e	-0.021425065
44	0xbda7eed9	-0.081998535
45	0x3e81cc5b	0.25351223
46	0xbdd98498	-0.106209934
47	0x3bb871e5	0.0056288117
48	0x3e317d7f	0.17333029
49	0x3d19d55d	0.037556995
50	0xbd1a6e61	-0.03770292
51	0x3e8c1751	0.2736154
52	0x3e750c2c	0.23930424
53	0xbe9de449	-0.3083823
54	0xbe860d78	-0.2618215
55	0x3e124d52	0.14287308
56	0x3da24e59	0.079251
57	0xbda4719f	-0.08029484
58	0x3e8b8271	0.27247956
59	0x3e010b40	0.12601948
60	0xbe98e86c	-0.29864824
61	0x3e2e7cfe	0.17039868
62	0xbe50ea8c	-0.20401973
63	0xbe3c3926	-0.18381175
64	0x3e3cc0cc	0.18432921
65	0xbe7dc3ff	-0.24781798
66	0x3e365316	0.17805132
67	0x3e97f05d	0.2967557
68	0xbe929d2b	-0.28635535
69	0xbe2110a5	-0.15729006
70	0x3ea859ea	0.328811
71	0xbe673b9d	-0.22581334
72	0x3e877ad7	0.26460907
73	0xbe1e36a9	-0.15450539
74	0x3e3dfa90	0.18552613
75	0xbd843f0d	-0.064573385
76	0xbe647b24	-0.223126
77	0x3c9d945e	0.019235786
78	0x3dee09e3	0.116229795
79	0x3c8208d2	0.015873346
80	0xbea67761	-0.32512954
81	0x3e07ead1	0.13273169
82	0x3e28fba5	0.16502245
83	0xbd8ab1d3	-0.067721985
84	0xbe0f99e8	-0.14023554
85	0x3e303d33	0.17210846
86	0xbe344c76	-0.17607293
87	0x3e1c2f66	0.15252456
88	0xbe1c5b45	-0.15269192
89	0x3d8de51c	0.06928465
90	0x3b54be69	0.0032462126
91	0x3e1837cd	0.14865036
92	0xbc8a1626	-0.016856264
93	0x3e8e7a88	0.2782786
94	0x3e3e0be8	0.1855923
95	0x3e008a07	0.12552653
96	0xbe0eed89	-0.139578
97	0x3d962e92	0.07333101
98	0x3eac8c68	0.3370087
99	0x3e214844	0.15750223
100	0xbdb5105c	-0.08841011
101	0xbe0505e1	-0.12990524
102	0xbc8c42e0	-0.017121732
103	0x3e5a5514	0.21321517
104	0x3e3cf78a	0.18453804
105	0xbe9c37c6	-0.30511302
106	0x3e9dad6a	0.30796367
107	0x3cd5c16b	0.026093205
108	0xbd4a0727	-0.049323227
109	0x3e987f42	0.2978459
110	0x3e3ea3e9	0.18617214
111	0xbdb480ad	-0.088136055
112	0x3e1b6dee	0.15178654
113	0x3e840ae1	0.2578955
114	0xbe18de16	-0.14928469
115	0xbd92f678	-0.071759164
116	0x3d0cbe27	0.03436103
117	0x3e86458c	0.26224935
118	0x3dc27417	0.09494799
119	0x3e47db2c	0.19517201
120	0xbd71aee7	-0.05900469
121	0x3e0903c1	0.13380338
122	0x3cb92694	0.022601403
123	0xbd53f91c	-0.05175124
124	0x3dff1706	0.12455563
125	0x3dfe3fc2	0.124145046
126	0xbe09cd13	-0.13457136
127	0xbdfe17f7	-0.12406915
128	0xbaaa1156	-0.0012975137
129	0xbe6feb92	-0.23429707
130	0x3e66382b	0.22482364
131	0x3e5f8d78	0.2183131
132	0x3e808152	0.25098664
133	0xbd3e8541	-0.0465138
134	0x3d9ab08b	0.07553204
135	0x3e4e4db1	0.20146824
136	0xbdf8502d	-0.12124667
137	0xbe1d5df5	-0.15367873
138	0x3e2e619c	0.17029423
139	0x3e99c5cf	0.30033728
140	0xbe4655ad	-0.1936862
141	0xbe61f723	-0.22066931
142	0xbd538b0c	-0.051646277
143	0xbe601e33	-0.2188652

ConvBase.1.feature.lis.3.Y_conv.conv.bias f4 [16]
0	0x3db55b18	0.088552654
1	0xbe24dc2f	-0.16099618
2	0x3e1b8dcc	0.1519081
3	0xbdd03f0c	-0.10168275
4	0xbe8d0e91	-0.27550176
5	0xbe00b955	-0.12570699
6	0x3d83add5	0.0642964
7	0xbe66a471	-0.22523667
8	0x3e006979	0.12540235
9	0xbddbddce	-0.10735665
10	0x3d7bf256	0.061510406
11	0x3e1c95d4	0.1529153
12	0x3de94bba	0.11391397
13	0xbddcb0b1	-0.10775889
14	0x3e1687eb	0.14700286
15	0x3b79538c	0.0038044183

ConvBase.1.feature.lis.3.pointwise.weight f4 [16, 16, 1, 1]
0	0x3dcc647f	0.099801056
1	0xbb7bd561	-0.0038426744
2	0x3d3ad2cd	0.04561119
3	0xbd8c5a16	-0.0685312
4	0x3d511fae	0.051055603
5	0xbb78e843	-0.0037980236
6	0xbd8b9cc4	-0.0681701
7	0x3da8f46a	0.08249743
8	0x3dcb4bb0	0.099265456
9	0x3d092c44	0.03348948
10	0x3dbbcadd	0.091695525
11	0x3cdee061	0.027206602
12	0xbe49bc25	-0.19700678
13	0xbe027f9d	-0.12743993
14	0xbd10ea68	-0.035379797
15	0x3dd1032b	0.10205682
16	0x3e8189e7	0.25300524
17	0xbd9471bc	-0.072482556
18	0xbd9fe215	-0.078067936
19	0x3e03c8d3	0.12869577
20	0x3dbb0bb4	0.091330916
21	0x3d84dcf1	0.06487454
22	0x3e717bf9	0.23582448
23	0x3e1ce71a	0.15322533
24	0xbe27728d	-0.16352291
25	0xbdd25cfe	-0.10271643
26	0x3d806af7	0.06270402
27	0x3e8c813a	0.27442342
28	0x3c0d75c7	0.008634037
29	0x3e4ae968	0.198156
30	0x3d9ba482	0.07599737
31	0xbda8914f	-0.082308404
32	0x3dcb92df	0.09940123
33	0xbd9d8e76	-0.07693188
34	0xbe7db0a6	-0.24774417
35	0x3de9e9af	0.11421525
36	0xbe3f6f46	-0.18694791
37	0x3dcf04e0	0.10108352
38	0xbe2ec683	-0.17067914
39	0x3e4414e8	0.191486
40	0xbdaf8104	-0.0856953
41	0xbc1d92df	-0.009617536
42	0xbd2e4977	-0.04255053
43	0xbe7fe637	-0.24990164
44	0x3d078a38	0.0330908
45	0x3c99917e	0.018746134
46	0xbe2c53af	-0.16828798
47	0xbe3558fa	-0.17709723
48	0x3dc27a17	0.09495943
49	0xbde15227	-0.110019974
50	0xbe3ada18	-0.18247259
51	0xbdca62dc	-0.09882137
52	0xbe0bbff8	-0.13647449
53	0x3d1cce52	0.0382827
54	0xbe1d93fa	-0.1538848
55	0xbe49e625	-0.197167
56	0x3dbd3326	0.092382714
57	0xbc6adda7	-0.014335073
58	0x3e227fbf	0.15869044
59	0x3e3b1b0d	0.18272038
60	0x3b9e414f	0.0048295627
61	0xbe1c39a9	-0.1525637
62	0x3d647b5d	0.05578171
63	0x3e058498	0.13038862
64	0xbe320d4e	-0.17387888
65	0x3e389461	0.18025352
66	0x3d78d157	0.060746517
67	0x3c8551bd	0.016274327
68	0xbd2b8ca0	-0.041882157
69	0xbddd469f	-0.108044855
70	0x3e3b499f	0.18289803
71	0x3e614b05	0.22001274
72	0xbcaa5575	-0.020792702
73	0xbd4a3cb2	-0.04937429
74	0x3e114d43	0.1418963
75	0x3db36401	0.087593086
76	0x3dd8e1a5	0.10589913
77	0xbdb77f9d	-0.08959887
78	0xbe39aacc	-0.1813156
79	0xbe6a37de	-0.22872874
80	0xbe6f3f17	-0.2336391
81	0x3c812605	0.0157652
82	0xbe2ad322	-0.16682103
83	0xbdc1b021	-0.09457422
84	0x3e4e1a8f	0.20127319
85	0xbd062b0b	-0.032755893
86	0xbe641222	-0.22272542
87	0xbc82034b	-0.01587071
88	0xbd9a0a59	-0.07521505
89	0x3c58d890	0.013235226
90	0xbdc232b5	-0.09482328
91	0xbdc94ef2	-0.09829511
92	0xbe379889	-0.17929281
93	0xbe6fe6b4	-0.2342785
94	0xbde529cd	-0.111896135
95	0xbd0e2d04	-0.0347109
96	0xbcb99426	-0.02265365
97	0xbddc3692	-0.10752596
98	0x3e2acb9b	0.16679232
99	0xbd926b9a	-0.071494296
100	0x3e1e0572	0.15431765
101	0x3e3c19b8	0.18369186
102	0x3e38582c	0.18002385
103	0xbe416029	-0.18884338
104	0xbe68a0c3	-0.22717576
105	0xbcd28497	-0.02569799
106	0x3e10e852	0.14151123
107	0xbd4a7e36	-0.04943677
108	0x3e7f2885	0.249178
109	0xbe358a7d	-0.1772861
110	0x3e4e8675	0.20168479
111	0xbc156381	-0.009117962
112	0x3e2dae2b	0.16960971
113	0xbe5c7592	-0.21529225
114	0x3be95efb	0.0071219183
115	0xbddaf3c1	-0.106910236
116	0xbcecd4b2	-0.028910015
117	0xbdff8bbd	-0.12477825
118	0x3de4bc9d	0.11168788
119	0xbe27b147	-0.1637622
120	0xbe28ee00	-0.1649704
121	0x3c05f17c	0.00817525
122	0xbe317ed4	-0.17333537
123	0x3de6794f	0.112536065
124	0xbd8f7e79	-0.070065446
125	0xbdd2a11f	-0.10284638
126	0x3e2336ef	0.15938924
127	0x3e2653fb	0.16242974
128	0xbe292ea3	-0.16521697
129	0xbccad42b	-0.024759373
130	0x3e81b953	0.25336704
131	0x3cec7694	0.028865136
132	0xbe1100a9	-0.14160408
133	0xbdce0313	-0.1005918
134	0xbd25d699	-0.04048786
135	0x3e231b0c	0.15928286
136	0xbe77e998	-0.24210203
137	0x3d862949	0.06550843
138	0xbc9f8e91	-0.01947716
139	0xbe7daa97	-0.24772106
140	0x3c87fe94	0.016600884
141	0x3e3d8b01	0.18510057
142	0x3dc0c121	0.094118364
143	0xbdcaf0d7	-0.09909218
144	0x3d3114a0	0.04323256
145	0xbdee4dcf	-0.116359346
146	0xbc2e37e7	-0.010633445
147	0xbc97bd3e	-0.018522855
148	0x3e856e7a	0.2606085
149	0xbe267049	-0.16253771
150	0xbe0ae27e	-0.13562962
151	0x3cfc88ec	0.030827008
152	0x3b91b2ef	0.0044463794
153	0xbd0351cc	-0.03206043
154	0x3e4d63b4	0.20057565
155	0x3e4c197c	0.19931597
156	0x3c1279f1	0.008940206
157	0xbe839946	-0.25702876
158	0x3e695e1e	0.22789809
159	0x3df6b77d	0.12046716
160	0x3e02ff21	0.12792636
161	0xbd7b4ed2	-0.061354466
162	0x3e1455c4	0.14485842
163	0x3dcc2907	0.09968763
164	0x3d18be21	0.037290696
165	0x3d45dd8d	0.04830699
166	0x3e345611	0.17610957
167	0xbe33cc77	-0.17558466
168	0xbdccda51	-0.10002578
169	0x3d3a9ecb	0.045561593
170	0x3e4da360	0.20081854
171	0x3d6cd7b5	0.0578229
172	0xbda23b3f	-0.079214565
173	0x3ccfed60	0.025381744
174	0xbcdea7bc	-0.027179591
175	0x3e21e114	0.15808517
176	0x3e1e19ca	0.15439525
177	0x3d89095d	0.06691239
178	0x3d4fdf02	0.050749786
179	0xbd122611	-0.035680834
180	0xbd7f38fe	-0.06231021
181	0x3e23bf84	0.15991026
182	0xbe22e1a1	-0.15906383
183	0xbe767e09	-0.24071516
184	0x3e3095dc	0.17244667
185	0xbe0c9d0d	-0.13731785
186	0x3e7bf3ab	0.2460467
187	0xbdaca017	-0.08428972
188	0xbc8a2b6d	-0.01686641
189	0x3e5d29fb	0.21598046
190	0x3e2dab98	0.16959989
191	0x3e43b454	0.19111758
192	0xbe77fe19	-0.24218024
193	0x3d50c036	0.050964557
194	0xbe5d851d	-0.2163281
195	0x3d8bb292	0.06821169
196	0x3dbaf5d7	0.091289215
197	0x3e5337c3	0.2062674
198	0xbe4a40ee	-0.19751331
199	0x3e2968ab	0.16543834
200	0x3e482c53	0.19548158
201	0x3bae525f	0.005319878
202	0xbd0e7c0d	-0.034786273
203	0x3e489cc2	0.19591048
204	0xbd0ccd8a	-0.034375705
205	0xbe6c5a7d	-0.23081394
206	0x3e3ee9a9	0.18643822
207	0x3ccee07c	0.025253527
208	0x3d8f4b31	0.069967635
209	0x3df128d8	0.117753685
210	0x3e0acc16	0.13554415
211	0x3dd879e8	0.10570127
212	0x3e2e5a74	0.17026693
213	0xbe142c36	-0.1446999
214	0xbdb8e5f4	-0.09028235
215	0xbdc41fd6	-0.09576385
216	0x3dea38fa	0.11436649
217	0xbe344530	-0.17604518
218	0x3dbcca4b	0.09218272
219	0xbe368bfb	-0.17826836
220	0xbd964ed4	-0.07339254
221	0xbb93d62e	-0.004511616
222	0xbd1078bb	-0.035271388
223	0xbde36d9f	-0.11104893
224	0x3dccf187	0.10007005
225	0x3cb6ccb7	0.022314413
226	0x3e6563d0	0.22401357
227	0x3e430740	0.19045734
228	0x3e2f42f7	0.17115389
229	0xbe5b7b6b	-0.21433799
230	0x3daeaf79	0.085295625
231	0x3e48c575	0.19606574
232	0xbaa0ecf3	-0.0012277648
233	0xbe46b214	-0.19403869
234	0x3e7ae891	0.2450278
235	0x3c853298	0.016259477
236	0xbe0197ed	-0.12655611
237	0x3d25f87f	0.040520187
238	0x3e77e643	0.24208932
239	0x3e096205	0.13416298
240	0xbc7d0d9d	-0.01544514
241	0x3e04e68c	0.12978572
242	0x3e0d88c1	0.13821699
243	0x3d5098c7	0.05092695
244	0xbe6030ed	-0.21893664
245	0xbe541db3	-0.20714454
246	0xbe26a1dc	-0.16272682
247	0xbe49b59c	-0.19698185
248	0x3c3fba3d	0.0117021175
249	0xbd201e94	-0.03909166
250	0x3e0fe500	0.140522
251	0x3ad588e5	0.0016291408
252	0xbe02c668	-0.12770998
253	0xbe580a76	-0.2109774
254	0x3ce5a1d7	0.028031273
255	0x3e4c036a	0.19923177

ConvBase.1.feature.lis.3.pointwise.bias f4 [16]
0	0x3e826c55	0.25473276
1	0x3de1f05d	0.11032174
2	0xbdf91114	-0.121614605
3	0xbe407336	-0.1879395
4	0xbbcf7134	-0.0063306335
5	0x3e3a3086	0.18182573
6	0x3e253a8d	0.16135617
7	0x3e5b6238	0.21424186
8	0xbe230d26	-0.15922984
9	0xbdce4e19	-0.1007349
10	0xbbf2cdff	-0.0074098106
11	0x3d2b4067	0.041809466
12	0xbde54ab3	-0.11195888
13	0xbd22fb1c	-0.039790258
14	0x3da95b6c	0.082693905
15	0x3e4e3e8d	0.20141049

ConvBase.1.feature.bn.weight f4 [16]
0	0x3f7aa571	0.97908694
1	0x3f5fb6bd	0.8738821
2	0x3ef64174	0.48096812
3	0x3e06dc1f	0.13169907
4	0x3f2b7a4d	0.6698349
5	0x3f1a8e85	0.6037372
6	0x3f640a86	0.8907856
7	0x3f03aa26	0.514315
8	0x3f735b50	0.95061207
9	0x3f257c53	0.6464283
10	0x3e79cb0a	0.2439386
11	0x3f06f62a	0.52719367
12	0x3f4e9b83	0.8070604
13	0x3e112698	0.14174879
14	0x3e5b569a	0.21419755
15	0x3e963ad3	0.29341754

ConvBase.1.feature.bn.bias f4 [16]
0	0xbb727f18	-0.0037002023
1	0x3c3ffb35	0.011717607
2	0xbc45f766	-0.01208291
3	0x3d24ee4b	0.040266316
4	0xba161057	-0.0005724481
5	0xbc78db05	-0.015188937
6	0x3c204587	0.009782202
7	0x3d00ba75	0.03142782
8	0xbcd59529	-0.026072102
9	0x3cb4eb31	0.022084804
10	0x3cb887b3	0.022525644
11	0x3c8f67f3	0.017505622
12	0x3d125a28	0.03573051
13	0x3cdcdb5f	0.026960073
14	0x3d3c9bd6	0.046047054
15	0x3ac13c1c	0.0014742645

ConvBase.1.feature.bn.running_mean f4 [16]
0	0x3e75d6c4	0.24007708
1	0xbe0c6f1e	-0.13714263
2	0x3cac7b27	0.021054817
3	0xbec12f3b	-0.37731346
4	0xb72ab4e3	-1.0174906e-05
5	0xbea0e632	-0.31425625
6	0xbe066348	-0.1312381
7	0x3ebfd294	0.37465346
8	0xbeab76c0	-0.33489037
9	0x3dcd4b13	0.10024085
10	0xbdbdc4da	-0.09266062
11	0xbce4407e	-0.027862784
12	0xbd71c789	-0.059028182
13	0x3d3cd46f	0.04610103
14	0x3b357651	0.002768893
15	0x3d0a1621	0.03371251

ConvBase.1.feature.bn.running_var f4 [16]
0	0x3b11b58e	0.002223346
1	0x3af24646	0.0018484078
2	0x3b4ead53	0.0031536415
3	0x3b307789	0.0026926717
4	0x3b04df7b	0.0020274806
5	0x3b8b48ed	0.004250637
6	0x3b73642a	0.003713856
7	0x3a73d00b	0.0009300715
8	0x3b619898	0.0034423228
9	0x3b11ac8b	0.0022228088
10	0x3ae7b223	0.001767699
11	0x3b379ec0	0.0028018206
12	0x3b1f1ef2	0.002427992
13	0x3add802d	0.0016899161
14	0x3b313bb8	0.0027043652
15	0x3b1b1948	0.0023666192

ConvBase.1.bn.weight f4 [64]
0	0x3edfa44b	0.43680033
1	0x3dd0fd78	0.10204595
2	0x3df42c5f	0.119225256
3	0x3d9cf9f6	0.07664864
4	0x3ebdfc5e	0.37106603
5	0x3f427ead	0.7597454
6	0x3f65c82d	0.8975857
7	0xbb9488a0	-0.0045328885
8	0x3f31ad54	0.694051
9	0x3f649d99	0.89302975
10	0x3e82deff	0.25560758
11	0x3f0da25f	0.55325884
12	0x3d3909ea	0.04517547
13	0x3e021285	0.12702377
14	0x3f48a11e	0.78370845
15	0x3f4317ce	0.762082
16	0x3f479160	0.779562
17	0x3f4f0228	0.80862665
18	0x3f4bb4e7	0.7957291
19	0x3ed076c2	0.40715605
20	0x3eb5961f	0.35466096
21	0x3f556a1f	0.8336505
22	0x3f18b0ed	0.5964497
23	0x3e88dc48	0.2673056
24	0x3f5aa8d6	0.85413873
25	0x3f1f56b8	0.622417
26	0x3efa97e1	0.48944
27	0x3f13dbff	0.5775756
28	0x3f5084b0	0.81452465
29	0x3ec25dea	0.37962276
30	0x3e990fdc	0.29894912
31	0x3f6f2159	0.9341026
32	0x3f31cc86	0.69452703
33	0x3ec8a372	0.391872
34	0x3e05fc47	0.13084517
35	0x3f702238	0.93802214
36	0x3e92f424	0.2870189
37	0x3f50cc90	0.8156214
38	0x3e985de7	0.29759142
39	0x3eeb77ab	0.45989737
40	0x3eb67aa3	0.3564044
41	0x3f3b11ea	0.7307421
42	0x3ea025ba	0.31278783
43	0x3e0298a7	0.12753545
44	0x3d945f2c	0.07244715
45	0x3ee69802	0.45037848
46	0x3e3de290	0.18543458
47	0x3f4ddffb	0.8041989
48	0x3f402ba4	0.7506659
49	0x3efce93b	0.4939669
50	0x3e8bb35b	0.27285275
51	0x3f2e0f08	0.67991686
52	0x3ea42126	0.3205654
53	0x3f7c4afc	0.9855192
54	0xbb7f3f66	-0.00389477
55	0x3f6e4e12	0.93087876
56	0x3f70e541	0.94099814
57	0x3e6130f9	0.21991338
58	0x3e980fa3	0.2969943
59	0x3f2ae1a5	0.66750556
60	0x3eee2807	0.46514913
61	0x3e13628a	0.14393058
62	0x3f5c897e	0.86147296
63	0x3f35e2e3	0.71049327

ConvBase.1.bn.bias f4 [64]
0	0x3cb56c0f	0.022146253
1	0x3c731720	0.014837056
2	0x3c66e4a8	0.014092602
3	0x3c2cb5cb	0.01054139
4	0xbcf78f1c	-0.030219607
5	0xbcdb1a4a	-0.026745934
6	0x3d2802e9	0.0410184
7	0xbc7e05f9	-0.015504354
8	0x3ca20692	0.019778524
9	0x3b60831d	0.0034257837
10	0xbb732eb2	-0.003710669
11	0xbc9115e6	-0.017710637
12	0xbbf927e3	-0.007603632
13	0x3b87f95d	0.0041495995
14	0xbd24542c	-0.040119335
15	0x3d269958	0.040673584
16	0xbb238a59	-0.0024954288
17	0xbcbf975c	-0.023387603
18	0xbc6d2dd1	-0.0144762555
19	0xbd1bcc4d	-0.038036633
20	0x3cb79940	0.022411942
21	0xbc30eb36	-0.010798266
22	0x3cb938c9	0.022610085
23	0xbaffbfcb	-0.0019512115
24	0xbcdf38ce	-0.027248766
25	0x3c3d949c	0.011571076
26	0xbce9b019	-0.028526353
27	0x3cb22d00	0.021749973
28	0x3afdfe7e	0.0019378213
29	0xbb4827a4	-0.0030541206
30	0x3bf7f92c	0.0075675454
31	0xbbdf6346	-0.0068172542
32	0xbc0a84d5	-0.008454521
33	0xbccb2761	-0.02479905
34	0xbceec1c6	-0.029145133
35	0x3d407943	0.046990644
36	0xbb7351cb	-0.003712761
37	0x3c4644b4	0.012101341
38	0x3a4ba696	0.00077686587
39	0xbbbf82f9	-0.0058444706
40	0x3ca86177	0.020554287
41	0xbd38954f	-0.045064267
42	0x3cc1dd9a	0.023665238
43	0xbc0f9d89	-0.008765587
44	0x3cfeabb0	0.031087726
45	0x3cb9bdac	0.02267345
46	0xbb8dc49a	-0.0043264152
47	0x3d016e77	0.031599488
48	0xbc0cb2ae	-0.008587522
49	0x3d02f152	0.031968422
50	0x3c2f9f43	0.010719123
51	0x3cd37959	0.025814699
52	0x3ca4424c	0.020051144
53	0xbd15691c	-0.036477193
54	0xbc856248	-0.016282216
55	0x3c267dfe	0.010161875
56	0xbcea9c05	-0.028638849
57	0x3c984b2e	0.018590536
58	0x3c3eb7df	0.011640518
59	0x3ccc50a7	0.024940802
60	0x3b96af03	0.0045984997
61	0x3be70a76	0.0070508076
62	0xbbc01d70	-0.005862884
63	0x3bf651dc	0.0075170826

ConvBase.1.bn.running_mean f4 [64]
0	0x3e445a01	0.19174959
1	0x3e0dd4a5	0.13850649
2	0x3de7721d	0.11301062
3	0x3d767176	0.0601668
4	0x3e191782	0.14950374
5	0x3cfac378	0.030610785
6	0x3ca5c9a5	0.020237753
7	0x3e0a9484	0.13533217
8	0x3e69c39e	0.22828528
9	0x3e2a203d	0.1661386
10	0x3d956c77	0.07296079
11	0x3d067b82	0.03283263
12	0x3e5ab68a	0.21358696
13	0x3cdcdb4d	0.02696004
14	0x3d912299	0.07086677
15	0x3d8905cb	0.06690558
16	0x3e6d5e49	0.23180498
17	0x3e5cdaca	0.21567836
18	0x3db9ea92	0.09077944
19	0x3d9010c8	0.07034451
20	0x3e46e941	0.19424917
21	0x3e3d773e	0.18502519
22	0x3e31b4e1	0.17354156
23	0x3e06371f	0.13106965
24	0x3e038d56	0.12846884
25	0x3e411f40	0.18859577
26	0x3d814382	0.06311704
27	0x3e100e99	0.14068069
28	0x3e12bb54	0.14329273
29	0x3d5fd1ed	0.05464356
30	0x3d9d205f	0.0767219
31	0x3d9a7612	0.075420514
32	0x3eadfef4	0.33983576
33	0x3e8d181a	0.2755745
34	0x3e0c867d	0.13723178
35	0x3d58994d	0.052880574
36	0x3e61f2e1	0.22065307
37	0x3e5111f8	0.20417011
38	0x3e7b42dd	0.24537225
39	0x3e4a68c6	0.1976653
40	0x3e7297e8	0.2369076
41	0x3df703b5	0.12061254
42	0x3d8bf3e4	0.06833628
43	0x3e252a55	0.1612943
44	0x3e726d33	0.23674469
45	0x3d4e9ec6	0.050444387
46	0x3d8c9404	0.06864169
47	0x3da3bd3f	0.0799508
48	0x3e7de4e8	0.24794352
49	0x3e9e6962	0.30939776
50	0x3e071fde	0.1319575
51	0x3d8885e4	0.066661626
52	0x3e470323	0.1943479
53	0x3e1fcce8	0.1560551
54	0x3e6c5fb5	0.23083384
55	0x3e499237	0.19684683
56	0x3e877729	0.264581
57	0x3e5fab22	0.21842626
58	0x3db18eef	0.086698405
59	0x3e2a1b44	0.16611964
60	0x3e9742fe	0.29543298
61	0x3d78bba8	0.060725838
62	0x3dab2a20	0.08357644
63	0x3ddf02ba	0.10889192

ConvBase.1.bn.running_var f4 [64]
0	0x3dc8de26	0.098079965
1	0x3d40728e	0.046984248
2	0x3d152b6b	0.03641836
3	0x3b8b79a5	0.0042564445
4	0x3d7132e1	0.058886413
5	0x3b623e1b	0.003452188
6	0x3b149846	0.002267377
7	0x3e0803dd	0.13282724
8	0x3efeed51	0.49790433
9	0x3e5fc316	0.21851763
10	0x3d12e133	0.035859298
11	0x3bb73646	0.0055911867
12	0x3eb38e7a	0.35069638
13	0x35268969	6.2039777e-07
14	0x3cb2ad8c	0.02181127
15	0x3c3d390a	0.011549244
16	0x3ebe7f19	0.37206343
17	0x3ed5759a	0.41691285
18	0x3de79584	0.11307815
19	0x3c0b8569	0.008515694
20	0x3de0b5ca	0.109721735
21	0x3e50e10a	0.20398346
22	0x3f286845	0.657841
23	0x3e3c08c5	0.1836272
24	0x3e0b020e	0.13575003
25	0x3e83836a	0.25686198
26	0x3d025d27	0.03182712
27	0x3e132f41	0.14373495
28	0x3d2efe0c	0.042722747
29	0x3c45e959	0.01207956
30	0x3b443775	0.0029940282
31	0x3d888278	0.0666551
32	0x3f042d93	0.5163204
33	0x3e74f422	0.23921254
34	0x3d915676	0.07096569
35	0x3c0a3187	0.00843466
36	0x3e03f863	0.12887721
37	0x3e30a1fa	0.17249289
38	0x3db3cdd6	0.087794945
39	0x3df5e4a8	0.12006503
40	0x3db51ddc	0.08843586
41	0x3eb30c56	0.3497035
42	0x3d1646c0	0.036688566
43	0x3d6cfc79	0.057857964
44	0x3ef59ea1	0.47972587
45	0x3c0aba7e	0.008467315
46	0x3d0f2017	0.034942713
47	0x3cccc7b1	0.024997564
48	0x3f411652	0.75424683
49	0x3e6612aa	0.22468057
50	0x3d8b10b1	0.06790293
51	0x3bf42691	0.0074508865
52	0x3e173fef	0.14770482
53	0x3e41f114	0.1893962
54	0x3e6a9a18	0.22910345
55	0x3dd5c8b4	0.10438672
56	0x3ef8a87f	0.48566052
57	0x3d95ece9	0.07320578
58	0x3d18e490	0.03732735
59	0x3e28ccde	0.164844
60	0x3e898db6	0.2686593
61	0x3c438e54	0.011935789
62	0x3ce2e501	0.027697088
63	0x3d3d3f3d	0.046202887
