waights/weights4.pth (torch_old, 670822 bytes, 196 tensors)

ConvBase.1.feature.lis.0.X_conv.conv.weight f4 [1, 1, 3, 1]
00000000: 6187 42bc ff76 2fbe 8109 f2bd
-0.011873097 -0.17135237 -0.11818219

ConvBase.1.feature.lis.0.Y_conv.conv.weight f4 [1, 1, 1, 3]
00000000: f140 9d3e a699 7abd 57a2 17be
0.3071361 -0.061181687 -0.14808021

ConvBase.1.feature.lis.0.pointwise.weight f4 [16, 1, 1, 1]
00000000: c8f8 b4be fc63 5dbe 62ac 4bbf 62b4 72bf
00000010: f901 f9be 2ccc c5bd 6b7e e13c 4993 173f
00000020: 34bc 533f ece3 293f 2f96 673f b9b9 903d
00000030: d522 313f 2393 a03b 56fc eb3e e1f0 f1be
-0.35346055 -0.21620172 -0.7955991 -0.9480649 -0.48634318 -0.09658083 0.027526101 0.59209114
0.8270905 0.66363406 0.90463537 0.07066674 0.69193774 0.0049003526 0.46090955 -0.4725409

ConvBase.1.feature.lis.0.pointwise.bias f4 [16]
00000000: b26b 533f cd4b a0be ff90 353f dd75 82bf
00000010: 9071 94be 280b 4fbf 8e24 a5be 8c5f 6e3f
00000020: 9810 32bf f48f 843e 1982 eabe 7907 0cbf
00000030: d881 1d3d b344 babd 9c88 91be b481 cebe
0.82586205 -0.3130783 0.7092437 -1.0192219 -0.2899289 -0.808764 -0.32254452 0.9311454
-0.6955657 0.25891078 -0.45802382 -0.546989 0.038453907 -0.090951346 -0.28424537 -0.4033333

ConvBase.1.feature.lis.1.X_conv.conv.weight f4 [16, 1, 5, 1]
00000000: 3be0 7c3e 8433 95be 92c5 943b 2a35 ab3e
00000010: 36d6 7c3e cc21 4e3c 042b ab3e 0638 95bb
00000020: dcae 063e cacd 8ebe e8c7 6cbe 823b a4be
00000030: 0c9b 6abd ca1f 943e 96bb e4bd 6325 0ebd
00000040: 0f2a 3b3d 1584 493e 7c73 da3e 4b48 663c
00000050: bece bdbe cc55 c0bd e27c 133d 0fef 9cbe
00000060: c018 b73e 4c2a 093e b235 873e 43af bfbe
00000070: 85c9 683e 1417 2c3e 28ed 8cbe 8a91 35be
00000080: 5f29 44be 8cc4 3c3e 9a61 27bc 7327 8c3d
00000090: bbd0 2ebd 7edf e03e 825f cc3e 3d43 123e
000000a0: bbf4 433d 0593 acbe 46b8 b33e 064e 6f3e
000000b0: 9e18 cf3d 1a05 a3be c450 99be 2523 c93d
000000c0: 2b18 143e 8c4c c7be 648e 90bd a9f3 87bd
000000d0: bf18 debe f35c abbb 8ad1 bf3e 182b dfbe
000000e0: d0b4 e4be 0fa5 933e 2a2f 453e 6a6a bb3e
000000f0: f0fd 2fbe 3737 45bd 608e 52bd ffdf cd3e
00000100: 4781 8abe ed63 b8be 5960 a83e d621 48be
00000110: 765c 8f3d 162b c1bd 548a 67ba 215f 603c
00000120: 9072 91be d6d7 dfbe 9744 843e 19db b73e
00000130: efd0 75bd c1ea 273e 2653 5a3e f9db c4be
0.24694912 -0.29140866 0.004540154 0.33438998 0.2469109 0.0125813 0.33431256 -0.0045537977
0.13152641 -0.2789138 -0.23123133 -0.3207665 -0.05727677 0.28930503 -0.11168592 -0.034703624
0.045694407 0.19679292 0.42666233 0.014055322 -0.37071794 -0.093913645 0.03600777 -0.30651137
0.3576107 0.13395041 0.26408154 -0.37438402 0.22733124 0.16805679 -0.27524686 -0.177313
-0.19156407 0.18434352 -0.010216141 0.06843462 -0.04267953 0.4392051 0.39916617 0.14283462
0.047840815 -0.33705917 0.35101527 0.23369607 0.10112117 -0.3183983 -0.29944432 0.098211564
0.14462344 -0.38925588 -0.07058409 -0.06638271 -0.43378255 -0.0052295863 0.37464553 -0.43587565
-0.446692 0.28836867 0.19256273 0.36604625 -0.17186713 -0.04814836 -0.05140531 0.40209958
-0.27051756 -0.36013737 0.32886007 -0.19544157 0.070000574 -0.09432046 -0.0008832563 0.0136945555
-0.28407717 -0.43719357 0.2583358 0.35909346 -0.060013708 0.16398145 0.21320781 -0.38449076

ConvBase.1.feature.lis.1.X_conv.conv.bias f4 [16]
00000000: 5e83 953c 1705 c43d 1cc9 4a3d fdb0 e3be
00000010: fa46 93be 7a87 c4be 415a e4be 53b6 b53d
00000020: 5bc2 2e3e 0422 2cbe ea78 9a3e eaa0 9a3e
00000030: 287f 903d d2df f53d 91ee d6be 1304 0fbc
0.018251117 0.09571283 0.0495082 -0.4447097 -0.28765088 -0.3838461 -0.44600108 0.08872666
0.17066328 -0.16809851 0.30170375 0.30200893 0.07055503 0.12005581 -0.41978887 -0.008728999

ConvBase.1.feature.lis.1.Y_conv.conv.weight f4 [16, 1, 1, 5]
00000000: fc05 8d3e f442 be3e 4c76 b7be 5bea 4fbe
00000010: 2bb3 d53c 3c78 a83e a452 d53e 0595 f2bd
00000020: 2698 7abb 87d6 d7be ab3a aabe 0a57 2e3d
00000030: 0e69 823e 161c a4be dfe3 83be 866a 8fbe
00000040: a86e 773e 28cb ea3e 7730 58be c21a b5be
00000050: d3a5 8abe cba3 c23e d128 c53e 70b6 b2be
00000060: 1a9c 493e 5672 83be ad54 59be 8537 bdbe
00000070: c7c9 f13d e8ea c2be 7d91 903d bd87 c6bd
00000080: 98f6 363d a820 853e 0799 db3d 75a8 b0be
00000090: 7b28 7e3e 262e c0bd 342d e3bd bc76 893d
000000a0: 9906 5dbd 0be8 d1be daad c0bd 54b5 1e3e
000000b0: 16bc 9dbe 9c62 5d3e 349c b4be fdcc 06be
000000c0: 5ea6 d63e 1ec6 973e 6f91 6c3e b552 f33d
000000d0: 767b c2bd 4c4a 3b3e 96ee 85be ae7e be3e
000000e0: e29d c5be 4f02 873e 015e 03be c15a 12be
000000f0: b3e8 e13e 25b2 4abe 8144 223e ff2d d63e
00000100: cba6 c03b 26ff 9c3e f0d4 d03c b611 843e
00000110: 7d82 ce3e fc92 85be ad3c 95be 886b dbbe
00000120: d543 b73e f032 d5be 9ab5 c73e 610c a43e
00000130: 7c86 7abd e11e e7be b0a7 84be 3e2c 69bc
0.27543628 0.37160456 -0.3583244 -0.20304243 0.02608641 0.32904232 0.41664612 -0.118448295
-0.003823766 -0.4215586 -0.33247885 0.042563476 0.25470775 -0.32052678 -0.2575979 -0.28010958
0.24163306 0.4585812 -0.21112238 -0.35371977 -0.2707964 0.3801559 0.38507703 -0.34904814
0.19688454 -0.2567317 -0.21223707 -0.3695642 0.11806064 -0.38069844 0.07059 -0.09693859
0.044668764 0.26001477 0.10722547 -0.34503523 0.2482013 -0.09383802 -0.11092606 0.067121
-0.05396137 -0.40997347 -0.094081596 0.15498859 -0.3080756 0.21619648 -0.35275424 -0.13164134
0.41923803 0.2964334 0.23102354 0.118810095 -0.094962046 0.18290061 -0.2615859 0.37206024
-0.38597018 0.2636895 -0.12828828 -0.14292432 0.44122848 -0.19794519 0.15846445 0.41831967
0.0058792583 0.30663413 0.025492162 0.25794762 0.4033393 -0.26088703 -0.29147854 -0.42855477
0.3579394 -0.41640425 0.39005738 0.32040694 -0.06116341 -0.45140746 -0.25909185 -0.01423174

ConvBase.1.feature.lis.1.Y_conv.conv.bias f4 [16]
00000000: 6c29 463e b813 823e 8192 19be 5d08 8e3e
00000010: a6ed eb3d 8ebf 973d 4f4c 763d 97a7 1c3e
00000020: f6da b63e 3a39 673d bc24 d8be 7553 28be
00000030: 4a96 bdbe adda 4c3e 28b0 abbe ca0e bdbe
0.19351739 0.2540567 -0.14997293 0.27740756 0.11519937 0.07409583 0.060131367 0.15298305
0.3571393 0.05645106 -0.42215526 -0.16438086 -0.37028724 0.20005293 -0.33532834 -0.36925346

ConvBase.1.feature.lis.1.pointwise.weight f4 [16, 16, 1, 1]
00000000: b031 41be 52e8 6abe 87e0 14be 0d5b 393e
00000010: 100b 63be 2e9a ef3d 1f12 ba3d 2686 663e
00000020: f930 17bd 3233 b3bd ce2e 71bd fbba 153e
00000030: 9801 44be 9963 6a3e 43b4 61be 138f 563e
00000040: 4561 253e 1f6f 953d f2d7 853d 77a3 86bd
00000050: 782e 47be c173 3cbe c901 283e 1b00 423e
00000060: 9bbe 073d 3d0b 193e 92a0 58be 8581 da3d
00000070: bbbf 0abe e092 d33d 4ed8 403e 71d1 6cbc
00000080: 46f4 51be 25a5 d3bd f918 c1bc c6fb 703d
00000090: eccb 86be 59f3 f43b d3f5 bc3d e45a 39be
000000a0: 9e68 293e b0b1 023d 9e11 39be 8240 453e
000000b0: a234 773c f826 2ebe 9afe bcbd 5199 67be
000000c0: beb5 3fbc ffdb 35be 1236 163e ab75 b8bd
000000d0: dc6b 40be adc7 6b3d 3b42 3b3e 6048 c63b
000000e0: 15a3 c03d a220 8dba 8a38 343e 759f c8bd
000000f0: 8643 af3d 32b5 78be 78ee debc e794 7bbe
00000100: 4bcb 3fbe 732f 493e f109 623e e5dd 2f3e
00000110: 1cb6 25be 625a 5b3e 826a 473e 2dbf 34be
00000120: d421 7c3e d872 f93d 1886 f53c 5e9c cfbc
00000130: f61a fabd 7001 28be 2349 793d ed14 02be
00000140: 6f4e bb3d 1d49 04be e21a 08bd 2850 9dbd
00000150: 03ab babd ed82 123d 5336 3b3d 9b33 e0bc
00000160: 59f4 24be 41b5 28bd 58fa f13c 6428 62be
00000170: f2b1 9fbb 7908 0fbe c3a2 19bd 677e 203e
00000180: 364f 78be fe51 073d 43c3 97bd a149 d93c
00000190: 3dea 9a3d 4f3d 4abe c528 89bd d4cf 4f3d
000001a0: a862 1abe 5bd0 133e 7d71 853e b3fe e1bc
000001b0: 2735 28be 3c82 25bd eaca 94bc a1b1 563e
000001c0: b05c 18be 0e60 fa3d e1f6 16be d27e 9d3d
000001d0: 3bb5 3f3e 2166 2fbe 631c 07bd f8e9 143e
000001e0: f20d f3bd 68b0 1abd 8821 e4bd 2e97 d0bd
000001f0: 0cc2 043d cc07 17be 6520 3fbd 481d 14be
00000200: 167b 6f3d 0765 a73d 6164 64be 2134 75be
00000210: 02b2 a0bc 4ae3 503d da3e 773e ce9b dabd
00000220: 1e32 cc3d 88be 0cbe 9148 6f3e 2428 90be
00000230: a317 323e f1e2 2cbe 5985 533e c388 2b3e
00000240: 2038 ed3d 119a 973d 3211 773e 79a2 c2bd
00000250: 4985 acbc 5fbf 78bc c491 623e 2028 fcbd
00000260: fdb5 aabc 0048 643e 9a8b f0bd 9616 323d
00000270: 72d7 883b 5736 51be df85 0e3e 3aa5 e23d
00000280: d7c6 7f3e f4d2 803e 2be3 25bd 4480 ba3d
00000290: 7c4c 0b3e 1509 193d 1c28 5ebe 99ed 003c
000002a0: dc8c 38be 3a24 4b3e 05d0 513e c820 1dbe
000002b0: 85a7 333e 3ffe 00be 663c 66be 6e94 34be
000002c0: f60d 15be 8223 5fbb 3a5d 4ebd 505d 6c3e
000002d0: ab54 8c3a 1938 83bd f462 8fbd 23cc 2bbe
000002e0: e6a1 8e3d ed2b 073e e827 333d e77e cc3d
000002f0: 49bf 813d b666 17be 6a78 50be dce1 c83c
00000300: 94b0 fc3d 2c0b 5ebe ab7f 8ebd da06 0ebe
00000310: f307 dc3d 739e 3ebe b0ce e13d 9bb7 773c
00000320: 1353 173e 4fd9 58be b1b0 5e3d c6be 213e
00000330: 6002 113e f156 94bd f36b 7abc c08c 82be
00000340: e676 6dbe 3ba0 343e fc72 08be 3c26 9fbd
00000350: d15d 133e f573 edbd 71f7 6abe 0086 6bbd
00000360: 66e8 d1bd 7866 ddbc 0db6 143e 8718 26be
00000370: f4f8 0c3e 0315 303e 4642 edbd e236 52be
00000380: 5767 093e 135b b03c 581e fcbd 99ab 063e
00000390: e36b 53bd 588e d03d 2a0b a73d b7ce 623e
000003a0: f7ae de3d 6f3f 45be c42f ffbd 3514 883c
000003b0: 3ef8 223e 9a5b 21be 3aeb 553e 29fa cdbc
000003c0: 55a9 24bc fa58 18be 4abb 443e 90f0 5dbe
000003d0: 8ddb 8abd c078 513d d23d 36bc 2fdd 32be
000003e0: 82e5 debd 515b adbd b6d4 34bd 64f4 51be
000003f0: 88f9 23bd 72f9 5b3e 1fe5 803e 51a0 d3bd
-0.1886661 -0.22940186 -0.14538775 0.1810114 -0.22172189 0.11699329 0.090854876 0.22512111
-0.03691194 -0.08749999 -0.058882527 0.14622109 -0.19141233 0.22889556 -0.2204142 0.20953016
0.16150387 0.07296585 0.06535329 -0.06574147 -0.1945132 -0.18403532 0.16406931 0.18945353
0.03314076 0.14945693 -0.21155003 0.10669235 -0.13549702 0.103307486 0.18832514 -0.014454232
-0.20503339 -0.10334233 -0.023571478 0.05883386 -0.26327455 0.0074752984 0.09226575 -0.18101078
0.16543815 0.031907737 -0.18073127 0.19262889 0.015088232 -0.17007053 -0.09228249 -0.2261708
-0.011701046 -0.17759703 0.14669064 -0.090068184 -0.18791145 0.057563473 0.18286984 0.0060511082
0.094061054 -0.0010767172 0.17599693 -0.09796039 0.08557801 -0.2428787 -0.02721332 -0.2456852
-0.18729894 0.19647007 0.22074105 0.1717449 -0.1618275 0.21421197 0.19474223 -0.17651053
0.2462228 0.12180108 0.029971167 -0.025343116 -0.12212174 -0.16406798 0.060860764 -0.12703295
0.091458194 -0.12918516 -0.033228762 -0.07681304 -0.09114649 0.03576939 0.045706104 -0.027368357
-0.16108836 -0.041188482 0.029538319 -0.2208572 -0.0048735077 -0.13968076 -0.037508737 0.15673219
-0.24248967 0.03303718 -0.0741029 0.026524367 0.07564209 -0.1974995 -0.06697229 0.05073531
-0.15076697 0.1443495 0.26063147 -0.02758727 -0.16426526 -0.040407404 -0.018163163 0.20966198
-0.14879107 0.12225352 -0.14742614 0.07690205 0.18721478 -0.17128803 -0.032986056 0.14542377
-0.11867894 -0.03776589 -0.11139208 -0.10185085 0.03241162 -0.14749068 -0.046661753 -0.14464295
0.058466993 0.08173566 -0.22303917 -0.23945667 -0.01961613 0.05099801 0.2414507 -0.10674249
0.099704966 -0.13744557 0.23367526 -0.28155625 0.17391829 -0.16883446 0.20656337 0.16751389
0.115829706 0.07402433 0.24127653 -0.095036454 -0.021059649 -0.015182345 0.22125918 -0.12312341
-0.020838732 0.22293091 -0.11745377 0.04347857 0.0041760737 -0.20430885 0.13918255 0.11066671
0.24978195 0.25160944 -0.040499847 0.09106496 0.13603395 0.037362177 -0.21694988 0.007869148
-0.18022484 0.19838038 0.2048951 -0.15344536 0.17544372 -0.12596987 -0.22483978 -0.17634746
-0.14556107 -0.0034048264 -0.050381877 0.23082471 0.0010706385 -0.06407184 -0.07001296 -0.1677709
0.069644734 0.1320035 0.04373923 0.09985142 0.06335313 -0.14785275 -0.20358434 0.02452176
0.12338367 -0.21683949 -0.069579445 -0.13869801 0.10743704 -0.18615131 0.11025751 0.015119459
0.14777784 -0.21176647 0.054367725 0.1579543 0.14161062 -0.07243145 -0.015284526 -0.2549801
-0.23189887 0.17639248 -0.13325113 -0.077709645 0.14391257 -0.11594383 -0.22945954 -0.05750084
-0.102494046 -0.0270264 0.14522572 -0.16220294 0.13766843 0.17195515 -0.11584906 -0.20528749
0.13418327 0.021527803 -0.12310475 0.13151397 -0.05161656 0.101834 0.08156426 0.22149168
0.10873216 -0.19262479 -0.124602824 0.016611198 0.1591501 -0.157576 0.20890513 -0.0251437
-0.0100501375 -0.14877692 0.1921207 -0.21673799 -0.06780157 0.051140547 -0.011123138 -0.17467187
-0.10883619 -0.08464683 -0.04414817 -0.20503384 -0.040032893 0.21481875 0.25174806 -0.10333312

ConvBase.1.feature.lis.1.pointwise.bias f4 [16]
00000000: ce68 823e 3c6e 5ebe e099 153e 264a 3cbe
00000010: 4893 babd 1572 81be c5d4 50be fe56 f83d
00000020: f02e 3bbe 32bb 813e c298 2c3a 151c 0f3e
00000030: 81f5 973d eff8 7c3b c153 fa3d 3973 8bbe
0.25470585 -0.21721739 0.1460948 -0.1838766 -0.09110123 -0.2528235 -0.20393665 0.121259674
-0.18279624 0.2533813 0.0006584042 0.13975556 0.07419873 0.0038600524 0.12223006 -0.27236345

ConvBase.1.feature.lis.2.X_conv.conv.weight f4 [16, 1, 7, 1]
00000000: d4e8 813e 9f16 b6be 08e3 c23e f4d2 ef3d
00000010: 4ac1 ab3e 2746 cebd 31cb 9dbe cf07 bc3d
00000020: 57c8 833c 1f0a 2a3e a206 bf3d 712e 2abe
00000030: 3614 403e a2cf a03e fd9a 24be 3f2a c8bd
00000040: 7988 afbe 4bcc 083e f5c8 7abe dcb5 963e
00000050: 561b d8bc db83 b2be 56f2 273e eb2e 44be
00000060: 1c73 aa3e a4fa 9fbd 0dd0 35be 1d67 0d3d
00000070: ea43 cd3d 5221 5b3e aa8e 963e ba11 b43e
00000080: 7d7e 4e3e 4432 82be ec1e b03e cce7 1abd
00000090: b973 f9bd e914 4bbd f25e a53e c1ef a1be
000000a0: bb04 3ebe 45d8 3dbe 905b 01be bfc8 77be
000000b0: 73eb 52be 3b65 6e3d a442 b53d 43a1 c2be
000000c0: b85b 523e cab8 97be 65db 6cbe 7c93 b83e
000000d0: 2ab8 823e 5495 873e 45b0 313e c0de a23e
000000e0: 7a10 a3be 4121 983e 60d7 4e3e 4b34 3bbd
000000f0: 78a7 ec3d 36cb fb3b 1f70 f2bd 4a26 633e
00000100: 6c02 763e 71df 8a3e f5b5 a73d 6ddf bfbe
00000110: 2dec c1bd 26e1 bbbe ffc4 ac3e a0de a63e
00000120: 12e2 593e f7fe 39be 3e21 ab3d f681 19be
00000130: 5ff0 7e3e 47f6 e93d d9f8 0a3d 3930 dd3d
00000140: 077e 953e c7fa e0bd 49ae 69be 196f ffbd
00000150: ecad 303d 1ddd 07be b1b2 c33d cc73 243d
00000160: 5940 dd3c cb7f 1c3e 7bda abbe e097 0abe
00000170: 9425 c63c aeef 623e ba05 c2be fa60 44be
00000180: f0d0 97be e37a c1be 04fd c03d 7152 b83e
00000190: e8c8 85bd 5315 51be b739 47be ae62 32bd
000001a0: 1780 fd3c dfaf 9f3e ae87 133e 97c5 a0be
000001b0: ea82 5dbe 4af7 0a3e a2ed 8dbe 0fd5 0ebd
0.25372946 -0.35564134 0.38063836 0.11710158 0.33545905 -0.10071974 -0.30819085 0.09181177
0.01608674 0.16605423 0.09327437 -0.16619278 0.1875771 0.3140841 -0.16074748 -0.09773683
-0.34283808 0.13359182 -0.24490722 0.29435623 -0.026380222 -0.34866223 0.16401038 -0.19158523
0.33290946 -0.07811478 -0.17755146 0.034522165 0.10022719 0.2139943 0.2940572 0.35169774
0.20165439 -0.25428975 0.34398592 -0.037818715 -0.121802755 -0.04958049 0.32299 -0.3162823
-0.18556492 -0.18539532 -0.12632585 -0.24197672 -0.20597629 0.05820201 0.08850601 -0.38013658
0.205428 -0.2963317 -0.23130567 0.36050022 0.2553113 0.26481116 0.17352398 0.3181057
-0.31848508 0.2971287 0.20199347 -0.045704167 0.1155538 0.0076841367 -0.11837792 0.22182575
0.24024361 0.27123597 0.081890024 -0.37475148 -0.09468875 -0.36695212 0.33744046 0.32591724
0.21277645 -0.18163668 0.0835595 -0.14990982 0.24896382 0.11423927 0.033928726 0.10800213
0.29197714 -0.10985332 -0.22820391 -0.12472362 0.043134615 -0.13267942 0.09555567 0.040149495
0.027008222 0.15283124 -0.33565125 -0.13534498 0.02418784 0.22161743 -0.37894994 -0.19177619
-0.29651594 -0.37789068 0.09423259 0.36000398 -0.065324605 -0.20418291 -0.1945561 -0.04355114
0.030944867 0.31188866 0.14407226 -0.3140075 -0.21631971 0.13570896 -0.27720362 -0.034871157

ConvBase.1.feature.lis.2.X_conv.conv.bias f4 [16]
00000000: 8576 74bd 8435 763e 72d3 17be 8ae6 14be
00000010: 7b2f 52bd 91bb 4b3e 867e 653e 8629 b23d
00000020: ed9e 1c3e b1c8 91bd 661a a43e 9405 c73d
00000030: f947 f73c 50f0 eabd d2a7 b93e 6d3c adbd
-0.05968334 0.24043852 -0.14826754 -0.14541069 -0.051314812 0.1989577 0.22411546 0.08699326
0.15295 -0.07118357 0.3205139 0.09717861 0.030185686 -0.11471617 0.3626085 -0.08458791

ConvBase.1.feature.lis.2.Y_conv.conv.weight f4 [16, 1, 1, 7]
00000000: d273 883d 0b2a 803e 49c0 8dbe 2532 07be
00000010: 2b0e 953d 9f4e a4be d964 ae3e 1cb4 623d
00000020: e04d aebe beb3 b83d 1c18 41bc 2a9c a4be
00000030: 1b18 423e 2c5d ef3d 18ac dcbd 7ee9 0e3d
00000040: 8e20 6ebe 4428 903e 0994 9c3d a6d2 303e
00000050: 56bd 81bc 8709 d3bd 8519 8a3e fa17 d63c
00000060: 4438 b83e 6cfe 86bc c367 b93d 8b7e 963e
00000070: ee80 7c3e 67c3 3e3e 1940 563e 883a a8bc
00000080: f2b6 e53d 7798 113e ab22 6e3e 2545 153e
00000090: d872 6cbd 17f2 ba3d 8ec3 d6be 3407 083e
000000a0: 454d 9f3d 7c8d 913e 69b9 493e 6d22 7cbe
000000b0: c49c a7be 6e12 683e 0e8e d23c 6687 9e3e
000000c0: a962 1bbd db4b f0bd c7f2 c9bc 1820 203e
000000d0: f2df 8bbe 437f a1be 9556 d4bb 6582 da3d
000000e0: 6a8c c4be 4400 983d 472c b5be 439b 85be
000000f0: 0f5c 843e 021d 9bbb ba5f 9bbd af01 93bd
00000100: e8e3 c2be c2d1 29be 3ebc f33d b8a4 fd3d
00000110: d6af 4cbe 24d8 8dbe e722 5abd b12d 143d
00000120: 47a9 933e ac3e 103e 399a f33d 03cd 923e
00000130: 57ca 9bbe d581 573e 31e9 79be 0846 1f3e
00000140: 098b 12be e398 2ebe 63e9 c1be feab b73e
00000150: 202c 1f3e 84c2 1e3e 1114 9bbc c0f1 6bbe
00000160: 082b 643d 9e58 8e3e 4744 0dbe 158d aabc
00000170: 02a9 f3b9 d44b 643e e22e eb3d d31b cd3e
00000180: a8b8 2c3e ef50 3dbe 76b7 5d3e 19ab 6fbd
00000190: f06a 07be 5211 91bd d618 8f3e bba5 b33e
000001a0: d39f 523e 313c 8bbe 97c4 b33d f2df b0be
000001b0: 6c97 84be 8a36 97bb 1ded 75bd 3656 a13e
0.06662716 0.25032076 -0.27685764 -0.13202722 0.07278093 -0.32091233 0.34061316 0.055347547
-0.3404379 0.09018658 -0.011785533 -0.32150394 0.18954508 0.11687693 -0.10775012 0.034890644
-0.23254606 0.2815572 0.07645423 0.17267856 -0.015837353 -0.103045516 0.26972595 0.02613448
0.35980427 -0.01647874 0.09052994 0.2939342 0.24658558 0.18629228 0.20922889 -0.020535722
0.11216535 0.14218317 0.23255412 0.14577158 -0.05772671 0.09128206 -0.4194607 0.13283998
0.0777841 0.28428257 0.19699635 -0.24622507 -0.3273679 0.2266328 0.025702503 0.30962676
-0.037935887 -0.11733218 -0.024651898 0.15637243 -0.27319294 -0.31542405 -0.006480048 0.10669402
-0.38388377 0.07421926 -0.35385343 -0.26095018 0.25851485 -0.0047336826 -0.07586618 -0.071780555
-0.38064504 -0.16583923 0.11901139 0.12384933 -0.19988951 -0.27703965 -0.05325594 0.036176387
0.28840086 0.14086407 0.1189465 0.28672037 -0.3042781 0.2104562 -0.24405362 0.15554059
-0.1431085 -0.17050509 -0.37873372 0.35873407 0.15544176 0.1550389 -0.018930467 -0.23041439
0.0557051 0.27801985 -0.13795577 -0.020819226 -0.00046474492 0.22294551 0.114835516 0.4006029
0.16867316 -0.18487905 0.21652016 -0.05851278 -0.13224387 -0.07083382 0.27948636 0.3508738
0.2056878 -0.2719436 0.08777731 -0.34545857 -0.25896776 -0.004614656 -0.060040582 0.31511086

ConvBase.1.feature.lis.2.Y_conv.conv.bias f4 [16]
00000000: 3493 933d 0e76 273e d18d afbe 583f bcbe
00000010: 3f65 73be cec1 0ebd 4bb7 273e cd63 84bd
00000020: 43d7 a13d a34e ab3e 6f7b d8bd 83b3 a93e
00000030: b109 98be cf66 e13d 46b8 a53e 6fff 973e
0.07205811 0.16353628 -0.34287885 -0.36767077 -0.23769091 -0.034852795 0.16378514 -0.06464348
0.07902386 0.33458433 -0.10570418 0.3314477 -0.29694894 0.11005937 0.32367152 0.29687068

ConvBase.1.feature.lis.2.pointwise.weight f4 [16, 16, 1, 1]
00000000: 0853 b7bd 4393 aebd 3622 6a3e 2680 5a3e
00000010: 62c8 773e a61b d2ba 3395 cc3d 8ddc f03d
00000020: ad61 69be 6af2 ff3b 6477 0c3e 0354 623e
00000030: 5b0c 123e 9693 43bd b3a9 4ebe d2d6 4ebe
00000040: fb5d 293e 692d f4bd e7cc 183e 270c d93d
00000050: 7569 e6bd d775 20bd 6e5c ab3c 6dfa 263c
00000060: 2b36 923d b86e bf3c f755 06be 207f 1fbc
00000070: 82e5 0fbd d2fc c3bc c86d 4d3e 3d29 20be
00000080: 380f 41be 2f10 3b3e 164c 633e 2485 763e
00000090: 7ef9 2dbe 08a2 543e c417 dd3d db41 3abc
000000a0: 87dc f53d ef07 f93d 4576 8e3d 4295 a13d
000000b0: bc23 2c3e 161c 453d 56f7 4bbe da33 12be
000000c0: 6703 7ebe cbae 2fbe d4a1 513c 76fe 5c3d
000000d0: 7a7f c13c ea8b 3bbe e870 6bbe c6ef 84bd
000000e0: 8659 6c3e 473b fbbd d130 0b3e 24d3 65be
000000f0: cc57 d53d 860f 6f3e b44f a8bd 0f3c 4bbe
00000100: 004b 89bd d602 4c3e 333c 7ebe 3758 4d3e
00000110: 732b b9bd 705d 0fbe f71d e93c 10e9 a8bd
00000120: 5fc6 653d 2a3a 2a3e 4245 91bd 5ecd 5ebe
00000130: 5e16 29be 3475 babd b6a4 8739 b13f dd3d
00000140: 04e6 003e a8fc f9bc b4c1 d83d b6fd e1bd
00000150: 5566 643e e878 703e 9b26 3a3e 8f17 d33d
00000160: 72e6 843e 0e27 aabd c3a1 723e 8456 85bc
00000170: a515 143e 5e9b 523d 83e7 163e d8b2 79be
00000180: 60e4 f53d efb8 f83d 123b 563c f8c7 bebd
00000190: d8d0 14be 2d87 aebd 6fec edbd 5c54 2c3e
000001a0: 17e1 803e 66e5 9b3c 6195 48be 94a5 36be
000001b0: 23a5 6e3e eecc 89bd 1179 b73d 55aa b13d
000001c0: 760b 0f3e 63c0 d63d a810 b4bc c1b7 763d
000001d0: 8e9c 6fbd ea08 05be 750a 6c3d 9bda 06be
000001e0: 4d94 ff3d c92d cc3d e74c 63bc 2f72 4a3e
000001f0: 7a3f 583d 6720 84bc 291d 99bd b5d5 d43d
00000200: 4b9a 66be 20de 253e 6b17 173e 1bcd 083e
00000210: 5dfe 37be 64c7 2e3d cdad 36bd 715d 453e
00000220: 45d3 353a 7c05 5c3d 9a99 8cbd 39df e3bd
00000230: 1141 483e 8bdd 7f3e 1764 c8bd b2b4 eabd
00000240: f0f3 cbbd 3592 473e 9e46 27bd 4a7c 1c3e
00000250: 3aea 9a3d 3c9f 993d b490 633e 997d 66be
00000260: f8b5 e23d 74e5 643e e4bd 4c3e e5bb 363d
00000270: a882 223e 9737 c1bd ad23 31bc 4f81 de3d
00000280: b662 4abe e027 a13d 3658 a43c 6608 1b3e
00000290: a657 353d cb94 eabd 0dcc 713d be01 8c3d
000002a0: fe0e 6f3e 9379 a6bd 77f5 3a3e 399a 3a3d
000002b0: 49b9 5d3e 5b5d 02be 73fc 0bbe b943 4c3e
000002c0: 4b11 79be 67a2 16be 48ad 813e e2de e6bc
000002d0: 1219 51be 523a 53be 4e2c 5abe 8582 9e3c
000002e0: b25b f9bd 91e7 aabc 2470 bb3b fab4 7d3e
000002f0: 93d3 17be 7519 da3d 6ab9 393d be22 ae3d
00000300: d031 a63c 518e 9c3c d1c2 353d a2f4 82be
00000310: acf4 b83c 6334 22be 4677 d83d 20fb 1cbe
00000320: 1303 943d 07cf f6bd fa90 17be 9231 543e
00000330: 3958 a1bc 2503 97bd c557 e73c a627 463d
00000340: 5cc0 2fbe a49d 803c 9719 16be 624f 83be
00000350: a2ed 00bd df5f 5fbd 869a 683c 5408 073e
00000360: 7eeb 713e b70a 563e 3b10 173e b0ff 73be
00000370: 138a 833e 6e5b 31be 43f6 e73d b2f1 7cbe
00000380: 9cfe 203d acd2 f8bd 7e49 653e e1f2 56be
00000390: de90 93bc b327 1f3e 34ae 9d3c 68e5 2ebe
000003a0: 4bff 90bc 8ff7 3fbe 8553 14be 6f12 8ebd
000003b0: b2d3 5cbe 9ba2 ffbd 26d2 0f3d cd52 a73d
000003c0: c145 833e 895c 013d 32bd 03be b49c 69be
000003d0: 7494 a8bd 3f38 2a3e b427 26bd e2fc 883d
000003e0: 1b95 67bd 9d27 48be 7ce8 83be cc26 f23c
000003f0: 84a5 01be 042b b8bd 25b8 513e 1932 3a3d
-0.08951384 -0.08524182 0.22864613 0.21337947 0.24197534 -0.0016029968 0.09989395 0.11760817
-0.22791167 0.0078108804 0.13717419 0.2210236 0.14262526 -0.04774817 -0.20181923 -0.20199135
0.16539757 -0.11922724 0.14921914 0.10598021 -0.11250583 -0.03917488 0.020918097 0.010191542
0.07139238 0.023368225 -0.1311873 -0.009734899 -0.035130985 -0.023924265 0.2006141 -0.15640731
-0.18853462 0.18267892 0.22196993 0.24074227 -0.16989705 0.20764935 0.107955486 -0.01136824
0.12004953 0.12159716 0.06956152 0.07889797 0.16810507 0.048122488 -0.1991857 -0.14277592
-0.24805985 -0.17156522 0.0127949305 0.05395361 0.023620356 -0.18315092 -0.22992289 -0.06491046
0.23081025 -0.12267166 0.1359284 -0.22443825 0.104171365 0.23345765 -0.08218327 -0.1984713
-0.06703758 0.19922957 -0.24827652 0.20053183 -0.090414904 -0.14000487 0.028456671 -0.08247578
0.056097385 0.1662375 -0.07093288 -0.21758029 -0.16512439 -0.09104386 0.00025871926 0.10803164
0.12587744 -0.030515984 0.10583821 -0.1103472 0.22304662 0.23483622 0.1817879 0.10307228
0.25957066 -0.0830823 0.2369452 -0.016276605 0.14461382 0.0514177 0.14736752 -0.2438463
0.1200645 0.12144648 0.013075607 -0.09315485 -0.14532793 -0.085218765 -0.11617362 0.16829056
0.2517173 0.019030284 -0.19588234 -0.178366 0.23305182 -0.0672854 0.089586385 0.086750664
0.13969216 0.104859136 -0.021980599 0.060233835 -0.05849891 -0.12991682 0.05762716 -0.13169329
0.12479458 0.0996967 -0.013873315 0.1977012 0.05279491 -0.016128732 -0.07476265 0.10392324
-0.22519796 0.16198015 0.14755027 0.13359492 -0.17968126 0.042670622 -0.044599343 0.19273926
0.00069360837 0.053716168 -0.06865235 -0.11126561 0.19556071 0.24986856 -0.097847156 -0.11460246
-0.09958637 0.19489367 -0.04083883 0.15281788 0.075642064 0.07501075 0.22223169 -0.22508849
0.11069864 0.22353154 0.19994313 0.044612784 0.15870154 -0.09434431 -0.010811728 0.108645074
-0.19764218 0.07868934 0.020061594 0.15139922 0.04427304 -0.11454161 0.05903249 0.0683627
0.23345563 -0.08128657 0.182577 0.045557234 0.21652712 -0.12730925 -0.1367052 0.19947709
-0.24323003 -0.14710389 0.25327516 -0.02818245 -0.2041972 -0.20627716 -0.21305963 0.019349346
-0.121756926 -0.020862373 0.0057201553 0.24776068 -0.14826803 0.10649387 0.04534284 0.0850272
0.020287424 0.01911083 0.044375245 -0.25577265 0.022577606 -0.15840296 0.105696246 -0.15330172
0.07227149 -0.12051206 -0.14801398 0.20722035 -0.019695388 -0.07373647 0.028240094 0.048377655
-0.17163223 0.015700169 -0.14658199 -0.25646502 -0.031476624 -0.05453479 0.0141969975 0.1318677
0.2362499 0.20902525 0.14752285 -0.23828006 0.2569128 -0.17320034 0.113262676 -0.24701574
0.039305314 -0.121495575 0.22391316 -0.20991088 -0.018013414 0.15542488 0.019248106 -0.17079699
-0.017699858 -0.1874678 -0.14484985 -0.0693711 -0.2156513 -0.124821864 0.035112523 0.0817009
0.25639156 0.03158239 -0.12865141 -0.22813684 -0.0823144 0.16623019 -0.040565208 0.066888586
-0.056538682 -0.19546361 -0.2576331 0.029559515 -0.12660795 -0.089925796 0.20480402 0.045457933

ConvBase.1.feature.lis.2.pointwise.bias f4 [16]
00000000: bd01 483d 3701 7fbe ad53 7cbd 5924 0d3d
00000010: f8af 1a3d 980b 04be ca2d 37be b044 243e
00000020: f025 363e 7bf5 823c 4ec4 623c d289 0abd
00000030: 1705 c4bd b023 003e cbe7 44be 879a 5dbd
0.048829783 -0.24902807 -0.061603237 0.034458492 0.037765473 -0.12895048 -0.17888561 0.16041827
0.1778791 0.015986195 0.013840748 -0.033822842 -0.09571283 0.12513614 -0.19229047 -0.054102447

ConvBase.1.feature.lis.3.X_conv.conv.weight f4 [16, 1, 9, 1]
00000000: 4f77 b2bd c7b5 003d 5e12 9c3e 0f8c 9bbd
00000010: b3f8 51be b7aa 733e c082 a5bd 05fd 4bbe
00000020: e22b 683e 91d3 0c3e 1534 8b3e 2c1c 58be
00000030: c081 8d3d 3946 25be 36b8 c73d 003d 9ebe
00000040: 17cb 06be 5542 59bd dfdf 8f3e 02a8 883e
00000050: 1b5d 8e3e 8f4b 743a 5a55 6d3d 1c9e 753e
00000060: 58a3 9c3e 6dbc 203e 8432 7cbe 8068 44be
00000070: 7ba0 6cbd 7e44 9ebe 2df8 153e 6b18 a13e
00000080: 29a4 953d 039b 0bbe 6022 ad3e 5907 5e3d
00000090: 9c42 e33d 0d60 28be e8c5 a83e 6a12 04be
000000a0: 7836 a13e e106 863e 90bf c7bd e6bb 013e
000000b0: 9922 29be c724 893e 74c1 8f3e 62ce a03e
000000c0: ed6c f6bd 90a1 183e 8f5e 1a3d 3a50 24be
000000d0: 03e3 9dbe dfc0 7d3e 9e97 f8bd 6330 523e
000000e0: 0e05 363e 5a36 01be 2eb4 2ebe 1e3c 673e
000000f0: e184 863e 4921 a13e f7e5 fcbd 5cf3 5cbe
00000100: fb07 993e 13e5 3d3e e54b 383e 4541 833e
00000110: f2d8 123e 6112 bf3d 2e73 aebe 0bab 593e
00000120: 0eb2 00be 33fb d93d b946 22bd 677b 30be
00000130: f887 703e 9158 8abe 462a d5bc 4eb3 03be
00000140: a67e 2cbe 5d0a 8dbe c11c 88be e4b2 79be
00000150: b32f e3bc 95e5 5b3e 8884 983c 83b3 5bbe
00000160: 4160 9bbe 0af8 383e fcfb 953d 3f71 0ebe
00000170: b685 8b3e 932b 773e 7b66 9fbe 63c6 adbd
00000180: 775e 2bbe 8eb3 893d 67a9 9e3e e5f3 453e
00000190: f39a 2e3e 1c2c 34be d1a3 ffbc 8aee 8f3e
000001a0: 9003 bcbe a412 79be 4a62 2cbe 6ca5 e63c
000001b0: d119 1abe ed03 afbd 255e 8a3d 9207 84bd
000001c0: 3d01 22be c8a4 72be e6dc 3d3d cc92 73be
000001d0: 0003 443e eafb 933e 95dd 74be 573a 2dbe
000001e0: 25bf 393c 6aeb b7bd 3d15 f6bd aabb 773d
000001f0: de18 3b3e 6e6e f13d 0878 be3c 067c 5dbe
00000200: 2a06 79be 366c d9bc 37c1 953d eac0 fd3c
00000210: 6742 973e f894 a7be aeab 78be a72d 823e
00000220: 8a46 7ebe 8cbf 163b ab40 b53d 2fdf 6bbe
00000230: 8a9c 313b e884 913e f4ae 2cbe a6c9 863e
-0.087141626 0.031423356 0.30482763 -0.075950734 -0.20505027 0.23795591 -0.08081579 -0.19920738
0.2267299 0.13752581 0.27188173 -0.21104497 0.069095135 -0.16140069 0.09751932 -0.30905914
-0.1316341 -0.053041775 0.28100488 0.2669068 0.2780541 0.00093191204 0.057942726 0.23986095
0.3059337 0.15696879 -0.24628645 -0.19180489 -0.057770234 -0.3091163 0.14645453 0.31463942
0.07306702 -0.13633351 0.3381529 0.054206226 0.11096689 -0.1644289 0.3296349 -0.1289765
0.3148687 0.26177123 -0.097533345 0.12669334 -0.16517104 0.2678587 0.2807728 0.31407458
-0.12032495 0.14905381 0.037687834 -0.16046229 -0.3083726 0.24780606 -0.12138294 0.2052627
0.17775366 -0.1261839 -0.1706092 0.22581527 0.26273254 0.31470707 -0.1234855 -0.21577209
0.298889 0.18544416 0.17997701 0.25635734 0.1434057 0.093296774 -0.3407225 0.21256654
-0.12567922 0.106436156 -0.039618228 -0.17234574 0.23489368 -0.27020696 -0.026021134 -0.12861368
-0.16845188 -0.2754697 -0.26584437 -0.24384648 -0.027732706 0.21474297 0.018617883 -0.21455197
-0.30346873 0.1806337 0.07323453 -0.13910387 0.2725045 0.24137716 -0.31132874 -0.08485105
-0.16735254 0.067237005 0.3098862 0.1933132 0.17051296 -0.17594951 -0.031206043 0.28111678
-0.36721468 -0.24323517 -0.1683437 0.028155051 -0.1504891 -0.08545671 0.06756238 -0.064467564
-0.15820785 -0.23695672 0.046353243 -0.23786467 0.1914177 0.28903133 -0.23912652 -0.16916786
0.011337076 -0.089804485 -0.1201577 0.060481705 0.18271205 0.11788641 0.023250595 -0.21629342
-0.24318758 -0.026540857 0.073122434 0.030975778 0.29542848 -0.32730842 -0.2428424 0.25425455
-0.24831596 0.0023002354 0.08850225 -0.23034357 0.0027101361 0.28421712 -0.16863614 0.2632572

ConvBase.1.feature.lis.3.X_conv.conv.bias f4 [16]
00000000: f18e adbd e23a 84be 1128 683e 1513 3d3d
00000010: e13c 013e a145 df3d 9fdb 86be 6835 653e
00000020: 5c67 6b3e ba14 0e3e b7f6 913e 7a55 133e
00000030: 7d07 973e 4ca7 c53d 9780 90bd f52e d8bb
-0.084745295 -0.25826174 0.22671534 0.046160776 0.1262088 0.109019525 -0.26339433 0.22383654
0.22988647 0.13875094 0.2850854 0.14388075 0.294979 0.0965105 -0.070557766 -0.0065973946

ConvBase.1.feature.lis.3.Y_conv.conv.weight f4 [16, 1, 1, 9]
00000000: 9ecf 9dbe e9de 82bd 10b6 bb3b 46b3 a5be
00000010: 4640 40bd 7d25 993e 7dcc 483e a3d3 20be
00000020: 30f1 1abe 9cb7 bd3d b965 c4bd a4b7 00be
00000030: 9940 c63c 2d6e 42be 057a 16be 896d 843e
00000040: 3716 77bc a895 42be 7cf4 6ebd 57a1 3a3e
00000050: c87f a43e d47d 86be 3166 073e 46f5 223e
00000060: 72c7 2cbe bb02 dd3d 028b 693e 4ab3 873e
00000070: a252 a23d 2914 15be 1e41 e6bd 5bd4 463e
00000080: f1c7 8abe d474 883e 1dd9 a5be 9f78 9f3d
00000090: 5eb6 353e da4f 43be 4026 02be c390 1b3d
000000a0: 7bb7 01be a689 cdbc bc66 efbc fa89 7a3b
000000b0: 1d90 99bd 0b28 803e e56a ddbd 6737 bd3c
000000c0: 05f7 473e 7664 173d 49bf e1bc ef0a 903e
000000d0: 745a 873e 0560 96be 11b0 8bbe 94bc 013e
000000e0: 3488 aa3d a140 ccbd 3e3a 913e 639e 053e
000000f0: eef0 9abe 34d1 1c3e 5efb 48be 5369 3dbe
00000100: d29c 2f3e 5221 80be 31c9 333e b117 9f3e
00000110: ca24 87be 1f8e 23be 22a5 9d3e ee16 66be
00000120: b37f 843e fa65 26be a3b4 293e a59b a5bd
00000130: c0af 62be 028c 793c 84f7 c03d 1659 253c
00000140: 1ca4 a6be a82c 0d3e 0e34 233e db08 71bd
00000150: 6edc 07be 4192 403e 74b9 2abe c991 2b3e
00000160: a183 22be a9e5 783d 6496 e3bb 0c3c 2c3e
00000170: ec9b b0bc d419 8d3e f95c 4c3e 6e2e ec3d
00000180: 2dfb ddbd 847f 933d 3d95 ab3e eb04 203e
00000190: 3618 a8bd d76f 14be 619f 5fbc 5a07 5e3e
000001a0: 5111 333e 315c 9abe 1919 973e 0245 be3c
000001b0: b0d0 e5bc a552 953e 7820 393e eddf c3bd
000001c0: fb86 213e 4978 843e aa2a 20be 7fd9 afbd
000001d0: 263c 263d a710 793e 54f9 d83d f2e6 4b3e
000001e0: ccde 55bd edf9 fa3d 2e76 773c 611e 15bd
000001f0: 1531 f53d a7b6 eb3d 9be3 16be efe3 07be
00000200: 4ca4 52bc dd53 67be e7a4 4f3e ebb1 543e
00000210: c4f6 763e 42d3 73bd 24f3 943d 7f37 513e
00000220: a2b2 e8bd 2dbd 1dbe 0837 303e f133 953e
00000230: 2f76 5abe 2145 57be 9b73 02bd 9d0a 7cbe
-0.30822462 -0.06390173 0.0057284907 -0.32363337 -0.046936296 0.29911414 0.19609256 -0.15705733
-0.15131068 0.09263536 -0.095897146 -0.12570053 0.024200724 -0.18987341 -0.14694984 0.2586482
-0.01508098 -0.19002402 -0.058338627 0.18225609 0.3212874 -0.26267874 0.13222577 0.15913877
-0.16872957 0.107915364 0.22806934 0.26503974 0.07925917 -0.14558472 -0.11242889 0.19416945
-0.27105668 0.26651633 -0.32392207 0.077866785 0.17745349 -0.1907343 -0.12709904 0.037979852
-0.12667648 -0.02509005 -0.029223792 0.0038229213 -0.074981906 0.2503055 -0.10811404 0.023097707
0.19527824 0.03696104 -0.027557032 0.28133342 0.26436198 -0.29370132 -0.27282766 0.12669593
0.0832676 -0.099732645 0.28364748 0.13048701 -0.3026194 0.1531418 -0.19627139 -0.18497209
0.17149666 -0.2502542 0.17557217 0.31072763 -0.26395255 -0.15972184 0.3079005 -0.22469684
0.25878677 -0.16249838 0.16572814 -0.080863275 -0.22137356 0.015231134 0.0942221 0.0100920405
-0.3254708 0.13786566 0.15937826 -0.058846336 -0.13267681 0.18805791 -0.16672307 0.16754831
-0.15870525 0.060765896 -0.006945418 0.16819781 -0.021558724 0.27558768 0.19957341 0.11532293
-0.108389236 0.07202056 0.33512297 0.15626876 -0.08207743 -0.14495789 -0.013648839 0.21682492
0.17487074 -0.3014846 0.29511335 0.023226265 -0.028053612 0.29164615 0.18078792 -0.09564195
0.15774147 0.2587302 -0.15641275 -0.08586406 0.040584706 0.24322759 0.105944306 0.19912317
-0.05221443 0.12254701 0.01510386 -0.036405925 0.11972252 0.115094475 -0.14735262 -0.13270544
-0.012856554 -0.22590585 0.20277749 0.20770995 0.24117571 -0.059527643 0.07272938 0.20431326
-0.113621965 -0.15404196 0.17208493 0.2914119 -0.21334146 -0.21022464 -0.03184853 -0.24613424

ConvBase.1.feature.lis.3.Y_conv.conv.bias f4 [16]
00000000: 0c54 d03d 29d2 19be e0e9 1a3e 00c7 abbd
00000010: 8d07 94be a45d e9bd 32b6 a33d 6675 74be
00000020: e121 023e 2467 f4bd eb7e 853d 9a8d 1a3e
00000030: e066 eb3d 1e33 aebd 6bd9 0f3e 63eb de3b
0.10172281 -0.15021576 0.15128279 -0.083875656 -0.2891201 -0.11394814 0.079937354 -0.23872909
0.12708236 -0.11933735 0.06518348 0.15093079 0.11494231 -0.085058436 0.14047782 0.0068029626

ConvBase.1.feature.lis.3.pointwise.weight f4 [16, 16, 1, 1]
00000000: 7975 063e f09d 843c 35e4 853d 3c36 86bd
00000010: cce2 873d f377 35bc a8ff f2bc acfd b03d
00000020: 4e46 c83d d968 c83c 8f59 f83d 52dd 6a3d
00000030: 9d87 42be 57bb e0bd 6afa 4ebd bef3 ea3d
00000040: cbe2 833e bd85 c0bd db2f abbd ff1f 0a3e
00000050: 10b0 c73d 1e57 813d 0b28 5e3e a08c 2e3e
00000060: 431b 22be 2afe abbd 3950 af3d 3de8 743e
00000070: 050b fbbb 5050 4d3e 21f9 933d 7712 9bbd
00000080: cf1d cd3d d7a7 bbbd 1059 74be b030 0e3e
00000090: 53cf 50be de8d c93d d0a8 25be 0fb8 593e
000000a0: baff 97bd ca6a 67bb 68da ebbc 4e58 6bbe
000000b0: 2f29 2b3d 18f1 2c3d 5514 19be df4d 3dbe
000000c0: 0f48 c13d bd42 e3bd 840d 48be e7d0 b4bd
000000d0: 7349 ffbd 95fb 493d c732 25be 3220 3ebe
000000e0: 2296 d43d bb6c dbbc f0d1 093e d109 383e
000000f0: be6d 21bc 04b0 35be 69ac 043d 1c35 f13d
00000100: ec9c 3bbe 8fa6 2b3e 626f 603d 4fdb ff3c
00000110: 0666 41bd 89f3 d0bd e303 2f3e c461 543e
00000120: df54 b6bc 575c 3abd d23a 1d3e 8181 9f3d
00000130: d2ce df3d 5401 bfbd ed79 24be e8da 56be
00000140: 7b12 57be b855 863c 6363 19be 860f acbd
00000150: 5341 543e 64a2 70bd b4f3 73be eff3 66bd
00000160: a082 91bd 991b e63c 506f bdbd 78e9 90bd
00000170: c28d 1bbe 6c72 70be 818c c8bd 3956 2fbd
00000180: d415 d1bc 7b87 cfbd bc83 313e 766d 85bd
00000190: bf34 123e bc33 2d3e ef79 363e eb1b 43be
000001a0: e582 5cbe 2d78 f4bc e0c2 0a3e 6daf 5abd
000001b0: 363e 783e af6d 33be 7093 543e 10dd cfbc
000001c0: 185d 2a3e b4b8 67be e4b8 23bb ad1c e4bd
000001d0: 1d91 f3bc 6f5a 02be 4128 f53d 8476 31be
000001e0: 8411 1bbe c4b5 2c3c bf44 23be 4695 e73d
000001f0: fa25 75bd bccd aabd a02c 153e fc50 243e
00000200: dddf 1dbe d8f8 953b d775 723e 4b95 ed3c
00000210: bc18 0bbe ddda d7bd f5a3 59bd 5be5 453e
00000220: ce2a 72be f2da 9f3d 35cc 8fbc f276 71be
00000230: 7429 353c d96a 383e 5c4b 8f3d 9d82 c0bd
00000240: 310b ea3c ac1f ebbd 10ef b4bb 97d3 7abc
00000250: 0e15 873e ca40 2bbe 2d9e f9bd eb12 fe3c
00000260: a884 453c 1e90 b8bc 18c0 523e 6482 523e
00000270: 7cad b73c b22c 6dbe f0e1 6c3e d666 e43d
00000280: 0f72 013e 442b 81bd a985 243e 715c e33d
00000290: 4b04 843d af02 7a3d c08b 413e 2341 13be
000002a0: c6d4 e6bd 0a89 803d 2ab7 3c3e 1def 893d
000002b0: 60ad 8abd 86db ab3c 435a 4b39 9d73 123e
000002c0: ea27 173e e0bc 783d 8ea6 713d ec17 0ebd
000002d0: 87dd 8bbd fcf0 2b3e 128e 0dbe 9a9e 75be
000002e0: f071 263e 892e 14be 74eb 753e ed0e b7bd
000002f0: f07c 75bc 4bb6 6a3e efbc 2c3e edde 503e
00000300: c989 64be 27f0 553d 3158 67be 797c 013d
00000310: c5f0 a53d 2fff 413e 11dd 66be b336 373e
00000320: b42c 4e3e 5d97 2a3b af86 1ebd a8a8 413e
00000330: 9e1c 0dbd 9968 66be a0b3 3d3e 37ae 193d
00000340: e9ad 843d 99b4 fd3d c2a9 f13d 1455 ce3d
00000350: d448 2b3e cc73 07be 471f c1bd 0d17 99bd
00000360: 8dc3 d13d 44e5 49be eab3 a83d 997b 2fbe
00000370: 7858 b4bd 4f4e 38bd a42f 4cbd a7d1 e3bd
00000380: 7602 c43d 4185 843d c219 5f3e 3e73 413e
00000390: ed87 373e 104b 5fbe 8c00 d03d afae 2c3e
000003a0: 00d5 063d b5f2 53be 028d 7a3e 71fe b13c
000003b0: 1834 11be 186a a43c 2e94 6b3e 2dd9 353e
000003c0: 6aa2 a3bc d490 123e ae97 0b3e c553 773d
000003d0: cdc8 63be 5ae9 4cbe 4cd0 13be 70fd 4cbe
000003e0: 0198 0d3a 75dc f0bc 950f 1f3e 30e4 563c
000003f0: 244f eebd 7d12 45be ec34 c43b 40ed 623e
0.1313075 0.016188592 0.06537668 -0.06553313 0.06635055 -0.011075961 -0.029662922 0.08642134
0.097790346 0.024464058 0.12126457 0.057339974 -0.18997045 -0.10973232 -0.050531782 0.114722714
0.25758967 -0.094005086 -0.08358737 0.13488768 0.09750378 0.063154444 0.21694963 0.17045832
-0.15830712 -0.08398087 0.08560223 0.23916717 -0.0076612257 0.20050168 0.07225252 -0.07571881
0.10015451 -0.09162872 -0.238621 0.1388576 -0.20391588 0.09841512 -0.16177678 0.21261619
-0.07421823 -0.0035311454 -0.028790668 -0.22982904 0.041787323 0.042222112 -0.14949162 -0.18486737
0.09437572 -0.11096714 -0.19536406 -0.088289075 -0.12465181 0.049312193 -0.16132651 -0.18566969
0.10380198 -0.026785245 0.13458991 0.17972495 -0.009852825 -0.17742926 0.032390986 0.11777708
-0.1832158 0.16762756 0.054793723 0.031232504 -0.047216438 -0.10202701 0.17091326 0.2074042
-0.022257267 -0.04549822 0.1535447 0.07788373 0.1092812 -0.09326425 -0.16062136 -0.20981944
-0.21003143 0.016398296 -0.1497932 -0.08401398 0.20728044 -0.058748618 -0.23823434 -0.056384977
-0.07104993 0.028089331 -0.09249747 -0.07075781 -0.15190795 -0.23481148 -0.09792424 -0.042806838
-0.025523104 -0.10133263 0.17335409 -0.06515019 0.14277934 0.16914266 0.17819951 -0.19053619
-0.21534307 -0.02984246 0.13550901 -0.053389955 0.24242482 -0.1752231 0.20759368 -0.025373966
0.16637075 -0.22629052 -0.002498203 -0.11138282 -0.029732281 -0.1272981 0.119705684 -0.17330366
-0.151434 0.010541383 -0.15944193 0.113077685 -0.05985067 -0.08340022 0.14567804 0.16046518
-0.15417428 0.0045767836 0.23677765 0.029001852 -0.13583654 -0.10539792 -0.053134877 0.19325773
-0.23649141 0.078054324 -0.017553428 -0.2358053 0.0110572465 0.18009509 0.069967955 -0.093999125
0.02856979 -0.1148065 -0.0055216625 -0.015309236 0.2638325 -0.16723934 -0.12188373 0.03101488
0.0120555535 -0.022529658 0.2058109 0.20557553 0.022421591 -0.23161581 0.23133063 0.11152427
0.12641166 -0.063070804 0.16066612 0.11101616 0.06446131 0.061037716 0.18900967 -0.14380316
-0.11271052 0.06276138 0.18429247 0.0673506 -0.0677135 0.0209787 0.00019393214 0.14301915
0.1476132 0.060727 0.05899673 -0.034690782 -0.06829362 0.16791147 -0.13823727 -0.23986283
0.16254401 -0.14470877 0.240156 -0.08938394 -0.014983401 0.22921102 0.16868947 0.2039754
-0.22318186 0.05223098 -0.22592236 0.031612847 0.08102564 0.18945001 -0.22545268 0.1789196
0.2013424 0.002603016 -0.038702663 0.18911994 -0.03445112 -0.22500838 0.18525553 0.03751966
0.06478483 0.12387962 0.11799957 0.10074821 0.16727 -0.13227767 -0.09429794 -0.074751
0.102423765 -0.19716364 0.08237441 -0.17136993 -0.088059366 -0.044996556 -0.04985012 -0.111239724
0.09570782 0.06470729 0.2178717 0.18891618 0.17922945 -0.21805978 0.10156354 0.16863512
0.032917976 -0.20698054 0.24467853 0.021727772 -0.14180028 0.02007012 0.23005745 0.17758627
-0.019974906 0.1431306 0.1363208 0.060382623 -0.22244568 -0.20010892 -0.14434928 -0.20018554
0.00054013735 -0.029401997 0.15533288 0.013115928 -0.116361886 -0.19245334 0.005987754 0.22160816

ConvBase.1.feature.lis.3.pointwise.bias f4 [16]
00000000: 5e79 853e e19f e33d 66e4 fabd e66e 3fbe
00000010: df17 d2bc 3f88 3a3e f57a 253e 2212 4d3e
00000020: eb09 28be e57a e6bd c67f b9bb 783c 393d
00000030: 88e9 e2bd ace2 d4bc 196a cd3d 605c 553e
0.26069158 0.11114479 -0.12250595 -0.18694648 -0.025646148 0.18216036 0.16160186 0.20026448
-0.16410033 -0.11253909 -0.0056609837 0.045223683 -0.11079699 -0.025986992 0.10030002 0.2083602

ConvBase.1.feature.bn.weight f4 [16]
00000000: a9ed 7b3f 595d 613f ebbf 043f cbf6 0f3e
00000010: d979 2d3f 0c7f 223f 8c1f 5e3f a8de 033f
00000020: d147 733f 3aaa 263f 7802 763e e0aa 083f
00000030: e86e 4d3f 17fd 093e 630a 523e e249 923e
0.98409516 0.8803306 0.51855344 0.14058988 0.6776405 0.6347511 0.86766887 0.5151162
0.9503146 0.65103495 0.24024379 0.53385735 0.80247355 0.13475452 0.20511775 0.28571993

ConvBase.1.feature.bn.bias f4 [16]
00000000: 487a ba3b d68f 43bb 002a 083b cff4 d63b
00000010: 117d 0cbb 5f1f 9a3b 1e72 2dbb 82a8 803c
00000020: 0cb7 8dbc 7192 683b ea14 1d3b 464a bc3c
00000030: a91e 853c 0f1a c73b d1cb fc3c 0819 09bc
0.0056908466 -0.0029840372 0.0020776987 0.006559945 -0.002143685 0.0047034468 -0.0026465724 0.01570535
-0.017299198 0.0035487677 0.0023968765 0.022984635 0.016249971 0.0060761045 0.030858906 -0.008367784

ConvBase.1.feature.bn.running_mean f4 [16]
00000000: cda1 873e 2c61 13be 2a4a a53c 14dd c4be
00000010: a907 db3a a783 a8be 4dcc 03be 97b9 bd3e
00000020: 3b3b b1be f5e7 9d3d cf63 a5bd 905f 01bc
00000030: 31f3 89bd 06c9 f13c 2111 f53b 6299 bc3c
0.26490632 -0.14392537 0.020176966 -0.3844992 0.0016710657 -0.32912943 -0.12870903 0.37055656
-0.34615502 0.07710258 -0.080756776 -0.007896319 -0.06735838 0.0295148 0.0074788486 0.023022357

ConvBase.1.feature.bn.running_var f4 [16]
00000000: 46fb d53a 859b cf3a 51b8 413b 678f 133b
00000010: fd33 ea3a 3ad2 303b bc59 363b d785 493a
00000020: 24fd 6c3b 7c0f da3a 599a bb3a 647a 0e3b
00000030: 2393 ed3a b850 d43a a0f4 3e3b b275 083b
0.0016325496 0.0015839195 0.0029559324 0.0022515894 0.0017868277 0.0026980774 0.0027824482 0.0007687485
0.0036161626 0.0016636695 0.0014312967 0.002174043 0.0018125515 0.0016198372 0.0029137507 0.0020822105

ConvBase.1.bn.weight f4 [64]
00000000: 0360 d73e 4f30 cf3d e5e4 e23d 3742 aa3d
00000010: 9120 b93e e366 453f 750b 663f d808 37b9
00000020: 525e 323f 85ff 663f f737 803e 6737 0e3f
00000030: c7f0 873d 442e 123e c549 4e3f 3386 433f
00000040: da4d 483f 83c3 513f 772f 4a3f c194 d13e
00000050: d4a9 b63e 482f 543f 1fda 163f 3076 893e
00000060: 9633 583f f7dd 1e3f 2d88 013f 0555 133f
00000070: 4762 493f d1e1 b93e 97a1 943e daaa 723f
00000080: fd4f 303f 9378 cb3e 5a02 143e 28a0 733f
00000090: bd64 973e ee05 533f 8d85 923e dddf e83e
000000a0: 9ce2 b03e b41e 3b3f 813f 9a3e 5b56 0e3e
000000b0: 0e9e 913d fa25 ea3e 3f61 3a3e 2a11 4d3f
000000c0: 607e 423f 50bd f73e 81bf 903e 88e2 273f
000000d0: 8ad2 a33e 8df8 7d3f 5ca7 513b 6c7d 6f3f
000000e0: 3878 703f 4024 663e 48dd 973e b49e 2a3f
000000f0: 5afc ef3e 9662 103e c591 593f 1960 373f
0.4206544 0.10116636 0.110788144 0.08313411 0.3615766 0.7711012 0.8986123 -0.00017455535
0.6967517 0.9023364 0.25042698 0.5555329 0.066377215 0.14275461 0.80581313 0.76376647
0.7824379 0.8193895 0.78978676 0.40933803 0.35676444 0.82884645 0.58926576 0.26847982
0.84453714 0.6205744 0.5059841 0.57551605 0.78665584 0.36305097 0.29029533 0.9479195
0.6887205 0.39740428 0.14454022 0.95166254 0.29569045 0.82430923 0.28617516 0.45483294
0.3454789 0.73093724 0.30126575 0.1390013 0.07110225 0.457321 0.18201159 0.80104315
0.7597408 0.4838662 0.28271106 0.65580034 0.31996566 0.99207383 0.0031990623 0.93550754
0.9393344 0.22474766 0.29661012 0.6664841 0.46872216 0.14100108 0.8498805 0.7163101

ConvBase.1.bn.bias f4 [64]
00000000: fe73 da3c 70e6 233c a2e4 3139 1213 4a3c
00000010: 5533 a2bc 4af9 f2bb 2752 8c3c 3303 cfbb
00000020: 0c06 693c 4508 803a abe2 0abc def7 33bc
00000030: 1d1b 283c aab5 333c 0a08 8bba b55c c43c
00000040: e69b 303b cbcc c3bc f1d4 25bc 243f ddbc
00000050: a15e d33c d787 03bc f513 b83c 4267 c93b
00000060: dcb7 89bc c5ea 923c 42fc 23bc 7a2e 813c
00000070: 5604 6e3c 1d37 3d3c 850d a63b a0eb dbba
00000080: 78f3 0abc 8fb7 4cbc 4208 d1bc 206f 123d
00000090: a564 e0bb 4eac 6f3c aac1 ccbb bccf b13b
000000a0: f91f a73c cf8f b1bc eedb e53b 6b74 b03a
000000b0: 3eeb 423c 1a43 963c d6fc 113c 45c8 0d3d
000000c0: d04a 803c 3527 be3c fadf 8f3c 44eb 443c
000000d0: f0ee 753c ec8e debb e507 79bc 5f27 563c
000000e0: 8c07 9dbc fcc3 ef3b 607b 913c 32b5 c53c
000000f0: b7ec 68bc 094c e03b c8c0 813c 062e 9639
0.026666638 0.010003671 0.00016965208 0.012333648 -0.019799868 -0.0074149715 0.017129017 -0.00631752
0.014222633 0.000976809 -0.008476893 -0.010984389 0.010260371 0.010968605 -0.0010607254 0.023969987
0.0026948391 -0.023901364 -0.01012157 -0.027007647 0.025801959 -0.008027992 0.022470454 0.0061463425
-0.016811304 0.017934212 -0.010008873 0.015769232 0.014527401 0.011548785 0.0050675296 -0.0016778596
-0.008480899 -0.012494936 -0.025516633 0.03575051 -0.0068479353 0.014628483 -0.0062486725 0.005426375
0.020400988 -0.021675019 0.007014743 0.001346243 0.011896906 0.018342543 0.008910378 0.03461482
0.015660673 0.023212055 0.017562855 0.012018982 0.01501058 -0.00679194 -0.015199636 0.01307091
-0.019168638 0.0073170643 0.017759025 0.024134252 -0.0142165935 0.0068450016 0.015838996 0.0002864452

ConvBase.1.bn.running_mean f4 [64]
00000000: a805 383e ea9b ee3d e459 f33d 9271 153d
00000010: c6a7 0b3e 1806 3e3d 0b70 873c c598 f03d
00000020: ad5d 563e c426 143e 065c 673d 7eb9 1f3d
00000030: 247c 3d3e 13ae c73b e6a1 663d a92b 583d
00000040: 4a44 6a3e e8d8 4a3e 915f c43d 8a66 523d
00000050: d61c 293e d01d 463e 6053 113e d76a d73d
00000060: 8957 173e 2c73 2d3e 432f 183d 5a74 fc3d
00000070: c5ba fc3d ac56 273d 462a 793d 2c47 7f3d
00000080: 173b a03e 1480 6a3e 2c5c 073e f609 e93c
00000090: 0655 433e 0d65 5e3e 03f4 573e 9a0c 403e
000000a0: a157 563e b278 de3d cc79 553d 7cad 273e
000000b0: df04 6d3e 1f25 063d 657b 4f3d 2029 9c3d
000000c0: 1483 953e 06ba a73e 70e3 2a3e 8607 353d
000000d0: 3dfe 513e c71d 2e3e 937f 7e3e fb8f 383e
000000e0: 24e0 8a3e aa71 453e df49 923d 467e 223e
000000f0: fb64 923e 7211 353d ac93 983d 5a94 cd3d
0.17970908 0.11650832 0.1188238 0.036485262 0.13638219 0.04639253 0.016532918 0.117478885
0.20934172 0.14467913 0.056484245 0.03899526 0.18504387 0.0060937493 0.056306742 0.052776013
0.22877613 0.19809306 0.0958854 0.05136732 0.16514906 0.1934731 0.14191961 0.10518425
0.14779486 0.16938466 0.037154447 0.1232688 0.12340311 0.04085414 0.06083133 0.062323734
0.31295082 0.2290042 0.13218755 0.028447133 0.19075403 0.21718235 0.21089177 0.18754807
0.20931865 0.108628646 0.052118108 0.16374773 0.2314639 0.032750245 0.050654788 0.076250315
0.29201567 0.32759112 0.16688323 0.044196628 0.2050714 0.17003547 0.24853353 0.18023674
0.2712413 0.1928164 0.07142996 0.15868482 0.28592667 0.04420609 0.07450041 0.100380614

ConvBase.1.bn.running_var f4 [64]
00000000: 9436 c93d cfd8 313d 6222 323d 1e6b 663b
00000010: 6594 713d 254f c93b 1a34 663b d3f0 103e
00000020: b476 083f 377e 703e 718e 103d 25ad 183c
00000030: 14e9 ba3e ee7e 7536 c53e a93c f996 223c
00000040: 1f8c b73e e339 d93e 4ab2 f53d c2b5 f33b
00000050: 57fb cf3d 8be1 803e a467 233f 0a51 353e
00000060: 5327 3e3e a8e3 963e 8574 123d b292 303e
00000070: c3f2 0b3d e089 3b3c cf0f fb3a 79bf 863d
00000080: e1d9 1b3f 0af0 473e efe6 7b3d 4599 1e3c
00000090: 89e8 da3d abc7 493e 16fd 833d 5be0 cf3d
000000a0: 97a0 803d 3007 b73e 0e54 153d 6119 5d3d
000000b0: f8a2 d23e c1d1 013c fd29 083d 3f18 ad3c
000000c0: 9eea 283f dd64 733e cc6d d93d ff48 e33b
000000d0: 18b1 163e d881 393e 5a60 7d3e 8f61 b43d
000000e0: fe23 ef3e 2224 843d aed5 f83c f734 3a3e
000000f0: ec10 9e3e aa50 293c 7c9e b53c 8bdf 163d
0.09824863 0.043419655 0.04348982 0.0035159062 0.05897941 0.006143468 0.003512627 0.14154367
0.53306127 0.23485647 0.035292093 0.009318625 0.3650595 3.6581728e-06 0.020659814 0.00992369
0.3584909 0.42426977 0.119968966 0.0074374387 0.10155361 0.25172076 0.6383002 0.17706695
0.18569688 0.29470563 0.035755653 0.1724346 0.034167062 0.011446446 0.0019154492 0.06579489
0.6087933 0.19525161 0.061499532 0.009680097 0.10688884 0.19705074 0.06444757 0.10150214
0.0628063 0.3574767 0.036457114 0.05397928 0.4113996 0.007923544 0.03324317 0.021129726
0.65983 0.23768945 0.10616645 0.006936192 0.14715993 0.18115938 0.24743786 0.0880767
0.46707147 0.06452204 0.030375328 0.18184267 0.30872285 0.010334173 0.022170298 0.03683428
