waights/weights17.pth (torch_old, 670822 bytes, 196 tensors)

ConvBase.1.feature.lis.0.X_conv.conv.weight f4 [1, 1, 3, 1]
-0.009110638 -0.19694218 -0.12554044
00000000: c944 15bc 36ab 49be ac8d 00be

ConvBase.1.feature.lis.0.Y_conv.conv.weight f4 [1, 1, 1, 3]
0.30608207 -0.072187975 -0.14329882
00000000: cab6 9c3e 4ad7 93bd edbc 12be

ConvBase.1.feature.lis.0.pointwise.weight f4 [16, 1, 1, 1]
-0.36321276 -0.22967303 -0.77142584 -0.93412805 -0.49531266 -0.08379824 0.02275946 0.5824896
0.8301957 0.65785074 0.9249374 0.058527507 0.6963722 -0.0015993636 0.4609332 -0.50413233
00000000: 06f7 b9be 682f 6bbe 2a7c 45bf 0423 6fbf
00000010: 9f99 fdbe 699e abbd 0c72 ba3c 0a1e 153f
00000020: b587 543f e868 283f b3c8 6c3f 8aba 6f3d
00000030: 7345 323f bda1 d1ba 70ff eb3e d10e 01bf

ConvBase.1.feature.lis.0.pointwise.bias f4 [16]
0.81304264 -0.2811611 0.71048456 -1.0437515 -0.3003437 -0.81228155 -0.33080727 0.92220306
-0.68573385 0.25915685 -0.44446278 -0.54196227 0.05331853 -0.07415222 -0.28258768 -0.3954112
00000000: 9023 503f 59f4 8fbe 51e2 353f a699 85bf
00000010: a6c6 99be aff1 4fbf 925f a9be 8015 6c3f
00000020: 418c 2fbf 35b0 843e a090 e3be 0abe 0abf
00000030: 8864 5a3d 1edd 97bd 55af 90be 5673 cabe

ConvBase.1.feature.lis.1.X_conv.conv.weight f4 [16, 1, 5, 1]
0.23937757 -0.30262458 0.0059698755 0.35705194 0.2533011 0.023609737 0.33765468 0.0017440197
0.14764814 -0.27079144 -0.2120037 -0.30379504 -0.049902312 0.28397682 -0.10924217 -0.038077764
0.044612754 0.18279125 0.41336673 0.009188915 -0.38477734 -0.099349834 0.02849995 -0.32129312
0.35320526 0.116555735 0.2522675 -0.38211262 0.22142652 0.15630582 -0.27746043 -0.17595075
-0.18470055 0.19391853 -0.0120516475 0.065009594 -0.058605816 0.42662957 0.40226287 0.13152157
0.048877068 -0.33135608 0.34577492 0.23102741 0.098444134 -0.31460428 -0.29935226 0.091135025
0.13333718 -0.391207 -0.068750784 -0.06887286 -0.45392427 -0.020065695 0.37468514 -0.43218577
-0.44105378 0.29641533 0.19721518 0.37266883 -0.17188296 -0.05914978 -0.06461585 0.40401524
-0.26265997 -0.3534162 0.3478929 -0.17895615 0.08711108 -0.076828934 -0.02494131 -0.0009193316
-0.2913955 -0.44181678 0.25296924 0.35825676 -0.052146185 0.1609307 0.19760542 -0.40710402
00000000: 651f 753e 9cf1 9abe f29e c33b 83cf b63e
00000010: afb0 813e 3569 c13c 13e1 ac3e 9797 e43a
00000020: 1331 173e 2da5 8abe 7f17 59be 068b 9bbe
00000030: 5e66 4cbd 6965 913e 5cba dfbd 6ef7 1bbd
00000040: ddbb 363d a12d 3b3e cea4 d33e 1a8d 163c
00000050: 8901 c5be ed77 cbbd ba78 e93c 8880 a4be
00000060: 52d7 b43e c6b4 ee3d 3529 813e 44a4 c3be
00000070: a2bd 623e a20e 203e 4b0f 8ebe 6f2c 34be
00000080: 2422 3dbe 9492 463e 4674 45bc c023 853d
00000090: a70c 70bd 316f da3e 66f5 cd3e 97ad 063e
000000a0: 5233 483d 81a7 a9be 6909 b13e 7392 6c3e
000000b0: 149d c93d d013 a1be b344 99be 00a5 ba3d
000000c0: 8b89 083e 494c c8be 36cd 8cbd 370d 8dbd
000000d0: c368 e8be d060 a4bc bbd6 bf3e 7447 ddbe
000000e0: cdd1 e1be c0c3 973e c7f2 493e 73ce be3e
000000f0: 1602 30be 0a47 72bd 5155 84bd 16db ce3e
00000100: 5e7b 86be f8f2 b4be 051f b23e 4840 37be
00000110: 4b67 b23d 7d58 9dbd b851 ccbc 4dff 70ba
00000120: ca31 95be cf35 e2be 2f85 813e 6e6d b73e
00000130: 3d97 55bd 04cb 243e 1359 4a3e f06f d0be

ConvBase.1.feature.lis.1.X_conv.conv.bias f4 [16]
0.020436097 0.08719881 0.052120134 -0.45251858 -0.29204208 -0.3941256 -0.45645192 0.09850352
0.15832731 -0.14673528 0.30599326 0.2881406 0.065307565 0.12357918 -0.41484183 0.00015331176
00000000: 9a69 a73c 4a95 b23d ec7b 553d 84b0 e7be
00000010: 8a86 95be d5ca c9be 11b4 e9be 37bc c93d
00000020: 8e20 223e c641 16be 26ab 9c3e 2a87 933e
00000030: f9bf 853d 1517 fd3d 2666 d4be 50c2 2039

ConvBase.1.feature.lis.1.Y_conv.conv.weight f4 [16, 1, 1, 5]
0.2643079 0.3529164 -0.36214238 -0.19755748 0.025129898 0.33330655 0.42720816 -0.105869934
-0.00052163925 -0.42810255 -0.32927984 0.05426705 0.25629675 -0.31084773 -0.23657742 -0.26970595
0.24872668 0.46197295 -0.21238859 -0.34182185 -0.2622694 0.38938603 0.38793555 -0.35491264
0.19795066 -0.24396023 -0.1946209 -0.3551556 0.1163348 -0.3802911 0.072769985 -0.11308299
0.04266268 0.26658675 0.10197817 -0.348205 0.24701694 -0.06319234 -0.10685696 0.060087714
-0.050654523 -0.41478208 -0.09050865 0.1730957 -0.29179558 0.20469426 -0.34128714 -0.13407426
0.42275825 0.32222357 0.24806912 0.13204932 -0.08450277 0.20042604 -0.27757403 0.40340447
-0.3656557 0.26052794 -0.12584744 -0.12196185 0.44557548 -0.22471628 0.16591628 0.4243944
0.0019466989 0.30465955 0.023221398 0.24722606 0.40673345 -0.25859228 -0.29726592 -0.43024084
0.36081594 -0.42445678 0.39800367 0.32716098 -0.07794898 -0.46458158 -0.27008066 -0.004418137
00000000: 5d53 873e 75b1 b43e ba6a b9be 824c 4abe
00000010: 37dd cd3c 28a7 aa3e 07bb da3e 56d2 d8bd
00000020: 9ebe 08ba 4230 dbbe 5e97 a8be 2047 5e3d
00000030: 5439 833e 6f27 9fbe 5a41 72be e616 8abe
00000040: 35b2 7e3e b887 ec3e 657c 59be 4603 afbe
00000050: 2d48 86be 9b5d c73e 7d9f c63e 1cb7 b5be
00000060: 94b3 4a3e b6d0 79be b44a 47be f4d6 b5be
00000070: f140 ee3d 84b5 c2be 6e08 953d 0e98 e7bd
00000080: 10bf 2e3d 0f7e 883e eed9 d03d ed47 b2be
00000090: 02f2 7c3e fc6a 81bd d2d7 dabd 891e 763d
000000a0: 1e7b 4fbd 515e d4be 995c b9bd 0040 313e
000000b0: 3b66 95be 5f9b 513e 30bd aebe c34a 09be
000000c0: c573 d83e 7dfa a43e d505 7e3e f037 073e
000000d0: ca0f adbd 7c3c 4d3e 2f1e 8ebe 088b ce3e
000000e0: 3937 bbbe eb63 853e 27de 00be 22c7 f9bd
000000f0: 7822 e43e 061c 66be f5e5 293e 394a d93e
00000100: 6028 ff3a 56fc 9b3e cd3a be3c d428 7d3e
00000110: 5e3f d03e 3566 84be 3d33 98be 8748 dcbe
00000120: debc b83e 6652 d9be 23c7 cb3e a581 a73e
00000130: b7a3 9fbd a3dd edbe 0348 8abe 05c6 90bb

ConvBase.1.feature.lis.1.Y_conv.conv.bias f4 [16]
0.1958446 0.26172546 -0.13870406 0.2740811 0.121085 0.060209814 0.06065423 0.14584592
0.35667303 0.06683915 -0.42351562 -0.17110848 -0.36767894 0.18781096 -0.3232216 -0.3696247
00000000: 7d8b 483e e100 863e 7008 0ebe 5c54 8c3e
00000010: 6afb f73d 919e 763d 9270 783d a258 153e
00000020: d99d b63e f7e2 883d 0ad7 d8be 1037 2fbe
00000030: 6a40 bcbe 8451 403e 4d7d a5be 733f bdbe

ConvBase.1.feature.lis.1.pointwise.weight f4 [16, 16, 1, 1]
-0.18741702 -0.23605588 -0.13928808 0.16811314 -0.21811667 0.11257686 0.08770193 0.23034059
-0.044715587 -0.09272455 -0.047181588 0.13715935 -0.202295 0.22762807 -0.22427468 0.21512747
0.17036241 0.09303737 0.06457918 -0.050914664 -0.20189855 -0.17874834 0.15403768 0.20072132
0.028495574 0.14722237 -0.20644887 0.09988967 -0.11694284 0.0947674 0.17927258 0.011178987
-0.15560588 -0.09926247 -0.03667695 0.060629006 -0.2923587 -0.006824837 0.08472993 -0.19075571
0.12877274 0.02169028 -0.20288363 0.18712129 0.0026452027 -0.15730572 -0.09209513 -0.24382141
-0.005692805 -0.18003604 0.14321584 -0.09581126 -0.18808967 0.05480785 0.21103187 0.007453634
0.08103321 0.013697516 0.16931367 -0.09950763 0.08678168 -0.27259296 -0.021323761 -0.26348263
-0.17435703 0.20502786 0.22607136 0.17959481 -0.18099725 0.20623575 0.18505788 -0.1535442
0.235838 0.120622866 0.013591444 -0.014718273 -0.11125854 -0.15091187 0.075065255 -0.13302796
0.11266917 -0.10258285 -0.035803 -0.07750183 -0.084593646 0.028655605 0.051998448 -0.019978438
-0.14600109 -0.048934013 0.031802475 -0.22340994 0.0028747253 -0.1372871 -0.025000164 0.18192863
-0.24590787 0.036813084 -0.06912866 0.01802414 0.0757909 -0.19182312 -0.07720964 0.03811942
-0.16409029 0.14814259 0.26683602 -0.024218775 -0.17200889 -0.029861733 -0.03590161 0.22421643
-0.18659723 0.13629629 -0.13512567 0.07464138 0.18152626 -0.18216956 -0.031020802 0.13249725
-0.13378982 -0.039007265 -0.1141842 -0.09081403 0.02671096 -0.16113006 -0.04963509 -0.13406518
0.049390472 0.07905446 -0.21726589 -0.25082627 -0.044198982 0.025681488 0.24664034 -0.09558279
0.111605376 -0.15244263 0.2554778 -0.2639985 0.18772605 -0.18441534 0.19113486 0.15202029
0.11924106 0.0654798 0.23498987 -0.09204186 0.0021929927 -0.0025125574 0.22009227 -0.11953273
-0.0059847175 0.21242888 -0.13587162 0.07164414 -0.004852269 -0.2056264 0.15092996 0.13419698
0.26782468 0.23670526 -0.04115413 0.08038781 0.1259523 0.03752146 -0.20890011 0.012207886
-0.1634003 0.21938987 0.20873661 -0.1409827 0.2052476 -0.12713711 -0.23345394 -0.19621207
-0.1565626 -0.007871137 -0.05140624 0.22424975 0.006734429 -0.04374645 -0.06569397 -0.16791731
0.065615386 0.13668147 0.07126449 0.115979865 0.06315213 -0.12452577 -0.21326986 0.018391548
0.12700167 -0.2358936 -0.064292625 -0.13291374 0.10066881 -0.15705518 0.09929889 0.02102168
0.14648332 -0.20037341 0.060823854 0.15162657 0.1400497 -0.08202228 -0.014707506 -0.25943133
-0.21114181 0.1877424 -0.14531264 -0.05463779 0.14671049 -0.10015927 -0.2387226 -0.050146062
-0.103772305 -0.030408036 0.14887147 -0.15408123 0.14081381 0.17988245 -0.122624 -0.21106665
0.13367139 -0.019854905 -0.12142617 0.15085427 -0.056064855 0.100603156 0.07888361 0.21871713
0.10716008 -0.19211425 -0.13506953 -0.011072041 0.15650472 -0.17031308 0.21028885 -0.02530523
-0.03648469 -0.14033711 0.18327178 -0.22169878 -0.064998575 0.05403267 -0.0024042022 -0.17936929
-0.105347306 -0.077868834 -0.04945132 -0.20204315 -0.04417686 0.21557486 0.27840266 -0.10344109
00000000: 3fea 3fbe a2b8 71be 89a1 0ebe da25 2c3e
00000010: fa59 5fbe b28e e63d 129d b33d 67de 6b3e
00000020: b127 37bd 5ee6 bdbd 7b41 41bd 8073 0c3e
00000030: 6c26 4fbe 5517 693e 43a8 65be 604a 5c3e
00000040: 7c73 2e3e 608a be3d 1742 843d e58b 50bd
00000050: 7ebe 4ebe ce09 37be 0ebc 1d3e e489 4d3e
00000060: 8d6f e93c 76c1 163e 5567 53be f592 cc3d
00000070: ba7f efbd 6915 c23d 3b93 373e 1228 373c
00000080: 2657 1fbe 1f4a cbbd 923a 16bd 1f56 783d
00000090: 0ab0 95be e2a2 dfbb e386 ad3d 7755 43be
000000a0: 00dd 033e d0af b13c bac0 4fbe b99c 3f3e
000000b0: 235b 2d3b c014 21be 5f9c bcbd 52ac 79be
000000c0: b68a babb 5e5b 38be 2ca7 123e b238 c4bd
000000d0: 949a 40be 327e 603d bd18 583e 9d3d f43b
000000e0: bdf4 a53d 8c6b 603c 9060 2d3e a8ca cbbd
000000f0: 98ba b13d 4e91 8bbe 2baf aebc 32e7 86be
00000100: a68a 32be d3f2 513e 407f 673e b4e7 373e
00000110: 5857 39be 772f 533e d07f 3d3e b13a 1dbe
00000120: 847f 713e 1f09 f73d a6ae 5e3c e924 71bc
00000130: 84db e3bd a488 1abe d0bb 993d 7b38 08be
00000140: 18bf e63d f516 d2bd 2ba6 12bd 48b9 9ebd
00000150: 6f3f adbd 29bf ea3c 53fc 543d d2a9 a3bc
00000160: 4f81 15be 086f 48bd 5043 023d 93c5 64be
00000170: e365 3c3b fd94 0cbe 25cd ccbc 804b 3a3e
00000180: 46cf 7bbe 51c9 163d 5493 8dbd 5ca7 933c
00000190: 4238 9b3d 486d 44be 1620 9ebd 1c23 1c3d
000001a0: 4907 28be b1b2 173e bb9e 883e 7466 c6bc
000001b0: 1923 30be 98a0 f4bc 910d 13bd fe98 653e
000001c0: 5813 3fbe 4191 0b3e 625e 0abe 94dd 983d
000001d0: 05e2 393e a88a 3abe 561f febc 5cad 073e
000001e0: 3300 09be 15c6 1fbd 68d9 e9bd b5fc b9bd
000001f0: f1d0 da3c 47ff 24be 2a4e 4bbd 6248 09be
00000200: aa4d 4a3d 4ee7 a13d f37a 5ebe 4d6c 80be
00000210: fe09 35bd fc61 d23c 498f 7c3e e9c0 c3bd
00000220: 5c91 e43d ec19 1cbe fccd 823e d02a 87be
00000230: 423b 403e 60d7 3cbe dbb8 433e 35ab 1b3e
00000240: a834 f43d 461a 863d 2fa1 703e 7180 bcbd
00000250: 50b8 0f3b b8a9 24bb de5f 613e 93cd f4bd
00000260: 731b c4bb f586 593e ee21 0bbe 2aba 923d
00000270: c8ff 9ebb ba8f 52be 628d 1a3e ef6a 093e
00000280: 5120 893e dd62 723e 3c91 28bd 5da2 a43d
00000290: a4f9 003e 1ab0 193d e9e9 55be 9603 483c
000002a0: 6952 27be bda7 603e 0dbf 553e c55d 10be
000002b0: 6d2c 523e 3b30 02be 8d0e 6fbe d1eb 48be
000002c0: f251 20be f1f5 00bc 598f 52bd baa1 653e
000002d0: 7cac dc3b 7a2f 33bd 8f8a 86bd 84f2 2bbe
000002e0: 5c61 863d 3af6 0b3e 1ef3 913d da86 ed3d
000002f0: e755 813d 5e07 ffbd 6a63 5abe dfa9 963c
00000300: ba0c 023e 188e 71be daab 83bd 8a1a 08be
00000310: 732b ce3d 13d3 20be 375d cb3d a935 ac3c
00000320: b9ff 153e b02e 4dbe 6f22 793d ff43 1b3e
00000330: 3069 0f3e 4cfb a7bd c0f7 70bc 2fd4 84be
00000340: 8f35 58be 8b3f 403e d6cc 14be e0cb 5fbd
00000350: 463b 163e 4e20 cdbd b273 74be f565 4dbd
00000360: 9386 d4bd 461a f9bc c371 183e 78c7 1dbe
00000370: 7f31 103e 1b33 383e 4b22 fbbd db21 58be
00000380: 27e1 083e c1a6 a2bc 49ae f8bd 8b79 1a3e
00000390: 43a4 65bd 0709 ce3d bb8d a13d 62f7 5f3e
000003a0: be76 db3d 99b9 44be ab4f 0abe 8167 35bc
000003b0: c642 203e 8d66 2ebe f655 573e ea4c cfbc
000003c0: f870 15bd 88b4 0fbe 99ab 3b3e 0105 63be
000003d0: f91d 85bd 5c51 5d3d d28f 1dbb 95ac 37be
000003e0: 54c0 d7bd b279 9fbd 788d 4abd 66e4 4ebe
000003f0: ccf2 34bd a8bf 5c3e cb8a 8e3e ecd8 d3bd

ConvBase.1.feature.lis.1.pointwise.bias f4 [16]
0.23743992 -0.22905524 0.15080327 -0.1662996 -0.085638754 -0.2542169 -0.19982043 0.1128502
-0.169597 0.25875127 -0.006826545 0.14132352 0.07209364 0.021725899 0.14143495 -0.27552003
00000000: 7323 733e 758d 6abe 2c6c 1a3e 714a 2abe
00000010: 5f63 afbd b828 82be ba9d 4cbe 011e e73d
00000020: d6aa 2dbe 0c7b 843e 36b1 dfbb 1db7 103e
00000030: d5a5 933d 83fa b13c 53d4 103e f610 8dbe

ConvBase.1.feature.lis.2.X_conv.conv.weight f4 [16, 1, 7, 1]
0.26862776 -0.35287955 0.39287528 0.122465365 0.35576564 -0.09846669 -0.2931094 0.08696397
0.007938846 0.14510378 0.0845385 -0.1661715 0.180926 0.30242085 -0.14786361 -0.08850347
-0.3340442 0.140465 -0.24117528 0.3058898 -0.021022834 -0.35697833 0.14827003 -0.20611832
0.32146615 -0.0897195 -0.1863957 0.027715186 0.09047431 0.21058913 0.29137924 0.35312945
0.18933281 -0.27860522 0.31771109 -0.04161057 -0.116565235 -0.03712327 0.3255718 -0.32562065
-0.17995451 -0.18991624 -0.13593851 -0.2641268 -0.23004822 0.051061247 0.07992457 -0.39432803
0.19242999 -0.28503004 -0.21657227 0.358629 0.26015112 0.2773402 0.19460417 0.34023
-0.31627968 0.30458528 0.20311621 -0.04323375 0.13572364 0.020136463 -0.12883246 0.24767901
0.2464072 0.27976483 0.09275361 -0.35492378 -0.08041818 -0.35728994 0.3478498 0.3285084
0.21355858 -0.17055237 0.10030771 -0.13473524 0.2575854 0.11620151 0.03712917 0.11377803
0.2810629 -0.11127065 -0.22450976 -0.13701838 0.04789839 -0.13808398 0.09411246 0.03003249
0.023230568 0.15853463 -0.34131384 -0.13983963 0.021447612 0.22564442 -0.38442641 -0.19707657
-0.3067261 -0.3794495 0.09587392 0.37441525 -0.055814303 -0.19699869 -0.18478401 -0.028986404
0.040615875 0.3144407 0.15236342 -0.29933894 -0.1985422 0.14830707 -0.26773638 -0.02555191
00000000: 9489 893e a1ac b4be f326 c93e 1fcf fa3d
00000010: ea26 b63e e7a8 c9bd 6f12 96be 2a1a b23d
00000020: ef11 023c 1696 143e 8522 ad3d dd28 2abe
00000030: aa44 393e e8d6 9a3e 8f69 17be 4f41 b5bd
00000040: d707 abbe 0fd6 0f3e a7f6 76be 969d 9c3e
00000050: 1438 acbc ddc5 b6be 19d4 173e ae10 53be
00000060: 3697 a43e dbbe b7bd 84de 3ebe f50a e33c
00000070: 984a b93d ada4 573e a92f 953e 62cd b43e
00000080: 76e0 413e 58a5 8ebe 07ab a23e d86f 2abd
00000090: c1b9 eebd 920e 18bd 59b1 a63e c0b7 a6be
000000a0: ff45 38be 6779 42be 7733 0bbe a13b 87be
000000b0: c391 6bbe 9925 513d 7eaf a33d 5de5 c9be
000000c0: 5e0c 453e 75ef 91be 1fc5 5dbe 389e b73e
000000d0: 8732 853e 89ff 8d3e 5146 473e a032 ae3e
000000e0: 69ef a1be 9af2 9b3e b2fd 4f3e df15 31bd
000000f0: 23fb 0a3e 39f5 a43c a8ec 03be 919f 7d3e
00000100: 2b52 7c3e 563d 8f3e 9bf5 bd3d 92b8 b5be
00000110: 49b2 a4bd b5ee b6be 5e19 b23e 4132 a83e
00000120: 1aaf 5a3e 48a5 2ebe 216e cd3d 09f8 09be
00000130: 3ce2 833e 0ffb ed3d c214 183d 7504 e93d
00000140: 7ae7 8f3e dee1 e3bd e3e5 65be 8c4e 0cbe
00000150: 1a31 443d e365 0dbe 09be c03d b206 f63c
00000160: 084e be3c e756 223e b0c0 aebe 1f32 0fbe
00000170: e7b2 af3c 550f 673e 8ad3 c4be 71ce 49be
00000180: 340b 9dbe 3447 c2be 8c59 c43d 5bb3 bf3e
00000190: 8a9d 64bd 06ba 49be 0538 3dbe e574 edbc
000001a0: d55c 263d 5ffe a03e 2805 1c3e f442 99be
000001b0: a54e 4bbe cfdd 173e be14 89be 3d52 d1bc

ConvBase.1.feature.lis.2.X_conv.conv.bias f4 [16]
-0.049069993 0.24575588 -0.14659272 -0.15164532 -0.03895132 0.20200533 0.22537068 0.092332765
0.17344564 -0.07710724 0.33776224 0.09033086 0.013984335 -0.1156055 0.36544475 -0.090572536
00000000: 9efd 48bd 6ea7 7b3e 671c 16be e948 1bbe
00000010: 6b8b 1fbd 7cda 4e3e 92c7 663e f618 bd3d
00000020: bc9b 313e 67ea 9dbd 2cef ac3e 63ff b83d
00000030: 8d1e 653c 94c2 ecbd 931b bb3e 187e b9bd

ConvBase.1.feature.lis.2.Y_conv.conv.weight f4 [16, 1, 1, 7]
0.036837894 0.24709556 -0.2790165 -0.11911807 0.061914086 -0.33886 0.33673903 0.062137064
-0.3270629 0.102749884 -0.0039971117 -0.31022435 0.18319991 0.12861998 -0.12122368 0.04801583
-0.23234084 0.25795746 0.07655082 0.15695757 -0.011230949 -0.093967184 0.29269093 0.05475224
0.34549856 -0.00042443784 0.1129445 0.3212985 0.25017294 0.19705871 0.21152362 -0.03242438
0.13215463 0.12746155 0.21995315 0.14513811 -0.062483523 0.094516024 -0.4162762 0.13044415
0.07807408 0.2839596 0.1793815 -0.26135167 -0.35497683 0.20792452 0.023628123 0.3221207
-0.019939665 -0.13140866 -0.021630276 0.1413598 -0.27216166 -0.31906146 -0.008718098 0.106494755
-0.3643896 0.10905451 -0.35236013 -0.26301104 0.27188495 0.0070651695 -0.07427686 -0.07456166
-0.37141633 -0.18378176 0.11947922 0.13273452 -0.1881709 -0.28424895 -0.08532943 0.03991213
0.30324438 0.14277746 0.10449626 0.26951477 -0.31508687 0.21354172 -0.25466365 0.1609065
-0.15313064 -0.17231365 -0.37860945 0.3465561 0.12671906 0.16470106 -0.038126 -0.2412849
0.066611655 0.3009763 -0.13346748 -0.019428127 -0.0006965906 0.21262112 0.11281829 0.4039583
0.17235057 -0.18987831 0.21670012 -0.046935994 -0.14447874 -0.09128555 0.2725364 0.35504267
0.22261578 -0.26121056 0.09227664 -0.3450859 -0.25418285 0.0012657249 -0.049440734 0.32766885
00000000: 55e3 163d 9e06 7d3e 40db 8ebe 2df4 f3bd
00000010: a099 7d3d 0f7f adbe 0f69 ac3e 6f83 7e3d
00000020: ca74 a7be 886e d23d 34fa 82bb bad5 9ebe
00000030: c298 3b3e f5b4 033e 1f44 f8bd 3fac 443d
00000040: c2ea 6dbe 0013 843e adc6 9c3d 7cb9 203e
00000050: 0402 38bc de71 c0bd 96db 953e e343 603d
00000060: 30e5 b03e 1587 deb9 724f e73d 3d81 a43e
00000070: ab16 803e c2c9 493e a699 583e 6dcf 04bd
00000080: 8b53 073e 4885 023e 663b 613e 169f 143e
00000090: b9ee 7fbd 9e91 c13d 2722 d5be 2793 053e
000000a0: 4ee5 9f3d 2763 913e c9af 373e e3cf 85be
000000b0: 86bf b5be 2aea 543e c48f c13c 01ed a43e
000000c0: 8258 a3bc fe8f 06be fa31 b1bc a0c0 103e
000000d0: c658 8bbe 065c a3be 5ad6 0ebc ec19 da3d
000000e0: 4691 babe f957 df3d 8c68 b4be 62a9 86be
000000f0: 8134 8b3e f082 e73b 771e 98bd c9b3 98bd
00000100: 482a bebe 4931 3cbe 85b1 f43d 8feb 073e
00000110: dfaf 40be 1489 91be 32c1 aebd e77a 233d
00000120: d942 9b3e 4134 123e 2302 d63d d7fd 893e
00000130: 1153 a1be aeaa 5a3e 4663 82be acc4 243e
00000140: 47ce 1cbe fd72 30be 19d9 c1be cd6f b13e
00000150: a4c2 013e 65a7 283e 022a 1cbd 6413 77be
00000160: b16b 883d 9119 9a3e b3ab 08be bc27 9fbc
00000170: 679b 36ba 5ab9 593e 470d e73d 9fd3 ce3e
00000180: ab7c 303e 766f 42be a3e6 5d3e f53f 40bd
00000190: 3cf2 13be ebf3 babd e489 8b3e 27c8 b53e
000001a0: 64f5 633e 64bd 85be 89fb bc3d 19af b0be
000001b0: 4124 82be aee6 a53a 5e82 4abd 36c4 a73e

ConvBase.1.feature.lis.2.Y_conv.conv.bias f4 [16]
0.089297004 0.16549422 -0.34485036 -0.37114006 -0.24735388 -0.021681653 0.16260156 -0.060611814
0.09649105 0.34129852 -0.11036255 0.31857854 -0.28462827 0.10980829 0.34161437 0.28853926
00000000: 59e1 b63d 5177 293e 3a90 b0be 1206 bebe
00000010: 564a 7dbe b99d b1bc 0681 263e 1844 78bd
00000020: 1a9d c53d aebe ae3e c305 e2bd ba1c a33e
00000030: ccba 91be 2be3 e03d 14e8 ae3e 6bbb 933e

ConvBase.1.feature.lis.2.pointwise.weight f4 [16, 16, 1, 1]
-0.096241914 -0.08992606 0.21405199 0.21810767 0.23571298 0.0036871426 0.11402887 0.1150457
-0.2219638 0.009167422 0.13723315 0.19136517 0.14481857 -0.056973696 -0.21112166 -0.19204088
0.17429036 -0.13405402 0.13911197 0.09584047 -0.112722665 -0.05561496 0.021311965 0.008133814
0.07237438 0.025193132 -0.16114222 -0.0008246612 -0.065445155 -0.046391603 0.21098687 -0.15048055
-0.20228927 0.1716251 0.20824343 0.24816066 -0.1776831 0.19107407 0.11655096 -0.016868869
0.12675525 0.11351315 0.08270494 0.0720871 0.16280319 0.03998435 -0.19262432 -0.13295493
-0.2506976 -0.17361234 0.0095863035 0.04067567 0.039179787 -0.16006683 -0.23803324 -0.059053935
0.23273085 -0.116540894 0.13966236 -0.25897223 0.1245417 0.2446411 -0.073944665 -0.1860967
-0.07310195 0.18919316 -0.2591831 0.20321104 -0.09786259 -0.11953373 0.03883113 -0.07050326
0.05460656 0.16824123 -0.04954523 -0.21303827 -0.15999782 -0.10285697 -0.015406877 0.11875376
0.10261225 -0.043551475 0.10136024 -0.11353518 0.21794106 0.24801557 0.18655334 0.08532353
0.26481944 -0.08518889 0.23807847 0.0017610181 0.12769309 0.032633044 0.1602814 -0.23358138
0.12853375 0.10502 0.019926496 -0.10584425 -0.1257325 -0.10840346 -0.10980085 0.17735864
0.26089862 0.045690082 -0.18207458 -0.17298993 0.24389605 -0.07168855 0.073672615 0.100613944
0.1410144 0.11430374 -0.02603622 0.057760198 -0.050647344 -0.090069756 0.07801954 -0.1351566
0.119475074 0.1058534 0.0028509218 0.22887535 0.071244076 -0.031778198 -0.071728386 0.10442586
-0.2188541 0.15794043 0.15491168 0.12627779 -0.1793094 0.060232177 -0.056953322 0.18711111
-0.00064966385 0.081423976 -0.06128014 -0.08875339 0.20174979 0.26067522 -0.10576151 -0.1136789
-0.09215074 0.20696542 -0.063219614 0.14584747 0.07937191 0.07792152 0.2511538 -0.21548548
0.084417716 0.23453245 0.19375744 0.044702716 0.1476074 -0.099454485 -0.008536537 0.12816137
-0.21974784 0.072767034 0.021407727 0.14431833 0.042077187 -0.11560637 0.035547547 0.05967114
0.20099762 -0.046104778 0.19636509 0.01359216 0.23580414 -0.13447857 -0.15432988 0.20841223
-0.24315184 -0.14353806 0.25580478 -0.026534759 -0.19549142 -0.2180496 -0.22833821 0.013100201
-0.13495667 -0.027218422 0.020995274 0.22328427 -0.1334839 0.09633722 0.026164621 0.098157324
0.02474486 0.0038908317 0.037422143 -0.24766165 0.026327776 -0.1573834 0.09920394 -0.17909332
0.066459514 -0.10940078 -0.14281677 0.17475116 -0.02066281 -0.07040699 0.042784516 0.034774445
-0.19554237 0.030872194 -0.15206936 -0.2672114 -0.051330935 -0.054495096 0.018784806 0.12378977
0.23304322 0.20059606 0.15941197 -0.22384407 0.25860745 -0.17368113 0.10400969 -0.25875998
0.03414711 -0.11074959 0.22720973 -0.19672513 -0.014987254 0.15452197 0.0069038603 -0.16882364
-0.0031732828 -0.19997075 -0.15263958 -0.06824285 -0.20199744 -0.13720065 0.03678791 0.09594818
0.2576062 0.05291223 -0.12308362 -0.24743897 -0.07334675 0.16826825 -0.028934484 0.06300371
-0.067283094 -0.20793541 -0.26676384 0.028705755 -0.13966544 -0.094537064 0.22900581 0.03974293
00000000: 7b1a c5bd 272b b8bd 7230 5b3e 9e57 5f3e
00000010: be5e 713e fda3 713b f887 e93d 149d eb3d
00000020: 7a4a 63be f432 163c d986 0c3e 3bf5 433e
00000030: 524b 143e 405d 69bd 4730 58be 5da6 44be
00000040: 2c79 323e 7545 09be 5e73 0e3e 0248 c43d
00000050: 24db e6bd 83cc 63bd 6e96 ae3c b043 053c
00000060: 0539 943d d461 ce3c 7702 25be 142e 58ba
00000070: 1c08 86bd 1f05 3ebd f10c 583e 9317 1abe
00000080: eb24 4fbe 7dbe 2f3e c43d 553e d41d 7e3e
00000090: 8ff2 35be eca8 433e 45b2 ee3d 9530 8abc
000000a0: 21cc 013e 9579 e83d 3561 a93d 67a2 933d
000000b0: e1b5 263e a1c6 233d 4f3f 45be 5625 08be
000000c0: 705b 80be 6fc7 31be df0f 1d3c 889b 263d
000000d0: fc7a 203d 8fe8 23be fcbe 73be 8ae2 71bd
000000e0: ff50 6e3e feac eebd a603 0f3e 0298 84be
000000f0: b80f ff3d 3283 7a3e 4d70 97bd 2290 3ebe
00000100: 7ab6 95bd dabb 413e a6b3 84be 8e16 503e
00000110: 2e6c c8bd 1ace f4bd 640d 1f3d 0364 90bd
00000120: 21ab 5f3d 6e47 2c3e f0ef 4abd b426 5abe
00000130: 78d6 23be ada6 d2bd 206d 7cbc 2c35 f33d
00000140: 5f26 d23d 0863 32bd f595 cf3d 2285 e8bd
00000150: f12b 5f3e cbf7 7d3e d707 3f3e 1abe ae3d
00000160: 6a96 873e 8377 aebd d8ca 733e f6d1 e63a
00000170: fac1 023e 3aaa 053d cf20 243e f52f 6fbe
00000180: 5a9e 033e ba14 d73d e43c a33c dfc4 d8bd
00000190: 05c0 00be a202 debd 45df e0bd 819d 353e
000001a0: 8194 853e 8625 3b3d c271 3abe 4624 31be
000001b0: e3bf 793e 72d1 92bd abe1 963d af0e ce3d
000001c0: 1466 103e 1418 ea3d e949 d5bc f595 6c3d
000001d0: 9773 4fbd 7e76 b8bd b5c8 9f3d 7e66 0abe
000001e0: 59af f43d abc9 d83d 88d6 3a3b 4d5e 6a3e
000001f0: 6ae8 913d db29 02bd 55e6 92bd 3add d53d
00000200: 4a1b 60be 23bb 213e 2ba1 1e3e f74e 013e
00000210: e29c 37be 04b6 763d e347 69bd 0e9a 3f3e
00000220: 344e 2aba 9dc1 a63d e200 7bbd 56c4 b5bd
00000230: 7f97 4e3e 3977 853e 7e99 d8bd 7cd0 e8bd
00000240: 87b9 bcbd beee 533e 4979 81bd 0a59 153e
00000250: bd8d a23d 5195 9f3d 3b97 803e 3aa8 5cbe
00000260: 32e3 ac3d 4629 703e 5a68 463e 321a 373d
00000270: 6526 173e cbae cbbd d5dc 0bbc bc3c 033e
00000280: 9405 61be e206 953d 425f af3c 2fc8 133e
00000290: 2159 2c3d 08c3 ecbd 4e9a 113d ba69 743d
000002a0: 52d2 4d3e 5dd8 3cbd ee13 493e a7b1 5e3c
000002b0: a476 713e c0b4 09be a708 1ebe 046a 553e
000002c0: ccfc 78be a4fb 12be d8f8 823e 6c5f d9bc
000002d0: e72e 48be 6548 5fbe 7ed1 69be 3aa2 563c
000002e0: 1532 0abe 2bf9 debc 48fe ab3c a2a4 643e
000002f0: 01b0 08be 734c c53d 3057 d63c b506 c93d
00000300: bcb5 ca3c 53fd 7e3b f647 193d 049b 7dbe
00000310: 59ad d73c 1d29 21be 6f2b cb3d 3d64 37be
00000320: ed1b 883d 840d e0bd 8f3e 12be f8f1 323e
00000330: 0e45 a9bc 8a31 90bd d13e 2f3d a66f 0e3d
00000340: 423c 48be afe7 fc3c 12b8 1bbe efcf 88be
00000350: 6340 52bd 4036 5fbd 98e2 993c 7e85 fd3d
00000360: e2a2 6e3e 0e69 4d3e e43c 233e 6137 65be
00000370: 3268 843e 77d9 31be 0803 d53d 307c 84be
00000380: d7dd 0b3d aed0 e2bd aba9 683e 5072 49be
00000390: 198d 75bc 023b 1e3e c739 e23b 1be0 2cbe
000003a0: daf6 4fbb 22c5 4cbe 8d4d 1cbe e8c2 8bbd
000003b0: 6bd8 4ebe 547e 0cbe ebae 163d 7b80 c43d
000003c0: f6e4 833e 7fba 583d 4413 fcbd a460 7dbe
000003d0: d236 96bd 834e 2c3e 0308 edbc 1708 813d
000003e0: b8cb 89bd 05ed 54be 4595 88be 5528 eb3c
000003f0: 7504 0fbe a69c c1bd 8080 6a3e 7cc9 223d

ConvBase.1.feature.lis.2.pointwise.bias f4 [16]
0.04800395 -0.26239738 -0.061643705 0.037899103 0.012074658 -0.111976765 -0.17182073 0.1753487
0.18677506 0.015626604 -0.0054649417 -0.030888893 -0.118914545 0.11505629 -0.19523653 -0.04494473
00000000: ca9f 443d f358 86be 1c7e 7cbd 173c 1b3d
00000010: c9d4 453c 1354 e5bd c6f1 2fbe 9c8e 333e
00000020: f641 3f3e 5d03 803c 4113 b3bb b40a fdbc
00000030: 7889 f3bd a2a2 eb3d 16ec 47be f717 38bd

ConvBase.1.feature.lis.3.X_conv.conv.weight f4 [16, 1, 9, 1]
-0.071369596 0.0480738 0.32100758 -0.069660515 -0.20866582 0.23875524 -0.07943564 -0.19366848
0.23147303 0.1512892 0.2623924 -0.22889704 0.07234378 -0.14647703 0.105262 -0.30191302
-0.12294965 -0.038486607 0.26479045 0.26360175 0.29665586 0.0044733747 0.07074903 0.24596323
0.31262782 0.16777208 -0.22679861 -0.2030007 -0.06338681 -0.32252094 0.12808518 0.2956734
0.05525955 -0.1431793 0.32998666 0.041844275 0.11632363 -0.15167646 0.33731818 -0.12997937
0.31400073 0.26669565 -0.09956631 0.12261629 -0.1650482 0.25478142 0.26804784 0.2985909
-0.12701876 0.14679655 0.036427904 -0.15815073 -0.31242618 0.2414051 -0.1346529 0.20421329
0.19191276 -0.13603827 -0.19207104 0.2029466 0.27108917 0.31063583 -0.14108045 -0.1939829
0.32395837 0.19117427 0.18855818 0.25647545 0.16075753 0.11592181 -0.35444602 0.21043223
-0.13181067 0.09187138 -0.041106265 -0.14826873 0.24923776 -0.271673 -0.028440349 -0.13102596
-0.18293148 -0.27365395 -0.26918384 -0.24661815 -0.039271273 0.21425387 0.023340434 -0.21703187
-0.31130174 0.17290014 0.07770983 -0.13483404 0.27035108 0.25331736 -0.30646574 -0.0832602
-0.15923962 0.07239216 0.32039216 0.18551111 0.1700442 -0.18239497 -0.04800457 0.272975
-0.36819044 -0.24920993 -0.17793746 0.019765833 -0.1631693 -0.10598999 0.048723105 -0.06618735
-0.16992742 -0.24511686 0.042126752 -0.2291815 0.17705357 0.30923143 -0.22548135 -0.17112096
0.019270914 -0.08636584 -0.1185631 0.06865026 0.20077059 0.13031335 0.017796682 -0.23663144
-0.2760295 -0.046612263 0.07132645 0.030940829 0.2903564 -0.33481088 -0.25620514 0.2559627
-0.23675618 0.023185533 0.098432764 -0.20438202 -0.008496994 0.27087957 -0.17395012 0.26571697
00000000: 392a 92bd 08e9 443d 1b5b a43e 2caa 8ebd
00000010: 7eac 55be 417c 743e 27af a2bd 0851 46be
00000020: 4407 6d3e 8eeb 1a3e 4c58 863e fc63 6abe
00000030: fa28 943d 13fe 15be 9a93 d73d 5894 9abe
00000040: 07cd fbbd 22a4 1dbd 9d92 873e cff6 863e
00000050: 47e3 973e 6395 923b dee4 903d c9dd 7b3e
00000060: c110 a03e 72cc 2b3e e53d 68be 6adf 4fbe
00000070: f2d0 81bd 7721 a5be c328 033e 8162 973e
00000080: d757 623d 989d 12be 03f4 a83e e764 2b3d
00000090: 153b ee3d 1351 1bbe f8b4 ac3e 5019 05be
000000a0: b4c4 a03e 558c 883e 6ce9 cbbd 401e fb3d
000000b0: 6502 29be b672 823e 913d 893e e8e0 983e
000000c0: 3511 02be d651 163e 6d35 153d 44f2 21be
000000d0: 53f6 9fbe e632 773e 73e2 09be 4a1d 513e
000000e0: c784 443e 9e4d 0bbe 45ae 44be 3cd1 4f3e
000000f0: 33cc 8a3e a90b 9f3e 6577 10be 74a3 46be
00000100: dfdd a53e 30c3 433e 6515 413e c050 833e
00000110: 9f9d 243e 6a68 ed3d f379 b5be 8c7b 573e
00000120: 60f9 06be 1027 bc3d 0b5f 28bd c2d3 17be
00000130: 2f38 7f3e b918 8bbe bcfb e8bc ab2b 06be
00000140: 6452 3bbe 5f1c 8cbe 77d2 89be 7889 7cbe
00000150: eada 20bd 5e65 5b3e 7034 bf3c 9a3d 5ebe
00000160: f162 9fbe bc0c 313e 5526 9f3d ef11 0abe
00000170: 756b 8a3e d0b2 813e 14e9 9cbe 5384 aabd
00000180: b60f 23be 5742 943d 710a a43e a0f6 3d3e
00000190: 1120 2e3e bfc5 3abe 71a0 44bd 61c3 8b3e
000001a0: 7583 bcbe e330 7fbe 3d35 36be f5eb a13c
000001b0: da15 27be 4811 d9bd e191 473d 3c8d 87bd
000001c0: 7401 2ebe eaff 7abe 1a8d 2c3d 8eae 6abe
000001d0: 884d 353e 9553 9e3e 95e4 66be 553a 2fbe
000001e0: 09de 9d3c 93e0 b0bd 36d1 f2bd 8298 8c3d
000001f0: ce96 4d3e dd70 053e 59ca 913c 834f 72be
00000200: bd53 8dbe 80ec 3ebd 9a13 923d 9f77 fd3c
00000210: 98a9 943e 556c abbe 522d 83be 8b0d 833e
00000220: 3670 72be 96ef bd3c 1e97 c93d 8549 51be
00000230: fa36 0bbc bab0 8a3e fb1f 32be 0e0c 883e

ConvBase.1.feature.lis.3.X_conv.conv.bias f4 [16]
-0.07914343 -0.24688205 0.20538907 0.07571632 0.104321636 0.08592701 -0.2861438 0.2258986
0.23201533 0.14564691 0.26596466 0.15919942 0.29195336 0.09066246 -0.054153167 -0.017103162
00000000: f315 a2bd a6ce 7cbe 8351 523e 2811 9b3d
00000010: 95a6 d53d 80fa af3d 7181 92be f651 673e
00000020: 6d95 6d3e 7724 153e 852c 883e 2c05 233e
00000030: e97a 953e 3dad b93d b6cf 5dbd ee1b 8cbc

ConvBase.1.feature.lis.3.Y_conv.conv.weight f4 [16, 1, 1, 9]
-0.33764723 -0.06590448 -0.020014545 -0.33143553 -0.0406331 0.29656735 0.18455875 -0.14785722
-0.14129798 0.10857095 -0.0951368 -0.12782373 0.02276557 -0.18183364 -0.16902275 0.25079003
0.022514468 -0.20441023 -0.06025469 0.1884592 0.31955364 -0.257428 0.12658013 0.14690548
-0.16993251 0.10308754 0.21196859 0.26268333 0.043979958 -0.1412183 -0.13787182 0.19073467
-0.25441894 0.24903873 -0.33420077 0.06038106 0.18458784 -0.19054542 -0.1304255 0.036898606
-0.12808955 -0.024068864 -0.04261633 -0.021041062 -0.082359575 0.25229403 -0.10751119 0.006025692
0.17317684 0.035955336 -0.038273443 0.27314827 0.24013709 -0.30883473 -0.26266402 0.14246516
0.07907166 -0.08087743 0.27205306 0.12615545 -0.2994732 0.17070568 -0.20395884 -0.183169
0.18380116 -0.24808544 0.17858072 0.29805633 -0.2865529 -0.15807772 0.32841504 -0.22567089
0.26408756 -0.15504202 0.18548727 -0.06416882 -0.22383589 0.01874197 0.1184719 0.016224986
-0.32510793 0.13309582 0.16528638 -0.06695416 -0.13998601 0.17193565 -0.17628166 0.15301514
-0.1528198 0.068865605 0.0033464509 0.14781247 -0.017096017 0.27791315 0.18768674 0.12404637
-0.13997205 0.073951714 0.33709562 0.15747659 -0.08884884 -0.13042033 -0.017192429 0.21407737
0.18536375 -0.3054983 0.30722946 0.026377536 -0.04889222 0.29729974 0.18766427 -0.086980775
0.15217774 0.2586911 -0.14873147 -0.07042663 0.036163345 0.2615404 0.095376655 0.19541901
-0.06027372 0.13314164 0.023286803 -0.052103043 0.12324011 0.12547027 -0.13457566 -0.12542768
-0.0009983105 -0.2352838 0.22361355 0.21890198 0.25073546 -0.046942715 0.07503281 0.20227611
-0.12082474 -0.15325847 0.17145212 0.3007683 -0.19288388 -0.22071263 -0.05132832 -0.21718875
00000000: 19e0 acbe eef8 86bd 8bf5 a3bc ebb1 a9be
00000010: e56e 26bd add7 973e f8fc 3c3e e267 17be
00000020: 6bb0 10be 725a de3d 15d7 c2bd 39e4 02be
00000030: dc7e ba3c 9932 3abe 4d14 2dbe 8d67 803e
00000040: 4370 b83c ea50 51be 9fcd 76bd 73fb 403e
00000050: 899c a33e 9acd 83be 399e 013e 646e 163e
00000060: ca02 2ebe 8f1f d33d 4b0e 593e 6e7e 863e
00000070: 5424 343d 889b 10be 452e 0dbe f34f 433e
00000080: 3343 82be 0204 7f3e 5d1c abbe 2152 773d
00000090: 9804 3d3e 571e 43be 438e 05be fe22 173d
000000a0: e829 03be 112c c5bc 768e 2ebd 4e5e acbc
000000b0: 23ac a8bd af2c 813e d42e dcbd 2b73 c53b
000000c0: 4555 313e e745 133d 9dc4 1cbd 17da 8b3e
000000d0: 7fe6 753e 961f 9ebe e67b 86be 63e2 113e
000000e0: 53f0 a13d 11a3 a5bd 8a4a 8b3e e52e 013e
000000f0: 8d54 99be 78cd 2e3e 96da 50be a890 3bbe
00000100: 5f36 3c3e 1c0a 7ebe dddd 363e d79a 983e
00000110: 10b7 92be 20df 21be 0426 a83e 4516 67be
00000120: 7c36 873e 56c3 1ebe 60f0 3d3e f16a 83bd
00000130: 3c35 65be c388 993c 65a1 f23d 43ea 843c
00000140: 8c74 a6be 454a 083e d540 293e 431f 89bd
00000150: 7e58 0fbe e60f 303e 2e83 34be 00b0 1c3e
00000160: cb7c 1cbe 6909 8d3d 2150 5b3b 275c 173e
00000170: f20c 8cbc a24a 8e3e f430 403e 060c fe3d
00000180: d554 0fbe ff73 973d cc97 ac3e 8b41 213e
00000190: 61f6 b5bd e88c 05be 23d7 8cbc 1937 5b3e
000001a0: ffcf 3d3e 466a 9cbe 2e4d 9d3e b415 d83c
000001b0: 3543 48bd ac37 983e 102b 403e fa22 b2bd
000001c0: 7bd4 1b3e 2973 843e 104d 18be d63b 90bd
000001d0: 0420 143d a0e8 853e d654 c33d ec1b 483e
000001e0: 94e1 76bd 4856 083e f7c3 be3c 006a 55bd
000001f0: 5065 fc3d 477b 003e 34ce 09be 1d70 00be
00000200: bed9 82ba 3dee 70be f3fa 643e d727 603e
00000210: 6660 803e 0147 40bd cdaa 993d 7821 4f3e
00000220: f672 f7bd caef 1cbe 2591 2f3e 4dfe 993e
00000230: 5a83 45be 7e02 62be a53d 52bd ba66 5ebe

ConvBase.1.feature.lis.3.Y_conv.conv.bias f4 [16]
0.08826684 -0.16114865 0.15121545 -0.10284868 -0.27695808 -0.12588812 0.063617334 -0.22528176
0.12517524 -0.106698595 0.05952457 0.15231037 0.11336323 -0.10803365 0.14651157 0.0034421072
00000000: 3fc5 b43d 2704 25be 39d8 1a3e 54a2 d2bd
00000010: 73cd 8dbe d1e8 00be ce49 823d 43b0 66be
00000020: f02d 003e cb84 dabd 09d0 733d 40f7 1b3e
00000030: fb2a e83d bf40 ddbd 2107 163e fa94 613b

ConvBase.1.feature.lis.3.pointwise.weight f4 [16, 16, 1, 1]
0.09922576 -0.004247395 0.045874912 -0.067164026 0.049310524 -0.0040467996 -0.06828932 0.08185946
0.09855237 0.031976003 0.09348241 0.026883906 -0.19703174 -0.12841968 -0.035622444 0.102058254
0.25439072 -0.072414026 -0.07739507 0.12938514 0.09087625 0.064238496 0.23653868 0.15134063
-0.16310243 -0.10261081 0.063927226 0.27420023 0.009309795 0.1999113 0.07603626 -0.08038515
0.10057182 -0.07887358 -0.24720907 0.11363126 -0.18869835 0.10159414 -0.17117867 0.19057682
-0.084880434 -0.008415978 -0.042860392 -0.2504848 0.033373516 0.020270847 -0.16862173 -0.1765083
0.09573647 -0.1078398 -0.18282753 -0.10032012 -0.13569541 0.038565256 -0.15469906 -0.19645235
0.09276421 -0.013922229 0.15740253 0.18383767 0.0056457957 -0.1523724 0.05651974 0.12937479
-0.17282218 0.18180765 0.061497223 0.016073542 -0.040535677 -0.10991977 0.183555 0.2187671
-0.019143924 -0.050039068 0.14204341 0.08933952 0.10485798 -0.089495674 -0.18069619 -0.22772168
-0.23350516 0.015494499 -0.16671903 -0.093677305 0.20098618 -0.03443334 -0.22261274 -0.015861169
-0.07634844 0.014074178 -0.093695275 -0.097881995 -0.1787286 -0.23291822 -0.11226825 -0.03519218
-0.02440782 -0.10830352 0.16628435 -0.07287303 0.15464322 0.18416373 0.17875338 -0.18994427
-0.22917491 -0.02617207 0.1422432 -0.049729414 0.24773705 -0.17749447 0.20213929 -0.009943932
0.1678948 -0.21460217 0.005732588 -0.107658245 -0.029005188 -0.12329472 0.111315146 -0.1643825
-0.16528127 0.0065742554 -0.172601 0.11296034 -0.07300812 -0.10302193 0.16024281 0.16167927
-0.16353066 -0.025493748 0.25460935 0.028180785 -0.1420067 -0.10186722 -0.039412405 0.15857121
-0.24093373 0.06410008 -0.019800575 -0.24895172 0.01748383 0.18653677 0.09373101 -0.09959126
0.043952744 -0.11566262 -0.010707337 -0.020687312 0.26074177 -0.16265005 -0.13609463 0.030839184
0.005219467 -0.030299969 0.2008182 0.19924611 0.009268343 -0.25509846 0.22674237 0.1206005
0.1287728 -0.06178638 0.14537367 0.09903076 0.03737978 0.04852028 0.17597885 -0.17511107
-0.098764524 0.0456008 0.20147319 0.058034856 -0.07858708 0.025865735 -0.026683735 0.15838915
0.15427884 0.066174716 0.05016187 -0.03693664 -0.06122441 0.15980498 -0.15924732 -0.24115375
0.17258196 -0.13652422 0.24642378 -0.08365884 -0.016127829 0.21729971 0.16978319 0.19083455
-0.24263297 0.051482793 -0.21602532 0.06657026 0.09049407 0.20780279 -0.19644319 0.16511013
0.19479272 0.0051757256 -0.03584564 0.19658016 -0.033416703 -0.23121484 0.18643488 0.026157321
0.0701015 0.11899491 0.13547888 0.105771735 0.17025949 -0.14457542 -0.09172256 -0.09526532
0.1148817 -0.17610973 0.09040239 -0.17779084 -0.07217426 -0.004201641 -0.03461161 -0.111098014
0.09864245 0.022217194 0.22318903 0.19250499 0.17133117 -0.21331227 0.08667985 0.19532533
-0.0007828995 -0.19398576 0.24599282 0.016466198 -0.127356 0.040446643 0.242367 0.13570741
-0.015572407 0.12998837 0.13789971 0.0502918 -0.22045615 -0.20663403 -0.1610766 -0.1974456
0.013330573 -0.03986837 0.14121208 0.0017482362 -0.1271841 -0.20840444 0.02724871 0.19830848
00000000: e036 cb3d bb2d 8bbb 55e7 3b3d 4b8d 89bd
00000010: d5f9 493d 049b 84bb 45db 8bbd efa5 a73d
00000020: d3d5 c93d 45f9 023d b573 bf3d a33b dc3c
00000030: b0c2 49be 7380 03be d7e8 11bd eb03 d13d
00000040: 803f 823e ce4d 94bd 4e81 9ebd 8a7d 043e
00000050: 541d ba3d 798f 833d 3237 723e 0af9 1a3e
00000060: 5304 27be 9e25 d2bd 47ec 823d f963 8c3e
00000070: 1c88 183c 8cb5 4c3e e6b8 9b3d f8a0 a4bd
00000080: 99f8 cd3d 7988 a1bd 6024 7dbe 82b7 e83d
00000090: 243a 41be 9710 d03d 7649 2fbe 9226 433e
000000a0: cbd5 adbd 2ce3 09bc 618e 2fbd 8b3f 80be
000000b0: abb2 083d 0c0f a63c 2dab 2cbe 97be 34be
000000c0: 7b11 c43d 1ddb dcbd 2437 3bbe a374 cdbd
000000d0: bdf3 0abe 9af6 1d3d 6e69 1ebe ce2a 49be
000000e0: 2afb bd3d 101a 64bc 212e 213e f13f 3c3e
000000f0: 5e00 b93b 8307 1cbe 3e81 673d d37a 043e
00000100: 4cf8 30be c92b 3a3e 83e4 7b3d a9ac 833c
00000110: bd08 26bd 9e1d e1bd d8f5 3b3e 7c04 603e
00000120: b8d3 9cbc c4f5 4cbd d473 113e a3f7 b63d
00000130: c8bf d63d 8249 b7bd 6c08 39be df2f 69be
00000140: fa1b 6fbe a4dc 7d3c 65b8 2abe e3d9 bfbd
00000150: 52cf 4d3e f909 0dbd 98f4 63be 48ef 81bc
00000160: 925c 9cbd 6297 663c 4fe3 bfbd 5b76 c8bd
00000170: a104 37be 1d82 6ebe e5ec e5bd ad25 10bd
00000180: e9f2 c7bc 3cce ddbd 7246 2a3e 753e 95bd
00000190: cb5a 1e3e 6b95 3c3e 200b 373e c080 42be
000001a0: d4ac 6abe cf66 d6bc 34a8 113e 12b1 4bbd
000001b0: c8ae 7d3e 1cc1 35be 9afd 4e3e e0eb 22bc
000001c0: 9dec 2b3e acc0 5bbe 6fd8 bb3b ed7b dcbd
000001d0: 4a9c edbc f181 fcbd 32f9 e33d e353 28be
000001e0: 7e3f 29be da6c d73b 51be 30be c057 e73d
000001f0: 4885 95bd 29fd d2bd b116 243e 408f 253e
00000200: 9574 27be 44d8 d0bc 285c 823e 64db e63c
00000210: 346a 11be c39f d0bd e76e 21bd 7e60 223e
00000220: 55b7 76be e746 833d d134 a2bc 33ed 7ebe
00000230: 403a 8f3c 7f03 3f3e 0bf6 bf3d 81f6 cbbd
00000240: cb07 343d 86e0 ecbd d46d 2fbc 7078 a9bc
00000250: f27f 853e bc8d 26be 645c 0bbe 75a2 fc3c
00000260: 1008 ab3b a437 f8bc 49a3 4d3e 2c07 4c3e
00000270: 40da 173c 449c 82be 272f 683e 65fd f63d
00000280: 04dd 033e b713 7dbd d6dc 143e a4d0 ca3d
00000290: 8a1b 193d 33bd 463d cd33 343e 5150 33be
000002a0: 0e45 cabd e8c7 3a3d fd4e 4e3e f5b5 6d3d
000002b0: 43f2 a0bd 61e4 d33c d997 dabc c430 223e
000002c0: 46fb 1d3e 9c86 873d 8876 4d3d e04a 17bd
000002d0: 72c6 7abd eba3 233e bb11 23be 02f1 76be
000002e0: 53b9 303e 01cd 0bbe 8456 7c3e 5355 abbd
000002f0: 821e 84bc d183 5e3e a5db 2d3e 226a 433e
00000300: c774 78be 9fdf 523d be35 5dbe fd55 883d
00000310: f454 b93d 41ca 543e 6728 49be a112 293e
00000320: be77 473e 2299 a93b e1d2 12bd 4f4c 493e
00000330: f4df 08bd 95c3 6cbe c9e8 3e3e e147 d63c
00000340: 6091 8f3d 9ab3 f33d faba 0a3e da9e d83d
00000350: 8158 2e3e 940b 14be 0ad9 bbbd 771a c3bd
00000360: 1947 eb3d 1c56 34be e324 b93d cd0e 36be
00000370: 19d0 93bd ebad 89bb e7c4 0dbd 5b87 e3bd
00000380: 0e05 ca3d d500 b63c aa8b 643e 0720 453e
00000390: 7071 2f3e 886e 5abe 3585 b13d 5d03 483e
000003a0: 7f3b 4dba 34a4 46be 8be5 7b3e 1fe4 863c
000003b0: 9c69 02be 61ab 253d 0e2f 783e e2f6 0a3e
000003c0: 6923 7fbc ac1b 053e 9535 0d3e c6fe 4d3d
000003d0: 42bf 61be df97 53be 44f1 24be 2e2f 4abe
000003e0: 7a68 5a3c 044d 23bd e699 103e 1325 e53a
000003f0: 8c3c 02be f967 55be b038 df3c 6111 4b3e

ConvBase.1.feature.lis.3.pointwise.bias f4 [16]
0.2565408 0.110994875 -0.120405346 -0.18781514 -0.006355197 0.18044786 0.16140334 0.21530586
-0.15881206 -0.10259972 -0.009682537 0.04143333 -0.11100412 -0.039400492 0.08289284 0.20346792
00000000: 5159 833e 4851 e33d 1497 f6bd 9d52 40be
00000010: 423f d0bb 53c7 383e eb46 253e 2479 5c3e
00000020: a19f 22be cd1f d2bd 81a3 1ebc ffb5 293d
00000030: 2156 e3bd 6962 21bd b9c3 a93d e559 503e

ConvBase.1.feature.bn.weight f4 [16]
0.98002595 0.8738925 0.48217338 0.13256001 0.6694087 0.60352606 0.8909406 0.51338166
0.95007396 0.6471444 0.24434447 0.5279982 0.80770123 0.14062272 0.21412908 0.29239503
00000000: fbe2 7a3f 6bb7 5f3f 6edf f63e d0bd 073e
00000010: 5e5e 2b3f af80 1a3f af14 643f fb6c 033f
00000020: 0c38 733f 41ab 253f 7035 7a3e e42a 073f
00000030: 82c5 4e3f 67ff 0f3e a744 5b3e cdb4 953e

ConvBase.1.feature.bn.bias f4 [16]
-0.0049970057 0.01325226 -0.009945464 0.039789796 -0.00056135614 -0.015391942 0.009191194 0.031568866
-0.025036072 0.02348179 0.023511922 0.017318487 0.03606888 0.027024392 0.0457067 0.0026702625
00000000: ecbd a3bb 0220 593c 4df2 22bc a0fa 223d
00000010: f927 13ba 7c2e 7cbc a996 163c 5b4e 013d
00000020: 7318 cdbc e25c c03c 139c c03c 80df 8d3c
00000030: f6bc 133d 4262 dd3c f336 3b3d 92ff 2e3b

ConvBase.1.feature.bn.running_mean f4 [16]
0.2405117 -0.13719828 0.020463387 -0.3790554 8.445449e-08 -0.31512785 -0.1308657 0.3756928
-0.3333627 0.098542124 -0.0931455 -0.027138432 -0.058410484 0.045893285 0.0036021487 0.034895927
00000000: b348 763e b57d 0cbe d5a2 a73c 8d13 c2be
00000010: 595d b533 7058 a1be a801 06be cf5a c03e
00000020: 84ae aabe 74d0 c93d 11c3 bebd 6b51 debc
00000030: d53f 6fbd 99fa 3b3d 0712 6c3b 08ef 0e3d

ConvBase.1.feature.bn.running_var f4 [16]
0.002242215 0.0019548326 0.0032354353 0.0028240017 0.0021056957 0.0043095867 0.0037777284 0.000987391
0.0034653693 0.0022430713 0.0018500172 0.0029110727 0.0024636863 0.0017416261 0.002724485 0.0024962842
00000000: 20f2 123b a61c 003b 9909 543b e312 393b
00000010: b6ff 093b 6f37 8d3b c493 773b 586b 813a
00000020: 401b 633b 7e00 133b 477c f23a b2c7 3e3b
00000030: cc75 213b 4647 e43a 468d 323b b398 233b

ConvBase.1.bn.weight f4 [64]
0.43610257 0.10060404 0.11887649 0.0767403 0.3712017 0.75951904 0.8982841 -0.005422677
0.6925133 0.8927242 0.25631025 0.55405545 0.045166977 0.12817103 0.78321284 0.7616721
0.7804225 0.80961174 0.79567075 0.4066243 0.354238 0.8336736 0.5979044 0.26758942
0.85443604 0.6228757 0.49059486 0.57811314 0.8126078 0.37945774 0.29832062 0.9339639
0.69403243 0.3922359 0.1304594 0.93843144 0.2864376 0.81578773 0.29714006 0.45931765
0.35654405 0.7308866 0.3129907 0.12847689 0.0729661 0.4499531 0.18519105 0.80213994
0.7501332 0.49347836 0.27331626 0.67990446 0.32049754 0.9861744 -0.0036000067 0.931403
0.9404789 0.22055078 0.29769674 0.6680642 0.46296102 0.144657 0.8599014 0.71127856
00000000: d648 df3e 7e09 ce3d 8475 f33d 052a 9d3d
00000010: 260e be3e d76f 423f f2f5 653f b6b0 b1bb
00000020: 8d48 313f 9389 643f 193b 833e 94d6 0d3f
00000030: 0201 393d 443f 033e a380 483f f1fc 423f
00000040: c5c9 473f b742 4f3f 14b1 4b3f 0f31 d03e
00000050: af5e b53e a26b 553f 4310 193f 7b01 893e
00000060: 52bc 5a3f c874 1f3f 402f fb3e 39ff 133f
00000070: 1107 503f 4948 c23e 7bbd 983e 4218 6f3f
00000080: 1cac 313f 25d3 c83e 2697 053e 0b3d 703f
00000090: f3a7 923e 77d7 503f be22 983e af2b eb3e
000000a0: f18c b63e 621b 3b3f 5140 a03e 728f 033e
000000b0: 406f 953d 4160 e63e b9a2 3d3e 0b59 4d3f
000000c0: bb08 403f 32a9 fc3e 1cf0 8b3e 380e 2e3f
000000d0: 4118 a43e ed75 7c3f 17ee 6bbb 6d70 6e3f
000000e0: 3ac3 703f 10d8 613e b56b 983e 4106 2b3f
000000f0: 3a09 ed3e f720 143e 8022 5c3f 5a16 363f

ConvBase.1.bn.bias f4 [64]
0.022410626 0.014318396 0.013845274 0.011288695 -0.030185837 -0.026549794 0.03980979 -0.01401128
0.019215502 0.0043644737 -0.0017620032 -0.017564176 -0.0076511824 0.005715726 -0.04193209 0.040612034
-0.0033534083 -0.024350356 -0.013666093 -0.039352633 0.022296531 -0.010692604 0.0219685 -0.0013395773
-0.02703989 0.012276754 -0.028452555 0.021895597 0.0020979168 -0.0015368008 0.009364008 -0.007062168
-0.00868497 -0.02488174 -0.02914283 0.04800131 -0.004149673 0.012818768 0.0002415657 -0.005428634
0.019604193 -0.044714034 0.024341803 -0.008917485 0.031834427 0.022913093 -0.0053333105 0.030126352
-0.009095204 0.031791486 0.010344704 0.025534235 0.019617446 -0.035664372 -0.016729264 0.009333137
-0.028986074 0.019011011 0.012498753 0.025010085 0.0020472792 0.008331261 -0.0069453847 0.0064317165
00000000: 7d96 b73c b597 6a3c 4ad7 623c 38f4 383c
00000010: 4a48 f7bc f47e d9bc 970f 233d 918f 65bc
00000020: d469 9d3c dc03 8f3b 04f3 e6ba bfe2 8fbc
00000030: c5b6 fabb fc4a bb3b fcc0 2bbd ce58 263d
00000040: dbc4 5bbb 667a c7bc c0e7 5fbc 3a30 21bd
00000050: 37a7 b63c 0830 2fbc 49f7 b33c c194 afba
00000060: c282 ddbc 7024 493c 5515 e9bc 655e b33c
00000070: 347d 093b 7a6e c9ba 7f6b 193c c269 e7bb
00000080: 684b 0ebc cad4 cbbc f2bc eebc 069d 443d
00000090: fbf9 87bb cf05 523c cd4c 7d39 afe2 b1bb
000000a0: f998 a03c 1026 37bd 7668 c73c a51a 12bc
000000b0: d164 023d 3db4 bb3c 0dc3 aebb 8acb f63c
000000c0: 0d04 15bc ca37 023d d57c 293c 2c2d d13c
000000d0: c4b4 a03c ce14 12bd cf0b 89bc 04ea 183c
000000e0: 3474 edbc fbbc 9b3c 92c7 4c3c f3e1 cc3c
000000f0: a52b 063b d77f 083c 1c96 e3bb 26c1 d23b

ConvBase.1.bn.running_mean f4 [64]
0.19283961 0.14117947 0.115461804 0.06038191 0.15088561 0.030949589 0.020620994 0.13599569
0.23066609 0.168227 0.073949315 0.03294581 0.2153998 0.027024562 0.07088855 0.06796384
0.24244627 0.21808518 0.0935473 0.07063741 0.19797428 0.18667 0.17418197 0.13445257
0.13415869 0.19388092 0.065067455 0.144798 0.14643335 0.054455735 0.07641739 0.076291256
0.34231815 0.27801675 0.13982031 0.053050622 0.22291055 0.20611589 0.24722774 0.19753441
0.24193528 0.122861676 0.0702743 0.16248731 0.24145278 0.05084592 0.0690874 0.08055189
0.25709727 0.3099008 0.1347142 0.06679497 0.1955654 0.15903543 0.23512001 0.19642478
0.268618 0.2232585 0.08794522 0.1675713 0.29773661 0.06061574 0.08382111 0.1093776
00000000: bf77 453e 5a91 103e 3d77 ec3d 0653 773d
00000010: c281 1a3e fe89 fd3c 5ced a83c 7442 0b3e
00000020: bb33 6c3e b343 2c3e bd72 973d 30f2 063d
00000030: c491 5c3e 9d62 dd3c 042e 913d a030 8b3d
00000040: d643 783e b951 5f3e ba95 bf3d 59aa 903d
00000050: c5b9 4a3e 6c26 3f3e c25c 323e efad 093e
00000060: e560 093e b888 463e 1642 853d ed45 143e
00000070: a0f2 153e fa0c 5f3d b880 9c3d 973e 9c3d
00000080: 5344 af3e 3658 8e3e 0e2d 0f3e 9c4b 593d
00000090: aa42 643e 0b10 533e 4529 7d3e 7646 4a3e
000000a0: e2bd 773e e79e fb3d f9eb 8f3d 1363 263e
000000b0: 663f 773e d043 503d b27d 8d3d 64f8 a43d
000000c0: 41a2 833e 51ab 9e3e 85f2 093e cdcb 883d
000000d0: 4c42 483e 2fda 223e 4dc3 703e 9423 493e
000000e0: 4c88 893e e09d 643e a01c b43d d097 2b3e
000000f0: ef70 983e 3648 783d 67aa ab3d 5d01 e03d

ConvBase.1.bn.running_var f4 [64]
0.098625675 0.04784016 0.03704034 0.004305833 0.059303906 0.003507008 0.0024355121 0.1319951
0.49579734 0.2188964 0.035961892 0.005623641 0.3505437 4.279459e-07 0.02179085 0.011613105
0.38261265 0.41841397 0.112226196 0.008415993 0.10557946 0.20301619 0.6557039 0.18226014
0.13615009 0.248457 0.03158384 0.13857217 0.044036895 0.011885758 0.0031474603 0.06591977
0.5027876 0.24324238 0.07336974 0.008450143 0.13080738 0.16804099 0.09415614 0.12200266
0.09491279 0.34860095 0.036019247 0.061354756 0.47210976 0.008213065 0.034867756 0.025355412
0.7444572 0.22111739 0.06681139 0.007384471 0.14941314 0.18298762 0.22615927 0.10748963
0.48614475 0.07646798 0.037423227 0.1644995 0.2615098 0.011830539 0.02801013 0.046422068
00000000: 42fc c93d 0bf4 433d 9db7 173d f217 8d3b
00000010: a7e8 723d d5d5 653b 1d9d 1f3b b929 073e
00000020: 26d9 fd3e 6126 603e c74c 133d 8546 b83b
00000030: 777a b33e 70c0 e534 ba82 b23c e544 3e3c
00000040: cee5 c33e 5b3a d63e d9d6 e53d 3ce3 093c
00000050: 0b3a d83d 7ae3 4f3e 36dc 273f 67a2 3a3e
00000060: ee6a 0b3e 836b 7e3e 0e5e 013d dde5 0d3e
00000070: 0860 343d 7bbc 423c 9f45 4e3b f200 873d
00000080: b0b6 003f 8814 793e e042 963d 7872 0a3c
00000090: 5ff2 053e f012 2c3e efd4 c03d 88dc f93d
000000a0: a361 c23d d37b b23e eb88 133d 204f 7b3d
000000b0: 5fb8 f13e 1790 063c 7ed1 0e3d 27b6 cf3c
000000c0: bf94 3e3f 996c 623e 69d4 883d 6ff9 f13b
000000d0: c2ff 183e 1b61 3b3e 4c96 673e 8623 dc3d
000000e0: f7e7 f83e 3f9b 9c3d 1949 193d 8f72 283e
000000f0: 9de4 853e e1d4 413c 8075 e53c 1125 3e3d
