waights/weights8.pth (torch_old, 670822 bytes, 196 tensors)

ConvBase.1.feature.lis.0.X_conv.conv.weight f4 [1, 1, 3, 1]
00000000: e3c5 fcbb b9af 45be 072f fcbd
-0.0077140196 -0.19305314 -0.12313657

ConvBase.1.feature.lis.0.Y_conv.conv.weight f4 [1, 1, 1, 3]
00000000: a410 a03e 8d38 88bd e305 12be
0.31262696 -0.06651411 -0.14260058

ConvBase.1.feature.lis.0.pointwise.weight f4 [16, 1, 1, 1]
00000000: 3de3 b6be 1800 65be 1838 49bf 1f03 72bf
00000010: 69e1 ffbe 00f7 b5bd 1f87 fa3c f048 173f
00000020: b80b 533f 38a7 2a3f 94a1 683f 5b6d 693d
00000030: fedc 303f e1bf 3e3c dd7f ef3e 2a46 fabe
-0.35720244 -0.22363317 -0.7860122 -0.9453601 -0.49976662 -0.08885002 0.030582009 0.5909567
0.82439756 0.66661406 0.9087155 0.056989055 0.6908721 0.011642427 0.4677724 -0.48881656

ConvBase.1.feature.lis.0.pointwise.bias f4 [16]
00000000: 4544 543f 11e2 9cbe 5c84 363f b577 84bf
00000010: 6b61 9bbe 6ac4 4fbf 0c3a b2be be82 6b3f
00000020: ef38 2fbf f7d7 883e f1fe e8be 1988 0ebf
00000030: 36d0 233d 8197 a1bd a09f 8ebe 8920 cfbe
0.8291667 -0.30641225 0.71295714 -1.0349032 -0.30347762 -0.8115908 -0.3480991 0.9199637
-0.6844625 0.26727268 -0.45507005 -0.5567642 0.039993487 -0.07890225 -0.2785616 -0.4045451

ConvBase.1.feature.lis.1.X_conv.conv.weight f4 [16, 1, 5, 1]
00000000: 1bda 733e de37 9cbe c057 62bb 42c1 b03e
00000010: e7aa 803e e87e 8d3c 28de ab3e d497 7cbb
00000020: 2bbd 143e b4ef 89be e0d1 5fbe 7a39 a1be
00000030: 2f1b 72bd 7d39 903e 214b debd bd60 30bd
00000040: a529 453d cbe6 463e 72e5 d83e 0334 213c
00000050: dc2b c6be eb39 d4bd 055d c03c ac0f a1be
00000060: 49f3 b73e 60e3 fa3d 243c 813e 421d c5be
00000070: e97a 643e d34c 233e 3793 8cbe 4c27 2fbe
00000080: d776 37be 03e9 4a3e 88de abbb 70e9 973d
00000090: bd6a 49bd 61df df3e 1109 ce3e 5315 0f3e
000000a0: f9bc 453d 7109 a9be 3549 ae3e 614e 663e
000000b0: 9509 c93d 3af8 a3be b91d 9bbe 6981 ca3d
000000c0: 9c4e 0c3e 3fd4 cabe a0e1 7fbd 3155 7abd
000000d0: a178 e4be 6c30 98bc 393d bf3e dc6a e0be
000000e0: cd25 e3be 3870 943e 5fae 433e c5c4 bd3e
000000f0: 4562 2cbe 6d8a 77bd 850a 7cbd cdc5 cc3e
00000100: d6ce 86be 3207 b8be 5506 af3e dcbc 3dbe
00000110: 70bb a93d c91d a0bd 793f 62bc 79e8 3e3b
00000120: 7d8a 92be d246 e5be 7039 803e 907c b13e
00000130: bee7 89bd d999 243e 3eda 4e3e 2ae3 ccbe
0.2381367 -0.30511373 -0.0034537166 0.34522444 0.25130388 0.017272428 0.3356793 -0.0038542645
0.14525287 -0.2694069 -0.21857405 -0.31489164 -0.059107956 0.2816886 -0.108541735 -0.043061007
0.04813542 0.19423978 0.42362553 0.009839061 -0.38705337 -0.103626095 0.023481855 -0.3145727
0.359278 0.122503996 0.25241196 -0.38498884 0.22312512 0.15947275 -0.27456066 -0.17104834
-0.17916428 0.1981545 -0.0052450337 0.074175715 -0.04917406 0.43725112 0.40241292 0.13972978
0.04827592 -0.33015016 0.34040228 0.22490837 0.09816281 -0.3202532 -0.30296114 0.09887964
0.13701862 -0.39615056 -0.062471032 -0.0611164 -0.44623283 -0.018577777 0.37351397 -0.43831527
-0.44364777 0.28991866 0.19109486 0.37064186 -0.16834362 -0.060434747 -0.06153347 0.3999466
-0.26329678 -0.3594299 0.34184518 -0.18529075 0.08287704 -0.07818181 -0.013809078 0.0029130264
-0.28621283 -0.44780594 0.2504382 0.34665346 -0.067336544 0.16074313 0.2020044 -0.40017062

ConvBase.1.feature.lis.1.X_conv.conv.bias f4 [16]
00000000: 2107 073d ffdd bc3d 604d 503d 9af3 e4be
00000010: e1d2 92be ef2a c8be 5e8f e3be f65d cd3d
00000020: ef3a 2b3e 8299 1fbe c710 9c3e 2e5b 953e
00000030: 6d63 953d 22e1 ee3d 46cd d9be 2f55 f1ba
0.032965783 0.0922203 0.05085504 -0.44717103 -0.28676513 -0.39095256 -0.44445318 0.10027687
0.167217 -0.15585902 0.3048155 0.29171127 0.072943546 0.116640344 -0.42539424 -0.0018412228

ConvBase.1.feature.lis.1.Y_conv.conv.weight f4 [16, 1, 1, 5]
00000000: d93a 863e e4d9 b43e ad45 b7be 95c0 46be
00000010: 2dd1 b13c 9392 b03e f202 dd3e ef7d e9bd
00000020: cf15 9a3b bd83 d8be fcb7 adbe 3b67 403d
00000030: 6d96 843e 5624 a3be 8999 7cbe 93d8 88be
00000040: 9eaf 803e 3a20 ea3e d373 5abe f85a b2be
00000050: b2ad 85be dfdf c83e 168e c83e 4ec3 b0be
00000060: 0fe3 513e 8e30 75be 9031 4bbe f017 b7be
00000070: 9aac f93d 3057 c0be 6c83 963d 821e d0bd
00000080: 83c2 343d f32f 843e dfb9 c83d 46cc b4be
00000090: bbb1 813e f649 a2bd 8947 d6bd 3336 883d
000000a0: cb72 44bd 30be d2be 1fd3 b3bd 9df9 273e
000000b0: 3362 98be ca46 543e 429c aebe 7c58 15be
000000c0: 7210 d53e 27b4 9d3e 813c 733e b67d fa3d
000000d0: a707 b3bd eb14 3e3e 0325 88be e575 c93e
000000e0: fe53 bdbe 8402 883e 6952 f4bd 793c 06be
000000f0: 93d6 dd3e 0f37 59be ddba 2b3e 3588 dd3e
00000100: 48dc 373b 3058 9a3e 6bcc b03c b455 803e
00000110: 517a cd3e fb0e 86be 47e7 9bbe 02da dabe
00000120: 2b28 bc3e 7dbf d6be a1c8 cc3e 62ba a73e
00000130: 3fe0 90bd 747a e6be 5f95 85be 8776 a7bb
0.26216772 0.35322487 -0.35795346 -0.19409402 0.021706188 0.34486827 0.4316631 -0.11400973
0.004702307 -0.42288008 -0.3392943 0.04697345 0.25896016 -0.3186366 -0.24667944 -0.26727733
0.25133985 0.45727712 -0.21333246 -0.3483503 -0.26109082 0.392333 0.39170903 -0.34524006
0.20496772 -0.23944303 -0.19843125 -0.3576045 0.12191124 -0.3756652 0.073492855 -0.10162069
0.044130813 0.25817832 0.09801077 -0.35312098 0.2533091 -0.07924263 -0.10462863 0.06650963
-0.047961038 -0.41160727 -0.087805025 0.16403814 -0.2976242 0.20730129 -0.3410359 -0.14584535
0.4161411 0.30801508 0.23753549 0.12231009 -0.08741694 0.18562667 -0.26590738 0.3934776
-0.36978143 0.2656442 -0.11929781 -0.13109006 0.4332777 -0.2121241 0.16770501 0.4326798
0.0028054882 0.30145407 0.02158185 0.25065386 0.40132383 -0.26183304 -0.30449888 -0.42744452
0.36749396 -0.4194297 0.39996818 0.32759386 -0.070740215 -0.450153 -0.26090524 -0.005110565

ConvBase.1.feature.lis.1.Y_conv.conv.bias f4 [16]
00000000: 7a43 413e 553c 7b3e cb49 17be 42bc 923e
00000010: ef5c e33d 9533 9d3d e7c1 713d 311a 233e
00000020: cca3 b63e b7fa 583d 1970 dbbe 8bac 1ebe
00000030: 202e c2be 0449 543e b342 afbe 29b5 bdbe
0.18873397 0.24534734 -0.14774244 0.28659254 0.1110171 0.07675854 0.05902281 0.1592796
0.35671842 0.052973475 -0.4285896 -0.15495507 -0.37925816 0.20730978 -0.34230575 -0.37052277

ConvBase.1.feature.lis.1.pointwise.weight f4 [16, 16, 1, 1]
00000000: edab 3abe c2ea 6cbe 2593 14be 3fdf 313e
00000010: 64e9 5cbe ac6c f33d bcb4 a83d 83e9 6a3e
00000020: 83fd 19bd b381 acbd 55ce 45bd 5512 0c3e
00000030: cc6c 48be 91a5 623e 3aa8 6abe 7f43 573e
00000040: fc14 2c3e 89f3 bb3d a4d7 8a3d 346c 5abd
00000050: aa97 4fbe 6a11 3fbe d11f 183e 5bdd 4b3e
00000060: e71b f83c 590e 0e3e 6947 50be ab22 d23d
00000070: c0b3 01be 0517 db3d 637c 3a3e e29b 223c
00000080: 14e9 2dbe c4ac b6bd 7fcc 12bd 35a6 433d
00000090: ee2a 95be 0213 12bc 68d3 a23d 9de9 3fbe
000000a0: 9dcb 123e ef1f b53c 977d 3dbe a9ec 3e3e
000000b0: bf77 363b 8110 24be 1b24 c8bd aa1c 6fbe
000000c0: 08a0 bdbb 9f48 40be 0862 0c3e fcd2 c2bd
000000d0: 5542 3fbe 8510 7d3d 9c86 4c3e 88c0 f1ba
000000e0: 6c71 ab3d 7bfd 3c3b 94df 223e 4905 c9bd
000000f0: 5b65 a43d 45c8 85be c908 34bc a62c 86be
00000100: 78e0 30be a19c 513e 63f5 693e 501b 363e
00000110: 01f3 32be 6717 523e b7df 423e 7348 1bbe
00000120: 7b90 6d3e 201d 063e 82a3 8b3c f64f 71bc
00000130: c97c e4bd e621 21be a2d7 863d ca9b 02be
00000140: 1016 cf3d 50ba 03be eb10 f4bc 2ed2 a6bd
00000150: 22f1 b9bd 1b93 d33c bde2 403d edb7 d4bc
00000160: 4200 1bbe 3458 2cbd 655c de3c 1d90 61be
00000170: c0c4 c1ba ef9c 0cbe 9c8a d6bc 82ea 293e
00000180: 7e56 7cbe 1613 0a3d 0c14 89bd 4187 a63c
00000190: d0a3 943d 957e 4dbe 2793 8fbd d7d5 3e3d
000001a0: 9fcd 22be c46b 183e e5f9 853e 572c ebbc
000001b0: c5fa 37be 04a5 1cbd a328 eebc acd4 5f3e
000001c0: 5183 2abe ce52 033e c8af 0fbe 3402 a43d
000001d0: bfed 3b3e b4e5 37be 177a 15bd e60d 113e
000001e0: ab17 0abe 3382 3bbd ec9d f4bd 6302 bebd
000001f0: 46de d83c 0159 1cbe 9e9b 32bd 0bdc 0cbe
00000200: 66a6 403d 129c ae3d 5624 65be db5f 85be
00000210: 1272 1bbd af67 203d 54c4 783e d41c d6bd
00000220: 9151 c93d b4ab 1abe fcc9 6a3e b53d 8abe
00000230: 679a 413e 7798 42be bab4 503e cc9b 173e
00000240: 9ec5 063e 1c33 8f3d ed82 653e 676f c3bd
00000250: 399c 1abc 41f5 39b9 0c57 5a3e d7de f3bd
00000260: 517a 2bbc 2fd1 5a3e 7789 05be 6b03 963d
00000270: 28ce 373b 0219 53be 3dd8 1c3e d599 0a3e
00000280: c7af 8d3e 5dff 6e3e 5e43 27bd 4069 ae3d
00000290: e205 073e 978e 163d 098a 56be 0068 be3b
000002a0: 4e4c 2fbe 0ac9 543e 8fb0 533e 060b 14be
000002b0: f876 473e ee8a f9bd 9acd 65be e7c0 47be
000002c0: 77f5 17be 85a1 4cbc 33db 86bd f73c 693e
000002d0: 3108 adbb 46a1 52bd 0249 99bd 74cf 2dbe
000002e0: 2ef9 933d 5682 f63d 2142 833d 1ff9 d43d
000002f0: dd4b 443d 72b0 05be 7883 5bbe 5a73 a03c
00000300: e5e6 f73d d3dc 6dbe ae8d 91bd dc4f 04be
00000310: f516 d83d 6020 1dbe 2723 d43d 14d5 833c
00000320: 9163 0d3e af7b 55be c8cd 833d 3b2f 1c3e
00000330: d184 133e 404e aebd 5b64 86bc 4a82 88be
00000340: 1fea 5cbe a455 3f3e e39e 18be 3206 89bd
00000350: 6e71 153e c154 d7bd f410 6bbe 2ca6 3ebd
00000360: 898b dfbd d54e 01bd 5008 173e 28a4 1fbe
00000370: fd32 133e ce0b 2d3e 66cf f0bd c8d5 52be
00000380: f9f0 093e 05b3 6fb9 5eb8 f9bd d2c2 073e
00000390: be8a 5bbd ebe6 da3d 6db6 a13d 8c1b 663e
000003a0: bbc9 cd3d 297f 4cbe 0153 0abe 1617 bdba
000003b0: 5564 1b3e 8f64 22be b4fb 583e 6127 b1bc
000003c0: fd0e 03bd a2fb 12be 661b 3f3e 7636 63be
000003d0: 8deb 75bd 9fb4 5d3d a303 d8bb 8d39 30be
000003e0: 9ead e4bd 5000 a7bd 2169 24bd c639 51be
000003f0: 167e 23bd 0200 643e f94a 8f3e 59b1 c9bd
-0.18229647 -0.23136428 -0.14509256 0.17370318 -0.21573406 0.11885962 0.08237597 0.2294064
-0.037595283 -0.08423176 -0.048292477 0.13678868 -0.19572753 0.22133471 -0.22915736 0.21021841
0.1680488 0.0917731 0.067794114 -0.053325847 -0.20272699 -0.18658987 0.14855887 0.19908659
0.030286742 0.1387266 -0.20339741 0.10260519 -0.12666225 0.1069775 0.18211512 0.009924861
-0.16983443 -0.08919671 -0.035839554 0.04776593 -0.29134315 -0.008915665 0.07950479 -0.1874146
0.14335485 0.022109954 -0.1850494 0.18644966 0.002784237 -0.1602192 -0.097725116 -0.23350778
-0.0057868995 -0.18777703 0.13709271 -0.09512898 -0.18677647 0.061783332 0.19973224 -0.001844422
0.08371243 0.002883761 0.15905601 -0.09815461 0.080271445 -0.26129356 -0.010988423 -0.2620594
-0.17273128 0.20469905 0.22847514 0.17783856 -0.17475511 0.2051674 0.19030653 -0.15164356
0.23199646 0.13097048 0.01704574 -0.014728537 -0.111566134 -0.15735587 0.065840974 -0.12754741
0.1011163 -0.12864041 -0.029793223 -0.08145557 -0.090791956 0.025826981 0.047091234 -0.025966609
-0.15136817 -0.042076305 0.027143667 -0.22027631 -0.0014783368 -0.1373174 -0.026189141 0.16593364
-0.24642369 0.033709608 -0.06693277 0.020328166 0.07257807 -0.20067818 -0.07010489 0.046590652
-0.1589875 0.1488486 0.26167217 -0.028707666 -0.17966755 -0.03824331 -0.029072111 0.21858472
-0.16651656 0.12824556 -0.14031899 0.08008233 0.18352412 -0.17958719 -0.036493387 0.14165458
-0.13485591 -0.045778465 -0.11944184 -0.09277799 0.026473176 -0.15268327 -0.04360544 -0.13755815
0.04703369 0.08525862 -0.22377142 -0.26049694 -0.037950583 0.03916138 0.24293643 -0.10454717
0.09830011 -0.15104562 0.22928613 -0.27000204 0.18906556 -0.19003473 0.20381442 0.14805526
0.13161322 0.0699217 0.22413225 -0.09542733 -0.00943666 -0.00017734339 0.21322268 -0.11907738
-0.010466174 0.2136886 -0.1304072 0.07324871 0.0028046463 -0.20615008 0.15316863 0.13535245
0.2767317 0.23339601 -0.04083573 0.085161686 0.13185838 0.036757078 -0.20951094 0.0058107376
-0.17118952 0.20779815 0.2067282 -0.1445733 0.19478977 -0.12184702 -0.22441712 -0.1950718
-0.14839731 -0.012489681 -0.06584778 0.22777162 -0.0052805175 -0.051423334 -0.07484628 -0.16973668
0.07225262 0.12036578 0.064090975 0.103990786 0.04792391 -0.1305559 -0.2143687 0.019586254
0.121045865 -0.23228769 -0.071071014 -0.12921089 0.10551254 -0.15344381 0.10358267 0.016092815
0.13807513 -0.20847963 0.06435734 0.15252392 0.14406134 -0.08511019 -0.016405275 -0.26661903
-0.21573685 0.18685013 -0.1490436 -0.06690635 0.14594051 -0.105142124 -0.22955686 -0.046545193
-0.10915286 -0.03156932 0.14749265 -0.15589964 0.14374919 0.16899034 -0.11758308 -0.20589364
0.1347083 -0.00022859506 -0.121933684 0.13257912 -0.05359911 0.10688575 0.07896123 0.22471446
0.10048243 -0.19970383 -0.13508226 -0.0014426436 0.15174992 -0.15858673 0.21189767 -0.021625223
-0.031996716 -0.14353803 0.18662795 -0.22188744 -0.06003909 0.05412733 -0.0065922304 -0.17209454
-0.11165927 -0.081543565 -0.04013932 -0.20432195 -0.039915167 0.22265628 0.27986887 -0.098482795

ConvBase.1.feature.lis.1.pointwise.bias f4 [16]
00000000: acb1 7d3e 8cec 6fbe aceb 0d3e 2830 34be
00000010: 0f8c 9ebd 3f52 82be edf0 4ebe 2f5c f13d
00000020: 663e 3abe 1669 7e3e fd7d 2fbc fe1e 123e
00000030: 0b2d 963d 85c5 b63c 7553 063e 77b7 89be
0.24774808 -0.23430079 0.13859433 -0.17596495 -0.07741558 -0.25453374 -0.20209093 0.11785161
-0.18187866 0.24844775 -0.01071119 0.14269635 0.0733281 0.022310982 0.13117774 -0.26897785

ConvBase.1.feature.lis.2.X_conv.conv.weight f4 [16, 1, 7, 1]
00000000: 8ffb 833e 5258 b8be d602 c53e 50c7 f53d
00000010: b7f4 b03e c51e c8bd a383 9bbe dd60 ad3d
00000020: 59a3 1b3c bbc3 203e 0f62 b13d 72cb 28be
00000030: 83df 3e3e bc27 9d3e bd73 1bbe 0eab bdbd
00000040: 3040 acbe 94f7 0d3e 0816 79be 7c4f 9a3e
00000050: 192e b9bc 1a01 b6be 34dc 213e 54a5 47be
00000060: 95c0 a83e 9004 a8bd e02f 39be a3f8 f33c
00000070: 3644 ba3d e4b6 563e a5d7 903e cecc b23e
00000080: 988c 413e 9142 8ebe d195 a43e ba11 1ebd
00000090: a7bf f9bd 51ed 48bd b5c2 a23e 13f6 a5be
000000a0: 3cc6 40be 7794 47be 1fdd 0abe 797f 82be
000000b0: e8de 5fbe 2ca8 593d cd7e a23d d973 c9be
000000c0: d8c3 463e f027 95be 238a 64be 2a63 b93e
000000d0: e70e 863e da3b 8c3e e2d8 3b3e a5fc a43e
000000e0: 902c a0be 8a94 9e3e 4801 523e c0bd 1abd
000000f0: 0036 033e 047c 873c 8754 eebd 2e80 773e
00000100: 0657 7f3e 4e63 903e fc21 c23d ac14 b8be
00000110: a0f5 a9bd 00bb b8be eabd ae3e 6919 a83e
00000120: 26f7 5c3e e944 31be 2124 ca3d 99a8 0abe
00000130: afb8 853e 23cb d23d e5f9 003d f778 d43d
00000140: 741e 8b3e 9a71 f3bd d4ca 6bbe 59cf 0bbe
00000150: 46c3 543d c433 0ebe 2b48 c53d 4507 383d
00000160: 2685 fa3c 412f 243e 7b92 afbe c35c 13be
00000170: 8be1 4c3c 8e4a 5d3e 6311 cabe df82 4fbe
00000180: 9d89 9abe 47a7 c3be 8761 cc3d bce4 bd3e
00000190: 46b0 69bd 7c5c 47be 9954 34be 736b 0dbd
000001a0: 26e1 003d 56e2 a23e 559b 1d3e 81d7 99be
000001b0: 0578 4cbe cf21 193e 25ac 89be 0e13 e4bc
0.2577786 -0.36004883 0.38478726 0.120009065 0.34561703 -0.09771494 -0.30373868 0.08465741
0.009499394 0.15699665 0.08661281 -0.16483858 0.1863995 0.30694377 -0.1518087 -0.09261142
-0.3364272 0.13863975 -0.2432481 0.30138767 -0.022604989 -0.35547715 0.15806657 -0.19496661
0.32959428 -0.08203995 -0.18084669 0.029781645 0.090950415 0.20968205 0.28289524 0.3492188
0.18901289 -0.2778516 0.3214555 -0.038591124 -0.12194758 -0.049054448 0.31789175 -0.32414302
-0.1882562 -0.19490229 -0.13560914 -0.2548788 -0.21862376 0.053138897 0.079343416 -0.39346197
0.19410646 -0.29132032 -0.2231832 0.3620847 0.26183245 0.27389413 0.18344453 0.32224002
-0.31283998 0.309727 0.20508301 -0.037778616 0.12813568 0.016538627 -0.11637216 0.2416999
0.2493554 0.28200763 0.09479138 -0.3595327 -0.082988024 -0.3608017 0.34129268 0.32831886
0.21578655 -0.17311443 0.09870172 -0.13540877 0.26117465 0.102926515 0.031488318 0.10374635
0.2717167 -0.11886902 -0.23026592 -0.13653316 0.05194404 -0.13886935 0.096329056 0.044928808
0.030581068 0.16033651 -0.34291443 -0.14390855 0.0125049455 0.21610472 -0.3946639 -0.20264767
-0.30183116 -0.3821356 0.09979539 0.37088573 -0.057052873 -0.19468874 -0.17610396 -0.0345263
0.03146472 0.31813306 0.15391286 -0.3004723 -0.19967659 0.14954303 -0.26889148 -0.027841117

ConvBase.1.feature.lis.2.X_conv.conv.bias f4 [16]
00000000: 251e 53bd 8b7b 783e 6427 15be 175e 15be
00000010: 8d48 34bd d147 463e 1854 5d3e 6a0d b93d
00000020: 00d5 2a3e 16a8 9fbd 8b41 ac3e 83f8 af3d
00000030: 176c d93c 45ec e1bd fadf b93e 640b adbd
-0.05154242 0.24265878 -0.14565808 -0.14586674 -0.044014502 0.19363333 0.2161411 0.09035762
0.16682816 -0.07795732 0.33643755 0.08592322 0.026540799 -0.11031393 0.36303693 -0.08449438

ConvBase.1.feature.lis.2.Y_conv.conv.weight f4 [16, 1, 1, 7]
00000000: 801e 333d fd8d 793e 79c2 91be d958 03be
00000010: abad 953d 3e92 abbe 966e ab3e 49f9 823d
00000020: 3c67 a8be a23a cd3d c69c 2fbc 7bfa 9ebe
00000030: 3f78 363e b28b 003e 4bc6 f5bd 50a9 343d
00000040: d0b7 75be a2c1 853e 2794 a33d 2ba9 223e
00000050: 5516 64bc bf9f d7bd b312 923e bf8b 193d
00000060: 6b9e b23e 5627 d2bb 61dc ca3d 5be7 9c3e
00000070: a3fc 7f3e f8a3 3f3e 5792 603e 0f99 b3bc
00000080: 8755 043e c2a4 063e ef6b 5a3e bbe3 173e
00000090: e956 58bd e899 c03d 3ab7 d1be 5bc6 0d3e
000000a0: 5131 ac3d 3dc4 913e 7200 3d3e 776c 86be
000000b0: 3266 b2be 4f9f 573e 416a 9e3c 982d a33e
000000c0: 0e16 93bc b0c6 01be d96a f5bc 2b45 183e
000000d0: 1d10 8abe 51d7 a1be c14b 3abc 65ab da3d
000000e0: 17ac bebe 13a1 d43d 1536 b4be 0698 85be
000000f0: e1c0 893e 0b56 ca3a 1a9a 9bbd db06 87bd
00000100: e0d8 c3be b8b9 3cbe 1955 023e a04a 133e
00000110: 419f 3ebe 1987 8ebe ceac 92bd da73 223d
00000120: ed82 953e f642 173e dda7 ec3d 6e28 8e3e
00000130: a49d a2be 2714 603e d96e 77be 59fc 213e
00000140: 66c4 13be d460 2bbe 6232 c0be 636d b13e
00000150: 7747 0f3e 564f 293e 8bea e2bc b4ef 78be
00000160: 2dc5 633d ad02 963e 4199 0bbe 31ae a0bc
00000170: b030 473c 7fb3 683e a98f f83d 8fbf d13e
00000180: 931e 333e 8902 38be fac4 603e 0d64 59bd
00000190: 4432 0dbe 5da5 b0bd dfc0 8e3e 116a b13e
000001a0: 0900 543e 5208 88be 9b4d b73d 5248 aebe
000001b0: edcc 84be f394 89bb a2de 7abd 8fbb a13e
0.04373026 0.2437057 -0.28468683 -0.12826861 0.07308515 -0.3351001 0.33482808 0.063952036
-0.32891262 0.10020949 -0.01071853 -0.31050476 0.17819308 0.1255329 -0.12000712 0.04410678
-0.239959 0.26124293 0.07987242 0.15884845 -0.01392134 -0.10528516 0.2852989 0.037486788
0.34886488 -0.0064133806 0.09905315 0.3064526 0.24998717 0.18714893 0.21930824 -0.02192357
0.12923251 0.13148788 0.21330236 0.14832966 -0.05281726 0.09404355 -0.40960103 0.13845198
0.08407844 0.2847003 0.18457201 -0.26254627 -0.34843594 0.21056865 0.019337775 0.31870723
-0.017954852 -0.1267345 -0.029958175 0.14870135 -0.26965418 -0.31609586 -0.0113706 0.10677222
-0.3724067 0.10382285 -0.3519751 -0.26092547 0.26904967 0.001543702 -0.07597752 -0.065931045
-0.382514 -0.18430221 0.12727775 0.14383936 -0.18615438 -0.27837446 -0.07161866 0.039661266
0.2920145 0.14771637 0.11555455 0.2776522 -0.31760895 0.21882688 -0.24163379 0.15818919
-0.14430389 -0.16736156 -0.3753844 0.34653768 0.13992105 0.1653417 -0.02769973 -0.2431019
0.055607963 0.29298916 -0.1363268 -0.019614311 0.012157604 0.22724722 0.12136776 0.4096646
0.17492132 -0.17969717 0.2195014 -0.05307393 -0.13788706 -0.086252905 0.27881524 0.34651235
0.20703138 -0.26568848 0.08950349 -0.3403955 -0.25937596 -0.0041986643 -0.061247475 0.31588408

ConvBase.1.feature.lis.2.Y_conv.conv.bias f4 [16]
00000000: 0395 9e3d c250 313e 3764 b0be 667a bdbe
00000010: d513 80be 2871 febc affe 1b3e 5333 80bd
00000020: e4d2 c33d 170d ad3e 0e60 e9bd a56e a43e
00000030: d987 91be d90f da3d 2b4d a73e 8c78 9b3e
0.077432655 0.17315963 -0.34451458 -0.37007445 -0.2501513 -0.031059816 0.15233873 -0.06259789
0.095617086 0.3379905 -0.11395274 0.32115665 -0.28423956 0.10647554 0.32676062 0.30365407

ConvBase.1.feature.lis.2.pointwise.weight f4 [16, 16, 1, 1]
00000000: 7b50 bcbd b485 b6bd a637 5b3e 50c4 5c3e
00000010: d175 763e e420 d93a 02ad f13d 8467 ec3d
00000020: 3bcd 5ebe 381d 7a3c d535 183e f87e 473e
00000030: 469b 133e 3a7b 59bd 7d35 4bbe 0627 4abe
00000040: 1ab8 313e 606f fabd 6e03 133e 5fd0 be3d
00000050: 3b9e e6bd db25 4fbd 1fbd 823c 646b f33b
00000060: 2ded a33d ae53 f03c cdbc 16be ed17 2ebc
00000070: ecd3 8abd b3c5 14bd 562b 513e 46ff 1ebe
00000080: 5dc9 4bbe 8db3 2e3e 5033 5f3e 5105 813e
00000090: d0d9 3abe 0ed6 453e b3a7 f13d 8cff 75bc
000000a0: 4ad6 f13d 0c00 d23d 9a4c a53d 9b18 913d
000000b0: 6d95 293e 6581 353d 8f2e 42be c094 0bbe
000000c0: 0161 82be 1626 2bbe 4a77 9f3c 4469 533d
000000d0: b082 c33c d54f 26be 3b31 6dbe 025b 6cbd
000000e0: 36e8 683e 1fac f1bd 5a8b 103e 24bb 77be
000000f0: c95d f83d 5e8f 803e f3ac 80bd b6e8 4ebe
00000100: 2bcf 94bd af7a 513e a436 7ebe ae7c 563e
00000110: d1f2 b8bd 5296 03be af1f f93c 7b98 89bd
00000120: b507 683d 7a96 313e 9134 76bd e3b0 56be
00000130: cc52 27be a6db c0bd e669 d4ba 6e0a de3d
00000140: 8f39 d93d 5ff7 34bd 0cb1 cf3d 8a16 e7bd
00000150: 033c 5e3e 3f71 7e3e 20fd 493e 9a88 bb3d
00000160: 50a5 853e 07c6 b3bd 18f7 7d3e 8305 4abb
00000170: fa5a 113e 233a 443d 5ebd 1d3e 926b 6dbe
00000180: 352f 033e 6d04 d53d ba7d 9d3c 8708 c8bd
00000190: f3cd 12be 2449 d6bd 8ef4 eabd 7231 2f3e
000001a0: 9b3d 893e eddd e83c 4db0 40be 663a 34be
000001b0: 7ce1 713e 2412 9fbd 3588 993d 52f1 d93d
000001c0: 97a4 123e e027 da3d f348 f2bc 8d09 553d
000001d0: a9dc 57bd 8dab dfbd cfe5 8e3d 2671 09be
000001e0: 2c32 f33d 9841 d33d f04b de3b b1d9 583e
000001f0: c2c1 833d b8de f9bc 1a4c 93bd 75b0 d43d
00000200: bc75 5dbe 64fb 223e 5a13 1d3e 823e ff3d
00000210: 3454 32be 4002 4c3d cdde 36bd 625b 443e
00000220: 0ad9 f939 5bc9 943d 8035 83bd 8ddf bfbd
00000230: 6833 513e 7211 883e 7f3b eebd 0e90 f7bd
00000240: de86 bbbd 0f4b 543e e6c7 70bd b047 0f3e
00000250: ce56 b43d ab67 903d 8939 733e 7d11 64be
00000260: 5e25 b03d 03f9 643e d9c1 503e b583 143d
00000270: bbcd 1d3e bacd cdbd e8ee 44bc 8e4e 023e
00000280: 6577 5ebe bccb a13d 1136 a03c 6b1e 153e
00000290: c508 2f3d 6d4e e1bd 9614 383d 3df7 913d
000002a0: 0331 533e 5a1e 83bd 1d42 423e d4ab c73c
000002b0: 8a43 633e 22fe 04be 8e2d 18be 1391 4b3e
000002c0: 0ea7 75be f267 0fbe 1dc8 813e 72d8 f6bc
000002d0: d475 49be a2ed 5fbe 4c7b 6abe b6fd ed3c
000002e0: c94b fcbd 46cf 0bbd 83ef 203c b6f0 723e
000002f0: b1ab 0cbe 1658 c73d 7230 ed3c a9bf a73d
00000300: d64e 303c 722f 8a3c 9b49 433d 8b84 7fbe
00000310: 0eac cb3c 0535 1abe 3dc1 c63d f0b9 2dbe
00000320: 5a74 8f3d 8114 00be ad28 11be 97a5 393e
00000330: a5ad d0bc 47d1 8ebd f14e 233d da55 f63c
00000340: 14c8 45be 5bbd a33c 573c 12be 67fa 81be
00000350: c13f 55bd ef15 5bbd fbfe 063c bc9e f03d
00000360: 7bea 653e ea8c 5b3e 8107 1e3e ef4e 68be
00000370: 1951 853e a1ee 33be ee2e e33d 54ed 80be
00000380: eeb6 1a3d db70 dfbd 2c2d 643e ab16 52be
00000390: ba50 9cbc 712e 2d3e 26e4 a53b 57bb 2ebe
000003a0: cb4e 2dbc bff1 45be 0728 1dbe e258 95bd
000003b0: 0e88 5cbe a818 06be cbff d63c 02ed bf3d
000003c0: 6875 7e3e 36a2 223d 17df 00be 14d3 75be
000003d0: 747b b6bd 6e8b 2c3e b7d7 00bd e38e 6d3d
000003e0: 0892 93bd 0b8a 4ebe a18f 87be babe a93c
000003f0: 4e1c 0cbe a5d2 c0bd 45b8 633e cd05 193d
-0.09195038 -0.089122206 0.21407947 0.21559262 0.24068381 0.0016565588 0.11800577 0.115431815
-0.21757977 0.015265755 0.14864285 0.19482028 0.14414701 -0.053096034 -0.19844623 -0.19741449
0.17355385 -0.12228274 0.14356777 0.093170874 -0.11260649 -0.05057321 0.01595932 0.0074285734
0.08004222 0.029336777 -0.1472046 -0.010625822 -0.06778702 -0.036321353 0.20426688 -0.15527067
-0.19901033 0.1706068 0.21796918 0.2519937 -0.18247151 0.19319937 0.11799564 -0.01501454
0.118084505 0.10253915 0.08071251 0.07084771 0.16560908 0.044312853 -0.18963073 -0.13630962
-0.25464633 -0.16713747 0.019466061 0.05161406 0.023866028 -0.16241391 -0.23163311 -0.05770398
0.22744831 -0.118004076 0.14115658 -0.24192482 0.12127263 0.2510938 -0.062829874 -0.2020596
-0.07266077 0.20456956 -0.24825531 0.20945999 -0.090306886 -0.12850311 0.030410616 -0.067185365
0.056647975 0.17342559 -0.060108725 -0.20965914 -0.16340178 -0.094168946 -0.0016205877 0.10841833
0.106066816 -0.044181224 0.10141191 -0.11283596 0.2170258 0.24847887 0.19725466 0.09156914
0.26102686 -0.08778005 0.2480129 -0.003082604 0.14194861 0.047907006 0.15404269 -0.23185566
0.12810977 0.10401235 0.01922499 -0.097672515 -0.14336376 -0.10463169 -0.11472426 0.17108706
0.26804814 0.028426135 -0.18817253 -0.17600402 0.23621172 -0.07767132 0.074966826 0.10641731
0.14320599 0.10652137 -0.0295758 0.05201106 -0.052700672 -0.109213926 0.06977426 -0.13422069
0.11874804 0.103152454 0.006783955 0.21176793 0.06433441 -0.030501708 -0.071922496 0.10385219
-0.21626943 0.1591621 0.15339413 0.12463094 -0.17414933 0.049806833 -0.044646073 0.19175485
0.00047654688 0.07264968 -0.06406689 -0.09368811 0.20429766 0.2657581 -0.11632442 -0.12088023
-0.09156583 0.20731758 -0.058784388 0.1399219 0.08805619 0.07051023 0.23752417 -0.22272296
0.08600877 0.22360615 0.20386447 0.036258418 0.15410511 -0.10049005 -0.01201985 0.12725279
-0.21725233 0.079001874 0.01955703 0.14562385 0.042732973 -0.11001287 0.044941507 0.07127235
0.20624165 -0.064022735 0.18970533 0.024373926 0.22193733 -0.12987569 -0.14861128 0.1987956
-0.23989508 -0.14004496 0.25347987 -0.030132506 -0.19673854 -0.21867993 -0.22898597 0.029051643
-0.12319142 -0.03413322 0.009822729 0.23724636 -0.1373737 0.09733598 0.028953765 0.08190853
0.010760983 0.016868327 0.047677618 -0.24952905 0.024862316 -0.15059288 0.09704826 -0.16965461
0.07004614 -0.12507822 -0.14175673 0.18129574 -0.025473425 -0.0697351 0.039870206 0.030070234
-0.19314605 0.019987753 -0.1428083 -0.25386354 -0.052062754 -0.053487714 0.008239503 0.11749026
0.22452728 0.21440473 0.1543255 -0.22686361 0.26038435 -0.17571498 0.110929355 -0.25181067
0.03777211 -0.10910197 0.22282857 -0.2051646 -0.019081462 0.16912247 0.005062598 -0.17063652
-0.010577868 -0.193305 -0.153473 -0.07292344 -0.21536276 -0.13095343 0.026245018 0.093713775
0.24849474 0.039705478 -0.12585102 -0.24006301 -0.089102656 0.16850063 -0.03145572 0.057997596
-0.072055876 -0.20169847 -0.26476768 0.020720828 -0.13682672 -0.09415177 0.22238262 0.037359048

ConvBase.1.feature.lis.2.pointwise.bias f4 [16]
00000000: 92f7 473d e2bb 85be 92e8 3fbd aa89 0c3d
00000010: 6f6d e93c 5468 f6bd 694c 2bbe 7bd6 293e
00000020: 2804 373e d57e 623c ecef 003c 959d debc
00000030: 9d2b cbbd 525f f23d 8074 42be 104d 64bd
0.048820086 -0.26119906 -0.046852656 0.034310974 0.028494565 -0.12031618 -0.16728367 0.16585724
0.17872679 0.013824184 0.007869702 -0.02717475 -0.09920428 0.11834587 -0.18989754 -0.055737555

ConvBase.1.feature.lis.3.X_conv.conv.weight f4 [16, 1, 9, 1]
00000000: 0138 95bd bd33 393d 4cc2 a03e fbd9 8bbd
00000010: 7562 53be 331d 743e 6afc 9cbd 45a3 42be
00000020: 8569 6c3e 6d61 123e 0628 8a3e 6f7d 68be
00000030: 0462 913d b1e2 19be 3e76 cb3d bfe9 98be
00000040: 511e fcbd 479e 3bbd 10aa 8c3e de2d 893e
00000050: 4ed6 943e 101f 94bb f0d5 6d3d 1b45 7f3e
00000060: 68d1 a13e a273 273e c7e4 65be 157c 49be
00000070: 2138 6ebd 54bf a0be 45af 123e 134d 9f3e
00000080: 37ec 853d 3b26 09be b947 ad3e 615f 4b3d
00000090: 9c25 dc3d 0738 25be df37 aa3e 4f31 06be
000000a0: 5ed3 9c3e 0f73 853e 8cf9 d7bd db03 fa3d
000000b0: 806f 27be 5fc5 863e 02b0 8e3e 4c71 9e3e
000000c0: 0f07 fdbd 4dd5 1a3e 8084 233d 852f 1ebe
000000d0: c5ae 9ebe df27 7c3e dc91 09be b572 553e
000000e0: 4b46 453e 789b 08be d3ce 44be e067 4f3e
000000f0: 2869 873e 6102 9b3e 58be 0bbe ca7c 46be
00000100: b206 a13e a795 403e a2b6 333e c917 813e
00000110: 4f63 213e 1965 f03d c4d4 b5be fb6b 593e
00000120: 6433 03be b1b3 d43d 5fe1 0fbd 5c12 1ebe
00000130: 49ad 793e 785e 89be 9096 f2bc 7e39 0abe
00000140: 6eec 3abe 9a52 8bbe a612 89be 8050 7abe
00000150: de92 13bd a5e6 5a3e 9561 9f3c 98c1 5ebe
00000160: a905 9dbe 9555 303e 6e73 a53d 5b2b 06be
00000170: f0f9 8c3e 2a35 803e bdad 9dbe 4d93 9dbd
00000180: d559 24be 348e a03d cd24 a23e 2ffe 3e3e
00000190: f3e1 2c3e 76b1 31be f94d 2dbd ab9f 8c3e
000001a0: ab39 bbbe e44f 7fbe 81f0 2ebe 5278 c03c
000001b0: 0539 2cbe 4b7c cfbd 5d4d 583d 6d80 8cbd
000001c0: 6ff6 37be 1ef5 81be 6875 173d 3f7f 73be
000001d0: a837 353e 463d 993e 3339 6ebe c137 35be
000001e0: 66fa 593c c3e7 a5bd 0f56 e2bd cab9 8e3d
000001f0: 8fcc 4a3e 3b83 013e 393c 963c 2df1 67be
00000200: 109e 84be 826a fcbc 6135 ab3d 5547 313d
00000210: 64f3 9a3e 6746 a8be 04ee 80be fbf6 853e
00000220: c3a9 80be e8aa 873c e8f8 be3d 9479 58be
00000230: adbc 0abc 7c53 883e ee83 2bbe ee9c 8f3e
-0.072860725 0.045215357 0.31398237 -0.06828686 -0.20643027 0.23839264 -0.07665332 -0.19007595
0.23087128 0.14294977 0.2698366 -0.22704099 0.07098773 -0.15027882 0.09934662 -0.29865834
-0.1231047 -0.045805242 0.27473497 0.26792806 0.29069752 -0.0045203045 0.058065355 0.24928705
0.31605077 0.16352704 -0.22450553 -0.1967624 -0.058158997 -0.31395972 0.14324673 0.3111349
0.06539195 -0.1339349 0.33843783 0.049651507 0.10749361 -0.16134654 0.3324575 -0.13104747
0.3063001 0.26064345 -0.10545644 0.122077666 -0.16351128 0.26322457 0.27868658 0.30945814
-0.12354862 0.1512043 0.039921284 -0.15447815 -0.30992714 0.24624585 -0.13434547 0.20844539
0.19265096 -0.13340557 -0.19219522 0.20254469 0.26447415 0.30275252 -0.13646829 -0.19383541
0.3145042 0.18807088 0.17550138 0.2521346 0.1576054 0.11738033 -0.3551389 0.21232598
-0.12812573 0.10385836 -0.03512704 -0.15436691 0.2438251 -0.26829886 -0.02961281 -0.13498494
-0.18254253 -0.27211457 -0.2677204 -0.24444771 -0.036028735 0.21377046 0.01945571 -0.21753538
-0.3066838 0.17220147 0.08078657 -0.13102476 0.27534437 0.2504056 -0.30796614 -0.07694111
-0.16049893 0.07839623 0.31668702 0.18651651 0.16883068 -0.17352852 -0.04231069 0.27465567
-0.36567435 -0.2493282 -0.17083932 0.023494873 -0.16818626 -0.10131129 0.052808154 -0.06860433
-0.179651 -0.25382322 0.0369772 -0.2377901 0.17697012 0.2992956 -0.23264007 -0.1769705
0.013304329 -0.08100846 -0.110515706 0.0696903 0.19804595 0.12647717 0.018339263 -0.22650595
-0.25901842 -0.030812506 0.083597906 0.04328092 0.30263817 -0.32866213 -0.25181592 0.26164994
-0.25129518 0.016560987 0.09324819 -0.21140128 -0.008467835 0.26626194 -0.16749546 0.28049415

ConvBase.1.feature.lis.3.X_conv.conv.bias f4 [16]
00000000: 944e a4bd a265 80be bf47 5d3e e74b 6b3d
00000010: 04d7 ec3d 606a c13d 4d1a 92be cd46 5d3e
00000020: 2af4 6d3e 0092 1c3e 4010 903e 5000 1d3e
00000030: ab60 983e 834b ca3d a3a5 74bd 51d4 02bc
-0.080228 -0.2507754 0.216094 0.057445433 0.115644485 0.094441175 -0.2853569 0.2160904
0.23237672 0.1529007 0.28137398 0.1533215 0.29761252 0.09877684 -0.059728276 -0.0079851905

ConvBase.1.feature.lis.3.Y_conv.conv.weight f4 [16, 1, 1, 9]
00000000: 0f00 a8be cbca 8bbd aaf3 7dbc f82e aabe
00000010: 828e 3abd 2257 943e aaae 343e 6b06 17be
00000020: ebf4 1bbe beb0 c03d 29a8 c1bd eea1 0cbe
00000030: 56a3 e93c 9c6e 3bbe 5795 26be ff63 803e
00000040: 021d b13b 4f1b 55be fe46 8cbd 38ec 3c3e
00000050: 2cb4 a13e 85b8 83be fa4a 043e 6b68 1d3e
00000060: 9d08 33be a09f e73d fd4e 5e3e b0c9 843e
00000070: 5ba0 843d 9fda 1bbe 3653 00be 1571 413e
00000080: fc19 88be e54f 833e 63ed acbe 2cc5 8b3d
00000090: dde9 3d3e 83fb 40be 0ff5 00be 8052 143d
000000a0: 5646 f4bd b9de a0bc 52e0 08bd f28d 41bc
000000b0: 6426 9dbd 5f30 7a3e 9f88 d8bd 2f60 3b3c
000000c0: 39d4 383e a42e 053d 5359 18bd d696 8f3e
000000d0: cb80 7e3e f98d 9cbe 61c9 89be b559 153e
000000e0: 38f5 b23d 7522 a9bd 8c83 8a3e 33bd 0b3e
000000f0: 2310 98be 86e2 203e cfaf 50be 542a 38be
00000100: 55ab 393e 87d2 7ebe 1efe 303e bd9b 9a3e
00000110: f5ee 91be fc40 1abe f5ec a13e 6237 6cbe
00000120: e7cc 873e b047 17be 097c 363e 302b 8ebd
00000130: d731 63be 6548 153c 3057 dd3d c37e 863c
00000140: 1a6a a8be ed14 023e 47fb 1d3e dbb2 8fbd
00000150: afec 0cbe e52b 373e 87e7 2fbe b6cc 1d3e
00000160: 256d 21be 6dc7 613d 8eaa 00bc 48b0 1d3e
00000170: ae4d 8cbc d744 8c3e 4979 483e a1eb f83d
00000180: 5c7e 02be be06 a13d 0c79 aa3e cde7 193e
00000190: 71de b7bd f740 0abe 8b87 81bc dcdd 593e
000001a0: ea4e 3b3e 664a 9dbe 3095 993e 1f27 e13c
000001b0: 4a5a 1cbd d1cc 9d3e 7e06 3e3e 2b98 bbbd
000001c0: 063c 213e dd1b 883e 0e2a 14be 27ed 8cbd
000001d0: 9c25 123d 8eef 803e e1bb c13d 72d5 4a3e
000001e0: 3740 45bd 8a54 0a3e 7d1a 853c f71b 1ebd
000001f0: cab0 033e 7a47 ee3d e21a 0dbe 5940 fdbd
00000200: 4656 4fbb fe9d 67be aca8 603e a022 663e
00000210: 8582 7b3e b1c8 29bd 31d4 953d 03fd 443e
00000220: 6f41 e4bd 3f7f 33be 2b5a 213e 6c0e 9a3e
00000230: ae42 5ebe 285f 62be 00b6 26bd 6f2e 7abe
-0.32812545 -0.06825789 -0.015499989 -0.3323896 -0.045546062 0.28972727 0.17644754 -0.14748542
-0.15230148 0.09408711 -0.09455902 -0.13733646 0.028520267 -0.18303913 -0.16267906 0.2507629
0.0054050693 -0.20811199 -0.06849478 0.18449485 0.31582773 -0.25726715 0.12919226 0.15371864
-0.17483754 0.11309743 0.21709819 0.25935125 0.06475898 -0.15220116 -0.12531742 0.18890794
-0.26582325 0.25646892 -0.33774862 0.06824717 0.18546243 -0.18845944 -0.12593482 0.03621149
-0.11927478 -0.019637452 -0.033417054 -0.011813628 -0.07673338 0.24432515 -0.105729334 0.011436506
0.18049707 0.032515183 -0.03719456 0.28044766 0.24853818 -0.30577067 -0.26911452 0.14585002
0.08738178 -0.08258525 0.27053487 0.13646393 -0.2969981 0.15711412 -0.20379566 -0.17984897
0.18131764 -0.24884997 0.17284438 0.30196944 -0.28502622 -0.15063852 0.31626096 -0.23068002
0.26523516 -0.1477344 0.17820753 -0.06941831 -0.22186981 0.0091114985 0.10807645 0.016417867
-0.3289345 0.12703295 0.15427886 -0.07016536 -0.13762163 0.17887838 -0.17178164 0.15410122
-0.15764292 0.055121828 -0.007853163 0.15399277 -0.017126884 0.2739627 0.19577517 0.12154318
-0.12743515 0.07862614 0.33295476 0.15029831 -0.08977974 -0.13501345 -0.015811702 0.21276039
0.18291822 -0.30720824 0.29996634 0.027484475 -0.038172044 0.30820325 0.18557164 -0.09159883
0.15745553 0.26583758 -0.14469168 -0.06881171 0.0356804 0.25182766 0.09459663 0.19807985
-0.048156943 0.13508812 0.016247982 -0.038600888 0.12860408 0.11634727 -0.13779786 -0.12365789
-0.0031637116 -0.22618863 0.21939343 0.22474146 0.24561508 -0.04145116 0.07315863 0.19237141
-0.11145293 -0.1752901 0.15757053 0.30089128 -0.21705124 -0.22106612 -0.040700912 -0.24431776

ConvBase.1.feature.lis.3.Y_conv.conv.bias f4 [16]
00000000: 7eaa c23d df35 1dbe 0e3a 193e 1166 b6bd
00000010: fad9 8abe 41f2 f8bd c7a7 8f3d 2eb4 68be
00000020: 4b78 053e 5208 fbbd 7645 983d 0c05 223e
00000030: e5fc e43d 4cf3 d0bd 6ce7 123e 1bac 893b
0.09505175 -0.15352581 0.14963552 -0.08906186 -0.27119428 -0.12155581 0.07014423 -0.22724983
0.1303417 -0.12257446 0.074351236 0.15822238 0.11181048 -0.10202655 0.14346093 0.004201425

ConvBase.1.feature.lis.3.pointwise.weight f4 [16, 16, 1, 1]
00000000: 8a61 e33d 0738 803b d85e 523d 200f 8bbd
00000010: d9bc 4d3d b574 35bc c586 56bd 91fe a63d
00000020: 2cf1 d53d a654 023d 7ae5 fd3d 0a58 1e3d
00000030: 3056 44be 5b78 07be 783f 2bbd bf1c e33d
00000040: 43ad 863e 3770 acbd 1e4c a0bd bd36 0a3e
00000050: f71f be3d 47d0 753d ba60 673e 9b60 273e
00000060: 0e60 24be 4806 bcbd 6ec3 8f3d a7a3 833e
00000070: 3635 413b 1fb3 4d3e c367 8e3d d480 9dbd
00000080: 5539 b23d 3f89 b0bd 2ca4 80be 8898 0d3e
00000090: 119b 42be 1a70 d63d a93f 25be e8e5 4b3e
000000a0: ec13 80bd 3cdf 53bb c757 3fbd b3e5 77be
000000b0: 8674 073d 488a 0a3d d166 2abe 71db 37be
000000c0: 403e c53d 08fd e5bd e02f 43be 5e76 b7bd
000000d0: b872 fcbd 7741 353d ace3 28be 3f0b 47be
000000e0: aa37 c43d 310a 28bc 51f5 103e 5cc0 303e
000000f0: 5082 bf3a 8cb6 2ebe 40b3 193d d346 f53d
00000100: a45a 35be b33e 353e 9b8d 5a3d 527b a73c
00000110: 6b37 25bd 7a55 efbd ddd9 2a3e 5fcb 643e
00000120: 4585 5cbc a7bc 58bd 2768 1a3e 3bb9 b23d
00000130: 2a71 d83d 17ef c0bd c7f9 33be de08 5bbe
00000140: 9e69 69be d86b 0a3c edd0 24be 024f c5bd
00000150: 688f 453e 08e1 17bd b0ee 65be c7ff 28bd
00000160: 34cb 98bd ee3a f23b 6b6c c5bd 2401 b0bd
00000170: 5bb3 3abe 40bf 6cbe ea54 ddbd 9ae7 17bd
00000180: 1c3d a3bc a2f2 e0bd f28c 2b3e 5c76 93bd
00000190: 1050 1b3e 242a 333e 1669 3e3e 888e 46be
000001a0: 8698 66be b39c cabc 21cd 0e3e 983a 42bd
000001b0: 1f59 7d3e 9b85 3abe 6dd0 4f3e ed29 86bc
000001c0: 74a7 223e 821e 63be 15ab 23bb fc94 dcbd
000001d0: 621b a0bc 5c5e f2bd bc3d f53d 87d6 33be
000001e0: d57f 26be ae48 f03b 622c 30be 2240 ee3d
000001f0: 6a74 86bd 8228 c6bd 3b36 1d3e 40d5 2a3e
00000200: 0b5f 23be 3637 8cbc f021 7d3e 2691 083d
00000210: 73e0 17be 3592 cabd 9326 58bd 95a7 2e3e
00000220: 0e24 72be f3d2 993d 0d90 98bc d3a8 77be
00000230: 3689 b13c c627 3b3e 656a af3d d0a8 bcbd
00000240: 9b82 343d 957d e9bd 5180 50bc 8c39 0dbc
00000250: bcbd 833e 845d 23be 834f 0fbe c2e0 a93c
00000260: 347b c23b cbc2 f7bc 6965 4b3e eef6 413e
00000270: ed48 9f3b fa9b 75be 7090 673e adc8 e53d
00000280: 9a9f f63d c717 69bd 1f4b 193e acda ca3d
00000290: e334 213d 51bc 443d a3b8 2f3e 6296 25be
000002a0: d1fe d1bd 4f5c 633d 5972 4c3e dd39 893d
000002b0: cc92 a6bd 45ed ad3c 1692 9dbc d716 1a3e
000002c0: 25b6 173e 352f 6d3d 6195 323d f8f2 0dbd
000002d0: bfb1 6abd 34d2 283e b7f9 18be f42f 76be
000002e0: 1585 243e 3488 11be 46e3 7d3e 47c3 bebd
000002f0: 4f17 d7bc fe87 643e 4cbe 283e c220 4a3e
00000300: 771c 69be a8e4 663d 0244 5dbe 5928 593d
00000310: 6912 a63d d16c 483e 2456 5abe 078a 343e
00000320: 4fde 4c3e 56d3 f93b 0610 f4bc 850d 4b3e
00000330: 6586 0dbd e94e 74be ca29 3b3e 6999 083d
00000340: bae1 993d 20e0 093e b37c 063e 6964 eb3d
00000350: b4c6 2e3e f2a8 14be ff2d c3bd d467 afbd
00000360: 8c70 e83d 2393 2ebe 8dd8 aa3d 1386 36be
00000370: 882a 92bd f467 d2bc d089 5dbd 5d66 ddbd
00000380: c89a cd3d b91a 303d 09f9 643e c1f1 443e
00000390: 042f 313e 654d 5bbe c541 bc3d 4139 2c3e
000003a0: 9525 ff3b a503 51be beb2 703e 3661 973c
000003b0: ac43 00be e81f f73c f1e5 7d3e 9fd5 2c3e
000003c0: 7714 a3bc 474e 0d3e e216 103e cae5 793d
000003d0: 4f00 61be c1b7 52be 2fb7 21be 59bb 4abe
000003e0: ca1a 4c3c 49bb 02bd 9297 123e 0ca6 393c
000003f0: 418c e5bd 1eb4 4abe 7b31 913c a27a 5c3e
0.111025885 0.003912929 0.05135998 -0.06789994 0.050228927 -0.011075188 -0.05237462 0.081540234
0.104463905 0.03181901 0.12397285 0.03865818 -0.19173503 -0.13229506 -0.041808575 0.11089467
0.26304063 -0.08419841 -0.07827018 0.13497443 0.092834406 0.060013082 0.22595492 0.16345446
-0.16052267 -0.091808856 0.07019697 0.25710794 0.002948118 0.2008786 0.06953385 -0.07690588
0.087023415 -0.086199276 -0.25125253 0.13827717 -0.19004466 0.104706004 -0.16137566 0.19911921
-0.062538 -0.0032329103 -0.04671457 -0.24208717 0.03307011 0.03382328 -0.16640784 -0.17954804
0.09631014 -0.112299025 -0.19061232 -0.089581236 -0.12326568 0.044251885 -0.164931 -0.19437884
0.095809296 -0.010256336 0.14156081 0.1726088 0.001461098 -0.17061824 0.03752446 0.11976399
-0.17710358 0.17699699 0.0533577 0.020444546 -0.040336054 -0.11686225 0.16684671 0.22343205
-0.013459508 -0.052914288 0.15078793 0.08726736 0.10568459 -0.09420603 -0.17575751 -0.21390101
-0.22794196 0.0084485635 -0.16095324 -0.0963421 0.19292986 -0.03707984 -0.22454333 -0.041259553
-0.07460633 0.007392279 -0.0963982 -0.085939676 -0.18232481 -0.23119831 -0.10807212 -0.037086107
-0.0199266 -0.109837785 0.16752985 -0.0720031 0.1516726 0.17496544 0.18594775 -0.19390309
-0.2251912 -0.024732923 0.13945438 -0.04741916 0.24741028 -0.18215029 0.20294352 -0.016377414
0.15884191 -0.22179607 -0.00249738 -0.10770604 -0.019544307 -0.11834404 0.119746655 -0.17562304
-0.16259702 0.007332883 -0.1720443 0.11633326 -0.06565173 -0.09675695 0.15352719 0.16682911
-0.15954225 -0.01711617 0.24719977 0.03334155 -0.14831714 -0.09891168 -0.052771162 0.17056115
-0.23646566 0.075109385 -0.018623376 -0.24185495 0.021671873 0.18276891 0.08565215 -0.09211886
0.044069868 -0.11400906 -0.0127259055 -0.008619677 0.25730693 -0.15953642 -0.13995175 0.020737056
0.005935097 -0.030244252 0.19862904 0.18941852 0.0048609884 -0.23985282 0.22613692 0.112199165
0.1204216 -0.05690744 0.14970063 0.099049896 0.039357077 0.048031155 0.17160277 -0.16170648
-0.102536805 0.055507954 0.19965495 0.0670049 -0.08133468 0.021231303 -0.019234698 0.15047775
0.14815576 0.05790635 0.04359949 -0.03465554 -0.057298418 0.16486436 -0.14939009 -0.2404173
0.16066392 -0.14212114 0.24793729 -0.0931459 -0.026256232 0.22317502 0.16478842 0.19739059
-0.22764765 0.056370407 -0.21607974 0.053016994 0.0810898 0.1957276 -0.21321923 0.17630778
0.20006679 0.00762407 -0.029792797 0.19829376 -0.034551997 -0.23858227 0.1827766 0.03334943
0.07513757 0.13464403 0.13133506 0.11493761 0.17067987 -0.14517573 -0.095302574 -0.085647255
0.113495916 -0.17048316 0.08342085 -0.17824583 -0.071370184 -0.025684334 -0.054086506 -0.1081054
0.10039288 0.042994235 0.22360624 0.19232847 0.17303091 -0.21416242 0.09192232 0.16818716
0.0077864625 -0.20411547 0.23505685 0.018478971 -0.12525815 0.030166581 0.24794747 0.16878365
-0.01990722 0.13799392 0.14071229 0.06101016 -0.21972774 -0.20577909 -0.15792535 -0.1979803
0.012457559 -0.03191689 0.14315632 0.011331093 -0.11208392 -0.19795272 0.01772379 0.21531156

ConvBase.1.feature.lis.3.pointwise.bias f4 [16]
00000000: 25d3 863e 8d17 df3d 202c f2bd fd54 3dbe
00000010: 9095 ccbc 30f3 3c3e f119 253e 0e9d 573e
00000020: 0610 30be 5ccb debd 1cad 2fbc 259b 423d
00000030: 9601 debd d040 88bc c6fa bc3d d0e7 503e
0.26332965 0.10893164 -0.118248224 -0.18489452 -0.02497366 0.18452144 0.16123177 0.21056005
-0.17193612 -0.108786315 -0.010722425 0.04751124 -0.10840146 -0.016632468 0.09227519 0.2040093

ConvBase.1.feature.bn.weight f4 [16]
00000000: 10e6 773f de77 603f 47b8 fd3e 2ff9 043e
00000010: 2243 2b3f ed4c 1d3f 164d 603f e8ab 033f
00000020: b986 6f3f 4585 273f e96f 6e3e 4857 063f
00000030: 44fc 4e3f 326b 173e 6532 5f3e 06bb 903e
0.9683542 0.876829 0.49554655 0.12985681 0.6689931 0.61445504 0.87617624 0.51434183
0.93564945 0.6543773 0.23284878 0.5247693 0.80853677 0.14786986 0.21796568 0.28267688

ConvBase.1.feature.bn.bias f4 [16]
00000000: 43fc 54ba 6c72 6b3a 5ee8 27bb d958 f73c
00000010: 0bc1 23bc 293e 19bc 55fc 6e3b 3912 d73c
00000020: 97b5 c3bc f05b 633c aac3 d93b bdd8 af3c
00000030: 9730 003d 2ed4 043d b932 293d a52e 22bc
-0.0008124748 0.0008981589 -0.002562068 0.030193733 -0.0099947555 -0.009353199 0.003646632 0.026253806
-0.0238903 0.0138769 0.0066456394 0.021465654 0.03129634 0.032428913 0.04130814 -0.009898816

ConvBase.1.feature.bn.running_mean f4 [16]
00000000: 8a58 8a3e 4b19 14be f555 ae3c 7571 c3be
00000010: f4eb 213b 50d2 a4be 4a21 09be 78bc bc3e
00000020: 261a b4be 8152 b43d f753 babd 740f a3bc
00000030: bd35 7abd e931 3b3d 22aa 4f3c fe63 dc3c
0.27020675 -0.14462774 0.021281222 -0.38172498 0.002470729 -0.32191706 -0.13391605 0.3686254
-0.351762 0.08804799 -0.09098046 -0.01990483 -0.061086405 0.045701895 0.01267484 0.026903149

ConvBase.1.feature.bn.running_var f4 [16]
00000000: 4f15 233b 21d7 e63a 9128 543b e99d 2d3b
00000010: c010 083b fc3f 953b 5ad2 713b a60f 803a
00000020: dfba 623b 8aac 003b fd68 d93a be8f 353b
00000030: d8f2 183b 9d2f e13a 0cda 383b bce5 1f3b
0.0024884527 0.0017611721 0.0032372812 0.0026491827 0.0020761937 0.0045547467 0.003689906 0.0009770289
0.0034596247 0.0019634091 0.0016587075 0.0027704085 0.0023338106 0.0017180328 0.0028206138 0.0024398407

ConvBase.1.bn.weight f4 [64]
00000000: 006b db3e f8f7 d53d e691 f23d c0e3 a63d
00000010: 2830 ba3e e1b5 433f 2ddc 663f af89 a4bb
00000020: db73 313f fe7e 663f 5c62 833e cdcd 0d3f
00000030: f9e3 553d f445 123e 26ff 493f b432 453f
00000040: 1f43 483f 9ac0 4e3f b499 4b3f 558a d03e
00000050: c42d b63e bb15 553f 13df 173f a4fc 863e
00000060: c066 593f d733 1f3f 9357 fe3e 0457 143f
00000070: 6627 4d3f cf24 c13e e71f 913e fa41 703f
00000080: f829 303f f790 c73e b75a 103e c46e 723f
00000090: 739f 913e 7ff5 4e3f 9742 973e da49 ed3e
000000a0: adc5 b43e 9a27 3a3f 9c8c 9c3e deec 053e
000000b0: d748 943d c35d e73e 2ac1 373e 960f 4d3f
000000c0: b192 413f f22f fb3e 0513 8e3e 01c3 293f
000000d0: aa12 a43e f2d1 7b3f b7e5 7dbb aefb 6e3f
000000e0: 88e7 713f 5033 6f3e 4358 993e b2a5 2c3f
000000f0: 8ad5 ed3e 7a30 173e 5fe5 5a3f 7afe 373f
0.42855072 0.10447687 0.11844234 0.081489086 0.36364865 0.764494 0.9017971 -0.005021296
0.69317406 0.90037525 0.2566098 0.5539215 0.052219365 0.14284497 0.7890495 0.7703049
0.7822742 0.80762637 0.7953141 0.4073054 0.3558179 0.83236283 0.5932476 0.26364625
0.8492241 0.62188476 0.4967619 0.57945275 0.8013824 0.37723395 0.28344652 0.9385067
0.6881404 0.38977787 0.14097105 0.94700265 0.28441963 0.8084335 0.29542992 0.46345407
0.35307065 0.7271668 0.30576026 0.13078639 0.072404556 0.45188722 0.1794478 0.8010191
0.7561446 0.49060017 0.27748886 0.6631318 0.3204549 0.98367226 -0.0038741657 0.9335278
0.94493914 0.23359418 0.2995015 0.6744033 0.4645198 0.14764586 0.8550624 0.71872675

ConvBase.1.bn.bias f4 [64]
00000000: 4d41 c63c 6515 803c 4c84 a63b f138 373c
00000010: 44ea d4bc 87ce c1bc d4e1 073d 1964 4bbc
00000020: d86f b93c d404 4f3c 7558 d7bb 64fb 8dbc
00000030: 079c d0ba 66e9 a43c 27c3 e9bc 88bb 183d
00000040: b287 15bc 7260 eabc cf46 a0bc e687 05bd
00000050: 764a b83c b482 81bc 5b0e 673b fec7 1f3a
00000060: 730a c5bc a684 613c 773e 8cbc 73ad a93c
00000070: 447d 403c 4d15 8a3b 7f84 0f3c 3adc 46ba
00000080: a5ff 23bc 6351 c5bc ea98 cebc d6eb 4c3d
00000090: 4eb7 beba 1258 443c 76a1 cbbb d280 423b
000000a0: e74f c63c e265 1dbd b027 8a3c 1362 0d3b
000000b0: a5c1 b53c 7f35 d43c e3f7 adbb b92c 083d
000000c0: 0cb3 8abb 04b4 0c3d 8976 6c3b 8e2e f23c
000000d0: 2b5a aa3c 22e8 20bd 72de 97bc e7d4 693c
000000e0: ef5e 2fbc a5a3 5b3c 722b 5a3c c440 cc3c
000000f0: 439e 7abb ce16 113c 8537 14bc 1e80 323c
0.02420106 0.015635202 0.005081689 0.0111830095 -0.025990613 -0.02365805 0.03317435 -0.012414002
0.022636339 0.012635428 -0.006571824 -0.017331786 -0.001591564 0.020130824 -0.028535439 0.03728822
-0.009126591 -0.028610442 -0.019565014 -0.032600306 0.022496443 -0.015809394 0.003525636 0.000609517
-0.024052834 0.013764536 -0.01711963 0.02071259 0.011748616 0.004213965 0.008759617 -0.0007585917
-0.010009681 -0.02408666 -0.0252194 0.0500296 -0.0014550479 0.011983888 -0.006214316 0.0029678834
0.024208022 -0.03842724 0.016864628 0.002157335 0.022187063 0.025904415 -0.0053090914 0.033245776
-0.00423277 0.034351364 0.0036081395 0.029563215 0.020794949 -0.03928388 -0.018538687 0.014271951
-0.010703786 0.013405715 0.013316022 0.024933226 -0.0038241304 0.008855535 -0.00904644 0.010894803

ConvBase.1.bn.running_mean f4 [64]
00000000: fbf8 4e3e e377 103e ab29 033e a5bd 5c3d
00000010: 46a9 1c3e c674 263d 6ca8 cb3c facf 0e3e
00000020: 0191 713e 84b9 303e fc1f 853d 66b6 153d
00000030: 1b69 623e bdd5 043d 1d94 923d 3517 7a3d
00000040: 61aa 693e 35bd 603e ae72 ce3d f9b9 833d
00000050: d04d 4f3e 0444 493e 15c2 273e 80f1 093e
00000060: 0b87 173e be15 4a3e 14c2 453d 46bc 033e
00000070: 240b 0c3e 19f6 823d bd6b 923d 79be 8e3d
00000080: ce86 ad3e 7521 913e c74a 1b3e 6a3c 393d
00000090: 0417 5f3e b294 5c3e 318b 843e 211e 503e
000000a0: 5dc3 763e a463 fa3d 8d9b 6f3d 5864 2e3e
000000b0: 2b89 863e c8eb 6c3d 609c 8c3d 2fd0 a73d
000000c0: 5b1b 933e 78ff 9e3e 4a43 1e3e a2c9 723d
000000d0: 6b2b 493e 799b 2e3e 4e14 833e ef6f 4a3e
000000e0: b823 873e b762 613e 2ec0 a33d e8b4 293e
000000f0: d837 9b3e 9c65 8d3d 08e7 b23d b761 d23d
0.20212166 0.14108233 0.12808864 0.053891797 0.15298948 0.040638708 0.024860583 0.13946524
0.23590471 0.17258269 0.06500241 0.0365509 0.22110407 0.0324304 0.071571566 0.06105729
0.228189 0.21947177 0.10080467 0.06431956 0.20244527 0.19654852 0.1638263 0.13471031
0.14797609 0.19734856 0.04828079 0.1286479 0.13676125 0.06394596 0.07149456 0.069699235
0.3389191 0.28345838 0.15165244 0.04522363 0.21786124 0.21541098 0.25887445 0.20323993
0.24097963 0.12226036 0.058497954 0.17030466 0.26276526 0.057842046 0.06865764 0.08194005
0.28731808 0.31054282 0.15455356 0.059274323 0.19645469 0.17051496 0.2560143 0.19769262
0.2639444 0.22010313 0.0799564 0.16572917 0.30316043 0.06904146 0.08735472 0.10272544

ConvBase.1.bn.running_var f4 [64]
00000000: 7a93 c73d 5ef2 403d f33d 223d 1917 7c3b
00000010: 8a6c 6f3d d98b 973b 1296 923b 3f11 0b3e
00000020: a499 f83e c9d8 683e c8d8 013d 1a3d c43b
00000030: 9ed9 b53e d010 ea37 bcd5 be3c 0c5b 233c
00000040: 1dfb 9f3e c163 d23e 3493 e33d eea0 013c
00000050: 66e7 d33d 2f36 633e deb5 223f 9088 303e
00000060: 951c 3c3e bb8d 833e fe6a f43c 4f6f 163e
00000070: a9f4 303d 6de9 4c3c 4c95 3b3b a68f 753d
00000080: db92 063f 91dc 5e3e 75e1 933d 0b4c ee3b
00000090: 56ad dc3d 9938 353e 12c6 bd3d a4f9 e03d
000000a0: 7484 b63d b30c b83e 52ea 023d 8acc 613d
000000b0: d2d7 dd3e f7be 113c 96b2 0f3d f94c ab3c
000000c0: a21a 2f3f 24ad 6d3e f6af 973d 6c81 cd3b
000000d0: 44b2 0a3e 5337 4e3e f63d 433e d190 d73d
000000e0: 432f e83e 9a1f b73d fbea 023d 1524 2b3e
000000f0: 2739 923e d485 4a3c 31df d83c 3614 193d
0.09744926 0.04710614 0.03960986 0.0038465916 0.05845312 0.0046248254 0.004473456 0.13580798
0.48554718 0.22738947 0.03170088 0.005988729 0.3551759 2.7902803e-05 0.023295276 0.009970438
0.31246272 0.4109173 0.11112061 0.007911904 0.1034687 0.22188638 0.6355876 0.17239594
0.18370278 0.2569407 0.029836174 0.14690898 0.043202076 0.012506825 0.0028622923 0.059951447
0.52567834 0.21763827 0.07220737 0.0072722486 0.10775249 0.17697372 0.092662945 0.10985115
0.08911982 0.3594719 0.031961747 0.055126704 0.4332872 0.008895627 0.035082422 0.020910727
0.68400013 0.23210579 0.07406609 0.006271532 0.13544565 0.20138292 0.19066605 0.105256684
0.45348558 0.089415744 0.031962376 0.16712983 0.2855923 0.012361009 0.026473613 0.03737279
