waights/weights19.pth (torch_old, 670822 bytes, 196 tensors)

ConvBase.1.feature.lis.0.X_conv.conv.weight f4 [1, 1, 3, 1]
00000000: 300c 11bc c69f 49be 2d6e 00be
-0.008853003 -0.19689855 -0.12542029

ConvBase.1.feature.lis.0.Y_conv.conv.weight f4 [1, 1, 1, 3]
00000000: 4b1d 9d3e 87b1 92bd 7b4a 11be
0.3068641 -0.07162767 -0.14188568

ConvBase.1.feature.lis.0.pointwise.weight f4 [16, 1, 1, 1]
00000000: 70fb b9be df13 6bbe b783 45bf 4f01 6fbf
00000010: 292f fdbe 8d12 abbd 1279 bc3c d34f 153f
00000020: 6c99 543f 0471 283f eebb 6c3f 4cb8 6e3d
00000030: 9e44 323f 8f59 f5ba 4350 ec3e b90b 01bf
-0.36324644 -0.22956799 -0.77154106 -0.9336137 -0.49450043 -0.08353148 0.02300695 0.5832493
0.83046603 0.6579745 0.9247426 0.058281228 0.6963595 -0.0018718707 0.46154985 -0.5040851

ConvBase.1.feature.lis.0.pointwise.bias f4 [16]
00000000: ec63 503f 27bb 8fbe 271a 363f 7b90 85bf
00000010: fab7 99be f6bd 4fbf 1730 a9be 8413 6c3f
00000020: 148f 2fbf 5484 843e 497e e3be 24bc 0abf
00000030: f4c2 583d 1d96 97bd 1afb 90be 1033 cabe
0.8140247 -0.28072473 0.71133655 -1.0434717 -0.30023175 -0.8114923 -0.33044502 0.9221728
-0.68577695 0.25882208 -0.44432285 -0.5419333 0.052920297 -0.07401679 -0.28316575 -0.39492083

ConvBase.1.feature.lis.1.X_conv.conv.weight f4 [16, 1, 5, 1]
00000000: 6a72 753e b7c2 9abe 935c c83b 2cc3 b63e
00000010: b9b2 813e 7fa8 c03c daec ac3e 0085 dd3a
00000020: e7ae 163e c5f2 8abe 7e99 59be 5bc0 9bbe
00000030: c0d4 4cbd 0b74 913e 2646 dfbd 8f92 1cbd
00000040: 69f7 353d 2df3 3a3e 3d73 d33e 787a 1a3c
00000050: 8fa8 c4be ea4a cabd 2f30 e93c 658d a4be
00000060: 409b b43e 1f5c ee3d b412 813e 14c6 c3be
00000070: 4f9a 623e 77db 1f3e 7d36 8ebe 246f 34be
00000080: 4aa3 3dbe cd27 463e 6179 48bc d7d8 863d
00000090: a579 6cbd d0f7 da3e 8b38 ce3e a8f9 053e
000000a0: f612 4b3d 123d a9be 840a b13e 1473 6c3e
000000b0: a52f ca3d ac0c a1be 9b4a 99be ad36 bb3d
000000c0: 2dcd 083e 3f27 c8be 1157 8dbd 95ae 8dbd
000000d0: f369 e8be 2264 a4bc 8c91 bf3e 0371 ddbe
000000e0: 11c6 e1be 0eaa 973e 06f2 493e 9718 bf3e
000000f0: cc34 30be 48a5 71bd be42 84bd 4bc4 ce3e
00000100: c1b3 86be 6e7b b4be 1263 b23e 24db 36be
00000110: b5df b23d 8217 9dbd 0421 cabc b0c0 28ba
00000120: d160 95be 5ba6 e2be d654 813e ad76 b73e
00000130: e891 55bd 97ce 243e 3813 4a3e 9572 d0be
0.23969427 -0.3022668 0.0061145513 0.3569578 0.25331667 0.023517845 0.33774453 0.0016900599
0.14715157 -0.27138343 -0.21249959 -0.30420193 -0.05000758 0.28408846 -0.10902052 -0.038225707
0.0444254 0.18256827 0.41298857 0.009428613 -0.3840985 -0.0987757 0.028465359 -0.32139125
0.35274696 0.116386645 0.25209582 -0.3823706 0.22129177 0.15611063 -0.27775946 -0.17620522
-0.18519321 0.1935112 -0.01223597 0.06584328 -0.057733197 0.4276719 0.40277514 0.13083518
0.04957863 -0.33054405 0.34578335 0.23090774 0.09872369 -0.3145498 -0.29939732 0.09141288
0.13359518 -0.39092442 -0.06901372 -0.069180645 -0.45393333 -0.020067278 0.3741573 -0.43250284
-0.44096425 0.2962193 0.19721231 0.37323448 -0.1720764 -0.058995515 -0.064580426 0.40384135
-0.26309016 -0.3525042 0.3484121 -0.17857033 0.08734075 -0.076704994 -0.024673946 -0.0006437404
-0.29175428 -0.44267544 0.25260037 0.3583273 -0.0521411 0.16094433 0.19733894 -0.4071242

ConvBase.1.feature.lis.1.X_conv.conv.bias f4 [16]
00000000: 01ee a83c 0cef b23d 9f86 553d 2aa8 e7be
00000010: b886 95be 79d3 c9be 2993 e9be 806a c93d
00000020: b53c 223e e3a9 16be 3d70 9c3e c8dc 933e
00000030: 7d9a 853d 55ed fd3d 1b90 d4be f51a 2939
0.020621302 0.08737001 0.052130338 -0.45245486 -0.29204345 -0.39419153 -0.45620087 0.098347664
0.1584347 -0.14713244 0.3055438 0.2887938 0.06523607 0.12398783 -0.41516194 0.00016127138

ConvBase.1.feature.lis.1.Y_conv.conv.weight f4 [16, 1, 1, 5]
00000000: 358d 873e a8ca b43e a37a b9be 681d 4abe
00000010: 2300 cd3c a5dc aa3e 0e01 db3e 1f02 d8bd
00000020: fcdd 21ba aa3e dbbe 179a a8be 4580 5f3d
00000030: 8f46 833e 370a 9fbe dd66 72be f654 8abe
00000040: 2726 7e3e 3b31 ec3e 1bc5 59be 9d13 afbe
00000050: ef15 86be 7c63 c73e fd5f c63e 78e4 b4be
00000060: b30b 4b3e c4d8 79be 9f49 47be e1a3 b5be
00000070: 620e ef3d bca7 c2be 6d78 953d efe7 e7bd
00000080: 51e2 313d d84f 883e 60fb d03d d2b3 b2be
00000090: 160c 7c3e b2ba 82bd 3f84 dabd aa9a 763d
000000a0: 6c84 4cbd 269d d4be e9ce b8bd 5444 303e
000000b0: bf94 95be c30c 513e 3c30 afbe a47c 09be
000000c0: 0360 d83e 6fe2 a43e e23b 7d3e 3f83 073e
000000d0: 8ff3 abbd a688 4e3e 30ab 8dbe 135e ce3e
000000e0: f6d3 bbbe f1cb 843e af8c 01be 6071 f9bd
000000f0: fb2e e43e 686f 65be 25df 293e 6b1a d93e
00000100: c8e3 063b dd61 9c3e ce26 c13c 6961 7c3e
00000110: a843 d03e b84c 84be f36e 98be d6f5 dbbe
00000120: e002 b93e 1f79 d9be 84d7 cb3e e372 a73e
00000130: a58d a0bd 2521 eebe 57ca 89be 2f71 76bb
0.2647492 0.35310864 -0.36226377 -0.1973778 0.02502448 0.33371463 0.42774242 -0.105472796
-0.0006174741 -0.42821246 -0.3293006 0.054565687 0.2563977 -0.3106248 -0.23672052 -0.27017945
0.24819241 0.4613131 -0.21266596 -0.3419465 -0.2618861 0.38943088 0.38745108 -0.35330558
0.19828682 -0.24399096 -0.19461678 -0.35476592 0.11672665 -0.38018596 0.0729836 -0.11323535
0.043428723 0.26623416 0.10204196 -0.34902817 0.24613985 -0.063832656 -0.10669755 0.060206093
-0.049930975 -0.41526145 -0.0902384 0.17213565 -0.29215047 0.20415024 -0.34216487 -0.13426453
0.4226075 0.32204005 0.24729875 0.1323366 -0.083960645 0.20169315 -0.27669668 0.40306148
-0.3668515 0.25936845 -0.12651323 -0.12179828 0.44567093 -0.2240578 0.16589029 0.42402968
0.0020582546 0.30543414 0.023578074 0.24646534 0.40676618 -0.25839782 -0.29772148 -0.42960995
0.36135006 -0.4247522 0.39812863 0.3270484 -0.078395166 -0.46509662 -0.26912186 -0.0037604084

ConvBase.1.feature.lis.1.Y_conv.conv.bias f4 [16]
00000000: cba4 483e 2ff6 853e f60c 0ebe 0949 8c3e
00000010: 8689 f73d 8712 783d 8f68 793d c47e 153e
00000020: 72e0 b63e 5d91 883d 8ecf d8be 1d3a 2fbe
00000030: 0a49 bcbe 406e 403e 648f a5be 8e1f bdbe
0.19594114 0.26164386 -0.13872132 0.2739947 0.120867774 0.060564544 0.06089073 0.14599138
0.35718113 0.06668351 -0.42345852 -0.17112012 -0.36774474 0.18792057 -0.3233596 -0.36938137

ConvBase.1.feature.lis.1.pointwise.weight f4 [16, 16, 1, 1]
00000000: 8e66 3fbe f4dd 71be bfce 0ebe 3140 2c3e
00000010: 46b6 5ebe 646a e83d 86b7 b33d 8a4d 6c3e
00000020: 9d38 36bd 8d20 bdbd 5c79 3dbd 47e7 0c3e
00000030: 94b3 4ebe a05f 693e 7981 66be bf32 5c3e
00000040: 087c 2e3e c2ae c03d 3c8f 843d a410 4ebd
00000050: 3b06 4fbe 99e1 37be 6acb 1d3e f8cf 4c3e
00000060: 5795 ea3c ae11 163e dec2 52be 3bb8 ce3d
00000070: f591 efbd e05c c23d 7437 373e f22c 313c
00000080: a7c4 1ebe 5ef9 c9bd 894b 13bd d160 763d
00000090: bc00 96be cf64 f5bb dbf2 ac3d 0e6d 44be
000000a0: 0dc7 023e 5412 ad3c dff2 4fbe 342e 3f3e
000000b0: ba47 af3a 624c 21be c79e bcbd 5cb4 79be
000000c0: 9144 cbbb 2582 38be d48d 133e 1974 c4bd
000000d0: 1026 40be aa5f 603d d7cd 573e 1b02 de3b
000000e0: 6da2 a43d 5a62 683c a4cc 2c3e 944a ccbd
000000f0: 335d b13d 1645 8bbe 292d a9bc c6e4 86be
00000100: 6d76 32be 91b8 523e a2c3 673e be0c 373e
00000110: 3387 39be c5df 523e 83ea 3d3e 6252 1dbe
00000120: a0a8 703e 1fad f63d b72b 5e3c 1760 71bc
00000130: 66c8 e4bd 0fab 1abe fe80 9a3d 786a 08be
00000140: 1a5c e63d 5e7f d2bd 9e3b 0fbd 84b3 9fbd
00000150: 34a3 adbd 6ccd e33c 56f3 563d 6d37 a6bc
00000160: 95d8 15be 8e4e 45bd 901e fe3c 2aff 64be
00000170: 4425 703b 74d4 0cbe 2ccf c6bc 6b2d 3a3e
00000180: 1b6e 7bbe da68 133d 0cc5 8ebd e3e6 8d3c
00000190: a5a5 9c3d bbb7 43be f2b1 9fbd b523 1a3d
000001a0: 67ae 28be 2a99 173e b64c 883e 4e6d c9bc
000001b0: 4c98 30be e94a f5bc 8aec 11bd 0870 663e
000001c0: af5d 3ebe b16e 0b3e c8d8 09be 8bb8 973d
000001d0: 2a8d 3a3e 2fc3 3abe eccd fbbc 0276 083e
000001e0: 2b11 09be e097 1cbd a547 e9bd f1dc babd
000001f0: 9458 df3c d67d 25be 5a38 49bd e56d 09be
00000200: 3b8a 483d 8aa8 a23d c8bc 5dbe 5c84 80be
00000210: 8ff3 37bd 5e05 cd3c f87b 7d3e e949 c3bd
00000220: 94d0 e63d 72ef 1abe 31d9 823e 461a 87be
00000230: 9abd 403e 91ac 3cbe bb9f 423e f86e 1b3e
00000240: 3033 f53d c967 863d 7905 713e 732c bcbd
00000250: c015 0f3b 8a4d 55bb b2f1 603e efd1 f4bd
00000260: f725 d6bb ee3a 593e dd31 0bbe 5485 933d
00000270: 218a b8bb eb47 52be 024b 1a3e d124 0a3e
00000280: 4abe 883e e46d 713e 7fa9 28bd c47c a23d
00000290: 01c4 003e 0a93 183d 1f1b 55be c1f4 4f3c
000002a0: 10ea 26be 49ea 613e c893 553e 512f 10be
000002b0: f776 523e 8d84 02be d29c 6ebe 90f4 48be
000002c0: 39fc 1fbe 9a59 05bc c50a 51bd aa51 653e
000002d0: 26eb da3b 1d5e 36bd e5b6 85bd ae24 2cbe
000002e0: fd0a 863d 2ec8 0b3e 5e4f 913d 81c6 ec3d
000002f0: ae3b 813d 896f 00be 08b8 5abe 41dd 8f3c
00000300: 5482 023e 51e8 70be 9500 85bd 1be3 07be
00000310: eabc cc3d 782f 21be 699f c83d eb26 aa3c
00000320: ebd1 143e 7e20 4ebe 819a 793d db46 1b3e
00000330: e0f3 0d3e c6e4 a8bd e88b 6ebc c7ba 84be
00000340: 8b5f 57be 93c9 403e 7756 15be d5ec 5cbd
00000350: 7104 163e 0364 cdbd 9012 74be 184f 4fbd
00000360: 422b d4bd e4f0 febc 8dd0 183e 92e8 1cbe
00000370: 2617 103e f0de 373e c7bc fbbd 3883 57be
00000380: d300 093e 2b1c 9bbc b2dc f8bd 8781 1a3e
00000390: d9f0 68bd 2f15 cd3d 03f9 a13d 5380 5f3e
000003a0: 0712 dc3d 84bc 44be 8165 0abe 3162 2dbc
000003b0: 61eb 203e dcb8 2dbe e4a7 573e 2444 d4bc
000003c0: c184 17bd 7dd9 0fbe 378c 3b3e 28dd 62be
000003d0: a3db 84bd 7916 5d3d d1a0 10bb 0215 38be
000003e0: f25f d9bd 0db6 9fbd f6ac 4bbd 6db7 4ebe
000003f0: 4d31 32bd 0c74 5c3e 57a5 8e3e 6331 d4bd
-0.18691465 -0.23619825 -0.13946055 0.16821362 -0.2174922 0.113484174 0.08775239 0.23076454
-0.044487584 -0.09234724 -0.046258315 0.137601 -0.20185691 0.22790384 -0.22510327 0.21503733
0.17039502 0.094083324 0.06472632 -0.05030884 -0.2021722 -0.17957152 0.15409628 0.20001209
0.028635664 0.14655182 -0.20582148 0.10093733 -0.11697761 0.09490371 0.17892247 0.010813938
-0.15504704 -0.09862016 -0.035960708 0.060150925 -0.29297435 -0.007488824 0.084447585 -0.19182226
0.12771244 0.021126904 -0.20307492 0.18669969 0.0013372817 -0.15751794 -0.09209972 -0.24385208
-0.006203242 -0.18018396 0.14409572 -0.09592456 -0.1876452 0.054778732 0.21074615 0.0067751533
0.08038793 0.014183605 0.16874939 -0.09975162 0.086603545 -0.27201146 -0.020651417 -0.26346415
-0.17427988 0.20578219 0.22633222 0.17875955 -0.1811798 0.20593174 0.1854649 -0.15363458
0.23501825 0.12044739 0.013560227 -0.014732382 -0.111710355 -0.15104316 0.075441346 -0.13321865
0.11248036 -0.102781996 -0.034968965 -0.07797912 -0.08478394 0.027807914 0.052478157 -0.020290101
-0.146334 -0.04817062 0.031020433 -0.22362962 0.0036643306 -0.1375292 -0.02426871 0.18181388
-0.2455372 0.035988666 -0.069711775 0.01732201 0.07648782 -0.19113056 -0.07797612 0.03763171
-0.16472779 0.14804521 0.26621026 -0.024588253 -0.17245597 -0.029942947 -0.03562597 0.22503674
-0.18590425 0.13616444 -0.13461602 0.07408246 0.18217912 -0.18238519 -0.03073784 0.13326266
-0.13385455 -0.038230777 -0.11390618 -0.091241725 0.027263917 -0.16161284 -0.049126007 -0.13420828
0.04895995 0.079423025 -0.21654046 -0.25100982 -0.04491001 0.025026973 0.24754322 -0.095355816
0.11270252 -0.15130404 0.2555633 -0.26387233 0.18822327 -0.18425204 0.19006245 0.1517905
0.11972654 0.06562764 0.23537244 -0.091881655 0.0021833032 -0.0032547438 0.219672 -0.11954104
-0.0065352875 0.21213886 -0.1359324 0.07203165 -0.0056317006 -0.20535247 0.15067676 0.13490607
0.2670768 0.23577076 -0.04117727 0.079339534 0.1257477 0.037249602 -0.20811127 0.012692631
-0.16300225 0.22062029 0.20857155 -0.1408055 0.20553194 -0.12745877 -0.2330201 -0.19624543
-0.15623559 -0.008139038 -0.05103566 0.22394434 0.006680864 -0.044523347 -0.06529025 -0.16810867
0.065450646 0.13650581 0.07095216 0.11561299 0.06310211 -0.12542547 -0.21359265 0.017561557
0.12745029 -0.23526122 -0.06494252 -0.13270228 0.0999697 -0.15740764 0.0979603 0.02077051
0.14533202 -0.20129582 0.060938362 0.15163748 0.13862562 -0.0824676 -0.014559723 -0.2592375
-0.2103254 0.18826894 -0.14583765 -0.053936798 0.14650132 -0.10028841 -0.23835206 -0.05061254
-0.10359813 -0.031120725 0.14923306 -0.15323094 0.1407133 0.17956138 -0.12291866 -0.2104615
0.1337922 -0.01893433 -0.12151469 0.15088473 -0.056870315 0.10013806 0.07908823 0.21826296
0.10745626 -0.19212538 -0.13515283 -0.010582493 0.1571479 -0.1696505 0.21060139 -0.025911398
-0.03699184 -0.14047809 0.18315206 -0.22154677 -0.06487205 0.05397651 -0.002206851 -0.17976764
-0.10614003 -0.07798395 -0.049725495 -0.20187159 -0.04350405 0.21528643 0.2786052 -0.10360982

ConvBase.1.feature.lis.1.pointwise.bias f4 [16]
00000000: 3699 733e 40b1 69be badb 1a3e d57c 2abe
00000010: 06dc afbd ca60 82be a9e9 4cbe c570 e63d
00000020: 96fa 2cbe aae2 843e 8d63 d4bb ed70 103e
00000030: 04ab 943d 0f1c b03c 2e3e 103e 6b39 8dbe
0.23788914 -0.22821522 0.15122882 -0.16649182 -0.08586888 -0.2546447 -0.2001101 0.11251978
-0.16892466 0.2595418 -0.006481594 0.14105578 0.07259181 0.021497754 0.1408622 -0.2758287

ConvBase.1.feature.lis.2.X_conv.conv.weight f4 [16, 1, 7, 1]
00000000: 843f 893e fe0f b5be 1beb c83e f3a8 fa3d
00000010: 58db b53e 6d1c cbbd db40 96be a016 b23d
00000020: d913 f73b e957 143e c063 ac3d d77e 2abe
00000030: 105e 393e 3bc1 9a3e 228a 17be fb68 b6bd
00000040: e56b abbe 950a 0f3e 754f 77be 0d50 9c3e
00000050: 5762 b1bc 44da b6be 83bd 173e 4d2c 53be
00000060: 5287 a43e 5cdf b7bd a4f2 3ebe fa84 e13c
00000070: 87e6 ba3d 7e2f 583e 4f4d 953e 71e6 b43e
00000080: 18fc 413e d5b0 8ebe d1ae a23e 4c07 29bd
00000090: dc5b eebd e583 18bd 6ef0 a63e 1157 a6be
000000a0: c74c 37be 8bbe 41be 06bc 0abe 5415 87be
000000b0: f256 6bbe 964b 523d ffc6 a43d 93bc c9be
000000c0: bc3c 463e 0be9 91be f029 5dbe e8f8 b73e
000000d0: c98f 853e ab28 8e3e 8048 473e b14d ae3e
000000e0: d0ca a1be 76c3 9b3e a1be 4f3e 90c6 31bd
000000f0: f5ca 0a3e a1b1 a73c 0b62 04be 2994 7e3e
00000100: 8941 7d3e 4193 8f3e bfaf be3d 7359 b5be
00000110: 9b20 a3bd 047d b6be e8e5 b13e c8fc a73e
00000120: 1d67 5a3e a3af 2ebe 3af2 cc3d c819 0abe
00000130: e1c5 833e 4d7d f03d 3d09 1b3d a0a7 e93d
00000140: 44ff 8f3e e6eb e2bd c6ef 64be 3548 0cbe
00000150: 060d 433d e8f3 0dbe ac02 bf3d ec2c f13c
00000160: d0a2 bf3c 1cbf 223e a8c9 aebe 120b 0fbe
00000170: e808 ac3c c59d 663e 1510 c5be d26b 4abe
00000180: 0f56 9dbe f7a5 c2be 9ab2 c43d 04c6 bf3e
00000190: c0e0 62bd 2fc3 48be 9534 3cbe ea09 e5bc
000001a0: 0910 2c3d 523c a13e 5e59 1c3e e315 99be
000001b0: cced 4abe 4b72 183e 78c7 88be 05f8 cdbc
0.2680627 -0.35363764 0.3924187 0.12239256 0.35518909 -0.09917531 -0.29346356 0.086957216
0.007540208 0.1448666 0.08417463 -0.16649948 0.18102288 0.30225548 -0.14798787 -0.08906742
-0.33480754 0.1396888 -0.24151404 0.30529824 -0.021653337 -0.35713398 0.14818387 -0.20622368
0.3213449 -0.08978149 -0.18647248 0.027529228 0.09126001 0.21111867 0.29160544 0.35332063
0.18943822 -0.27869287 0.31774 -0.041266724 -0.116386145 -0.03723516 0.32605308 -0.324883
-0.17900382 -0.18920343 -0.13548288 -0.2638346 -0.22982386 0.051341616 0.08045768 -0.39401683
0.19359106 -0.2849811 -0.21598029 0.35932088 0.26086262 0.27765402 0.1946125 0.3404365
-0.31600046 0.30422562 0.20287563 -0.043402255 0.13553984 0.020470442 -0.12928025 0.24861206
0.24732031 0.28042033 0.09310865 -0.35419807 -0.079652034 -0.35642254 0.34745717 0.32810044
0.21328397 -0.17059188 0.100071386 -0.13486397 0.25736907 0.11742649 0.037850607 0.11408925
0.2812444 -0.1108015 -0.22357091 -0.1369942 0.047619842 -0.13862574 0.093266815 0.029440366
0.023393065 0.15893215 -0.34138227 -0.13969067 0.02100034 0.22521122 -0.38488832 -0.19767693
-0.3072972 -0.38017246 0.09604378 0.3745576 -0.05539012 -0.19605707 -0.18379433 -0.027958829
0.04200748 0.31491333 0.15268466 -0.2989951 -0.19817275 0.1488735 -0.26714683 -0.025142679

ConvBase.1.feature.lis.2.X_conv.conv.bias f4 [16]
00000000: 3820 4bbd 4807 7c3e 0aaa 16be b335 1abe
00000010: b9dc 21bd 13d2 4e3e 4ef1 663e a76e bd3d
00000020: 5d90 313e a361 9fbd 1cdb ac3e e814 ba3d
00000030: 6f41 653c 57b6 edbd fcda ba3e df55 bbbd
-0.049591273 0.24612153 -0.14713302 -0.15059547 -0.03951714 0.20197324 0.22552988 0.09249621
0.17340226 -0.077822946 0.33760917 0.09086019 0.013992651 -0.11607044 0.36495197 -0.09147238

ConvBase.1.feature.lis.2.Y_conv.conv.weight f4 [16, 1, 1, 7]
00000000: 2ac6 173d a186 7c3e b52f 8fbe a38a f3bd
00000010: 685c 7f3d 601d adbe b427 ac3e 7d0f 803d
00000020: 08c3 a7be 590e d23d dc3d 80bb 9439 9fbe
00000030: 25b4 3a3e 8b5b 033e 4a40 f9bd ece2 473d
00000040: 0988 6dbe 5c78 843e 1110 9b3d 8f50 203e
00000050: 6371 26bc 5530 c0bd 2540 963e f990 623d
00000060: 6f38 b13e 3d5b 9cb9 0e73 e83d 5f3f a43e
00000070: 649f 803e 4d50 4a3e 771d 583e d304 03bd
00000080: 8238 083e b5ff 023e 704b 623e 0880 143e
00000090: 660c 80bd 3b05 c23d 6be8 d4be 393d 063e
000000a0: f662 a03d 4700 913e 241a 383e 3793 85be
000000b0: cba6 b5be 8300 553e 6382 bf3c 3151 a43e
000000c0: 5230 9fbc f1e0 06be 5e6b abbc b964 103e
000000d0: b14e 8bbe f28c a3be 9ec4 1abc 19ca da3d
000000e0: 3866 babe f3f9 df3d 31da b4be f0a3 86be
000000f0: 5703 8b3e df90 c63b 2bb1 97bd f53d 98bd
00000100: e581 bebe 4ee7 3cbe bd9c f33d 6668 073e
00000110: 1559 3fbe aca1 91be 3d62 afbd 1eec 223d
00000120: 492a 9b3e be40 113e a9fd d43d 73ac 893e
00000130: ab88 a1be 444d 5b3e af8f 82be d4ba 243e
00000140: 907f 1cbe 8068 30be d4af c1be c25b b13e
00000150: 834d 013e 8d3e 293e 830d 1fbd 1f24 77be
00000160: 9ceb 893d 52f4 993e 36b3 09be d395 a0bc
00000170: 65d5 3eb9 3a4c 5a3e 48b2 e63d 1131 cf3e
00000180: 8ce2 303e 271e 42be 8c04 5d3e 3bee 41bd
00000190: 67c2 13be 0f3d bbbd c235 8b3e b092 b53e
000001a0: 0eee 633e 2693 85be eea0 bc3d 25b5 b0be
000001b0: a2e5 81be 791b c73a 7c54 49bd f237 a83e
0.03705422 0.24660732 -0.27966085 -0.11891677 0.062343985 -0.33811474 0.3362404 0.06252954
-0.32765985 0.10256643 -0.003913624 -0.31098616 0.18232782 0.1282789 -0.12170465 0.048800394
-0.23196425 0.25873077 0.07571424 0.1565573 -0.010158869 -0.093842186 0.29345813 0.055314038
0.34613368 -0.00029822616 0.1135007 0.32079598 0.25121605 0.19757195 0.2110499 -0.031987023
0.13302806 0.12792857 0.2209909 0.14501965 -0.06252365 0.09473654 -0.4158357 0.13109292
0.07831375 0.28320524 0.17978722 -0.2608888 -0.35478815 0.20800976 0.023377603 0.32093194
-0.01943222 -0.13171746 -0.02092522 0.14100923 -0.27208474 -0.3194347 -0.009446291 0.10683078
-0.36406112 0.10936346 -0.35322717 -0.2629695 0.27150986 0.0060597504 -0.07406839 -0.07433692
-0.37208477 -0.1844761 0.1189513 0.13223419 -0.18686326 -0.28443658 -0.08563659 0.03977596
0.303057 0.14184853 0.10399944 0.2688938 -0.31549582 0.21416193 -0.25500247 0.16086894
-0.15283036 -0.17227364 -0.3782946 0.34640318 0.12627225 0.16527767 -0.038831245 -0.24134873
0.06734392 0.30069214 -0.1344727 -0.019602692 -0.00018199308 0.2131814 0.11264473 0.40467122
0.17273921 -0.18956815 0.21583766 -0.047346335 -0.14429627 -0.091425054 0.2718945 0.35463476
0.2225878 -0.26088828 0.092103824 -0.34513202 -0.25370508 0.0015190683 -0.049152836 0.32855183

ConvBase.1.feature.lis.2.Y_conv.conv.bias f4 [16]
00000000: b8e8 b63d 2635 293e 1a7a b0be 4528 bebe
00000010: eb19 7dbe bf0e adbc 79e1 263e 15ad 79bd
00000020: 760e c63d c896 ae3e ad12 e1bd 4633 a33e
00000030: 4ec0 91be 54d9 e03d 4bef ae3e 2693 933e
0.08931106 0.16524181 -0.34468156 -0.37140098 -0.24716918 -0.021125196 0.16296948 -0.06095608
0.09670727 0.34099412 -0.1098989 0.31875056 -0.2846703 0.10978952 0.3416694 0.28823203

ConvBase.1.feature.lis.2.pointwise.weight f4 [16, 16, 1, 1]
00000000: 24f4 c3bd 226b b8bd fc2b 5b3e 749f 5f3e
00000010: 1ab0 713e 138b 783b f0ec e93d 1beb ec3d
00000020: 36bc 62be 6de5 143c 2a78 0b3e 3806 443e
00000030: 9eec 143e f2c2 6dbd bea4 57be 9ca5 44be
00000040: 73b7 323e 66ac 08be 71c8 0e3e 61eb c43d
00000050: 37fc e6bd 46b0 64bd fd41 a93c f01e 043c
00000060: 58ae 933d eb39 ca3c e7fc 24be d078 01bb
00000070: 7644 85bd 3dbc 3bbd c823 573e 15fd 19be
00000080: 5c10 4fbe 2eab 2f3e b07c 563e 2dcc 7e3e
00000090: c1e8 36be 42e0 423e 958e ec3d 34ce 90bc
000000a0: 98c3 013e 13d5 ea3d b6b0 a73d ef3f 933d
000000b0: 6c89 263e 9af0 233d c245 44be 5095 08be
000000c0: 4ffb 7fbe 440b 32be 514b 193c 3005 263d
000000d0: ea23 223d 351e 24be 2bd2 73be 2f5b 73bd
000000e0: 7c48 6e3e 6e7a ebbd 10bd 0e3e 42d9 84be
000000f0: 2cb3 fd3d 5484 7a3e ab00 96bd 2343 3fbe
00000100: ea6d 94bd 98f8 413e 9f89 84be 2910 503e
00000110: 2d95 c8bd 8d5f f5bd dc59 1e3d 385d 91bd
00000120: faa6 603d a447 2c3e 63b2 4cbd 8465 5abe
00000130: d191 24be dbaf d2bd 00bb 6fbc 2d2e f23d
00000140: 8714 d13d d795 2fbd 829a cd3d e0af e8bd
00000150: 03e5 5e3e 845a 7d3e a368 3f3e 98ca af3d
00000160: 9268 873e 84fd afbd f8af 733e 4c53 a53a
00000170: aa16 023e 6b90 033d 97db 233e 42f1 6ebe
00000180: 00cb 023e 16b0 d73d d3f0 a63c 1164 d7bd
00000190: 44c2 01be a279 debd 57d0 dfbd 7424 363e
000001a0: a8eb 853e 02dd 353d 573f 3bbe dd4e 30be
000001b0: a89f 793e 7ca5 93bd 8c79 983d f9d8 cd3d
000001c0: f18f 113e 16e8 e93d 05f2 cfbc 87c2 6c3d
000001d0: 9d61 4abd 1085 b8bd 0515 a03d ffb8 09be
000001e0: d247 f33d b49b d93d 8acf ee3a 2594 6a3e
000001f0: 2f18 923d e8c7 01bd e509 93bd 1324 d53d
00000200: dec0 5fbe 8d65 213e a8a3 1e3e 913e 013e
00000210: 53ac 36be 8021 7a3d 5296 68bd 00dc 3f3e
00000220: fd35 2aba 0932 a63d 94f3 7bbd de42 b5bd
00000230: 665d 4f3e 52ce 853e 4238 d9bd a281 e8bd
00000240: f44d bdbd d31c 543e 645c 81bd 9267 153e
00000250: 81ea a23d bd68 9e3d 311a 803e 7d8b 5dbe
00000260: 1830 ae3d 159b 703e 8650 463e c3af 373d
00000270: 1248 173e 67e4 cdbd 4382 0abc 0687 033e
00000280: adec 60be 4272 953d 37cb a63c b86d 133e
00000290: 2c21 2d3d c3d8 ecbd f82e 133d 3adf 753d
000002a0: 8a61 4d3e 6920 3dbd 21e8 483e 7a67 5c3c
000002b0: 8faf 713e 45a9 09be 14cf 1dbe 33fa 553e
000002c0: d64b 79be d332 13be 8742 833e 81db dabc
000002d0: fd75 48be e1f9 5fbe f2d4 69be ca88 4a3c
000002e0: d13c 09be fc8e e2bc 00a1 a93c d91f 643e
000002f0: 4071 08be b73f c43d 2fdf d73c d2aa ca3d
00000300: d8c1 c63c 4222 813b ee88 153d 9bdc 7dbe
00000310: fa54 d83c 0b15 21be 3049 cb3d b777 37be
00000320: 2072 893d cf0b e1bd 69bc 11be 38a4 313e
00000330: 7193 adbc 461a 8fbd 74af 2d3d c113 0c3d
00000340: 8cfc 47be 254f fc3c 3314 1cbe b605 89be
00000350: 54bf 4ebd 9f33 5dbd 9dd4 973c 04ae fd3d
00000360: 4321 6f3e ac07 4d3e bc0c 243e 65c6 64be
00000370: 1c9c 843e 33da 31be 6a45 d43d 0395 84be
00000380: 9b79 093d b8f1 e1bd 3545 683e 9433 49be
00000390: 7d4b 76bc a7f2 1d3e acc3 e23b dc94 2dbe
000003a0: cf58 82bb 0eb9 4dbe fffa 1bbe ce30 8abd
000003b0: 08ce 4ebe 7780 0cbe 5e76 143d 3c91 c43d
000003c0: 7bbf 833e 5b85 583d ea3e fdbd e47d 7dbe
000003d0: 155a 95bd 5c6c 2c3e 778f f1bc c350 7f3d
000003e0: 2beb 89bd 0a0b 55be 8e58 88be 8360 f03c
000003f0: e282 0fbe b504 c1bd c983 6a3e fdfd 1e3d
-0.095680505 -0.09004809 0.21403497 0.2183817 0.23602334 0.0037924692 0.11422145 0.1156828
-0.2214211 0.0090879025 0.13620058 0.19142997 0.14543387 -0.058047242 -0.21058938 -0.192038
0.17452793 -0.13347015 0.1394365 0.096152075 -0.11278575 -0.05583217 0.020661348 0.008064017
0.07210988 0.02468582 -0.161121 -0.0019755848 -0.065071985 -0.045833815 0.21009743 -0.1503795
-0.20221084 0.17155144 0.20946002 0.24882574 -0.17862226 0.1903086 0.11550633 -0.01767645
0.1267227 0.11466422 0.08188002 0.07189929 0.1626336 0.040024377 -0.19167235 -0.13338208
-0.2499821 -0.1738711 0.009356336 0.04053229 0.03958503 -0.16027148 -0.23810641 -0.05941313
0.23269838 -0.11497961 0.13939309 -0.25947005 0.1238769 0.24464542 -0.07324346 -0.18677954
-0.07247527 0.18942487 -0.25886247 0.20318665 -0.09794078 -0.119811155 0.038659915 -0.07097858
0.05484674 0.16824204 -0.04997481 -0.21327788 -0.1607125 -0.10287448 -0.014631987 0.118252136
0.102089934 -0.042867508 0.10039236 -0.113616705 0.21767049 0.2474156 0.1869226 0.085835636
0.26446968 -0.08593276 0.23797596 0.0012613325 0.12703958 0.03212015 0.16001736 -0.2333422
0.12772751 0.105316326 0.020378506 -0.10517133 -0.12671763 -0.10863043 -0.109284095 0.17787343
0.26156354 0.044400223 -0.18285881 -0.17217584 0.2437731 -0.07209298 0.07445058 0.1005115
0.14215066 0.1142122 -0.025383959 0.057802703 -0.049409498 -0.09009755 0.07816509 -0.13449477
0.11878933 0.10625401 0.001821981 0.22908075 0.07133519 -0.031684786 -0.071796216 0.10407271
-0.21850917 0.15761395 0.15492117 0.12621523 -0.17839174 0.061067104 -0.05678398 0.18736267
-0.000649303 0.08115012 -0.06151159 -0.088506445 0.20250472 0.26133972 -0.106064335 -0.113528505
-0.09243384 0.2071412 -0.0631645 0.1459029 0.07954884 0.07734821 0.25019982 -0.21635242
0.08505267 0.23496659 0.19366655 0.044845354 0.14773586 -0.1005333 -0.008453908 0.12844476
-0.21965285 0.072971836 0.020360572 0.14397323 0.042267963 -0.115647815 0.035933465 0.06002734
0.2005674 -0.046173487 0.196198 0.013452405 0.23602127 -0.13443477 -0.15411025 0.20896225
-0.24345335 -0.14374857 0.25636694 -0.026715996 -0.19576259 -0.21872665 -0.22835138 0.012361715
-0.13402106 -0.02765607 0.020706654 0.22277774 -0.13324451 0.09582465 0.02635154 0.09895863
0.024262354 0.0039408514 0.03650754 -0.24791186 0.026407707 -0.15730684 0.09926069 -0.17916761
0.06711221 -0.109885804 -0.14232029 0.173478 -0.02118847 -0.06987433 0.042403653 0.034198526
-0.19529933 0.030799458 -0.1524208 -0.2676217 -0.050475433 -0.054004308 0.018534 0.123867065
0.23352532 0.20022458 0.16020483 -0.22341307 0.25900352 -0.17368393 0.10364802 -0.25894937
0.033563238 -0.11032432 0.2268265 -0.19648582 -0.015032646 0.15424596 0.0069202986 -0.16951317
-0.003977872 -0.20090124 -0.15232466 -0.0674759 -0.20195782 -0.1372088 0.036245696 0.09598014
0.25732026 0.052861553 -0.123655155 -0.24755055 -0.072925724 0.16838211 -0.029487355 0.06233288
-0.06734308 -0.20804992 -0.26630062 0.029342895 -0.14014772 -0.09424726 0.22901835 0.03881644

ConvBase.1.feature.lis.2.pointwise.bias f4 [16]
00000000: 7dbd 443d 9972 86be 7506 7bbd 5689 1b3d
00000010: 16fc 3d3c 9545 e4bd 917d 30be acb6 333e
00000020: 2ab6 3e3e 755e 823c 505d c0bb e62a fdbc
00000030: cc8b f2bd 78c4 ec3d e865 47be a1f3 35bd
0.048032273 -0.26259306 -0.061285455 0.03797277 0.0115957465 -0.11146084 -0.172354 0.17550153
0.18624178 0.015914181 -0.0058704987 -0.030904245 -0.118430704 0.11560911 -0.19472468 -0.044421796

ConvBase.1.feature.lis.3.X_conv.conv.weight f4 [16, 1, 9, 1]
00000000: 63d9 92bd b731 433d 4f3f a43e fd06 8fbd
00000010: 73f6 55be 971f 743e d9e9 a3bd c04c 47be
00000020: 422d 6c3e 9b96 1a3e 2178 863e 285a 6abe
00000030: b3b0 943d 25dc 15be c91b d73d cd8b 9abe
00000040: e0de fcbd dc76 1fbd ff93 873e 52d4 863e
00000050: 24ac 973e ffa8 6d3b 8119 8f3d 244c 7b3e
00000060: 9099 9f3e 213e 2b3e 7fce 68be 71ec 4fbe
00000070: 8093 82bd e832 a5be d2e2 023e d723 973e
00000080: 07ea 613d c455 13be 529b a83e abab 283d
00000090: 8a28 ee3d cd33 1bbe 0eb5 ac3e be0b 05be
000000a0: aeb2 a03e f470 883e 1258 ccbd a6b9 fa3d
000000b0: 3304 29be c086 823e ff40 893e 9ce3 983e
000000c0: 3f0b 02be 3350 163e 6015 153d d94a 22be
000000d0: 3b1a a0be 4ed4 763e 35cd 0abe 9164 513e
000000e0: 36a7 443e 8cc2 0bbe ee63 45be 4774 4f3e
000000f0: 77a5 8a3e a465 9e3e 4761 11be c62b 47be
00000100: e2a1 a53e fe09 443e ec54 413e 2c04 833e
00000110: 621f 243e 7958 ee3d 40a1 b5be b8de 573e
00000120: db80 06be d6b0 bb3d f7dc 2bbd be6b 18be
00000130: 5046 7f3e 5b55 8bbe bbf0 eabc 4dd4 06be
00000140: 3f6c 3cbe a1fa 8bbe a1a1 89be b40a 7cbe
00000150: b853 1ebd 5c03 5c3e 8d8c c53c 1bb1 5dbe
00000160: 1d08 9fbe 0a92 313e 26d9 9d3d de37 0abe
00000170: eb98 8a3e d9c0 813e 57e8 9cbe 7813 acbd
00000180: 7569 23be a126 943d 24e8 a33e 4bce 3d3e
00000190: bcdf 2d3e 359d 3abe 9404 45bd f2b1 8b3e
000001a0: 516b bcbe 7bd3 7ebe a10d 36be e877 9f3c
000001b0: 6d95 27be 5111 dabd b01a 473d e704 88bd
000001c0: 135e 2ebe e6d5 7abe 4b7f 2b3d 432a 6bbe
000001d0: 632a 353e 0049 9e3e 73df 66be 14c1 2fbe
000001e0: 14f5 9c3c 7521 b0bd 94d2 f1bd 374a 8d3d
000001f0: 0549 4d3e e412 053e bce0 893c 7fdf 72be
00000200: ff78 8dbe d092 3fbd 113b 923d db90 fd3c
00000210: 23b6 943e d963 abbe e50e 83be d849 833e
00000220: f788 72be 70ea bb3c b3bd c83d fa69 51be
00000230: 4a33 08bc 4544 8b3e 844b 31be a7d9 873e
-0.071703695 0.047654834 0.3207955 -0.06983755 -0.20894794 0.23840176 -0.08003587 -0.19462872
0.2306414 0.15096514 0.26263526 -0.22885954 0.07260265 -0.1463476 0.105033465 -0.30184785
-0.123471975 -0.038931713 0.264801 0.26333863 0.2962352 0.003626406 0.06987286 0.24540764
0.31171846 0.16722919 -0.22735022 -0.20305039 -0.0637579 -0.322654 0.12781838 0.2951953
0.055154826 -0.14388186 0.32931 0.04117934 0.11628826 -0.15156479 0.33731884 -0.1299276
0.31386322 0.26648676 -0.099777356 0.12242441 -0.16505508 0.2549343 0.268074 0.29861152
-0.12699603 0.14679031 0.036397338 -0.15848865 -0.31270012 0.24104425 -0.13554843 0.2044852
0.19204411 -0.13648432 -0.19276401 0.202592 0.27079365 0.3093692 -0.14197265 -0.19450292
0.3235007 0.19144437 0.18880051 0.2558912 0.16027597 0.116379686 -0.35474586 0.21081054
-0.13135092 0.09164588 -0.041958775 -0.1488485 0.24929166 -0.2721356 -0.028679242 -0.13166924
-0.18400668 -0.27339652 -0.26881126 -0.24613458 -0.03865406 0.21485656 0.024114871 -0.21649592
-0.31060877 0.17340866 0.077074334 -0.13497874 0.27069792 0.25342444 -0.3064601 -0.08402151
-0.15958197 0.072339304 0.32013047 0.18535726 0.16979879 -0.18224032 -0.04810007 0.272842
-0.36800626 -0.24885361 -0.17778637 0.019466355 -0.16365595 -0.10647834 0.048609436 -0.0664156
-0.17028074 -0.24495658 0.041869443 -0.2296534 0.1769195 0.3091507 -0.22546177 -0.17163497
0.019159831 -0.086001314 -0.11807743 0.06898921 0.20047386 0.12995487 0.016830795 -0.2371807
-0.27631375 -0.04677087 0.07140172 0.030952862 0.2904521 -0.33474615 -0.255973 0.25642276
-0.2368506 0.022938937 0.09801807 -0.20450583 -0.0083130095 0.27200523 -0.17313963 0.26533243

ConvBase.1.feature.lis.3.X_conv.conv.bias f4 [16]
00000000: 6966 a2bd be81 7cbe 40de 523e 80c9 9c3d
00000010: 5c83 d63d 169a af3d 4b6d 92be 2b05 673e
00000020: 9a90 6d3e d113 153e 1bf9 873e 33ac 223e
00000030: c440 953e a255 ba3d cd2a 5fbd 1f20 8ebc
-0.079296894 -0.24658868 0.20592594 0.076556206 0.104742736 0.085743114 -0.2859901 0.22560565
0.23199692 0.1455834 0.2655724 0.15886001 0.29150975 0.090983644 -0.054484177 -0.0173493

ConvBase.1.feature.lis.3.Y_conv.conv.weight f4 [16, 1, 1, 9]
00000000: eba3 acbe 8a88 87bd a1ae a0bc 419e a9be
00000010: 9449 29bd dfe4 973e 1a2f 3d3e 8ba2 17be
00000020: 37ae 10be 1024 de3d 0a98 c4bd f1a4 02be
00000030: 1b1a bd3c eed9 39be b854 2dbe 4b70 803e
00000040: 83d1 b53c 7246 51be 737f 73bd 0c48 413e
00000050: 1601 a43e a488 83be d998 013e 1f3e 163e
00000060: d324 2ebe e818 d33d 76ef 583e e3b3 863e
00000070: 2ac3 353d d075 10be 807b 0cbe b73c 433e
00000080: ab7d 82be 562a 7f3e db8a aabe 2cea 733d
00000090: 2eb4 3c3e d928 43be 6a6d 05be e4b3 173d
000000a0: 983c 03be 3bf1 c4bc 770f 2ebd a401 abbc
000000b0: fa39 a8bd caad 813e 085d dbbd 7d1a b53b
000000c0: 4cec 303e f07f 153d e1a2 1dbd 32b1 8b3e
000000d0: 0a1e 753e 8374 9ebe c696 86be 3031 123e
000000e0: f02d a13d 5e91 a4bd 8620 8b3e bbd6 003e
000000f0: 793b 99be fc49 2e3e b6af 50be f0af 3bbe
00000100: 9a3e 3c3e 0cd4 7dbe a0cf 353e f389 983e
00000110: 19bd 92be f4b4 21be 8432 a83e e591 67be
00000120: 7f36 873e fc54 1fbe f9a5 3d3e 8de9 83bd
00000130: c8bb 65be 6286 973c 7cc0 f03d e897 7c3c
00000140: 9999 a6be 8983 073e 22c9 283e b12a 89bd
00000150: 4aec 0fbe b1b4 2f3e cefd 33be 296f 1c3e
00000160: b195 1cbe 0c46 8e3d 94f8 4e3b 5fb5 173e
00000170: 49b0 8bbc 7bad 8e3e 6f93 3f3e 7611 fe3d
00000180: b2ed 0ebe d370 963d c8bf ac3e af8c 213e
00000190: 2682 b5bd d136 05be af0f 8dbc 44a6 5a3e
000001a0: ac36 3d3e fc34 9cbe 0c8d 9d3e 7677 d83c
000001b0: 1c90 46bd 3ba5 983e 2864 3f3e 0922 b4bd
000001c0: d98f 1c3e eb6d 843e 5614 18be a090 90bd
000001d0: 5a33 123d 96d8 853e c91b c33d ad7e 473e
000001e0: 471b 77bd 4aa2 083e 0586 b53c 0d1c 56bd
000001f0: 9d55 ff3d dcc8 fd3d a1e9 09be ca00 00be
00000200: f715 c1ba 6016 71be 36ce 653e 646e 603e
00000210: 52fc 7f3e ae34 41bd 0105 9a3d 53a1 4e3e
00000220: e455 f8bd 905a 1dbe cda5 2e3e f503 9a3e
00000230: a955 46be 1999 62be 35d3 51bd 18fa 5ebe
-0.3371881 -0.0661784 -0.01961452 -0.3312855 -0.041329935 0.29666802 0.18474999 -0.14808099
-0.14128958 0.10846722 -0.09599312 -0.12758233 0.023083737 -0.1814954 -0.16926849 0.25085673
0.02219463 -0.20437029 -0.059447717 0.1887514 0.32032079 -0.25690186 0.12655963 0.14672135
-0.17006235 0.10307485 0.21185097 0.26309118 0.044375576 -0.14107442 -0.13718987 0.1906613
-0.25486502 0.24918494 -0.33309063 0.059549496 0.18428108 -0.19058551 -0.1303002 0.03703679
-0.12816083 -0.024040809 -0.042495217 -0.020874806 -0.08214183 0.25327903 -0.10711104 0.0055268393
0.1727764 0.036498964 -0.03848541 0.27283627 0.2393724 -0.30948266 -0.26286906 0.14276576
0.0787009 -0.08035539 0.2717325 0.12581913 -0.29928187 0.1702041 -0.20379528 -0.18328834
0.18383256 -0.2478792 0.17754984 0.29792747 -0.28659895 -0.15791684 0.3285104 -0.22614248
0.26408765 -0.15559763 0.18520345 -0.06441031 -0.22434914 0.018496696 0.117554635 0.015417077
-0.3253906 0.1323377 0.16482976 -0.06697596 -0.14054981 0.17158772 -0.17577288 0.15276779
-0.15291478 0.06946954 0.003158127 0.14815281 -0.017051833 0.2786673 0.18708585 0.12405674
-0.13957861 0.07345738 0.33740067 0.15776323 -0.088627145 -0.13009192 -0.017219393 0.21352488
0.18477887 -0.30509174 0.30771673 0.02642415 -0.048477277 0.2981356 0.1869055 -0.08795554
0.15289249 0.2586511 -0.14851508 -0.07058835 0.035693504 0.26141804 0.09526784 0.19481917
-0.060328748 0.13343158 0.022158632 -0.052272845 0.12467501 0.123918265 -0.13468029 -0.12500301
-0.0014731277 -0.23543692 0.22441944 0.2191711 0.24998596 -0.04716938 0.07520486 0.20178728
-0.12125757 -0.15366578 0.17055435 0.30081144 -0.19368614 -0.22128715 -0.051226813 -0.2177509

ConvBase.1.feature.lis.3.Y_conv.conv.bias f4 [16]
00000000: ad2f b53d dc33 25be 3b63 1b3e 5bde d1bd
00000010: d16a 8dbe 7cdd 00be fb58 833d 8869 66be
00000020: 3211 003e 7fc2 dabd 4568 773d 923b 1c3e
00000030: 27b5 e83d 5f9d dcbd cf64 163e ac42 663b
0.08846984 -0.16133064 0.15174572 -0.10247489 -0.27620557 -0.1258449 0.06413456 -0.22501194
0.1250656 -0.106816284 0.060402174 0.152571 0.11362677 -0.10772204 0.14686893 0.0035134954

ConvBase.1.feature.lis.3.pointwise.weight f4 [16, 16, 1, 1]
00000000: a4b4 cb3d fe92 7dbb 7351 3b3d 60f8 8abd
00000010: b9cf 4b3d 532d 82bb 7af2 8bbd 648c a73d
00000020: 3150 ca3d db86 043d 22ea be3d d7ff d83c
00000030: 3b05 4abe d297 03be efe2 13bd fe72 d03d
00000040: c9e5 813e b61f 95bd 81ff 9ebd 2304 053e
00000050: 49fd bb3d 0616 853d 5b7e 713e cd3d 1b3e
00000060: 6618 27be 3174 d1bd 8a34 813d ec9f 8c3e
00000070: 22db 213c baf1 4b3e a738 9b3d aa82 a6bd
00000080: 0f7d cd3d fee3 a0bd 0116 7dbe 105a e83d
00000090: 12f0 3fbe 7d73 cf3d be68 2fbe 9443 433e
000000a0: 1813 b0bd 0071 12bc 834b 30bd b237 80be
000000b0: a2c9 093d 2cb7 a53c b762 2cbe 098e 34be
000000c0: 6255 c33d aca0 debd c653 3bbe 1ff8 ccbd
000000d0: aacf 0abe c854 1f3d 5fc6 1dbe e455 49be
000000e0: 7f53 bd3d d15b 69bc c51d 223e 5de9 3b3e
000000f0: 3189 ab3b 3af1 1cbe b694 663d ede7 043e
00000100: b54c 31be e93e 393e 3f29 7b3d 1581 873c
00000110: 8c66 27bd 7217 e0bd 2399 3b3e cfdf 603e
00000120: 589c a0bc 7d66 4bbd 386a 113e 6564 b53d
00000130: 48be d73d 5119 b7bd 9177 39be 69d7 69be
00000140: c0ea 6ebe c772 863c fa11 2bbe b0cd c0bd
00000150: fee9 4d3e 310e 0abd ad81 63be f20e 7fbc
00000160: c1a4 9bbd b5a4 6e3c 97a9 c1bd a004 c8bd
00000170: 0c19 38be 0052 6fbe ef2f e7bd 4817 0fbd
00000180: cfc2 c6bc 366f dcbd 3039 2a3e 515e 94bd
00000190: f94e 1e3e 1ddf 3c3e 922f 373e 6c5f 42be
000001a0: 4d2f 6abe 94d2 d4bc 7bec 103e 8767 4cbd
000001b0: 2a10 7e3e 729d 35be 55ae 4e3e 76d6 1dbc
000001c0: a102 2c3e 6f31 5cbe b656 ba3b 7465 dbbd
000001d0: 66fd ebbc 8169 fcbd b63b e53d 0b86 28be
000001e0: 560e 29be 164a d13b 4607 31be ca63 e63d
000001f0: b3f6 93bd ff20 d2bd 4694 243e cb7f 253e
00000200: 65fb 27be 5c17 cabc 88cb 813e 898d eb3c
00000210: 0459 11be 56a9 d0bd bda4 22bd b6d3 223e
00000220: d97e 77be 5446 843d 2feb 9cbc e7bd 7ebe
00000230: eb1c 8c3c eaea 3d3e 7a52 bf3d 4030 cbbd
00000240: edd4 323d 6f24 edbd 9d0e 2ebc 730f a2bc
00000250: 247a 853e f92f 26be e664 0bbe 6903 f73c
00000260: f1c8 9e3b 74b6 00bd 87be 4d3e b2fe 4b3e
00000270: 36e9 103c 80d2 82be a996 683e 08c3 f73d
00000280: 3f51 033e 5348 7bbd e5d2 133e 8253 ca3d
00000290: a334 1a3d 8e5c 473d 3a64 343e 0ea7 33be
000002a0: 9cdd cbbd 67f8 393d eb11 4e3e d842 6e3d
000002b0: 888e a2bd f8fe cc3c 4116 e3bc baa3 213e
000002c0: 765e 1e3e f954 883d b91e 503d b8b8 14bd
000002d0: 37fc 7cbd 0d7e 233e 9324 23be 46bf 76be
000002e0: 84fb 303e 9fad 0bbe af26 7c3e 7c71 acbd
000002f0: 9950 89bc 48f0 5d3e d49c 2d3e c619 443e
00000300: 3992 78be 8434 533d e3fd 5cbe 376b 893d
00000310: 4502 ba3d 33f3 533e 9bbe 49be cc0e 293e
00000320: 7dd5 473e b97b 843b 2ebc 0fbd 7b13 493e
00000330: b711 0ebd fe04 6cbe f323 3f3e c898 d53c
00000340: 5c5f 8e3d bbc8 f13d 83a3 0a3e c040 d73d
00000350: e7c6 2e3e d5ce 13be 9f6b b9bd bfff c3bd
00000360: 01cb eb3d 9017 35be 5e01 ba3d 8cc8 35be
00000370: d6b3 94bd 0722 97bb 816a 0dbd df27 e4bd
00000380: 2b16 cb3d 13ab b63c 1207 653e eb6d 443e
00000390: bf92 2f3e e442 5bbe 71be b03d 109e 473e
000003a0: 0cf6 36ba ec12 46be 8f03 7c3e 721e 823c
000003b0: d31c 02be 42d1 273d edea 773e e851 0b3e
000003c0: 962e 7dbc d099 043e eec9 0d3e bcd2 4e3d
000003d0: 8fb7 61be b1d6 53be daf7 25be 69ec 49be
000003e0: 79ed 533c b24b 20bd a5a2 103e 415c c33a
000003f0: 7b54 02be 0479 56be f06d e13c cb3a 4b3e
0.09946564 -0.003869235 0.045731973 -0.06785655 0.049758647 -0.003972688 -0.06833358 0.08181074
0.098785765 0.03235517 0.09322001 0.026489181 -0.19728558 -0.12850884 -0.036105093 0.10178183
0.25370625 -0.07281439 -0.07763577 0.1298986 0.0917917 0.06498341 0.23583357 0.15160294
-0.16317901 -0.1022724 0.06308849 0.2746576 0.0098789055 0.1991643 0.07579165 -0.08130391
0.10033619 -0.07855986 -0.24715425 0.11345303 -0.18743923 0.101294495 -0.171298 0.19068748
-0.08597392 -0.008938074 -0.043040764 -0.25042492 0.033639558 0.020228945 -0.16834532 -0.17632307
0.0953777 -0.108704895 -0.18293676 -0.10008263 -0.1355578 0.038899213 -0.15407704 -0.19661671
0.09244441 -0.014243082 0.15831669 0.1835074 0.0052348603 -0.15326396 0.056294166 0.12979098
-0.17314418 0.18090405 0.061318632 0.016541043 -0.04086928 -0.10941972 0.18320136 0.21960376
-0.0196058 -0.049658287 0.14200675 0.08857039 0.1053434 -0.089403756 -0.18112017 -0.22836079
-0.23331738 0.016412152 -0.16706076 -0.09414232 0.20108792 -0.03370494 -0.22217436 -0.015567528
-0.07599784 0.014565636 -0.09456175 -0.09766507 -0.17978305 -0.23371124 -0.112884395 -0.034934312
-0.024262814 -0.10763399 0.16623378 -0.07244552 0.15459813 0.18444486 0.1788924 -0.18981713
-0.22869606 -0.025979318 0.1415271 -0.04990342 0.24810854 -0.17735842 0.2018369 -0.009633651
0.16797878 -0.21503232 0.0056866063 -0.1071271 -0.028807353 -0.12324811 0.111930296 -0.16457383
-0.16509375 0.0063870056 -0.17287931 0.11249502 -0.072247885 -0.102602 0.16072187 0.1616203
-0.16404493 -0.024669342 0.25350595 0.028754013 -0.14194113 -0.10188548 -0.039707888 0.15901074
-0.24169482 0.064587265 -0.019155113 -0.2487713 0.017103633 0.18546644 0.09341903 -0.09921312
0.043660093 -0.11579215 -0.010623601 -0.019782757 0.26069748 -0.16229238 -0.13612708 0.030152993
0.0048457314 -0.031424 0.20092212 0.19921377 0.008844664 -0.25551224 0.22713722 0.12097746
0.12823962 -0.06134827 0.14435919 0.09879209 0.037647855 0.04867225 0.17616358 -0.17544195
-0.09954378 0.04540291 0.20124023 0.058169216 -0.07937342 0.025023922 -0.027720572 0.15785113
0.15465721 0.06656832 0.05081055 -0.036308974 -0.06176397 0.15966053 -0.1593192 -0.24096403
0.17283446 -0.1364045 0.24624132 -0.08420083 -0.016762065 0.21673691 0.16954356 0.19150457
-0.2427453 0.051563755 -0.21581225 0.06709903 0.09082464 0.20698242 -0.19701616 0.16509551
0.19515033 0.004043069 -0.03509157 0.19636337 -0.034684863 -0.2304878 0.18666057 0.026073828
0.06951782 0.118058644 0.13538937 0.10510397 0.17068063 -0.14434369 -0.0905373 -0.09570264
0.11513329 -0.1768477 0.09082292 -0.17752284 -0.072608635 -0.0046122107 -0.0345254 -0.11140417
0.099163376 0.022298371 0.22365978 0.19182555 0.17145823 -0.21412235 0.08630074 0.1949389
-0.0006979413 -0.19343156 0.24610732 0.015883658 -0.12706308 0.04097105 0.24210711 0.13605464
-0.0154530015 0.129493 0.13846561 0.05049394 -0.22042678 -0.20687367 -0.16207829 -0.1971909
0.012935036 -0.03913469 0.14124544 0.0014904813 -0.12727539 -0.20944601 0.027518243 0.19846646

ConvBase.1.feature.lis.3.pointwise.bias f4 [16]
00000000: 50f4 823e 6fa3 e23d e185 f7bd d16b 40be
00000010: e0c0 d5bb 045d 393e fd47 253e 5c8f 5c3e
00000020: dce1 22be 9bc9 d0bd 4a26 18bc b83a 2b3d
00000030: e3e4 e2bd b962 23bd e4f8 a83d 77d3 4f3e
0.2557702 0.11066329 -0.12086082 -0.18791129 -0.0065232366 0.18101889 0.16140743 0.21539062
-0.15906471 -0.10194703 -0.009286473 0.041804045 -0.11078813 -0.03988907 0.08250597 0.20295511

ConvBase.1.feature.bn.weight f4 [16]
00000000: 84b2 7a3f 05c1 5f3f 46bd f63e 6b85 073e
00000010: 0f54 2b3f 9869 1a3f 3e18 643f 0f8d 033f
00000020: 1755 733f 11b4 253f f0e2 793e 570e 073f
00000030: e5bb 4e3f 575a 103e deac 5b3e e4ea 953e
0.97928643 0.874039 0.4819128 0.13234489 0.6692514 0.60317373 0.8909949 0.51387113
0.9505171 0.64727885 0.24402976 0.52756256 0.80755454 0.14096962 0.21452662 0.2928077

ConvBase.1.feature.bn.bias f4 [16]
00000000: 8e0c 97bb 8eb3 483c 5f29 31bc 76c6 233d
00000010: dca5 8ab9 ca23 81bc f22f 163c c168 003d
00000020: a5b3 d1bc cea9 ba3c 6494 c03c 1735 913c
00000030: 3008 143d 3e63 de3c 0686 393d 7c3c 2f3b
-0.004609651 0.01224984 -0.010813086 0.03998419 -0.00026444986 -0.015764136 0.0091667045 0.0313499
-0.025598357 0.022786047 0.023508258 0.01772551 0.03614062 0.027146932 0.04529383 0.0026738932

ConvBase.1.feature.bn.running_mean f4 [16]
00000000: 623f 773e c02e 0dbe c056 a43c aad3 c1be
00000010: 0c53 3fb9 a72f a1be 9f7d 06be 5ffd bf3e
00000020: 8250 abbe 7d24 ca3d dcd1 bebd 993e e1bc
00000030: b492 70bd 60e9 3c3d e424 773b a79f 113d
0.24145272 -0.13787365 0.020060897 -0.378568 -0.00018246117 -0.31481668 -0.13133858 0.37497994
-0.3345986 0.09870241 -0.09317371 -0.02749567 -0.058733657 0.046121 0.0037711198 0.035552647

ConvBase.1.feature.bn.running_var f4 [16]
00000000: f39d 163b e02f f53a e265 4c3b ac50 333b
00000010: 9e20 063b bae4 8f3b 9533 733b 3f8f 743a
00000020: 1d2f 5e3b 8cda 0d3b 51fe e43a fd79 3c3b
00000030: 11c3 1f3b 964d dc3a bca7 2f3b 362f 203b
0.0022982329 0.0018706284 0.0031188657 0.0027361317 0.0020466219 0.00439128 0.0037109603 0.00093292067
0.0033902593 0.0021645157 0.0017470812 0.0028759234 0.0024377743 0.001680779 0.0026802858 0.0024442202

ConvBase.1.bn.weight f4 [64]
00000000: 555c df3e 3669 cf3d 4b16 f43d 5321 9e3d
00000010: d3e2 bd3e 515d 423f e1d9 653f 9d4f a7bb
00000020: 756f 313f 4693 643f b038 833e 88e4 0d3f
00000030: b2de 393d 0021 033e f47b 483f bff6 423f
00000040: 0ae2 473f 0a04 4f3f 79a8 4b3f 18c8 cf3e
00000050: 7c5c b53e 4e4d 553f 4df9 183f 7ceb 883e
00000060: 94b3 5a3f a86f 1f3f d3d5 fa3e 95e1 133f
00000070: 9658 503f 4423 c23e ddfe 983e 1e15 6f3f
00000080: f1c6 313f beb2 c83e bdaa 053e c23b 703f
00000090: 20ef 923e eef3 503f 1847 983e ff18 eb3e
000000a0: 5cb6 b63e 6006 3b3f 1428 a03e e194 023e
000000b0: 8b27 963d ef5e e63e 66ac 3d3e 2e9f 4d3f
000000c0: 4301 403f 28c3 fc3e 18db 8b3e 5a22 2e3f
000000d0: 7357 a43e ad52 7c3f 5e0b 78bb 306c 6e3f
000000e0: ead7 703f 3d69 613e 4011 983e 4e08 2b3f
000000f0: e567 ed3e 5cff 133e f26e 5c3f de10 363f
0.4362513 0.10127489 0.119183145 0.077212 0.37087116 0.7592364 0.8978558 -0.005105926
0.69310695 0.8928722 0.25629187 0.55426836 0.045378394 0.12805557 0.7831414 0.76157755
0.78079283 0.8086554 0.79553944 0.40582347 0.35422122 0.8332108 0.597554 0.2674216
0.85430264 0.6227975 0.4899126 0.57766086 0.8138517 0.3791753 0.29881945 0.933916
0.69444185 0.3919887 0.13053413 0.93841183 0.28698063 0.8162221 0.2974174 0.45917508
0.35686004 0.730566 0.31280577 0.12752105 0.07331761 0.44994304 0.18522796 0.80321014
0.75001925 0.49367642 0.27315593 0.68021166 0.32097968 0.98563653 -0.0037848572 0.9313383
0.9407946 0.22012801 0.2970066 0.66809547 0.46368328 0.1445288 0.8610679 0.7111949

ConvBase.1.bn.bias f4 [64]
00000000: 0813 b83c ab03 743c de39 623c e129 403c
00000010: 0d11 fabc 43bb dabc 49e3 233d 9f91 73bc
00000020: 44d7 a03c fe41 893b 0724 1fbb 1905 8cbc
00000030: 70ba efbb 2507 ad3b a4db 29bd 106e 263d
00000040: 191f 20bb bdb3 c4bc b9af 65bc f6ee 21bd
00000050: 2551 b53c 6781 3dbc 0750 b33c 2d7f d6ba
00000060: 26d3 dfbc 3b58 453c 681e ecbc 2dce b63c
00000070: 8dd7 023b 9d96 1abb d364 103c 6b2f e7bb
00000080: 9458 07bc ad1f cfbc db0b f3bc 0de1 413d
00000090: a5ad 87bb 15f9 503c d3b8 6239 3e7a babb
000000a0: 4ddf a23c 49d9 36bd 7080 c43c 940a 13bc
000000b0: e247 033d 6b4d ba3c 9f2a a9bb 9813 f93c
000000c0: 2208 15bc 8b09 023d f939 333c 7231 d43c
000000d0: bd88 a53c 30f4 17bd f4fa 82bc f107 173c
000000e0: 046e e9bc e3c4 9b3c 12d7 483c 1b0b ce3c
000000f0: 74b1 353b f29a fc3b aab2 dbbb ae44 cb3b
0.022470012 0.014893453 0.013807742 0.011728735 -0.030525709 -0.026700621 0.040011678 -0.014866262
0.019633897 0.004188775 -0.0024282949 -0.017092275 -0.0073159263 0.0052803927 -0.04146923 0.040632308
-0.0024432598 -0.024011487 -0.014018946 -0.03953453 0.02213342 -0.011566496 0.021888746 -0.0016364806
-0.027322363 0.012044962 -0.028823093 0.02231511 0.0019964904 -0.0023588308 0.008813101 -0.007055213
-0.008260865 -0.025283659 -0.029668739 0.047333766 -0.004140573 0.012754698 0.00021621892 -0.005690842
0.019881869 -0.044640813 0.023987025 -0.00897469 0.032050975 0.022741994 -0.0051625515 0.03040485
-0.009096177 0.031747382 0.010939115 0.025902484 0.020206803 -0.03709811 -0.015988804 0.009218202
-0.028494842 0.019014781 0.012258308 0.02515178 0.0027724179 0.0077089006 -0.006704648 0.0062032556

ConvBase.1.bn.running_mean f4 [64]
00000000: 6725 493e 1b6a 123e 01a9 ef3d 162f 793d
00000010: 1d47 1d3e 318d 003d becc ac3c 228b 0d3e
00000020: a43d 703e e5d3 2e3e 4c8b 993d e73d 093d
00000030: 2c2b 603e 3863 de3c 6f65 923d e3c0 8d3d
00000040: bd98 7a3e d6fc 613e 0a2c bf3d 581d 923d
00000050: fdfb 4c3e f018 413e c75a 333e d20c 0a3e
00000060: b7a1 053e 26b0 473e 77c4 843d 4900 153e
00000070: 2812 133e 384f 643d 6a41 9b3d d324 9e3d
00000080: 4499 b13e 1498 903e 7ce6 113e 1986 583d
00000090: 0470 673e 543e 553e b80c 803e 3a3c 4d3e
000000a0: a2f2 773e 2874 f93d 2a40 8f3d 4e5a 283e
000000b0: 5631 783e e771 4f3d 7d51 8d3d c51d a53d
000000c0: c957 823e a0e3 a03e c26d 0a3e 2cc6 893d
000000d0: 4504 493e 6cd4 213e 83b9 6f3e 5ead 4a3e
000000e0: c386 8b3e 0cd9 633e 6b73 b53d 0feb 2c3e
000000f0: fe16 9a3e 6f1d 7b3d 3a45 ac3d 1858 e33d
0.19643174 0.14298289 0.11702157 0.06083592 0.15359159 0.03138465 0.021093722 0.13822606
0.23461014 0.17073019 0.07497272 0.0335063 0.21891469 0.02714692 0.07148253 0.06921556
0.24472328 0.22069106 0.09334572 0.07134503 0.20018001 0.18857169 0.17515098 0.13481453
0.1304997 0.19500789 0.06482785 0.1455089 0.14362395 0.05573961 0.07580836 0.077218674
0.34687245 0.28241026 0.14248079 0.05286226 0.22601324 0.20824558 0.25009704 0.20042506
0.24213651 0.12180358 0.0699466 0.16440699 0.2423757 0.050645735 0.06900308 0.08062319
0.254576 0.31423664 0.13518432 0.067272514 0.19630535 0.15803689 0.23410611 0.19792697
0.27251253 0.22250766 0.08859905 0.16886543 0.30095667 0.061307367 0.084116414 0.11100787

ConvBase.1.bn.running_var f4 [64]
00000000: 7baa c53d a9df 3f3d afbd 133d 69eb 8b3b
00000010: cfa1 6d3d c7af 5d3b 0bb9 233b 7d89 073e
00000020: 80da fd3e b923 603e b1ed 123d 19de b73b
00000030: fa6c b33e 18e2 1e35 be98 b33c eaed 3a3c
00000040: ce15 bc3e a508 d53e 7ddb e23d 1dff 073c
00000050: cf5c d63d 60b8 503e 8b5f 283f 941b 3b3e
00000060: 723d 073e 5dbd 813e a4af 023d 354d 0f3e
00000070: d72c 293d 4a18 403c 4d22 413b 40e4 863d
00000080: 5f30 fe3e 69e3 763e 0e61 933d 91bf 0a3c
00000090: 86c6 033e 6b0d 2b3e f7a5 bc3d ec92 f53d
000000a0: c8ea c13d 1e8e b33e 06a0 143d 5fd4 723d
000000b0: ef2f f13e 760c 083c a3b1 0e3d 4cc4 cc3c
000000c0: 6358 3f3f 558f 603e 824c 863d 8069 ef3b
000000d0: 657d 163e d8c2 3d3e 5c4b 663e 047c db3d
000000e0: b61c f63e 837f 9c3d fb57 183d e9bc 283e
000000f0: db58 853e 045c 423c 79c8 e53c 15f1 3a3d
0.09651657 0.04684416 0.03606957 0.0042700064 0.05801564 0.0033826695 0.002498212 0.13236041
0.49580765 0.21888627 0.03587121 0.005611193 0.3504408 5.9188596e-07 0.02192342 0.011409262
0.36735386 0.41608158 0.1107702 0.00830057 0.104669206 0.20382833 0.65770787 0.18272239
0.13207033 0.25339785 0.031905785 0.13994296 0.04130253 0.011724541 0.0029469908 0.06586504
0.4964628 0.24110188 0.07196246 0.008468525 0.128687 0.16704337 0.09211343 0.11990914
0.09468609 0.35069364 0.036285423 0.059284564 0.47106883 0.008303752 0.034837376 0.024995945
0.7474424 0.21929677 0.065575615 0.0073062778 0.14696272 0.18531358 0.22489685 0.107170135
0.4806878 0.076415084 0.03719328 0.16478314 0.26044354 0.011862759 0.028049694 0.04564007
