waights/weights3.pth (torch_old, 670822 bytes, 196 tensors)

ConvBase.1.feature.lis.0.X_conv.conv.weight f4 [1, 1, 3, 1]
0	0xbca44d1b	-0.020056298
1	0xbe28a073	-0.16467457
2	0xbdefdbb7	-0.11711829

ConvBase.1.feature.lis.0.Y_conv.conv.weight f4 [1, 1, 1, 3]
0	0x3ea0939d	0.3136262
1	0xbd5fc8d8	-0.0546349
2	0xbe125e2b	-0.14293735

ConvBase.1.feature.lis.0.pointwise.weight f4 [16, 1, 1, 1]
0	0xbeb3aea5	-0.3509418
1	0xbe631a92	-0.22178105
2	0xbf4c35e3	-0.79769725
3	0xbf719074	-0.9436104
4	0xbef7a549	-0.4836829
5	0xbdad4ab6	-0.084615156
6	0x3d0bd98e	0.034143023
7	0x3f172273	0.5903694
8	0x3f5411ff	0.8283996
9	0x3f29a397	0.66265243
10	0x3f678f45	0.90452987
11	0x3d878d17	0.066187076
12	0x3f31bdc6	0.69430196
13	0x3bae6a45	0.005322727
14	0x3eec33e5	0.46133342
15	0xbef14646	-0.47123927

ConvBase.1.feature.lis.0.pointwise.bias f4 [16]
0	0x3f542c2d	0.82879907
1	0xbe9b926d	-0.30385152
2	0x3f34bbdf	0.7059917
3	0xbf819b56	-1.012553
4	0xbe9257cd	-0.28582612
5	0xbf4f69a4	-0.8102057
6	0xbea334cc	-0.31876218
7	0x3f6d3533	0.926593
8	0xbf340895	-0.70325595
9	0x3e829c3c	0.25509822
10	0xbeecebe3	-0.46273717
11	0xbf0b97e9	-0.5452867
12	0x3d22bfb9	0.039733622
13	0xbdbbcc21	-0.09169794
14	0xbe91f5a1	-0.28507712
15	0xbed1d52f	-0.4098296

ConvBase.1.feature.lis.1.X_conv.conv.weight f4 [16, 1, 5, 1]
0	0x3e80404a	0.2504905
1	0xbe9476b5	-0.28996816
2	0x3bf7c23e	0.0075609973
3	0x3eabecf4	0.33579218
4	0x3e7b9e4c	0.24572104
5	0x3cb95220	0.022622168
6	0x3eae06f5	0.33989683
7	0x3ba1fe2f	0.004943631
8	0x3e0864cf	0.13319705
9	0xbe8d93f7	-0.2765195
10	0xbe6e6a75	-0.23282798
11	0xbea63ae6	-0.3246681
12	0xbd85e24d	-0.06537304
13	0x3e9299df	0.2863302
14	0xbde72ed5	-0.112882294
15	0xbd3898a4	-0.045067444
16	0x3d08b365	0.03337421
17	0x3e40d2e9	0.18830456
18	0x3ed9c7ee	0.42535347
19	0x3c5cd1a2	0.013477715
20	0xbebebb98	-0.37252498
21	0xbdbb7554	-0.09153238
22	0x3d20c236	0.039247714
23	0xbe9ec7a9	-0.31011704
24	0x3eb5bf37	0.35497448
25	0x3df85df1	0.12127293
26	0x3e81b564	0.25333703
27	0xbec457d0	-0.38348246
28	0x3e5ff7ec	0.21871918
29	0x3e23cfd5	0.1599725
30	0xbe8dc860	-0.27691936
31	0xbe3638c5	-0.17795093
32	0xbe442e71	-0.19158341
33	0x3e3cdfe8	0.18444788
34	0xbc119f4e	-0.008888079
35	0x3d8cef2a	0.068815544
36	0xbd2ed9f3	-0.04268832
37	0x3ee086a1	0.43852714
38	0x3ecc0e20	0.39854527
39	0x3e13dd80	0.14439964
40	0x3d634a91	0.055491034
41	0xbea96fe0	-0.33093166
42	0x3eb6f3f8	0.35733008
43	0x3e704087	0.23462115
44	0x3dcb2236	0.099186346
45	0xbea4e769	-0.32207802
46	0xbe9710f6	-0.29505128
47	0x3dcbb9cf	0.099475496
48	0x3e1651d5	0.14679654
49	0xbec60bec	-0.3868097
50	0xbd9125e6	-0.07087307
51	0xbd865006	-0.06558232
52	0xbedd0f7a	-0.4317587
53	0xbbec97af	-0.0072202305
54	0x3ec1764f	0.37785575
55	0xbee1b0be	-0.44080156
56	0xbee575ff	-0.44816586
57	0x3e925fa0	0.2858858
58	0x3e41034a	0.18848911
59	0x3eb86099	0.36011198
60	0xbe35c534	-0.17751008
61	0xbd65f758	-0.05614409
62	0xbd6fc4a1	-0.05853713
63	0x3ecc0870	0.39850187
64	0xbe8f6ae6	-0.28011245
65	0xbeb7b505	-0.35880294
66	0x3eaacd92	0.33359963
67	0xbe40b2b0	-0.18818164
68	0x3d9fa454	0.07795015
69	0xbdb37b86	-0.087637946
70	0xbbf04d65	-0.007333445
71	0x3c51776a	0.012784818
72	0xbe93fbf4	-0.28903162
73	0xbee319bb	-0.44355568
74	0x3e7ab418	0.24482763
75	0x3eb9c6e7	0.36284563
76	0xbd81e16f	-0.06341826
77	0x3e23981d	0.15975995
78	0x3e5820b7	0.2110623
79	0xbec310c3	-0.38098726

ConvBase.1.feature.lis.1.X_conv.conv.bias f4 [16]
0	0x3c5824b0	0.013192341
1	0x3dcb8f90	0.09939492
2	0x3d1656ea	0.03670398
3	0xbee328fb	-0.44367203
4	0xbe92f4dd	-0.2870244
5	0xbec6c77c	-0.3882407
6	0xbee2f964	-0.44330895
7	0x3db5ee74	0.08883372
8	0x3e299918	0.16562307
9	0xbe222a50	-0.15836453
10	0x3e97acdc	0.2962407
11	0x3e9cb741	0.30608562
12	0x3d9e1a2d	0.077198364
13	0x3df0f3c7	0.11765247
14	0xbedaf7b2	-0.42767102
15	0xbc2a96d3	-0.010411936

ConvBase.1.feature.lis.1.Y_conv.conv.weight f4 [16, 1, 1, 5]
0	0x3e8877a2	0.26653773
1	0x3ebaef09	0.36510494
2	0xbeb5f52d	-0.35538617
3	0xbe5604e6	-0.20900306
4	0x3c939a30	0.018017858
5	0x3eaa0e32	0.33213955
6	0x3edc4373	0.4302021
7	0xbdd83a0f	-0.10557949
8	0x3aa59756	0.0012633603
9	0xbed6458b	-0.41849932
10	0xbeab1c06	-0.33419818
11	0x3d07ece4	0.0331849
12	0x3e7ae707	0.24502192
13	0xbea51d44	-0.3224889
14	0xbe86c48e	-0.26321834
15	0xbe8c683f	-0.27423283
16	0x3e7c4361	0.24635078
17	0x3eea9bca	0.45821983
18	0xbe578c2e	-0.21049568
19	0xbeb49e76	-0.35277146
20	0xbe899faa	-0.26879627
21	0x3ec3a9a0	0.3821535
22	0x3ec6f248	0.3885672
23	0xbeae454e	-0.3403725
24	0x3e4c2b6a	0.19938436
25	0xbe7cd9cb	-0.24692456
26	0xbe50f538	-0.20406044
27	0xbebcb9f6	-0.36860627
28	0x3df50f5b	0.119658194
29	0xbec25917	-0.37958595
30	0x3d989c2d	0.07451663
31	0xbdbcd525	-0.092203416
32	0x3d2bae2e	0.041914158
33	0x3e83c36c	0.25735033
34	0x3dd575d0	0.104228616
35	0xbeaf2628	-0.34208798
36	0x3e81706e	0.2528109
37	0xbdae72ce	-0.08517991
38	0xbdd90fbc	-0.10598704
39	0x3d90d2af	0.07071435
40	0xbd54d873	-0.051964235
41	0xbed16f76	-0.4090535
42	0xbdb3ace0	-0.08773208
43	0x3e269035	0.16265948
44	0xbe9fd6d3	-0.31218585
45	0x3e5c9c69	0.2154404
46	0xbeb430fe	-0.35193628
47	0xbdff60f8	-0.12469667
48	0x3ed51d48	0.41623902
49	0x3e9752b0	0.29555273
50	0x3e70cc4d	0.23515435
51	0x3e008ea1	0.12554409
52	0xbdb0f01b	-0.086395465
53	0x3e3f35a1	0.18672802
54	0xbe80e574	-0.2517506
55	0x3ebc31dd	0.36756793
56	0xbec6cd7d	-0.3882865
57	0x3e87b317	0.26503822
58	0xbdfe63a2	-0.12421347
59	0xbe1837a2	-0.14864972
60	0x3ee1dd11	0.44113973
61	0xbe4be40e	-0.19911215
62	0x3e22e9a9	0.15909447
63	0x3ed6ff1f	0.41991517
64	0x3c6605b3	0.014039445
65	0x3e9b5e47	0.30345365
66	0x3c9f02f0	0.01941058
67	0x3e7db842	0.2477732
68	0x3ecbe457	0.39822647
69	0xbe8a108e	-0.26965755
70	0xbe92d788	-0.28680062
71	0xbed66857	-0.4187648
72	0x3ebadedc	0.36498153
73	0xbed8dea2	-0.42357355
74	0x3ec31ee7	0.38109514
75	0x3ea5a2f1	0.32350877
76	0xbd881d18	-0.06646174
77	0xbee55eca	-0.4479888
78	0xbe846283	-0.25856408
79	0xbc94f442	-0.018182877

ConvBase.1.feature.lis.1.Y_conv.conv.bias f4 [16]
0	0x3e47c6fa	0.19509497
1	0x3e82b3b5	0.2552773
2	0xbe1ca0d2	-0.15295723
3	0x3e8beb0c	0.27327764
4	0x3df43719	0.119245715
5	0x3d8d9cc5	0.06914667
6	0x3d73ea04	0.059549347
7	0x3e19251f	0.14955567
8	0x3eb721f4	0.35768092
9	0x3d576915	0.05259045
10	0xbed56be8	-0.41683888
11	0xbe2c8c8c	-0.1685049
12	0xbebac1bf	-0.36475942
13	0x3e46f1de	0.19428203
14	0xbeaae693	-0.3337904
15	0xbebe9324	-0.37221634

ConvBase.1.feature.lis.1.pointwise.weight f4 [16, 16, 1, 1]
0	0xbe445fa1	-0.19177105
1	0xbe6d6576	-0.23183236
2	0xbe102792	-0.14077595
3	0x3e2fa475	0.17152579
4	0xbe5bced9	-0.21465625
5	0x3de1a56e	0.11017881
6	0x3dc350b5	0.09536878
7	0x3e644e24	0.22295433
8	0xbd3b2bad	-0.04569595
9	0xbdafc6d8	-0.08582848
10	0xbd7bfa07	-0.06151774
11	0x3e12f1e2	0.14350083
12	0xbe4172b6	-0.18891415
13	0x3e6670db	0.22503988
14	0xbe5fd7aa	-0.21859613
15	0x3e53e21d	0.20691724
16	0x3e2299e2	0.15879014
17	0x3dac1a86	0.084034964
18	0x3d524876	0.051338635
19	0xbd819036	-0.06326334
20	0xbe4766cd	-0.19472809
21	0xbe3b2513	-0.18275861
22	0x3e29859d	0.16554876
23	0x3e46f08f	0.19427703
24	0x3d1b1324	0.03786005
25	0x3e140b27	0.1445738
26	0xbe50dc60	-0.20396566
27	0x3ddb2677	0.10700696
28	0xbe094e69	-0.13408817
29	0x3de21303	0.110387824
30	0x3e4100e7	0.18848
31	0xbc866397	-0.01640491
32	0xbe52851c	-0.2055859
33	0xbdecc020	-0.115600824
34	0xbcdbe547	-0.026842726
35	0x3d6e2ce5	0.058148284
36	0xbe7fd256	-0.2498258
37	0x3c92bb8a	0.017911691
38	0x3db6c5ad	0.089244224
39	0xbe40d82b	-0.18832462
40	0x3e29d45d	0.16584916
41	0x3cc25d44	0.023726113
42	0xbe3b8ea4	-0.18316132
43	0x3e46fc37	0.1943215
44	0x3bfb6046	0.007671389
45	0xbe33c768	-0.17556536
46	0xbdc3a5a8	-0.09553081
47	0xbe6ac859	-0.22927989
48	0xbbde324b	-0.0067808977
49	0xbe32826a	-0.17432562
50	0x3e0f1d97	0.13976131
51	0xbda3b737	-0.0799393
52	0xbe459554	-0.19295245
53	0x3d70eea9	0.058821354
54	0x3e3d29f2	0.18473032
55	0x3ca56555	0.02018992
56	0x3dc59892	0.09648241
57	0xb82dce32	-4.143845e-05
58	0x3e3b7b14	0.1830867
59	0xbdc8c56b	-0.098032795
60	0x3db1a77c	0.08674523
61	0xbe78a882	-0.2428303
62	0xbd2de128	-0.042451054
63	0xbe74e37d	-0.23914905
64	0xbe39db8a	-0.18150154
65	0x3e400b7d	0.18754382
66	0x3e67cf6e	0.22637722
67	0x3e318575	0.17336066
68	0xbe26d072	-0.16290453
69	0x3e5a152c	0.21297139
70	0x3e3dbca7	0.18528996
71	0xbe3969c5	-0.18106754
72	0x3e7a9b89	0.24473394
73	0x3decf845	0.11570791
74	0x3cd708ab	0.02624925
75	0xbd146081	-0.036224846
76	0xbdf502f1	-0.11963452
77	0xbe2bcd27	-0.16777478
78	0x3d7d97b6	0.06191226
79	0xbe05c04d	-0.13061638
80	0x3db4805e	0.088135466
81	0xbe0834bd	-0.13301368
82	0xbd097fdd	-0.033569206
83	0xbda6ba02	-0.08140947
84	0xbda65e1f	-0.08123421
85	0x3d130b28	0.03589931
86	0x3d3f3be2	0.046687968
87	0xbd06fed5	-0.03295787
88	0xbe29c94b	-0.16580693
89	0xbd2877a3	-0.04112972
90	0x3cd47fef	0.02593991
91	0xbe5ea9ba	-0.21744433
92	0xbb83577b	-0.004008231
93	0xbe0f841f	-0.14015244
94	0xbd07e90e	-0.033181243
95	0x3e1fce4a	0.15606037
96	0xbe74a66a	-0.23891607
97	0x3d1aa573	0.03775544
98	0xbd93aae2	-0.07210328
99	0x3cb72c18	0.022359893
100	0x3d9d4a65	0.07680205
101	0xbe492d95	-0.19646294
102	0xbd8d2bde	-0.068931326
103	0x3d552fc1	0.052047495
104	0xbe23a1ff	-0.15979765
105	0x3e0d0a36	0.13773426
106	0x3e807796	0.25091237
107	0xbd086d8d	-0.0333076
108	0xbe2d0140	-0.16895008
109	0xbd38736a	-0.045031942
110	0xbc8e00ec	-0.017334424
111	0x3e618490	0.22023225
112	0xbe1ca209	-0.15296187
113	0x3df85cbe	0.12127064
114	0xbe0fe01c	-0.14050335
115	0x3d98a848	0.07453972
116	0x3e3f7a23	0.18698935
117	0xbe32c7b1	-0.17458989
118	0xbcd7750e	-0.026300933
119	0x3e09e4b8	0.13466156
120	0xbdf3a13c	-0.118959874
121	0xbd44fc3e	-0.04809212
122	0xbdd77aee	-0.10521494
123	0xbdc1511f	-0.09439301
124	0x3cb7ffd4	0.022460856
125	0xbe0d6233	-0.13806991
126	0xbd29ced1	-0.041457
127	0xbe14428c	-0.1447851
128	0x3d76ed7a	0.06028507
129	0x3daad6fe	0.08341788
130	0xbe61dbbf	-0.22056483
131	0xbe72cf28	-0.23711836
132	0xbc890ff7	-0.016731245
133	0x3d30d2b5	0.043169696
134	0x3e80417e	0.25049967
135	0xbde13921	-0.109972246
136	0x3dcffb04	0.10155299
137	0xbe05eb12	-0.13077953
138	0x3e70e97f	0.23526572
139	0xbe8baf7c	-0.2728232
140	0x3e33e1b5	0.17566569
141	0xbe23e8ff	-0.1600685
142	0x3e5cb11a	0.21551934
143	0x3e2f2707	0.17104732
144	0x3ddb822a	0.10718186
145	0x3d9fc2df	0.078008406
146	0x3e75f485	0.24019058
147	0xbdb792bd	-0.08963535
148	0xbd1b6f28	-0.037947804
149	0xbc9a3f21	-0.01882893
150	0x3e5c8842	0.21536353
151	0xbe03bc45	-0.12864788
152	0xbcbe723f	-0.023247836
153	0x3e6649f1	0.22489144
154	0xbdeb1663	-0.11478879
155	0x3d4601d4	0.048341587
156	0xb9bd14d6	-0.00036064413
157	0xbe568436	-0.20948872
158	0x3e0815f4	0.13289624
159	0x3dd21280	0.10257435
160	0x3e7b32f5	0.24531157
161	0x3e77c305	0.24195488
162	0xbd16cbe5	-0.036815543
163	0x3dacd820	0.0843966
164	0x3e120f55	0.14263661
165	0x3d2a0281	0.041506294
166	0xbe5fb202	-0.21845248
167	0x3c4d1c8f	0.012519016
168	0xbe36d064	-0.17852932
169	0x3e505ad9	0.20347156
170	0x3e4fcdd5	0.20293362
171	0xbe20eb56	-0.15714774
172	0x3e38fcea	0.18065229
173	0xbe055f91	-0.13024737
174	0xbe667ee3	-0.22509341
175	0xbe32ce62	-0.17461541
176	0xbe0c1f52	-0.13683823
177	0xbb490b66	-0.003067696
178	0xbd6fd4ad	-0.058552433
179	0x3e6ae83b	0.22940151
180	0x3acddcdc	0.001570608
181	0xbd85da7e	-0.06535815
182	0xbd8c0ed2	-0.06838764
183	0xbe2ed3df	-0.1707301
184	0x3d97cfd4	0.07412687
185	0x3e0873e7	0.13325463
186	0x3d10db41	0.035365347
187	0x3dc771a3	0.09738471
188	0x3d7c5f47	0.0616143
189	0xbe18af1f	-0.14910553
190	0xbe51eb5a	-0.20499936
191	0x3ce19ace	0.027539637
192	0x3dfcdad4	0.12346426
193	0xbe5ab876	-0.21359429
194	0xbd943996	-0.07237546
195	0xbe0f68d1	-0.14004828
196	0x3df6caa0	0.120503664
197	0xbe3a0696	-0.18166575
198	0x3dd701ad	0.104983665
199	0x3c782ef6	0.015147915
200	0x3e17ff69	0.14843525
201	0xbe5e7042	-0.2172251
202	0x3d5485ee	0.051885538
203	0x3e2a26bd	0.1661634
204	0x3e0b3caf	0.13597368
205	0xbda32cd7	-0.07967537
206	0xbc862385	-0.016374359
207	0xbe800930	-0.2500701
208	0xbe734bdd	-0.23759408
209	0x3e381dbb	0.17980091
210	0xbe0be973	-0.13663273
211	0xbd9faa26	-0.07796125
212	0x3e17b27b	0.14814179
213	0xbdd428ff	-0.10359382
214	0xbe69e595	-0.22841485
215	0xbd5a64af	-0.053318676
216	0xbdb812f1	-0.08987988
217	0xbcbbce76	-0.022925597
218	0x3e1b49b9	0.15164842
219	0xbe1d4925	-0.15359934
220	0x3e0dec50	0.13859677
221	0x3e35f9d3	0.17771082
222	0xbdf5add0	-0.11996043
223	0xbe4f0ab4	-0.20218927
224	0x3e09601f	0.13415574
225	0x3cd68b75	0.026189545
226	0xbdf8c17f	-0.121462815
227	0x3e04108a	0.12896934
228	0xbd3460ce	-0.044037633
229	0x3ddb37bf	0.10703992
230	0x3da4c807	0.08045965
231	0x3e61845d	0.22023149
232	0x3dd37eee	0.10326944
233	0xbe48c9b1	-0.19608189
234	0xbe014e63	-0.12627558
235	0x3c97c633	0.018527126
236	0x3e21c916	0.15799364
237	0xbe1eb966	-0.15500411
238	0x3e5967f5	0.21231063
239	0xbc39e0a5	-0.011345063
240	0xbb3b307c	-0.0028562834
241	0xbe1f5c73	-0.1556261
242	0x3e41fabd	0.18943305
243	0xbe629a1a	-0.22129098
244	0xbd89852c	-0.06714854
245	0x3d53c866	0.051704787
246	0xbc59c5a5	-0.013291751
247	0xbe303e99	-0.17211379
248	0xbde46ea6	-0.11153917
249	0xbdb54b72	-0.08852281
250	0xbd3a9ac4	-0.045557752
251	0xbe4bfc62	-0.19920495
252	0xbd17f112	-0.037095137
253	0x3e5d1b67	0.21592484
254	0x3e7f0b5e	0.2490668
255	0xbdc66971	-0.0968808

ConvBase.1.feature.lis.1.pointwise.bias f4 [16]
0	0x3e80a483	0.25125512
1	0xbe6395d5	-0.22225125
2	0x3e150b87	0.14555179
3	0xbe38cfd7	-0.18048035
4	0xbdcc4dd7	-0.09975784
5	0xbe7cf3b1	-0.24702336
6	0xbe53bb31	-0.20676877
7	0x3e034a32	0.12821272
8	0xbe37c809	-0.17947401
9	0x3e7ceba5	0.24699266
10	0x3b716b9d	0.0036837824
11	0x3e13bdcd	0.14427872
12	0x3d9f332a	0.07773431
13	0x3a9340ce	0.0011234523
14	0x3dfb2db0	0.122645736
15	0xbe89108c	-0.26770437

ConvBase.1.feature.lis.2.X_conv.conv.weight f4 [16, 1, 7, 1]
0	0x3e82aad4	0.25520957
1	0xbeb33ef9	-0.35008982
2	0x3ebf720d	0.373917
3	0x3df50aad	0.11964927
4	0x3eaea1df	0.34107873
5	0xbdcd3459	-0.1001975
6	0xbe9e628e	-0.30934566
7	0x3db46094	0.08807483
8	0x3c7d208e	0.015449656
9	0x3e273bb3	0.16331367
10	0x3dc31108	0.09524733
11	0xbe28af26	-0.16473064
12	0x3e3e3b0e	0.18577215
13	0x3ea04e3b	0.31309685
14	0xbe210a6f	-0.15726636
15	0xbdc041da	-0.0938756
16	0xbeaeeb40	-0.34163857
17	0x3e0c6812	0.13711575
18	0xbe764b45	-0.2405215
19	0x3e97298c	0.29523885
20	0xbccb504c	-0.024818562
21	0xbeb02197	-0.34400627
22	0x3e2aaac7	0.16666709
23	0xbe45b118	-0.19305837
24	0x3ea8f384	0.32998288
25	0xbda4e4cd	-0.08051453
26	0xbe37d528	-0.17952406
27	0x3d067db5	0.032834727
28	0x3dda3f34	0.10656586
29	0x3e5f1a3b	0.2178735
30	0x3e982114	0.29712737
31	0x3eb3ec58	0.35141253
32	0x3e51beb1	0.20482899
33	0xbe81c90a	-0.25348693
34	0x3eb0bd3f	0.34519383
35	0xbcf93ed2	-0.030425463
36	0xbdeb8afb	-0.11501118
37	0xbd3bf43a	-0.04588721
38	0x3ea39d80	0.319561
39	0xbea0b00c	-0.31384313
40	0xbe3c05ea	-0.18361631
41	0xbe42f4c0	-0.19038677
42	0xbe05db3f	-0.13071917
43	0xbe7deee9	-0.24798168
44	0xbe55688a	-0.2084066
45	0x3d5d92af	0.054094967
46	0x3dafe6ff	0.08588981
47	0xbec2d41a	-0.38052446
48	0x3e532da1	0.20622875
49	0xbe9a64bc	-0.3015498
50	0xbe71bb8b	-0.23606698
51	0x3eb756d5	0.35808435
52	0x3e832cf2	0.25620228
53	0x3e85c3c7	0.2612593
54	0x3e2c1b06	0.16807184
55	0x3ea18348	0.31545472
56	0xbea19945	-0.31562248
57	0x3e987345	0.29775444
58	0x3e49a436	0.19691548
59	0xbd4424ad	-0.04788654
60	0x3deb8908	0.11500746
61	0x3baf8b06	0.005357149
62	0xbdfb036d	-0.12256513
63	0x3e5d6704	0.21621329
64	0x3e722b6c	0.23649377
65	0x3e88de0a	0.26731902
66	0x3da3bb95	0.07994763
67	0xbec34410	-0.38137865
68	0xbdd0a39d	-0.10187457
69	0xbebdbea0	-0.37059498
70	0x3eac5cd2	0.33664566
71	0x3ea5f556	0.3241374
72	0x3e573abd	0.210185
73	0xbe3a8de3	-0.18218188
74	0x3da50eb6	0.080594465
75	0xbe20ade9	-0.15691341
76	0x3e7a80af	0.24463151
77	0x3dec3b7d	0.11534784
78	0x3d0909e8	0.033456713
79	0x3dd431e8	0.10361081
80	0x3e9443ec	0.2895807
81	0xbddca1d8	-0.10773057
82	0xbe65d73b	-0.22445385
83	0xbdfe460d	-0.12415705
84	0x3d21dbb0	0.03951615
85	0xbe10899b	-0.14114992
86	0x3db47178	0.08810705
87	0x3d0bcdee	0.034131937
88	0x3c996412	0.018724475
89	0x3e0b63e5	0.13612325
90	0xbeb20c9c	-0.34775245
91	0xbe071ec0	-0.13195324
92	0x3cb6c8ef	0.02231261
93	0x3e5ff2aa	0.21869913
94	0xbec27168	-0.37977147
95	0xbe431322	-0.19050267
96	0xbe9616e4	-0.2931434
97	0xbebfa2b0	-0.37428808
98	0x3dbd003e	0.09228562
99	0x3eb8e32e	0.36110824
100	0xbd73501d	-0.059402574
101	0xbe4c334f	-0.19941448
102	0xbe464969	-0.19363941
103	0xbd1d5ca5	-0.03841843
104	0x3d1745c7	0.03693178
105	0x3e9b7f08	0.30370355
106	0x3e0d0ed1	0.13775183
107	0xbea3cc61	-0.31991866
108	0xbe64406e	-0.22290203
109	0x3e0435e7	0.12911187
110	0xbe9125ba	-0.28349096
111	0xbd237338	-0.039904803

ConvBase.1.feature.lis.2.X_conv.conv.bias f4 [16]
0	0xbd69bc76	-0.057064496
1	0x3e6d6227	0.23181973
2	0xbe135a1c	-0.14389843
3	0xbe1cf47e	-0.15327641
4	0xbd46b7e3	-0.04851521
5	0x3e50afbc	0.20379537
6	0x3e5bbd43	0.21458916
7	0x3db16e2b	0.08663591
8	0x3e1e7f77	0.15478311
9	0xbd8e6db1	-0.06954516
10	0x3ea2dfb1	0.31811288
11	0x3dbc3738	0.0919022
12	0x3ce94899	0.028477
13	0xbdf0e1fe	-0.117618546
14	0x3ebbc615	0.36674562
15	0xbdb64117	-0.08899134

ConvBase.1.feature.lis.2.Y_conv.conv.weight f4 [16, 1, 1, 7]
0	0x3d86e0a2	0.06585814
1	0x3e80aa86	0.251301
2	0xbe8a4dc1	-0.27012447
3	0xbdfc186b	-0.12309345
4	0x3d9c3240	0.07626772
5	0xbea42eb1	-0.32066873
6	0x3eaf2fa1	0.34216025
7	0x3d5b6cee	0.05357068
8	0xbeac9cbb	-0.33713326
9	0x3db9556a	0.090494946
10	0xbc88ad79	-0.01668428
11	0xbea3ec74	-0.32016337
12	0x3e400e6e	0.18755504
13	0x3de703a0	0.11279988
14	0xbdecd90c	-0.11564836
15	0x3d06b515	0.032887537
16	0xbe6e3fac	-0.23266476
17	0x3e8d1d35	0.27561346
18	0x3d9472e2	0.07248475
19	0x3e32f67b	0.17476837
20	0xbc5e5305	-0.013569598
21	0xbdd57d16	-0.10424249
22	0x3e87ac4b	0.26498637
23	0x3c9e741a	0.01934247
24	0x3eb53cf8	0.35398078
25	0xbc9d08eb	-0.019169291
26	0x3dbb4e63	0.091458105
27	0x3e99e76d	0.30059376
28	0x3e803a4e	0.25044483
29	0x3e41e37a	0.18934432
30	0x3e52f8ea	0.20602766
31	0xbcf3bab9	-0.029752122
32	0x3deca189	0.11554248
33	0x3e14d76f	0.14535306
34	0x3e711294	0.23542243
35	0x3e131cd3	0.14366464
36	0xbd6bc74f	-0.057563122
37	0x3dc286eb	0.0949839
38	0xbed22f2e	-0.4105162
39	0x3e08ee17	0.13372074
40	0x3da41a86	0.080128714
41	0x3e9177a0	0.2841158
42	0x3e546f14	0.20745498
43	0xbe76114d	-0.24030037
44	0xbea7a56f	-0.32743403
45	0x3e73a8ff	0.23794936
46	0x3cc26cff	0.023733614
47	0x3e9efffb	0.31054673
48	0xbd20d0fb	-0.0392618
49	0xbde185dc	-0.1101186
50	0xbc63345f	-0.013867467
51	0x3e1af779	0.15133466
52	0xbe8d63ea	-0.2761529
53	0xbea145db	-0.31498608
54	0xbbcc06e5	-0.006226408
55	0x3dc987be	0.09840344
56	0xbebf444b	-0.3735679
57	0x3d9aaabd	0.07552097
58	0xbeb76b57	-0.3582408
59	0xbe84cc36	-0.2593705
60	0x3e83672c	0.2566465
61	0xbc6e9261	-0.014561267
62	0xbd99d92e	-0.07512127
63	0xbd98bdbc	-0.07458064
64	0xbec490cc	-0.3839172
65	0xbe2cf519	-0.16890372
66	0x3ded5c47	0.11589866
67	0x3e047d46	0.12938413
68	0xbe4d26b3	-0.20034294
69	0xbe8ede4f	-0.27903983
70	0xbd4fa123	-0.05069078
71	0x3d15b71d	0.036551584
72	0x3e90a33d	0.2824954
73	0x3e0a80f0	0.13525748
74	0x3df5d2ac	0.12003073
75	0x3e95f7b1	0.29290536
76	0xbe9d045f	-0.30667397
77	0x3e5db22b	0.21649997
78	0xbe74e8de	-0.23916957
79	0x3e1c8cec	0.15288132
80	0xbe0fa712	-0.14028576
81	0xbe244647	-0.16042434
82	0xbebfd84c	-0.3746971
83	0x3eb76d42	0.35825545
84	0x3e1d34b6	0.15352139
85	0x3e1df2c3	0.15424637
86	0xbcd0e53d	-0.025499934
87	0xbe6e4984	-0.23270231
88	0x3d81f8e2	0.06346299
89	0x3e8f61b7	0.28004238
90	0xbe0bd3d1	-0.1365502
91	0xbccde909	-0.025135534
92	0x3bf4ff0b	0.0074766926
93	0x3e621348	0.22077668
94	0x3dea868c	0.11451444
95	0x3ecb5a97	0.39717552
96	0x3e3046a3	0.17214446
97	0xbe359168	-0.1773125
98	0x3e5ff3a1	0.21870281
99	0xbd58a30d	-0.052889872
100	0xbdf6d142	-0.120516315
101	0xbd8b479e	-0.06800769
102	0x3e904e29	0.2818463
103	0x3eb6a632	0.35673672
104	0x3e525082	0.20538524
105	0xbe8d073a	-0.27544576
106	0x3db70567	0.08936577
107	0xbeb1126c	-0.34584367
108	0xbe8516a4	-0.25993836
109	0xbc1fe497	-0.00975909
110	0xbd7b64fd	-0.061375607
111	0x3ea1f725	0.3163387

ConvBase.1.feature.lis.2.Y_conv.conv.bias f4 [16]
0	0x3d8949ac	0.06703505
1	0x3e24ba4f	0.16086696
2	0xbead7132	-0.33875424
3	0xbebbaef3	-0.36656913
4	0xbe6a37d0	-0.22872853
5	0xbcebaaa7	-0.028767897
6	0x3e28d9d0	0.16489339
7	0xbd6a8dee	-0.05726426
8	0x3d964069	0.07336504
9	0x3ea8d550	0.32975245
10	0xbdd0304a	-0.101654604
11	0x3ea7dd95	0.3278624
12	0xbe965d64	-0.29368126
13	0x3de7efeb	0.113250576
14	0x3ea36dd3	0.31919727
15	0x3e94285a	0.28937036

ConvBase.1.feature.lis.2.pointwise.weight f4 [16, 16, 1, 1]
0	0xbdb62618	-0.088939846
1	0xbdadfdd8	-0.084956825
2	0x3e69841a	0.22804299
3	0x3e588e0f	0.21147941
4	0x3e7a6cda	0.24455586
5	0xbaa99de6	-0.0012940734
6	0x3dd7ddf4	0.10540381
7	0x3df5d9d5	0.12004439
8	0xbe658781	-0.22414972
9	0x3bd54d8e	0.0065094894
10	0x3e0e6f38	0.13909614
11	0x3e5f89bf	0.2182989
12	0x3e0c1928	0.13681471
13	0xbd5d90ee	-0.054093294
14	0xbe4ea1f1	-0.20178963
15	0xbe4692c1	-0.1939192
16	0x3e246c6e	0.16056988
17	0xbdfe251e	-0.12409423
18	0x3e1552da	0.14582387
19	0x3dcd43f7	0.10022729
20	0xbddb1e6a	-0.106991604
21	0xbd0ffb17	-0.035151567
22	0x3cebf83c	0.02880489
23	0x3c6b2b7f	0.014353632
24	0x3da66a4e	0.08125745
25	0x3cf6246c	0.030046664
26	0xbe0848f4	-0.1330908
27	0xbc9aa4a4	-0.018877335
28	0xbd1957b8	-0.03743717
29	0xbceea12e	-0.02912959
30	0x3e491a16	0.19638857
31	0xbe1e5ef1	-0.15465905
32	0xbe39b9b3	-0.18137245
33	0x3e36e833	0.17862014
34	0x3e59d7d9	0.21273746
35	0x3e70041a	0.23439065
36	0xbe2617ec	-0.16220063
37	0x3e5dac58	0.21647775
38	0x3de73f70	0.112913966
39	0xbac88879	-0.0015299461
40	0x3dff0171	0.12451447
41	0x3dfeba64	0.12437895
42	0x3d936997	0.07197874
43	0x3d91aacf	0.07112657
44	0x3e2cd4e1	0.16878082
45	0x3d73e740	0.05954671
46	0xbe4dc9b8	-0.20096481
47	0xbe19a197	-0.15003048
48	0xbe7904b4	-0.243182
49	0xbe356aad	-0.17716475
50	0x3c056c8c	0.008143555
51	0x3d54b938	0.05193445
52	0x3cf01a7c	0.029309504
53	0xbe32d28a	-0.17463127
54	0xbe67acea	-0.22624555
55	0xbd7f5a22	-0.062341817
56	0x3e775f5d	0.24157472
57	0xbe0015ee	-0.12508366
58	0x3e101a08	0.1407243
59	0xbe6636c7	-0.22481833
60	0x3dc95d02	0.09832193
61	0x3e6f7d42	0.23387626
62	0xbda82044	-0.08209279
63	0xbe4c0116	-0.19922289
64	0xbd95f52b	-0.07322153
65	0x3e4d5002	0.20050052
66	0xbe7b0dcc	-0.24516982
67	0x3e500f49	0.20318331
68	0xbdbf0cf5	-0.09328643
69	0xbe0ae4ab	-0.13563792
70	0x3cecaf16	0.028892081
71	0xbda11527	-0.078653626
72	0x3d8a8b6a	0.06764872
73	0x3e285e79	0.16442288
74	0xbd9592bb	-0.07303377
75	0xbe63285d	-0.22183366
76	0xbe29834a	-0.16553989
77	0xbdaed736	-0.08537142
78	0x3b11852b	0.0022204618
79	0x3dcde3d3	0.1005322
80	0x3df9da18	0.12199801
81	0xbce8d867	-0.028423501
82	0x3dcafc7b	0.09911438
83	0xbdf1fbc1	-0.11815596
84	0x3e66d37b	0.22541611
85	0x3e7178fc	0.23581308
86	0x3e369f5d	0.1783423
87	0x3dd545da	0.10413714
88	0x3e85a5e1	0.26103118
89	0xbdab1ada	-0.08354731
90	0x3e697c8f	0.22801422
91	0xbca92814	-0.020648994
92	0x3e17864d	0.14797325
93	0x3d56c39a	0.052432634
94	0x3e0ce172	0.13757876
95	0xbe78fa3f	-0.24314211
96	0x3dfc42d2	0.123174325
97	0x3df6b6c7	0.12046581
98	0x3d05a679	0.032629464
99	0xbdc0165e	-0.09379266
100	0xbe1b95e8	-0.15193903
101	0xbda04350	-0.07825339
102	0xbdeea7e6	-0.11653118
103	0x3e343a74	0.17600423
104	0x3e7f0b92	0.24906757
105	0x3cf700f3	0.03015182
106	0xbe54c0b6	-0.20776638
107	0xbe2e00ac	-0.16992444
108	0x3e6fb271	0.23407914
109	0xbd6c0193	-0.05761869
110	0x3dad10fc	0.08450505
111	0x3da0b116	0.078462765
112	0x3e0a701d	0.1351933
113	0x3dcf6e36	0.10128443
114	0xbcd76e79	-0.026297795
115	0x3d816ad0	0.06319201
116	0xbd83f3dc	-0.06442997
117	0xbe01f2a5	-0.12690218
118	0x3d83caf7	0.06435197
119	0xbe0a039c	-0.1347794
120	0x3e02412f	0.12720178
121	0x3db6efbb	0.08932444
122	0xbc303149	-0.010753938
123	0x3e4e1bb0	0.2012775
124	0x3d67b2fd	0.05656718
125	0xbcf0a20e	-0.029374149
126	0xbd9b7a59	-0.07591695
127	0x3deb674c	0.11494312
128	0xbe65a92b	-0.22427814
129	0x3e26a117	0.16272388
130	0x3e11e6fb	0.14248268
131	0x3e0c1715	0.1368068
132	0xbe356742	-0.17715171
133	0x3d12e4d2	0.03586275
134	0xbd28c3ea	-0.041202463
135	0x3e3f7ffe	0.18701169
136	0xbc8331ba	-0.016014922
137	0x3d39f184	0.045396343
138	0xbd8d4d62	-0.06899525
139	0xbdef9a2a	-0.11699326
140	0x3e4bf391	0.19917132
141	0x3e7caab1	0.24674489
142	0xbdbd15e7	-0.09232693
143	0xbde68541	-0.11255885
144	0xbdd1f5f0	-0.10251987
145	0x3e50cd60	0.20390844
146	0xbd4e9c2b	-0.050441902
147	0x3e1d5808	0.15365613
148	0x3d9a2302	0.075262085
149	0x3d8a4d10	0.0675298
150	0x3e66f300	0.22553635
151	0xbe631bcb	-0.22178571
152	0x3dd877e6	0.10569744
153	0x3e67d633	0.22640304
154	0x3e4aea8f	0.1981604
155	0x3d102a6a	0.0351967
156	0x3e1ac85e	0.15115497
157	0xbdbe07af	-0.09278809
158	0xbbe1691f	-0.0068789865
159	0x3de3240c	0.1109086
160	0xbe34fdd2	-0.1767495
161	0x3d8c197e	0.068408
162	0x3cd00dc7	0.025397195
163	0x3e1d090a	0.1533548
164	0x3d367e14	0.04455383
165	0xbdf4de54	-0.11956468
166	0x3d6823e6	0.05667486
167	0x3d7785b2	0.060430236
168	0x3e709ba8	0.23496878
169	0xbdb32994	-0.08748165
170	0x3e3f7be9	0.18699612
171	0x3d41ceb7	0.04731628
172	0x3e67c335	0.2263306
173	0xbe042d06	-0.129078
174	0xbe113318	-0.14179647
175	0x3e4cb057	0.19989143
176	0xbe74339f	-0.23847817
177	0xbe140322	-0.1445432
178	0x3e7b33fe	0.24531552
179	0xbcf0ff79	-0.029418694
180	0xbe48cf07	-0.19610225
181	0xbe52ff52	-0.2060521
182	0xbe622b55	-0.22086842
183	0x3c8d90aa	0.017280895
184	0xbe00a911	-0.12564494
185	0xbcc03f35	-0.02346764
186	0x3aa02428	0.0012217807
187	0x3e7911da	0.24323216
188	0xbe1e77fd	-0.1547546
189	0x3de36ddc	0.111049384
190	0x3d3cc9b7	0.046090808
191	0x3dabdb70	0.08391464
192	0x3ca09411	0.019601854
193	0x3ca89eab	0.020583471
194	0x3d47096b	0.048592966
195	0xbe814553	-0.25248203
196	0x3cc4bc7c	0.024015658
197	0xbe22f49c	-0.15913624
198	0x3de1c6f3	0.11024275
199	0xbe158053	-0.14599733
200	0x3d994263	0.074833654
201	0xbdfafec4	-0.12255624
202	0xbe1a9af4	-0.15098172
203	0x3e559717	0.20858417
204	0xbcace623	-0.021105831
205	0xbd88d297	-0.06680792
206	0x3d16c458	0.03680834
207	0x3d35e90b	0.0444117
208	0xbe2b2fe1	-0.16717483
209	0x3c8679d8	0.016415522
210	0xbe132354	-0.14368945
211	0xbe7faed5	-0.24969037
212	0xbd24ecb3	-0.040264796
213	0xbd79d923	-0.060998093
214	0x3c851a8b	0.016248008
215	0x3e057b2d	0.13035269
216	0x3e71be5b	0.23607771
217	0x3e5b5391	0.21418597
218	0x3e207dab	0.15672939
219	0xbe6b1290	-0.229563
220	0x3e8310b2	0.25598675
221	0xbe35e04c	-0.17761344
222	0x3deaa083	0.114563964
223	0xbe7f0548	-0.24904358
224	0x3d426260	0.0474571
225	0xbdfc0b2c	-0.12306818
226	0x3e6620b7	0.22473417
227	0xbe5a3c05	-0.21311958
228	0xbc5dd57f	-0.013539671
229	0x3e27fa3b	0.16404049
230	0x3c3f691d	0.011682776
231	0xbe2f89a8	-0.17142355
232	0xbcbaba76	-0.02279399
233	0xbe40f390	-0.18842912
234	0xbe0bbe47	-0.13646804
235	0xbd752bb5	-0.059856135
236	0xbe5bf6fb	-0.21480934
237	0xbdf2c46d	-0.118538715
238	0x3cdb2c38	0.026754484
239	0x3da605f4	0.08106604
240	0x3e8371ed	0.25672856
241	0x3ce3f02f	0.02782449
242	0xbe0dcb99	-0.13847198
243	0xbe6e1d73	-0.23253421
244	0xbd8d4290	-0.068974614
245	0x3e2ec2ed	0.17066546
246	0xbd2735d9	-0.040822838
247	0x3daa8723	0.083265565
248	0xbd73cfa0	-0.05952418
249	0xbe464877	-0.1936358
250	0xbe80ee2b	-0.25181708
251	0x3cb0b56c	0.021570884
252	0xbe0124e0	-0.12611723
253	0xbdab2bc5	-0.08357958
254	0x3e4f923a	0.20270625
255	0x3d3d447f	0.0462079

ConvBase.1.feature.lis.2.pointwise.bias f4 [16]
0	0x3d5db108	0.05412391
1	0xbe824b81	-0.2544823
2	0xbd849b4a	-0.064749315
3	0x3d0e269f	0.0347048
4	0x3d056418	0.03256616
5	0xbe04931a	-0.1294674
6	0xbe33e873	-0.17569141
7	0x3e1b71a1	0.15180065
8	0x3e399ac2	0.18125442
9	0x3c4a1208	0.012333401
10	0x3c56a926	0.013101852
11	0xbd1842bf	-0.03717303
12	0xbdc73eac	-0.097287506
13	0x3df047d0	0.11732447
14	0xbe43ec35	-0.19133075
15	0xbd74cfa2	-0.059768327

ConvBase.1.feature.lis.3.X_conv.conv.weight f4 [16, 1, 9, 1]
0	0xbdac3180	-0.08407879
1	0x3d1c729f	0.03819525
2	0x3e9d6a8a	0.30745345
3	0xbd9371eb	-0.071994625
4	0xbe4c252b	-0.19936053
5	0x3e7577c0	0.23971462
6	0xbda7c674	-0.08192149
7	0xbe49d377	-0.19709574
8	0x3e7251ea	0.2366406
9	0x3e0d7c8c	0.13817042
10	0x3e89dad3	0.26924762
11	0xbe5396df	-0.20663022
12	0x3d86375c	0.06553528
13	0xbe236c0c	-0.15959185
14	0x3dcff37e	0.10153864
15	0xbe9e0022	-0.30859476
16	0xbe078356	-0.13233694
17	0xbd4ebc58	-0.050472587
18	0x3e8f87c0	0.28033257
19	0x3e8b2026	0.27172965
20	0x3e927ae7	0.28609392
21	0x3c1b33c0	0.009472787
22	0x3d830542	0.06397487
23	0x3e770d92	0.2412627
24	0x3e9edea8	0.31029248
25	0x3e224e12	0.15850094
26	0xbe7a478a	-0.24441352
27	0xbe41d67c	-0.18929476
28	0xbd5a6b3d	-0.053324927
29	0xbe9de504	-0.30838788
30	0x3e1ba380	0.15199089
31	0x3ea1c447	0.3159506
32	0x3d997c24	0.07494381
33	0xbe0abe58	-0.13549173
34	0x3ead6f76	0.338741
35	0x3d64133a	0.0556824
36	0x3dd1e5e6	0.10248928
37	0xbe2cc004	-0.16870123
38	0x3ea56c41	0.32309154
39	0xbe084d0f	-0.13310646
40	0x3ea1dc55	0.31613412
41	0x3e841dfe	0.25804132
42	0xbdd074cc	-0.10178527
43	0x3dfe93a8	0.12430507
44	0xbe288137	-0.16455542
45	0x3e89c1ee	0.2690577
46	0x3e903099	0.28162077
47	0x3ea0f9b8	0.3144052
48	0xbdfdd030	-0.12393224
49	0x3e157414	0.14595062
50	0x3d0ba6b6	0.034094535
51	0xbe2c757e	-0.16841695
52	0xbe9e7338	-0.3094728
53	0x3e80ec90	0.25180483
54	0xbe00718e	-0.12543318
55	0x3e4cf61f	0.20015763
56	0x3e34c162	0.17651895
57	0xbdfcd1e0	-0.12344718
58	0xbe2e92ad	-0.1704814
59	0x3e6186b7	0.22024046
60	0x3e868964	0.26276696
61	0x3ea26e6a	0.31724864
62	0xbdf3d8c0	-0.11906576
63	0xbe59e96e	-0.21280453
64	0x3e9c7f88	0.3056605
65	0x3e432ce7	0.19060098
66	0x3e3726b8	0.17885864
67	0x3e834a01	0.25642398
68	0x3e1b6054	0.15173465
69	0x3dd4b092	0.103852406
70	0xbea9e8eb	-0.33185515
71	0x3e58428c	0.21119136
72	0xbe04311f	-0.12909363
73	0x3de33ccc	0.110955805
74	0xbd1efd77	-0.03881594
75	0xbe2b160d	-0.1670763
76	0x3e74ef65	0.23919447
77	0xbe8ce807	-0.27520773
78	0xbd1157da	-0.035484172
79	0xbe0d9104	-0.1382485
80	0xbe27cf3f	-0.16387652
81	0xbe8e4e01	-0.27793887
82	0xbe86848f	-0.2627301
83	0xbe75e1ac	-0.24011868
84	0xbcb95d24	-0.02262742
85	0x3e5d76e1	0.2162738
86	0x3ca8df00	0.020614147
87	0xbe562b15	-0.20914872
88	0xbe9a8018	-0.30175853
89	0x3e3e7055	0.18597539
90	0x3d99e3e3	0.07514169
91	0xbe09aec0	-0.13445568
92	0x3e8c9d83	0.27463922
93	0x3e72e58f	0.23720382
94	0xbea07407	-0.31338522
95	0xbdb4f373	-0.08835497
96	0xbe2b4fc5	-0.16729648
97	0x3d945e79	0.07244582
98	0x3e9ec58b	0.31010088
99	0x3e433da3	0.19066481
100	0x3e2d1ca7	0.16905461
101	0xbe3764c8	-0.17909539
102	0xbcf8ec4b	-0.03038611
103	0x3e8fb2ca	0.28066093
104	0xbebdc878	-0.37067008
105	0xbe77d07d	-0.24200626
106	0xbe2da3a8	-0.16956961
107	0x3cf6c0b7	0.03012119
108	0xbe19ff6a	-0.15038839
109	0xbda1ba87	-0.078969054
110	0x3d9c9528	0.07645637
111	0xbd83f787	-0.064436965
112	0xbe206ed1	-0.15667273
113	0xbe6e9a1a	-0.23300973
114	0x3d489d1f	0.048977967
115	0xbe736ac1	-0.23771192
116	0x3e474df7	0.19463335
117	0x3e94cd9b	0.29063115
118	0xbe72f0dc	-0.23724693
119	0xbe2a1950	-0.16611218
120	0x3c26d027	0.010181463
121	0xbdbb0971	-0.0913266
122	0xbdf1c3b9	-0.11804909
123	0x3d887f3c	0.06664893
124	0x3e4090ee	0.18805286
125	0x3df5d60e	0.12003718
126	0x3caca4f7	0.021074755
127	0xbe61539d	-0.22004552
128	0xbe79aca0	-0.24382257
129	0xbcee52aa	-0.029092152
130	0x3d98ba42	0.07457401
131	0x3d07d6ef	0.03316396
132	0x3e99dbe3	0.30050573
133	0xbea6ee88	-0.3260386
134	0xbe77bf61	-0.24194099
135	0x3e8209a3	0.25397977
136	0xbe7514d8	-0.23933733
137	0x3c02d826	0.007986104
138	0x3dbe344c	0.092873186
139	0xbe6e9afa	-0.23301306
140	0x3c01b6f2	0.007917153
141	0x3e9249f3	0.28572044
142	0xbe32f9af	-0.17478059
143	0x3e81ef10	0.25377703

ConvBase.1.feature.lis.3.X_conv.conv.bias f4 [16]
0	0xbda6e68d	-0.08149443
1	0xbe851c7f	-0.25998303
2	0x3e6ba2c2	0.23011306
3	0x3d3646ad	0.044500995
4	0x3e059656	0.1304563
5	0x3de01b5d	0.10942719
6	0xbe842928	-0.2581265
7	0x3e6b6b81	0.22990228
8	0x3e68a2bc	0.22718328
9	0x3e11947f	0.14216803
10	0x3e90e28a	0.28297836
11	0x3e197ac8	0.14988244
12	0x3e9578d1	0.29193738
13	0x3dc1e247	0.09466987
14	0xbd8cce9a	-0.068753436
15	0xbbf028a1	-0.007329062

ConvBase.1.feature.lis.3.Y_conv.conv.weight f4 [16, 1, 1, 9]
0	0xbe9b35f2	-0.30314595
1	0xbd9fc0c5	-0.0780044
2	0xb912b516	-0.00013991105
3	0xbea6485c	-0.3247708
4	0xbd0fa76f	-0.035071786
5	0x3e9924b3	0.29910812
6	0x3e4540ab	0.1926295
7	0xbe1f2260	-0.15540457
8	0xbe177676	-0.14791283
9	0x3dbb1db5	0.091365255
10	0xbdccf47b	-0.100075684
11	0xbe05bd7f	-0.13060568
12	0x3cdf9be6	0.027296018
13	0xbe45e162	-0.19324258
14	0xbe169a77	-0.14707361
15	0x3e880893	0.26569042
16	0xbc4bfcc4	-0.012450401
17	0xbe445189	-0.19171728
18	0xbd539e46	-0.051664613
19	0x3e365b85	0.1780835
20	0x3ea6849c	0.32523048
21	0xbe86e1b0	-0.2634406
22	0x3df904ae	0.12159096
23	0x3e20250a	0.1563913
24	0xbe2e758b	-0.17037027
25	0x3de7693c	0.11299369
26	0x3e671800	0.22567749
27	0x3e8813e6	0.2657768
28	0x3da51e33	0.08062401
29	0xbe0d8565	-0.13820417
30	0xbdeda4ba	-0.11603685
31	0x3e4acb78	0.1980418
32	0xbe8cc6f9	-0.27495554
33	0x3e89e577	0.2693288
34	0xbea444fc	-0.3208388
35	0x3d906f79	0.07052512
36	0x3e368179	0.17822827
37	0xbe4313b8	-0.19050491
38	0xbe04f0b4	-0.12982446
39	0x3d31a359	0.04336867
40	0xbe011ac4	-0.12607867
41	0xbcebaf35	-0.028770069
42	0xbcd79a7d	-0.026318783
43	0x3b6e3978	0.0036350172
44	0xbd9937fb	-0.074813806
45	0x3e75f7bb	0.24020283
46	0xbde65742	-0.11247112
47	0x3cc2bef2	0.02377269
48	0x3e484292	0.19556645
49	0x3cf526c7	0.029925717
50	0xbcdaf6ac	-0.02672895
51	0x3e93f9f5	0.2890164
52	0x3e8aae4d	0.27086106
53	0xbe9457b9	-0.28973177
54	0xbe8d29d7	-0.27570984
55	0x3debf514	0.11521354
56	0x3dbce5d2	0.09223522
57	0xbdd686cd	-0.1047493
58	0x3e8bba22	0.27290446
59	0x3dff3307	0.124609046
60	0xbea09935	-0.31366888
61	0x3e18fda5	0.14940508
62	0xbe543d8b	-0.20726602
63	0xbe3f4f34	-0.18682557
64	0x3e2fff99	0.17187347
65	0xbe836892	-0.25665718
66	0x3e2d1b91	0.16905047
67	0x3e9e14fe	0.3087539
68	0xbe8eb47a	-0.27872068
69	0xbe2ca001	-0.16857912
70	0x3e98d07f	0.2984657
71	0xbe6edd0e	-0.23326513
72	0x3e8194c4	0.25308812
73	0xbe2e15d8	-0.1700052
74	0x3e323a82	0.17405131
75	0xbda7e41d	-0.08197806
76	0xbe64e0c2	-0.22351363
77	0x3cac3778	0.021022543
78	0x3dcbe3d3	0.099555634
79	0x3c3b3904	0.011427168
80	0xbea51179	-0.32239893
81	0x3e069655	0.13143285
82	0x3e1daac9	0.1539718
83	0xbd74d39d	-0.059772123
84	0xbe046cba	-0.12932101
85	0x3e46cd1f	0.19414185
86	0xbe2858d8	-0.16440141
87	0x3e2df57c	0.16988176
88	0xbe227f0e	-0.1586878
89	0x3d7fa6d7	0.06241497
90	0xbbe19abb	-0.0068849004
91	0x3e2e6168	0.17029345
92	0xbcbe153a	-0.023203481
93	0x3e8c5349	0.27407292
94	0x3e55e40c	0.20887774
95	0x3de50c4a	0.111839846
96	0xbdce4634	-0.10071984
97	0x3d9a3dd3	0.07531323
98	0x3ea9515a	0.3306988
99	0x3e219dfa	0.1578292
100	0xbdaf09dc	-0.085468024
101	0xbe1a0d55	-0.15044148
102	0xbc613dfe	-0.01374769
103	0x3e5d4c1f	0.21611069
104	0x3e30ff41	0.17284872
105	0xbe96e214	-0.2946936
106	0x3e98bb2b	0.29830298
107	0x3cae4740	0.021274209
108	0xbcaadac1	-0.020856263
109	0x3e948f44	0.29015553
110	0x3e3dcadb	0.18534414
111	0xbdc24f83	-0.09487822
112	0x3e1f2051	0.15539671
113	0x3e860199	0.26173094
114	0xbe1b6e25	-0.15178736
115	0xbdaf6a2b	-0.08565172
116	0x3d2c7ad2	0.042109318
117	0x3e79bd52	0.24388626
118	0x3dd26ee0	0.10275054
119	0x3e50f630	0.20406413
120	0xbd51a37f	-0.051181313
121	0x3e06a67a	0.13149443
122	0x3bfe404a	0.0077591287
123	0xbd0b3c56	-0.033993088
124	0x3e058de6	0.13042411
125	0x3deedbd0	0.1166302
126	0xbe21b092	-0.15790012
127	0xbe03d1fc	-0.12873071
128	0xbca33972	-0.019924853
129	0xbe6e48f4	-0.23270017
130	0x3e472ae9	0.19449963
131	0x3e4e315f	0.20136021
132	0x3e6ecc37	0.2332009
133	0xbd8f8cb7	-0.07009261
134	0x3d9952ab	0.07486471
135	0x3e50f187	0.20404635
136	0xbdf5ec1b	-0.12007924
137	0xbe139aae	-0.14414474
138	0x3e32b41e	0.17451522
139	0x3e93cf41	0.2886906
140	0xbe5d324b	-0.21601216
141	0xbe60ec73	-0.21965198
142	0xbd126c4c	-0.03574781
143	0xbe762241	-0.24036504

ConvBase.1.feature.lis.3.Y_conv.conv.bias f4 [16]
0	0x3dcdfbbe	0.10057782
1	0xbe1d215f	-0.15344761
2	0x3e1cb5a8	0.15303671
3	0xbda69a8c	-0.08134946
4	0xbe934e73	-0.2877079
5	0xbdf7d857	-0.121018104
6	0x3db16767	0.086623006
7	0xbe79ff6d	-0.24413843
8	0x3dfa6c4a	0.12227686
9	0xbe020f5b	-0.1270117
10	0x3d87e875	0.066361345
11	0x3e1fde0d	0.1561205
12	0x3df3612a	0.11883767
13	0xbdb3085c	-0.08741829
14	0x3e182dc5	0.1486121
15	0x3c35f879	0.011106604

ConvBase.1.feature.lis.3.pointwise.weight f4 [16, 16, 1, 1]
0	0x3e0be720	0.13662386
1	0x3c5f084f	0.013612821
2	0x3d95f8e9	0.073228665
3	0xbd5bbea6	-0.053648613
4	0x3d96c92b	0.073625885
5	0xbc8cc2a2	-0.017182652
6	0xbd2c9b12	-0.042140074
7	0x3da4d60d	0.080486394
8	0x3dc9e2cb	0.098577105
9	0x3d085798	0.03328666
10	0x3e00d007	0.12579356
11	0x3d91f213	0.0712625
12	0xbe38d578	-0.18050182
13	0xbde189ff	-0.11012649
14	0xbd4b448c	-0.04962592
15	0x3de379cc	0.11107215
16	0x3e8086be	0.251028
17	0xbdd8ea76	-0.10591595
18	0xbda597fe	-0.08085631
19	0x3e011d6a	0.12608877
20	0x3dc17640	0.094463825
21	0x3d8124c0	0.06305838
22	0x3e4dc801	0.20095827
23	0x3e2f572b	0.17123096
24	0xbe2592ac	-0.16169232
25	0xbdaf5d38	-0.08562702
26	0x3db562dc	0.088567466
27	0x3e7132ed	0.23554583
28	0xbbd6814f	-0.0065461765
29	0x3e488b8c	0.19584483
30	0x3d9457c1	0.072433
31	0xbd97619a	-0.07391663
32	0x3dcae82b	0.09907564
33	0xbdae3a57	-0.08507221
34	0xbe7c7ccd	-0.24656983
35	0x3e050d44	0.12993342
36	0xbe454df0	-0.19268012
37	0x3dd77602	0.10520555
38	0xbe180e31	-0.14849164
39	0x3e5e7cd7	0.2172731
40	0xbd9b517c	-0.07583901
41	0x3bc781c7	0.0060884687
42	0xbd0233d6	-0.031787716
43	0xbe666b39	-0.2250184
44	0x3d43002b	0.047607582
45	0x3d25ea97	0.040506925
46	0xbe19b960	-0.15012121
47	0xbe3e4c32	-0.18583754
48	0x3dc0468b	0.09388455
49	0xbdea1bb4	-0.11431065
50	0xbe43c1b8	-0.19116867
51	0xbda41205	-0.080112495
52	0xbdfae2bc	-0.122502774
53	0x3d4c3632	0.049856372
54	0xbe2ffa21	-0.1718526
55	0xbe3d446a	-0.18483129
56	0x3debc799	0.115126796
57	0xbcdee7a7	-0.02721007
58	0x3e0713f9	0.13191213
59	0x3e32b268	0.17450869
60	0xbbd47510	-0.0064836815
61	0xbe34f551	-0.17671706
62	0x3d08cbe7	0.03339758
63	0x3de2cf31	0.11074675
64	0xbe3945ea	-0.18093076
65	0x3e3257b2	0.17416266
66	0x3d56cf63	0.052443873
67	0x3cb11d03	0.02162028
68	0xbd4e974e	-0.050437264
69	0xbdc757a8	-0.09733516
70	0x3e32bd9e	0.17455146
71	0x3e52c67e	0.20583531
72	0xbccbd7bc	-0.024883144
73	0xbd4466ce	-0.047949605
74	0x3e2459ac	0.16049832
75	0x3d91ae27	0.07113295
76	0x3dddf4d5	0.10837714
77	0xbdc2659c	-0.09492037
78	0xbe1fe6ed	-0.15615435
79	0xbe4c5c02	-0.19956973
80	0xbe5ad3f3	-0.21369915
81	0x3c9ed958	0.019390747
82	0xbe18b986	-0.14914522
83	0xbda7f15e	-0.08200334
84	0x3e4cac8a	0.19987693
85	0xbd4655e8	-0.04842177
86	0xbe75a861	-0.23990013
87	0xbd7a9870	-0.061180532
88	0xbd8e2ade	-0.0694177
89	0x3d1037b5	0.035209376
90	0xbdb3be1c	-0.08776495
91	0xbd904dcc	-0.070460886
92	0xbe24f73b	-0.16109936
93	0xbe751dbf	-0.23937128
94	0xbdd800f4	-0.10547057
95	0xbd20ef25	-0.039290566
96	0xbcdbb40e	-0.026819255
97	0xbdcccbe3	-0.09999826
98	0x3e323c3f	0.17405795
99	0xbd843095	-0.06454579
100	0x3e120f8a	0.1426374
101	0x3e2b75ac	0.16744107
102	0x3e389032	0.18023756
103	0xbe447928	-0.19186842
104	0xbe5cb67e	-0.2155399
105	0xbcfb684a	-0.030689377
106	0x3e08a818	0.13345373
107	0xbd5b9cd7	-0.05361637
108	0x3e771666	0.24129638
109	0xbe310822	-0.17288259
110	0x3e558c62	0.20854333
111	0xbcd93c94	-0.026518144
112	0x3e1fb707	0.15597163
113	0xbe681714	-0.22665054
114	0xba6fdff3	-0.00091504975
115	0xbdf576a3	-0.11985519
116	0xbccd8cd1	-0.02509156
117	0xbe06c0e7	-0.13159524
118	0x3df44f55	0.11929194
119	0xbe375e71	-0.1790712
120	0xbe1d1d40	-0.15343189
121	0x3c1a9f43	0.009437385
122	0xbe1d7293	-0.15375738
123	0x3de8b9d0	0.11363566
124	0xbd8354b5	-0.06412641
125	0xbdaef575	-0.08542911
126	0x3e15c856	0.14627203
127	0x3e23fc1e	0.16014144
128	0xbe204126	-0.15649852
129	0xbba86f64	-0.005140232
130	0x3e6d95a3	0.23201613
131	0x3d0e2dec	0.034711763
132	0xbe065e40	-0.13121891
133	0xbdd339ef	-0.10313784
134	0xbd529c3f	-0.05141854
135	0x3e45065d	0.19240709
136	0xbe75f351	-0.24018599
137	0x3d9d5a05	0.076831855
138	0xbcb54b4e	-0.022130635
139	0xbe70c309	-0.235119
140	0x3c31b21a	0.010845685
141	0x3e3b5aaf	0.18296312
142	0x3da35297	0.07974737
143	0xbdd41f05	-0.10357479
144	0x3cf77c46	0.030210625
145	0xbddfb736	-0.109236166
146	0xbc07676a	-0.008264402
147	0xbc668250	-0.014069155
148	0x3e87a23c	0.26490963
149	0xbe2d6eb7	-0.16936766
150	0xbdf9b3ae	-0.12192474
151	0x3d0dba72	0.034601636
152	0x3bc8da16	0.0061295135
153	0xbcc7d046	-0.024391305
154	0x3e5637dd	0.20919748
155	0x3e4b63f5	0.1986235
156	0x3c9a2fd6	0.018821638
157	0xbe722a11	-0.2364886
158	0x3e7000e3	0.23437838
159	0x3de48f43	0.111601375
160	0x3dfc202e	0.12310825
161	0xbd6f3a72	-0.058405347
162	0x3e22cdfe	0.15898892
163	0x3de39a6d	0.11113439
164	0x3d820bd9	0.06349916
165	0x3d7f11cd	0.062272836
166	0x3e3e4bdc	0.18583626
167	0xbe1095d1	-0.1411965
168	0xbde1f9b7	-0.110339575
169	0x3d8a4ea5	0.067532815
170	0x3e31df15	0.17370255
171	0x3d76307a	0.060104825
172	0xbd78c243	-0.060732137
173	0x3ca0afae	0.01961502
174	0x3b47b5ce	0.0030473354
175	0x3e14fcd5	0.14549573
176	0x3e1f3ccb	0.15550534
177	0x3d81f876	0.06346218
178	0x3d8e67f1	0.06953419
179	0xbce1d87d	-0.02756905
180	0xbda159f9	-0.07878489
181	0x3e2cad56	0.16862997
182	0xbe19d12a	-0.15021196
183	0xbe73155f	-0.23738621
184	0x3e2ac6c0	0.1667738
185	0xbe114d59	-0.14189662
186	0x3e6f89d6	0.23392424
187	0xbdc4bc1f	-0.09606194
188	0xbc3dd023	-0.011585268
189	0x3e6e4256	0.23267493
190	0x3e299f06	0.16564569
191	0x3e4e62be	0.20154855
192	0xbe66c8f6	-0.22537598
193	0x3d467dd7	0.048459854
194	0xbe6c91c6	-0.23102483
195	0x3cf58472	0.029970381
196	0x3da3c346	0.0799623
197	0x3e3dc02b	0.18530338
198	0xbe6c973e	-0.2310457
199	0x3e38c7f2	0.18045023
200	0x3e48d4c8	0.1961242
201	0x3b9dfa6e	0.0048211133
202	0xbd2f6310	-0.042819083
203	0x3e416c20	0.18888903
204	0xbd05d3ff	-0.03267288
205	0xbe69a30d	-0.22816105
206	0x3e3a58b4	0.181979
207	0x3d2db215	0.04240616
208	0x3d82ad10	0.06380665
209	0x3dea3b79	0.11437125
210	0x3dfc3362	0.12314488
211	0x3dd4fe5f	0.1040008
212	0x3e2e3d6e	0.17015621
213	0xbe0860e4	-0.13318211
214	0xbddbd186	-0.10733323
215	0xbd97ed37	-0.07418292
216	0x3dd24267	0.102665715
217	0xbe3e8a8b	-0.18607537
218	0x3d9b43a3	0.0758126
219	0xbe35a894	-0.17740089
220	0xbdaf9b70	-0.08574569
221	0xbd2ae6ed	-0.041724134
222	0xbd5565ca	-0.052099027
223	0xbdea9ae8	-0.11455327
224	0x3db412f1	0.08792675
225	0x3d6d5c8c	0.057949588
226	0x3e5faf75	0.21844275
227	0x3e4c3a97	0.19944225
228	0x3e3a1019	0.18170203
229	0xbe59c83b	-0.21267788
230	0x3dd71a0d	0.10503016
231	0x3e2d0071	0.168947
232	0x3ce337d1	0.027736576
233	0xbe52ef41	-0.2059908
234	0x3e7b96b7	0.24569212
235	0x3d0ba045	0.03408839
236	0xbe0e5536	-0.13899693
237	0x3b91a2b3	0.004444444
238	0x3e6a662d	0.2289054
239	0x3e321347	0.17390166
240	0xbcafd7a7	-0.021465136
241	0x3e11e56c	0.14247674
242	0x3e0f7d47	0.14012633
243	0x3d6e6a04	0.058206573
244	0xbe63d93e	-0.2225084
245	0xbe4b0fa3	-0.19830184
246	0xbe0993a9	-0.13435234
247	0xbe4f90df	-0.20270108
248	0x3c446002	0.011985781
249	0xbcf96b8b	-0.030446788
250	0x3e20d426	0.15705928
251	0x380682f7	3.207006e-05
252	0xbde3121b	-0.11087438
253	0xbe49c5f2	-0.19704416
254	0x3afeeb21	0.0019448736
255	0x3e632dfa	0.22185507

ConvBase.1.feature.lis.3.pointwise.bias f4 [16]
0	0x3e819fd1	0.25317243
1	0x3de0e425	0.10981015
2	0xbdfabc08	-0.12242895
3	0xbe3bcf92	-0.183409
4	0xbcdc7c39	-0.026914703
5	0x3e3b29b5	0.18277629
6	0x3e25a9b8	0.16178024
7	0x3e4acd9e	0.19804999
8	0xbe28f0d2	-0.16498116
9	0xbdda92f4	-0.1067256
10	0xbbb1d528	-0.0054270215
11	0x3d328810	0.04358679
12	0xbde763dd	-0.11298344
13	0xbd047ee7	-0.032347586
14	0x3dd1b9ba	0.10240503
15	0x3e52f6f5	0.20602019

ConvBase.1.feature.bn.weight f4 [16]
0	0x3f798e40	0.9748268
1	0x3f609fea	0.8774401
2	0x3f05f6f5	0.5232995
3	0x3e0f944a	0.14021412
4	0x3f2bbefa	0.6708828
5	0x3f201c74	0.62543416
6	0x3f5f18a2	0.8714696
7	0x3f03a4cf	0.5142335
8	0x3f73ee74	0.95285726
9	0x3f25d0b8	0.64771605
10	0x3e74a655	0.23891576
11	0x3f07ca0b	0.5304267
12	0x3f4cc24b	0.7998397
13	0x3e06d345	0.1316653
14	0x3e4f1778	0.20223796
15	0x3e93925c	0.288226

ConvBase.1.feature.bn.bias f4 [16]
0	0xba4b0766	-0.0007744938
1	0xbb70fee4	-0.003677302
2	0xba8030d8	-0.0009780182
3	0x3be643b3	0.0070271133
4	0xbb9bfbd2	-0.004760244
5	0xba871bcd	-0.0010307968
6	0x3b8dfafb	0.0043328977
7	0x3c182128	0.009285249
8	0xbc4d3708	-0.0125253275
9	0x3b59ba78	0.0033222716
10	0x3b8cf071	0.004301124
11	0x3c7ee6e4	0.015557978
12	0x3c871ff7	0.016494734
13	0x3c3919c6	0.011297649
14	0x3cfa6384	0.03056503
15	0xbba9f404	-0.0051865596

ConvBase.1.feature.bn.running_mean f4 [16]
0	0x3e8713e4	0.26382363
1	0xbe13a90e	-0.14419958
2	0x3c5c280f	0.013437285
3	0xbebfec6c	-0.37485063
4	0xbb30e09f	-0.0026989353
5	0xbea74370	-0.32668638
6	0xbe01f972	-0.12692812
7	0x3ebbeeba	0.3670557
8	0xbeb3a5ba	-0.35087377
9	0x3d9e75c6	0.07737307
10	0xbdafcef5	-0.08584396
11	0xbb7dc257	-0.0038720572
12	0xbd90d72c	-0.07072291
13	0x3cdc4ede	0.026893076
14	0x3c08f34a	0.008358786
15	0x3cca84f2	0.024721596

ConvBase.1.feature.bn.running_var f4 [16]
0	0x3af72095	0.0018854315
1	0x3ac9bfec	0.001539228
2	0x3b595bfa	0.0033166395
3	0x3b1773e8	0.0023109857
4	0x3af0f734	0.0018384219
5	0x3b41d7ce	0.0029578093
6	0x3b4a812c	0.0030899746
7	0x3a6a3534	0.00089343195
8	0x3b5c73cf	0.0033638363
9	0x3ad62c02	0.001634002
10	0x3ac87606	0.0015293963
11	0x3b15af2f	0.0022840013
12	0x3b0fb7cb	0.0021929618
13	0x3addb10e	0.0016913728
14	0x3b3c1afb	0.0028702605
15	0x3b18b40c	0.0023300676

ConvBase.1.bn.weight f4 [64]
0	0x3ed5be89	0.4174693
1	0x3dd62f47	0.10458236
2	0x3df4f52c	0.11960825
3	0x3da6325d	0.08115075
4	0x3eb605be	0.35551256
5	0x3f440b76	0.7657999
6	0x3f65779d	0.8963564
7	0xb948dcf2	-0.00019155795
8	0x3f331c41	0.6996499
9	0x3f684973	0.90737075
10	0x3e80f7c3	0.25189027
11	0x3f0da1e4	0.5532515
12	0x3d9905fa	0.07471843
13	0x3e1ae806	0.15127572
14	0x3f5119af	0.81679815
15	0x3f429746	0.76012075
16	0x3f48569b	0.7825715
17	0x3f527402	0.82208264
18	0x3f48dc6b	0.7846133
19	0x3ed3dfa9	0.41381577
20	0x3eb5e582	0.35526663
21	0x3f520f6b	0.82054776
22	0x3f163875	0.58679897
23	0x3e88a5b2	0.26688915
24	0x3f57ad63	0.8424894
25	0x3f1c0763	0.6094877
26	0x3effc88a	0.49957687
27	0x3f13e7f0	0.57775784
28	0x3f49a6e4	0.7877028
29	0x3ebec36d	0.37258473
30	0x3e957b69	0.29195717
31	0x3f72f86d	0.9491032
32	0x3f300724	0.68760896
33	0x3ececd07	0.40390798
34	0x3e107510	0.14107156
35	0x3f738db6	0.9513811
36	0x3e982c53	0.29721317
37	0x3f523374	0.8210976
38	0x3e94d077	0.29065296
39	0x3ee930da	0.45545083
40	0x3eb3d4f0	0.35123396
41	0x3f3c5ee0	0.7358227
42	0x3e9813c6	0.29702586
43	0x3e13465c	0.14382309
44	0x3da22a1c	0.07918188
45	0x3eeae14c	0.45875013
46	0x3e3ceafa	0.18449011
47	0x3f4bab4e	0.79558265
48	0x3f453fd2	0.7705051
49	0x3ef64134	0.4809662
50	0x3e8d74ca	0.27628165
51	0x3f27fca7	0.6561989
52	0x3ea3ade2	0.319686
53	0x3f7dd2e4	0.9914992
54	0x3c1bc289	0.00950683
55	0x3f6e99ba	0.9320332
56	0x3f7020cd	0.9380005
57	0x3e63ef9b	0.22259371
58	0x3e997d60	0.29978466
59	0x3f29cc10	0.66327
60	0x3ef0c552	0.47025543
61	0x3e164a82	0.1467686
62	0x3f5946e7	0.84873813
63	0x3f37d764	0.71813035

ConvBase.1.bn.bias f4 [64]
0	0x3c953b18	0.018216655
1	0x3c6410c7	0.013920016
2	0x3bbb4091	0.005714484
3	0x3beed250	0.007288255
4	0xbcb12da3	-0.021628207
5	0xbc427ce2	-0.011870595
6	0x3cbcf242	0.023064736
7	0xbbcfd961	-0.0063430523
8	0x3c65901c	0.014011409
9	0x3a257de5	0.000631301
10	0xbc4428da	-0.01197263
11	0xbc03d2d8	-0.008045875
12	0x3c0d8127	0.008636749
13	0x3c57df2c	0.013175767
14	0x3b806b55	0.003919045
15	0x3cc7808b	0.024353286
16	0xba12c1b9	-0.0005598325
17	0xbcae42cb	-0.021272084
18	0xbc303c30	-0.010756537
19	0xbcc76a63	-0.024342721
20	0x3cafcbad	0.021459425
21	0xbc91de45	-0.017806182
22	0x3cb896ef	0.022532908
23	0x3b789c92	0.003793512
24	0xbc6d5d31	-0.014487551
25	0x3c26be2a	0.010177175
26	0xbc28f854	-0.010313112
27	0x3c82e44f	0.015978007
28	0x3c6ef2af	0.014584227
29	0x3cdad69d	0.026713664
30	0x3c09062f	0.008363291
31	0xb9fbf7d1	-0.00048059088
32	0xbc1cd159	-0.009571397
33	0xbc4b9614	-0.012425918
34	0xbce5a076	-0.028030615
35	0x3cdda407	0.027055753
36	0x3b8f37b4	0.004370654
37	0x3c6ebd98	0.01457157
38	0xbbd39379	-0.006456789
39	0x3c0b9d6f	0.008521422
40	0x3ca7b2c6	0.020470988
41	0xbcaf925f	-0.0214321
42	0x3bd9b81c	0.006644262
43	0x3bd1d727	0.006403822
44	0x3bcc208a	0.006229465
45	0x3c513c9e	0.0127708
46	0x3c0352b8	0.008015327
47	0x3d1205d8	0.035650104
48	0x3ca811cb	0.020516297
49	0x3ca80f0f	0.020514993
50	0x3bec671a	0.007214439
51	0x3c5b75f2	0.01339482
52	0x3c222e74	0.009898771
53	0xbc47b3d3	-0.0121888695
54	0xbc4689c9	-0.0121178115
55	0x3c884918	0.016636416
56	0xbc8e2412	-0.017351184
57	0x3c0478c0	0.00808543
58	0x3c444be3	0.011980983
59	0x3cab3c82	0.020902876
60	0xbc51f3af	-0.012814446
61	0x3c0a713a	0.008449847
62	0x3c3b0bcd	0.011416388
63	0x3b6c61f7	0.0036069134

ConvBase.1.bn.running_mean f4 [64]
0	0x3e412ea2	0.18865445
1	0x3e052f18	0.13006246
2	0x3e00b30b	0.125683
3	0x3d1dfb3e	0.03856968
4	0x3e12f101	0.14349748
5	0x3d2c35cc	0.042043492
6	0x3cda86b0	0.026675552
7	0x3df9de53	0.12200608
8	0x3e66df82	0.22546199
9	0x3e1cff7f	0.15331839
10	0x3d777fc5	0.060424585
11	0x3d14881c	0.036262617
12	0x3e492914	0.19644576
13	0x3c392a6c	0.011301618
14	0x3d70c755	0.058783848
15	0x3d735d4a	0.05941514
16	0x3e7f13a7	0.2490984
17	0x3e4ad9bd	0.19809623
18	0x3dc54803	0.09632876
19	0x3d5b1f15	0.05349644
20	0x3e304f70	0.17217803
21	0x3e4ab58c	0.19795817
22	0x3e29e2b2	0.16590384
23	0x3df9ffdb	0.12207004
24	0x3e18ddef	0.14928411
25	0x3e3d2377	0.1847056
26	0x3d1c9faa	0.038238205
27	0x3e027549	0.12740053
28	0x3df49216	0.11941926
29	0x3d2d7bd4	0.04235442
30	0x3d74a153	0.059724163
31	0x3d8657bc	0.06559703
32	0x3eb3b7e6	0.3510124
33	0x3e7fe326	0.24988994
34	0x3e0e987b	0.13925354
35	0x3ce8958e	0.028391626
36	0x3e4e9a1d	0.20175977
37	0x3e6b375a	0.22970334
38	0x3e8081c3	0.25099
39	0x3e49ac75	0.19694693
40	0x3e759dc5	0.23985966
41	0x3de664f5	0.11249725
42	0x3d5f4e98	0.054518312
43	0x3e2f73ef	0.17134069
44	0x3e7b418a	0.2453672
45	0x3d0e9fb9	0.034820292
46	0x3d50854d	0.050908376
47	0x3da52dd7	0.08065384
48	0x3e99d651	0.30046323
49	0x3eabcdef	0.33555552
50	0x3e24e69d	0.16103597
51	0x3d3a2c55	0.045452435
52	0x3e53b635	0.20674975
53	0x3e367b37	0.1782044
54	0x3e7ca890	0.24673676
55	0x3e3837dc	0.17990059
56	0x3e8a7b43	0.27047166
57	0x3e562cbb	0.20915501
58	0x3d81643d	0.06317947
59	0x3e27febb	0.16405766
60	0x3e91ccc0	0.28476524
61	0x3d4aaa12	0.049478598
62	0x3d9b8bc4	0.075950176
63	0x3dd8932d	0.105749466

ConvBase.1.bn.running_var f4 [64]
0	0x3dc79383	0.097449325
1	0x3d417152	0.04722721
2	0x3d31a7a9	0.043372784
3	0x3b62dcce	0.0034616473
4	0x3d6c55f6	0.057699166
5	0x3ba1434d	0.004921353
6	0x3bcfeb9b	0.006345225
7	0x3e125597	0.14290462
8	0x3f0a7e65	0.5409911
9	0x3e7175fd	0.23580165
10	0x3d102837	0.035194602
11	0x3c11ec20	0.008906394
12	0x3ebc7549	0.3680823
13	0x36a81109	5.0087733e-06
14	0x3caa86f9	0.020816313
15	0x3c28fc20	0.0103140175
16	0x3ec7783e	0.38958925
17	0x3ed84248	0.4223807
18	0x3ddcc7e5	0.10780314
19	0x3bd01b34	0.006350899
20	0x3dbfbc5d	0.09362099
21	0x3e7d6f93	0.24749593
22	0x3f2574ce	0.64631355
23	0x3e3458e9	0.17612042
24	0x3e240de0	0.16020918
25	0x3e8e5ef7	0.27806827
26	0x3d0e4a4e	0.03473883
27	0x3e186f95	0.14886315
28	0x3cda4a35	0.026646713
29	0x3c2ded82	0.010615708
30	0x3af52fc4	0.0018706252
31	0x3d8800e3	0.06640794
32	0x3f05aa80	0.5221329
33	0x3e5ed3d8	0.217605
34	0x3d8aad0f	0.067712896
35	0x3c24f9aa	0.01006929
36	0x3dd9ad45	0.10628752
37	0x3e3428ff	0.17593764
38	0x3d9cf9c0	0.076648235
39	0x3ddc086e	0.10743795
40	0x3d9c7ffe	0.076416
41	0x3eafe180	0.3435173
42	0x3d1aa386	0.037753604
43	0x3d5da953	0.05411656
44	0x3ec77fb4	0.38964617
45	0x3bef9cb9	0.007312384
46	0x3d0121c2	0.031526335
47	0x3cbff892	0.023433957
48	0x3f135d73	0.5756447
49	0x3e62e949	0.22159304
50	0x3dd700bc	0.10498187
51	0x3bf41609	0.007448916
52	0x3e0ead71	0.1393335
53	0x3e3916bf	0.18075083
54	0x3e923662	0.28557116
55	0x3dc20838	0.09474224
56	0x3ef0175b	0.4689282
57	0x3d9ff316	0.07810037
58	0x3d0d8b50	0.034556687
59	0x3e30d100	0.17267227
60	0x3e928c6a	0.28622752
61	0x3c17b5a2	0.009259613
62	0x3cb76b34	0.022389986
63	0x3d160143	0.036622297
