waights/weights6.pth (torch_old, 670822 bytes, 196 tensors)

ConvBase.1.feature.lis.0.X_conv.conv.weight f4 [1, 1, 3, 1]
000000 a5 52 16 bc 8b 34 3d be a6 49 f6 bd
       -0.009174977 -0.18477075 -0.12025766

ConvBase.1.feature.lis.0.Y_conv.conv.weight f4 [1, 1, 1, 3]
000000 94 ee 9f 3e 68 d1 82 bd 4c 32 10 be
       0.31236708 -0.06387597 -0.14081687

ConvBase.1.feature.lis.0.pointwise.weight f4 [16, 1, 1, 1]
000000 75 bb b6 be 34 88 63 be 0a 58 4b bf 1f 43 72 bf
       -0.35689893 -0.22219926 -0.7943121 -0.9463367
000010 9d 4c fd be 1a 4c c1 bd ee 1a 07 3d 86 34 16 3f
       -0.49472514 -0.09438343 0.032984667 0.58673894
000020 57 e1 53 3f 7e 83 28 3f 6d b6 66 3f 23 2b 6e 3d
       0.82765716 0.6582564 0.9012211 0.058146607
000030 c1 da 32 3f 53 98 92 3b 43 6e ed 3e 20 37 f4 be
       0.6986504 0.004473725 0.46373186 -0.47698307

ConvBase.1.feature.lis.0.pointwise.bias f4 [16]
000000 88 b4 53 3f 81 74 9f be 16 87 36 3f cd bf 83 bf
       0.82697344 -0.31143573 0.71299875 -1.0292908
000010 69 66 95 be da d6 4f bf e4 de ab be e8 41 6b 3f
       -0.29179695 -0.8118721 -0.3356849 0.9189744
000020 92 9d 31 bf ca 79 87 3e 63 b3 e8 be 82 0b 0e bf
       -0.6938106 0.26460105 -0.4544936 -0.5548631
000030 9c c4 32 3d eb fa ae bd b2 20 92 be e7 f6 cc be
       0.043644533 -0.085439526 -0.2854057 -0.40032122

ConvBase.1.feature.lis.1.X_conv.conv.weight f4 [16, 1, 5, 1]
000000 60 f2 70 3e f0 e7 9c be b2 ac d7 bb 6d d5 ac 3e
       0.23529959 -0.30645704 -0.006581866 0.3375658
000010 4b dc 7f 3e 7c b3 33 3c 3e af aa 3e 80 98 94 bb
       0.24986379 0.010968085 0.33336824 -0.004534781
000020 87 16 0f 3e f5 6c 8f be 1e 67 64 be c1 5f a2 be
       0.13973437 -0.28012815 -0.22304961 -0.3171368
000030 03 46 69 bd 65 57 90 3e e6 ff eb bd 11 af 2c bd
       -0.056951534 0.28191677 -0.11523418 -0.042159144
000040 8c 38 27 3d 59 04 45 3e af 1a d7 3e 8d 13 4c 3c
       0.04082541 0.1923994 0.42012545 0.012455833
000050 01 8c c5 be 54 6e c3 bd 55 45 ac 3c 44 07 a1 be
       -0.38583377 -0.09542528 0.021029154 -0.31450856
000060 78 5e b6 3e 88 e0 04 3e f3 d6 84 3e 82 f9 c1 be
       0.3561895 0.12976277 0.25945243 -0.37885672
000070 b1 81 63 3e fb b6 23 3e 2f de 8d be 2d 08 33 be
       0.22217442 0.1598777 -0.27708575 -0.17483588
000080 fc 74 3e be 7f 15 41 3e 0e bb 2b bc 1f b3 8a 3d
       -0.18599313 0.18855856 -0.010481609 0.06772446
000090 c1 36 4d bd a4 ab dd 3e c5 bf cb 3e 5e f6 12 3e
       -0.050101046 0.43295014 0.39794746 0.14351794
0000a0 3c fc 40 3d ff d2 a9 be a2 4e b2 3e be b3 6c 3e
       0.04711555 -0.3316879 0.34825617 0.23115441
0000b0 12 2e d7 3d 2d 9e 9e be 9f d4 99 be 74 5e cc 3d
       0.10506834 -0.30980054 -0.3004503 0.09978953
0000c0 d5 29 0d 3e f4 78 ca be cf 73 97 bd 03 bc 8f bd
       0.13785489 -0.39545405 -0.073951356 -0.07018282
0000d0 42 99 e4 be cb 27 90 bc 12 83 ba 3e 60 ed d8 be
       -0.44648176 -0.0175971 0.36428124 -0.42368603
0000e0 f1 45 de be 42 82 99 3e 3d 20 4b 3e 28 ca bf 3e
       -0.43412736 0.2998219 0.19836517 0.3745892
0000f0 8d d9 30 be 5f ed 7e bd ca a4 71 bd 5f 7e cd 3e
       -0.17270489 -0.062238093 -0.058995046 0.40135476
000100 a9 53 89 be b3 7f b4 be b5 54 af 3e a8 cb 37 be
       -0.2682164 -0.35253677 0.34244314 -0.17948782
000110 b7 df b0 3d bd 36 a8 bd a5 6d 1c bc 74 e8 9d 3b
       0.0863642 -0.082135655 -0.009547626 0.0048189703
000120 ac 8b 91 be 2b 0b e1 be d2 11 7c 3e da 47 b5 3e
       -0.28426874 -0.43953833 0.24616173 0.3540638
000130 45 6d 87 bd 2b a1 23 3e 56 53 51 3e 12 1d c5 be
       -0.066126384 0.1597945 0.20441946 -0.3849874

ConvBase.1.feature.lis.1.X_conv.conv.bias f4 [16]
000000 fe 05 f6 3c 5c d9 c0 3d f2 4e 5a 3d 90 1b ea be
       0.030032154 0.09416458 0.053297944 -0.45724154
000010 d8 43 94 be 36 a2 c7 be 2e dd e6 be e2 cf ba 3d
       -0.2895801 -0.38990945 -0.45090622 0.09121682
000020 38 81 30 3e 5c 91 29 be d3 ab 9b 3e 2d 9e 96 3e
       0.17236793 -0.16559356 0.3040453 0.29417554
000030 5e b1 8d 3d fc 53 ed 3d 9d cb d8 be b1 46 0b bc
       0.06918596 0.115882844 -0.42342845 -0.008500741

ConvBase.1.feature.lis.1.Y_conv.conv.weight f4 [16, 1, 1, 5]
000000 80 10 8c 3e 64 9c b9 3e a4 bc b4 be 12 60 47 be
       0.27356339 0.3625213 -0.3530017 -0.19470242
000010 31 e1 ba 3c 7e 79 ad 3e 26 be d8 3e f0 f2 e6 bd
       0.022812458 0.33881754 0.42332572 -0.112768054
000020 d6 58 1f 3c ba e0 d7 be e9 fd ac be 91 3a 20 3d
       0.00972577 -0.4216364 -0.33787468 0.039118353
000030 68 c4 7f 3e 16 92 a3 be 04 c5 80 be 71 3f 8c be
       0.24977267 -0.31947392 -0.2515031 -0.27392152
000040 69 5a 7c 3e 41 92 e8 3e 15 78 61 be e6 8f b6 be
       0.24643864 0.45424083 -0.22018464 -0.3565666
000050 11 db 88 be 41 17 c3 3e dd f9 c2 3e 75 37 b2 be
       -0.26729634 0.3810368 0.38081256 -0.34807935
000060 2e 50 52 3e 12 94 7a be 5f 1b 4d be 7e ca b8 be
       0.20538399 -0.24470547 -0.20029972 -0.3609199
000070 00 72 f6 3d 60 67 c2 be f9 4c 92 3d 29 44 cb bd
       0.120334625 -0.37969494 0.071435876 -0.0992511
000080 dd 4b 44 3d 2b a2 88 3e ca 02 dd 3d 13 1b b2 be
       0.04792391 0.26686224 0.107915476 -0.3478628
000090 f5 5e 81 3e 37 6f a8 bd ee 3b ca bd 60 a4 9f 3d
       0.2526776 -0.082243375 -0.09874712 0.07795024
0000a0 0a d8 49 bd 72 a8 d5 be d5 b4 b9 bd 88 d4 1e 3e
       -0.049278297 -0.41730076 -0.09067694 0.15510762
0000b0 08 25 98 be 09 c0 55 3e 9a 52 af be 7f e5 0a be
       -0.29715753 0.20874037 -0.34242707 -0.13564108
0000c0 f4 1f d5 3e 0f b3 99 3e c5 96 6a 3e e3 d2 e2 3d
       0.4162594 0.30019423 0.22909077 0.1107538
0000d0 79 63 b0 bd 7d 28 46 3e 95 8d 85 be f5 c9 c0 3e
       -0.08612723 0.19351383 -0.2608458 0.3765408
0000e0 c2 39 c0 be 56 e2 89 3e 76 3d f4 bd b9 64 08 be
       -0.37544066 0.26930493 -0.11925785 -0.13319673
0000f0 b6 eb e0 3e 33 44 4e be b0 e3 30 3e 58 8b de 3e
       0.43929833 -0.20143203 0.17274356 0.43465686
000100 15 45 64 3c 92 82 9b 3e 1c 89 b1 3c 24 9b 7c 3e
       0.013932486 0.30373055 0.021671824 0.24668556
000110 53 5c d1 3e 1b 4b 82 be 12 dc 97 be 16 92 d8 be
       0.4089075 -0.25447926 -0.29660088 -0.42298955
000120 5d 68 bc 3e 8d ac d1 be 32 ac cd 3e de 0c a3 3e
       0.36798373 -0.40951958 0.40170437 0.31845754
000130 ad 51 8c bd e9 4c e9 be 99 e1 85 be a0 5f 13 bc
       -0.06851516 -0.4556649 -0.2614868 -0.008994967

ConvBase.1.feature.lis.1.Y_conv.conv.bias f4 [16]
000000 bf 03 3c 3e 50 61 76 3e c5 05 20 be 32 21 95 3e
       0.18360804 0.2406056 -0.15627201 0.2912689
000010 ef 38 d6 3d c1 74 a7 3d 56 c7 82 3d 66 fa 29 3e
       0.10460078 0.08176566 0.063856766 0.16599426
000020 a1 d9 b5 3e 97 75 45 3d f0 4d dd be 1e 4c 1c be
       0.355176 0.048207846 -0.43223524 -0.15263411
000030 8b c0 c4 be 89 f0 5a 3e aa 9a b2 be 31 bc ba be
       -0.3842815 0.2138082 -0.34883624 -0.36471704

ConvBase.1.feature.lis.1.pointwise.weight f4 [16, 16, 1, 1]
000000 1a d3 3f be 96 60 6d be 79 ca 16 be f0 66 3c 3e
       -0.18732873 -0.23181376 -0.14725675 0.18398643
000010 ee 0b 5d be ce 1d ee 3d a1 0c 9f 3d 6d 96 63 3e
       -0.21586582 0.116267785 0.07766081 0.22225352
000020 cf d8 1a bd b4 ae bb bd 3e 37 7e bd f0 0d 08 3e
       -0.03780442 -0.09164181 -0.0620644 0.13286567
000030 94 40 4e be bc 12 63 3e af 80 62 be 83 64 5f 3e
       -0.20141822 0.22175115 -0.22119401 0.21815686
000040 3f d6 26 3e 85 58 a5 3d b7 1f 89 3d ba 25 80 bd
       0.16292666 0.080735244 0.06695502 -0.06257196
000050 ea 2c 58 be 7f b4 42 be 52 3f 26 3e 71 2a 3c 3e
       -0.21110883 -0.19014166 0.16235092 0.18375565
000060 f2 95 24 3d d7 9b 15 3e 7a 25 58 be cb 32 e2 3d
       0.04018206 0.1461023 -0.21108046 0.11044844
000070 ef d6 06 be e8 9e ce 3d 7c d6 44 3e 18 f4 0e bc
       -0.13167928 0.10088903 0.19222444 -0.008725189
000080 40 de 3c be 97 d4 b6 bd 06 15 1e bd d5 7f 48 3d
       -0.18444157 -0.08927267 -0.03859427 0.048950035
000090 f5 fe 8c be 94 db a5 3b 8f 56 a3 3d 48 19 3c be
       -0.27538267 0.005061576 0.07975494 -0.18369019
0000a0 f0 d6 24 3e 63 7d da 3c 97 23 3e be e3 fa 43 3e
       0.16097617 0.026671117 -0.18568264 0.19138674
0000b0 71 09 20 3c 48 75 26 be 1b 0f bc bd 1a 06 60 be
       0.009767876 -0.16255677 -0.09182569 -0.21877328
0000c0 50 c9 8b bc 20 c1 37 be d2 54 09 3e ee f8 bd bd
       -0.017063767 -0.17944765 0.13411263 -0.09275995
0000d0 bf e2 47 be a5 19 71 3d 73 18 48 3e 0a 0c 4a ba
       -0.1952009 0.058862347 0.19540577 -0.00077074824
0000e0 fd 5c a8 3d 88 e5 12 3b a0 86 2f 3e 1c 14 bd bd
       0.08220861 0.0022414643 0.17141199 -0.09232351
0000f0 24 05 a1 3d 8d 94 82 be e2 0c 98 bc c1 ae 86 be
       0.078623086 -0.2550396 -0.01856083 -0.26305202
000100 ac 6e 39 be 9e 72 4d 3e f0 dd 66 3e d9 03 34 3e
       -0.18108624 0.20063254 0.225456 0.17579593
000110 6b f1 30 be 85 ff 4e 3e 4c 79 43 3e be 7c 28 be
       -0.17279594 0.2021466 0.1908924 -0.16453835
000120 e7 a9 74 3e 5a a0 fe 3d b9 3a 86 3c 89 ce 87 bc
       0.23892938 0.124329284 0.016385423 -0.016577976
000130 f5 26 ee bd 82 fb 2b be b6 c0 87 3d ed 61 00 be
       -0.11628524 -0.16795161 0.066285536 -0.12537356
000140 60 a2 d4 3d b3 41 01 be e5 74 cd bc de d3 ad bd
       0.10382533 -0.12622719 -0.025080154 -0.08487676
000150 ef 0e bb bd ff 97 01 3d ac f8 2c 3d 78 a3 a5 bc
       -0.09133708 0.031639095 0.04222934 -0.02021955
000160 42 6b 11 be 0e c4 45 bd 52 a8 0a 3d ac 9a 64 be
       -0.14201072 -0.048282675 0.03385193 -0.22324628
000170 06 f7 a6 3b 1f 42 0b be ec 64 26 bd e5 df 28 3e
       0.0050953655 -0.13599442 -0.04062359 0.16491659
000180 e7 d4 74 be 2e 81 ea 3c e5 ff 8f bd 0b 09 a3 3c
       -0.23909341 0.02862605 -0.0703123 0.019901773
000190 bf 12 9a 3d bd fb 4d be 57 d2 8c bd e6 b8 5e 3d
       0.07523107 -0.20115562 -0.06876057 0.05437555
0001a0 30 48 1b be e0 e6 15 3e 75 10 87 3e e2 9b fb bc
       -0.15164256 0.14638853 0.26379743 -0.03071398
0001b0 27 9c 36 be 11 ca 13 bd b6 6e c2 bc a5 2b 58 3e
       -0.17833005 -0.036081377 -0.023734432 0.21110399
0001c0 66 51 1d be 69 ad f6 3d 53 08 1a be 87 55 af 3d
       -0.15363082 0.12044794 -0.15042238 0.08561235
0001d0 66 8d 41 3e 3d 68 35 be 28 db 1a bd db e7 0f 3e
       0.18901595 -0.17715545 -0.03780666 0.1405329
0001e0 c7 66 fb bd f1 ca 2a bd 23 cc ea bd 27 57 bb bd
       -0.122754626 -0.041697446 -0.11464717 -0.09147482
0001f0 f8 30 e3 3c 4f 55 16 be 86 e4 3d bd 09 54 0e be
       0.027733311 -0.1468098 -0.046360515 -0.13899244
000200 c4 54 52 3d 55 a3 b5 3d 11 e9 6a be 26 61 82 be
       0.05135037 0.08869044 -0.2294047 -0.25464743
000210 7d 7c 26 bd 9c 06 4f 3d 01 69 82 3e 77 76 ca bd
       -0.040646065 0.050543413 0.25470737 -0.098858766
000220 66 28 d8 3d 37 0d 09 be c0 54 61 3e 5b 75 8c be
       0.105545804 -0.13383947 0.22004986 -0.27433285
000230 25 31 44 3e 92 e6 3c be f7 e7 55 3e 39 f5 1b 3e
       0.19159372 -0.1844733 0.20889269 0.15230264
000240 59 1e f9 3d d1 06 8a 3d 1e a3 71 3e 70 bd bf bd
       0.121639915 0.067395814 0.2359738 -0.09362304
000250 37 59 84 bc ab a2 8e bc eb 4c 61 3e 3c 2d f9 bd
       -0.016155822 -0.01741155 0.22001998 -0.12166831
000260 2a 71 58 bc 23 b3 61 3e d9 f5 ee bd d1 08 87 3d
       -0.013210574 0.22040991 -0.116679855 0.065934785
000270 a2 c4 98 ba 24 d9 54 be 8c 9a 18 3e 4c 60 ef 3d
       -0.0011655281 -0.20785958 0.14902705 0.11688289
000280 f0 d0 88 3e 3f 37 7d 3e 0d a2 0a bd c6 3a bc 3d
       0.26721907 0.24728106 -0.03384595 0.09190898
000290 a0 33 03 3e 75 59 de 3c f8 e0 59 be e4 c2 4d 3c
       0.12812662 0.027142266 -0.21277225 0.012558673
0002a0 0e e8 2f be 23 02 52 3e 5b a5 56 3e c1 f7 17 be
       -0.17178366 0.20508628 0.20961516 -0.14840604
0002b0 29 44 43 3e f9 e0 fc bd 3a 44 66 be 90 c6 42 be
       0.1906897 -0.12347598 -0.22486964 -0.19021058
0002c0 95 fc 17 be b2 d7 9e bc 81 83 6e bd b9 e7 66 3e
       -0.14842446 -0.01938996 -0.05823088 0.22549333
0002d0 8e 20 26 bb 56 e0 81 bd 22 a8 96 bd b9 7d 27 be
       -0.0025348994 -0.06341617 -0.073562875 -0.16356553
0002e0 5f 52 a1 3d 63 2f f3 3d 54 b5 63 3d 89 ba d7 3d
       0.07877039 0.11874273 0.05559285 0.10533626
0002f0 a8 af 3a 3d ac 08 0f be 29 03 5c be 78 4e d6 3c
       0.045577675 -0.13968152 -0.2148558 0.026160464
000300 c6 5a fa 3d b9 42 5c be 08 28 8c bd 6b ba 10 be
       0.12224345 -0.21509828 -0.06843573 -0.14133613
000310 8c c7 da 3d a8 95 2d be 11 be ea 3d 55 4b 45 3c
       0.10682592 -0.1695162 0.114620335 0.012041886
000320 08 15 16 3e d5 59 53 be c2 49 86 3d 7b 89 20 3e
       0.1465646 -0.20639737 0.06557037 0.15677445
000330 15 c9 13 3e 69 6b 9c bd 2a 8c 9f bc fd 77 84 be
       0.14432175 -0.07637674 -0.019476015 -0.25872794
000340 6b dc 5b be 37 18 43 3e c6 f1 08 be 16 ab 96 bd
       -0.21470802 0.19052206 -0.13373479 -0.07356851
000350 0a d5 20 3e a4 47 e1 bd 5b 7c 70 be 4a b0 2e bd
       0.15706268 -0.109999925 -0.23484938 -0.04264859
000360 fb a9 df bd d1 e7 1d bd 50 18 17 3e aa e2 29 be
       -0.10921093 -0.038551155 0.14755368 -0.16590372
000370 92 4f 0e 3e 90 80 2e 3e c2 8c f4 bd 5d 39 4b be
       0.13897541 0.1704123 -0.1194091 -0.19846101
000380 b6 15 11 3e 0d 90 7d 3b 7e 4b f8 bd 15 f1 07 3e
       0.14168438 0.0038690597 -0.12123774 0.13275559
000390 40 c9 2e bd d8 5f cd 3d 7a eb a0 3d df 7b 62 3e
       -0.042672396 0.10028046 0.078574136 0.22117566
0003a0 06 d8 d8 3d f7 29 4b be 00 ca 05 be 83 88 80 3b
       0.10588078 -0.19840227 -0.13065338 0.0039225235
0003b0 d1 0b 1a 3e 11 0e 20 be 66 07 55 3e c6 02 b2 bc
       0.1504357 -0.15630366 0.20803604 -0.021729838
0003c0 48 65 cc bc 27 9f 15 be 82 47 43 3e 9a 69 60 be
       -0.024950638 -0.14611493 0.19070247 -0.21915284
0003d0 d5 6e 90 bd 4d b2 56 3d 0b 93 11 bc c2 84 31 be
       -0.070523895 0.052416135 -0.008885155 -0.173358
0003e0 53 d5 de bd 1f 50 af bd ec a2 33 bd ae 66 52 be
       -0.10880532 -0.08560204 -0.043856546 -0.20546982
0003f0 c1 11 1d bd 47 d7 5d 3e 21 df 88 3e c4 16 c7 bd
       -0.03834701 0.21664153 0.26732734 -0.09721139

ConvBase.1.feature.lis.1.pointwise.bias f4 [16]
000000 d4 d4 89 3e 36 9b 5e be 04 95 18 3e d6 47 34 be
       0.26920187 -0.21738896 0.14900595 -0.17605528
000010 43 df af bd 85 98 80 be 82 68 54 be 46 60 f6 3d
       -0.08587506 -0.25116363 -0.20742992 0.120300815
000020 e0 0f 39 be 78 ef 7e 3e af 3f d0 ba f8 14 0c 3e
       -0.18072462 0.24896038 -0.001588812 0.13679874
000030 79 fd 9a 3d a6 68 01 3c 67 40 01 3e 46 8b 8b be
       0.07567877 0.007898485 0.12622224 -0.27254695

ConvBase.1.feature.lis.2.X_conv.conv.weight f4 [16, 1, 7, 1]
000000 b3 fb 81 3e df 1a b6 be 52 74 c1 3e fc e7 f5 3d
       0.25387344 -0.35567376 0.37784058 0.12007138
000010 39 38 ad 3e b3 4e ca bd 97 8f 9d be 3f 74 b2 3d
       0.33831957 -0.09878292 -0.30773613 0.087135784
000020 74 f4 47 3c 69 23 24 3e 48 c7 b8 3d 1f 31 27 be
       0.012204278 0.16029133 0.09022385 -0.16327332
000030 d7 4b 42 3e 7b eb 9f 3e c5 74 25 be a2 90 cb bd
       0.18974243 0.31234345 -0.16157825 -0.09939696
000040 07 a3 b2 be ef cb 02 3e 3a b3 7f be e7 51 95 3e
       -0.34890005 0.12773107 -0.24970713 0.2916405
000050 37 86 0c bd fd e3 b5 be d7 05 24 3e 60 7f 43 be
       -0.034307685 -0.35525504 0.16017853 -0.19091558
000060 fc 65 aa 3e 72 15 9b bd 85 74 32 be 34 78 18 3d
       0.33280933 -0.0757245 -0.17427261 0.03722401
000070 ac 84 b2 3d 67 6f 53 3e ab 5c 91 3e 39 74 b2 3e
       0.087167114 0.20647965 0.28391013 0.34854296
000080 81 d4 48 3e a8 d7 86 be 5e 88 a8 3e c0 48 1b bd
       0.19612314 -0.26336408 0.3291654 -0.037911177
000090 1e 48 fa bd 36 e3 46 bd b0 5e a3 3e d0 5a a3 be
       -0.122207865 -0.04855653 0.31908178 -0.31905222
0000a0 6b 62 43 be f5 16 42 be c1 25 0b be 21 cc 80 be
       -0.19080512 -0.1895407 -0.1358862 -0.25155738
0000b0 42 36 5d be 0c 3a 5b 3d a5 43 a6 3d 99 8e c8 be
       -0.21602729 0.053522155 0.08118371 -0.39171293
0000c0 ab b9 49 3e 83 4d 99 be 8b 83 70 be 21 f8 b6 3e
       0.19699733 -0.2994195 -0.2348768 0.35736182
0000d0 f8 41 82 3e bc aa 88 3e bc 12 33 3e b7 cb a1 3e
       0.25440955 0.2669276 0.17487615 0.31600735
0000e0 a5 5c 9d be fa a8 9e 3e d1 37 58 3e 37 59 08 bd
       -0.30734745 0.30988294 0.21115042 -0.033288207
0000f0 0a 6b f9 3d cb dc b8 3b 12 4d f7 bd 64 6a 75 3e
       0.12178619 0.005641555 -0.12075247 0.23966366
000100 fe f1 7b 3e 1b f5 8d 3e ad df b5 3d 44 07 b9 be
       0.24604031 0.27726063 0.088805534 -0.36138356
000110 bd 14 a9 bd 64 3e b7 be 35 2a ac 3e 3e 33 a5 3e
       -0.08255909 -0.35789788 0.3362595 0.32265657
000120 a6 0a 51 3e a3 4f 40 be a7 d9 b2 3d b3 47 1a be
       0.20414218 -0.18780379 0.0873292 -0.15066414
000130 d8 b5 7c 3e dc ad e6 3d f9 be 08 3d 1f a3 d6 3d
       0.24678743 0.1126363 0.03338525 0.10480332
000140 20 95 8e 3e cc 4d e6 bd 30 23 6b be b8 0c 06 be
       0.27848148 -0.11245307 -0.22962642 -0.1309079
000150 f4 ce 56 3d cf 3b 09 be d7 71 d2 3d 80 9e 3c 3d
       0.05244346 -0.13401721 0.102756195 0.046049595
000160 2c 7a 1b 3d b3 fe 27 3e 86 aa ab be 33 17 1a be
       0.03795831 0.16405754 -0.33528537 -0.15047912
000170 c7 1e 41 3c e9 48 5d 3e b6 6e c9 be 2b 46 4f be
       0.011787123 0.21609844 -0.39342278 -0.2024161
000180 e8 bd 9b be 4f 61 c6 be 3c 27 c9 3d 12 7f ba 3e
       -0.30418324 -0.38746116 0.098219365 0.36425072
000190 12 03 86 bd 12 c9 4f be 39 a2 3a be 6a d3 0a bd
       -0.06543554 -0.20291546 -0.18225946 -0.033893026
0001a0 10 99 0a 3d ae 70 9f 3e 66 bc 15 3e 7d c2 9d be
       0.033837378 0.31140655 0.1462265 -0.30812445
0001b0 fc ea 53 be b2 d0 11 3e 9c d1 8b be 9f 73 e6 bc
       -0.20695108 0.14239767 -0.27308357 -0.028131304

ConvBase.1.feature.lis.2.X_conv.conv.bias f4 [16]
000000 b5 c2 7f bd 4b d3 7d 3e 43 96 19 be 81 50 12 be
       -0.062441546 0.24787633 -0.14998727 -0.14288522
000010 07 b6 4c bd ed c9 43 3e 35 c5 63 3e 12 c7 b1 3d
       -0.049978282 0.19119997 0.22243197 0.08680548
000020 24 7a 21 3e ef be 9d bd 31 72 a6 3e 76 e8 ae 3d
       0.15769249 -0.07702433 0.32508996 0.08540432
000030 69 41 ec 3c b7 8d e9 bd 11 82 b9 3e 48 25 a6 bd
       0.028839784 -0.11403983 0.36232045 -0.081125796

ConvBase.1.feature.lis.2.Y_conv.conv.weight f4 [16, 1, 1, 7]
000000 b0 f1 72 3d df d4 6f 3e af 7c 94 be 04 05 03 be
       0.059312522 0.23421048 -0.29001376 -0.12794882
000010 50 16 82 3d 9d b9 a7 be da f8 af 3e 52 e2 80 3d
       0.06351912 -0.327588 0.34369546 0.06293167
000020 c0 fb a5 be eb f5 c3 3d 23 35 cf bb 51 9e a4 be
       -0.32418633 0.095683895 -0.006323473 -0.32152036
000030 e8 aa 3b 3e 5e 07 f2 3d 3b 07 e9 bd 07 89 2b 3d
       0.18326914 0.118178114 -0.11378332 0.041878726
000040 5e be 71 be d7 da 8d 3e 6e 92 b0 3d 79 77 2a 3e
       -0.23607776 0.27706024 0.08621679 0.16647138
000050 42 55 89 bc 2d 52 d3 bd 34 4f 8e 3e 47 13 eb 3c
       -0.016764287 -0.10318408 0.27794802 0.028695716
000060 2c f3 b5 3e 6e 6d e1 bb 6a b4 c3 3d af 8e 9b 3e
       0.35537088 -0.0068795 0.095558956 0.30382296
000070 80 73 7e 3e 40 20 3e 3e 2e 06 5e 3e 22 ff 77 bc
       0.24848747 0.1856699 0.21682045 -0.015136512
000080 02 ab eb 3d 32 2b 05 3e 53 9e 65 3e 8a ac 16 3e
       0.115072265 0.13004759 0.22423677 0.14714256
000090 37 f1 57 bd 99 57 c2 3d 5d 66 d5 be c2 d0 08 3e
       -0.052720275 0.09489364 -0.4167966 0.13360885
0000a0 39 37 ab 3d 6e 48 90 3e a7 a7 45 3e 03 ed 81 be
       0.08360142 0.2818026 0.19302236 -0.25376138
0000b0 d3 c9 af be 67 1e 5e 3e 58 25 b3 3c 32 dd a0 3e
       -0.34333667 0.21691285 0.021868393 0.3141876
0000c0 b4 23 e9 bc 2e 64 02 be 38 77 d7 bc d9 91 18 3e
       -0.028459407 -0.12733528 -0.026301965 0.14899386
0000d0 bd db 8b be 9c 70 a3 be 8c 1c e1 bb 55 b4 e7 3d
       -0.27316085 -0.31921852 -0.006869858 0.113136925
0000e0 9f 5f c9 be b7 80 b9 3d 2a 3e b0 be 0b 55 88 be
       -0.39330766 0.090577535 -0.34422427 -0.26627383
0000f0 fa 5f 82 3e 0e aa 0e bc 92 c0 a6 bd 66 68 83 bd
       0.2546385 -0.008707536 -0.081421986 -0.06416397
000100 db 4d be be 94 3a 35 be 52 7b fb 3d 05 f8 04 3e
       -0.37168774 -0.17698127 0.12279381 0.12985237
000110 96 18 44 be d1 3e 8c be e2 a4 7e bd 28 8a 21 3d
       -0.19150004 -0.27391675 -0.062168963 0.039438397
000120 36 a4 8f 3e 5e d3 07 3e c1 f5 ef 3d fa 99 8f 3e
       0.2805497 0.13264224 0.11716796 0.28047162
000130 b1 2f a2 be a8 b1 5a 3e 2b 56 71 be ba c9 21 3e
       -0.3167701 0.21356833 -0.23568027 0.15799609
000140 b7 30 1b be 22 fb 2c be 50 c2 bd be b5 c4 b3 3e
       -0.15155302 -0.16892675 -0.3706231 0.35111013
000150 86 09 0c 3e 65 e5 1e 3e 74 bd 34 bc a7 69 6d be
       0.13675508 0.15517195 -0.011031497 -0.23184834
000160 26 ee 66 3d 63 b6 91 3e 40 be 0c be 67 8f b9 bc
       0.05637946 0.28459463 -0.1374445 -0.022651387
000170 70 81 6f 3c a4 ca 76 3e 50 b2 fe 3d 1d f6 d0 3e
       0.014618263 0.24100739 0.12436354 0.4081277
000180 99 0e 38 3e ba b5 3a be 42 22 5c 3e f8 a9 49 bd
       0.17974319 -0.18233386 0.21497443 -0.04923436
000190 38 d1 04 be a9 d5 a1 bd ca d3 8b 3e e9 42 b5 3e
       -0.12970436 -0.079020806 0.2731002 0.3540261
0001a0 2f 2f 55 3e 32 a0 87 be 68 fc b8 3d 6e af ad be
       0.2081878 -0.26489407 0.09032518 -0.33922905
0001b0 29 f5 83 be 15 72 49 b9 b5 a7 78 bd d5 5f a3 3e
       -0.2577298 -0.00019211353 -0.060706813 0.31909052

ConvBase.1.feature.lis.2.Y_conv.conv.bias f4 [16]
000000 7a 19 92 3d 20 c9 32 3e bc 6d b1 be 7e cd bd be
       0.071337655 0.17459536 -0.34654033 -0.3707084
000010 2d 2d 81 be d6 aa 2e bd 2c 16 15 3e 64 b5 75 bd
       -0.2522978 -0.04264339 0.14559239 -0.05998744
000020 8c ec b7 3d 44 87 ad 3e f8 79 ea bd b8 8a a6 3e
       0.089806646 0.33892262 -0.11449045 0.3252771
000030 b1 e2 93 be bb e0 dc 3d 0b 12 a5 3e 8e e4 9f 3e
       -0.2888389 0.107850514 0.32240328 0.3122906

ConvBase.1.feature.lis.2.pointwise.weight f4 [16, 16, 1, 1]
000000 a2 c3 b6 bd 26 56 bf bd c8 3b 67 3e f2 55 5b 3e
       -0.08924033 -0.093426034 0.22581398 0.21419504
000010 29 81 74 3e 13 6d 17 3a b1 f3 e1 3d a1 5f e4 3d
       0.23877396 0.0005776446 0.110328086 0.11151052
000020 19 f1 62 be 5e 25 8a 3c bb aa 17 3e 2d 46 5e 3e
       -0.22162284 0.016863521 0.14811222 0.21706457
000030 06 29 1a 3e 0d 83 4f bd 6f 6f 4c be d0 da 4d be
       0.15054712 -0.05066209 -0.19964384 -0.20103002
000040 b6 64 31 3e 04 8c f2 bd ff dc 1d 3e 39 28 d0 3d
       0.17323574 -0.11843112 0.15416335 0.10163922
000050 24 be ee bd 5c bf 35 bd 29 63 fb 3b 7d 0f cc 3b
       -0.1165736 -0.044371948 0.007671733 0.0062274323
000060 fb 6f 90 3d 22 82 d7 3c 2b 62 0e be 43 36 3c bc
       0.070526086 0.02630717 -0.13904636 -0.011487546
000070 81 c0 72 bd 4e b8 21 bd 40 52 56 3e d1 4c 1d be
       -0.059265617 -0.039482407 0.20929813 -0.15361334
000080 5d 75 46 be 26 41 37 3e 5b 62 63 3e 4d dc 7a 3e
       -0.19380708 0.17895946 0.22205488 0.244981
000090 73 b4 3c be 19 32 4e 3e bc bd d8 3d bf 92 7c bc
       -0.18428211 0.20136298 0.10583064 -0.015415846
0000a0 6b c8 e4 3d 17 d8 e5 3d fc fb a5 3d f6 1b 9c 3d
       0.11171039 0.112228565 0.08104703 0.076225206
0000b0 fd 4f 1d 3e 09 d7 2b 3d 7e f6 43 be 5a 4e 11 be
       0.15362544 0.04195312 -0.19136998 -0.14190045
0000c0 d3 82 7b be 44 ca 28 be 89 ee af 3c 94 49 4d 3d
       -0.24561624 -0.16483408 0.021476047 0.050118998
0000d0 a5 c0 d8 3c 80 ff 32 be d1 3d 64 be b7 ee 67 bd
       0.026459048 -0.17480278 -0.22289206 -0.05662414
0000e0 3e be 6a 3e f7 fb 02 be 6b 88 07 3e 0c e4 74 be
       0.22924134 -0.1279143 0.13235633 -0.23915118
0000f0 e6 23 e1 3d 69 a9 7a 3e 80 07 89 bd 9d 01 4f be
       0.10993175 0.24478687 -0.06690884 -0.20215459
000100 0d e2 8c bd 53 2e 50 3e 69 31 7b be 68 49 50 3e
       -0.06879053 0.20330171 -0.24530567 0.20340502
000110 87 aa b6 bd 69 b8 11 be 9a 07 ce 3c cb b9 94 bd
       -0.08919244 -0.14230503 0.02515011 -0.07262
000120 1b 8f 51 3d 6d 06 34 3e e8 19 89 bd 75 6d 56 be
       0.051161867 0.17580576 -0.06694394 -0.20940192
000130 3b cc 27 be d7 eb b1 bd 72 3a ce 3a ad d4 d6 3d
       -0.16386501 -0.08687561 0.0015733971 0.104897834
000140 d1 9f fe 3d f5 4c 1d bd 46 49 db 3d d7 cf f2 bd
       0.12432826 -0.03840347 0.10707335 -0.118560486
000150 7e d3 66 3e 1f be 78 3e b8 55 42 3e b6 29 be 3d
       0.22541615 0.24291275 0.18978012 0.092852995
000160 44 d6 82 3e 36 16 b2 bd 1f 1d 79 3e 1b 1f de bb
       0.25554097 -0.08695643 0.24327515 -0.0067786104
000170 02 1d 10 3e ba 1d 38 3d 18 96 15 3e cf 8b 71 be
       0.14073566 0.044950224 0.14608037 -0.23588489
000180 a4 21 fc 3d d3 82 e8 3d d1 77 22 3c 64 5f c5 bd
       0.12311104 0.11353078 0.009916262 -0.09637335
000190 bd eb 0f be 3e 6e c8 bd 76 0d f5 bd 58 96 2c 3e
       -0.14054771 -0.09786652 -0.11965458 0.16854227
0001a0 be e2 88 3e 42 b3 e2 3c fc ca 46 be 79 7b 32 be
       0.2673549 0.027673367 -0.1941337 -0.17429914
0001b0 ae 80 6a 3e 13 d3 a1 bd 2f ae a1 3d 1c 65 c5 3d
       0.2290065 -0.07901587 0.07894551 0.09638426
0001c0 5e 47 14 3e 6c 14 dd 3d 5d c6 ce bc 9b 5d 50 3d
       0.1448035 0.10794911 -0.025241071 0.05087052
0001d0 2a 36 62 bd 51 a7 f6 bd 35 89 84 3d 23 18 09 be
       -0.055227436 -0.12043632 0.06471483 -0.13388114
0001e0 6e 57 01 3e 1f fc c8 3d fa 60 ae 3a 46 13 4c 3e
       0.12631008 0.09813713 0.0013304048 0.19929227
0001f0 27 d0 1a 3d cb 41 8a bc 76 dc 89 bd 2e 92 ce 3d
       0.037796166 -0.016877076 -0.06731503 0.10086475
000200 3b 4f 61 be 26 14 1e 3e 5c 36 1a 3e 49 1c 04 3e
       -0.2200288 0.15437374 0.15059799 0.12901415
000210 30 4d 36 be 8e 10 33 3d 5e 6f 4d bd 10 44 45 3e
       -0.17802882 0.04371696 -0.050155036 0.19264245
000220 0c 2b 38 bb 61 d4 86 3d 51 eb 92 bd 77 35 d8 bd
       -0.002810183 0.06583477 -0.07173789 -0.105570726
000230 56 7f 56 3e 81 76 85 3e 76 f5 dc bd 45 ae f2 bd
       0.20947012 0.26066974 -0.107890055 -0.118496455
000240 6e d0 b0 bd b7 11 49 3e f9 77 1e bd 23 b5 1f 3e
       -0.08633505 0.19635664 -0.038688634 0.15596442
000250 e9 4c 97 3d 11 8c 99 3d d5 39 6e 3e dc 74 71 be
       0.07387716 0.07497419 0.23264249 -0.23579735
000260 45 31 b6 3d 69 83 5c 3e 82 d0 50 3e f7 be 3e 3d
       0.08896116 0.21534504 0.2039204 0.046568837
000270 1e 9d 11 3e 0a c8 e4 bd b2 6b 5f bc 6c 56 fc 3d
       0.14220092 -0.11170967 -0.013636516 0.12321171
000280 ad 39 55 be 90 51 9d 3d 4e d5 be 3c df 04 19 3e
       -0.20822783 0.076815724 0.023295071 0.14943264
000290 b9 35 22 3d 41 e5 df bd 79 7a 56 3d d0 21 a2 3d
       0.039602015 -0.109323986 0.052362893 0.079166055
0002a0 fd ea 62 3e 47 8f 8b bd b1 1f 42 3e 03 0b 20 3d
       0.22159953 -0.06814437 0.18957402 0.039073
0002b0 49 ad 5f 3e 21 27 04 be fa ad 0b be dd 78 46 3e
       0.21843447 -0.12905551 -0.13640586 0.19382043
0002c0 57 e3 65 be 1d 9d 0e be 2f dd 83 3e 01 56 da bc
       -0.22450005 -0.13927121 0.25754687 -0.026652338
0002d0 1d 39 4d be 8d 19 6c be 51 91 65 be a0 65 05 3d
       -0.20041318 -0.23056622 -0.22418715 0.03256762
0002e0 24 61 f3 bd ed 31 23 bd f4 a3 1f 3b 57 0c 71 3e
       -0.118837625 -0.039842535 0.0024359198 0.23539864
0002f0 6b ed 15 be 21 db d7 3d c4 ca 2d 3d 71 b4 a2 3d
       -0.14641349 0.105398424 0.0424297 0.07944573
000300 1e 0e 91 3c a1 8e 71 3c 5d ba 29 3d 45 36 85 be
       0.017706927 0.014743478 0.041437495 -0.26017967
000310 4a 30 d9 3c 62 8f 19 be 36 f2 d0 3d 74 b9 28 be
       0.026512284 -0.14996102 0.10202448 -0.16476995
000320 bb 26 98 3d 1a 54 fa bd 1b f6 11 be cc cb 47 3e
       0.07429262 -0.12223072 -0.14254038 0.19511336
000330 77 c6 c1 bc 34 80 81 bd c6 7b 25 3d a0 1d 09 3d
       -0.023654206 -0.06323281 0.040401243 0.03347552
000340 cf 30 3a be 60 a3 d1 3c 0f 4a 17 be 6b 4c 81 be
       -0.18182682 0.025590599 -0.14774345 -0.25253615
000350 f4 2b 43 bd 08 78 5b bd 2d 77 d2 3b ce 50 00 3e
       -0.04764934 -0.053581268 0.0064228983 0.12530825
000360 b3 cb 68 3e 02 38 58 3e 84 9c 16 3e 90 63 6d be
       0.22733955 0.21115115 0.14708143 -0.23182511
000370 7d 22 84 3e cd 4e 33 be e4 12 d5 3d ae 34 80 be
       0.25807562 -0.17510529 0.10403994 -0.2504019
000380 40 21 db 3c 4e d8 e6 bd 9e 52 64 3e d4 cc 4d be
       0.026749253 -0.112717256 0.22297141 -0.20097667
000390 f3 0f e0 bc 21 9f 2b 3e 08 0b 9d 3b b6 23 2e be
       -0.027351355 0.16759922 0.004792575 -0.1700581
0003a0 7d 90 6c bc be 1a 3e be 8f ac 17 be 8a c3 88 bd
       -0.014438746 -0.18564889 -0.1481192 -0.06677921
0003b0 3f e6 51 be 34 45 0c be 00 1f 8e 3c 54 e3 b0 3d
       -0.20497988 -0.13698274 0.017348766 0.086371094
0003c0 1c a8 82 3e 9f 35 28 3d f7 af 00 be 46 61 6c be
       0.25518882 0.041066762 -0.12567125 -0.23083982
0003d0 b1 ad c3 bd a6 35 25 3e b2 3f 05 bd f8 44 88 3d
       -0.095546134 0.16133747 -0.032531448 0.0665378
0003e0 93 1d 7f bd ae c1 40 be a6 25 84 be 10 a9 8c 3c
       -0.062284064 -0.18823883 -0.25809973 0.017170459
0003f0 e7 a7 02 be 18 d4 c1 bd 2a 42 5b 3e d9 89 3b 3d
       -0.12759362 -0.09464282 0.21411958 0.04578576

ConvBase.1.feature.lis.2.pointwise.bias f4 [16]
000000 be 13 4a 3d 46 2c 82 be 93 fb 70 bd a7 a2 09 3d
       0.049335234 -0.25424403 -0.05883367 0.033602383
000010 49 42 0f 3d 9e 6c 00 be 2b 01 2c be a3 32 23 3e
       0.034975324 -0.12541434 -0.1679732 0.15937285
000020 b4 8a 3f 3e fb ea ae 3c de 63 88 3c 9d 07 d0 bc
       0.18705255 0.021352282 0.016649183 -0.025394255
000030 73 c3 be bd 85 bf f9 3d 32 36 46 be 53 92 47 bd
       -0.09314623 0.121947326 -0.19356611 -0.04872353

ConvBase.1.feature.lis.3.X_conv.conv.weight f4 [16, 1, 9, 1]
000000 85 3c 9a bd e8 26 30 3d b6 08 a0 3e b5 9f 88 bd
       -0.075310744 0.043005854 0.31256646 -0.06671087
000010 32 14 4f be 69 0a 75 3e 9c 4e a2 bd 4d cf 44 be
       -0.20222548 0.23929752 -0.0792515 -0.19219704
000020 57 40 6c 3e aa 9e 0e 3e 2d 6a 88 3e bf 3a 60 be
       0.23071419 0.13927713 0.26643506 -0.2189741
000030 8a 19 87 3d 48 65 20 be 71 fd c1 3d c2 da 9c be
       0.06596668 -0.15663636 0.09472168 -0.3063565
000040 c8 87 05 be 13 fa 4d bd ba b4 8e 3e ee eb 84 3e
       -0.13040078 -0.050287317 0.27872258 0.2596125
000050 65 13 90 3e 51 34 3a b9 d3 49 82 3d f2 4f 7c 3e
       0.28139797 -0.00017757832 0.06361737 0.24639872
000060 b5 90 9f 3e 61 29 1e 3e 06 7c 70 be 84 87 49 be
       0.3116509 0.15445472 -0.23484811 -0.19680601
000070 0d d1 72 bd ac 75 a0 be a2 2a 15 3e 66 fb 9e 3e
       -0.059281398 -0.31339777 0.14567044 0.31051177
000080 fb 26 8f 3d ad 6f 11 be 9f 31 a9 3e 8d b4 42 3d
       0.06989857 -0.14202757 0.3304567 0.047535468
000090 b7 36 e6 3d 1b b1 29 be fa df a9 3e dd 75 02 be
       0.11240905 -0.16571467 0.33178693 -0.12740274
0000a0 ac e2 a0 3e 37 20 84 3e e6 e8 d1 bd 1d 26 f9 3d
       0.31422937 0.25805828 -0.102495 0.12165473
0000b0 f6 d0 28 be 74 24 86 3e e3 82 8e 3e 1a 7f 9e 3e
       -0.16485962 0.26199687 0.27834234 0.30956346
0000c0 4a 8a 02 be 29 6f 14 3e 19 8d 05 3d df ca 25 be
       -0.12748066 0.14495529 0.032605264 -0.1619067
0000d0 d0 7b a0 be 0f da 79 3e 5a 1c 00 be 7e 80 56 3e
       -0.3134446 0.24399589 -0.12510815 0.20947453
0000e0 d1 85 41 3e d2 39 02 be c8 7f 30 be 37 2e 5c 3e
       0.18898703 -0.12717369 -0.17236245 0.21502005
0000f0 d9 13 85 3e 1e 53 a0 3e 67 1c 05 be f3 94 54 be
       0.25991705 0.31313413 -0.12999116 -0.20759945
000100 a0 11 9a 3e c6 65 42 3e c8 01 3e 3e 4b 3e 83 3e
       0.30091572 0.18984136 0.18555367 0.25633463
000110 0c 5a 20 3e de 2c e1 3d 0f 47 b0 be f2 9b 52 3e
       0.1565935 0.10994886 -0.34429213 0.20567301
000120 1f 88 0f be 15 78 ba 3d 98 af 06 bd 62 32 23 be
       -0.1401677 0.09104935 -0.032882303 -0.15937188
000130 a4 11 78 3e 69 79 88 be 9a 3d d8 bc d3 d1 06 be
       0.2422548 -0.2665513 -0.026396561 -0.13165979
000140 ef 22 32 be ce b5 8a be 2e 14 89 be 98 d7 77 be
       -0.17396139 -0.2709183 -0.26773208 -0.24203336
000150 cf 1c 0a bd 3c bd 5b 3e f1 0b a0 3c 0b 09 5e be
       -0.03371888 0.21458906 0.019536944 -0.21683137
000160 2e d8 9d be e6 29 33 3e 19 ae 9a 3d 33 7b 09 be
       -0.30828995 0.17496452 0.07552738 -0.13425903
000170 83 fa 8c 3e 0e e9 7c 3e 37 25 a1 be c1 53 b0 bd
       0.27534875 0.24698278 -0.31473705 -0.08609725
000180 72 f3 25 be bd 05 92 3d 89 d6 a1 3e 67 e4 49 3e
       -0.16206148 0.07130001 0.3160899 0.19716035
000190 71 cf 33 3e 50 fc 30 be 11 df 0d bd fb 99 8d 3e
       0.17559601 -0.1728375 -0.03463656 0.2765654
0001a0 74 6a bb be 5a fe 7c be bf 6b 2c be f9 dc e1 3c
       -0.36604655 -0.24706402 -0.16837977 0.027571188
0001b0 7f 93 27 be cf ef c5 bd 2b 08 6b 3d ec bc 84 bd
       -0.16364859 -0.096648805 0.057380836 -0.064813465
0001c0 61 33 37 be 4e 73 80 be 11 3c 1e 3d 97 56 71 be
       -0.17890693 -0.2508797 0.038631503 -0.23568188
0001d0 36 b7 38 3e 5c 38 97 3e 6d ce 70 be 88 75 31 be
       0.1803864 0.29535186 -0.23516245 -0.17329991
0001e0 b0 32 02 3c 1b e8 b2 bd 77 48 f0 bd 91 b1 79 3d
       0.007946655 -0.08735677 -0.117325716 0.060960356
0001f0 2a ac 3e 3e e1 be f0 3d 40 f0 b0 3c fa a0 63 be
       0.18620363 0.11755157 0.021598935 -0.22229376
000200 56 bf 82 be 14 67 08 bd e9 42 97 3d 2b ac 06 3d
       -0.25536603 -0.033301428 0.07385809 0.032879036
000210 02 62 99 3e 95 50 a4 be 7c 92 75 be 69 89 88 3e
       0.29957587 -0.3209273 -0.2398166 0.26667336
000220 30 58 71 be 74 f2 80 3b a0 26 b5 3d 89 84 64 be
       -0.23568797 0.0039351527 0.08845258 -0.22316183
000230 ce 48 86 bb a2 81 8b 3e ed e8 30 be 80 61 8e 3e
       -0.0040980345 0.2724734 -0.17276354 0.27808762

ConvBase.1.feature.lis.3.X_conv.conv.bias f4 [16]
000000 6f 64 a7 bd e6 f3 82 be ec b7 64 3e c5 0e 43 3d
       -0.08173453 -0.25576705 0.22335786 0.047621507
000010 cb be f9 3d e1 ae e3 3d 31 ce 89 be 16 cc 55 3e
       0.12194594 0.1111734 -0.26915124 0.20878634
000020 82 2c 71 3e 5e ad 11 3e a3 f3 91 3e 76 a1 13 3e
       0.23552135 0.1422629 0.28506193 0.14417061
000030 b6 aa 96 3e 8a 9e cf 3d e5 55 89 bd 64 cb 71 3b
       0.29427117 0.10137661 -0.06705836 0.0036894912

ConvBase.1.feature.lis.3.Y_conv.conv.weight f4 [16, 1, 1, 9]
000000 fa 59 a6 be 71 a5 89 bd 11 6a 59 bb 50 fd a8 be
       -0.32490522 -0.067210086 -0.0033174793 -0.33005762
000010 2e 34 36 bd 86 c4 95 3e 63 49 45 3e 40 4c 1a be
       -0.044483356 0.29251498 0.19266276 -0.1506815
000020 da 8b 23 be 9d 56 cd 3d 48 66 d6 bd 21 b7 0e be
       -0.15971318 0.10026286 -0.10468727 -0.13937046
000030 e9 0f 07 3d 56 5d 44 be bc 25 1b be b9 d6 80 3e
       0.032974157 -0.1917623 -0.15151113 0.2516382
000040 cf a9 98 bb 9f de 4f be 3b cf 7f bd df a4 3b 3e
       -0.0046589146 -0.20299767 -0.06245349 0.18324612
000050 57 44 a3 3e eb a6 85 be f0 0e 08 3e a0 5d 20 3e
       0.31888077 -0.2610391 0.13286948 0.15660715
000060 16 29 33 be 63 1b d9 3d 9e d8 61 3e 78 45 84 3e
       -0.17496142 0.10600927 0.22055289 0.2583425
000070 83 2f 9b 3d f6 dc 1a be 36 2e 00 be 11 b0 41 3e
       0.075774215 -0.15123352 -0.12517628 0.1891482
000080 b3 b9 8e be 70 5f 83 3e e0 da a4 be ae 1d 9b 3d
       -0.27876052 0.2565875 -0.32198238 0.0757402
000090 b6 8a 3a 3e 76 56 3d be f1 d6 f5 bd 13 3a 1c 3d
       0.18216977 -0.18490013 -0.120038874 0.03814132
0000a0 46 ea f6 bd ff 6a ac bc a4 12 fe bc 62 41 e6 bb
       -0.12056403 -0.021047113 -0.031014748 -0.007026837
0000b0 5d cb 9d bd 88 cf 76 3e 0d 5c e3 bd cb 0d 64 3c
       -0.07704804 0.24102604 -0.11101542 0.013919304
0000c0 03 69 3a 3e 19 d6 ce 3c 55 b8 17 bd 04 c8 8c 3e
       0.18204121 0.025248574 -0.037041027 0.2749635
0000d0 b3 ea 81 3e 7a ad 99 be 15 8c 88 be 80 02 0b 3e
       0.25374374 -0.30015165 -0.26669374 0.13575172
0000e0 9f 3b b5 3d 73 35 bc bd ce 30 8e 3e 48 ea 10 3e
       0.088492624 -0.09189882 0.2777161 0.14151871
0000f0 c3 ac 9a be 08 30 21 3e ba 15 50 be bf 3f 37 be
       -0.30209932 0.15740979 -0.20320788 -0.17895411
000100 8f 37 35 3e 67 03 7f be ed 9c 30 3e 12 4c 9f 3e
       0.17696975 -0.24903642 0.17247362 0.31112725
000110 db 04 90 be 2e 0c 19 be 6b 38 a0 3e bd ed 69 be
       -0.28128704 -0.14946052 0.31293043 -0.22844596
000120 c8 46 83 3e 0f 31 1e be 6d 35 2d 3e 21 a7 a4 bd
       0.2563994 -0.15448402 0.16914912 -0.0803969
000130 6d 84 62 be 88 3b 01 3c 64 69 bf 3d 6e f0 e4 3b
       -0.22120829 0.0078877285 0.093462735 0.0069866693
000140 2e 1c aa be 4a 66 04 3e f0 77 22 3e 56 9d 88 bd
       -0.33224624 0.12929645 0.15866065 -0.066706344
000150 d2 c1 0d be 59 1b 39 3e 74 1f 33 be 08 e5 1c 3e
       -0.13843468 0.18076839 -0.17492467 0.15321743
000160 30 e5 1c be 6f 6e 6e 3d 9d c9 04 bb d3 3b 1f 3e
       -0.15321803 0.058210786 -0.0020261772 0.15550165
000170 01 d0 a5 bc 52 8a 94 3e 12 91 44 3e b7 ef ff 3d
       -0.020240786 0.2901178 0.19195965 0.12496894
000180 8f 58 f2 bd 23 51 93 3d e3 e7 ac 3e a5 76 22 3e
       -0.118332975 0.0719321 0.33770666 0.15865572
000190 52 43 b9 bd 8d 91 0e be b7 b5 3a bc ea 99 53 3e
       -0.090460435 -0.1392271 -0.011395863 0.20664182
0001a0 ab 79 36 3e b1 70 9b be b0 3c 9a 3e d0 4d c7 3c
       0.1781985 -0.30359414 0.30124426 0.024329096
0001b0 bd 8e 08 bd b0 12 9b 3e 40 41 3b 3e ab 6c b8 bd
       -0.03333925 0.30287695 0.1828661 -0.09005102
0001c0 34 b8 1c 3e 1c 5b 87 3e 3f fa 1a be 8b 83 a7 bd
       0.15304643 0.26436698 -0.15134524 -0.08179387
0001d0 f4 55 03 3d 5f 0d 83 3e 57 03 ce 3d 7d e1 45 3e
       0.032064393 0.2559614 0.10059231 0.19324298
0001e0 e4 38 38 bd 14 35 00 3e 0c bf 6b 3c 04 8b 19 bd
       -0.04497613 0.12520248 0.014388811 -0.03748609
0001f0 50 d5 fc 3d 08 38 eb 3d 71 9d 0e be 36 42 08 be
       0.12345374 0.114852965 -0.13927247 -0.13306507
000200 a0 fe 23 bc 8a 6c 62 be 8d 32 61 3e ab 2b 5b 3e
       -0.010009438 -0.22111717 0.2199194 0.21403377
000210 07 b9 76 3e 1e d2 23 bd f7 90 87 3d 2e 07 4c 3e
       0.2409402 -0.039995305 0.06619447 0.19924614
000220 38 29 e7 bd 03 65 2c be b0 f2 26 3e a9 94 96 3e
       -0.11287159 -0.16835408 0.16303515 0.29410294
000230 de 35 5c be e9 b2 5d be f7 19 03 bd 48 56 81 be
       -0.21504924 -0.2165028 -0.032007184 -0.2526114

ConvBase.1.feature.lis.3.Y_conv.conv.bias f4 [16]
000000 16 09 bb 3d b1 91 12 be 49 82 1a 3e ce f9 a1 bd
       0.091325924 -0.1431339 0.15088762 -0.079089746
000010 df 1b 92 be 23 63 e5 bd 39 fc 95 3d 6f 75 69 be
       -0.2853689 -0.112005495 0.07323498 -0.22798704
000020 c4 2b 05 3e 0c 7c fd bd ec 2d 87 3d 20 ff 0f 3e
       0.13004977 -0.12377176 0.06600556 0.14062166
000030 ec 0a f2 3d 91 62 a5 bd c3 0f 0f 3e ec 1e 00 bb
       0.118184894 -0.08075441 0.13970856 -0.001954968

ConvBase.1.feature.lis.3.pointwise.weight f4 [16, 16, 1, 1]
000000 b1 93 eb 3d 2c 7a 1d 3c d4 96 73 3d 56 a1 8f bd
       0.11502779 0.009611648 0.059470013 -0.07013194
000010 0c c6 68 3d d1 19 1b bc 26 fd 3a bd 3c ba b8 3d
       0.056829497 -0.009466604 -0.045651577 0.090198964
000020 69 1f cd 3d 9c c7 d2 3c ad 18 f5 3d 4d e1 5c 3d
       0.10015757 0.025729947 0.11967597 0.0539258
000030 aa 70 3f be 29 a2 02 be 28 ce 36 bd c2 e4 df 3d
       -0.18695322 -0.12757172 -0.0446302 0.10932304
000040 2c 03 87 3e c7 a1 c2 bd 6d ac ac bd b8 07 0a 3e
       0.26369607 -0.09503513 -0.08431325 0.13479507
000050 ba dc cd 3d b8 e3 7e 3d f8 90 66 3e 92 50 31 3e
       0.10051866 0.06222889 0.22516239 0.17315891
000060 ea b8 21 be b0 57 b5 bd be 2a a1 3d 10 af 82 3e
       -0.15793195 -0.08854616 0.078694806 0.25524187
000070 fa 67 dd 3b 3d ec 43 3e 30 5f 92 3d 39 96 9b bd
       0.0067567797 0.19133087 0.07147062 -0.07597012
000080 df d1 d2 3d bb 7f a9 bd 67 8a 7b be ec 9d 0e 3e
       0.10293936 -0.08276316 -0.24564515 0.1392743
000090 c6 8a 41 be 12 4d d8 3d 6a 73 29 be 83 af 52 3e
       -0.18900594 0.10561575 -0.16547933 0.20574765
0000a0 03 4d 8c bd 83 89 0b bc db 35 2e bd 5f 55 6e be
       -0.06850626 -0.008516672 -0.04253183 -0.23274754
0000b0 cf aa 07 3d 6e 2c 26 3d be 01 20 be dc b7 31 be
       0.03312188 0.040569715 -0.15625665 -0.17355293
0000c0 b0 18 c4 3d 60 a4 d8 bd b5 ea 4c be 8b 77 be bd
       0.09575021 -0.10578227 -0.20011409 -0.09300145
0000d0 c4 85 fb bd 45 9a 30 3d dd a5 26 be 6f 1e 45 be
       -0.12281373 0.043115873 -0.1627421 -0.1924989
0000e0 aa f6 ba 3d 87 bc 8e bc de 28 03 3e a6 4d 2b 3e
       0.09129079 -0.017423881 0.12808558 0.1672884
0000f0 6a 87 17 bb a4 da 2c be fd 2b 03 3d 1a cf 01 3e
       -0.0023121485 -0.1688028 0.032024372 0.12676659
000100 b8 ae 3e be 16 6b 2a 3e 82 92 69 3d 55 d4 d7 3c
       -0.18621337 0.16642413 0.057024486 0.026346365
000110 09 7c 34 bd 62 a4 db bd 72 0a 33 3e d1 65 62 3e
       -0.0440636 -0.10724713 0.17484453 0.22109152
000120 07 dd 3c bc 44 0f 2b bd 47 64 1f 3e c6 e0 a0 3d
       -0.011527306 -0.041762605 0.15565597 0.07855372
000130 11 46 db 3d e5 2b b2 bd 76 e8 2a be 1b 85 5b be
       0.107067235 -0.086997785 -0.1669024 -0.21437494
000140 53 3a 5f be aa 96 16 3c 25 5d 26 be 05 39 ab bd
       -0.21799593 0.009191195 -0.1624647 -0.08360485
000150 a2 0e 4c 3e dd 2b 61 bd fd da 6d be 67 71 4c bd
       0.19927457 -0.054973472 -0.23228069 -0.049912836
000160 11 89 8a bd 8b c6 91 3c 2b c8 bc bd 06 43 a3 bd
       -0.067644246 0.017794868 -0.092178665 -0.07971768
000170 67 5e 2b be ad b2 74 be 2f 37 d2 bd 78 d7 25 bd
       -0.1673523 -0.23896284 -0.10264432 -0.04048869
000180 7c 30 cc bc 57 0d d0 bd 5d 08 31 3e d4 6c 87 bd
       -0.024925463 -0.101587944 0.17288347 -0.06612554
000190 14 ae 12 3e 40 61 2d 3e 6c e4 36 3e ab 44 43 be
       0.14324218 0.16931629 0.17860574 -0.19069164
0001a0 bd 86 5c be 79 1b f0 bc 96 a9 0a 3e a9 0f 5b bd
       -0.21535774 -0.029309975 0.13541254 -0.05348173
0001b0 e3 ca 78 3e 9b 03 34 be 37 82 53 3e 7a 0b ce bc
       0.24296145 -0.175795 0.20655142 -0.025151957
0001c0 34 74 22 3e 09 83 6e be 88 dd d5 bb 2c 33 d3 bd
       0.1586464 -0.23292173 -0.0065266527 -0.10312495
0001d0 09 1d a5 bc 0d ee ed bd 16 3d d8 3d 4a d7 30 be
       -0.020155447 -0.1161767 0.10558526 -0.17269626
0001e0 86 4d 20 be 5d 12 6c 3c 61 7a 2d be 62 60 e2 3d
       -0.15654573 0.014408675 -0.16941215 0.1105354
0001f0 5a 6e 86 bd 51 d2 a7 bd 9f 1a 1b 3e ad 69 31 3e
       -0.06564017 -0.081944115 0.15146874 0.17325468
000200 62 75 28 be 78 4a 8d bc 50 50 75 3e 70 7c 1b 3d
       -0.16451028 -0.017247424 0.23956418 0.03796047
000210 1b b8 0f be 13 5b db bd 57 b3 5c bd 93 f7 3a 3e
       -0.14035074 -0.107107304 -0.05388197 0.18258505
000220 b0 ca 74 be 13 58 8f 3d 71 e9 92 bc aa 3e 79 be
       -0.23905444 0.06999221 -0.01793358 -0.2434031
000230 53 01 63 3c 4b fc 3b 3e 3a 2d 93 3d 25 11 b2 bd
       0.013855296 0.18357961 0.07186361 -0.08694676
000240 ae 62 0d 3d f8 38 e6 bd 36 71 c6 bb 96 d8 90 bc
       0.034517936 -0.11241335 -0.0060559763 -0.017681401
000250 c7 91 86 3e 0c 29 21 be a7 9a 0d be db 70 b9 3c
       0.26283094 -0.15738314 -0.13828526 0.022636821
000260 6c 41 3e 3c d4 4e ea bc d1 74 52 3e 12 14 45 3e
       0.0116122775 -0.028602041 0.20552374 0.19245937
000270 a0 d5 5b 3a 69 00 6d be 7c b1 64 3e 85 0d ee 3d
       0.00083860196 -0.23144688 0.2233333 0.116236724
000280 33 65 06 3e 5d 03 8d bd 3a c4 1d 3e de 7d ca 3d
       0.13124542 -0.06885407 0.15406886 0.098872885
000290 8d b1 7d 3d bc 82 58 3d 5d 49 3a 3e 32 e1 12 be
       0.061936904 0.052859053 0.18192048 -0.14343718
0002a0 ba d9 e6 bd c2 c8 85 3d 4b 46 4b 3e bd 70 87 3d
       -0.11271997 0.06532432 0.19851033 0.066133
0002b0 43 aa 98 bd b3 24 67 3c 5d 6a f4 bb d0 af 17 3e
       -0.0745435 0.014107871 -0.0074589686 0.14813161
0002c0 35 d5 12 3e ae 61 61 3d 7b ba 53 3d f0 26 cc bc
       0.14339145 0.055024795 0.051691514 -0.02492091
0002d0 b1 6a 8b bd d6 3e 2b 3e b0 70 17 be f8 b2 75 be
       -0.06807459 0.16723189 -0.1478908 -0.23994052
0002e0 8a 76 1b 3e f7 a1 10 be 67 b5 80 3e 64 5f b6 bd
       0.15181938 -0.14124285 0.251384 -0.08904913
0002f0 23 8d d3 bc 0f b4 69 3e 7d 4e 27 3e d9 1b 4a 3e
       -0.025824135 0.22822593 0.16338535 0.19737186
000300 7a 30 6b be 9b 67 59 3d e0 8f 5b be 91 ff 33 3d
       -0.22967711 0.05307732 -0.21441603 0.0439449
000310 d3 62 a9 3d 44 70 44 3e 74 b5 64 be f3 2b 3b 3e
       0.08270802 0.19183451 -0.22334844 0.18278484
000320 b7 0d 52 3e c6 de a7 3b fa ed ce bc 6e 05 47 3e
       0.20513044 0.005122992 -0.02525996 0.19435665
000330 4a a6 11 bd cf 6a 70 be 3a ba 3e 3e 3c ee 0c 3d
       -0.035558976 -0.23478244 0.18625727 0.034406886
000340 7c 27 96 3d 4e cd 04 3e 49 38 02 3e 54 24 db 3d
       0.0733175 0.12968943 0.12716784 0.107002884
000350 4f 35 25 3e 91 65 0f be 61 43 b4 bd 1b a6 a5 bd
       0.16133617 -0.14003588 -0.08801914 -0.08088323
000360 2d 30 d9 3d a6 bc 39 be 85 da b8 3d 95 46 36 be
       0.10604892 -0.1813837 0.09026054 -0.17800362
000370 a0 fa a1 bd 49 3c 01 bd 18 5e 60 bd a7 7c f3 bd
       -0.07909131 -0.031551633 -0.054777235 -0.1188901
000380 44 db c8 3d 9c 4f 62 3d 56 e4 65 3e c3 70 4e 3e
       0.098074466 0.055251703 0.22450384 0.20160203
000390 fb 98 34 3e 8c 7f 59 be 29 5e c5 3d 8b c8 25 3e
       0.17636482 -0.21240062 0.096371 0.16189782
0003a0 2e 2d 97 3c c7 9f 50 be f1 70 7b 3e 9d a6 9c 3c
       0.01845416 -0.2037345 0.24554802 0.019122416
0003b0 88 2d 0a be 9c 3a 1a 3d f0 ff 6a 3e 9b b4 2d 3e
       -0.13493931 0.03765355 0.22949195 0.16963427
0003c0 64 55 8a bc fd 19 0e 3e ab ea 0a 3e 20 20 63 3d
       -0.01688642 0.13877101 0.13566081 0.05545056
0003d0 8e 36 66 be 89 0a 50 be f3 bd 21 be 81 d3 48 be
       -0.22481748 -0.20316519 -0.15795116 -0.19611932
0003e0 4d 95 4f 3c 5f ef e0 bc 98 96 1e 3e 34 4b 66 3c
       0.012669873 -0.027457891 0.15487134 0.014056016
0003f0 fe e7 ea bd 29 8a 41 be 7c 80 f7 3b 5a 23 5b 3e
       -0.1147003 -0.1890036 0.0075531583 0.21400204

ConvBase.1.feature.lis.3.pointwise.bias f4 [16]
000000 9a eb 85 3e 14 55 f9 3d 09 df f0 bd c4 7e 41 be
       0.26156312 0.121744305 -0.117612906 -0.18896013
000010 cf c0 db bc 16 a3 35 3e cb 73 25 3e 8b b2 51 3e
       -0.026825337 0.17737994 0.16157453 0.20478265
000020 44 fd 27 be 57 e8 f7 bd 58 be 6b ba 60 17 40 3d
       -0.16405207 -0.12104862 -0.0008992902 0.046897292
000030 68 7e e6 bd f8 53 9e bc b1 d8 c7 3d 76 2a 4d 3e
       -0.11254579 -0.019327149 0.097581275 0.20035729

ConvBase.1.feature.bn.weight f4 [16]
000000 ba 05 78 3f cc c5 60 3f 27 6b 01 3f 00 c3 03 3e
       0.9688374 0.87801814 0.50554127 0.12867355
000010 31 6a 2c 3f 65 87 20 3f 4c c0 60 3f c6 7b 03 3f
       0.67349535 0.62706596 0.8779342 0.5136074
000020 11 d8 70 3f 77 88 25 3f 82 22 6e 3e 25 e2 05 3f
       0.9407969 0.64661354 0.23255351 0.52298194
000030 02 4b 4f 3f 20 20 14 3e 76 40 55 3e 6e c0 8d 3e
       0.8097383 0.1446538 0.20825371 0.27685875

ConvBase.1.feature.bn.bias f4 [16]
000000 db a4 a8 3b 63 f4 05 bb 3d 2d 02 3c 81 d5 ad 3c
       0.0051466054 -0.0020439855 0.007945356 0.02121997
000010 71 88 93 bc f6 a3 02 bc 1b f2 80 ba b7 99 d2 3c
       -0.018009396 -0.007973662 -0.0009837778 0.025708063
000020 d1 bb 77 bc 3e 4e 4e 3c c7 24 41 3b 87 34 e6 3c
       -0.0151204625 0.012591897 0.0029471384 0.028101219
000030 45 a7 e3 3c 1f 0d cb 3c 1d 68 d8 3c 5c 71 9d bc
       0.027789721 0.02478653 0.026416833 -0.019219093

ConvBase.1.feature.bn.running_mean f4 [16]
000000 b3 a2 8d 3e 95 a5 10 be aa 2c c3 3c d3 2e c9 be
       0.27663192 -0.14125665 0.023825008 -0.39293537
000010 e6 19 ae 3b c9 ab a9 be 6a 3f 03 be 8e 9f ba 3e
       0.005313146 -0.33138874 -0.1281716 0.36449856
000020 30 89 b2 be d4 7a 92 3d cd 20 ac bd 41 83 65 bc
       -0.3487029 0.07152334 -0.08404694 -0.014008344
000030 f6 aa 7d bd f2 90 25 3d 81 52 f7 3b 5a d9 cd 3c
       -0.06193062 0.040421434 0.007547677 0.025128055

ConvBase.1.feature.bn.running_var f4 [16]
000000 12 6a 0b 3b c1 09 d5 3a 0d 35 45 3b 7e 3b 1d 3b
       0.002127294 0.0016253517 0.0030091435 0.002399176
000010 aa fc fe 3a 36 12 73 3b 6c 7a 58 3b 00 f5 64 3a
       0.0019453962 0.0037089712 0.0033031953 0.00087340176
000020 d6 a0 46 3b e4 cc e4 3a cf 7a ca 3a 1b ab 26 3b
       0.0030308268 0.0017456082 0.0015447977 0.0025431577
000030 c6 7e 0b 3b ae c3 dd 3a 38 74 39 3b 3f 3e 18 3b
       0.002128528 0.0016919279 0.0028298032 0.002323046

ConvBase.1.bn.weight f4 [64]
000000 9c f8 da 3e fd 1b c6 3d 82 49 db 3d db 7b b4 3d
       0.427678 0.09673307 0.1070738 0.08812686
000010 61 89 ba 3e 32 12 44 3f 04 07 67 3f cd 8b 5e b9
       0.36432937 0.76590264 0.9024508 -0.0002122365
000020 bd ec 31 3f 82 63 66 3f 59 a3 82 3e e2 da 0d 3f
       0.6950186 0.89995587 0.2551525 0.55412114
000030 da 48 72 3d b2 60 10 3e dc c4 4b 3f e1 33 46 3f
       0.059151508 0.14099386 0.7959726 0.7742291
000040 f6 cd 46 3f 27 22 50 3f 45 45 4d 3f 39 ba d2 3e
       0.7765802 0.8130211 0.8018382 0.41157702
000050 09 34 b6 3e 4b fc 54 3f d8 7f 17 3f 5d 1d 88 3e
       0.35586575 0.8319747 0.5917945 0.26584902
000060 6e 65 58 3f ba 19 1e 3f 57 69 00 3f f3 d6 13 3f
       0.8452977 0.61758006 0.50160736 0.5774986
000070 bf b2 4b 3f fa 16 bd 3e da 3f 96 3e 7d c9 71 3f
       0.7956962 0.36931592 0.2934559 0.9444807
000080 a2 e5 2e 3f bd 30 c7 3e f9 c5 12 3e 86 c5 73 3f
       0.6831914 0.38904372 0.14333333 0.9522327
000090 9d d2 93 3e 93 de 4e 3f 16 65 94 3e 1e be ed 3e
       0.28871623 0.8080837 0.28983372 0.4643411
0000a0 54 15 b3 3e 70 a9 3a 3f ac 1f 99 3e e0 dd 0b 3e
       0.3497721 0.7291479 0.29906976 0.13658857
0000b0 38 0e 9f 3d e4 45 e8 3e 40 ea 35 3e df 70 4d 3f
       0.07766384 0.45365822 0.1776514 0.8025035
0000c0 7f b8 44 3f d0 38 f8 3e b8 c1 90 3e 85 9a 27 3f
       0.7684402 0.48480844 0.28272796 0.65470153
0000d0 7b a3 a6 3e 9a b0 7e 3f 33 6e 9d ba 29 1a 70 3f
       0.325466 0.9948822 -0.0012010991 0.9378992
0000e0 a8 ad 70 3f 6f 5c 6b 3e 28 1c 9b 3e ca 9f 2b 3f
       0.9401498 0.2298448 0.3029492 0.67040694
0000f0 2e 32 ef 3e 80 ed 12 3e d3 2c 5a 3f 7e b2 36 3f
       0.46717972 0.14348412 0.85224646 0.7136611

ConvBase.1.bn.bias f4 [64]
000000 68 27 db 3c a1 9e 03 3c 9e ea 97 bb 0a f6 36 3c
       0.026752189 0.008033426 -0.004636123 0.011167059
000010 11 b4 f0 bc 7e 50 8c bc d4 3c bd 3c 15 40 cf bb
       -0.029382737 -0.017128225 0.023100294 -0.006324778
000020 8d a8 a3 3c ad 4a cd 3b df 4f 85 bc 7f a5 6f bc
       0.019977832 0.0062650056 -0.016273437 -0.01462686
000030 12 1d 11 3b 3b 24 c4 3c 53 87 47 bc 64 f5 02 3d
       0.0022142571 0.023943057 -0.01217826 0.031972304
000040 7d 32 1f bb 56 a5 a4 bc 82 3e 82 bc 68 62 07 bd
       -0.0024291568 -0.02009837 -0.015898947 -0.033052832
000050 f4 dc c5 3c 52 37 46 bc df 66 24 3c 0d b3 36 3b
       0.02415321 -0.01209815 0.010034292 0.0027877719
000060 39 17 8f bc 4d 40 81 3c bf bb 79 bc 92 76 93 3c
       -0.017467128 0.015777731 -0.015242516 0.018000875
000070 db 42 ad 3b d7 cf 10 3c 96 6d 30 3c 08 78 18 bc
       0.005287511 0.008838615 0.010768315 -0.009305961
000080 9d c7 04 bc 71 09 c1 bc 1e 71 e0 bc c5 43 35 3d
       -0.008104232 -0.023564072 -0.027397688 0.044254083
000090 74 29 dd bb 1f 9c a3 3c 0b d9 0b bc 06 23 37 3c
       -0.0067493264 0.019971905 -0.008535634 0.011177784
0000a0 00 d8 b5 3c 28 67 fa bc b2 66 12 3c e9 b9 5c bb
       0.022197723 -0.030566767 0.008935617 -0.0033680147
0000b0 51 68 6a 3c 32 60 a7 3c c2 8f 9a bb dd 00 13 3d
       0.0143070975 0.020431612 -0.0047168443 0.035889495
0000c0 ed a6 14 3c 62 24 fc 3c 00 fb 02 3c 23 b0 b0 3c
       0.009073001 0.030779067 0.007994413 0.021568364
0000d0 04 dd 97 3c 1f d5 cd bc d1 79 84 bc ab 86 6b 3c
       0.018538006 -0.025126038 -0.016171368 0.014375369
0000e0 25 29 d7 bb d6 48 71 3b 99 89 96 3c c5 98 9d 3c
       -0.006566184 0.0036817095 0.018376159 0.019237885
0000f0 4f c3 0b bc a1 bc f2 3b 7e b5 55 3b 19 8f 55 3b
       -0.008530452 0.00740774 0.0032609398 0.0032586514
