waights/weights2.pth (torch_old, 670822 bytes, 196 tensors)

ConvBase.1.feature.lis.0.X_conv.conv.weight f4 [1, 1, 3, 1]
00000000: aa81 9bbc f7fd 21be 452e edbd
-0.018982727 -0.15819536 -0.11581091

ConvBase.1.feature.lis.0.Y_conv.conv.weight f4 [1, 1, 1, 3]
00000000: c4e1 a03e 754c 6abd cb0b 12be
0.31422246 -0.05720182 -0.14262311

ConvBase.1.feature.lis.0.pointwise.weight f4 [16, 1, 1, 1]
00000000: bace b3be 1a78 5ebe ebd9 4abf a23f 72bf
00000010: 05d4 f8be 5e2e b9bd e6a8 103d 7eef 163f
00000020: 503b 543f 2160 2b3f 3a38 673f ba1b 8d3d
00000030: 0068 323f 033c 0bbb 3793 ed3e d339 edbe
-0.35118657 -0.21725503 -0.79238766 -0.94628346 -0.48599258 -0.09042047 0.035317324 0.58959186
0.82903004 0.66943556 0.9032017 0.06890054 0.6968994 -0.0021245487 0.4640138 -0.4633318

ConvBase.1.feature.lis.0.pointwise.bias f4 [16]
00000000: 66cb 543f db74 9cbe bad6 333f 99b5 80bf
00000010: 06d6 8ebe 0ffb 4cbf a18f 9fbe 340d 6d3f
00000020: ccfb 34bf 71e5 813e 4fa7 edbe aa8e 0bbf
00000030: 3994 093d e656 acbd 9b5d 93be 7e35 d5be
0.8312286 -0.30557904 0.7024952 -1.0055419 -0.27897662 -0.80070585 -0.31164268 0.9259827
-0.7069671 0.25370362 -0.4641671 -0.54514563 0.03358862 -0.08415012 -0.28782353 -0.41642374

ConvBase.1.feature.lis.1.X_conv.conv.weight f4 [16, 1, 5, 1]
00000000: 3731 7f3e 1305 95be b199 4e3c e47e ac3e
00000010: be2c 7f3e fda5 af3c 4b82 ac3e 0340 7e3a
00000020: 9127 093e aba0 8dbe 2537 67be ee0c a3be
00000030: 4ddd 81bd c971 933e 1622 e7bd 5934 41bd
00000040: 3b5c 203d cec5 433e 67b7 db3e ca5b 953c
00000050: 62e8 bcbe 3e50 aebd 8a4c 0d3d 06cc a2be
00000060: fce3 b53e 4623 003e dc65 833e 16fd c1be
00000070: 7639 643e 663c 2a3e d7da 8cbe f3d3 35be
00000080: 2647 43be 59f4 3f3e f76e 7bbb 4815 923d
00000090: 7383 23bd 7c55 e33e 9185 cb3e c220 0d3e
000000a0: 5c82 5a3d d993 abbe 7e61 b63e f4fd 733e
000000b0: f394 c53d 1644 a6be 88be 96be 7a6c c13d
000000c0: f7e9 0e3e 48df cabe 0c6b 7ebd 5905 6abd
000000d0: b132 dabe 37e2 9abb a50b c53e 3d81 e3be
000000e0: 8457 e6be 9db9 913e 1caf 3c3e fa6e b43e
000000f0: bad8 34be 346d 61bd dd8f 6abd 502f ca3e
00000100: bcbf 8fbe f54b bbbe 4384 a83e a976 42be
00000110: 4920 a13d ca3d aabd 5a03 debb e334 4f3c
00000120: f6f6 94be 7509 e2be 1c42 7b3e 554c b73e
00000130: af3e 93bd cc02 1c3e dbab 553e 4aad c4be
0.24921118 -0.29105434 0.012609885 0.3369056 0.24919412 0.021441454 0.33693156 0.00096988695
0.13394 -0.27661642 -0.2257963 -0.31845802 -0.06341038 0.2879775 -0.11285798 -0.047169063
0.039150458 0.19118425 0.42913362 0.018232245 -0.36896044 -0.08511399 0.03449682 -0.31796283
0.355255 0.12513456 0.2566365 -0.37888402 0.22287545 0.16624603 -0.27510712 -0.17756633
-0.1907011 0.18745555 -0.00383657 0.07132965 -0.03992028 0.44401157 0.3975034 0.13782027
0.053346977 -0.33511236 0.35621256 0.23827344 0.096475504 -0.3247382 -0.2944224 0.094445184
0.13956438 -0.39623475 -0.062113807 -0.057134006 -0.426168 -0.004726674 0.38485447 -0.44434538
-0.44988644 0.28461924 0.18426174 0.35240918 -0.176608 -0.055035785 -0.057266105 0.39489222
-0.2807597 -0.36581388 0.32913408 -0.18990578 0.07867486 -0.083125666 -0.006775302 0.0126468865
-0.29094666 -0.4414784 0.24536937 0.35800424 -0.0718969 0.15235442 0.20866339 -0.3841346

ConvBase.1.feature.lis.1.X_conv.conv.bias f4 [16]
00000000: f777 a53c 0571 ca3d 727a 1c3d 5125 e5be
00000010: bc9f 91be e687 c8be 7539 e2be cf89 bb3d
00000020: 2b4a 2b3e d7ac 28be 1094 993e 70bf 9c3e
00000030: 09c8 983d 1c1d f23d f3f2 d8be a7f9 70bb
0.020198805 0.09884838 0.03820271 -0.44755033 -0.2844218 -0.39166182 -0.4418446 0.09157144
0.16727512 -0.16472183 0.29995775 0.30614805 0.07460029 0.118219584 -0.42372856 -0.0036769898

ConvBase.1.feature.lis.1.Y_conv.conv.weight f4 [16, 1, 1, 5]
00000000: 5e8a 873e 9211 ba3e 6497 b2be 435c 50be
00000010: d5ef b13c 81a0 a93e 5117 da3e 472c d5bd
00000020: 7218 783b 670b d5be df33 a9be bf75 163d
00000030: 3adc 753e d5e9 a3be 31ed 85be f412 90be
00000040: 0850 7a3e a55a e63e 7958 5cbe 3370 b7be
00000050: 43b8 87be adca c33e 9e7c c83e 1d14 afbe
00000060: 5bbc 473e 6fe4 81be de34 53be a73c bfbe
00000070: 62c0 ed3d 2dc5 c5be 4316 973d 8f33 adbd
00000080: e366 223d 1527 863e a55e d23d 7c6c afbe
00000090: 41f3 823e f9d0 b1bd c67e d5bd 9ba4 9e3d
000000a0: 473e 31bd 6dd9 d1be 2bbe b8bd 0b18 233e
000000b0: 5b55 9fbe 5943 643e 3728 b0be d479 febd
000000c0: d978 d33e 02a5 973e 8dac 6f3e 017a fa3d
000000d0: bd54 aabd ad21 3d3e 3f19 81be 581a bf3e
000000e0: c60b c7be 88c5 803e a755 01be 40df 19be
000000f0: 838d de3e aaef 4abe 7af4 2a3e c2f9 d83e
00000100: 662b 953c 28de 9b3e 9802 983c a352 823e
00000110: c9a5 cd3e e669 88be 667b 93be 2338 d3be
00000120: 824c c23e 3e6a d8be e114 c43e 22c6 a63e
00000130: 5a47 81bd 5b99 e3be 3496 7cbe fc78 5bbc
0.26472753 0.3634153 -0.34881127 -0.20347695 0.021720806 0.33130267 0.42595914 -0.10408836
0.0037856367 -0.41610262 -0.33047387 0.036733385 0.24009791 -0.32014337 -0.26157525 -0.2813946
0.24444592 0.4499103 -0.21518125 -0.3582779 -0.26507768 0.38240567 0.39157575 -0.34195033
0.19505446 -0.25369594 -0.20625636 -0.37350962 0.1160896 -0.38626996 0.07377293 -0.084571
0.0396489 0.26201692 0.10271958 -0.34262455 0.25576213 -0.086824365 -0.10424571 0.0774624
-0.043272283 -0.40986195 -0.09020647 0.1592714 -0.3111981 0.22291316 -0.34405681 -0.124255806
0.41303137 0.29618078 0.23405667 0.12230302 -0.08316944 0.18469878 -0.25214574 0.37324786
-0.3887617 0.25150704 -0.1263033 -0.1502657 0.4346734 -0.19817987 0.16694823 0.4237805
0.01820917 0.3044293 0.018555924 0.25453672 0.40165547 -0.26643294 -0.28805083 -0.41253766
0.37948996 -0.42268556 0.3829718 0.32573038 -0.06312437 -0.44452938 -0.24666673 -0.013395544

ConvBase.1.feature.lis.1.Y_conv.conv.bias f4 [16]
00000000: 0e81 473e 9b11 843e a2e1 17be fa7e 8a3e
00000010: 9192 fd3d 0f73 823d 439b 563d e20b 163e
00000020: ceda b53e 8535 693d e560 d7be 989b 2abe
00000030: cea4 babe a3ab 453e f73e abbe 734d c2be
0.19482824 0.25794682 -0.14832166 0.2705 0.12381471 0.06369602 0.052394163 0.1465297
0.35518497 0.056935806 -0.42066112 -0.16660917 -0.3645386 0.19303755 -0.33446476 -0.37949714

ConvBase.1.feature.lis.1.pointwise.weight f4 [16, 16, 1, 1]
00000000: 5ddd 3dbe bfbd 63be 3050 0fbe d392 323e
00000010: fdf8 55be 4de8 e83d 2b7d b33d af07 673e
00000020: b604 49bd adeb b8bd 6432 4dbd 16fb 133e
00000030: 7017 42be 2251 6b3e a9f2 5fbe ba5c 593e
00000040: 483f 293e 47f0 b43d 177b 453d 3be4 86bd
00000050: a9ec 4cbe 0a3f 37be b19b 2b3e 1752 443e
00000060: 2f51 663d 5ce8 0e3e 29b7 47be 7300 e63d
00000070: f0ab 03be 3fc2 e33d ce5a 3b3e aace 92bc
00000080: 94ee 56be c404 edbd 6c6b 0fbd 1896 7b3d
00000090: 5820 72be d313 ef3c 3f72 c13d 7772 3bbe
000000a0: aaa2 383e eeff 0d3d 8fba 31be b05f 513e
000000b0: bf27 723c 21d3 2ebe eb48 cbbd 3776 5ebe
000000c0: 2d77 b23b e8ac 2cbe 5102 133e 87ee 94bd
000000d0: 1f8d 45be a88e 6b3d 8014 3d3e 3cb0 c23c
000000e0: 89b0 c63d 4491 df39 eeed 3a3e b860 c2bd
000000f0: 6886 b63d 847c 78be 4cf3 44bd c9f3 78be
00000100: c070 41be a98a 3b3e 021d 5c3e 4754 343e
00000110: ae40 1ebe dbe6 5a3e 9105 413e 8782 3cbe
00000120: ab7e 7a3e 617f f13d 211a 133d ddd6 03bd
00000130: 72ef f9bd 714f 2abe ff26 773d 2bfe 00be
00000140: 0f32 a53d fcde 03be 98fd 31bd c382 95bd
00000150: cfc4 98bd 5ed9 353d 51e4 2e3d dd1a 06bd
00000160: db2e 32be 1c87 39bd 1d07 bf3c b662 65be
00000170: ec07 9dbb ee7e 0dbe 03f9 d2bc cea3 1f3e
00000180: 77ef 72be 3cde 003d a1f8 a2bd b366 c83c
00000190: aae6 a13d 5c74 49be fc9d 8cbd 5eb0 413d
000001a0: 1a2d 29be b958 053e aa29 7f3e 8c03 d0bc
000001b0: f58b 32be 7c52 3dbd baaf 5ebc 01eb 603e
000001c0: 1331 16be b167 053e c85a 0ebe e2bf 8b3d
000001d0: 5a7b 3d3e a0d2 32be bd01 d1bc bcfb 123e
000001e0: d2dd eabd 30e5 33bd b82e c9bd cb8b bebd
000001f0: 6424 d13c 8a34 10be 8ae7 25bd bf0e 10be
00000200: 09d3 813d aad3 973d 45a3 5cbe 7e58 71be
00000210: d242 9bbc 63de 243d fb66 833e f517 d9bd
00000220: d5c4 dd3d bd46 09be 4732 783e 491e 87be
00000230: e880 323e 1925 26be e35b 563e 046d 293e
00000240: 14ca e83d 5a49 973d 2156 723e 2f0d bdbd
00000250: 6be0 11bd cb67 a6bc 1566 583e 2a48 06be
00000260: dd72 1cbd 38e7 663e c86d e7bd 86cc 253d
00000270: 80fd 37bb 71cc 5abe db3a 0a3e d81c c63d
00000280: 29c6 723e fd75 713e a02d 25bd e163 9d3d
00000290: fa6d 203e c180 453d 3ef6 66be e00e 963a
000002a0: 1fb1 41be 50d3 513e 4d69 4b3e e765 25be
000002b0: 93ca 293e 0c44 fcbd 5d98 5bbe 361a 26be
000002c0: 652d 0abe 2c99 c63a 15bd 83bd d0ba 753e
000002d0: 6c06 80bb 73ed 7cbd 9034 98bd d08b 32be
000002e0: 779b 963d 88f5 023e 83dd 143d dc61 d03d
000002f0: 99f8 7d3d ea72 10be 6616 52be 39d2 cd3c
00000300: 332d f73d a6ec 52be edf9 8ebd df37 1bbe
00000310: bb48 043e a519 3bbe c093 c53d 4699 e53b
00000320: 8a12 153e 8bfd 67be 366e 403d 2cbe 2e3e
00000330: 7b91 ff3d fadb 8fbd a0cb 12bc 96f7 72be
00000340: 9228 71be 2fd5 3b3e 6eb7 08be b4f9 afbd
00000350: 85bd 1d3e 8053 dcbd f8b0 67be 05d5 6abd
00000360: 44bc bdbd 078d 93bc 5c9b 133e 549f 23be
00000370: 1504 0e3e 38cd 353e 1cd7 f9bd 4d24 4fbe
00000380: a173 0b3e b386 e73c 0412 f1bd 68bd 063e
00000390: c60d 26bd 8dd2 e43d 9dc0 ae3d 1a13 653e
000003a0: c78e e43d 4f4d 45be e19f 08be 29c7 453c
000003b0: 135e 273e 70aa 19be 9a8b 5f3e 0dbb 3cbc
000003c0: 7169 42bb a2fe 20be b77c 3c3e d00b 5ebe
000003d0: e6aa 96bd 7ad1 583d c454 65bc 688b 38be
000003e0: 4cb7 d7bd beb9 aebd 0fa7 5fbd fde8 53be
000003f0: 0c82 1dbd 705d 573e 15cc 7d3e f61d c0bd
-0.18541475 -0.22240351 -0.13995433 0.17438821 -0.20895763 0.11372433 0.08764108 0.22561525
-0.04907676 -0.090293266 -0.050096884 0.1445125 -0.18954253 0.22980168 -0.21869911 0.21226779
0.16528046 0.08834892 0.04821309 -0.065865 -0.20012154 -0.17895141 0.1675861 0.1917194
0.056229766 0.13955826 -0.19503464 0.112305544 -0.12858558 0.11121034 0.18296358 -0.01792081
-0.20989448 -0.115731746 -0.035014555 0.061422437 -0.2364515 0.029184258 0.09445619 -0.18305384
0.18030801 0.0346679 -0.17356323 0.20446658 0.014779984 -0.17072727 -0.099260174 -0.21724783
0.0054463358 -0.16862833 0.14356352 -0.07272058 -0.19292115 0.057509094 0.18464851 0.023765676
0.0970164 0.00042642106 0.18254825 -0.09491104 0.08912355 -0.24266249 -0.04808359 -0.24311747
-0.18890667 0.18314613 0.2149544 0.17610274 -0.15454361 0.21377127 0.1884978 -0.18409167
0.24462382 0.11791874 0.03591359 -0.03218733 -0.12203874 -0.16631867 0.060339924 -0.12596957
0.080661885 -0.1287803 -0.043454736 -0.073003314 -0.07459413 0.04439675 0.04269821 -0.032740463
-0.17400686 -0.045294866 0.023318822 -0.22400936 -0.004792204 -0.13817951 -0.025753504 0.1558983
-0.23724161 0.03146194 -0.079575785 0.024463033 0.07905324 -0.19673294 -0.06866071 0.047287337
-0.16521111 0.13022126 0.24918237 -0.025392316 -0.17436202 -0.04622124 -0.013591701 0.21964647
-0.14667158 0.13027836 -0.13901818 0.06823708 0.18504086 -0.1746316 -0.025513524 0.14353842
-0.1146809 -0.043919742 -0.09823364 -0.09304007 0.025530048 -0.14082542 -0.040504016 -0.14068125
0.0633908 0.074134186 -0.21546657 -0.23568913 -0.01895276 0.040251147 0.25664505 -0.106002726
0.10828558 -0.13405891 0.2423793 -0.26390293 0.17431986 -0.16225089 0.2093349 0.16545492
0.11366668 0.073870376 0.23665668 -0.0923103 -0.035614412 -0.020313164 0.21132691 -0.13113466
-0.03819548 0.2254914 -0.11300236 0.040478252 -0.0028074682 -0.2136705 0.13499014 0.0967347
0.23708405 0.23580165 -0.040326715 0.07685066 0.15666953 0.048218492 -0.22554871 0.0011448525
-0.18915223 0.20490766 0.19864388 -0.16152154 0.16581182 -0.123176664 -0.2144484 -0.16220936
-0.13493879 0.001515185 -0.06432549 0.23997045 -0.0039070155 -0.061749887 -0.074319005 -0.17436147
0.07353871 0.12788975 0.036344063 0.10174915 0.06200466 -0.14106336 -0.20516357 0.025124656
0.12069168 -0.20598087 -0.06981263 -0.15158032 0.1291837 -0.18271501 0.09647322 0.007006797
0.14557853 -0.22655313 0.046980105 0.17064732 0.1247892 -0.07024379 -0.008959681 -0.23727259
-0.23550633 0.18343042 -0.13351223 -0.08592549 0.15404327 -0.10758114 -0.22626102 -0.057332058
-0.092644244 -0.018011583 0.14414734 -0.15978748 0.13868745 0.17754066 -0.12199232 -0.20228691
0.13618328 0.028262472 -0.11771014 0.1315819 -0.04054048 0.11172972 0.08532832 0.22370568
0.11160045 -0.19267772 -0.13342239 0.012071409 0.1634448 -0.15006423 0.21830598 -0.011519206
-0.0029664899 -0.15722135 0.1840695 -0.21684194 -0.07356815 0.052934147 -0.0139972605 -0.1802193
-0.10533008 -0.08531521 -0.05460268 -0.20694347 -0.0384541 0.21031737 0.24784882 -0.093807146

ConvBase.1.feature.lis.1.pointwise.bias f4 [16]
00000000: 62e6 7c3e c02e 64be 8c41 193e f57b 35be
00000010: 2519 ccbd 6609 7dbe f331 56be a30e 073e
00000020: d58d 3dbe 30ed 793e 9817 fcba eb0e 0b3e
00000030: 2365 993d 78f0 f9ba 547e ef3d ded2 87be
0.24697259 -0.22283459 0.1496641 -0.17723067 -0.099657334 -0.24710616 -0.20917492 0.13189177
-0.18511136 0.24406886 -0.0019233106 0.1357991 0.074899934 -0.0019068858 0.11694017 -0.26528066

ConvBase.1.feature.lis.2.X_conv.conv.weight f4 [16, 1, 7, 1]
00000000: 7c2b 833e 7d42 b7be e5da bf3e ba09 f23d
00000010: 5713 b13e a7e9 cebd ee6a 9fbe 1a21 b53d
00000020: fced 953c f929 2c3e d965 c83d 3691 25be
00000030: e962 3f3e 767b a13e 708b 10be 854c afbd
00000040: 8e08 abbe 4cf5 123e ad09 73be 1775 983e
00000050: 4016 9dbc 8930 b4be 144d 233e 7ff1 4cbe
00000060: b6d8 a53e 5bf9 adbd 3866 3bbe 3af9 fd3c
00000070: 39cc d93d 6d56 593e 7904 933e e141 b23e
00000080: d04c 4e3e 6c75 84be 2c51 ad3e 45da 0bbd
00000090: e9f2 efbd 46ed 4bbd b93f a13e 5a0a a1be
000000a0: 6161 3fbe e695 4cbe e47d 07be 4e3e 80be
000000b0: 3437 59be f9f4 523d e319 b33d 8e04 c2be
000000c0: a76c 553e a323 97be 4af5 6bbe 9ab5 b83e
000000d0: cfed 853e 5c4f 863e 76ac 2b3e f0de a13e
000000e0: 0da5 a4be e6dd 943e e1bc 433e f0bc 42bd
000000f0: ead3 ed3d 67d7 b93b feb1 fcbd bcbb 693e
00000100: c910 7e3e ede1 8d3e 0323 bb3d 731d bcbe
00000110: 810d b2bd bfd3 b7be db62 ac3e 29d8 a53e
00000120: 9d5f 563e ae41 3fbe 4213 9f3d 5767 1fbe
00000130: 3c16 7a3e 767a eb3d 225c 0a3d 3ede d93d
00000140: 5dfd 953e 9683 ddbd 70de 68be 2e8d 03be
00000150: 26a9 d83c 1cc1 13be 746f b43d 9492 083d
00000160: 0441 7f3c 05b1 093e add9 b1be 42af 00be
00000170: 1f76 d53c ec2b 633e 7278 bfbe f947 3cbe
00000180: c70d 93be cf91 bebe 0b43 bc3d 6cc9 b83e
00000190: 475d 68bd ca98 48be 5ae1 41be d82b 19bd
000001a0: a4e4 1d3d 0c98 9c3e 76f1 0e3e a979 a3be
000001b0: bc1a 64be 04c3 043e 9d5d 91be 0ba2 28bd
0.25619113 -0.35792914 0.3747169 0.118182614 0.34585068 -0.101031594 -0.31136268 0.08844204
0.018301956 0.16812886 0.09785051 -0.16168675 0.18690075 0.31539506 -0.14115691 -0.08559517
-0.33404964 0.14351386 -0.2373416 0.29776832 -0.019175649 -0.3519328 0.15947372 -0.20013998
0.323919 -0.084948264 -0.18300712 0.03100263 0.106346555 0.21224375 0.2871435 0.34815887
0.20146489 -0.25870836 0.33850992 -0.034143705 -0.11716253 -0.04978683 0.3149393 -0.3145321
-0.18689491 -0.19979057 -0.13231617 -0.25047535 -0.21212465 0.051503155 0.08745172 -0.378941
0.20842229 -0.29519376 -0.23042789 0.3607605 0.26157996 0.2623242 0.16765007 0.316154
-0.32157174 0.29075545 0.1911502 -0.047543466 0.11612685 0.00567143 -0.12338637 0.22825521
0.2481109 0.2771143 0.09137537 -0.36741218 -0.08693982 -0.35903737 0.3366917 0.3239148
0.20934911 -0.18677399 0.07767345 -0.15566765 0.24422544 0.11497967 0.03377927 0.106380925
0.29294863 -0.10816114 -0.22741103 -0.12846825 0.026447844 -0.14429134 0.088103205 0.033342913
0.015579466 0.13446434 -0.34736386 -0.12566856 0.026057301 0.22184724 -0.3739658 -0.1838683
-0.2872145 -0.37220618 0.09192475 0.36091173 -0.05672958 -0.19589534 -0.18933621 -0.03739533
0.038548127 0.30584753 0.13959298 -0.31928757 -0.22275823 0.12965018 -0.28391734 -0.04117016

ConvBase.1.feature.lis.2.X_conv.conv.bias f4 [16]
00000000: 3926 67bd afad 6f3e 1fbd 0fbe c650 22be
00000010: b333 4fbd cf1c 4a3e dca1 613e 4ee8 b63d
00000020: a4ed 1d3e 5acd 8ebd 26e7 a03e 7e34 bd3d
00000030: 8cc5 e53c 4b04 f5bd c37a ba3e 124a b5bd
-0.056432936 0.23406099 -0.14036988 -0.15851125 -0.050586414 0.19737552 0.220344 0.08931027
0.15422684 -0.069727615 0.31426352 0.09238528 0.0280483 -0.119637094 0.36421785 -0.088520184

ConvBase.1.feature.lis.2.Y_conv.conv.weight f4 [16, 1, 1, 7]
00000000: b83e 973d e4fc 7e3e 0aa0 8dbe 3fff eebd
00000010: a367 b33d 827b a3be 2f4c ae3e 20fe 553d
00000020: 2f9a aebe f213 ad3d 54d4 93bc c900 a4be
00000030: 2a0f 423e 43b6 df3d 70bf e6bd 4275 e83c
00000040: 8b35 71be 5749 883e a7a7 963d 0e8c 323e
00000050: 9599 a9bc bd41 cebd 2b3a 8b3e f725 c73c
00000060: 7f18 b53e 50ba 72bc be6d cd3d 73f6 9b3e
00000070: dc36 773e 7942 463e 4dd2 4b3e 5fbf 07bd
00000080: f96a e63d 5b72 143e a6ae 753e 5f3f 163e
00000090: 6f74 81bd 1416 b93d 333c d1be 1768 f63d
000000a0: 13c5 973d 309a 8d3e 96a5 543e 8b83 70be
000000b0: b064 a9be b610 733e 6022 753c fb26 a03e
000000c0: ba22 0abd c875 e8bd 0071 33bc c65b 1c3e
000000d0: 92d8 8bbe 5851 9ebe 407c 233b 53f5 d03d
000000e0: b25f bcbe 986e 933d 0555 bcbe e942 80be
000000f0: fea2 803e cd86 22bc 7e02 84bd 14c5 aabd
00000100: 8c62 c5be 3f8d 2bbe e9fa d43d 71e2 fc3d
00000110: 21f3 4bbe 9f97 8ebe 2c45 38bd 772d 243d
00000120: 385f 903e 2a35 063e d598 e43d 9faf 933e
00000130: 2824 a1be ad95 623e 7127 72be 5599 243e
00000140: ecd1 10be 05ef 27be 981f bdbe 18c4 ba3e
00000150: f17f 223e d9d2 1f3e 117f ccbc 79fe 6ebe
00000160: be4d 8c3d 57b2 8b3e 4c3f 0ebe 1d1c 02bd
00000170: bfcf baba ca9f 5f3e 2059 e63d da37 c93e
00000180: 3381 2e3e 805c 3bbe c088 593e ecb6 49bd
00000190: d90f e9bd 53a5 8cbd 93f8 8e3e 8aec b63e
000001a0: 9f5a 563e c05c 8dbe 2652 bc3d 7c16 b0be
000001b0: d7c5 83be 873e 57bb 2ae1 53bd 7e59 a43e
0.073850095 0.24901158 -0.27661163 -0.11669778 0.087600015 -0.31930166 0.34042498 0.052244306
-0.34102008 0.0845107 -0.018045582 -0.3203185 0.18951097 0.109234355 -0.112669826 0.028376225
-0.23555581 0.26618454 0.07356196 0.17436239 -0.020703116 -0.10071132 0.27192816 0.024310095
0.35370252 -0.014814928 0.10030697 0.30461463 0.24142021 0.19361295 0.19904442 -0.03314149
0.11250872 0.14496748 0.23992404 0.14672612 -0.06321036 0.09037414 -0.4086624 0.12031572
0.07410636 0.27656698 0.20766291 -0.2348768 -0.3308463 0.23736843 0.014961809 0.3127974
-0.033724524 -0.1135059 -0.010952234 0.15269384 -0.27313668 -0.30921435 0.0024945885 0.10203042
-0.3679176 0.071988285 -0.36783615 -0.25051048 0.25124353 -0.009919834 -0.06445788 -0.08338371
-0.38551748 -0.167531 0.1039942 0.12347878 -0.19916965 -0.27850053 -0.044987842 0.04008242
0.28197646 0.13106218 0.11161963 0.28844926 -0.31472898 0.2212741 -0.23647858 0.16074117
-0.14142579 -0.16399772 -0.36938167 0.36477733 0.15869118 0.15607776 -0.024962934 -0.23339261
0.06850766 0.272845 -0.13891333 -0.031765092 -0.0014252587 0.21838298 0.11247468 0.39300424
0.17041473 -0.18297005 0.21243572 -0.049246714 -0.11379976 -0.068674706 0.27924022 0.3572734
0.20933007 -0.27609825 0.09195356 -0.34392154 -0.25736877 -0.0032843666 -0.051728405 0.32099527

ConvBase.1.feature.lis.2.Y_conv.conv.bias f4 [16]
00000000: 1f72 7a3d 4e74 1f3e 2123 abbe c734 b8be
00000010: e5ad 68be bc2e ebbc fc32 2a3e 35d9 6bbd
00000020: aed9 893d b7da a73e a732 cdbd 0541 a73e
00000030: b919 98be faa9 fc3d 9ed7 a13e 1677 913e
0.06114399 0.1557171 -0.3342524 -0.35977766 -0.22722585 -0.028708808 0.16621011 -0.05758019
0.06730972 0.32784054 -0.10019427 0.32666793 -0.29707125 0.12337108 0.31609815 0.28411168

ConvBase.1.feature.lis.2.pointwise.weight f4 [16, 16, 1, 1]
00000000: 867a bebd 5686 b6bd 6056 6a3e ff21 5a3e
00000010: 994f 743e f638 6eba 964f d13d db09 fd3d
00000020: c586 65be 4d56 ef3b 843e 0a3e 36e3 5d3e
00000030: 2deb 0a3e 5764 57bd f774 4ebe 5a7c 45be
00000040: 8c7a 2a3e 1d10 f7bd c754 073e c2ca c93d
00000050: 0761 debd c5df 0dbd f7ef d43c 2627 483c
00000060: 70e8 983d 870a ae3c 3d16 06be 88a6 8dbc
00000070: b871 4abd 7e1a debc d9cd 413e 3b35 22be
00000080: dd01 3dbe cac9 333e 4890 533e 00b4 663e
00000090: dfbc 23be 03d8 633e 4ff2 f23d 13b5 05bb
000000a0: f8cd 0c3e 0d88 033e 6930 a53d 9873 813d
000000b0: 6fb7 2b3e 6165 703d 0ca7 51be 1e27 15be
000000c0: 497c 7abe 0150 35be 2127 003c b006 573d
000000d0: 08eb bb3c ea1c 3abe b52d 69be a4b7 7dbd
000000e0: 61fc 783e 7741 04be cbe7 083e ce82 5dbe
000000f0: 7d57 c83d 1393 723e 0538 b2bd 377b 45be
00000100: 7859 8dbd ed3e 4f3e 4afa 7bbe 7968 4e3e
00000110: 305e bebd d5fe 09be 383c c93c 748d 9cbd
00000120: 7ef3 833d 870b 2f3e 52c4 9abd 83ba 65be
00000130: df01 23be 189c b1bd 81c6 463b b770 d53d
00000140: b248 f13d 14bd a9bc dc35 b13d fc26 eabd
00000150: 2d73 613e 613f 753e fc6d 403e 93bb e93d
00000160: 93df 853e 8145 a9bd a293 6e3e 766a a1bc
00000170: 9f3d 1b3e 08f5 3d3d d4b5 053e c37b 7dbe
00000180: 3c3f ed3d 9e8b 003e 070c 133d c4aa bebd
00000190: a279 1ebe d58f 8abd 861f e0bd 4fa9 3a3e
000001a0: 0c47 7d3e e20a f73c 36ff 5abe 39e0 27be
000001b0: 8a7e 7b3e d40c 60bd 27c0 a13d 03a7 8c3d
000001c0: a8f2 043e 409d d83d 59b2 e2bc 080f 963d
000001d0: 87e0 93bd 9330 04be c088 803d 5a9d 09be
000001e0: 8fda f53d a037 b13d a49f 41bc d0c9 563e
000001f0: 0d73 5e3d f9a1 f1bc c7d8 9abd c2e9 f03d
00000200: 6169 65be 46cb 243e 3f30 173e 99ee 073e
00000210: 4872 3bbe f888 163d 3df9 37bd 9032 373e
00000220: c549 cdbc 5287 db3c 3cb4 9bbd e287 d7bd
00000230: e00e 483e ffb6 763e ffac c0bd ff9a ebbd
00000240: 32c8 ddbd 599c 543e a3bc 5dbd 77ea 1d3e
00000250: 5b74 8f3d 7128 813d 5277 6a3e be6c 62be
00000260: ceb2 cf3d c09c 673e 31d4 473e 4944 443d
00000270: 606a 1d3e 6736 c2bd 6c45 ddbb 110a db3d
00000280: 0a0f 3bbe a37f 8b3d b026 af3c d845 1a3e
00000290: fb13 463d 39a6 fbbd cbee 803d 9e2d 853d
000002a0: 5334 6c3e 0a06 b7bd 9817 383e 4530 4a3d
000002b0: e449 623e fe9b 03be 3214 0abe ac9e 4b3e
000002c0: 07c5 73be 5535 06be 44c0 743e a7c7 02bd
000002d0: 31d7 3bbe d4a0 4dbe b70c 67be 98ce 913c
000002e0: 1fb8 03be 4bb8 b2bc f633 473b f9e6 753e
000002f0: 5b4c 29be 61d1 de3d 8447 293d 676e a83d
00000300: faea d33c 3109 603c 3f57 593d efd8 82be
00000310: 1302 ab3c 6aa2 19be fc90 f73d a2a7 10be
00000320: 3076 a23d e2b5 f0bd cc71 18be 37ef 5c3e
00000330: b6bd ccbc 6c57 7cbd 38c2 253d 446c 143d
00000340: d039 23be 0897 703c 6448 0ebe 4609 80be
00000350: 497e 3dbd 3fdc 99bd ba03 9d3c 401c f93d
00000360: 4ab3 743e b517 5a3e b81e 1f3e 1c8c 74be
00000370: 07af 7f3e 5119 39be 9d49 ff3d 1632 7abe
00000380: 67bc 733d 6af3 07be e94a 5e3e db95 5ebe
00000390: f76d 29bc f7e1 203e ece5 8c3c cdc1 2ebe
000003a0: 682f eebc ef09 40be 63c4 0bbe 5989 84bd
000003b0: d78b 5ebe df9e e6bd 2731 dc3c 5cb5 aa3d
000003c0: c1bd 833e f15c e93c b8bb 0abe 6475 6ebe
000003d0: fe82 95bd 1f22 233e cb8a 1abd 4511 983d
000003e0: 7f2c 89bd 6c70 45be 467a 81be 7e42 d63c
000003f0: fd2b f3bd 2abe b2bd def1 4c3e 625a 423d
-0.09300713 -0.08912341 0.22884512 0.21302031 0.23858489 -0.00090874673 0.10220258 0.123553954
-0.22414692 0.007303989 0.1350041 0.21668705 0.13566275 -0.052585926 -0.20161806 -0.19285718
0.1664831 -0.1206362 0.13215934 0.09853126 -0.1085835 -0.03463723 0.02599333 0.012216365
0.07466209 0.021245254 -0.1309442 -0.017291322 -0.049424857 -0.027112242 0.18926181 -0.15840618
-0.18457742 0.17557445 0.20660508 0.22529602 -0.15990017 0.2225037 0.11862623 -0.0020402118
0.13750446 0.12844868 0.08065874 0.06320876 0.16769193 0.058690432 -0.2047388 -0.14565703
-0.24461474 -0.177063 0.007821829 0.052496612 0.02293922 -0.18175092 -0.22771342 -0.06194271
0.24315025 -0.12915598 0.13369672 -0.2163193 0.09782312 0.23688917 -0.08702091 -0.19285284
-0.069018304 0.20238848 -0.24607196 0.2015704 -0.092953086 -0.13476117 0.024564847 -0.076441675
0.06442927 0.17094241 -0.075569764 -0.2243443 -0.15918683 -0.08672351 0.003033072 0.10421889
0.11781444 -0.020720042 0.08652851 -0.11433217 0.22016592 0.23949958 0.18791956 0.1141273
0.26147136 -0.0826521 0.23298505 -0.019704085 0.15160225 0.046376258 0.13057643 -0.24754243
0.115843266 0.1255326 0.035900142 -0.09309915 -0.15476087 -0.06765715 -0.109435126 0.18228649
0.24734133 0.030156557 -0.21386418 -0.16394128 0.2455999 -0.054699734 0.07897978 0.068677925
0.12983191 0.10576868 -0.027672933 0.07327086 -0.072205596 -0.12909155 0.06276083 -0.13438931
0.12004577 0.08653188 -0.011817846 0.20975423 0.05430894 -0.02949618 -0.07560878 0.11763336
-0.2240348 0.16093168 0.14764498 0.13274612 -0.18305314 0.036751717 -0.044915427 0.17890382
-0.02505959 0.026797924 -0.07602736 -0.105239645 0.19536924 0.24093245 -0.094079964 -0.115041725
-0.108292 0.20762767 -0.054134976 0.15421472 0.07004615 0.06306542 0.2289708 -0.22111794
0.10141526 0.22618389 0.19514538 0.047916684 0.1537261 -0.09483033 -0.0067526605 0.106952794
-0.18267456 0.06811454 0.021380752 0.15065706 0.0483589 -0.12287564 0.06295546 0.065028414
0.23066835 -0.08936699 0.1797775 0.04936244 0.220985 -0.12852475 -0.13484266 0.19884747
-0.23805629 -0.13106282 0.23901469 -0.031928685 -0.18343808 -0.20080882 -0.22563444 0.017798707
-0.12863205 -0.021816393 0.0030395961 0.2401389 -0.16533034 0.108797796 0.04132797 0.082241826
0.025868881 0.013674066 0.05306172 -0.25556132 0.020875013 -0.15003362 0.120882004 -0.14126447
0.07932699 -0.117534414 -0.1488716 0.21575628 -0.024992805 -0.06160681 0.040468425 0.036236063
-0.15940022 0.014684446 -0.13894802 -0.25007075 -0.046263013 -0.07512712 0.019166816 0.121635914
0.23896518 0.21298106 0.15539062 -0.23881572 0.24969111 -0.18076064 0.124652125 -0.24433169
0.059505846 -0.13276449 0.21708263 -0.21736853 -0.010341159 0.15711199 0.017199479 -0.17066117
-0.02907534 -0.1875379 -0.13649134 -0.064715095 -0.21733032 -0.11260771 0.026878906 0.08335373
0.25730708 0.0284867 -0.13548172 -0.23286968 -0.073003754 0.15930985 -0.03773002 0.07425169
-0.0669794 -0.19281167 -0.252886 0.026154753 -0.118736245 -0.08727677 0.2001414 0.047449477

ConvBase.1.feature.lis.2.pointwise.bias f4 [16]
00000000: 00a5 573d d6c2 7ebe 2e01 83bd 3357 343d
00000010: db4e d63c 446b 08be 07f4 34be 71e1 1a3e
00000020: b973 423e fb7b 073c f0ac 3f3c 682b 24bd
00000030: 0534 bfbd d291 de3d 846e 45be b68e 86bd
0.05264759 -0.24879012 -0.063967094 0.044028472 0.026160648 -0.13322169 -0.17671214 0.15125062
0.18989457 0.008269305 0.011698946 -0.040080458 -0.09336094 0.10867657 -0.1928044 -0.06570189

ConvBase.1.feature.lis.3.X_conv.conv.weight f4 [16, 1, 9, 1]
00000000: 2212 a6bd 89d2 263d 469a 9e3e beb7 96bd
00000010: 2c33 4ebe 4029 743e 7540 aebd 2da5 47be
00000020: a15b 743e 0735 0d3e 5761 8a3e 20d5 50be
00000030: 62b3 813d 838b 19be 1439 e53d 79d9 9bbe
00000040: 0003 06be 32fb 40bd 6789 913e 3308 8b3e
00000050: decf 8f3e b171 d53b 11fe 773d 2b5e 7d3e
00000060: 5b3c a23e c954 263e 6b56 74be 3fa8 49be
00000070: 83cc 7abd 7557 a2be 68a1 183e 8603 a03e
00000080: 8707 813d b43a 11be 2e9d ab3e 5bf4 4f3d
00000090: cb7f df3d b989 2fbe 741a a13e 9776 0dbe
000000a0: fb20 a23e 243b 853e a18c ccbd 8bde fc3d
000000b0: 8389 29be 906b 893e a25e 8f3e d0f0 9f3e
000000c0: f271 00be 6ce0 113e 54ea f53c 89f7 31be
000000d0: 1710 a0be 02e1 803e 3877 00be 8218 4d3e
000000e0: e6da 333e ea48 eabd eaf6 2cbe 696b 5f3e
000000f0: 6b00 843e 27af 9e3e 6537 efbd 5f86 56be
00000100: 2c21 9e3e c856 423e c72e 333e e455 7c3e
00000110: 84a1 123e 9b07 d83d f44c a7be a827 4d3e
00000120: ed51 04be 8064 f43d fd28 ffbc 54eb 20be
00000130: 8da8 7b3e 22f3 8fbe 0f18 16bd 09cd 0cbe
00000140: 310b 25be d7c9 8fbe be0d 87be f13e 7abe
00000150: 497a e6bc ec68 573e 6bc0 b33c 5612 51be
00000160: d258 9abe a245 3d3e a9b6 9e3d dc64 09be
00000170: 435b 8d3e f7a3 783e e177 9dbe c929 a8bd
00000180: 4abe 2dbe 1abe 963d fe68 9e3e 20e4 483e
00000190: 6a02 2e3e f9ae 35be 5a30 05bd 1dfc 903e
000001a0: 2038 bbbe 69ff 6ebe ccf4 2fbe 7c0a b13c
000001b0: 2edd 1ebe aebd b3bd 6a55 8f3d ea10 8bbd
000001c0: 216a 1ebe 3ea7 72be 4406 3a3d e296 6fbe
000001d0: 5006 4f3e efc2 973e 2fe5 6ebe fc7d 23be
000001e0: c55a a33c 7c1c aebd c669 f3bd e06a 803d
000001f0: ae61 443e c786 f33d 182b 8a3c d4c0 63be
00000200: c69e 7ebe b8a7 0abd b764 9a3d 5650 0a3d
00000210: f83d 9a3e d989 a5be 50cc 72be 7369 7d3e
00000220: a908 76be 887f 523c c200 c63d 0daf 6dbe
00000230: 8445 183c a945 933e 0666 30be 45b5 843e
-0.08108927 0.040728126 0.30977076 -0.07359265 -0.20136708 0.2384386 -0.08508388 -0.19496603
0.23863079 0.1378976 0.2702739 -0.203938 0.06333043 -0.14994626 0.111925274 -0.30439356
-0.13087082 -0.04711456 0.28425142 0.27154693 0.28088278 0.006513797 0.06054503 0.24742953
0.31686673 0.1624328 -0.23861091 -0.19693087 -0.061230194 -0.3170735 0.14905322 0.31252688
0.06300264 -0.1418255 0.33518356 0.050770145 0.109130464 -0.17142381 0.31465495 -0.1381477
0.31665787 0.26021683 -0.0998776 0.12347134 -0.16556363 0.26839876 0.28001887 0.31238413
-0.12543467 0.14245766 0.030018963 -0.17379583 -0.31262276 0.25171667 -0.12545478 0.2002888
0.17563972 -0.114396885 -0.16891065 0.21818317 0.2578157 0.30993006 -0.116804875 -0.20949696
0.30884683 0.18978417 0.17498313 0.2464214 0.14319426 0.10548326 -0.32675898 0.20034659
-0.12921877 0.11933231 -0.031147474 -0.1571477 0.24576016 -0.28115183 -0.036644038 -0.1375009
-0.1611755 -0.2808368 -0.26377672 -0.24438073 -0.028134482 0.21036118 0.021942338 -0.20417151
-0.3014589 0.18483594 0.077496834 -0.13417381 0.2760869 0.24281298 -0.30755523 -0.08211095
-0.16967121 0.07360478 0.30939478 0.19618273 0.16993108 -0.17742528 -0.032516815 0.28317347
-0.36566257 -0.23339619 -0.17183226 0.021611445 -0.15514061 -0.08776413 0.06998713 -0.067903355
-0.15470172 -0.2369661 0.04541613 -0.23397401 0.20217252 0.2964091 -0.23329614 -0.15966028
0.019940743 -0.08501527 -0.11885409 0.06270385 0.19177887 0.11890941 0.016866252 -0.22241527
-0.24865255 -0.033851355 0.07538741 0.03376802 0.30125403 -0.32331732 -0.23710752 0.24747257
-0.24026741 0.012847789 0.09668113 -0.23211308 0.009293918 0.28764084 -0.17226419 0.25919548

ConvBase.1.feature.lis.3.X_conv.conv.bias f4 [16]
00000000: dc52 a1bd 6380 84be 9e1c 673e 6447 2e3d
00000010: 020d 063e 45cb e83d bf12 82be 252f 6b3e
00000020: 3cc9 683e cfc3 113e 9707 913e 2002 1d3e
00000030: 5284 963e d3d1 c03d 58cc 8abd 3f6f 7ebb
-0.07877132 -0.258792 0.2256951 0.042548552 0.130909 0.113668956 -0.25404927 0.22967203
0.22733015 0.14234851 0.28326103 0.15332842 0.29397827 0.09415021 -0.06777257 -0.0038823632

ConvBase.1.feature.lis.3.Y_conv.conv.weight f4 [16, 1, 1, 9]
00000000: a39c 9bbe ef60 abbd cf1f 1bbc 95a9 a6be
00000010: 0530 1fbd 62ac 983e ee0d 3f3e f0c4 21be
00000020: a765 19be d295 c03d a288 c9bd c753 0abe
00000030: ea4e 083d 2262 3fbe 6623 1dbe 607c 8d3e
00000040: df15 2cbc 0566 4abe f6fa 6bbd 6df0 313e
00000050: b910 a83e 3ce9 86be 7995 f43d 7e75 1f3e
00000060: 013b 39be f392 d73d 282f 613e 0c11 853e
00000070: bd0e af3d 2532 13be f281 eebd b753 573e
00000080: dff3 90be e382 893e 2f0e a3be 4106 953d
00000090: 44bc 2e3e d025 48be 9f08 07be 98b9 313d
000000a0: 7621 04be 2e54 d1bc c3b5 9fbc 54fd 313b
000000b0: 5049 92bd ee30 7c3e b126 debd eb1d a53c
000000c0: b4d1 463e 53bd d93c 8efc 0fbd 5f99 953e
000000d0: 2c79 893e 25d7 92be c65b 8cbe 3a34 ee3d
000000e0: 39ec ca3d 943d c5bd a615 8a3e 7752 fc3d
000000f0: 3bd9 9fbe 9ec9 163e 9b64 58be 1d17 35be
00000100: b790 363e 502b 80be 2776 363e c19e a13e
00000110: cfc4 8cbe 0852 2abe 7aba 983e ebbf 6fbe
00000120: 3f66 823e 3747 2abe 301b 303e 8202 adbd
00000130: b281 63be 0496 9a3c 9d65 cf3d dd91 b93c
00000140: d761 a4be 06ce 013e 3f74 1b3e 561f 7abd
00000150: da62 0bbe a6f4 473e 01cd 2ebe df98 2b3e
00000160: d65d 1fbe 1750 843d 3b41 54bb 4949 313e
00000170: 4757 b1bc d959 8d3e bf47 583e 6825 e83d
00000180: 6adf bdbd b055 983d e0f2 a93e 2b06 1c3e
00000190: 5851 a7bd c59a 22be e4e0 56bc 56d1 5a3e
000001a0: abe7 1f3e d286 99be 28f5 993e 7717 a43c
000001b0: f6b4 a9bc 56f2 953e d69b 453e fb91 c6bd
000001c0: 1453 223e 5142 873e 69a9 1bbe 5c0c b2bd
000001d0: 2a58 223d 9c7e 783e d779 de3d 19cd 483e
000001e0: 3a7c 60bd 02a9 083e 7aa6 493b e0a6 0dbd
000001f0: 9315 083e 1f02 f43d c9bc 24be 266c 07be
00000200: 2f7b 92bc a00a 72be 0670 453e ccf6 4a3e
00000210: e42f 6b3e bc7a 9abd 3dd7 993d 16e2 4e3e
00000220: 23a7 fdbd b583 18be 10c4 2e3e 839a 943e
00000230: d1b1 59be e0af 64be 3a62 0dbd 8de5 75be
-0.30392942 -0.08368098 -0.009468033 -0.32551256 -0.038864154 0.29819018 0.18657658 -0.15797782
-0.14980184 0.09403576 -0.09840514 -0.13508521 0.033278383 -0.18689778 -0.15345535 0.27633953
-0.010503261 -0.1976548 -0.057612382 0.17376871 0.32825258 -0.2634982 0.11942572 0.15572163
-0.18088914 0.10526075 0.21990645 0.25989568 0.08547733 -0.14374597 -0.11645879 0.21028028
-0.2831106 0.2685767 -0.3184676 0.072765835 0.17064005 -0.19545674 -0.13186882 0.043389887
-0.1290339 -0.025552835 -0.01949585 0.0027159052 -0.071428895 0.2462804 -0.108472236 0.020155868
0.19415933 0.026579535 -0.035152964 0.29218575 0.2685026 -0.28679767 -0.27413768 0.11631055
0.09908337 -0.09630886 0.2696964 0.123204164 -0.3122042 0.14725348 -0.21132128 -0.17684598
0.17828642 -0.25033045 0.17818509 0.31566432 -0.27493903 -0.16632855 0.2982977 -0.23413055
0.25468633 -0.16628729 0.17197871 -0.08447744 -0.22217444 0.018870361 0.10126803 0.02265256
-0.32105896 0.12676248 0.15181063 -0.06106504 -0.13611928 0.1952692 -0.1707039 0.16757534
-0.1556314 0.064605884 -0.0032387513 0.17313112 -0.021648062 0.2760761 0.21121119 0.1133526
-0.092711285 0.074382186 0.3319311 0.15236728 -0.08169812 -0.15879352 -0.013115142 0.21368918
0.15615718 -0.29985672 0.30069852 0.02003072 -0.020716172 0.2928645 0.19297728 -0.09695812
0.15852004 0.26417783 -0.15201344 -0.086937636 0.03963486 0.24267048 0.10863083 0.19609489
-0.05480597 0.13345721 0.0030769394 -0.034582973 0.1328948 0.11914467 -0.16087641 -0.13224849
-0.017881004 -0.23636866 0.19281015 0.19820708 0.22967488 -0.07542941 0.075117566 0.20203432
-0.123853944 -0.14893992 0.1706698 0.29024133 -0.21259238 -0.22332716 -0.034517504 -0.24013348

ConvBase.1.feature.lis.3.Y_conv.conv.bias f4 [16]
00000000: c9ed ba3d 471f 1bbe a6da 163e eeae a4bd
00000010: bf2c 90be 75a1 febd c3d1 ac3d e79e 78be
00000020: b7a7 f73d ccb1 fcbd f151 823d 129c 213e
00000030: 697c f23d 8521 c5bd fd52 123e c74e d43b
0.09127385 -0.1514865 0.14731845 -0.08041178 -0.2815914 -0.12433139 0.084384464 -0.24279366
0.12092536 -0.123385996 0.06363285 0.15782192 0.118401356 -0.09625534 0.1428947 0.0064791176

ConvBase.1.feature.lis.3.pointwise.weight f4 [16, 16, 1, 1]
00000000: 9361 183e 586a 813c 7e6f 9d3d b04a 79bd
00000010: 7d66 993d 496d 6fbc 1f27 16bd 1bae 933d
00000020: 09a5 ca3d 27bc c73c f6ff 083e a6c7 983d
00000030: bd10 36be a20f e1bd d9f5 37bd 2406 c43d
00000040: 1f43 7e3e f11e d6bd 2818 8ebd d0c6 013e
00000050: c0b7 bc3d d8a4 863d f667 433e 1dbc 2e3e
00000060: 501a 26be 0d22 a2bd fcc4 c43d 1dff 703e
00000070: a450 15bc 20c6 443e 969e 743d 4c8f a2bd
00000080: 04e8 cc3d 7c99 babd ab32 71be 0e43 003e
00000090: 7c4e 46be bf1f cb3d fa3c 24be f0b9 643e
000000a0: b21c 83bd 506c 133c 44fd 01bd 47ee 71be
000000b0: 2b35 613d ffca 453d b877 12be d81c 3dbe
000000c0: b7f1 d33d a6bf e2bd 596a 38be d483 a5bd
000000d0: 15f5 04be 4af5 2e3d e86a 3cbe 099f 3ebe
000000e0: b2f3 f73d 79b4 93bc 98ba 0c3e 2389 2c3e
000000f0: cffd 34b9 aa52 3bbe 0dd7 fc3c e4b8 d23d
00000100: 1a70 2ebe 5dbe 363e 7fd4 713d 3780 d53c
00000110: 251e 5cbd 413e cebd a81e 313e c3e9 4b3e
00000120: 735f a7bc e76a 60bd 137f 2d3e f34a 8e3d
00000130: 67a9 da3d 9718 b3bd 12fc 1dbe 8b41 4bbe
00000140: 4e92 56be fc3c 973c e09f 21be f91e a8bd
00000150: 5575 513e 455a 34bd b670 6ebe 83db 8bbd
00000160: a8b6 91bd f6a8 223d d540 c2bd 2fc1 9cbd
00000170: e6e0 23be c2a3 78be 323b e7bd ca99 cbbc
00000180: ef88 00bd b272 cabd 06ad 323e ced9 81bd
00000190: f86e 123e 3c2f 2b3e 8916 3a3e 7bf4 44be
000001a0: 1686 5ebe 66d0 0dbd cb28 043e 78bc 53bd
000001b0: fd8f 743e ec71 2fbe cc91 563e 8511 d9bc
000001c0: fc72 223e 8248 67be a608 78ba 299a 05be
000001d0: 837d f7bc d664 07be d047 f43d 822d 31be
000001e0: a84b 20be 7888 4f3c d175 1dbe a01d ec3d
000001f0: bd0c 86bd 732e 9abd a1f2 1d3e 2af9 223e
00000200: ca57 21be a8d7 79bc 7cae 6f3e 16d2 1f3d
00000210: f973 0abe ad33 c4bd d224 4bbd 9b03 443e
00000220: 78a2 74be 064f 963d c9d1 0ebc 6e7b 6bbe
00000230: 7e2d dc3b 7d32 433e 4f0d aa3d fae6 dcbd
00000240: b4bc d43c 977d dfbd 8d64 febb 3e03 61bb
00000250: 6d9d 853e c4b5 29be 4201 f3bd 8f32 243d
00000260: 656e 343c 381f b3bc e229 573e 8c56 433e
00000270: 3978 d93c 6880 6cbe 605c 723e 6eda eb3d
00000280: 1c01 f63d 7363 71bd 681e 223e 2f6d dd3d
00000290: 84a5 873d 0770 8a3d 0b6f 3f3e c94f 0fbe
000002a0: 6400 e4bd bd75 923d c46a 363e 8b27 693d
000002b0: 6359 81bd 7622 8d3c e480 063b e370 153e
000002c0: e01d 203e 700a 8a3d f2f3 963d 4f2e 13bd
000002d0: 2a77 9fbd d56c 2c3e f292 1abe bd69 71be
000002e0: e6e9 313e b2dd 10be 8626 6b3e 65b0 cbbd
000002f0: 8a80 e6bb 928a 733e ac6c 213e d434 563e
00000300: 81ca 67be c181 2c3d cd15 6fbe de6c ae3c
00000310: 3ff1 ac3d 9b34 353e 21d7 6ebe d8a3 3a3e
00000320: 3e5f 443e 8435 803b 1e08 1cbd 3daa 483e
00000330: d3cd 07bd 4f31 6bbe c8ae 3d3e a13f 2e3d
00000340: 4535 8c3d 1fd6 e53d 5da8 023e 928e d43d
00000350: c56c 273e d573 08be 3b81 dfbd 1046 93bd
00000360: 8aa8 d03d 471a 3ebe f0d5 813d e9be 33be
00000370: 9cc4 b8bd 05ae 38bd 1235 74bd 5abf e8bd
00000380: 9cd5 bf3d 76f3 4f3d d128 643e 919e 4c3e
00000390: d049 303e b828 5abe dc91 ca3d 76cb 1e3e
000003a0: c586 043d 8047 5cbe 14b2 743e 7420 e73c
000003b0: 8988 11be c23d b43b 1f4f 673e a60d 3e3e
000003c0: 7b1e 89bc 8cfc 113e 494c 083e f7bb 473d
000003d0: 8c72 69be a9c4 44be acfd 0cbe 9921 4fbe
000003e0: d540 583c 2e8b e0bc cf61 213e fd84 16bc
000003f0: c5b6 e0bd 54ec 53be 437e 3dbb 85bd 603e
0.14880972 0.015797779 0.07687281 -0.060862243 0.07490251 -0.014613458 -0.036658403 0.07210942
0.09894759 0.02438171 0.13378891 0.07459955 -0.17779823 -0.1098931 -0.044912193 0.09571484
0.24830292 -0.1045512 -0.06938201 0.12673497 0.09214735 0.0657441 0.19082627 0.17063947
-0.16220975 -0.07916651 0.09607884 0.23534818 -0.0091134645 0.19216204 0.05972155 -0.07937488
0.10005191 -0.09111306 -0.23554485 0.1252558 -0.19365877 0.099181645 -0.16038886 0.22336555
-0.064019576 0.008997992 -0.031735674 -0.23626052 0.054982346 0.048289295 -0.14303482 -0.18468034
0.10348838 -0.1107171 -0.18009318 -0.08081785 -0.12984116 0.042714395 -0.18400156 -0.18615355
0.12107028 -0.018030392 0.13743055 0.16849189 -0.00017260689 -0.18293253 0.030864263 0.10289171
-0.17034951 0.17846055 0.059040543 0.026062114 -0.053739686 -0.10070468 0.1729685 0.19913392
-0.020431256 -0.05478945 0.16943006 0.06947889 0.10676842 -0.087449245 -0.15428188 -0.19849221
-0.20954248 0.018461697 -0.15783644 -0.082090326 0.20454915 -0.0440314 -0.23285183 -0.06828978
-0.07114917 0.039711915 -0.09485022 -0.07654034 -0.1600376 -0.24281219 -0.112905875 -0.024853606
-0.03138059 -0.09885158 0.17448816 -0.06340371 0.14300144 0.16717237 0.18172659 -0.19233887
-0.21730837 -0.034622572 0.12906186 -0.05169341 0.23883052 -0.17133301 0.20954055 -0.026497612
0.15864176 -0.22586253 -0.0009461738 -0.13047089 -0.030211216 -0.1322206 0.1192776 -0.17302516
-0.1565386 0.012666814 -0.15376975 0.11529088 -0.065453984 -0.07528391 0.15424587 0.15915361
-0.15756145 -0.01524917 0.23406404 0.039018713 -0.13520803 -0.09580169 -0.04959566 0.19142
-0.23890102 0.07339291 -0.008717009 -0.22996303 0.0067192903 0.19062229 0.0830332 -0.10786243
0.025968887 -0.10912626 -0.0077634514 -0.0034334208 0.2609667 -0.16573244 -0.11865474 0.04008728
0.011012648 -0.021865472 0.21012071 0.19075984 0.026546584 -0.23095858 0.23668051 0.115162715
0.1201193 -0.058932733 0.15831912 0.10811841 0.066233665 0.06759649 0.18694703 -0.1399528
-0.11132887 0.07151363 0.17814165 0.056922477 -0.06315877 0.017228346 0.0020523602 0.14593844
0.15636396 0.06740272 0.073707476 -0.035932835 -0.077864006 0.16838391 -0.15095118 -0.23575492
0.17374381 -0.1414707 0.22963914 -0.09945754 -0.007034366 0.23783329 0.15764111 0.2091859
-0.22635843 0.04211593 -0.2334816 0.021292146 0.084444515 0.17695849 -0.23324253 0.18226564
0.19176957 0.0039126296 -0.03809368 0.19596191 -0.033155274 -0.22968028 0.18523705 0.04254115
0.06846098 0.11222481 0.12759538 0.10378756 0.16350086 -0.13325436 -0.10913321 -0.07191098
0.10188396 -0.18564712 0.063396335 -0.17553295 -0.09021875 -0.045087833 -0.059620924 -0.113646224
0.09366915 0.05076929 0.22281195 0.19982363 0.17215657 -0.21304595 0.09891102 0.15507302
0.03235509 -0.2151165 0.23896056 0.028213717 -0.1421224 0.005500526 0.22588776 0.18559894
-0.016738167 0.14256495 0.1331035 0.04876324 -0.22797602 -0.19215645 -0.13768643 -0.2022766
0.013199051 -0.027410116 0.15759967 -0.00918698 -0.109723605 -0.20695621 -0.002891437 0.21947296

ConvBase.1.feature.lis.3.pointwise.bias f4 [16]
00000000: 0cad 7c3e 1187 e53d a994 fabd 9f1f 3bbe
00000010: 55f1 cbbc c3e8 3a3e d3b7 253e a057 493e
00000020: 9241 2abe d9a3 d8bd fde0 cabb 0dd9 073d
00000030: 94c0 f0bd 8f70 f4bc bfae d53d c0c7 523e
0.24675387 0.112074025 -0.12235386 -0.18273781 -0.02489535 0.18252854 0.16183405 0.19662333
-0.16626576 -0.105781265 -0.0061913715 0.03316598 -0.11755481 -0.029838828 0.10433721 0.20584011

ConvBase.1.feature.bn.weight f4 [16]
00000000: b5ca 793f dc2d 603f c5c0 043f 04ae 133e
00000010: f0a0 293f f75f 213f 937d 5f3f 98f6 003f
00000020: fd8d 733f e939 273f 11ce 783e 844f 093f
00000030: 8028 4d3f f83e 023e c5bf 4e3e fdd0 913e
0.9757493 0.87569976 0.5185664 0.1442185 0.66261196 0.63037056 0.87300986 0.5037627
0.9513853 0.6532274 0.24297358 0.53636956 0.80139923 0.12719333 0.20190342 0.28479758

ConvBase.1.feature.bn.bias f4 [16]
00000000: b103 5e3b f33e 1dbb 7f65 36bc 514a 653c
00000010: eab8 8ebb 2f0f f237 b320 2f3b a231 ef3b
00000020: 17b2 51bc 63b7 9cbb 87fe 0a3b 92b0 6f3c
00000030: 8b34 8b3c 8c93 003c 8c39 993c fc1a 8fbb
0.0033876712 -0.002399382 -0.011132597 0.013994769 -0.0043555396 2.8855718e-05 0.002672237 0.007299618
-0.012798808 -0.0047826036 0.002120884 0.0146295 0.016992828 0.007847678 0.018704198 -0.0043672305

ConvBase.1.feature.bn.running_mean f4 [16]
00000000: 854e 863e 0914 0ebe ed10 a63c 48a1 babe
00000010: 376d 13b9 0c9a a6be b956 06be d8fe bb3e
00000020: 42bc b2be fea0 983d 4a1d b4bd 491b d6bb
00000030: 6dd4 88bd bf41 d93c d09a 443c 7374 9d3c
0.2623178 -0.1387483 0.020271743 -0.36451173 -0.00014059698 -0.32539403 -0.1311902 0.36717868
-0.34909254 0.07452582 -0.08794649 -0.0065340144 -0.06681142 0.026520608 0.011999801 0.019220566

ConvBase.1.feature.bn.running_var f4 [16]
00000000: b37d ce3a d6e2 b23a a8a6 583b 1c82 0d3b
00000010: bfd3 de3a bb26 383b 257a 473b 6672 5b3a
00000020: 043e 5e3b fcef dc3a bfb1 cd3a 2979 053b
00000030: fa3b 133b 0028 d43a 1e0f 503b d38c 023b
0.0015754014 0.0013647925 0.003305832 0.0021592444 0.0017000361 0.0028099257 0.0030437794 0.00083712337
0.0033911476 0.0016856189 0.0015693231 0.0020366407 0.0022466169 0.0016186237 0.0031747292 0.0019920364

ConvBase.1.bn.weight f4 [64]
00000000: e553 d33e 9983 d13d ed19 f63d 71c6 a93d
00000010: 5cb1 b63e 278d 423f f2b5 643f 30e8 58b9
00000020: 0037 303f 65fe 673f 030d 833e d8bc 0c3f
00000030: 687d 943d 15c8 1d3e 7995 503f a14b 413f
00000040: 28e4 473f 465d 523f 55b9 473f b887 d63e
00000050: 4374 b53e a10c 553f a7da 153f 7864 833e
00000060: eb14 583f 1e02 1b3f 911c 013f e87f 153f
00000070: 6d22 493f 9672 bf3e a106 993e a60e 743f
00000080: 19b5 303f e2e1 cd3e 6016 113e 2c35 763f
00000090: ed96 983e ad4a 513f dacd 973e 5cc8 e93e
000000a0: bf34 af3e 5acc 3c3f 7a4f 983e 6d4e 1a3e
000000b0: 0b22 993d 393e ec3e 1196 413e 02e2 4b3f
000000c0: 9352 443f b158 f93e 63fc 8d3e fceb 283f
000000d0: d16d a13e e487 7e3f b830 373c 78ed 703f
000000e0: f556 6f3f 3974 603e 5ae9 9a3e b02b 2a3f
000000f0: f6b3 ec3e e927 1d3e 53aa 563f 26f4 363f
0.41274944 0.102301784 0.12016664 0.08289803 0.3568219 0.7599663 0.89340127 -0.00020685862
0.68833923 0.9062255 0.25595865 0.5497565 0.07250482 0.15408356 0.8147808 0.75506026
0.78082514 0.82173574 0.7801717 0.4190042 0.35440263 0.83222395 0.5853676 0.2566259
0.8440692 0.60550106 0.50434214 0.58398294 0.78568155 0.3739211 0.2988787 0.9533485
0.69026333 0.40211397 0.14168692 0.96174884 0.29802647 0.8175457 0.2964924 0.45660675
0.3421993 0.73749316 0.29748136 0.1506898 0.07477196 0.46141222 0.18904902 0.79641736
0.766885 0.4870048 0.27731618 0.65985084 0.31529096 0.994261 0.011181049 0.9411235
0.9349206 0.21919335 0.30256158 0.6647291 0.4623105 0.15347256 0.83853644 0.7146629

ConvBase.1.bn.bias f4 [64]
00000000: 5acc 853c fb2b 5b3b 9c8f 173c 8835 353c
00000010: 762c 64bc 2ffd 9fbb 60df 5a3c a4fb d0bb
00000020: 98c8 383c 84b1 06bb af0b 91bb ff77 03bc
00000030: dc1c 2b3c b6c6 3a3c bf09 0c3c 7d1f 933c
00000040: 5144 c03b 9f45 8abc 6988 df3a 3faf 91bc
00000050: 5908 a53c 68eb 0cbc cba7 d03c ed00 f03b
00000060: b563 32bc 78f4 0b3b d21f 63bb 03b6 a83c
00000070: 947b 743c 1700 a93c 7f1c 363a e773 c0ba
00000080: 396d 88bb 0f73 50bc edde 88bc 0e1a 533c
00000090: a956 343b 85ac d13b c358 36bb 9675 ed3b
000000a0: d00a 6c3c d216 91bc 50f9 313c 6a20 033c
000000b0: 49c7 ca3a e639 4c3c e8fc 7a3b 239a fe3c
000000c0: de98 a63c 9807 b73c d6ef 623c 1049 a33c
000000d0: e241 783c b1b1 5bbc 9637 1dbc 30cb 8e3c
000000e0: 03d6 aebc e662 c33b e159 403c dcd5 c03c
000000f0: 30c8 3fbb c7f5 503c 4b44 2e3c 1d96 19bb
0.016332794 0.0033442962 0.009250548 0.011060126 -0.013926616 -0.0048824768 0.013358921 -0.006377654
0.011278294 -0.0020552585 -0.0044264416 -0.008024215 0.010443892 0.011399915 0.0085472455 0.01795935
0.005867519 -0.016878901 0.0017054203 -0.01778376 0.020145582 -0.008601047 0.025470635 0.007324329
-0.01088803 0.0021355432 -0.0034656418 0.020594602 0.014922041 0.020629926 0.0006946995 -0.0014682979
-0.004163411 -0.012722745 -0.016707862 0.01288463 0.0027517474 0.0063987398 -0.0027823902 0.0072466834
0.014406875 -0.017711077 0.010862663 0.008003334 0.0015470769 0.012464976 0.0038297717 0.031079357
0.020336565 0.022342488 0.013851127 0.0199323 0.015152426 -0.013409064 -0.009595772 0.017430872
-0.021342283 0.0059627173 0.011740179 0.023539476 -0.0029263608 0.01275391 0.0106363995 -0.0023435422

ConvBase.1.bn.running_mean f4 [64]
00000000: ba69 353e b7ac f23d 616d e13d 3210 2a3d
00000010: fbdd 063e ceb0 2b3d 10c4 c93c 9849 e23d
00000020: 1430 563e 6df8 0f3e abba 663d 0e1e 0e3d
00000030: 354c 3c3e b6b9 003c 09c7 493d 1fb0 5e3d
00000040: 4823 813e 9534 4c3e ff7a b33d f3ed 693d
00000050: 7882 1c3e f8aa 463e 7ca3 253e 9427 d43d
00000060: ed5b fd3d 3fe7 253e 33c7 0a3d 4ca0 f63d
00000070: 4076 dd3d a29e 183d 6a98 473d 3064 753d
00000080: 1006 a23e 55b1 673e e3a0 f03d 5802 043d
00000090: 2246 413e c98e 4e3e 2364 5f3e 88e0 403e
000000a0: 45d6 5f3e afa5 cb3d 8006 483d 3db8 123e
000000b0: 718a 643e bdb0 003d ae9e 2d3d d465 8f3d
000000c0: 05d0 813e 0e2f 9f3e ce2b 063e 9629 3c3d
000000d0: 8cc0 4e3e ffb8 2e3e f6f0 603e bdec 243e
000000e0: c031 703e f6c7 3c3e ab70 773d f319 273e
000000f0: 15c7 803e 7a07 233d b108 6f3d f83b c53d
0.17716113 0.11849349 0.110071905 0.04151935 0.13170616 0.04191666 0.024629623 0.11049193
0.20916778 0.1405961 0.056330364 0.03469663 0.18388446 0.007856777 0.04926208 0.05436718
0.2522223 0.19941933 0.08763694 0.05711169 0.15284145 0.19401157 0.16175646 0.103591114
0.12371049 0.16201495 0.033881377 0.12042293 0.1081357 0.03726066 0.048729338 0.05991
0.3164525 0.2262624 0.11749437 0.032228798 0.1887441 0.20171656 0.21815543 0.18835652
0.21859081 0.09943711 0.048834324 0.14328094 0.22318436 0.03141855 0.042387657 0.07001844
0.2535402 0.31090587 0.13102648 0.045938097 0.20190638 0.17062758 0.2196692 0.16105933
0.23456478 0.18435654 0.060410183 0.16318493 0.25151888 0.039802052 0.0583579 0.09630579

ConvBase.1.bn.running_var f4 [64]
00000000: 9bbc bf3d aa72 313d 8475 233d 913a 743b
00000010: 5683 5d3d 4094 ae3b 885a dc3b 6098 0f3e
00000020: 5e2c 0e3f 3bbb 7b3e 86cb 183d d11a 1f3c
00000030: 0684 c23e 3173 1a35 b77a a83c d0ea 1c3c
00000040: d3a1 c43e 2180 c73e 4634 c73d 796a de3b
00000050: 8f71 bc3d 41b8 843e 4e3b 283f db5b 2d3e
00000060: 711b 263e 8193 9e3e ce0c 1a3d 8d91 1c3e
00000070: d68b 253d c19a 293c dd66 bb3a 56db 873d
00000080: 3099 143f c574 533e 851a 973d b22d 293c
00000090: 4f0d a43d 796c 583e a20a 733d 66d3 c83d
000000a0: 8339 833d eb66 b13e e08f 273d 93f7 4e3d
000000b0: c179 cc3e f75f c23b 17fa 0a3d 8ad5 bb3c
000000c0: be14 2b3f dfe8 753e cbc1 d43d c833 fe3b
000000d0: f837 123e 2a22 423e f0fe a53e 665a 9b3d
000000e0: 07cc 013f 575f 7c3d 6e14 153d 5fff 383e
000000f0: 8685 a93e baf6 1f3c 37cf c23c 07be 1e3d
0.093621455 0.043322243 0.039906994 0.0037266354 0.05408033 0.0053277314 0.0067246594 0.1402297
0.5553645 0.24583142 0.03730347 0.009710983 0.3799135 5.7537096e-07 0.020566327 0.009577468
0.38404712 0.38964942 0.09726767 0.006787595 0.09201347 0.25921825 0.6571549 0.16929571
0.16221406 0.30971912 0.037609868 0.15289898 0.04041656 0.010351838 0.0014297623 0.06633632
0.58046246 0.20650013 0.07378105 0.010325836 0.08010351 0.21135129 0.059336312 0.09805946
0.06407454 0.34648833 0.040908694 0.050529074 0.3993664 0.00593185 0.03392991 0.022928972
0.66828525 0.24014615 0.103885256 0.0077576376 0.14279163 0.18958345 0.32421064 0.075856015
0.50701946 0.06161436 0.036396436 0.18066166 0.33109683 0.009763414 0.023780448 0.038755443
