waights/weights7.pth (torch_old, 670822 bytes, 196 tensors)

ConvBase.1.feature.lis.0.X_conv.conv.weight f4 [1, 1, 3, 1]
000000 4a 19 47 bc fe 85 40 be b7 24 ed bd
       -0.0121520255 -0.18801114 -0.115792684

ConvBase.1.feature.lis.0.Y_conv.conv.weight f4 [1, 1, 1, 3]
000000 4d 3e a0 3e c7 94 85 bd 02 b4 13 be
       0.31297532 -0.06522518 -0.14424136

ConvBase.1.feature.lis.0.pointwise.weight f4 [16, 1, 1, 1]
000000 db 9b b5 be 11 6c 67 be ea 68 49 bf 27 42 73 bf
       -0.3547047 -0.22599818 -0.7867571 -0.95022815
000010 64 18 fe be bc e6 bc bd 14 18 0a 3d 22 31 16 3f
       -0.49627984 -0.092236966 0.03371437 0.5866872
000020 b8 8e 53 3f 63 fd 29 3f f5 ee 68 3f e9 ab 63 3d
       0.82639647 0.6640226 0.9098962 0.05558387
000030 82 66 31 3f d6 22 44 3c 1c 37 f1 3e 36 29 f7 be
       0.6929704 0.011971196 0.47112358 -0.4827363

ConvBase.1.feature.lis.0.pointwise.bias f4 [16]
000000 f3 cd 54 3f 37 6b 9e be f5 cb 37 3f b2 bf 83 bf
       0.83126754 -0.30941173 0.7179559 -1.0292876
000010 db 15 9b be b1 0e 50 bf f6 60 ae be 5c 00 6a 3f
       -0.30290112 -0.8127242 -0.3405835 0.914068
000020 d0 e1 30 bf 9d 24 8a 3e 18 98 e8 be 2b 49 0e bf
       -0.6909456 0.2698106 -0.45428538 -0.55580395
000030 46 df 22 3d c9 ac 9d bd 8b 96 8f be d1 ba ce be
       0.03976371 -0.07698972 -0.28044543 -0.40376905

ConvBase.1.feature.lis.1.X_conv.conv.weight f4 [16, 1, 5, 1]
000000 98 4b 71 3e b4 95 9c be 60 fd 93 bb a5 df af 3e
       0.23563993 -0.30582964 -0.0045162886 0.34350315
000010 2b e6 7d 3e 60 7a 83 3c c5 c7 ab 3e 3f fc 2a bb
       0.24794833 0.016049564 0.3355085 -0.0026090292
000020 08 32 14 3e 99 d7 8a be cf a6 61 be ad 87 a2 be
       0.1447221 -0.27117613 -0.22036289 -0.31744137
000030 d6 1e 78 bd b5 6c 8f 3e 87 02 e3 bd 8f c2 32 bd
       -0.060576282 0.28012624 -0.110844664 -0.043642577
000040 c8 3c 3a 3d 3e 5c 49 3e 5e bc d8 3e 0b 1a 2b 3c
       0.04546812 0.19664094 0.42331213 0.010443221
000050 9a ad c4 be d0 8a cf bd fb 60 bf 3c 38 90 a0 be
       -0.38413697 -0.10133898 0.023361674 -0.3136003
000060 14 9d b7 3e 4e f3 01 3e 64 44 82 3e 4e 86 c4 be
       0.3586203 0.1269047 0.25442803 -0.38383716
000070 4a 8f 66 3e 2a 62 26 3e bc 9d 8d be c9 61 32 be
       0.22515598 0.16248384 -0.27659404 -0.17420115
000080 2f fc 3b be 7c b3 44 3e 11 9d 0a bc ed 5f 8b 3d
       -0.18357919 0.19209093 -0.008460299 0.06805406
000090 bd 72 51 bd 16 63 de 3e 54 d8 cb 3e a6 00 0e 3e
       -0.051134814 0.43434972 0.39813483 0.13867435
0000a0 90 f8 54 3d ed fb a7 be d3 5c b0 3e b9 46 68 3e
       0.05199486 -0.32809392 0.3444582 0.22683229
0000b0 15 50 cf 3d 11 dc a1 be 97 f7 99 be 5d f1 d1 3d
       0.10122696 -0.3161321 -0.3007171 0.102511145
0000c0 d9 5a 0e 3e bd de cb be 32 4c 8a bd 90 56 88 bd
       0.13901843 -0.39818373 -0.06752814 -0.066571355
0000d0 20 2b e7 be 5b 26 93 bc 68 14 bc 3e 3f 2e de be
       -0.4515009 -0.017962625 0.3673432 -0.43394658
0000e0 4f 23 e2 be 7d 25 95 3e 56 99 46 3e 1d 34 bf 3e
       -0.44167563 0.29130164 0.1939443 0.37344447
0000f0 58 b5 2d be 8e 5c 72 bd a7 0b 6f bd 25 db cc 3e
       -0.16963708 -0.0591703 -0.058360722 0.40010944
000100 dc d3 87 be 1f b1 b9 be 2e c3 ac 3e 35 6a 43 be
       -0.26528823 -0.36267945 0.3374266 -0.19083484
000110 f4 ec 9f 3d 0f 4d ae bd 77 30 3c bc 8c 80 a9 3b
       0.07808867 -0.085107915 -0.011486164 0.0051727947
000120 00 89 92 be e7 7c e6 be 01 b2 7a 3e 0c 3a b1 3e
       -0.28620148 -0.45017168 0.24481966 0.346146
000130 2d 06 8f bd 08 41 21 3e 29 64 4e 3e 48 7e ca be
       -0.069836 0.15747464 0.20155396 -0.3954947

ConvBase.1.feature.lis.1.X_conv.conv.bias f4 [16]
000000 87 6f ca 3c 54 83 b8 3d 64 e4 4f 3d 58 d5 e7 be
       0.024711384 0.09009424 0.05075492 -0.45279956
000010 fd 99 92 be 29 6e c8 be 8f 41 e5 be e5 12 c4 3d
       -0.2863311 -0.39146546 -0.4477658 0.09573916
000020 be a1 2d 3e a2 16 22 be 85 e5 98 3e 50 90 96 3e
       0.16956231 -0.15828946 0.2986261 0.29406977
000030 aa 4b 98 3d a9 2a f3 3d 13 f8 d9 be 86 f8 5c bb
       0.07436307 0.11873371 -0.42572078 -0.0033717467

ConvBase.1.feature.lis.1.Y_conv.conv.weight f4 [16, 1, 1, 5]
000000 ea 0b 89 3e 73 24 b7 3e 97 7c b6 be f4 c0 44 be
       0.26766902 0.35769996 -0.3564193 -0.19214231
000010 e9 26 c6 3c 4c 67 b0 3e d9 a8 dc 3e 0d 59 f4 bd
       0.024188476 0.3445381 0.4309757 -0.119310476
000020 0e f6 b9 3b 00 53 da be 9e 83 ae be 74 d9 40 3d
       0.005675084 -0.4264145 -0.3408479 0.04708238
000030 25 5a 85 3e a8 86 a3 be 38 0a 7b be 80 ff 89 be
       0.26045337 -0.31938672 -0.24515617 -0.26952744
000040 9b cf 7e 3e dc 48 e9 3e c5 f1 5d be 49 e7 b4 be
       0.24883883 0.455634 -0.21674259 -0.35332707
000050 34 e7 86 be b4 5f c6 3e b3 16 c7 3e 6e eb b0 be
       -0.2634827 0.3874489 0.38884506 -0.3455462
000060 4c de 53 3e 43 d7 75 be 68 39 4c be 3d 75 b9 be
       0.20690268 -0.24007897 -0.19943774 -0.36222258
000070 65 99 f3 3d cf c3 c2 be 28 93 94 3d 01 ce d0 bd
       0.11894492 -0.38040015 0.0725463 -0.10195542
000080 5c b5 4d 3d fd e9 85 3e 24 c0 d2 3d 4d 2f b3 be
       0.050221786 0.2615508 0.10290554 -0.34997025
000090 48 5e 7f 3e ab 31 aa bd a0 a9 d6 bd 7b 98 8e 3d
       0.24938309 -0.08310255 -0.10481572 0.06962677
0000a0 e2 d8 4a bd f0 71 d3 be 26 94 b6 bd ee 3c 21 3e
       -0.04952324 -0.41297865 -0.08914976 0.15745899
0000b0 15 6a 98 be 16 0a 51 3e 85 58 b2 be 16 26 16 be
       -0.29768434 0.20414004 -0.3483316 -0.14662966
0000c0 bd 9a d3 3e cb a6 99 3e 55 79 70 3e df 46 f7 3d
       0.41328993 0.30010065 0.23483784 0.120740645
0000d0 4b fe b7 bd 9c f4 3e 3e 34 24 86 be a9 17 c5 3e
       -0.089840494 0.18647999 -0.26199496 0.38494614
0000e0 ca c6 bf be 09 80 87 3e 7e 39 f8 bd d7 e4 09 be
       -0.37456352 0.2646487 -0.12120341 -0.13466202
0000f0 19 a4 de 3e 46 7f 52 be 3c bb 2a 3e fb 53 de 3e
       0.43484572 -0.20556363 0.16672987 0.43423447
000100 c0 51 a4 3b 18 03 9d 3e 19 60 dc 3c 11 fe 82 3e
       0.005014628 0.30666423 0.026901292 0.25584462
000110 92 67 d0 3e 0b 00 84 be e1 81 9a be f7 fe da be
       0.40704018 -0.25781283 -0.30177215 -0.42772648
000120 c6 b4 bb 3e e5 d4 d5 be 42 ab cc 3e f0 93 a5 3e
       0.36661357 -0.41763988 0.3997441 0.3233943
000130 c2 d8 8b bd ee eb e5 be 6c ec 85 be a6 44 c4 bb
       -0.06828453 -0.44906563 -0.26156938 -0.005989629

ConvBase.1.feature.lis.1.Y_conv.conv.bias f4 [16]
000000 e3 46 3e 3e fd 04 77 3e df 51 18 be 63 f1 94 3e
       0.18581729 0.24122997 -0.14874981 0.29090413
000010 a0 34 dc 3d 47 db a4 3d 30 dd 70 3d 2e 60 28 3e
       0.10752225 0.08049636 0.05880469 0.1644294
000020 1f 6a b3 3e c4 24 58 3d bf 77 de be f9 f9 1a be
       0.350419 0.052769437 -0.43450734 -0.1513442
000030 3f c6 c4 be 7a c5 59 3e 4b 3d b1 be c8 40 bc be
       -0.384325 0.21266738 -0.34617075 -0.36768174

ConvBase.1.feature.lis.1.pointwise.weight f4 [16, 16, 1, 1]
000000 a4 23 3e be af 3f 70 be 19 05 14 be 5d 09 35 3e
       -0.18568283 -0.23461793 -0.1445507 0.17679353
000010 08 70 5a be c9 10 f4 3d 26 db a5 3d 2e 32 67 3e
       -0.21331799 0.11917264 0.0809844 0.22577736
000020 c1 71 15 bd 19 a7 b2 bd b9 98 52 bd 8b df 09 3e
       -0.036485437 -0.087232776 -0.05141518 0.13464181
000030 88 86 4a be 3f 4a 64 3e 70 d8 64 be 4b d7 59 3e
       -0.19777882 0.22293948 -0.2234819 0.21273534
000040 81 d7 26 3e 55 44 b1 3d 88 f1 84 3d e7 59 81 bd
       0.16293146 0.086556114 0.06491381 -0.06315976
000050 35 1d 4e be 14 a8 3e be 87 3c 1a 3e e2 71 48 3e
       -0.20128329 -0.18618804 0.15062152 0.19574693
000060 5f 52 e5 3c ba b7 15 3e 8c d7 55 be 6e 7c d1 3d
       0.02799338 0.14620867 -0.20883006 0.10228811
000070 3f 58 08 be 1d 4c d7 3d c1 fa 44 3e d5 8e 03 3c
       -0.13314913 0.10512564 0.1923628 0.008029659
000080 47 4c 33 be 22 71 b8 bd 7f a8 1e bd f5 12 5b 3d
       -0.17509566 -0.09005953 -0.03873491 0.053484876
000090 12 64 92 be 9d 9a 02 bc 87 97 a6 3d 6a 57 3b be
       -0.28591973 -0.007971433 0.0813437 -0.18295065
0000a0 f9 cf 1f 3e 11 e4 fe 3c 73 5b 36 be 2a 69 40 3e
       0.15606679 0.03111461 -0.17808323 0.18790117
0000b0 f6 cd 47 3c f0 92 27 be 61 9e d7 bd cb 44 6d be
       0.012195101 -0.16364646 -0.10528255 -0.23170774
0000c0 2a bb 18 bc 2f e2 40 be b8 6b 09 3e 43 bf c8 bd
       -0.009321967 -0.18836282 0.13419998 -0.09802105
0000d0 c9 2b 3f be a3 2b 81 3d 9d 91 4b 3e d1 cd 13 ba
       -0.18669046 0.06307151 0.19879766 -0.0005638274
0000e0 5f e4 b2 3d 0c 6e 20 3b d8 f1 26 3e 02 0c cb bd
       0.087349646 0.0024479656 0.16303194 -0.099144
0000f0 a1 28 99 3d 0b 05 83 be b4 5a 60 bc be e9 84 be
       0.074784525 -0.25589785 -0.0136935 -0.2595958
000100 e6 ec 33 be c8 18 4f 3e af 62 67 3e fe 68 37 3e
       -0.17570838 0.20224297 0.22596239 0.17911145
000110 dd af 2f be 4c f4 54 3e bc a4 41 3e 46 a6 1f be
       -0.1715693 0.20796317 0.18910497 -0.15590772
000120 11 1f 6e 3e 6f fe 01 3e c0 9f 9f 3c 2e f8 63 bc
       0.23254038 0.12694715 0.019485354 -0.013914151
000130 3e d9 e9 bd ff 89 25 be 86 0b 8a 3d fe 97 00 be
       -0.11418389 -0.16165923 0.06740479 -0.1255798
000140 e8 66 c9 3d f6 0f 01 be f3 59 00 bd 88 a1 a4 bd
       0.09834081 -0.12603745 -0.031335782 -0.08038622
000150 54 46 b9 bd 6e 7d d7 3c 9e 3f 37 3d 73 bd cc bc
       -0.09046617 0.026304927 0.044738404 -0.02499268
000160 5e b3 1e be 28 30 29 bd f8 53 dc 3c a9 98 64 be
       -0.1549811 -0.04130569 0.026895508 -0.2232386
000170 06 4a 0d 3b 36 77 12 be 5f 4c 07 bd 44 81 28 3e
       0.0021559014 -0.14303288 -0.033031818 0.16455561
000180 9b 55 79 be 76 59 07 3d cf 23 89 bd e2 99 a7 3c
       -0.24349062 0.0330443 -0.06696283 0.02045912
000190 8e cb 8b 3d b1 4a 52 be 42 81 83 bd 92 7e 45 3d
       0.06825934 -0.20536305 -0.06421138 0.04821641
0001a0 2e f6 1f be ba 0d 17 3e ec 01 85 3e 1f b2 c9 bc
       -0.15621254 0.1475133 0.2597803 -0.024621068
0001b0 63 e8 37 be 13 ce 3d bd 90 40 fa bc ad 8f 59 3e
       -0.17959742 -0.046339106 -0.030548364 0.21246214
0001c0 c8 5c 27 be f3 51 01 3e b3 b3 16 be d6 ed ad 3d
       -0.16343987 0.12628917 -0.14716987 0.08492629
0001d0 8e 4c 3a 3e f3 74 36 be 64 91 1b bd 93 5e 0b 3e
       0.18193266 -0.1781805 -0.037980452 0.13610296
0001e0 7a 6c 02 be a4 4d 5c bd bf a7 e9 bd 17 13 b6 bd
       -0.12736693 -0.05378498 -0.11408948 -0.0889036
0001f0 3a ef b1 3c c5 f2 14 be 2c 63 34 bd 58 4d 0c be
       0.021720517 -0.14545734 -0.04403989 -0.1370138
000200 69 8d 40 3d 23 16 b9 3d ab 1f 67 be e0 43 85 be
       0.04700986 0.09037425 -0.22570674 -0.26028347
000210 d2 5e 2e bd bd 70 25 3d 9f 5b 80 3e 36 ce d1 bd
       -0.042570896 0.04039072 0.250699 -0.1024441
000220 4d 0c cd 3d 49 3a 14 be 83 50 67 3e 0b 7a 8c be
       0.10012112 -0.14475359 0.22589307 -0.2743686
000230 d4 47 41 3e 69 95 40 be 00 2f 51 3e 8a 4b 18 3e
       0.18875057 -0.18806995 0.20428085 0.14872566
000240 f4 3e 03 3e 38 84 8a 3d 7a 57 62 3e a5 69 c5 bd
       0.12816983 0.067635 0.22103682 -0.09639291
000250 1d 49 51 bc c2 7b cd bb 4f 72 59 3e fb c3 f8 bd
       -0.012773779 -0.0062708566 0.21235012 -0.12146755
000260 76 4a 9c bc 58 1a 5e 3e 0e 8a 06 be a7 9f 8f 3d
       -0.019078474 0.21689737 -0.13138601 0.07012873
000270 a2 b4 65 bb 13 7a 5a be ae 72 21 3e b5 fa 04 3e
       -0.0035050292 -0.2133563 0.15766403 0.12986262
000280 95 7b 8c 3e c4 00 70 3e 33 dd 27 bd bb b8 bf 3d
       0.27438036 0.23437792 -0.040982436 0.093614064
000290 56 8e 0a 3e 9f 8f 18 3d c1 2c 5d be 2f 40 45 3b
       0.1353086 0.037246343 -0.21599104 0.003009807
0002a0 75 cb 32 be c5 e1 4e 3e df 31 51 3e 65 43 15 be
       -0.17460425 0.20203312 0.2042918 -0.1457649
0002b0 55 70 43 3e b8 e2 02 be 3d 7c 5f be 1c a4 3f be
       0.1908582 -0.12781799 -0.21824737 -0.18714947
0002c0 1d 72 19 be d8 75 4b bc 3c 09 82 bd ac 10 6a 3e
       -0.14984937 -0.012418233 -0.063494176 0.22857922
0002d0 cd f5 2b bb 5b 8a 65 bd 2c e6 a3 bd 61 5d 31 be
       -0.0026239038 -0.05604015 -0.08002886 -0.17320777
0002e0 a1 94 92 3d f8 32 ec 3d c0 be 7f 3d b9 8a d4 3d
       0.07157255 0.11533159 0.062437773 0.10378022
0002f0 b7 67 2a 3d 3b 80 0d be 1c 84 5f be 50 91 bf 3c
       0.041602816 -0.13818447 -0.2182774 0.02338472
000300 ef 6b ef 3d 7c b8 65 be d9 84 98 bd 3d cd 0a be
       0.116905086 -0.22433656 -0.07447214 -0.13554855
000310 cb fc e0 3d e6 5e 1f be d1 97 e0 3d 91 a7 71 3c
       0.109857164 -0.15563545 0.10966457 0.014749424
000320 39 a1 12 3e ae 5b 50 be 9c 82 8b 3d 71 f4 1e 3e
       0.14319314 -0.20347473 0.06812021 0.15522934
000330 b2 e1 15 3e a2 9a a2 bd 2b e1 b4 bc d7 20 87 be
       0.14636877 -0.0793965 -0.022080025 -0.26392242
000340 84 33 58 be 57 a7 44 3e 14 f9 14 be 14 ce 8d bd
       -0.21113402 0.1920446 -0.14548141 -0.06924072
000350 e3 d1 17 3e 56 df db bd 77 2e 6e be c2 b9 3d bd
       0.14826159 -0.10735957 -0.23259912 -0.04631973
000360 f1 6b e1 bd 5a 97 0f bd e0 c5 16 3e f1 f3 24 be
       -0.11006916 -0.03505645 0.14723921 -0.16108681
000370 6e 4b 0e 3e e0 c3 29 3e 8b ef f7 bd 30 a2 51 be
       0.13895962 0.16578627 -0.12106236 -0.20472026
000380 6b 48 0e 3e d5 9d 24 3a 09 00 fd bd d4 fc 03 3e
       0.13894813 0.00062796223 -0.12353522 0.12889415
000390 20 6f 45 bd 4e 67 db 3d 94 b2 9c 3d 3c 53 62 3e
       -0.04820168 0.10713063 0.076512486 0.22102064
0003a0 4d 28 d0 3d 91 ec 4d be b3 94 05 be b5 2e e2 39
       0.10163937 -0.20109774 -0.13045006 0.0004314088
0003b0 e2 58 1a 3e 69 61 22 be 53 da 5a 3e 39 38 85 bc
       0.15072969 -0.15857472 0.21372347 -0.01626216
0003c0 7d 0a fc bc 43 6c 14 be f6 c0 41 3e fa d4 61 be
       -0.03076672 -0.14494424 0.18921265 -0.220539
0003d0 81 f2 7a bd b1 fa 57 3d 97 06 e1 bb 79 79 2f be
       -0.061266426 0.052729312 -0.0068672406 -0.17136182
0003e0 bd db e3 bd 46 99 ae bd e4 51 1d bd 98 6b 54 be
       -0.11125896 -0.08525328 -0.038408175 -0.20744169
0003f0 5a 6b 17 bd 1a 6f 63 3e 90 d5 8c 3e 8d be ce bd
       -0.036967613 0.2221035 0.27506685 -0.100949384

ConvBase.1.feature.lis.1.pointwise.bias f4 [16]
000000 7b 83 83 3e be 94 67 be a6 f3 11 3e d3 e0 31 be
       0.2568625 -0.22615334 0.14253101 -0.1737092
000010 4d 27 a2 bd 5a 4d 83 be 46 c1 4e be 7a 83 f0 3d
       -0.07917652 -0.25644952 -0.20190915 0.11743827
000020 89 05 3d be 67 94 79 3e ad a4 e7 bb bf d2 08 3e
       -0.18459143 0.24373017 -0.0070691914 0.13361643
000030 24 1c 9b 3d 7f c3 44 3c ac f2 03 3e ea 10 88 be
       0.07573727 0.0120095005 0.1288554 -0.26575404

ConvBase.1.feature.lis.2.X_conv.conv.weight f4 [16, 1, 7, 1]
000000 63 49 84 3e 5f ab b7 be 1b 06 c5 3e 92 07 fc 3d
       0.2583724 -0.35872933 0.3848122 0.123061314
000010 81 3c b1 3e a4 d0 c2 bd 8a 36 9b be 6f c3 a7 3d
       0.34616473 -0.09512451 -0.30315048 0.08191573
000020 da 85 f5 3b 06 14 1f 3e c7 00 ae 3d 82 b6 2b be
       0.007492763 0.15534982 0.08496242 -0.1676884
000030 b8 64 3d 3e 11 44 9d 3e 6c 15 1c be 7e 91 c1 bd
       0.18495452 0.30715993 -0.15242547 -0.094515786
000040 27 5a ad be a7 ae 0c 3e 14 d0 79 be f9 02 9a 3e
       -0.33857843 0.137385 -0.24395782 0.30080393
000050 bb 54 b8 bc 18 93 b5 be 1c 2e 25 3e 6b 9a 43 be
       -0.02250134 -0.35463786 0.1613087 -0.19101875
000060 7a f2 a9 3e ce 5f a0 bd ba da 34 be 9a a0 0a 3d
       0.33192807 -0.07830773 -0.17661563 0.033844568
000070 90 16 b9 3d 4c df 55 3e d1 fe 90 3e e7 f5 b2 3e
       0.090375066 0.20885962 0.2831941 0.34953234
000080 49 89 40 3e 1d f3 8c be f4 76 a5 3e cc d9 18 bd
       0.1880237 -0.2752923 0.32317317 -0.037317082
000090 48 48 fa bd 19 58 50 bd 78 65 a2 3e f4 f6 a3 be
       -0.12220818 -0.050865266 0.3171804 -0.32024348
0000a0 bc bf 3f be 82 4f 46 be 46 fb 10 be 85 2e 84 be
       -0.18725485 -0.19366267 -0.14158353 -0.25816742
0000b0 11 b1 64 be 51 97 41 3d 41 68 99 3d c4 5f cb be
       -0.2233317 0.047263447 0.07490588 -0.397215
0000c0 74 df 42 3e 84 f6 95 be ec b1 67 be 4e 01 b9 3e
       0.19030553 -0.2928964 -0.22626466 0.36133808
0000d0 bd d6 84 3e 83 ac 8b 3e 67 2a 3b 3e d6 fa a5 3e
       0.25945082 0.27280053 0.18277894 0.32417935
0000e0 c3 2c 9f be d3 5a 9f 3e 63 20 54 3e 3e 4f 1a bd
       -0.31088838 0.3112398 0.2071548 -0.037673227
0000f0 35 c9 fa 3d 37 02 54 3c e6 40 e8 bd 04 d6 75 3e
       0.122454084 0.012939981 -0.113405034 0.24007422
000100 c1 16 7d 3e 6f 8e 8e 3e fd 72 b8 3d c8 f1 b8 be
       0.24715711 0.27843043 0.09006307 -0.36121964
000110 f5 3c a9 bd c0 48 b8 be df b4 ad 3e 05 08 a7 3e
       -0.0826358 -0.35993004 0.33927056 0.32623306
000120 61 c5 58 3e eb f0 38 be f0 a7 be 3d 35 63 0f be
       0.21169044 -0.18060653 0.09309375 -0.14002688
000130 85 0a 83 3e af b2 d7 3d 80 6f f0 3c ba ab cf 3d
       0.25593963 0.10532128 0.029350042 0.10140176
000140 b3 86 8b 3e fa 86 f2 bd b3 63 6d be 9f 57 0a be
       0.27251205 -0.11842151 -0.23182563 -0.13509987
000150 aa 0d 4b 3d 9e 4e 0b be 34 99 d2 3d f3 94 44 3d
       0.049573578 -0.13604209 0.102831274 0.04799361
000160 a7 3d 03 3d d9 b8 2a 3e 61 d3 aa be 09 96 12 be
       0.032041218 0.16672076 -0.33364394 -0.14315046
000170 0f 75 59 3c 44 e2 5e 3e eb 6a c9 be 6b 15 4f be
       0.013272538 0.21766001 -0.39339384 -0.20223014
000180 be 92 99 be 04 fc c2 be b4 b9 d4 3d 15 40 bd 3e
       -0.29994768 -0.38082898 0.103869826 0.36962953
000190 36 84 72 bd 68 ed 49 be 9b 00 35 be 34 0e 05 bd
       -0.059208117 -0.1971947 -0.17676012 -0.03248425
0001a0 3f 6e f9 3c 25 55 a2 3e 85 9d 1c 3e c9 65 9a be
       0.030448077 0.31705585 0.15294464 -0.3015578
0001b0 28 fd 4d be b5 fc 16 3e f6 9f 8a be 2d d6 e9 bc
       -0.20116103 0.14744838 -0.27075166 -0.02854451

ConvBase.1.feature.lis.2.X_conv.conv.bias f4 [16]
000000 eb d0 4e bd 8b e8 78 3e 6f cb 0c be 70 a5 14 be
       -0.05049221 0.24307458 -0.13749479 -0.14516234
000010 88 4b 2a bd a0 17 47 3e 2c 8a 5b 3e 33 23 c1 3d
       -0.04157594 0.19442606 0.21439427 0.09430542
000020 94 e4 2c 3e ec 0b a1 bd b9 21 ac 3e 50 7d bf 3d
       0.1688407 -0.07863602 0.33619478 0.09350073
000030 02 bd ba 3c c9 2c d7 bd 3b 9f b9 3e 0a bb af bd
       0.022795204 -0.10506589 0.36254296 -0.08580597

ConvBase.1.feature.lis.2.Y_conv.conv.weight f4 [16, 1, 1, 7]
000000 dc 6a 5c 3d 33 f4 74 3e 54 78 92 be af 7e 02 be
       0.053812847 0.2392128 -0.28607428 -0.12743638
000010 e7 f0 8f 3d 84 cb ab be 5c 20 ad 3e 66 95 83 3d
       0.0702837 -0.33553708 0.3381375 0.0642498
000020 43 30 a5 be d6 5e d7 3d 1b 7f fc bb 1e a1 9f be
       -0.32263383 0.105161354 -0.007705582 -0.3117761
000030 49 f9 3a 3e f7 e2 01 3e e8 05 eb bd e8 e3 26 3d
       0.18259157 0.12684236 -0.11475736 0.040744692
000040 18 20 75 be 5c 2b 87 3e 8e 6b a0 3d 01 64 24 3e
       -0.23938024 0.26400268 0.078330144 0.16053773
000050 af 1c 4d bc 7e 85 d4 bd 1c 8c 8f 3e 15 3b 03 3d
       -0.012519046 -0.10377024 0.28036582 0.032038767
000060 fb 44 b1 3e b2 b6 c2 bb fe 44 c3 3d 64 72 9b 3e
       0.3462294 -0.005942189 0.095346436 0.3036071
000070 69 18 80 3e 10 d8 3f 3e 67 66 60 3e 8c b9 c4 bc
       0.25018623 0.18734765 0.21914063 -0.024014257
000080 05 f1 ff 3d 6e 55 07 3e 9e 5b 5e 3e 90 61 19 3e
       0.12497143 0.13216183 0.21714637 0.14978623
000090 a9 6f 5d bd 6b 30 bf 3d 48 bf d1 be e8 73 0c 3e
       -0.054061566 0.09335407 -0.4096625 0.1371609
0000a0 91 b9 ae 3d 61 91 91 3e 48 9c 3f 3e 48 2b 85 be
       0.08531488 0.28431228 0.1871196 -0.26009583
0000b0 ea 04 b4 be 31 14 55 3e d6 3f b5 3c df 9a a4 3e
       -0.3516 0.20808484 0.022125166 0.32149407
0000c0 63 2b ad bc bf 3f 05 be b5 7b e4 bc 9b e2 19 3e
       -0.021138852 -0.13012598 -0.02789102 0.1502785
0000d0 3d 1b 8b be 82 36 a1 be 56 6a 05 bc b0 22 d8 3d
       -0.2716922 -0.314869 -0.008143028 0.10553491
0000e0 06 4f c3 be b0 88 ce 3d 3c 81 b2 be e7 52 85 be
       -0.38146228 0.10084665 -0.34864223 -0.26039812
0000f0 0d 0e 88 3e 5e 2b 38 bb 9c 92 96 bd 90 53 7d bd
       0.2657322 -0.002810202 -0.07352182 -0.06184727
000100 ea 53 bf be 30 ea 3a be 25 a5 f9 3d f3 67 0e 3e
       -0.3736871 -0.18253398 0.12189702 0.13906841
000110 64 56 3b be db 89 8e be 1f 1d 89 bd 72 d6 12 3d
       -0.18294674 -0.2783955 -0.066950075 0.035849042
000120 3c cd 93 3e 8f ab 13 3e 72 12 eb 3d 7e de 8e 3e
       0.2886752 0.14420913 0.114781275 0.27904123
000130 04 a7 a1 be 61 46 5d 3e 2b c4 76 be 3e 84 1f 3e
       -0.31572735 0.21608879 -0.2409827 0.1557779
000140 97 e0 17 be 7a 39 2b be 87 e0 bf be 0d c8 af 3e
       -0.14831768 -0.16721144 -0.37475988 0.34332314
000150 28 0c 12 3e 25 a7 23 3e f0 53 a2 bc ce 07 70 be
       0.1426245 0.1598173 -0.019815415 -0.23440477
000160 e0 ee 5e 3d 8d 13 92 3e a5 03 0f be 35 67 8c bc
       0.054427028 0.2853054 -0.13966234 -0.017139057
000170 80 f3 73 3c 12 d1 6d 3e 7d 90 fc 3d 7d 45 d1 3e
       0.014889598 0.23224285 0.123322465 0.40873328
000180 ef 81 2d 3e f0 12 3a be 98 e7 63 3e 04 1b 52 bd
       0.16944097 -0.18171287 0.22256315 -0.051295295
000190 15 c5 0c be b7 74 a4 bd 8f e6 8f 3e a6 a8 b1 3e
       -0.13747056 -0.08030074 0.2810559 0.3469898
0001a0 87 d6 52 3e ff bf 8a be 7e fd b4 3d 9b 57 af be
       0.20589648 -0.27099606 0.08837412 -0.34246525
0001b0 83 47 83 be f8 db ef ba 97 d0 84 bd 73 c9 9f 3e
       -0.25640497 -0.0018299809 -0.06485098 0.3120838

ConvBase.1.feature.lis.2.Y_conv.conv.bias f4 [16]
000000 e6 84 97 3d 42 99 2e 3e 29 9a af be 98 cd bd be
       0.07398395 0.1705065 -0.34297302 -0.37070918
000010 39 b1 80 be ae be 1a bd e3 46 12 3e 60 48 76 bd
       -0.2513521 -0.037779503 0.14284854 -0.060127616
000020 98 47 bd 3d 45 67 ad 3e 38 d5 e8 bd a2 b7 a3 3e
       0.09242171 0.3386785 -0.11368793 0.31976038
000030 4f 39 92 be d6 21 dc 3d d5 44 a6 3e 3c 2b 9f 3e
       -0.28559348 0.10748641 0.3247439 0.31087673

ConvBase.1.feature.lis.2.pointwise.weight f4 [16, 16, 1, 1]
000000 32 df c2 bd ec 4a af bd e4 b0 5f 3e 31 34 57 3e
       -0.095152274 -0.08559212 0.21844822 0.21016003
000010 6c 14 7c 3e 62 d2 e9 3b 56 8d ee 3d b9 b9 f4 3d
       0.24617165 0.0071356753 0.116480514 0.11949486
000020 ff 79 5c be c7 05 68 3c 93 c8 15 3e f0 df 4b 3e
       -0.21530913 0.014161534 0.14627294 0.19909644
000030 07 8d 13 3e f3 39 50 bd 46 12 4a be 93 c7 4f be
       0.14409266 -0.050836515 -0.19733533 -0.20290975
000040 c8 a4 33 3e 51 b5 ed bd 41 dd 18 3e 37 f1 c9 3d
       0.17543328 -0.11606849 0.14928152 0.09860461
000050 0e 56 ee bd 19 d2 4e bd 6a d7 37 3c f6 58 3f 3b
       -0.116375074 -0.050493333 0.011220792 0.0029197312
000060 93 be 96 3d 05 4c f9 3c 36 10 12 be d4 95 c1 bb
       0.07360568 0.030431757 -0.14263996 -0.0059077535
000070 73 67 84 bd 75 44 27 bd 8e af 4d 3e 73 52 21 be
       -0.06465044 -0.04083677 0.200865 -0.15754108
000080 3a 1b 48 be eb 3c 33 3e b9 8b 5d 3e ef 30 7c 3e
       -0.19541636 0.17503707 0.21635331 0.24628042
000090 1e 62 35 be 9e fb 48 3e c8 4c ef 3d 4d cb 82 bc
       -0.1771321 0.19627234 0.11684567 -0.015966082
0000a0 20 22 ec 3d fb 42 d1 3d c7 71 ad 3d 0d 01 95 3d
       0.11529946 0.10217854 0.08468967 0.07275591
0000b0 53 79 23 3e 1c 8e 32 3d 29 88 44 be d7 5f 0c be
       0.1596425 0.043592557 -0.19192566 -0.13708435
0000c0 61 0c 82 be 44 70 29 be c8 14 80 3c c6 57 5d 3d
       -0.2540007 -0.16546732 0.01563491 0.054038785
0000d0 10 c4 d3 3c 4c b8 24 be fc 60 6b be 94 26 65 bd
       0.025850326 -0.16085929 -0.22986215 -0.055944994
0000e0 63 94 6c 3e 87 18 fa bd 28 0e 0f 3e 40 af 76 be
       0.2310348 -0.122117095 0.13970244 -0.2409029
0000f0 c3 9a eb 3d 9d 88 7f 3e 33 4d 88 bd 81 0f 50 be
       0.11504128 0.24954458 -0.066553496 -0.20318414
000100 60 15 8f bd 06 61 52 3e 62 7b 7f be b7 a3 53 3e
       -0.06986499 0.20544824 -0.2494941 0.20667921
000110 74 41 bc bd 2d 72 06 be 29 d3 04 3d ac 3d 8b bd
       -0.09192172 -0.13129492 0.03242794 -0.06798872
000120 f9 54 64 3d f0 2a 31 3e 6f ee 70 bd 62 59 59 be
       0.0557451 0.17301536 -0.058821138 -0.21225503
000130 f8 9a 28 be 8f 65 b8 bd 0d 9b eb bb 06 90 e0 3d
       -0.16465366 -0.09003746 -0.0071901144 0.1096497
000140 0d 25 e4 3d 22 e0 33 bd 0b af d0 3d 66 be e2 bd
       0.111398794 -0.04391492 0.10189637 -0.11071472
000150 44 17 5e 3e 04 22 80 3e a7 97 49 3e 86 15 b7 3d
       0.21688563 0.25025952 0.19686757 0.08939652
000160 d6 7c 84 3e ff 7c b5 bd 5a e5 7f 3e a1 6b 42 bb
       0.25876492 -0.08861732 0.24989834 -0.0029666203
000170 d9 69 12 3e 4f 70 35 3d 99 be 19 3e 43 a8 6c be
       0.1429819 0.04429656 0.15014113 -0.23111062
000180 09 cc 05 3e 21 f1 d2 3d bb 2d 7b 3c aa 89 c4 bd
       0.13066114 0.10299898 0.015330727 -0.0959657
000190 07 95 0b be 2b 6e d5 bd d2 30 f2 bd 74 43 2f 3e
       -0.13631068 -0.104214035 -0.11825718 0.17115575
0001a0 a4 21 8a 3e d1 97 f0 3c b7 c1 42 be 51 cd 35 be
       0.2697879 0.029369267 -0.19019209 -0.17754103
0001b0 22 73 6a 3e 4e 0b 9a bd f4 21 96 3d f7 89 d7 3d
       0.22895482 -0.075216874 0.07330695 0.105243616
0001c0 a0 97 11 3e 9c 90 e2 3d 23 79 e5 bc 9c 0d 57 3d
       0.14217997 0.11062738 -0.028011864 0.052503213
0001d0 0c 84 6b bd 6d 19 e4 bd 4b 54 89 3d 96 68 08 be
       -0.057498977 -0.11137662 0.06705531 -0.13321146
0001e0 8a 64 f3 3d f4 1b d2 3d 93 23 40 3b f8 6f 4c 3e
       0.11884411 0.10259238 0.002931808 0.19964588
0001f0 87 82 68 3d 2a 2b eb bc 32 20 9a bd 3a 33 d6 3d
       0.056765106 -0.028707106 -0.07525672 0.104589894
000200 ca f1 60 be a2 93 22 3e 20 c0 17 3e 6a 67 00 3e
       -0.21967235 0.1587663 0.14819384 0.1253945
000210 c3 a5 33 be d3 92 53 3d 26 ce 2c bd 58 2f 47 3e
       -0.17543702 0.051653694 -0.042188786 0.19451654
000220 eb 78 6e bb 94 bd 93 3d 5b 7a 80 bd 85 df c9 bd
       -0.003638799 0.072138935 -0.062733375 -0.09857086
000230 16 de 50 3e 31 01 86 3e b3 25 f0 bd e9 ac f6 bd
       0.20397219 0.26172784 -0.117259406 -0.12044699
000240 04 2b b8 bd 20 dd 4c 3e 58 96 48 bd 41 2c 15 3e
       -0.089925796 0.20006227 -0.048971504 0.14567663
000250 4e 86 b1 3d 7e a3 90 3d e6 19 76 3e 09 c3 66 be
       0.08668195 0.07062434 0.24033317 -0.22535338
000260 a1 10 a8 3d 3b dc 5e 3e 3c 19 4f 3e 2a 3d 2d 3d
       0.08206297 0.21763699 0.2022447 0.04229466
000270 e4 77 1d 3e d7 d7 ce bd 1a 6a 45 bc 19 7f 04 3e
       0.15377766 -0.10099762 -0.012049222 0.12939109
000280 80 1c 5a be 42 1f a4 3d 12 92 81 3c 29 44 15 3e
       -0.21299934 0.080137745 0.015816722 0.14576782
000290 96 fc 2e 3d 0b 01 ea bd 6e e7 3f 3d 53 88 99 3d
       0.042721353 -0.1142598 0.046851568 0.07496705
0002a0 29 24 58 3e 7d 5f 86 bd f1 49 3f 3e 6f 83 e0 3c
       0.21107544 -0.06561182 0.1868055 0.027406422
0002b0 85 82 5d 3e 5b c0 03 be 71 83 17 be 53 ba 4b 3e
       0.2163182 -0.12866347 -0.14796235 0.19895296
0002c0 53 b3 70 be 6d 5e 0d be 88 7f 82 3e 88 b4 05 bd
       -0.23505907 -0.13805552 0.25487924 -0.03264287
0002d0 59 09 4a be 0a fd 65 be 52 69 67 be 62 b7 07 3d
       -0.19730128 -0.22459808 -0.2259877 0.03313387
0002e0 ca cf f9 bd 54 cf f5 bc c3 39 83 3b bf 73 76 3e
       -0.12197836 -0.030006088 0.0040046885 0.24067591
0002f0 93 03 0e be 49 4d ca 3d af 4a 03 3d 7a 93 a3 3d
       -0.13868551 0.09878022 0.032053646 0.07987113
000300 61 df 4a 3c c0 45 8f 3c a9 12 40 3d 6c 23 82 be
       0.012382359 0.017489314 0.046892796 -0.2541765
000310 15 79 f0 3c 9c 5a 19 be be 49 d0 3d 1f c0 29 be
       0.029354611 -0.14975971 0.10170315 -0.16577195
000320 21 36 96 3d ba ab fa bd 13 93 11 be d8 f6 40 3e
       0.07334543 -0.122397855 -0.1421626 0.18844163
000330 11 22 95 bc 9c f9 90 bd 3d 17 11 3d 81 6b 04 3d
       -0.01820472 -0.07078859 0.035422552 0.032329086
000340 b0 49 3e be 09 f2 9f 3c d5 ae 14 be 20 e3 7f be
       -0.18582797 0.019524591 -0.14519818 -0.24988985
000350 fc 0b 55 bd 28 0c 53 bd 43 e9 31 3c b4 f3 fb 3d
       -0.052013382 -0.051525265 0.010858837 0.12302342
000360 be ef 63 3e fc ce 59 3e ca c8 1d 3e e3 77 6a be
       0.22259423 0.21270365 0.15408626 -0.22897296
000370 5b b6 88 3e fb 44 34 be 28 aa d9 3d 46 72 7e be
       0.26701626 -0.17604439 0.10628158 -0.2484828
000380 3e 2f 1a 3d 2e 33 e8 bd a7 7f 60 3e 11 ea 51 be
       0.03764271 -0.11337887 0.21923696 -0.20499445
000390 f8 20 bc bc 93 e5 2d 3e 03 a1 80 3b 81 74 31 be
       -0.02296494 0.16982107 0.003925444 -0.17329599
0003a0 44 62 28 bc f3 5f 3e be fb a4 1a be 4c 4f 84 bd
       -0.010277335 -0.18591289 -0.15101998 -0.06460437
0003b0 a8 bd 52 be 9b c7 0b be f8 b0 9d 3c 03 96 b4 3d
       -0.2058016 -0.13650362 0.019249424 0.08817675
0003c0 4c 3f 7f 3e 2d e6 1e 3d 11 4d 05 be 04 17 77 be
       0.2492649 0.03879373 -0.1301768 -0.24129874
0003d0 d2 7e b8 bd d7 ae 30 3e 05 0c 12 bd 8c aa 83 3d
       -0.09008564 0.17254196 -0.035655994 0.064290136
0003e0 36 fc 86 bd da 37 48 be 5f 0f 84 be 66 66 8d 3c
       -0.06591074 -0.19552556 -0.25792977 0.017260741
0003f0 74 32 0e be 85 52 b4 bd 48 0c 60 3e 62 cc 26 3d
       -0.13886434 -0.08804802 0.21879685 0.04072226

ConvBase.1.feature.lis.2.pointwise.bias f4 [16]
000000 9f 0e 3a 3d ff 43 85 be 25 4b 4c bd 22 57 08 3d
       0.0454241 -0.2602844 -0.04987635 0.03328622
000010 b7 e4 01 3d ea f7 f6 bd aa 95 2b be 9d b9 22 3e
       0.03171226 -0.120590046 -0.16756311 0.15891118
000020 db b4 3a 3e 7d 91 5d 3c 9e 95 31 3c 23 b7 c2 bc
       0.18233053 0.013523457 0.010838894 -0.023768967
000030 c5 c7 cd bd b7 94 f6 3d cd f2 3f be 70 92 5d bd
       -0.10047869 0.12040084 -0.18744965 -0.05409473

ConvBase.1.feature.lis.3.X_conv.conv.weight f4 [16, 1, 9, 1]
000000 10 c4 93 bd b8 72 3f 3d a1 44 a1 3e 2a d3 87 bd
       -0.0721513 0.046740264 0.31497672 -0.06632073
000010 df b8 51 be 6e bb 74 3e 58 30 9b bd 91 1c 42 be
       -0.20480679 0.23899624 -0.0757758 -0.1895621
000020 61 f6 6c 3e 55 4e 13 3e 8a 27 8d 3e c4 bc 63 be
       0.23140861 0.1438535 0.27569228 -0.22239977
000030 31 58 93 3d 0a 7d 1a be c0 80 c6 3d 3a ce 99 be
       0.071945556 -0.15086761 0.09692526 -0.3004015
000040 3f c0 fa bd 40 da 3a bd d7 08 8d 3e 84 d4 89 3e
       -0.12243699 -0.045618296 0.27545807 0.2691995
000050 5c 94 94 3e 0b 3c 55 bb f1 3f 77 3d 4b e5 7c 3e
       0.2901944 -0.003253701 0.060363714 0.24696843
000060 b3 d9 a1 3e 5c 3d 27 3e 7c d7 63 be 42 83 49 be
       0.31611404 0.16332 -0.2225017 -0.19678977
000070 36 2b 5e bd 6d dc 9e be f0 b0 19 3e 11 96 a2 3e
       -0.054240428 -0.31027547 0.15008903 0.31755117
000080 ce 9a 95 3d 29 a7 0b be 99 d0 ac 3e 68 05 47 3d
       0.07304917 -0.13637985 0.33752897 0.04858914
000090 ae 2a dd 3d 29 de 24 be f1 e5 aa 3e 3f 03 05 be
       0.10799156 -0.16100372 0.33378556 -0.1298952
0000a0 b1 69 9d 3e 1d e4 84 3e d3 26 d7 bd 8f 52 fb 3d
       0.307447 0.25955287 -0.10505452 0.12271606
0000b0 d5 4d 26 be ae 51 86 3e 8f c8 8d 3e 25 d7 9c 3e
       -0.16240628 0.26234192 0.27692077 0.30632892
0000c0 d3 bb 04 be 45 75 14 3e 74 ef 05 3d e0 e4 24 be
       -0.12962274 0.1449786 0.032699063 -0.16102934
0000d0 87 62 a2 be d6 a7 74 3e af 7f 08 be 45 52 55 3e
       -0.31715795 0.2389215 -0.13329957 0.20832165
0000e0 e4 6d 48 3e f9 46 04 be 14 3a 40 be 18 bc 53 3e
       0.1957317 -0.12917699 -0.18772155 0.20677221
0000f0 0d c6 87 3e 57 f7 9a 3e 07 b1 09 be 24 5a 46 be
       0.26518288 0.3026683 -0.13446437 -0.19370323
000100 72 70 a0 3e cf db 3e 3e d2 cc 32 3e a3 4b 80 3e
       0.3133579 0.18638538 0.17460945 0.25057706
000110 ba 1e 1f 3e e5 b5 e9 3d 42 cd b2 be b5 9b 57 3e
       0.15539065 0.11411647 -0.34922224 0.21055491
000120 0d 87 03 be 86 f0 c8 3d 2d 5f 09 bd b1 75 1e be
       -0.12844487 0.09811501 -0.033538032 -0.15474583
000130 d6 d6 79 3e 69 5b 8a be 0a b5 f6 bc f6 62 09 be
       0.2439836 -0.27022865 -0.030115623 -0.13416657
000140 56 40 33 be e0 df 87 be 00 f5 85 be 9b 9d 71 be
       -0.17505011 -0.2653799 -0.26163483 -0.23595278
000150 a9 df f2 bc ae 4c 5f 3e 7b 91 b5 3c 5d 00 5c be
       -0.029647665 0.21806595 0.022164097 -0.21484514
000160 ae 56 9b be 3c 2e 36 3e c6 4c 9f 3d f8 f8 09 be
       -0.3033957 0.17791075 0.07778315 -0.1347388
000170 ea 10 8b 3e a6 05 7d 3e 5c 4d 9f be 2f ab a3 bd
       0.27161342 0.24709186 -0.31113708 -0.07991635
000180 10 32 26 be 37 37 a0 3d cb ac a0 3e 5d 27 40 3e
       -0.16230035 0.078230314 0.3138183 0.18765016
000190 13 64 2d 3e 4b c0 2f be 08 55 2b bd 82 5f 8c 3e
       0.16932707 -0.17163198 -0.04182914 0.27416617
0001a0 5d 1d bd be c0 6b 80 be c1 d5 2e be 0b b9 c8 3c
       -0.36936465 -0.25082207 -0.17073728 0.024502298
0001b0 2e ce 2c be f8 29 cf bd e0 73 56 3d 66 5b 92 bd
       -0.16875526 -0.10115427 0.0523566 -0.07146339
0001c0 11 67 3c be 93 8e 83 be e3 27 08 3d e0 df 76 be
       -0.18398692 -0.25694713 0.033241164 -0.24108839
0001d0 19 92 33 3e 2c 0f 98 3e 44 d1 70 be e0 e4 35 be
       0.175362 0.29699075 -0.23517329 -0.1776309
0001e0 c0 f5 12 3c 50 30 af bd 61 43 e8 bd 19 f8 84 3d
       0.008969724 -0.08554137 -0.113409765 0.064926334
0001f0 a1 fb 43 3e 42 95 f5 3d 11 2e 9a 3c 39 b1 66 be
       0.19138958 0.11991359 0.018820794 -0.22528543
000200 5c 1a 84 be c9 20 fd bc 44 7f a0 3d 8a c4 19 3d
       -0.2580136 -0.030899422 0.07836774 0.03754095
000210 94 84 99 3e 4f 72 a7 be 7b 48 7f be 4e 5b 87 3e
       0.29983962 -0.32704398 -0.24929993 0.26436847
000220 1a 0e 7d be 59 27 45 3c 77 00 be 3d 4b a5 5d be
       -0.2471241 0.012033307 0.092774324 -0.21645086
000230 9a f9 bf bb 24 0e 8a 3e 70 e3 2b be 2f 28 90 3e
       -0.0058586122 0.26963913 -0.1678598 0.28155658

ConvBase.1.feature.lis.3.X_conv.conv.bias f4 [16]
000000 83 18 9a bd ce c7 83 be 53 72 5a 3e 65 f8 55 3d
       -0.075242065 -0.25738376 0.21332674 0.05223884
000010 4c ba ee 3d 37 06 d4 3d 70 9f 8e be a7 7b 5b 3e
       0.11656627 0.10352748 -0.27856016 0.21433888
000020 f0 af 6b 3e a4 e3 18 3e b7 ef 90 3e ef 0d 17 3e
       0.23016334 0.14930588 0.28307888 0.14751409
000030 24 39 97 3e 21 93 ce 3d 16 64 7e bd 7b 93 14 ba
       0.29535782 0.10086656 -0.06210717 -0.0005667728

ConvBase.1.feature.lis.3.Y_conv.conv.weight f4 [16, 1, 1, 9]
000000 12 9c a7 be 47 f7 8d bd b2 e7 4c bc 28 7e aa be
       -0.3273626 -0.0693193 -0.012506412 -0.33299375
000010 13 b3 41 bd 82 15 94 3e 91 ef 35 3e 11 70 19 be
       -0.04728992 0.2892266 0.17767169 -0.14984156
000020 cf 57 1e be 94 ec cc 3d 12 f6 bf bd 65 98 13 be
       -0.15463184 0.10006061 -0.09373106 -0.14413603
000030 00 8d f0 3c da 1a 41 be be dd 1f be ed e2 80 3e
       0.029364109 -0.188579 -0.15611932 0.2517313
000040 20 59 34 3a a1 bf 56 be d8 a8 8c bd 85 4c 3d 3e
       0.0006879736 -0.20971538 -0.06868142 0.18486221
000050 f0 aa a4 3e 40 8e 83 be b6 c8 01 3e 90 05 1a 3e
       0.32161665 -0.25694466 0.12674221 0.15041184
000060 20 2c 34 be 50 e1 df 3d de 38 5e 3e 8a cd 84 3e
       -0.17594957 0.10931647 0.2170138 0.25938064
000070 c0 13 8b 3d 56 28 21 be 1d 8c 00 be a7 86 48 3e
       0.067908764 -0.15738043 -0.12553449 0.19582616
000080 f1 32 8b be 11 96 84 3e 3b 08 ab be ba 14 8e 3d
       -0.27187303 0.25895742 -0.33404717 0.06937547
000090 85 4f 3c 3e 98 8b 41 be 17 a2 00 be 6f 2a 15 3d
       0.1838971 -0.18900907 -0.12561832 0.03641742
0000a0 b9 c2 f4 bd 9c 6b b4 bc 49 4f 0c bd 77 b6 41 bc
       -0.11951203 -0.022023968 -0.0342553 -0.011823288
0000b0 f5 0e a0 bd a3 8f 76 3e b5 b6 d5 bd c5 fc 26 3c
       -0.07815353 0.2407823 -0.10435239 0.010192101
0000c0 04 ec 36 3e 3d 2e e1 3c 06 07 21 bd 64 c2 8d 3e
       0.1786347 0.027487868 -0.03931334 0.2768737
0000d0 d5 66 80 3e 1c a9 9d be 05 42 8b be 40 39 13 3e
       0.25078455 -0.30793083 -0.27198806 0.14377308
0000e0 21 2c b0 3d 64 12 b2 bd 9d 60 8c 3e 7c 06 10 3e
       0.08602167 -0.08694914 0.2741746 0.14064974
0000f0 83 7e 99 be 5b e8 21 3e 8b 0f 4d be bd a8 36 be
       -0.29979333 0.15811293 -0.2002546 -0.17837806
000100 3d c8 37 3e 8d 7f 7d be e6 10 30 3e 58 9b 9b 3e
       0.17947479 -0.24755688 0.17193946 0.30391955
000110 fd fa 90 be ff 96 18 be 30 19 a2 3e 74 90 6a be
       -0.2831649 -0.1490135 0.31659842 -0.22906667
000120 a2 79 87 3e 1c b1 17 be 12 0d 35 3e e9 d5 95 bd
       0.26459986 -0.14813656 0.17680767 -0.07316191
000130 4c d7 61 be b2 e6 20 3c e9 b5 d5 3d b4 77 81 3c
       -0.22054785 0.009820627 0.10435087 0.01580415
000140 da 04 a9 be 5b 0b fc 3d c7 87 17 3e ec 15 9a bd
       -0.33011514 0.123068534 0.14797889 -0.075237125
000150 6a 85 10 be 05 b0 36 3e 3f 42 30 be 7b f8 1f 3e
       -0.14113393 0.17840584 -0.17212771 0.15622132
000160 c6 fe 1b be 32 14 5e 3d 07 c5 32 bc 99 e5 1c 3e
       -0.15233907 0.05421848 -0.010911233 0.1532196
000170 1e ef 93 bc b4 87 8d 3e 4c 9f 48 3e e5 de fe 3d
       -0.018058356 0.27642596 0.19592017 0.124448575
000180 cd be fe bd a7 df a0 3d 66 a4 ab 3e 1a 21 1b 3e
       -0.12438736 0.07855158 0.33523864 0.15149346
000190 fa 9e b6 bd e0 67 0a be 56 94 65 bc ed 29 5a 3e
       -0.08917041 -0.13516188 -0.014012417 0.21305056
0001a0 f8 26 3d 3e b5 99 9c be 07 47 9a 3e 84 08 ed 3c
       0.18471897 -0.3058602 0.30132315 0.028934725
0001b0 34 1b 03 bd cb 47 9e 3e 26 8a 41 3e 13 fa b1 bd
       -0.032008365 0.3091415 0.18900356 -0.08690276
0001c0 01 4d 23 3e f8 43 88 3e da 16 16 be 48 ed 94 bd
       0.15947343 0.26614356 -0.14657155 -0.0727182
0001d0 19 60 14 3d 3c 65 80 3e e3 8d c7 3d 47 3e 49 3e
       0.03622446 0.25077236 0.097438596 0.19652663
0001e0 ee 28 4d bd f6 d6 07 3e e8 0c b9 3c 9c f2 24 bd
       -0.05008786 0.13265595 0.022589162 -0.040270433
0001f0 1b 18 f8 3d 0d 03 f0 3d 12 4e 0e be 2f f0 03 be
       0.12113973 0.11719332 -0.13896969 -0.12884592
000200 6c f6 70 bb 6f 4d 6c be 66 31 5e 3e f4 cb 65 3e
       -0.0036767973 -0.23076414 0.21698532 0.22441083
000210 4e 74 74 3e fb f6 31 bd 24 d5 91 3d 0e 1f 48 3e
       0.23872492 -0.04344843 0.071207315 0.19543096
000220 16 32 e9 bd 10 c4 35 be ed 56 20 3e c2 50 9a 3e
       -0.11386506 -0.17750573 0.1565816 0.30139738
000230 7a 07 61 be 6e ca 61 be 68 f8 1f bd a1 05 79 be
       -0.21975508 -0.22049877 -0.039055258 -0.24318554

ConvBase.1.feature.lis.3.Y_conv.conv.bias f4 [16]
000000 77 0f c2 3d 93 08 1f be 9d c5 20 3e ba 7d aa bd
       0.09475606 -0.15530615 0.15700383 -0.08324762
000010 8a 88 8d be 71 7a f8 bd 19 30 9c 3d 98 82 6a be
       -0.27643234 -0.12132729 0.076263614 -0.2290138
000020 3f 87 f8 3d 6d 00 f8 bd 66 c8 92 3d 9d 8c 1b 3e
       0.12135171 -0.12109456 0.07167129 0.15190358
000030 79 5e e5 3d 8c ac c0 bd bf f2 13 3e 96 af 91 3b
       0.1119966 -0.09407911 0.14448069 0.0044459803

ConvBase.1.feature.lis.3.pointwise.weight f4 [16, 16, 1, 1]
000000 ef 06 e7 3d 0d 26 05 3c 06 21 53 3d aa b6 8e bd
       0.11280619 0.008126748 0.051545165 -0.06968434
000010 cb 2e 47 3d f3 87 01 bc 0d 93 52 bd 02 b4 b1 3d
       0.04862861 -0.007905948 -0.05140977 0.08676912
000020 cb 8a cd 3d c7 9d f1 3c b9 47 f9 3d 9c 41 2c 3d
       0.10036238 0.02949418 0.12171883 0.042054757
000030 79 e7 43 be 33 8a 05 be 05 b9 2e bd 29 79 e8 3d
       -0.19131269 -0.13041 -0.042656917 0.113512345
000040 5c 1d 86 3e af de b6 bd 4b d1 9c bd 20 05 06 3e
       0.26194274 -0.08929192 -0.07657107 0.13087893
000050 b0 75 c6 3d b5 e6 6b 3d 3d 15 68 3e 9a 59 2d 3e
       0.09690416 0.057593066 0.22664352 0.16928712
000060 c3 7f 22 be b9 92 b9 bd a8 75 99 3d ca 60 84 3e
       -0.1586905 -0.09061188 0.07493144 0.25855094
000070 d1 2e 19 3b 41 e8 49 3e 29 c9 87 3d bc fb a0 bd
       0.0023373852 0.19717504 0.06630165 -0.078605145
000080 e1 0b bb 3d 40 d7 ae bd d8 f7 7f be 6e 8a 11 3e
       0.09133125 -0.085371494 -0.24996889 0.14212963
000090 49 c9 41 be 9e a1 dd 3d 30 e0 25 be d9 ef 49 3e
       -0.1892444 0.10821842 -0.16198802 0.19720401
0000a0 69 46 8a bd 5f 77 95 bb 9b 1e 3a bd 3a 94 77 be
       -0.06751711 -0.0045613493 -0.045439344 -0.24177638
0000b0 a7 5f f5 3c a2 ec 21 3d 43 1e 2a be 24 28 37 be
       0.029952837 0.03953231 -0.16613106 -0.17886406
0000c0 40 f6 c6 3d cb 7c e2 bd 8d 9e 47 be 58 41 ac bd
       0.09714937 -0.110589586 -0.19494076 -0.08410901
0000d0 6c 45 f6 bd 02 46 2c 3d 1e 92 2b be 88 26 47 be
       -0.1202496 0.042058952 -0.16754958 -0.19448292
0000e0 f6 5a c3 3d 0a 0b 1a bc 32 e1 06 3e c3 94 2e 3e
       0.09538834 -0.009402046 0.13171843 0.17048936
0000f0 bf 66 9a ba f8 b4 2c be 7f ca 0c 3d 06 d7 fb 3d
       -0.0011779888 -0.16865909 0.034372803 0.12296872
000100 f1 88 36 be 59 b4 33 3e f3 de 61 3d ea 6b b5 3c
       -0.17825677 0.17549266 0.05514426 0.022146184
000110 6d 6f 25 bd 1c 6a e6 bd 21 23 2a 3e e7 d1 63 3e
       -0.040389467 -0.112507075 0.16614963 0.2224804
000120 25 fa 6b bc f6 b1 3c bd 1b 67 1b 3e c8 90 a9 3d
       -0.014402901 -0.046068154 0.1517605 0.08279568
000130 e6 d4 dc 3d a8 9c bb bd d8 be 34 be a8 dd 58 be
       0.10782795 -0.09160739 -0.17650926 -0.21178305
000140 82 e5 66 be bd d4 30 3c 8a e6 24 be 96 9e c3 bd
       -0.22548488 0.010792908 -0.16103569 -0.09551732
000150 f8 22 46 3e 16 67 3c bd c9 b2 66 be 78 65 27 bd
       0.19349277 -0.045996748 -0.22529139 -0.040868253
000160 05 e6 94 bd 08 7f 2d 3c 1b 00 c6 bd 04 3b a2 bd
       -0.07270435 0.010589369 -0.09667989 -0.079214126
000170 28 98 36 be c8 b8 6a be 51 b8 cf bd 10 74 28 bd
       -0.1783148 -0.22922051 -0.101425774 -0.04112631
000180 11 87 a5 bc ac 71 dd bd c9 25 2e 3e 23 58 91 bd
       -0.020206006 -0.10812697 0.17006601 -0.07096889
000190 0e dc 18 3e c8 4b 30 3e c1 c2 3d 3e a5 b5 45 be
       0.14927694 0.17216408 0.18531324 -0.19307573
0001a0 3d 37 5f be d1 a9 c9 bc e8 10 10 3e f4 ba 48 bd
       -0.21798415 -0.024617108 0.14068949 -0.049006417
0001b0 04 69 7c 3e df a7 39 be 61 99 50 3e 93 46 c0 bc
       0.24649435 -0.18130444 0.2037101 -0.023471152
0001c0 7c 31 1d 3e 32 93 64 be 45 bc a9 bb 61 69 e3 bd
       0.15350908 -0.22321776 -0.005179914 -0.11104084
0001d0 16 b8 9b bc f8 d7 fa bd bb 4f f5 3d e5 f4 31 be
       -0.019008677 -0.12248224 0.11978098 -0.17378576
0001e0 5b 95 25 be e2 69 f6 3b 3c 90 31 be 2d 57 eb 3d
       -0.16170256 0.0075199464 -0.17340177 0.11491237
0001f0 9b e9 89 bd 89 79 bc bd 22 a8 20 3e d8 17 2d 3e
       -0.0673401 -0.092028685 0.15689138 0.16903627
000200 9f 71 27 be 4a 85 97 bc 0a 00 81 3e c7 30 1d 3d
       -0.16351937 -0.018496174 0.25195342 0.038376596
000210 30 03 14 be 0d ea c7 bd da 1f 4e bd 67 cc 2f 3e
       -0.14454341 -0.097614385 -0.050323345 0.17167817
000220 c1 c8 70 be c3 44 90 3d 3c 85 ad bc 53 50 78 be
       -0.23514082 0.07044365 -0.021181695 -0.24249391
000230 94 01 ae 3c 0f c2 37 3e d1 85 b6 3d 03 8b b1 bd
       0.021240987 0.17945121 0.08912242 -0.086690925
000240 90 f9 2d 3d 39 f4 eb bd 65 93 56 bc 13 be 4b bc
       0.04247433 -0.11521191 -0.013096665 -0.012435454
000250 00 10 84 3e e4 2d 24 be 78 89 0e be 4d 1b 9f 3c
       0.25793457 -0.16033131 -0.13919628 0.019422198
000260 2b 35 c1 3b 53 fb d9 bc 1f 96 4b 3e 02 83 43 3e
       0.0058962307 -0.026609099 0.19881485 0.19092944
000270 e7 b9 35 3b 13 27 73 be fb d6 60 3e d2 7b e3 3d
       0.0027729215 -0.23745374 0.21957009 0.11107601
000280 1e 93 fa 3d 49 42 7c bd e3 f7 19 3e f7 95 d7 3d
       0.122350916 -0.061586652 0.15035968 0.105266504
000290 a9 4e 46 3d 53 ab 5a 3d 09 fe 30 3e 4d ab 1a be
       0.04841486 0.053386044 0.17284407 -0.15104409
0002a0 10 4c eb bd 33 5d 68 3d 8e 6c 4a 3e 99 b7 8d 3d
       -0.11489117 0.056729507 0.19767973 0.06919784
0002b0 9c f4 a7 bd 48 0c 6c 3c e4 7b 6b bc 31 0d 1d 3e
       -0.082009524 0.014407225 -0.0143728 0.15337063
0002c0 9f 8c 19 3e 70 c4 77 3d a6 45 3a 3d 4d cb e0 bc
       0.14995049 0.06049007 0.04547658 -0.027440691
0002d0 cf 11 7c bd 39 9b 29 3e ff 98 19 be c5 2b 7a be
       -0.06154042 0.16563119 -0.1499977 -0.24430759
0002e0 ae 7a 1f 3e be 79 0f be 9e ef 7f 3e 00 fa bc bd
       0.15574142 -0.14011285 0.2499375 -0.09227371
0002f0 7a 9a d4 bc c8 de 67 3e 4b ae 23 3e 03 95 4f 3e
       -0.025952566 0.22643578 0.15984456 0.20271687
000300 23 61 6f be 07 49 57 3d 79 33 59 be d1 93 58 3d
       -0.23376898 0.05255988 -0.21211042 0.052875344
000310 99 ec ae 3d cb c7 43 3e 48 da 5c be d6 7e 38 3e
       0.08541221 0.19119184 -0.21567643 0.18017134
000320 98 ec 4c 3e f7 29 d5 3b 2c eb 02 bd d5 5a 4e 3e
       0.20012128 0.0065052467 -0.03196256 0.20151837
000330 87 eb 02 bd 20 63 75 be 0f 18 40 3e 75 0f 0c 3d
       -0.031962898 -0.23963594 0.18759178 0.03419443
000340 b7 3c 9e 3d e5 39 05 3e c4 8a 04 3e 47 42 ef 3d
       0.07726424 0.13010366 0.1294356 0.11682563
000350 9c 72 2c 3e 6d b5 14 be 7d 9b c5 bd 73 61 ad bd
       0.16840595 -0.14522333 -0.09648798 -0.084658526
000360 a4 7d eb 3d a1 13 31 be 03 93 b0 3d b0 e6 33 be
       0.114985734 -0.17292644 0.0862179 -0.17568469
000370 09 c3 9a bd 18 9f ff bc 72 32 6f bd 8a 94 db bd
       -0.07556731 -0.031203791 -0.058397718 -0.10721691
000380 ab 23 d0 3d d2 86 4c 3d ac 7d 62 3e ec f1 4a 3e
       0.10163053 0.049933262 0.22118253 0.19818848
000390 4b f8 33 3e 5a ad 60 be 2c de c2 3d d5 9f 25 3e
       0.17575185 -0.21941128 0.09515032 0.16174252
0003a0 6e 07 0a 3c 17 9a 53 be 48 a6 71 3e af 1e 95 3c
       0.008424623 -0.2066425 0.23598588 0.018203108
0003b0 74 7a 00 be bf 13 01 3d e6 4c 79 3e 1a c4 33 3e
       -0.12546712 0.031512972 0.2434574 0.17555276
0003c0 b3 a0 93 bc f3 da 0d 3e e1 6c 0a 3e 4d c2 6a 3d
       -0.018020963 0.13853054 0.13518097 0.057314206
0003d0 65 ab 62 be 0d 40 51 be 41 31 20 be bc f4 48 be
       -0.22135694 -0.2043459 -0.15643789 -0.19624609
0003e0 6a e7 02 3c a2 f5 ec bc 88 d7 17 3e 71 32 94 3c
       0.007989744 -0.02892572 0.14828312 0.018090459
0003f0 d4 08 ef bd 07 e6 47 be e0 f0 20 3c 37 bb 5b 3e
       -0.11671606 -0.19521342 0.009823054 0.21458136

ConvBase.1.feature.lis.3.pointwise.bias f4 [16]
000000 d6 00 85 3e f3 20 e5 3d 43 a5 ea bd 0d a1 3b be
       0.259772 0.11187925 -0.114573024 -0.18323155
000010 03 e0 f2 bc 07 0c 3c 3e ff 5d 25 3e b9 01 57 3e
       -0.029647833 0.18363963 0.16149138 0.20996751
000020 a5 f5 29 be f7 ac e7 bd 3f ed a7 bb 57 8d 3e 3d
       -0.16597612 -0.11312287 -0.0051247175 0.04652151
000030 c4 ef e2 bd 43 4c 3c bc 71 8b be 3d bd cf 4d 3e
       -0.11080888 -0.011492792 0.0930394 0.20098777

ConvBase.1.feature.bn.weight f4 [16]
000000 a8 65 78 3f a0 49 61 3f 78 20 ff 3e 35 f0 05 3e
       0.97030115 0.8800297 0.4982946 0.13079913
000010 45 d8 2b 3f 99 88 1e 3f a7 fa 60 3f a1 7a 02 3f
       0.67126876 0.6192718 0.87882465 0.50968367
000020 d0 bc 6f 3f c5 cd 26 3f 5b d2 6e 3e 3a e9 05 3f
       0.9364748 0.6515773 0.23322432 0.52309
000030 2f d3 4f 3f 4e 66 16 3e b2 77 60 3e ee d7 90 3e
       0.81181616 0.14687464 0.2192066 0.2828974

ConvBase.1.feature.bn.bias f4 [16]
000000 d1 2a 6f ba 01 f0 96 bb d2 0c 87 3a 41 60 d8 3c
       -0.00091235066 -0.0046062474 0.0010303503 0.026413085
000010 9f e7 6e bc 3b c6 11 bc aa f9 83 3a 28 ab d0 3c
       -0.01458159 -0.0088973595 0.0010068913 0.025472239
000020 f2 37 b5 bc 2b 48 4d 3c 32 2a ee 3b 66 67 d8 3c
       -0.022121403 0.012529413 0.0072682137 0.026416492
000030 4d 85 03 3d b5 7b c9 3c 15 ce 0f 3d 5f 30 87 bc
       0.032109547 0.02459512 0.035108645 -0.016502557

ConvBase.1.feature.bn.running_mean f4 [16]
000000 81 6b 8a 3e 47 87 13 be e2 f5 ca 3c 6b 0a c5 be
       0.27035144 -0.14407073 0.02477545 -0.3848451
000010 b7 be fa 3a 18 1c a7 be 4b 14 06 be 98 ed ba 3e
       0.0019130324 -0.3263862 -0.13093679 0.36509395
000020 fb f5 b2 be 3f d0 a4 3d 6a 4a b5 bd af b3 95 bc
       -0.34953293 0.08047532 -0.08852084 -0.018274156
000030 12 c3 87 bd ab 89 32 3d 30 a6 2d 3c 71 d9 dd 3c
       -0.066290036 0.04358832 0.010598704 0.027081223

ConvBase.1.feature.bn.running_var f4 [16]
000000 54 8d 22 3b c3 61 e1 3a b5 5d 53 3b 19 33 34 3b
       0.0024803476 0.0017195273 0.0032251899 0.0027496277
000010 e2 16 00 3b da 2f 8c 3b b1 44 79 3b 32 b1 75 3a
       0.001954489 0.0042781653 0.0038035328 0.00093724125
000020 84 50 5d 3b e6 89 06 3b 2a f7 dd 3a a5 b4 31 3b
       0.0033769915 0.0020528971 0.0016934623 0.002711573
000030 e3 a2 17 3b 15 8a d4 3a e5 0a 41 3b 12 b4 1b 3b
       0.002313786 0.0016215468 0.0029455957 0.0023758453

ConvBase.1.bn.weight f4 [64]
000000 c4 d2 dc 3e 1e 35 d9 3d a1 f2 e9 3d e3 ba ab 3d
       0.4312955 0.106058344 0.11423231 0.08385255
000010 01 d2 bb 3e bf a3 43 3f ac 79 66 3f 4e 17 8e bb
       0.36683658 0.7642173 0.90029407 -0.004336274
000020 d6 27 33 3f ae 1c 66 3f 1d 08 84 3e d7 fc 0d 3f
       0.6998266 0.8988751 0.2578744 0.5546393
000030 4e 41 4d 3d 5d 4f 14 3e 28 a1 4a 3f fc 3d 45 3f
       0.050111108 0.144834 0.79152155 0.77047706
000040 7e ed 48 3f 4b 43 50 3f 43 98 4c 3f dc 8f d1 3e
       0.78487384 0.8135268 0.7991983 0.40930068
000050 11 42 b6 3e 85 d1 54 3f 9f fe 17 3f 98 b5 88 3e
       0.3559728 0.831322 0.59372896 0.26701045
000060 e9 63 58 3f d4 0d 1f 3f 60 a5 ff 3e b7 35 14 3f
       0.8452745 0.62130475 0.4993086 0.5789446
000070 86 34 4d 3f c4 7a c0 3e 76 b5 92 3e 14 9d 6f 3f
       0.8015827 0.37593663 0.2865407 0.9359906
000080 62 43 2f 3f a8 8e c7 3e 0f a4 12 3e f6 74 73 3f
       0.68462193 0.38976026 0.14320396 0.95100343
000090 03 97 92 3e e6 5f 4e 3f 15 22 98 3e 2d 01 ec 3e
       0.28630838 0.8061508 0.29713503 0.46094647
0000a0 e4 9b b4 3e c2 99 3a 3f af 13 9c 3e 26 e9 07 3e
       0.35275185 0.72890866 0.30483767 0.13272533
0000b0 22 c7 94 3d 78 ac e6 3e 7f 94 36 3e 70 1c 4d 3f
       0.07264544 0.45053458 0.17830084 0.8012152
0000c0 43 2f 42 3f 4d 8f fa 3e 5f c0 8e 3e 4f ab 29 3f
       0.75853366 0.48937455 0.27881142 0.6627702
0000d0 f0 2b a7 3e 6d 00 7d 3f 94 e0 4c bb 4d 17 6f 3f
       0.3265071 0.98828775 -0.0031261789 0.9339493
0000e0 55 44 70 3f ff d7 6e 3e 5f 33 9a 3e 61 a5 2c 3f
       0.93854266 0.23324583 0.30117318 0.6743985
0000f0 5d 17 f1 3e 19 31 12 3e 34 ba 59 3f 02 3b 38 3f
       0.47088137 0.14276542 0.8504975 0.7196504

ConvBase.1.bn.bias f4 [64]
000000 73 49 b3 3c a3 20 4f 3c 24 50 7b 3b e6 3e 61 3c
       0.02188561 0.012642059 0.0038347328 0.013747906
000010 cf 3a b7 bc ed c4 9c bc 2b 13 e0 3c 1b 4e 49 bc
       -0.02236691 -0.01913687 0.02735289 -0.012286688
000020 42 e6 d1 3c 16 85 fe 3b 95 1a e0 bb 26 ce 87 bc
       0.02562249 0.00776733 -0.0068391063 -0.016577791
000030 17 72 35 ba 42 dc a8 3c 44 f8 bc bc ec 06 09 3d
       -0.0006921603 0.02061284 -0.023067601 0.033453867
000040 88 8c e8 ba a5 1d c1 bc 52 05 89 bc 61 62 ff bc
       -0.0017742077 -0.023573706 -0.01672617 -0.03117484
000050 bd 29 bf 3c 31 d0 96 bc 19 d1 59 3b 2a 60 58 3b
       0.023335332 -0.01840982 0.0033236204 0.0033016303
000060 87 2f b5 bc 47 4e 72 3c b5 91 94 bc bb 18 93 3c
       -0.02211739 0.014789171 -0.018135885 0.017956128
000070 c3 03 64 3c 02 25 e5 3b 8d 59 51 3c 4e 4a b5 bb
       0.0139169125 0.006992937 0.012777698 -0.0055325394
000080 d5 b9 1f bc 34 77 ae bc 0b 7b d9 bc 6f d8 43 3d
       -0.009748896 -0.021297075 -0.02654793 0.04781383
000090 2a 80 a2 3a bd 8c 6d 3c 35 56 84 bb fb 9b f2 3b
       0.0012397815 0.014498887 -0.004038597 0.007403848
0000a0 26 4d ba 3c 40 df 23 bd 5f 03 38 3c 2e 4c 88 3a
       0.022741865 -0.04000783 0.0112312725 0.001039868
0000b0 e6 9d b2 3c 56 42 ba 3c 86 cf 14 bb 23 83 0f 3d
       0.021803807 0.02273671 -0.0022706701 0.03503717
0000c0 26 eb 28 3a c8 46 fd 3c bd 73 c1 b9 2a fa c9 3c
       0.0006443731 0.03091754 -0.0003689806 0.02465542
0000d0 63 99 b1 3c 70 67 06 bd 76 54 93 bc f9 10 63 3c
       0.021679586 -0.03281349 -0.01798461 0.013859027
0000e0 89 e4 45 bc ce c4 38 3c 7b 3f 5a 3c 9c 7b b9 3c
       -0.012078413 0.011277391 0.013320799 0.02264195
0000f0 b6 f3 c1 bb 83 09 f4 3b db 41 89 bb 84 bd 12 3c
       -0.005918945 0.007447423 -0.004188759 0.008956317
