waights/weights13.pth (torch_old, 670822 bytes, 196 tensors)

ConvBase.1.feature.lis.0.X_conv.conv.weight f4 [1, 1, 3, 1]
00000000: 72b6 11bc 255d 48be a631 00be
-0.008893596 -0.19566782 -0.1251894

ConvBase.1.feature.lis.0.Y_conv.conv.weight f4 [1, 1, 1, 3]
00000000: 3149 9c3e 2bdc 96bd 8e6f 13be
0.3052459 -0.073662125 -0.14398023

ConvBase.1.feature.lis.0.pointwise.weight f4 [16, 1, 1, 1]
00000000: 6b1a babe 4021 6dbe 1bad 45bf 33cc 6ebf
00000010: 215a febe 13e3 a8bd 2052 a53c 1ce2 143f
00000020: f811 543f f967 283f 3623 6d3f 0bb9 793d
00000030: bd72 323f 2f47 b1ba f10f ec3e 56c7 00bf
-0.3634828 -0.23157215 -0.77217263 -0.93280333 -0.49678138 -0.08246436 0.020180762 0.58157516
0.8283992 0.6578365 0.9263185 0.060967486 0.69706327 -0.0013525243 0.46105912 -0.5030416

ConvBase.1.feature.lis.0.pointwise.bias f4 [16]
00000000: 8a8b 503f 68c9 8fbe 1a92 353f a29c 85bf
00000010: 91a2 99be 6750 50bf 2fa0 a9be d67b 6c3f
00000020: e59f 2fbf b7a2 843e 487a e3be adc9 0abf
00000030: 4e45 5f3d 6f1f 9cbd 5e8a 91be feb6 cabe
0.8146292 -0.28083348 0.7092606 -1.0438426 -0.3000684 -0.81372684 -0.33130023 0.9237646
-0.68603355 0.25905392 -0.4442923 -0.5421398 0.054509453 -0.07623183 -0.28425878 -0.39592737

ConvBase.1.feature.lis.1.X_conv.conv.weight f4 [16, 1, 5, 1]
00000000: 3dff 753e 1f23 9bbe 7402 a93b c39d b63e
00000010: c59d 813e 629c c73c 307e ad3e f254 413b
00000020: 63ad 173e 77c3 8abe a0fe 59be 19f1 9bbe
00000030: fc4c 4cbd 2759 913e f3c9 e0bd 5b36 20bd
00000040: 5566 303d d1b0 393e 5506 d33e 2d78 fc3b
00000050: 8cac c5be 9ae2 cdbd b8ab e23c c5cc a4be
00000060: 56e2 b43e 9f12 eb3d c161 803e 3b36 c4be
00000070: 6ca6 613e bc4a 1f3e 8f19 8dbe 78f5 31be
00000080: da71 3bbe 83c5 473e 5884 30bc 5f3a 833d
00000090: 8201 72bd 7cd6 d93e 5696 cd3e f914 063e
000000a0: 6312 443d 860b aabe 13ff b03e 01ac 6b3e
000000b0: e4d0 c63d ff1a a1be c389 99be 0235 ba3d
000000c0: a145 093e 77f8 c7be eb2a 90bd 7ab1 8fbd
000000d0: e247 e9be a078 afbc 23a2 bf3e 89c1 dcbe
000000e0: 86bb e1be cf08 983e e884 4b3e f450 bf3e
000000f0: 7d80 31be d744 79bd 3c12 88bd dad5 cd3e
00000100: c52d 87be ef05 b5be 9d35 b23e 7572 36be
00000110: 5845 b33d 297b 9cbd d0ef c8bc ff8a 50ba
00000120: b736 95be aa4e e2be 63fa 803e f95d b73e
00000130: 4b6f 54bd 573f 243e 694e 493e f580 d0be
0.24023147 -0.30300233 0.005157763 0.35667238 0.2531568 0.024366561 0.33885336 0.0029500094
0.14812236 -0.27102253 -0.21288538 -0.3045738 -0.049878106 0.2838833 -0.10976019 -0.039114337
0.04306634 0.18133856 0.41215768 0.0077047558 -0.38608205 -0.100529864 0.027669773 -0.32187477
0.3532893 0.11478161 0.2507458 -0.38322625 0.22036141 0.15555853 -0.27558562 -0.17378795
-0.1830515 0.19508938 -0.010773741 0.06407618 -0.05908347 0.4254645 0.4015376 0.13093938
0.047869097 -0.33211917 0.34569606 0.23014833 0.097078115 -0.3146591 -0.29987916 0.09092142
0.13405468 -0.3905675 -0.07039436 -0.07016273 -0.45562655 -0.021419823 0.37428388 -0.43116406
-0.44088382 0.2969422 0.19874918 0.3736645 -0.1733417 -0.060856666 -0.06644103 0.40202218
-0.26402107 -0.3535609 0.3480653 -0.178171 0.08753461 -0.076406784 -0.024528414 -0.00079552823
-0.29143307 -0.4420064 0.2519103 0.35813883 -0.05186395 0.16039787 0.19658817 -0.40723386

ConvBase.1.feature.lis.1.X_conv.conv.bias f4 [16]
00000000: c4ed af3c a5a8 b03d 89d5 5b3d 4422 e8be
00000010: d929 95be c260 c9be 2594 e9be 33be c63d
00000020: d72d 223e 0e10 17be 26e7 9c3e dfc2 933e
00000030: df4b 833d 263b ff3d 868b d4be 4b43 323a
0.02147568 0.086259164 0.05367044 -0.45338643 -0.2913349 -0.39331633 -0.45620838 0.09704246
0.15837799 -0.14752218 0.30645102 0.28859612 0.06410956 0.124624535 -0.41512698 0.00068001886

ConvBase.1.feature.lis.1.Y_conv.conv.weight f4 [16, 1, 1, 5]
00000000: 40ee 863e 799f b33e 1cde b9be 0d93 4bbe
00000010: bd9f be3c 926b ab3e 046b db3e d265 d8bd
00000020: 47da e638 177e dbbe 8d4d a9be 788b 5c3d
00000030: bf1e 833e 5764 9fbe df2f 72be c96a 89be
00000040: 90f0 7f3e f575 ec3e 2724 59be 46b2 aebe
00000050: d066 85be 7f48 c83e 056e c73e b0c5 b4be
00000060: 6d64 4c3e 0c9a 78be 0bcd 45be d576 b5be
00000070: 4e7f f03d aceb c1be 4b9d 913d e9cd e7bd
00000080: d4ca 2a3d 99d0 873e 65f4 cf3d 6e3d b2be
00000090: b4b9 7c3e add4 81bd b144 dcbd 3a91 743d
000000a0: a962 46bd b737 d4be da00 babd 75e7 313e
000000b0: 81c4 94be 6af8 513e f54b afbe 57d8 0abe
000000c0: d40a d83e e541 a43e a6c0 7e3e fe59 093e
000000d0: f15c acbd b4ef 4c3e b55e 8ebe 9d15 cf3e
000000e0: c654 bbbe 9b98 853e e5b5 ffbd d0e6 f5bd
000000f0: 078f e33e 6d02 67be dd36 2c3e 856d d93e
00000100: d877 ef3a 8471 9c3e 7ff0 bb3c 2f90 7d3e
00000110: 8472 d03e e1b2 84be 9b14 98be e73b dcbe
00000120: 8fe0 b83e 36c7 d8be 1cf7 cb3e 0766 a73e
00000130: fae1 9cbd c154 edbe fb2c 8abe e15d 62bb
0.26353645 0.35082605 -0.36302269 -0.19880314 0.023269529 0.33480507 0.42855084 -0.10566296
0.00011007912 -0.42869636 -0.3306698 0.053843945 0.25609395 -0.3113124 -0.23651074 -0.26839283
0.24994111 0.46183744 -0.21205197 -0.34120387 -0.26055002 0.3911781 0.38951126 -0.35307074
0.19960184 -0.24277514 -0.19316499 -0.35442224 0.117430314 -0.37875116 0.071100794 -0.11318571
0.04169734 0.26526335 0.101540364 -0.34812492 0.24680215 -0.06339393 -0.10755289 0.05970881
-0.048433933 -0.41448757 -0.09082194 0.1737345 -0.2905617 0.20504919 -0.34237638 -0.1355909
0.4219576 0.32081524 0.24878177 0.13413236 -0.08416165 0.20013314 -0.2780663 0.40446177
-0.36588115 0.2609299 -0.124858655 -0.120069146 0.4444506 -0.22559519 0.16817804 0.4246637
0.0018269969 0.30555356 0.022941826 0.24762033 0.40712368 -0.25917724 -0.2970322 -0.43014452
0.36108825 -0.42339486 0.39836967 0.32695028 -0.07660289 -0.46353725 -0.26987442 -0.003454082

ConvBase.1.feature.lis.1.Y_conv.conv.bias f4 [16]
00000000: 2424 493e b0c1 853e 0433 0cbe dd4e 8c3e
00000010: 4695 f83d 5b3e 733d b321 733d 75f6 143e
00000020: fa33 b63e d331 8c3d 6709 d9be 6cbe 2dbe
00000030: 3ba9 bcbe aca6 413e 5cc4 a5be c9a1 bdbe
0.19642693 0.26124334 -0.13691336 0.27403918 0.12137847 0.05938564 0.05935831 0.14547141
0.3558653 0.06845441 -0.42389986 -0.16967171 -0.36847863 0.18911237 -0.32376373 -0.37037495

ConvBase.1.feature.lis.1.pointwise.weight f4 [16, 16, 1, 1]
00000000: 2334 3fbe e9e3 72be 2194 0cbe 4f38 2b3e
00000010: e7a8 60be 5b12 e33d 802e b13d e0f8 6a3e
00000020: d782 38bd cdb2 bfbd 1ca1 42bd c376 0b3e
00000030: c0b5 4fbe 6c15 6a3e c6fa 65be b99b 5a3e
00000040: 8805 2e3e 5bd5 bb3d b8e2 853d 57f6 4ebd
00000050: 95e3 4dbe c846 37be eeb8 1d3e ceea 4e3e
00000060: 6179 e83c 0f8a 163e e0da 53be cca4 ca3d
00000070: 3a51 efbd dd17 c23d cb63 373e c176 223c
00000080: a640 1fbe 36db cabd 591d 18bd f064 753d
00000090: 8e69 94be ae91 fdbb ad1a b03d 7b47 44be
000000a0: 2a71 043e 610c ab3c 7006 50be de70 413e
000000b0: b7bf 433b 0c37 22be 6522 bdbd 724f 7abe
000000c0: 9b06 c7bb ff6b 37be 80e2 103e 6df3 c5bd
000000d0: 30a9 42be 7d11 5e3d 6526 583e 42ad f63b
000000e0: ce61 a63d 1b39 523c 2961 2d3e 2711 cbbd
000000f0: 1191 af3d 3789 8bbe 061a b0bc 8ddb 86be
00000100: 3762 33be ac96 523e baf9 683e 3025 373e
00000110: 8713 3abe 17e5 513e 8016 3e3e b5cc 1dbe
00000120: 1217 6f3e b43e f33d 3ffa 583c 7af4 69bc
00000130: c093 e7bd 0c05 1cbe 1b99 993d 1f2f 0abe
00000140: 9c72 ea3d 8e14 d0bd 3323 11bd 860f 9fbd
00000150: 6725 b0bd 17bb e63c 02f1 573d b85c a7bc
00000160: 2bd1 14be 9f9d 48bd 1dbe 063d 5212 65be
00000170: b964 493b 3a22 0dbe 2874 c9bc 081c 383e
00000180: efbf 7cbe 6271 1c3d 6508 8ebd ef54 9b3c
00000190: b6f6 993d 9245 45be d5bf 9dbd d9b7 163d
000001a0: 185d 26be e848 183e 3f2b 893e 9e04 c3bc
000001b0: 5858 2fbe fde8 f6bc 13a0 16bd f92c 643e
000001c0: 98c0 3ebe 51a4 0a3e 6510 0bbe 6099 993d
000001d0: 226f 393e 9962 39be 585d 03bd d2e0 073e
000001e0: ae61 08be 45ff 22bd 6c32 edbd 2751 bcbd
000001f0: 5281 d03c bfe0 24be b2d2 45bd 5b5a 0abe
00000200: 16a1 413d 5bec a33d 8f4a 5ebe 54c0 7fbe
00000210: 9b0e 3bbd d6e3 d43c 589c 7a3e a1de c5bd
00000220: 90de e13d 0fb7 1ebe d35e 823e 61e8 87be
00000230: 7a0a 3e3e 5aaa 3cbe bc50 443e c948 1a3e
00000240: 9d6b f23d abc3 893d 6b7d 6f3e bb17 bdbd
00000250: a844 443b eae6 a9ba e32f 603e 73ed f3bd
00000260: d450 fabb 31ba 593e 3fbb 0bbe 6d5f 8e3d
00000270: b01f adbb f7a1 54be 23a3 1a3e 67cb 0a3e
00000280: 9752 8a3e f976 733e ea73 27bd 49a6 a63d
00000290: 222d 013e 1a11 193d 4e76 57be 3988 463c
000002a0: 5418 28be 35c1 5d3e 41c2 553e 6812 11be
000002b0: 11b9 503e a2f2 02be 433b 70be e3a7 47be
000002c0: f0d4 20be 89e3 eabb 113e 51bd 0442 653e
000002d0: 64d3 e13b 60aa 32bd 6e6d 89bd f7ce 2bbe
000002e0: fe1f 873d 0c1a 0d3e 5b3e 923d 53b6 eb3d
000002f0: 1cd3 833d 540e febd 4bd9 5abe cdba 9c3c
00000300: 4f25 013e b414 73be 1da7 87bd ff07 09be
00000310: 5e4e d23d 89a7 1fbe 9d5b ce3d 3494 a83c
00000320: c3e0 143e 9e7e 4dbe e9ca 7b3d 7f33 1b3e
00000330: 063d 103e 42f0 a8bd e6af 72bc 609c 84be
00000340: 8cb1 59be 0a6f 413e e5ee 13be 58f5 66bd
00000350: 5e53 173e 4a00 d1bd d66b 72be 523c 45bd
00000360: b465 d3bd 2045 eebc 3ea2 183e ad15 1ebe
00000370: 53e5 113e 7862 373e fe6d fbbd 9f89 57be
00000380: f760 0b3e b134 98bc 3cef f8bd 5710 1a3e
00000390: b605 68bd 13fa ce3d 64d3 a23d 1316 603e
000003a0: 5e6d dc3d 2c8e 43be 0b30 09be 4071 2ebc
000003b0: 6864 213e 0b46 2fbe 8df7 563e 11ff c8bc
000003c0: c3a7 10bd 8dca 10be 11c1 3c3e ef41 64be
000003d0: f533 84bd 0962 593d 1d0b 22bb 94d4 37be
000003e0: 1538 d4bd 6316 9fbd a901 4dbd ec6a 50be
000003f0: 8e14 35bd b847 5d3e 427b 8e3e dcbc d2bd
-0.18672232 -0.23719753 -0.13728382 0.16720699 -0.21939431 0.110874854 0.08651447 0.22946501
-0.045046654 -0.093602754 -0.047516927 0.13619523 -0.20284176 0.22859734 -0.22458944 0.21348466
0.16994298 0.09171554 0.06537384 -0.050527897 -0.20106347 -0.17898095 0.15402576 0.20206758
0.02837819 0.14701103 -0.20688963 0.09894714 -0.116854146 0.09477208 0.17909162 0.009916008
-0.15552005 -0.099050924 -0.037137363 0.059910715 -0.28986782 -0.0077383136 0.08598838 -0.19167893
0.12933794 0.020879926 -0.20314956 0.18890712 0.002986891 -0.15841311 -0.09235076 -0.24444368
-0.0060737855 -0.17912291 0.14148903 -0.096655704 -0.19009852 0.054215897 0.21108396 0.007527978
0.081241235 0.012830998 0.16931595 -0.09915381 0.08572591 -0.27253124 -0.021496784 -0.2633938
-0.17517935 0.2056529 0.22751513 0.1788528 -0.18171512 0.20497547 0.1856327 -0.15410121
0.23348644 0.11877194 0.013243257 -0.014279479 -0.11307478 -0.152363 0.07499906 -0.13494538
0.11447641 -0.101601705 -0.03543396 -0.07766633 -0.08600884 0.028165383 0.052720077 -0.020429954
-0.14532916 -0.048978444 0.03289615 -0.2237027 0.0030730201 -0.13782588 -0.02459152 0.17979443
-0.24682592 0.038194068 -0.06935195 0.018961398 0.075177595 -0.1926482 -0.07702605 0.036796425
-0.1624645 0.14871562 0.26790807 -0.023805913 -0.17123544 -0.030140394 -0.036773752 0.2228278
-0.18628156 0.13539244 -0.13580473 0.07499957 0.181088 -0.18104018 -0.03207144 0.13269356
-0.13318512 -0.039794225 -0.11581883 -0.09195166 0.02545229 -0.16101359 -0.048296638 -0.1351103
0.047272764 0.080040656 -0.2170813 -0.24975711 -0.045668226 0.025987547 0.24473703 -0.09661604
0.110287786 -0.15499519 0.2546297 -0.2654448 0.18558684 -0.18424359 0.19171423 0.15066828
0.11836932 0.06726774 0.23387687 -0.09233042 0.002994815 -0.0012962495 0.21893267 -0.11910524
-0.00763903 0.21262433 -0.13645647 0.06951795 -0.0052833185 -0.2076491 0.15101294 0.13554154
0.27016136 0.23775853 -0.04088203 0.08137185 0.12614873 0.037369825 -0.21041223 0.012117439
-0.1641553 0.21655734 0.20874883 -0.14167178 0.20383097 -0.1278787 -0.23460107 -0.19497637
-0.15706229 -0.0071682376 -0.05108458 0.22388464 0.006891655 -0.043619514 -0.06710325 -0.1677817
0.06597899 0.13779467 0.071407996 0.11509385 0.0643675 -0.124050766 -0.21371953 0.019132042
0.12611888 -0.23738366 -0.06623671 -0.13381957 0.102688536 -0.15591253 0.100760676 0.020578481
0.14538865 -0.20067832 0.061472807 0.15156363 0.14085779 -0.082489505 -0.014812445 -0.25900555
-0.21259135 0.18890014 -0.144466 -0.05638632 0.14777896 -0.10205133 -0.23673949 -0.04815323
-0.10322133 -0.029085696 0.1490564 -0.15437956 0.14247636 0.17908657 -0.12276839 -0.21048592
0.13611208 -0.018579813 -0.12155005 0.15045296 -0.05664607 0.101062916 0.07950476 0.2188342
0.10763048 -0.19097203 -0.13397233 -0.010647118 0.15760958 -0.17116563 0.2099287 -0.024535688
-0.03531624 -0.14139767 0.18433024 -0.22290777 -0.064552225 0.05307201 -0.0024725862 -0.17952186
-0.10362259 -0.07767942 -0.05005041 -0.20353287 -0.044209056 0.2160939 0.27828413 -0.10289928

ConvBase.1.feature.lis.1.pointwise.bias f4 [16]
00000000: 920f 723e 0393 68be faf0 1a3e 8943 2abe
00000010: 1877 b0bd ca63 82be 0f09 4cbe 6fb8 e53d
00000020: 058a 30be 8703 843e 58e5 c2bb 380a 113e
00000030: cf5a 963d 78a0 b53c 2399 0f3e 9547 8dbe
0.23638752 -0.2271233 0.15130988 -0.16627325 -0.08616465 -0.25466758 -0.1992533 0.112168185
-0.1724015 0.2578394 -0.00594775 0.14164054 0.07341539 0.022171244 0.14023261 -0.27593675

ConvBase.1.feature.lis.2.X_conv.conv.weight f4 [16, 1, 7, 1]
00000000: 813b 8a3e 73e0 b4be 62aa c83e 6420 fb3d
00000010: 6b2a b63e 680e cbbd 3a66 96be ea5b ae3d
00000020: 87a5 bf3b 8a61 123e c82a a93d 1e12 2cbe
00000030: 38a8 363e 0c86 993e ccf0 16be f506 b5bd
00000040: 1210 abbe f439 103e d72c 77be a830 9c3e
00000050: 4d88 afbc b4b9 b6be cfcd 173e d345 53be
00000060: 1f77 a43e 96b7 b7bd 62cd 3ebe ff8f e03c
00000070: 2f64 b63d 3e82 563e bc1d 953e 9890 b43e
00000080: 72f6 413e 9cb3 8ebe 1985 a23e 2176 25bd
00000090: ff65 eebd e1e1 17bd d1a0 a63e 6402 a7be
000000a0: 3314 38be bb0d 42be 8ab5 0bbe 3ccb 87be
000000b0: 5c0d 6dbe 2101 4d3d f79d a23d 3067 cabe
000000c0: f53e 443e be11 92be bab0 5dbe e1f6 b73e
000000d0: 60d8 843e ca66 8d3e 2c86 463e c7fe ad3e
000000e0: b853 a1be 2e22 9c3e eb8a 4f3e 2bbe 30bd
000000f0: 9acd 0a3e 748b a53c f5ec 02be 3409 7d3e
00000100: 3ae5 7b3e ed0f 8f3e 80b9 bc3d 95b8 b5be
00000110: 03a4 a2bd 8699 b6be 624a b23e edbd a83e
00000120: ca53 5c3e b933 2dbe ddff ce3d c3bd 09be
00000130: 6fc3 833e 85d2 ec3d f00b 113d 417a e83d
00000140: 912b 903e 8980 e4bd 0a84 66be a040 0cbe
00000150: bd67 433d 69a6 0cbe c122 c13d 431a 003d
00000160: 85b0 bf3c e698 203e 0553 afbe 4b4d 0ebe
00000170: 7cbe bb3c ed1c 693e d3dc c3be 33dc 48be
00000180: f093 9cbe 8c12 c2be aa63 c33d b089 bf3e
00000190: 1669 65bd e4e1 49be f8f5 3cbe 81db e8bc
000001a0: d0bf 293d 8797 a03e c92d 1b3e 47db 99be
000001b0: 11a0 4cbe c3a4 163e 01c5 89be 0193 dbbc
0.26998523 -0.3532749 0.39192492 0.122620374 0.35579237 -0.09914857 -0.29374868 0.08513625
0.00584859 0.1429502 0.08260113 -0.16803786 0.17837608 0.29985082 -0.14740294 -0.088392176
-0.33410698 0.14084607 -0.24138199 0.30505872 -0.021427298 -0.35688555 0.14824603 -0.20632105
0.32122132 -0.08970563 -0.18633035 0.027412413 0.08905827 0.20948121 0.29124248 0.35266566
0.18941668 -0.27871406 0.3174217 -0.04039586 -0.11640548 -0.03708065 0.32544568 -0.3261901
-0.17976455 -0.1895055 -0.1364347 -0.26522243 -0.23149627 0.050049905 0.07940286 -0.3953185
0.19164641 -0.2852916 -0.21649447 0.3593054 0.2594633 0.27617484 0.1938712 0.33983442
-0.31509185 0.30494827 0.20267837 -0.04315011 0.13554993 0.020208098 -0.12785704 0.24710542
0.24599162 0.27941838 0.09215069 -0.35492387 -0.07941439 -0.35664004 0.34822375 0.32957402
0.21516338 -0.16914262 0.10107396 -0.13451295 0.25735041 0.11563591 0.035411775 0.11351443
0.2815824 -0.11157329 -0.22511306 -0.13696527 0.047706354 -0.13735355 0.09430457 0.031275045
0.0233996 0.15683326 -0.34243026 -0.13896672 0.022917978 0.2276494 -0.38254413 -0.1961525
-0.30581617 -0.37904775 0.09540494 0.37409735 -0.05600842 -0.19715077 -0.18453205 -0.02842498
0.041442692 0.31365606 0.15154184 -0.30050108 -0.19982935 0.14711289 -0.26908115 -0.026803495

ConvBase.1.feature.lis.2.X_conv.conv.bias f4 [16]
00000000: 1284 4dbd 7a59 7d3e cfe1 15be 87e7 19be
00000010: f33a 23bd 0ada 4d3e 90d5 673e b1fd bb3d
00000020: c949 323e e1cc 9ebd ec65 ad3e f7c6 b83d
00000030: 4424 5c3c 77c5 e9bd 9029 ba3e f537 b8bd
-0.05017478 0.24741164 -0.1463692 -0.15029727 -0.03985114 0.20102707 0.22640061 0.09179247
0.1741096 -0.07753921 0.33866823 0.090223245 0.013436381 -0.114146166 0.36359835 -0.08995048

ConvBase.1.feature.lis.2.Y_conv.conv.weight f4 [16, 1, 1, 7]
00000000: b368 193d f20a 7e3e 0bb1 8ebe 6bb5 f4bd
00000010: f798 7e3d 81c3 adbe 97f8 ac3e 1654 7b3d
00000020: 615d a7be ff15 d03d 4f35 5fbb 3d3c 9ebe
00000030: d39e 3a3e 2bd6 023e 6381 f6bd 034a 443d
00000040: 3561 6ebe 9fa9 833e 2077 993d 81ba 213e
00000050: a9c3 45bc eca5 c0bd c7ce 953e 64a1 5c3d
00000060: 3693 b03e 77bd d2b9 97d2 e73d 4687 a43e
00000070: 73b9 7f3e b74f 4a3e 87f2 583e 0f6c 01bd
00000080: 508b 063e 6f30 013e 5989 5f3e 3718 143e
00000090: 1df8 82bd 3685 c23d 1d55 d5be 24de 033e
000000a0: 3b99 9e3d 0eaf 903e 1e07 393e 9b39 86be
000000b0: 03bc b5be 0b4c 543e 85df bc3c 553a a53e
000000c0: 5fd3 a2bc 31b8 04be d449 b4bc ebb9 113e
000000d0: 76f2 8abe 9cb6 a3be 156b 0bbc 4cc5 d63d
000000e0: f3a5 b9be 611c dd3d 8da8 b4be d299 86be
000000f0: 5c59 8b3e a6b0 0a3c cbe6 93bd 85a2 99bd
00000100: 91e8 bdbe 2ba8 3bbe c6ba f53d a578 083e
00000110: 1a0b 40be bd9c 90be c425 abbd 73c8 223d
00000120: f5af 9b3e 186d 133e fecc d63d c39c 893e
00000130: 597e a1be efcf 593e b8e2 82be 27fc 233e
00000140: 491d 1dbe 3792 31be bb2e c2be 9512 b23e
00000150: 919d 023e 7bd3 283e 6c39 16bd 480b 77be
00000160: 7281 853d 88f0 9a3e f20c 07be c092 acbc
00000170: b4cd dcba 5677 593e 8f4b e83d 27bd cd3e
00000180: f50b 2f3e a7dd 44be ecdf 5d3e 4f7e 3ebd
00000190: fd0e 13be d574 babd d9df 8a3e eb6b b53e
000001a0: ffb7 623e 9195 86be 8c40 bf3d 54ed b0be
000001b0: 46ca 82be 553c d43a 92ff 50bd 0392 a73e
0.037453365 0.24808863 -0.27869448 -0.11948665 0.062157597 -0.3393822 0.3378341 0.061359487
-0.3268843 0.101604454 -0.0034058874 -0.30905333 0.18224649 0.12777011 -0.12036397 0.047922146
-0.23279269 0.25715348 0.074934244 0.15793802 -0.012070575 -0.09406647 0.2925932 0.05386485
0.34487313 -0.00040195484 0.11319464 0.32134455 0.24973087 0.19756971 0.21186267 -0.031597193
0.13139081 0.12616132 0.21829738 0.14462362 -0.0639498 0.09498064 -0.416665 0.12877709
0.0774407 0.28258556 0.18069121 -0.26215824 -0.35495004 0.20732133 0.023055801 0.32271066
-0.01987618 -0.12960888 -0.02200786 0.14231078 -0.27138108 -0.31975257 -0.008509417 0.1048685
-0.36259422 0.107964285 -0.35284844 -0.2628923 0.27216613 0.008464968 -0.07221755 -0.07501701
-0.37091497 -0.1832587 0.11998515 0.13327272 -0.18754235 -0.28244582 -0.083568126 0.039741945
0.30407682 0.14397085 0.10488318 0.26877412 -0.31541708 0.21270727 -0.25563598 0.16014157
-0.15343203 -0.17340933 -0.37926278 0.34779802 0.1275542 0.16486923 -0.036675856 -0.24125397
0.0651883 0.30261636 -0.13188532 -0.02106607 -0.0016845972 0.2123693 0.11342537 0.40183374
0.17094405 -0.19225179 0.2166745 -0.046507176 -0.14361186 -0.09104315 0.27123907 0.35433897
0.22140501 -0.26285985 0.09338483 -0.34556067 -0.25544947 0.0016192297 -0.05102498 0.32728586

ConvBase.1.feature.lis.2.Y_conv.conv.bias f4 [16]
00000000: 2f26 b63d 4d13 293e 6a99 b0be 423c bebe
00000010: 937e 7dbe 4e6a b1bc deac 253e 6494 77bd
00000020: e052 c53d ac74 ae3e 2e2e e2bd cdde a23e
00000030: fc1a 92be 28be e13d a71a af3e 13b8 933e
0.08894002 0.16511269 -0.34492046 -0.37155348 -0.24755315 -0.021657135 0.16179225 -0.06044425
0.09634948 0.3407339 -0.11043964 0.31810609 -0.28536212 0.110225976 0.34200022 0.28851375

ConvBase.1.feature.lis.2.pointwise.weight f4 [16, 16, 1, 1]
00000000: 09a5 c7bd d215 b3bd e631 5c3e 1e6f 5f3e
00000010: f4b2 703e 91b3 633b 793d ea3d 33e8 e83d
00000020: b78a 63be 7889 213c 1c30 0d3e 116c 453e
00000030: da08 153e 39b4 64bd edb1 58be 6fb4 44be
00000040: 85c4 333e fa66 08be 3952 0c3e 06d4 c23d
00000050: 926b e7bd f25e 61bd 0f5e b73c 0623 053c
00000060: 9c45 933d c802 c43c ec41 23be 22f6 f4ba
00000070: a0b9 82bd b910 41bd 7115 583e 8960 1abe
00000080: 2b10 4fbe 3ec9 2e3e 6ba3 563e 3e71 7e3e
00000090: 77d5 35be 2188 443e bfa5 ee3d 54d0 81bc
000000a0: 9a0f 013e 6775 e63d e094 a93d ba56 933d
000000b0: 006e 253e 1dc5 2a3d 3843 45be 720c 09be
000000c0: b7af 80be 0897 2fbe c9e2 053c 6c81 253d
000000d0: 77e4 203d 65a8 24be 3e03 75be 18a4 75bd
000000e0: b243 6e3e 293a f2bd d045 0d3e d58c 84be
000000f0: 86ac fe3d 6668 793e f5ed 96bd fdfc 3fbe
00000100: 6e30 94bd 6732 423e bd3f 84be f758 513e
00000110: 80ea c9bd f1ce f1bd ac7c 1f3d 40a4 8bbd
00000120: de81 613d 3f34 2d3e 3731 4cbd 4679 5abe
00000130: af6c 23be 89e5 cebd 1704 73bc 6faf f13d
00000140: 393f d53d 9e44 32bd 6c5d cd3d b89b e5bd
00000150: 5d4f 5f3e 946e 7e3e 5387 3e3e ea90 a83d
00000160: 4bfb 873e d79e b0bd a155 743e b256 8f3b
00000170: 6bc5 013e 5d38 f73c c234 243e 17c6 6ebe
00000180: 901b 053e 7d37 d63d 78a4 9a3c abbb dabd
00000190: d84c fdbd 7eac dabd 1647 e0bd c671 353e
000001a0: a193 843e 3c3f 3d3d a940 3abe db92 31be
000001b0: 33d8 793e bfaf 93bd 98df 953d 4c80 d13d
000001c0: 85a0 103e ffee e73d 912f d6bc 0d7f 6a3d
000001d0: f12a 4fbd 1390 b7bd ba70 9f3d fe1c 0bbe
000001e0: 7436 f33d 1765 d63d 627b 663b 239e 693e
000001f0: 12eb 923d 1054 febc fe19 90bd c325 d63d
00000200: 5a2e 60be 6079 213e 6e73 1f3e 96f4 013e
00000210: dfc4 38be 23b3 743d 5f60 6bbd 4a7c 3e3e
00000220: 4e96 5fba 990d a53d 6bcd 7ebd 2ceb b4bd
00000230: 8d5a 4f3e 0446 853e e581 d6bd 495f eabd
00000240: e1d4 bcbd f6a5 523e 31db 80bd d4d7 143e
00000250: 14cc a33d ea59 9f3d afe5 803e 146c 5bbe
00000260: 9c69 aa3d 2641 6f3e 1292 483e 4535 343d
00000270: 7509 173e 3fd8 c8bd c0be 0ebc fa6f 043e
00000280: 83bb 60be 1444 963d 0a20 b13c 8049 143e
00000290: 5b5b 2b3d bdfb eabd 0cbd 143d 716d 753d
000002a0: 9d04 4e3e 4b1e 3bbd 3a93 493e 5aac 713c
000002b0: 8f08 723e 2b7a 0abe a780 1cbe 0e54 553e
000002c0: 8f5d 77be 3e05 12be e1a8 823e 7f55 d4bc
000002d0: 60f0 48be 9b58 5ebe a1d5 6bbe e8a7 5c3c
000002e0: 193e 0abe 10e9 e3bc 1b9c af3c 299d 653e
000002f0: ec51 08be d520 c73d b55e d03c 2e14 c73d
00000300: 94ad da3c 29a1 763b 939c 113d 5caa 7dbe
00000310: 6ae8 d73c 6969 20be efb4 c73d 9fa6 37be
00000320: fe33 883d 28fe e0bd 8223 14be 67ea 333e
00000330: e927 b1bc 8fb9 90bd 7c7c 2c3d 66c9 093d
00000340: 6a37 48be dd12 f93c 8f5b 1abe 5353 88be
00000350: 3da8 54bd 0ad1 5ebd bb49 8a3c 8eb8 003e
00000360: 81d3 6e3e 0cb8 4e3e ca96 213e e429 65be
00000370: dbc3 843e e1ae 2fbe 42a8 d63d 3574 85be
00000380: 77bf 0c3d b286 e3bd 7fb1 673e 3bcd 49be
00000390: d2e1 79bc 79f8 1c3e e1e3 003c ee9d 2dbe
000003a0: 39c2 48ba d646 4cbe 4c66 1cbe dfd5 8cbd
000003b0: 1298 4ebe 3af3 0cbe 007e 143d 20eb c63d
000003c0: d24b 833e d715 603d ddf3 fcbd 79d0 7bbe
000003d0: b9a9 9abd e511 2c3e 5dab e7bc 1462 7c3d
000003e0: 79ff 86bd 2291 53be c4cc 88be 0b16 f63c
000003f0: 210d 11be 850f c6bd 7692 6a3e 9136 263d
-0.09748275 -0.08744396 0.2150341 0.21819732 0.23505765 0.003474448 0.11437506 0.113724135
-0.22220884 0.009859435 0.13787884 0.19279505 0.14554158 -0.055835936 -0.21161623 -0.19209455
0.17555435 -0.13320532 0.1370324 0.095130965 -0.11299814 -0.055022188 0.022383718 0.008126026
0.07191011 0.023927107 -0.15943116 -0.0018689076 -0.063830614 -0.04713509 0.21101929 -0.15075888
-0.20221011 0.17068955 0.20960777 0.24847886 -0.17757212 0.19192554 0.11652707 -0.015846409
0.12603608 0.112528615 0.08280349 0.07194276 0.16155243 0.041691888 -0.19263923 -0.13383654
-0.2513406 -0.17147458 0.008171746 0.04040663 0.03928038 -0.16079862 -0.23927018 -0.059970945
0.23268011 -0.118274994 0.13796163 -0.25888696 0.1243525 0.24356231 -0.073696055 -0.18748851
-0.072358 0.1896454 -0.25829878 0.20444094 -0.098591805 -0.11807049 0.038937256 -0.068184376
0.05505549 0.16914462 -0.049851622 -0.21335325 -0.15959428 -0.10102374 -0.014832518 0.118010394
0.104124494 -0.04352247 0.100275844 -0.112113416 0.21807618 0.2484687 0.1860631 0.08230765
0.2655891 -0.08624046 0.2386079 0.0043743486 0.12672965 0.030178243 0.1603575 -0.23317753
0.12998796 0.10459802 0.018877253 -0.10680326 -0.123681724 -0.106774315 -0.109510586 0.17719182
0.25893882 0.046202883 -0.18188728 -0.17341177 0.2439888 -0.07211255 0.07318038 0.10229549
0.14123733 0.11324882 -0.026145728 0.05725007 -0.05057806 -0.08963027 0.07785173 -0.13585278
0.118756205 0.104685 0.0035168757 0.2281423 0.07173742 -0.031045943 -0.070362076 0.10456421
-0.21892682 0.15768957 0.15571377 0.12690958 -0.1804385 0.05974115 -0.057464954 0.186021
-0.0008529172 0.08059234 -0.06220762 -0.08833918 0.20249386 0.2602998 -0.10473994 -0.114439555
-0.09220291 0.20571122 -0.062918074 0.14535457 0.07997909 0.077808216 0.25175235 -0.21427947
0.08320925 0.23364696 0.19586971 0.043996114 0.14749701 -0.09806871 -0.0087124705 0.1293334
-0.2194653 0.073372036 0.021621723 0.14481163 0.04183517 -0.114737965 0.0363131 0.059918825
0.20118947 -0.045683187 0.19685069 0.0147505645 0.23636077 -0.13523166 -0.15283452 0.20832846
-0.24156784 -0.14259812 0.2551947 -0.025919674 -0.19622946 -0.21713488 -0.23030712 0.013467766
-0.13500251 -0.027821094 0.021436742 0.22423233 -0.133125 0.09723059 0.025435785 0.09720646
0.026694097 0.003763268 0.03554971 -0.24772018 0.02635594 -0.15665211 0.09751307 -0.17934655
0.06650542 -0.109859765 -0.1446667 0.17569886 -0.021625476 -0.070666425 0.042110905 0.033639334
-0.19552389 0.030404503 -0.1507399 -0.2662607 -0.051918257 -0.054398574 0.01688086 0.12570402
0.2332287 0.20187396 0.15780178 -0.22379261 0.25930676 -0.17156555 0.104813114 -0.2606522
0.034362283 -0.111096755 0.22626303 -0.19707195 -0.015251594 0.1532916 0.007866831 -0.16954777
-0.0007658336 -0.19948897 -0.15273398 -0.0687673 -0.20175198 -0.13764659 0.036252975 0.09712815
0.25643784 0.054708328 -0.12351201 -0.24591245 -0.07551903 0.16803701 -0.028279955 0.061616972
-0.06591696 -0.20660833 -0.26718724 0.030039808 -0.14165165 -0.09670929 0.22907433 0.040579382

ConvBase.1.feature.lis.2.pointwise.bias f4 [16]
00000000: 49cf 433d 595e 86be 5649 7cbd 6733 193d
00000010: 3450 5f3c a6ce e6bd 63f4 2ebe b046 323e
00000020: f0d5 3e3e 0e63 813c dd79 ddbb 8430 efbc
00000030: d6a9 f4bd 6253 e93d 5027 49be ba01 3ebd
0.047805104 -0.26243857 -0.061593376 0.037402537 0.013629962 -0.11269884 -0.17085414 0.17409778
0.18636298 0.015794303 -0.006758912 -0.029197939 -0.11946456 0.11392857 -0.19643903 -0.046388365

ConvBase.1.feature.lis.3.X_conv.conv.weight f4 [16, 1, 9, 1]
00000000: 6e9b 91bd b68c 4a3d 410c a53e 3f52 8cbd
00000010: 80e0 54be 0b8e 753e 4e18 a1bd 1d73 45be
00000020: 75f2 6d3e 4586 1a3e 42ed 863e 801c 6abe
00000030: 4368 8f3d 7bbc 17be d34c d53d a501 9bbe
00000040: 2c2b fdbd 17a1 24bd b6dd 863e f43b 873e
00000050: 2929 983e 301a a23b 132d 8f3d de09 7c3e
00000060: 31e0 9f3e 6e95 2b3e 2dc6 68be 0cdd 51be
00000070: 7a12 84bd 4c64 a5be d03c 023e b949 973e
00000080: 20b7 613d afcf 12be 3f09 a93e 0d15 303d
00000090: 54e9 ee3d 9a33 1bbe 56df ac3e 9ffd 04be
000000a0: 16a7 a03e 8a2b 883e 828f cdbd 1918 fa3d
000000b0: 6c87 29be 22a5 823e 016a 893e 81e3 983e
000000c0: c12c 02be 59b6 163e e498 153d 6906 22be
000000d0: 7e2b a0be 8265 763e 64d3 08be 6d6f 523e
000000e0: f503 463e 65a9 09be 7980 44be 2605 503e
000000f0: 8e3e 8b3e bf27 9f3e 1d67 11be b39f 46be
00000100: 9e49 a63e d629 433e 8efa 3f3e abfd 823e
00000110: 412f 233e 54d4 ed3d 13ba b5be bff3 553e
00000120: 0ae4 07be d649 ba3d 1f49 27bd 616c 17be
00000130: 5d96 7f3e f3a1 8bbe 9fd3 f3bc 7fa2 05be
00000140: f74a 3abe ab8c 8bbe 226c 89be 5a30 7cbe
00000150: 4770 1fbd 0b31 5c3e 0c78 c63c 1df8 5cbe
00000160: 4594 9ebe b858 323e 3468 9f3d 3c47 0abe
00000170: b552 8a3e 0c7e 813e aced 9cbe 5546 a9bd
00000180: 802f 22be 21fc 943d dfec a33e 0ab4 3d3e
00000190: c54e 2e3e e5dd 3abe 8b0a 42bd 70e2 8b3e
000001a0: ee99 bcbe 7dd8 7ebe 3aaf 35be fc93 a83c
000001b0: 5c54 27be b34d d8bd ffd5 4b3d 1a4e 87bd
000001c0: 9025 2dbe 78e6 7abe a6e6 2e3d 1548 6abe
000001d0: 8d67 353e d0f7 9d3e fade 67be c50e 2fbe
000001e0: 0cb8 9f3c bb76 b2bd 7373 f6bd 1f21 893d
000001f0: d789 4c3e b2ec 033e fa8f 913c d72a 72be
00000200: 9611 8dbe e063 3bbd a65f 933d 65d0 ff3c
00000210: c9ed 943e 151e abbe a529 83be 91e4 823e
00000220: cc77 73be 40dd bb3c 1e8b c93d a681 51be
00000230: 10bb 16bc 4e0c 8a3e 4140 33be 9e47 883e
-0.07109724 0.0494506 0.3223591 -0.06851625 -0.20788765 0.23979966 -0.07865964 -0.19282193
0.23237021 0.15090282 0.26352888 -0.22862434 0.07002308 -0.14817993 0.10415044 -0.30274692
-0.1236175 -0.04019269 0.26341027 0.26412928 0.29718903 0.0049469694 0.06991019 0.24613139
0.31225732 0.16756222 -0.22731848 -0.20494479 -0.064488366 -0.32303083 0.1271851 0.29548433
0.055106282 -0.14337038 0.33014867 0.042988826 0.116655976 -0.15156403 0.33764142 -0.12987374
0.31377476 0.26595718 -0.100371376 0.122116275 -0.16555566 0.2551661 0.26838687 0.29861072
-0.12712385 0.14717998 0.03652276 -0.15822758 -0.31283182 0.2406216 -0.13361889 0.20550318
0.19337447 -0.13443525 -0.19189633 0.20314464 0.27196163 0.3108501 -0.14199491 -0.19396858
0.3247804 0.19058928 0.18747923 0.25584158 0.15935995 0.11612764 -0.35493526 0.20893763
-0.13270584 0.09096114 -0.040841218 -0.14787437 0.24959703 -0.27271995 -0.029763995 -0.13050269
-0.1819266 -0.2725576 -0.2684031 -0.2462782 -0.038925435 0.21503083 0.024227165 -0.21579023
-0.30972496 0.17416656 0.07783547 -0.13503736 0.27016225 0.2529148 -0.3065008 -0.08265368
-0.15838432 0.07274652 0.32016656 0.1852571 0.17022236 -0.18248709 -0.047373336 0.27321196
-0.3683619 -0.24887271 -0.17742625 0.020578377 -0.16340774 -0.10561695 0.04976463 -0.066066936
-0.1690886 -0.2450198 0.042700432 -0.2287906 0.17715283 0.30853128 -0.22643653 -0.17095478
0.01949694 -0.08714052 -0.12033739 0.066957705 0.19974457 0.12883261 0.017768849 -0.23649155
-0.2755248 -0.045749545 0.07195978 0.0312273 0.29087666 -0.33421388 -0.2561771 0.25565007
-0.23776168 0.022932649 0.098409876 -0.20459613 -0.009199873 0.26962513 -0.1750498 0.2661714

ConvBase.1.feature.lis.3.X_conv.conv.bias f4 [16]
00000000: fdcd a0bd d44a 7ebe d729 533e 5d56 983d
00000010: b1f9 d53d 6a24 b13d eecb 91be 2001 663e
00000020: 4f79 6d3e 50df 153e e720 893e 382c 233e
00000030: 3b58 963e 5fdb b63d 6ece 5dbd b34c 8bbc
-0.07851789 -0.24833232 0.2062143 0.074383475 0.104480155 0.086495236 -0.28475899 0.22461367
0.23190807 0.14635968 0.26782915 0.15934837 0.2936419 0.089285605 -0.054151945 -0.017004346

ConvBase.1.feature.lis.3.Y_conv.conv.weight f4 [16, 1, 1, 9]
00000000: 8c78 adbe 8510 8abd 0d74 a8bc c60c aabe
00000010: cdab 22bd dd13 983e 064f 3d3e c3b1 17be
00000020: b34e 11be aa30 dd3d 8dae bfbd 3837 04be
00000030: f306 ba3c ce7a 3bbe abc2 2cbe 37cc 803e
00000040: 5a2a a83c 78ff 50be f9d8 78bd b005 423e
00000050: 21dc a33e 0228 83be 9bf6 013e c47a 163e
00000060: a223 2dbe 1504 d33d 7386 583e c778 853e
00000070: 191e 353d 53d2 10be e06c 0fbe d90a 443e
00000080: e1ce 81be 3142 7f3e 283e acbe 491f 753d
00000090: 7690 3d3e d9c6 42be 639d 05be d1f5 163d
000000a0: 38c3 02be 7ecb c0bc b31c 2ebd 6740 aebc
000000b0: ae6c a9bd a40e 813e f862 dcbd 964b e63b
000000c0: f69b 313e 17f9 103d 10b0 1ebd a6ce 8b3e
000000d0: 4fe9 743e c8a4 9ebe 7537 86be 0495 133e
000000e0: 6b56 a53d 5a10 a7bd 38bf 8b3e 668b 023e
000000f0: e434 99be 6a05 303e c753 50be 9511 39be
00000100: 6f2b 3b3e 5cc1 7dbe da72 373e 8f0f 993e
00000110: 7963 92be 3ed2 21be 7fca a73e 6fc4 65be
00000120: e7f7 873e af3d 1dbe c783 3f3e 408a 81bd
00000130: 3f0f 64be 2a9c 9d3c 0c7b f43d 7e24 913c
00000140: 0937 a6be 5a7b 073e 5219 293e 96ef 84bd
00000150: ac7f 0fbe f742 303e f9e5 34be 0832 1d3e
00000160: e5aa 1cbe 3766 8c3d 178f 2d3b fcf9 153e
00000170: e3ba 99bc 3d74 8e3e 58f8 3e3e 6755 fe3d
00000180: 904d 0fbe db43 9b3d efde ac3e 832f 213e
00000190: 5b69 b5bd 3c70 05be e7a2 8bbc edb4 5b3e
000001a0: e146 3e3e c85e 9cbe cec9 9c3e 908d dd3c
000001b0: 7231 4abd 3b98 973e 816e 403e d4ea b1bd
000001c0: 333b 1b3e 315a 843e 0ed0 17be 75c4 8ebd
000001d0: 309b 153d d967 853e 850d c23d 9b53 493e
000001e0: cc71 78bd a1dc 073e b4c6 c33c e07d 52bd
000001f0: 193a fb3d 0dd2 fe3d ba02 0abe 729e febd
00000200: 4e5c 38ba 3f27 70be b167 643e cc34 603e
00000210: 1dfe 7f3e 0a46 3fbd 415b 9b3d 072e 4e3e
00000220: 3f5f f6bd 96fe 1cbe 214e 2e3e 6744 9a3e
00000230: a1d0 45be 0dea 61be 1cfa 4fbd 9bf5 5fbe
-0.33881032 -0.06741432 -0.02056315 -0.3321287 -0.039714623 0.29702654 0.18487176 -0.14813904
-0.14190178 0.108002976 -0.09359465 -0.1291169 0.022708392 -0.18308565 -0.16871135 0.25155804
0.020528007 -0.20409954 -0.060753796 0.18947482 0.32003883 -0.2561646 0.12691729 0.14695269
-0.16908124 0.10303513 0.21145038 0.26068708 0.044218156 -0.14142732 -0.14006376 0.19144763
-0.2535315 0.24927594 -0.3364117 0.05984429 0.18512139 -0.19021167 -0.1304832 0.036855523
-0.12769783 -0.023534533 -0.04250784 -0.021270944 -0.08272682 0.25206482 -0.10761064 0.0070280535
0.1734465 0.0353938 -0.038742125 0.27306098 0.23917125 -0.30985093 -0.26214185 0.14412314
0.080731235 -0.08157416 0.27294326 0.12748489 -0.29923165 0.17189565 -0.20344459 -0.18073113
0.18278287 -0.24780792 0.17914906 0.29894683 -0.28591517 -0.15802857 0.3277168 -0.22438215
0.26556322 -0.15355562 0.18702613 -0.06325197 -0.22271441 0.019239504 0.11937532 0.017717596
-0.32463863 0.13230649 0.16513565 -0.0649101 -0.14013547 0.17213045 -0.17665853 0.15351117
-0.15299566 0.068554334 0.0026482993 0.14646143 -0.018765872 0.27823058 0.18649423 0.12418633
-0.13994431 0.07581302 0.33763835 0.1574078 -0.088579856 -0.13031095 -0.017045451 0.21455736
0.18581726 -0.30541062 0.30622715 0.027045041 -0.04936356 0.2960833 0.18792154 -0.08687368
0.15159301 0.2585006 -0.1482546 -0.06971065 0.03652495 0.26055792 0.09475235 0.19660799
-0.0606554 0.13267757 0.02389846 -0.051389575 0.122669406 0.12442408 -0.13477603 -0.12432565
-0.00070327974 -0.23452471 0.2230518 0.2189514 0.2499928 -0.046697654 0.07585765 0.20134746
-0.120298855 -0.15331492 0.17021991 0.30130312 -0.19317867 -0.2206194 -0.050775632 -0.21871035

ConvBase.1.feature.lis.3.Y_conv.conv.bias f4 [16]
00000000: 54ef b63d 4ea7 25be 68b0 1a3e 5308 d2bd
00000010: 1cc1 8dbe b009 01be b16f 823d 0e9b 66be
00000020: bbb5 ff3d 9c8a dbbd 4cf0 753d f608 1d3e
00000030: 2188 e83d 88d4 dcbd 7f61 173e 9a65 803b
0.08932367 -0.16177103 0.15106356 -0.10255494 -0.27686393 -0.12601352 0.0636896 -0.22520086
0.12485834 -0.10719797 0.060043618 0.1533545 0.113540895 -0.107827246 0.14783286 0.003918362

ConvBase.1.feature.lis.3.pointwise.weight f4 [16, 16, 1, 1]
00000000: d950 cd3d cf9f 6ebb 6ab5 403d 4b55 86bd
00000010: 0f0b 483d b928 82bb 871e 8dbd 5be5 a53d
00000020: 94bd cb3d 462b 093d 40af c03d e947 d93c
00000030: 1b29 49be 8ffe 03be f020 0ebd 66ae d23d
00000040: 2f96 833e 7f06 96bd ebd5 9dbd f964 043e
00000050: ddbc b93d 6dfa 7f3d 0176 723e af6d 1b3e
00000060: 4032 28be 5e88 d0bd e52c 823d f360 8b3e
00000070: a4e9 1d3c fb31 4d3e 9e3b 9b3d cb3b a1bd
00000080: a21c ce3d 7ed3 a1bd 6be5 7bbe accd ed3d
00000090: fe0c 44be dcf2 c93d 5342 2fbe 7f5f 453e
000000a0: af7e abbd f89e 16bc ac94 2cbd 5f60 80be
000000b0: 3a7f 033d de0a b43c a0df 2bbe dd94 34be
000000c0: f6bb c73d b145 dabd d6f7 3abe dcd5 cdbd
000000d0: 741d 0cbe 4ae3 153d 2894 1dbe 4c27 49be
000000e0: 940c be3d 17ad 55bc 46b9 213e cc3c 3d3e
000000f0: cd55 cd3b df02 1dbe 7a7c 653d df42 033e
00000100: 6ce3 30be 5b06 3c3e 1c9b 793d 1243 703c
00000110: d4fb 22bd a373 e3bd e04c 3b3e 1239 5f3e
00000120: 5370 8fbc a353 50bd 7fe7 103e 13e0 b73d
00000130: d33a d53d b4c4 b4bd 65d1 38be 67a8 68be
00000140: 21f7 6ebe e933 643c 240d 28be 2ad3 bdbd
00000150: a715 4d3e b65a 0ebd f6cb 64be b8a6 8abc
00000160: 6ed0 9dbd 400c 503c c7df c0bd 85e6 c8bd
00000170: ed02 38be 14ba 6dbe 0463 e5bd ecb8 15bd
00000180: 745c c7bc 3a5a e0bd 7008 2a3e 1338 96bd
00000190: 8e9a 1d3e 4e19 3d3e 3691 373e 26f3 42be
000001a0: b676 6bbe 9a04 d6bc f45d 113e a146 4dbd
000001b0: d1bd 7c3e 3704 37be 2df3 4e3e bc31 22bc
000001c0: b6d0 2d3e 63be 5cbe e2b1 ca3b eec2 dcbd
000001d0: 1407 e6bc 567b fcbd cdba e63d 94bd 26be
000001e0: 5969 28be e2fd d03b dda8 2fbe 73b3 e63d
000001f0: 3545 94bd 8ed8 d0bd 50f9 233e c094 243e
00000200: 0424 26be 2a4f d8bc 0797 823e 2798 e03c
00000210: dffc 11be 3c7c d3bd 10d2 21bd ea4e 223e
00000220: 8fd1 76be f396 853d c750 a8bc df74 7ebe
00000230: d149 9d3c 704e 3e3e 1760 bd3d 5516 ccbd
00000240: 8175 333d 6b9f ebbd 9ec5 3abc 3797 abbc
00000250: 057b 853e 2883 25be 23bc 0bbe 4150 f53c
00000260: f961 a43b 9c88 f7bc 228f 4e3e d9a7 4b3e
00000270: f82a 1f3c ea92 82be 6d77 663e bd55 f73d
00000280: 3492 033e 70a9 7ebd de5e 143e 606c cc3d
00000290: abee 183d 378e 443d 566b 343e cd6f 32be
000002a0: 89a2 cdbd b9b5 3a3d 586b 4d3e 6ec1 6d3d
000002b0: 7e9a 9fbd 1f26 d53c 1ab8 d9bc 6529 243e
000002c0: 51ea 1d3e e955 853d 42ba 4f3d 4deb 17bd
000002d0: c2ad 79bd 3b19 243e dc40 23be 0294 77be
000002e0: fcca 313e ab3e 0bbe ae79 7c3e db9d aabd
000002f0: 0bf8 7cbc 9882 5e3e 08e2 2d3e 2433 443e
00000300: 260a 79be a222 4e3d 1fe1 5cbe bb09 853d
00000310: dade b93d b96c 553e 7879 49be d45f 273e
00000320: 3edc 463e 000a a33b 75ea 15bd 278b 4a3e
00000330: 2ff0 02bd bdf1 6cbe 05f3 3f3e 8a4b e03c
00000340: 7342 933d f093 f53d 944f 0c3e 868c d53d
00000350: 931b 2d3e 1a1a 16be 0d20 bcbd 277c bfbd
00000360: 9d2e ea3d ecd2 33be ba14 b83d 5640 35be
00000370: a5e2 91bd 1375 8bbb 1250 12bd 3d50 e5bd
00000380: cd4f c83d d98c b23c dea5 653e 51b2 463e
00000390: e879 303e 6532 5cbe 8e1a b33d 5bc3 463e
000003a0: 62df b8ba d91b 46be 8ee6 7b3e f1d5 873c
000003b0: 93c5 01be b8b3 223d fa33 793e 75fe 0a3e
000003c0: d2b5 6abc a18b 063e afdf 0d3e 1b16 4b3d
000003d0: 1f02 63be c5a5 54be 7dc0 23be b67d 49be
000003e0: 2fa7 453c 7b33 23bd ba3b 103e 6c7c fb3a
000003f0: ef5a 01be 2199 54be 02da dc3c 958d 4b3e
0.10025186 -0.0036411171 0.04704801 -0.06559237 0.04883867 -0.0039721397 -0.06890588 0.08100387
0.099482685 0.033488534 0.09408426 0.026523547 -0.19644587 -0.12890075 -0.03469938 0.1028717
0.25700518 -0.07325458 -0.07706817 0.12929143 0.09069226 0.062494684 0.23677827 0.1517856
-0.16425419 -0.1018226 0.06356219 0.27222404 0.009638224 0.20038597 0.075797305 -0.07872733
0.10064055 -0.07901667 -0.24599235 0.116114944 -0.19145581 0.09860775 -0.17115144 0.1927471
-0.08373772 -0.009193175 -0.042133972 -0.25073525 0.032103755 0.021977838 -0.16784525 -0.17634912
0.097526476 -0.10657824 -0.18258604 -0.10050556 -0.1368311 0.036593713 -0.15388548 -0.19643897
0.09279743 -0.013041756 0.15793332 0.18480223 0.0062663318 -0.15333126 0.056026913 0.12818478
-0.17274255 0.183618 0.06093894 0.014664428 -0.039790943 -0.1110604 0.18291044 0.21799114
-0.017509615 -0.050861012 0.14150809 0.08978286 0.104116105 -0.08826581 -0.18048628 -0.2272049
-0.2333646 0.013928392 -0.16411263 -0.09268792 0.20027791 -0.034754477 -0.2234343 -0.0169252
-0.077057704 0.012698233 -0.09417682 -0.09809593 -0.17969866 -0.23215514 -0.11200526 -0.03655331
-0.024336077 -0.10954709 0.16604781 -0.07334914 0.15390989 0.18466684 0.17926487 -0.19038066
-0.22994503 -0.026125241 0.14195997 -0.050116185 0.24681784 -0.17872702 0.20209952 -0.009899553
0.16974148 -0.21557002 0.006185756 -0.107793674 -0.028079547 -0.12328212 0.11266098 -0.16283256
-0.16446437 0.0063779214 -0.1715426 0.11264696 -0.07239763 -0.101975545 0.16013074 0.16072369
-0.16224676 -0.026404936 0.2550585 0.027416302 -0.14256619 -0.1032643 -0.03950697 0.15850416
-0.24103378 0.06522932 -0.02054633 -0.2484927 0.019200237 0.18584609 0.09246843 -0.09965197
0.043813232 -0.11505016 -0.011399655 -0.020946128 0.2607042 -0.16163313 -0.13645987 0.029945495
0.005016562 -0.030216508 0.20171788 0.19888248 0.009714834 -0.25502712 0.22506495 0.120769
0.12848741 -0.062173307 0.14489314 0.099816084 0.037336987 0.04798719 0.1761907 -0.17425461
-0.10040767 0.04558346 0.2006048 0.058045797 -0.07793139 0.026019154 -0.026577044 0.16031416
0.15421416 0.06510527 0.05071474 -0.037089635 -0.060956724 0.1602525 -0.1594271 -0.24177554
0.17362589 -0.13598125 0.24655792 -0.0833089 -0.015439997 0.21729505 0.16980755 0.19160134
-0.24320278 0.050325997 -0.21570252 0.064959966 0.09075709 0.20842256 -0.19675243 0.1634515
0.19419953 0.0049755573 -0.03660055 0.19779645 -0.03196734 -0.23139091 0.18745048 0.02737977
0.071904086 0.119911075 0.13702232 0.10427193 0.1690505 -0.14658394 -0.09185801 -0.09349852
0.11434672 -0.17560929 0.08988328 -0.17700323 -0.07123307 -0.0042558997 -0.035720892 -0.11196945
0.09780846 0.021795677 0.22426555 0.1940396 0.17234004 -0.21503599 0.08745299 0.1941046
-0.0014104659 -0.1934656 0.24599668 0.016581507 -0.12673025 0.039722174 0.24336234 0.1357363
-0.014325576 0.13139202 0.1385486 0.04958163 -0.22168778 -0.20766361 -0.15991397 -0.19676861
0.012063785 -0.039844017 0.14085284 0.0019186861 -0.12632345 -0.20761539 0.026959423 0.19878228

ConvBase.1.feature.lis.3.pointwise.bias f4 [16]
00000000: 5725 833e cd3a e63d ceb7 f6bd a0be 40be
00000010: 7aaf efbb f428 383e 9246 253e 434e 5e3e
00000020: 2b56 21be 3539 d0bd fc74 15bc 9903 283d
00000030: aca6 e3bd 8dda 21bd d92a a93d e918 533e
0.25614426 0.11241684 -0.12046777 -0.18822718 -0.0073146196 0.17984372 0.16140202 0.21709542
-0.15755527 -0.101671614 -0.0091221295 0.041019056 -0.111157745 -0.039515067 0.08260126 0.20614971

ConvBase.1.feature.bn.weight f4 [16]
00000000: 1f36 7b3f 0bfd 5f3f cc63 f63e 1ccb 073e
00000010: ab88 2b3f 1a4c 1a3f 881a 643f 7948 033f
00000020: 8fb8 723f ee9d 253f 532d 7b3e 5f57 073f
00000030: 42f2 4e3f b77a 0e3e 578b 5b3e 4448 953e
0.9812946 0.8749549 0.48123014 0.13261074 0.67005414 0.6027237 0.89102983 0.5128246
0.94812864 0.64694107 0.24529009 0.5286769 0.80838406 0.13914 0.21439873 0.29156697

ConvBase.1.feature.bn.bias f4 [16]
00000000: a522 bebb a0a8 5b3c 800f 25bc e8b6 203d
00000010: 3013 62ba c8da 83bc f03c 2b3c f83f fc3c
00000020: b1a5 cfbc fe6c be3c bac2 bc3c 9bbf 823c
00000030: 3532 163d 9ff6 d03c d436 403d 560e e43a
-0.00580247 0.013406903 -0.010074496 0.039236933 -0.0008624075 -0.016095534 0.01045154 0.030792221
-0.025347563 0.02324533 0.023042072 0.015960505 0.036668975 0.025508223 0.04692729 0.0017399292

ConvBase.1.feature.bn.running_mean f4 [16]
00000000: c873 763e 0702 0bbe 8eb5 a43c e615 c2be
00000010: 08f8 80b7 56be a1be c0cf 04be 41d1 c03e
00000020: f148 aabe ce7c cb3d f6c1 bdbd 392c d8bc
00000030: 84e3 6bbd e29d 343d 6c23 303b b912 103d
0.24067605 -0.13574992 0.020106103 -0.37907332 -1.5374288e-05 -0.31590527 -0.12969875 0.37659648
-0.33258775 0.09935914 -0.09265511 -0.026388275 -0.057590023 0.04409588 0.0026876582 0.035174105

ConvBase.1.feature.bn.running_var f4 [16]
00000000: efcd 113b 4816 f93a d96f 513b a033 3a3b
00000010: cb72 043b 8f55 8c3b c9c9 703b 1389 7a3a
00000020: 7e7a 5f3b 1fbc 123b 74ef ec3a f445 413b
00000030: 436d 223b 7133 dc3a b0f7 2c3b 6ef8 1c3b
0.002224799 0.0019003833 0.0031957536 0.0028412119 0.0020210024 0.0042826603 0.0036741367 0.0009557169
0.003410011 0.002238996 0.0018076734 0.0029491158 0.0024784363 0.0016799999 0.002639275 0.0023951787

ConvBase.1.bn.weight f4 [64]
00000000: 5c82 df3e 3395 cd3d dc7f f33d a4a3 9a3d
00000010: b318 be3e 7b4b 423f 9b02 663f b97b acbb
00000020: 44bd 303f 6a85 643f e7b3 833e e523 0e3f
00000030: 1cf0 403d 7374 023e a00f 483f d4de 423f
00000040: 2e8c 473f 0108 4f3f 5853 4b3f 26d4 d03e
00000050: 3819 b53e 1d74 553f bf56 193f b99e 893e
00000060: 22ca 5a3f aa26 1f3f 1454 fb3e 01e1 133f
00000070: e79c 4f3f b5a5 c23e cac3 983e 51cd 6e3f
00000080: 5f67 313f 0e2a c93e ebe7 053e 3f7e 703f
00000090: 2dd4 923e 9330 513f 9eb1 973e 717a eb3e
000000a0: 6c77 b63e b717 3b3f 72e7 9f3e df60 053e
000000b0: d83f 963d 4420 e73e 1865 3e3e 1944 4d3f
000000c0: 0350 403f 157e fc3e d88e 8c3e 1204 2e3f
000000d0: 0420 a43e cc7f 7c3f d1ce 76bb bf59 6e3f
000000e0: b2e9 703f 34f7 623e 47f1 983e ccea 2a3f
000000f0: f4a4 ec3e 5b91 143e dd04 5c3f 891c 363f
0.43654144 0.10038223 0.118896216 0.07550743 0.3712822 0.75896424 0.89847726 -0.0052637723
0.69038796 0.89266074 0.25723192 0.5552352 0.047103986 0.12739734 0.7814884 0.7612126
0.7794827 0.8087159 0.7942405 0.40786856 0.35370803 0.833803 0.5989799 0.26878908
0.8546468 0.6216837 0.49087584 0.57765204 0.8109879 0.3801705 0.29836875 0.9328204
0.69298357 0.39289898 0.13076751 0.93942636 0.28677502 0.81714743 0.296277 0.45991853
0.35637987 0.7308306 0.31231266 0.13025235 0.07336396 0.45141804 0.18593252 0.80182034
0.7512209 0.49314943 0.2745273 0.6797496 0.32055676 0.986325 -0.0037659893 0.9310569
0.9410659 0.22164613 0.2987158 0.6676452 0.462196 0.14508574 0.8594492 0.7113729

ConvBase.1.bn.bias f4 [64]
00000000: 1920 b83c 25d7 5e3c b1b2 423c 76a7 363c
00000010: e3be f2bc fa98 dcbc 5990 253d 56bd 4fbc
00000020: fc94 9c3c 7954 823b a81b bdba 0019 96bc
00000030: 953e c5bb 3724 ce3b f955 2dbd b853 273d
00000040: ddd1 88bb a476 bebc 344d 6ebc a1bf 1ebd
00000050: 69d1 b23c 025c 35bc f7a9 a83c a983 0dba
00000060: 3fc9 dbbc 71bc 433c dd4e e2bc 471d b23c
00000070: 0d98 083b 1581 18bb d7e7 373c 8b9b dcbb
00000080: 85da 1dbc f2f2 cdbc 66ac edbc 4bec 3c3d
00000090: 5bfb 93bb 3bd2 483c b72d 203a 63a3 99bb
000000a0: 5d4f 9c3c 96b7 3ebd 0c76 c03c 2f6a 0bbc
000000b0: c07a 023d f8e7 cb3c f7d0 abbb 1385 fa3c
000000c0: 0aa9 0cbc d43a 023d 2408 323c 0d50 d13c
000000d0: b6f9 a03c 23fd 12bd 1f3d 96bc 97cb 283c
000000e0: 65a7 e5bc 4faf a53c 5ec0 4a3c 31e9 cc3c
000000f0: 2de2 1f3b 966d 153c b346 ccbb 30ad fa3b
0.022476243 0.013601099 0.011883424 0.011148324 -0.029632038 -0.026928414 0.040420864 -0.012679419
0.01911401 0.003977355 -0.0014427798 -0.018322468 -0.0060194233 0.0062909382 -0.042318318 0.040851325
-0.0041754083 -0.023249932 -0.014544774 -0.03875697 0.02182837 -0.0110693 0.020588858 -0.0005398342
-0.02682936 0.011946783 -0.027625496 0.021742476 0.0020842582 -0.0023270298 0.0112247085 -0.0067324094
-0.009634619 -0.02514026 -0.02901287 0.046123784 -0.004516048 0.012257154 0.00061103277 -0.0046886667
0.019080812 -0.0465618 0.02349379 -0.008509203 0.031855345 0.024890885 -0.0052434164 0.030581033
-0.008585224 0.031794384 0.010866199 0.025550866 0.019650321 -0.03588594 -0.018339692 0.010302446
-0.028033921 0.020225195 0.0123749655 0.025013538 0.0024396286 0.009120366 -0.006234014 0.00765004

ConvBase.1.bn.running_mean f4 [64]
00000000: de06 423e cedd 0e3e c6f3 e83d 71f2 733d
00000010: 2c68 183e c644 ee3c 0d63 9d3c 0118 093e
00000020: a789 683e a119 2a3e 1018 963d a680 053d
00000030: 4c9b 5a3e 72f4 d03c b751 913d 06ab 873d
00000040: 6ee1 773e 7150 5b3e d5c0 bd3d 7421 8f3d
00000050: b79e 473e 3a5e 3c3e 1e8d 323e 2500 093e
00000060: 16da 073e 6d27 413e cc2a 843d 6bc8 133e
00000070: 0d95 153e 84b0 553d fdca 9e3d 476b 983d
00000080: 8010 af3e af32 8f3e 7982 0e3e 0313 563d
00000090: 540f 633e e633 513e ffd3 7a3e 3ccf 473e
000000a0: 7f25 773e 5650 fa3d 3cd7 8f3d 941c 243e
000000b0: d6b7 753e a84a 4b3d 7b0b 8f3d dc7e a33d
000000c0: a2a4 823e 7121 9d3e 667b 083e 13f7 883d
000000d0: a595 493e 3a66 233e 3299 703e 585f 483e
000000e0: fb54 8a3e 22e2 623e facb b33d 04dd 293e
000000f0: 9547 983e e74a 743d 63d3 ad3d 4fab de3d
0.18947932 0.139518 0.11374621 0.059557382 0.14883488 0.029085528 0.01921227 0.13388063
0.2270876 0.16611339 0.07328808 0.03259339 0.21348304 0.025507186 0.07095664 0.06624417
0.24207088 0.21417405 0.092652954 0.069888026 0.19494139 0.1839532 0.17436644 0.13378961
0.13266787 0.18862696 0.06453475 0.14431922 0.1460764 0.05217029 0.07753561 0.074423365
0.34192276 0.27968356 0.13916959 0.052264225 0.22173816 0.20429954 0.24494933 0.19512647
0.24135397 0.12222354 0.070234746 0.16026527 0.23995909 0.049631745 0.069846116 0.07983181
0.2551623 0.30689576 0.13328323 0.06687751 0.19685991 0.15956965 0.2349594 0.19567621
0.2701796 0.22156575 0.0877914 0.16588217 0.29742113 0.059641745 0.084875844 0.10872518

ConvBase.1.bn.running_var f4 [64]
00000000: 26c9 c53d 1909 413d 5414 153d 1518 8b3b
00000010: 5845 6f3d 2de9 533b a5be fa3a da76 063e
00000020: 4347 fd3e 68fc 5f3e 89af 143d 329b c13b
00000030: 4806 b43e 161f 9c34 d5b6 b23c 6bb3 383c
00000040: e919 c83e 8531 da3e 686f e53d a1f9 0b3c
00000050: d26d e43d db93 4d3e 74f0 273f f866 393e
00000060: 3877 093e 789e 833e 6bdf 003d 69dd 0f3e
00000070: 706f 363d e45f 3c3c 6db2 4e3b b5d6 863d
00000080: 7ce2 033f 42dd 6a3e fe74 903d 5704 093c
00000090: 76c6 003e e443 313e c6c6 b93d 1c00 f63d
000000a0: 4b96 c03d 2070 b23e 4e7c 143d b31e 6f3d
000000b0: 5665 f23e 2667 fc3b 1192 0f3d 1704 cb3c
000000c0: ce5a 3f3f c0d9 6b3e 7c29 883d 50e0 f23b
000000d0: cba8 1a3e 68d1 3e3e 3db0 6b3e 7d98 d63d
000000e0: 6236 ef3e 5ad3 9b3d bfc7 1a3d 80ed 273e
000000f0: 4c28 8a3e 9f9a 393c d9bd e43c bea1 3a3d
0.09657507 0.047127817 0.03639634 0.004244814 0.05841574 0.0032335029 0.0019130303 0.13131276
0.4946843 0.21873629 0.036300216 0.0059083933 0.35161042 2.9079882e-07 0.021815697 0.011273245
0.39082268 0.42615905 0.1120289 0.008543403 0.11153759 0.20075934 0.6560128 0.18105686
0.13424385 0.2570684 0.031463068 0.14049305 0.04453987 0.0114974715 0.0031539456 0.06583921
0.5151746 0.22935966 0.070535645 0.008362851 0.12575707 0.17311054 0.09071116 0.120117396
0.09403666 0.3485117 0.03625136 0.058378886 0.47342938 0.007702726 0.03505141 0.024782224
0.7474793 0.23032284 0.066485375 0.007411994 0.15103452 0.1863457 0.23016448 0.104783036
0.46721178 0.076086715 0.03778815 0.16399193 0.2698387 0.011328368 0.027922558 0.045564406
