waights/weights22.pth (torch_old, 670822 bytes, 196 tensors)

ConvBase.1.feature.lis.0.X_conv.conv.weight f4 [1, 1, 3, 1]
000000 e3 28 13 bc db 0a 49 be 77 c8 00 be
       -0.008981916 -0.19633047 -0.12576471

ConvBase.1.feature.lis.0.Y_conv.conv.weight f4 [1, 1, 1, 3]
000000 89 0d 9d 3e 34 10 95 bd 2f a9 11 be
       0.3067439 -0.07278481 -0.14224695

ConvBase.1.feature.lis.0.pointwise.weight f4 [16, 1, 1, 1]
000000 23 49 ba be d6 08 6b be 9d 74 45 bf b7 f8 6e bf
       -0.36383924 -0.2295259 -0.7713106 -0.9334826
000010 eb 44 fd be 9c 09 ab bd 32 b1 b2 3c f8 86 15 3f
       -0.49466643 -0.08351442 0.021813009 0.5840907
000020 86 92 54 3f 9d 42 28 3f 59 b4 6c 3f 27 60 6d 3d
       0.8303608 0.65726644 0.9246269 0.057953026
000030 5a 34 32 3f 79 23 0a bb c2 26 ec 3e 2b 13 01 bf
       0.6961113 -0.0021078272 0.4612332 -0.50419873

ConvBase.1.feature.lis.0.pointwise.bias f4 [16]
000000 fe 53 50 3f d3 bb 8f be d1 31 36 3f 28 8a 85 bf
       0.8137816 -0.28072986 0.71169764 -1.0432787
000010 37 c5 99 be d3 d8 4f bf 8c 0e a9 be 86 03 6c 3f
       -0.30033275 -0.8119022 -0.3301891 0.92192876
000020 c2 e7 2f bf 37 97 84 3e c9 e6 e3 be 6b e9 0a bf
       -0.6871301 0.25896618 -0.44512013 -0.5426242
000030 99 c9 58 3d 0a 4c 97 bd 8b 70 91 be 09 fe c9 be
       0.052926634 -0.0738755 -0.28406176 -0.39451626

ConvBase.1.feature.lis.1.X_conv.conv.weight f4 [16, 1, 5, 1]
000000 a2 81 76 3e 06 5d 9a be 4a 90 d4 3b 09 15 b7 3e
       0.24072888 -0.30149096 0.006486927 0.35758236
000010 98 e3 81 3e a6 98 c3 3c 6a e9 ac 3e dc c3 eb 3a
       0.25368953 0.0238765 0.3377183 0.0017987448
000020 7c e5 16 3e 53 78 8a be b5 b4 58 be 54 70 9b be
       0.14735979 -0.27044925 -0.21162684 -0.30359137
000030 f9 b5 4a bd 8d ac 91 3e 77 b5 de bd 25 ab 1b bd
       -0.04948995 0.28451958 -0.108744554 -0.038005013
000040 0f 28 36 3d e6 28 3b 3e ac a3 d3 3e 96 f1 22 3c
       0.044471797 0.1827732 0.4133581 0.009945294
000050 f5 33 c5 be ef 17 cb bd f9 ef e8 3c 32 e0 a4 be
       -0.38516203 -0.09916674 0.02843474 -0.32202297
000060 0e 65 b4 3e 5d ee ed 3d c8 05 81 3e 43 eb c3 be
       0.3523335 0.1161773 0.25199723 -0.38265428
000070 ce 29 62 3e 35 60 1f 3e 52 dc 8d be a7 f3 33 be
       0.2208626 0.15564044 -0.27707154 -0.17573415
000080 6b 33 3d be 28 87 46 3e d0 60 47 bc 28 9a 87 3d
       -0.18476646 0.19387496 -0.012169078 0.066212
000090 44 13 6a bd 64 4e db 3e 90 c6 ce 3e 5e b5 06 3e
       -0.05714728 0.42833245 0.40385866 0.13155124
0000a0 e4 07 47 3d 5e c7 a9 be b7 af b0 3e 33 df 6b 3e
       0.04859151 -0.33159918 0.3450906 0.23034362
0000b0 a5 d2 c8 3d 3a b6 a0 be ba 52 99 be d1 ec b9 3d
       0.09805802 -0.31389028 -0.29945928 0.09078372
0000c0 fb 23 08 3e 5a fd c7 be d8 40 8c bd d8 3b 8d bd
       0.13294975 -0.3906048 -0.068483055 -0.0689618
0000d0 d9 a2 e8 be 60 9b a7 bc 35 a5 bf 3e 79 98 dd be
       -0.45436743 -0.02045983 0.3743073 -0.4328039
0000e0 9c be e1 be 5e a7 97 3e bd c2 49 3e 65 2b bf 3e
       -0.44090736 0.2961988 0.19703193 0.37337795
0000f0 b8 f6 2f be 9f 33 6d bd 4c 4d 80 bd 42 a6 cf 3e
       -0.1718396 -0.057910558 -0.06264743 0.40556532
000100 aa 37 86 be 62 b9 b4 be 2b 1e b2 3e 4a 7f 37 be
       -0.26214343 -0.35297686 0.3478864 -0.1791965
000110 cc 85 b1 3d 23 22 9e bd 4f 81 c8 bc 8d 04 1f b9
       0.08668098 -0.07721355 -0.024475722 -0.00015165117
000120 a2 22 95 be 32 8e e2 be dd 3b 81 3e c2 a3 b7 3e
       -0.29127985 -0.4424911 0.25240985 0.35867125
000130 37 df 52 bd 6e 17 26 3e 7e a9 4a 3e dd 42 d0 be
       -0.051482406 0.16219875 0.19791219 -0.40676013

ConvBase.1.feature.lis.1.X_conv.conv.bias f4 [16]
000000 01 03 af 3c 66 1c b5 3d d9 f4 53 3d 38 71 e7 be
       0.021363737 0.08843307 0.051747177 -0.45203567
000010 79 85 95 be ec d8 c9 be 55 74 e9 be 2a f3 c9 3d
       -0.29203394 -0.3942331 -0.45596567 0.09860833
000020 45 0a 22 3e 2b 7d 16 be 5e 98 9c 3e 26 d5 93 3e
       0.1582423 -0.14696185 0.30584997 0.28873557
000030 15 df 86 3d 35 0e fd 3d b2 df d4 be 43 ff 8c 38
       0.06585518 0.123562254 -0.41576916 6.7232664e-05

ConvBase.1.feature.lis.1.Y_conv.conv.weight f4 [16, 1, 1, 5]
000000 27 7e 87 3e b9 b5 b4 3e ae 98 b9 be 54 fa 49 be
       0.26463434 0.35294893 -0.36249298 -0.19724399
000010 3d 3c ca 3c 71 a2 aa 3e 09 eb da 3e c6 7e d8 bd
       0.024686927 0.33327058 0.42757443 -0.10571055
000020 b6 48 8e ba d7 7a db be 70 93 a8 be aa 01 60 3d
       -0.001085541 -0.42867157 -0.32924986 0.054689087
000030 c4 e0 83 3e ee 6a 9e be 03 c1 71 be 62 1c 8a be
       0.2575742 -0.30940956 -0.23608784 -0.2697478
000040 e5 7d 7e 3e a5 56 ec 3e 17 7c 59 be f6 0a af be
       0.24852712 0.46159855 -0.21238743 -0.3418805
000050 4a c3 85 be 31 b9 c7 3e 9f 9c c6 3e 2c d0 b4 be
       -0.26125556 0.39008477 0.38791367 -0.35315073
000060 f3 8f 4b 3e 92 71 79 be a4 17 47 be 75 7f b5 be
       0.19879131 -0.2435973 -0.19442612 -0.35448804
000070 56 9b ef 3d 12 d4 c2 be 5e 33 95 3d 87 43 e7 bd
       0.1169955 -0.38052422 0.07285188 -0.11292177
000080 9d 78 2f 3d cc 0d 88 3e 22 a0 d0 3d bc 11 b3 be
       0.042839635 0.26573026 0.10186793 -0.34974468
000090 01 1d 7c 3e da 0b 84 bd 75 0d dd bd 61 88 72 3d
       0.24620439 -0.06447573 -0.10793582 0.059212092
0000a0 b6 b4 48 bd fa 7f d4 be fe cb b7 bd c7 d0 30 3e
       -0.049000464 -0.41503888 -0.08974455 0.17267142
0000b0 63 a7 95 be cf bd 51 3e 80 4b af be 76 ab 09 be
       -0.29229268 0.20482562 -0.3423729 -0.13444313
0000c0 d9 b2 d7 3e 9d 1a a4 3e 6f eb 7c 3e f4 96 07 3e
       0.42128637 0.32051554 0.24699186 0.13241178
0000d0 b9 60 ac bd 60 bc 4e 3e 71 fa 8d be 70 f8 cd 3e
       -0.08416886 0.20189047 -0.27730134 0.40228605
0000e0 4c 27 bc be f5 aa 84 3e a4 a1 01 be bb 6f f8 bd
       -0.3674873 0.2591168 -0.12659317 -0.12130686
0000f0 db 26 e4 3e 79 b4 65 be 4a 72 29 3e 5d 07 d9 3e
       0.44560894 -0.22432126 0.16547504 0.4238843
000100 1b c5 93 3a c7 06 9c 3e ae a3 bc 3c 96 75 7c 3e
       0.0011273952 0.3047392 0.023027267 0.2465423
000110 a1 23 d0 3e 77 33 84 be 3e e3 98 be 39 e6 db be
       0.40652183 -0.25820515 -0.29860872 -0.42949083
000120 f4 f2 b8 3e 22 98 d9 be ec cb cb 3e b6 4f a7 3e
       0.3612286 -0.4249888 0.39804018 0.32678002
000130 a7 b0 a0 bd 6b 77 ee be 66 ac 89 be 78 9a 4e bb
       -0.07846194 -0.46575484 -0.26889342 -0.0031525176

ConvBase.1.feature.lis.1.Y_conv.conv.bias f4 [16]
000000 6f 71 48 3e ee bd 85 3e 43 ac 0e be a5 54 8c 3e
       0.19574521 0.26121467 -0.139329 0.2740833
000010 1a 58 f6 3d 9c 21 79 3d b1 d8 7b 3d 73 16 16 3e
       0.12028523 0.060823068 0.06148595 0.14657001
000020 3e 79 b6 3e 89 5d 87 3d 7b b6 d8 be af 7f 2f be
       0.35639375 0.06609637 -0.42326722 -0.17138551
000030 81 84 bc be cf c1 40 3e ff c9 a5 be a1 ae bc be
       -0.36819842 0.18823932 -0.32380673 -0.3685198

ConvBase.1.feature.lis.1.pointwise.weight f4 [16, 16, 1, 1]
000000 5c 79 3f be 33 91 72 be 7c a5 0e be a1 b0 2c 3e
       -0.18698639 -0.23688202 -0.13930315 0.16864254
000010 be 5a 5f be ff b6 e7 3d ea ed b4 3d 83 95 6d 3e
       -0.21811959 0.113142006 0.08834441 0.23201565
000020 dd 8f 36 bd 83 58 ba bd e1 90 3e bd 33 e1 0c 3e
       -0.044570792 -0.090989135 -0.046524886 0.13757782
000030 33 a2 4e be 92 eb 68 3e db c6 66 be d9 95 5b 3e
       -0.20179062 0.22746113 -0.22536795 0.21443881
000040 f2 df 2f 3e 50 df c1 3d 8b 91 85 3d 16 05 4d bd
       0.17175272 0.094664216 0.06521901 -0.05005368
000050 4e a3 4e be 11 5b 37 be 4c 4a 1d 3e 86 ff 4b 3e
       -0.20179483 -0.17905833 0.15360373 0.19921693
000060 10 d9 e9 3c c3 1c 16 3e 73 72 52 be 24 6b ce 3d
       0.028545886 0.14659409 -0.20551471 0.10079029
000070 cc 55 f0 bd 91 07 c4 3d c5 36 37 3e 22 79 33 3c
       -0.117351145 0.09571756 0.17891987 0.010954173
000080 ed e3 1e be 27 d8 c7 bd 6d 0a 13 bd 9a ea 78 3d
       -0.15516634 -0.09758025 -0.035898615 0.06077061
000090 12 63 96 be 11 4f 01 bc 84 65 ac 3d f3 36 44 be
       -0.2937246 -0.007892386 0.084178 -0.19161586
0000a0 63 88 02 3e 5f 78 af 3c ab a2 4f be e9 67 3f 3e
       0.1274734 0.021419702 -0.20276897 0.18691982
0000b0 59 56 0a 3a 3a 40 21 be 77 93 bd bd 6d 28 79 be
       0.0005277149 -0.15747157 -0.09256642 -0.24331827
0000c0 9c 09 cb bb d1 18 38 be 05 44 14 3e 0f 65 c1 bd
       -0.006196214 -0.17978217 0.14479072 -0.094431035
0000d0 29 fc 3f be 39 30 60 3d 52 ca 56 3e 95 f5 db 3b
       -0.18748535 0.05473349 0.20975617 0.0067126253
0000e0 b8 69 a3 3d fb 72 5e 3c 27 a9 2c 3e 2b 90 cd bd
       0.079791486 0.013577218 0.16861401 -0.100372635
0000f0 f2 32 b2 3d c7 e2 8a be 2a e7 a9 bc 6f 85 87 be
       0.08701123 -0.27126142 -0.02074011 -0.2646899
000100 72 4e 32 be 67 b5 52 3e c7 85 67 3e 62 78 37 3e
       -0.17412737 0.20577012 0.22609626 0.17917016
000110 6d c8 39 be 52 4a 52 3e ea f6 3d 3e a8 d4 1d be
       -0.18142863 0.20536163 0.18551221 -0.15413153
000120 ad ac 6f 3e 76 99 f6 3d 09 c9 54 3c 55 c2 6e bc
       0.23405714 0.12040989 0.012987384 -0.0145727
000130 32 53 e5 bd f6 87 1a be d3 49 9b 3d 6f dd 08 be
       -0.11197509 -0.15090927 0.0758244 -0.1336572
000140 c6 cb e7 3d f1 28 d1 bd 9d 80 12 bd 31 61 9e bd
       0.113181636 -0.10212887 -0.035767186 -0.077333815
000150 94 df ad bd 77 d0 e4 3c b3 d8 54 3d 8f 4a aa bc
       -0.0848991 0.027931435 0.051964473 -0.020787505
000160 1c f1 15 be da 4a 47 bd 92 98 ff 3c 28 11 65 be
       -0.14642757 -0.04865537 0.03120068 -0.22369826
000170 54 b3 43 3b 2d 96 0c be ae 32 c8 bc 60 0c 3a 3e
       0.0029861527 -0.13729163 -0.024438228 0.18168783
000180 ee 90 7b be 93 32 0d 3d 52 c4 8e bd d9 d8 87 3c
       -0.24567005 0.03447206 -0.06971039 0.016582893
000190 13 e2 9c 3d 4f 24 44 be ee e5 9e bd 7d 8c 18 3d
       0.07660308 -0.19154476 -0.07758699 0.037243355
0001a0 77 65 29 be 01 d8 16 3e 8f 30 88 3e db 74 cb bc
       -0.16542612 0.14730836 0.26599547 -0.024835994
0001b0 23 46 31 be 6c e7 f8 bc 10 ca 12 bd 2b 67 66 3e
       -0.17311911 -0.030383788 -0.035837233 0.22500293
0001c0 7e af 3e be fe 69 0b 3e 1f 9d 0a be 0f 71 97 3d
       -0.18621632 0.13614652 -0.135365 0.07394611
0001d0 88 e0 39 3e a4 1e 3b be c1 d4 f7 bc 67 c7 08 3e
       0.18152058 -0.18273407 -0.030252816 0.13357316
0001e0 e6 d9 08 be c7 5e 19 bd 02 cf e8 bd 9a a7 b9 bd
       -0.13364372 -0.037443902 -0.113676086 -0.090651706
0001f0 c0 f9 e6 3c 96 5c 25 be 16 d9 46 bd 9d f0 09 be
       0.028195262 -0.161486 -0.048546873 -0.13470693
000200 68 5d 48 3d cf 53 a4 3d 5e 15 5d be 06 80 80 be
       0.048917204 0.08023798 -0.21590182 -0.25097674
000210 44 ce 39 bd 24 86 c9 3c 5d a4 7d 3e 07 21 c4 bd
       -0.045362726 0.024600096 0.24769731 -0.09576612
000220 06 f5 e7 3d c4 e3 1b be f8 53 83 3e 3b 2b 87 be
       0.113260314 -0.15223604 0.2565 -0.2640017
000230 c4 91 40 3e 84 13 3c be 10 8e 41 3e 45 dc 1a 3e
       0.18805605 -0.1836682 0.18901849 0.15123089
000240 9f cd f6 3d 24 99 88 3d 3a 8b 70 3e bf be bc bd
       0.12050938 0.06669834 0.2349061 -0.092160694
000250 fd d7 0e 3b 65 1f 4a bb af 80 60 3e c7 a5 f4 bd
       0.002179622 -0.0030841467 0.21924089 -0.11945682
000260 84 da d0 bb b2 21 59 3e 76 44 0b be 91 dc 93 3d
       -0.0063737053 0.2120426 -0.13600335 0.07219804
000270 8d bf b2 bb 61 ac 52 be c0 92 1a 3e a7 aa 0a 3e
       -0.0054549635 -0.2057357 0.15095043 0.13541661
000280 b7 4c 89 3e 09 7b 71 3e a1 f6 2a bd 8e 02 a2 3d
       0.2681634 0.2358209 -0.04173911 0.079106435
000290 83 56 00 3e 9b 2a 18 3d ac 32 55 be a9 8b 4e 3c
       0.12533002 0.037150007 -0.20820111 0.01260654
0002a0 79 17 27 be 7e 93 60 3e 4c 32 55 3e e9 6b 10 be
       -0.16317548 0.21931264 0.20819968 -0.14103664
0002b0 fe 58 52 3e 69 f8 02 be 65 52 6e be d8 81 48 be
       0.2054176 -0.12790073 -0.23273619 -0.19580781
0002c0 af a2 20 be a6 21 0f bc 06 03 50 bd 47 5c 65 3e
       -0.15687059 -0.00873605 -0.050784133 0.22398482
0002d0 81 20 cc 3b 62 a4 37 bd 3a bf 85 bd 51 c3 2c be
       0.0062294607 -0.044834502 -0.06530614 -0.16871382
0002e0 0e d0 85 3d a7 2d 0c 3e fc 81 90 3d aa 68 ed 3d
       0.06533824 0.1368929 0.070560426 0.11592229
0002f0 f6 bf 80 3d 90 9c 00 be f5 ff 59 be f9 b3 8a 3c
       0.06286614 -0.12559724 -0.21289046 0.01693152
000300 d7 79 01 3e 0b 9d 70 be 80 b9 83 bd 1b e9 06 be
       0.12644134 -0.23497407 -0.06431866 -0.1317486
000310 59 ba cb 3d 27 43 21 be 35 26 c7 3d 16 e3 9a 3c
       0.09947652 -0.15748273 0.09724084 0.018907111
000320 76 10 15 3e ae 16 4e be ef 3b 77 3d b9 51 1b 3e
       0.1455706 -0.20125839 0.06035989 0.15167893
000330 ec a2 0d 3e 25 7f a8 bd 48 18 59 bc 31 f7 84 be
       0.13831681 -0.08227376 -0.013250418 -0.25969842
000340 ff e6 57 be 02 f7 40 3e c3 e0 15 be f1 87 5b bd
       -0.21084212 0.18844226 -0.14636521 -0.05359644
000350 46 2a 15 3e cc c3 cd bd 67 6e 73 be b7 0a 4f bd
       0.14566907 -0.10047111 -0.23772584 -0.050547328
000360 89 5c d4 bd 97 ff f9 bc 1e 5b 18 3e 1a 0c 1d be
       -0.10369212 -0.030517383 0.14878508 -0.15336648
000370 b5 ad 10 3e ae c5 37 3e 76 e2 fb bd 9e e0 57 be
       0.14128764 0.17946503 -0.12299053 -0.21081778
000380 30 2f 09 3e 84 9a 93 bc df 15 f8 bd 8e ff 19 3e
       0.13396907 -0.018018015 -0.121135466 0.15038893
000390 f3 19 69 bd a8 3d cb 3d 61 92 a1 3d b1 1d 60 3e
       -0.056909513 0.09923869 0.07889248 0.21886326
0003a0 53 7b db 3d 72 f7 44 be 19 17 0a be 45 1a 28 bc
       0.107168816 -0.19235018 -0.13485374 -0.010260169
0003b0 64 8a 21 3e 5b c4 2d be ce 57 57 3e 5b 18 d5 bc
       0.15775448 -0.16969435 0.21029589 -0.02601259
0003c0 5c 81 17 bd 84 29 10 be 1b 45 3b 3e 89 c0 62 be
       -0.0369886 -0.14078337 0.1828808 -0.22143759
0003d0 12 77 85 bd 01 ff 5e 3d 9c a8 22 bb 8f a9 37 be
       -0.065168515 0.05444241 -0.0024819737 -0.17935775
0003e0 a5 2e da bd 65 64 9e bd c5 2e 4b bd d7 7a 4f be
       -0.10653428 -0.077339925 -0.04960515 -0.20261703
0003f0 17 e6 32 bd 05 55 5c 3e df c7 8e 3e 68 e3 d3 bd
       -0.043676462 0.21516807 0.27886865 -0.10346109

ConvBase.1.feature.lis.1.pointwise.bias f4 [16]
000000 ea ac 73 3e 9f 60 69 be 31 7a 1b 3e 61 34 2a be
       0.2379643 -0.22790764 0.15183331 -0.16621543
000010 db 22 b1 bd 1c 2a 82 be 5c 75 4c be e2 8a e6 3d
       -0.08649226 -0.25422752 -0.19966644 0.112569585
000020 4a 11 2d be 54 8c 85 3e 3f 62 d2 bb 6d 28 10 3e
       -0.16901127 0.26083624 -0.0064204033 0.14077921
000030 51 0f 94 3d 7d b1 ac 3c 17 bd 0f 3e d9 59 8d be
       0.07229484 0.021080727 0.14036976 -0.2760761

ConvBase.1.feature.lis.2.X_conv.conv.weight f4 [16, 1, 7, 1]
000000 12 f6 88 3e 5f ed b4 be 61 ee c8 3e 19 a3 f9 3d
       0.26750237 -0.3533735 0.3924437 0.121893115
000010 39 c8 b5 3e 98 15 c9 bd e4 0c 96 be 67 9d b3 3d
       0.3550432 -0.09818572 -0.2930671 0.087702565
000020 1e 52 09 3c 91 72 15 3e 87 5e ae 3d e7 50 29 be
       0.008381395 0.14594485 0.085141234 -0.16534768
000030 2d af 3a 3e 88 29 9b 3e a4 1f 17 be d6 6a b5 bd
       0.18230887 0.30305123 -0.14758164 -0.08858268
000040 6a 1a ab be 7a 73 0f 3e b9 0b 77 be d4 53 9c 3e
       -0.3341859 0.14008895 -0.24125566 0.30532706
000050 c7 e1 b1 bc 69 94 b6 be 21 22 18 3e 03 89 52 be
       -0.021714104 -0.35660103 0.14856769 -0.20560078
000060 cb f8 a4 3e 05 a8 b6 bd df 32 3e be 2c 47 e8 3c
       0.32221064 -0.08918766 -0.18574093 0.02835425
000070 dd 97 bb 3d fa 70 58 3e 8f 49 95 3e f9 0e b5 3e
       0.09159825 0.21136847 0.29157683 0.35362986
000080 22 ab 42 3e 98 8d 8e be 9f ba a2 3e 9b 83 2c bd
       0.19010594 -0.27842402 0.31783006 -0.042117696
000090 9a 64 ef bd e8 03 1c bd 38 b6 a6 3e ed 79 a6 be
       -0.1168911 -0.038089663 0.32560897 -0.32514897
0000a0 5d 49 37 be 86 95 41 be 63 94 0a be b3 25 87 be
       -0.1789908 -0.18904695 -0.13533168 -0.2639595
0000b0 14 6c 6b be ca f9 52 3d 8e e8 a4 3d f7 fc c9 be
       -0.22990447 0.05150775 0.08052169 -0.3945081
0000c0 2d 8c 45 3e 89 96 91 be f6 ba 5c be 6e 42 b8 3e
       0.19291754 -0.28435162 -0.21555695 0.35988182
0000d0 7b ef 85 3e 96 87 8e 3e 1b 2d 48 3e 0b 79 ae 3e
       0.26159272 0.2783782 0.19548456 0.34076723
0000e0 4a c6 a1 be 39 4c 9b 3e 6b 80 4f 3e e9 03 31 bd
       -0.31596595 0.3033159 0.20263831 -0.04321662
0000f0 22 a3 0a 3e 19 4d a4 3c fa 87 04 be b2 8c 7d 3e
       0.13538793 0.020056294 -0.12942496 0.24760702
000100 ed 4c 7c 3e eb 32 8f 3e b6 fa bd 3d 3e c6 b5 be
       0.2463872 0.27968535 0.09276335 -0.3550281
000110 81 d7 a3 bd c4 52 b6 be e8 01 b2 3e 39 fa a7 3e
       -0.080000885 -0.3561002 0.3476708 0.32808092
000120 2a a7 5a 3e 19 82 2e be 6f f1 cd 3d a6 07 09 be
       0.2135283 -0.17041816 0.100558154 -0.13381824
000130 75 6f 84 3e 30 93 f1 3d fa 06 1d 3d e4 14 ea 3d
       0.25866285 0.11795652 0.03833673 0.11429766
000140 ca 28 90 3e 34 b2 e3 bd 0f fd 64 be 7d b9 0c be
       0.2815612 -0.11117974 -0.22362159 -0.13742633
000150 95 83 43 3d 49 20 0e be 21 6f bd 3d 8f 4e e6 3c
       0.04773291 -0.13879503 0.09249712 0.028113632
000160 cb 29 be 3c 5b cb 23 3e f6 5d ae be 96 65 0e be
       0.023213288 0.15995543 -0.34056062 -0.1390594
000170 ef 93 ab 3c d0 74 66 3e 57 1e c5 be b5 af 4a be
       0.020944564 0.22505498 -0.3849971 -0.1979359
000180 8b 7a 9d be 39 ca c2 be b7 95 c4 3d a8 b0 bf 3e
       -0.30757555 -0.3804491 0.09598868 0.37439466
000190 3c 4c 63 bd f1 e2 47 be e4 92 3b be ab a4 e8 bc
       -0.055492625 -0.19520165 -0.18317753 -0.028398832
0001a0 2a c0 2b 3d 28 59 a1 3e 2d 53 1c 3e 3c 10 99 be
       0.04193131 0.31513333 0.15266104 -0.29895198
0001b0 20 b4 4a be 68 b8 18 3e a9 97 88 be 8d 89 ca bc
       -0.19795275 0.14914095 -0.26678208 -0.024723792

ConvBase.1.feature.lis.2.X_conv.conv.bias f4 [16]
000000 f8 fe 49 bd 63 a0 7c 3e b4 df 16 be f6 b5 19 be
       -0.049315423 0.24670558 -0.14733773 -0.15010819
000010 a7 09 21 bd 3e 10 4f 3e 4d 58 66 3e 54 8a bd 3d
       -0.039315846 0.2022104 0.22494622 0.092548996
000020 78 f3 31 3e 8d 2c a0 bd 44 d5 ac 3e a9 a4 ba 3d
       0.17378032 -0.078209974 0.3375646 0.09113438
000030 2e 86 5f 3c e6 b7 ec bd 80 f3 ba 3e a9 5b bb bd
       0.013642831 -0.11558513 0.365139 -0.09148342

ConvBase.1.feature.lis.2.Y_conv.conv.weight f4 [16, 1, 1, 7]
000000 53 d6 16 3d 0a a3 7b 3e c0 27 8f be 2f d2 f3 bd
       0.03682549 0.24573913 -0.27960014 -0.11905324
000010 61 f3 7c 3d 3e f9 ac be 23 26 ac 3e 1e c0 81 3d
       0.06175554 -0.33783907 0.33622846 0.063354716
000020 ac 30 a8 be b4 35 d2 3d 74 c4 5d bb 41 95 9f be
       -0.32849634 0.10264149 -0.003383902 -0.3116856
000030 40 72 3a 3e 84 8a 03 3e c3 fa f8 bd 5d 93 48 3d
       0.18207645 0.12845808 -0.12157204 0.04896866
000040 22 29 6d be 5e 5c 84 3e 9f ec 99 3d 0c fd 1f 3e
       -0.23160222 0.2585172 0.07515835 0.15623873
000050 29 59 29 bc c2 e0 bf bd be 6b 96 3e a4 e3 65 3d
       -0.010336199 -0.09369041 0.29379076 0.0561253
000060 a4 3c b1 3e d7 1d f7 38 62 0a e9 3d 65 0d a4 3e
       0.34616578 0.00011783436 0.113789335 0.3204147
000070 9b dc 80 3e a1 47 4a 3e a5 4b 58 3e f3 0b 05 bd
       0.2516831 0.19753887 0.21122606 -0.0324821
000080 b5 9b 07 3e c1 f9 02 3e 2b 8d 62 3e e5 79 14 3e
       0.13242991 0.12790586 0.22124164 0.14499624
000090 0d 03 7e bd e8 a9 c1 3d 8c ef d4 be 71 13 06 3e
       -0.06201463 0.09456235 -0.4158901 0.13093354
0000a0 e2 bf 9f 3d c2 ea 90 3e 8d 11 36 3e 00 d1 85 be
       0.078002706 0.28304106 0.17780133 -0.26136017
0000b0 98 f9 b5 be f0 04 55 3e b6 db b9 3c d5 a7 a4 3e
       -0.35541987 0.20802665 0.022687774 0.32159296
0000c0 f7 10 9c bc 4b 32 07 be 56 5a aa bc 95 af 0f 3e
       -0.019051058 -0.13202779 -0.020795029 0.14031823
0000d0 c2 48 8b be 3d a4 a3 be ce 23 1e bc 25 b1 dc 3d
       -0.27203947 -0.3196124 -0.009652091 0.10775975
0000e0 b1 67 ba be 8d a3 df 3d 16 c6 b4 be 6c 36 86 be
       -0.36407235 0.10919867 -0.35307378 -0.26213396
0000f0 4d 20 8b 3e 08 2d a5 3b 7a 7d 97 bd 70 e9 98 bd
       0.2717308 0.0050407685 -0.0739698 -0.074664
000100 cb 19 be be 55 2b 3d be f4 c9 f2 3d 5d 48 07 3e
       -0.37129053 -0.18473561 0.11854926 0.13211198
000110 96 bf 3e be b7 ff 91 be d8 f3 b0 bd 41 7b 23 3d
       -0.18627772 -0.28515407 -0.086402595 0.039912466
000120 11 95 9b 3e b6 9d 10 3e a7 29 d5 3d d7 d8 89 3e
       0.30387166 0.14122662 0.10408335 0.26923248
000130 9c b2 a1 be 36 f7 5a 3e da 03 83 be d8 89 24 3e
       -0.3158158 0.21383366 -0.25588876 0.16068208
000140 19 c0 1b be 04 49 30 be 0a dc c1 be 18 7c b1 3e
       -0.15209998 -0.17215353 -0.3786319 0.3466499
000150 da d6 01 3e 12 91 29 3e 23 14 1d bd a6 79 76 be
       0.12679616 0.16559246 -0.038349282 -0.24069843
000160 c3 32 88 3d af 7b 99 3e 02 f2 09 be 54 07 9d bc
       0.06650307 0.29977176 -0.13471225 -0.019168533
000170 3a ef 00 39 b5 ec 59 3e 01 1c e8 3d 1d aa cf 3e
       0.0001229615 0.21281703 0.11333466 0.40559474
000180 24 8c 30 3e 94 72 41 be bf 70 5c 3e 23 58 43 bd
       0.1724096 -0.18891364 0.21527384 -0.047691476
000190 bd b0 13 be 98 ad ba bd 12 00 8b 3e d4 5c b5 3e
       -0.14422889 -0.09115142 0.2714849 0.35422385
0001a0 89 65 64 3e 5c 02 85 be 33 fd bc 3d 86 be b0 be
       0.22304358 -0.25978363 0.092279814 -0.34520358
0001b0 b6 11 82 be a5 2d e3 3a bf 12 48 bd 8c 38 a8 3e
       -0.25404137 0.0017332329 -0.048846003 0.32855642

ConvBase.1.feature.lis.2.Y_conv.conv.bias f4 [16]
000000 dd df b5 3d 2b fa 28 3e f1 ce b0 be c2 e8 bd be
       0.08880589 0.16501682 -0.34532884 -0.37091643
000010 ea 93 7c be 7c 2d a8 bc 5b 9a 27 3e 83 4f 7c bd
       -0.246658 -0.020529501 0.16367476 -0.061599266
000020 bc 70 c5 3d 71 b2 ae 3e a2 39 df bd 9d 12 a3 3e
       0.09640643 0.34120515 -0.108996645 0.31850138
000030 da 1c 92 be e6 f1 df 3d 46 d9 ae 3e 0f 5a 93 3e
       -0.28537637 0.1093481 0.3415014 0.28779647

ConvBase.1.feature.lis.2.pointwise.weight f4 [16, 16, 1, 1]
000000 21 ae c2 bd 84 67 bb bd 23 1d 5b 3e 2e 1a 60 3e
       -0.09505869 -0.091506034 0.21397834 0.21884987
000010 4c bf 71 3e 5d 47 4b 3b 7c f3 e9 3d ca 42 ee 3d
       0.2360813 0.0031017878 0.11423394 0.11633833
000020 02 8e 62 be 47 a4 09 3c 82 00 0b 3e 30 29 43 3e
       -0.22124484 0.008400983 0.13574412 0.1905868
000030 36 0a 15 3e 5e b3 6d bd 36 b3 56 be 6b 4e 44 be
       0.14554676 -0.058032386 -0.20966801 -0.19170539
000040 92 c8 32 3e 39 d3 08 be fa b4 0e 3e 35 19 c5 3d
       0.17459324 -0.13361825 0.13936225 0.096239485
000050 08 e0 e7 bd 99 9e 62 bd 0b a2 b0 3c e9 87 ff 3b
       -0.113220274 -0.05532703 0.021561643 0.007798184
000060 e7 7f 91 3d 4b 09 cf 3c 86 03 24 be 37 fe b8 ba
       0.071044736 0.025272986 -0.16016969 -0.0014113848
000070 fc d6 85 bd 3d 90 3b bd 21 e1 56 3e 89 53 1a be
       -0.06535146 -0.045791853 0.20984317 -0.15070929
000080 5f 65 4e be a8 96 30 3e ae aa 55 3e f3 0d 7e 3e
       -0.20155858 0.17244971 0.2086589 0.24810009
000090 0f fa 36 be e9 d5 43 3e ab 0d ed 3d 3a ca 89 bc
       -0.17868827 0.19124569 0.115748726 -0.016820062
0000a0 5a df 01 3e 2a d2 eb 3d ed b4 a8 3d a0 3b 91 3d
       0.12682858 0.11514695 0.08237634 0.07091451
0000b0 71 8e 26 3e c6 f4 25 3d f7 9b 44 be de 4a 09 be
       0.16265275 0.040516637 -0.19200121 -0.13407466
0000c0 bf 29 80 be 03 2a 32 be cf 69 16 3c ad 6a 25 3d
       -0.2503185 -0.17398839 0.0091805 0.040384937
0000d0 7c 2e 22 3d 5e d5 23 be 51 24 73 be 9b b3 6d bd
       0.039595112 -0.15999362 -0.23744322 -0.058032613
0000e0 87 c8 6d 3e f1 16 e9 bd 48 57 0f 3e 44 40 85 be
       0.23221026 -0.11381329 0.13998139 -0.26025593
0000f0 76 e1 fd 3d 01 91 7a 3e d3 82 95 bd b6 78 3e be
       0.12396519 0.24469377 -0.07300343 -0.18600735
000100 d9 b0 94 bd 00 42 42 3e 31 a1 84 be 18 f8 4f 3e
       -0.072602935 0.1897049 -0.2590423 0.20309484
000110 f7 9b c8 bd 7b 05 f5 bd b9 8d 1b 3d ad b6 93 bd
       -0.09795373 -0.11963936 0.037976954 -0.07212577
000120 6c 5d 60 3d e7 1b 2c 3e 96 14 4c bd 6d 57 5a be
       0.054776594 0.16807519 -0.04982432 -0.21322413
000130 47 88 24 be 6a 74 d3 bd c1 d6 70 bc 13 6a f0 3d
       -0.1606761 -0.103249386 -0.014699639 0.11738982
000140 68 15 d0 3d 54 80 30 bd d4 ad cd 3d b1 99 e7 bd
       0.10160333 -0.043091133 0.10042921 -0.11308611
000150 5e b8 5e 3e ec 96 7d 3e aa a1 3f 3e ab 07 b1 3d
       0.21750018 0.24764603 0.18714014 0.08644041
000160 e0 61 87 3e e1 45 af bd fd 29 74 3e d0 30 94 3a
       0.2644186 -0.0855825 0.23844142 0.0011306051
000170 5e 94 01 3e 9c b4 05 3d 9f ab 23 3e 93 ec 6e be
       0.12654254 0.032642946 0.15983437 -0.23332433
000180 2b ad 02 3e 7d 42 d9 3d 46 3e 9c 3c 97 77 d7 bd
       0.12761371 0.10608385 0.019072663 -0.10520857
000190 43 13 01 be ef e2 dd bd da 3b e0 bd e6 e7 36 3e
       -0.12605004 -0.108343 -0.10948916 0.178619
0001a0 38 e4 85 3e 75 df 36 3d e7 72 3b be bd db 30 be
       0.2615068 0.0446467 -0.1830555 -0.17271324
0001b0 b3 d1 78 3e b0 d8 92 bd 75 9c 98 3d 32 f9 cc 3d
       0.24298744 -0.07170236 0.07451717 0.10008468
0001c0 51 ea 10 3e 54 a2 e9 3d 53 fb d2 bc 6d 4f 70 3d
       0.14151885 0.11407915 -0.025754606 0.058669496
0001d0 ec 32 4d bd 59 da b7 bd 6f 93 a1 3d fd 1a 09 be
       -0.05009739 -0.089771934 0.07889449 -0.13389201
0001e0 1d e0 f1 3d f6 a1 db 3d 85 ea e4 3a 26 7e 6a 3e
       0.11810324 0.10724251 0.0017464912 0.22899684
0001f0 c5 21 92 3d cf d1 01 bd 85 d8 92 bd c0 d7 d3 3d
       0.07135347 -0.03169423 -0.07170204 0.103438854
000200 bd f6 5e be 2d eb 21 3e e8 7b 1f 3e ce 4a 01 3e
       -0.2177381 0.15812369 0.1557461 0.12626192
000210 43 c4 36 be 30 da 7b 3d 9e 69 66 bd f3 17 40 3e
       -0.17848305 0.061487377 -0.05625307 0.18759136
000220 69 a9 8a ba 85 bd a8 3d 7d 76 7f bd 22 10 b3 bd
       -0.0010579053 0.08239273 -0.06236886 -0.087433115
000230 90 2d 50 3e b4 fb 85 3e 18 72 d9 bd a3 ee e8 bd
       0.2032988 0.26168597 -0.10617465 -0.11373641
000240 a4 a8 bc bd 8e f5 54 3e aa ef 80 bd 92 45 16 3e
       -0.09211853 0.20796797 -0.06295712 0.14674976
000250 14 a6 a0 3d ff 97 9c 3d ed 86 80 3e d7 3d 5d be
       0.07844177 0.076461785 0.2510294 -0.21605621
000260 eb 08 af 3d 7d aa 70 3e c0 26 46 3e e8 f2 34 3d
       0.08546623 0.23502536 0.1935072 0.044176966
000270 c2 e5 16 3e 66 35 ce bd 6c 99 f4 bb 62 91 03 3e
       0.14736083 -0.10068779 -0.0074645784 0.12848428
000280 e9 14 60 be 6c 86 95 3d 09 5a aa 3c 63 4a 13 3e
       -0.21882977 0.073010296 0.020794885 0.14383845
000290 2e 48 2e 3d 92 7d ec bd 50 08 17 3d 63 2b 75 3d
       0.042549305 -0.11547388 0.03687316 0.05985583
0002a0 2b 58 4d 3e 59 ce 35 bd 89 a6 49 3e 7a 31 5c 3c
       0.20053165 -0.04438624 0.19692434 0.0134395305
0002b0 3d 79 72 3e 38 64 09 be f4 ab 1d be 45 a8 56 3e
       0.23679061 -0.13417137 -0.15397626 0.20962627
0002c0 34 14 79 be 72 c4 13 be c3 3c 83 3e e4 86 db bc
       -0.24324113 -0.14430407 0.25632295 -0.02679772
0002d0 27 df 48 be c8 ce 5f be f0 ec 69 be 31 f5 3f 3c
       -0.19616376 -0.21856225 -0.2284429 0.011716173
0002e0 ce 30 09 be 75 15 e2 bc 88 cb a4 3c 72 87 64 3e
       -0.13397524 -0.027598122 0.020116583 0.22317293
0002f0 42 04 09 be bf 20 c4 3d 2d 21 d6 3c 3f 50 ca 3d
       -0.1338053 0.09576558 0.026138866 0.09878587
000300 b1 ea c2 3c c7 6b 49 3b b8 03 14 3d ff 11 7e be
       0.02379355 0.0030734406 0.03613636 -0.24811552
000310 6c 28 d7 3c 73 f1 1f be 6a b7 ca 3d ac 42 38 be
       0.026264392 -0.1561945 0.09898265 -0.17994183
000320 e4 b0 89 3d 82 b4 e0 bd a9 04 11 be e0 11 32 3e
       0.06723192 -0.10971929 -0.14161934 0.17389631
000330 ed 33 ae bc 50 a8 8f bd c2 91 2c 3d bf 5e 0c 3d
       -0.021264995 -0.07014525 0.042131193 0.034270044
000340 aa 8f 48 be b7 28 fa 3c 9b e5 1b be b7 b7 88 be
       -0.19586053 0.030536992 -0.15224306 -0.26702663
000350 2d 95 52 bd b1 98 5f bd d1 eb 9d 3c c8 0c fd 3d
       -0.051411796 -0.054588977 0.019277485 0.123559535
000360 1a 71 6e 3e b2 b5 4c 3e d7 b8 23 3e 2a 92 65 be
       0.23285332 0.19991186 0.1598848 -0.22419038
000370 93 91 84 3e a1 37 32 be 12 66 d4 3d 25 19 84 be
       0.25892314 -0.17404033 0.10371031 -0.25800434
000380 57 27 03 3d 01 d2 e0 bd 8e f3 67 3e 40 ff 48 be
       0.03201994 -0.10977555 0.22651502 -0.1962862
000390 78 1d 78 bc 24 2c 1e 3e 1b 76 d1 3b e6 11 2e be
       -0.015143745 0.15446526 0.006392253 -0.16999015
0003a0 b7 7f 6a bb 12 74 4d be 07 e1 1b be 05 3a 8a bd
       -0.003578169 -0.20063809 -0.1522256 -0.067493476
0003b0 60 23 4e be 3b ae 0d be d2 0f 14 3d 02 1c c6 3d
       -0.20130682 -0.13835995 0.0361479 0.09673311
0003c0 04 f9 83 3e 8d f4 55 3d ba df fb bd 6e 91 7d be
       0.2577592 0.052235175 -0.12298532 -0.24762508
0003d0 dc ef 95 bd ae 66 2c 3e 0a 20 f3 bc ff b4 77 3d
       -0.0732114 0.16836044 -0.029678363 0.060475346
0003e0 5e 23 8a bd b2 db 54 be 1d b6 88 be da da f4 3c
       -0.06745027 -0.20786932 -0.2670144 0.029889513
0003f0 2e 53 0d be f7 f4 c2 bd c7 d5 6a 3e 6b 65 20 3d
       -0.13801262 -0.095193796 0.22933112 0.03915922

ConvBase.1.feature.lis.2.pointwise.bias f4 [16]
000000 35 09 44 3d fc 88 86 be c9 61 7b bd 66 a8 18 3d
       0.047860343 -0.26276386 -0.061372552 0.037269972
000010 7c 06 45 3c 63 37 e3 bd 2b 6a 31 be 8c 0b 33 3e
       0.012025472 -0.110945486 -0.17325656 0.17484874
000020 03 8f 3d 3e 82 c6 8a 3c 96 77 c5 bb 06 c7 fe bc
       0.18511586 0.016940359 -0.0060262186 -0.031100761
000030 b6 e6 f2 bd 3c 21 ee 3d a4 bc 46 be 70 f5 36 bd
       -0.11860411 0.11627433 -0.19407898 -0.04466766

ConvBase.1.feature.lis.3.X_conv.conv.weight f4 [16, 1, 9, 1]
000000 bf 79 92 bd 25 c3 43 3d ab 53 a4 3e 04 10 8e bd
       -0.071521275 0.047793526 0.32095084 -0.069366485
000010 19 e1 55 be 9c 5c 74 3e d1 e1 a3 bd 18 6e 47 be
       -0.20886649 0.23863453 -0.080020554 -0.19475591
000020 ce e7 6b 3e 14 03 1b 3e 5b c8 86 3e 2b 16 6a be
       0.23037645 0.15137893 0.26324734 -0.22860019
000030 76 6a 95 3d 2e f2 14 be a3 5a d8 3d cb 62 9a be
       0.072956964 -0.14545509 0.105641626 -0.30153498
000040 1d 0d fd bd 56 30 1f bd 0e fb 87 3e fb fc 86 3e
       -0.12356017 -0.038864456 0.26558727 0.26364884
000050 6a b3 97 3e bf ca 32 3b 96 e6 8e 3d 59 31 7b 3e
       0.2962907 0.002728149 0.069775745 0.24530543
000060 51 61 9f 3e bf 72 2b 3e 53 39 69 be a6 90 4f be
       0.31128934 0.16742991 -0.22775774 -0.20270023
000070 7c cb 81 bd 0c 40 a5 be 4c c1 02 3e a6 f8 96 3e
       -0.0633764 -0.32275426 0.1276905 0.2948658
000080 4a c9 60 3d 11 7d 13 be df 83 a8 3e 1f 69 29 3d
       0.054879464 -0.14403178 0.3291311 0.041360017
000090 2e 78 ed 3d 73 70 1b be 27 b5 ac 3e 49 e5 04 be
       0.11595188 -0.15179615 0.33731958 -0.1297809
0000a0 5f a8 a0 3e 37 66 88 3e 8a 8b cc bd 37 88 fa 3d
       0.31378457 0.26640484 -0.099875525 0.12233012
0000b0 57 ec 28 be 5c a3 82 3e aa 4b 89 3e 48 31 99 3e
       -0.16496406 0.25515258 0.2681554 0.2992041
0000c0 24 43 01 be 20 cf 16 3e b0 f3 15 3d b3 f9 21 be
       -0.12623268 0.1472745 0.03660935 -0.15817909
0000d0 b7 de 9f be 89 eb 76 3e b7 27 0b be e4 7c 51 3e
       -0.31224605 0.24113287 -0.13589369 0.20457798
0000e0 33 75 44 3e 28 ee 0b be 30 26 45 be 59 27 4f 3e
       0.19185333 -0.13665068 -0.19252849 0.20229854
0000f0 cf b9 8a 3e 06 10 9e 3e 0c 6f 12 be 63 a2 47 be
       0.27094886 0.308716 -0.14300174 -0.1949554
000100 2c 59 a5 3e 9d 48 44 3e e4 4a 42 3e fd 35 83 3e
       0.32294595 0.19168325 0.18973881 0.25627127
000110 0a ea 23 3e de 63 ed 3d 40 d4 b5 be 62 3f 57 3e
       0.16007248 0.11591314 -0.35513496 0.21020272
000120 b2 af 06 be c5 a7 ba 3d 54 dc 29 bd 69 73 18 be
       -0.1315296 0.09114031 -0.041469887 -0.14887775
000130 2f c4 7e 3e 76 a3 8b be fb 92 ed bc 0d 88 06 be
       0.24879526 -0.27273148 -0.02900075 -0.13137837
000140 64 8d 3c be e7 84 8c be 11 1f 8a be 0e 15 7d be
       -0.18413311 -0.27445146 -0.26976827 -0.24715063
000150 05 77 21 bd 31 4d 5b 3e ce 62 bd 3c da e6 5e be
       -0.039420146 0.21416165 0.023118403 -0.2176775
000160 c7 8d 9f be 9f 7e 30 3e d5 46 9c 3d c6 be 0a be
       -0.31162855 0.17235802 0.07630698 -0.13549337
000170 33 81 8a 3e 1b 9d 81 3e 17 e4 9c be ea 6b ac bd
       0.27051696 0.25315174 -0.3064277 -0.084190205
000180 72 ff 23 be f0 b7 93 3d f4 8f a3 3e 25 26 3e 3e
       -0.16015413 0.07212818 0.31945765 0.18569238
000190 86 f1 2d 3e c2 0c 3a be 59 68 44 bd 5f a1 8b 3e
       0.16986665 -0.18168929 -0.047951076 0.27271554
0001a0 de 59 bc be ae 74 7e be 00 04 36 be e9 30 a0 3c
       -0.36787313 -0.24849197 -0.17774963 0.019554572
0001b0 71 63 27 be 08 22 da bd 70 18 46 3d 5b c4 87 bd
       -0.16346528 -0.10651022 0.04836315 -0.06629249
0001c0 fc bf 2d be fb 8f 7a be c6 64 2a 3d e2 53 6b be
       -0.16967767 -0.24468987 0.04160001 -0.22981218
0001d0 7f 73 35 3e eb a8 9e 3e 21 71 66 be 36 12 30 be
       0.1771984 0.3098825 -0.22504093 -0.17194447
0001e0 1b f1 99 3c 1f 4b af bd 4b 97 f0 bd 79 bf 8d 3d
       0.018791726 -0.0855925 -0.11747607 0.06921286
0001f0 cb 95 4d 3e 98 75 05 3e 7f 9e 86 3c 42 17 73 be
       0.20076673 0.1303314 0.016432999 -0.23739341
000200 5e 75 8d be 49 e5 40 bd 75 49 91 3d c4 46 fd 3c
       -0.27628607 -0.047093663 0.07094089 0.030917533
000210 38 da 94 3e 9f 32 ab be a8 d4 82 be bd 86 83 3e
       0.29072738 -0.33437058 -0.2555287 0.25688735
000220 0f 85 72 be 3f 75 bf 3c fb 5e ca 3d dd 84 50 be
       -0.2368357 0.023371337 0.09881397 -0.20363183
000230 00 18 fc bb 07 49 8b 3e 93 95 31 be 8a b1 87 3e
       -0.0076932907 0.27204153 -0.17342214 0.2650264

ConvBase.1.feature.lis.3.X_conv.conv.bias f4 [16]
000000 bf 08 a2 bd e7 09 7c be dd e9 52 3e 13 a6 9c 3d
       -0.079118244 -0.24613152 0.20597024 0.07648864
000010 66 4d d6 3d 53 62 ad 3d 7b 40 92 be be 9b 67 3e
       0.10463981 0.084660195 -0.2856482 0.22618005
000020 94 57 6d 3e 57 8b 15 3e 92 8d 87 3e 26 41 23 3e
       0.2317794 0.14603935 0.26475197 0.15942821
000030 a4 16 95 3e 5c 88 b8 3d 1c 8e 5a bd f1 f8 91 bc
       0.29118836 0.090103835 -0.053358182 -0.0178189

ConvBase.1.feature.lis.3.Y_conv.conv.weight f4 [16, 1, 1, 9]
000000 08 ef ac be b9 b3 88 bd b8 59 a4 bc 2b ba a9 be
       -0.33776116 -0.066749044 -0.020062312 -0.33149847
000010 10 74 2b bd 4a d2 97 3e 96 5c 3d 3e 2e e3 17 be
       -0.041858733 0.29652625 0.1849235 -0.14832756
000020 86 c5 10 be 8d 59 de 3d ab 54 c3 bd 9c f7 01 be
       -0.14137849 0.10856924 -0.095376335 -0.12692112
000030 fe c7 bc 3c 7e d3 39 be 92 ef 2c be f4 ac 80 3e
       0.023044582 -0.18147084 -0.16888264 0.25131953
000040 4b 27 b8 3c 22 cc 51 be eb da 73 bd 39 16 42 3e
       0.022479674 -0.20488027 -0.05953495 0.1895379
000050 2b 76 a4 3e 5f b3 83 be 2c 37 01 3e 23 a7 14 3e
       0.32121405 -0.25722787 0.12618703 0.14516883
000060 bc ef 2e be f3 3a d0 3d df 62 56 3e 74 eb 86 3e
       -0.17083639 0.10167494 0.20936154 0.2635151
000070 2c 77 35 3d fe c7 0f be 4f ce 0c be 53 57 42 3e
       0.044303104 -0.14041135 -0.13750575 0.18978624
000080 14 8c 82 be 36 2b 7f 3e f7 3a aa be 30 74 75 3d
       -0.25497496 0.24918827 -0.33248112 0.05992526
000090 8a 9f 3c 3e 17 d4 42 be fd 6d 05 be 9b b6 17 3d
       0.18420234 -0.19026218 -0.13030238 0.03703938
0000a0 38 01 03 be ba 6b c7 bc ce af 2f bd 05 3b ad bc
       -0.12793434 -0.02434336 -0.04289227 -0.021146307
0000b0 49 d0 a7 bd cc 94 81 3e 85 bf da bd 3b 3a b3 3b
       -0.08194024 0.25308836 -0.10681061 0.005469588
0000c0 f3 f9 30 3e ad 54 18 3d 36 da 1a bd ed 0e 8c 3e
       0.17282848 0.037190128 -0.03780576 0.27355137
0000d0 1e fb 74 3e f2 10 9e be 52 15 86 be 09 69 12 3e
       0.23923919 -0.30872303 -0.2618814 0.1429788
0000e0 7f ef a1 3d c0 f3 a3 bd df 76 8b 3e 91 4a 01 3e
       0.079070084 -0.08005476 0.2723913 0.12626101
0000f0 2d ef 98 be 0c dd 2e 3e 90 f3 50 be ac 0b 3c be
       -0.29869977 0.1707651 -0.20405412 -0.18363827
000100 f6 f9 3c 3e 90 70 7d be 77 4c 36 3e 0d 29 98 3e
       0.18454728 -0.2474997 0.17802607 0.2971882
000110 b6 75 92 be cf d7 20 be 06 6f a8 3e 8b 1f 67 be
       -0.2860543 -0.15707324 0.32897204 -0.22570626
000120 2a 64 87 3e 24 55 1e be 6a e5 3d 3e e5 1a 84 bd
       0.26443607 -0.15462166 0.18544546 -0.06450442
000130 97 a7 64 be 28 7d 9b 3c c9 68 ef 3d 40 c6 80 3c
       -0.22329555 0.018980578 0.11689908 0.015719533
000140 73 5f a6 be b1 e9 07 3e 29 7d 29 3e 38 b4 89 bd
       -0.32494697 0.1327274 0.16551651 -0.06723827
000150 d3 fc 0f be fa 8d 30 3e 57 f1 33 be 69 5f 1c 3e
       -0.14061289 0.1724166 -0.17572533 0.15270771
000160 f2 9d 1c be 0f ec 8d 3d 3b 4a 59 3b 19 fe 17 3e
       -0.15294626 0.0692979 0.0033155817 0.14843024
000170 14 45 88 bc fc ae 8e 3e d3 6f 3e 3e e4 26 00 3e
       -0.016634502 0.27867877 0.18597345 0.12514836
000180 8d a2 0e be 60 58 96 3d ee 56 ac 3e c6 31 21 3e
       -0.13929196 0.07341075 0.33660072 0.15741643
000190 53 9f b4 bd cd 36 05 be 7b 5c 8f bc 3a 89 5a 3e
       -0.08819451 -0.13009186 -0.017500153 0.2134141
0001a0 91 12 3d 3e d6 43 9c be a9 9b 9d 3e 72 93 d5 3c
       0.18464114 -0.30520505 0.30782822 0.026071284
0001b0 d3 dc 48 bd 52 94 98 3e 7d e3 3e 3e 40 a3 b4 bd
       -0.04903872 0.2980066 0.18641467 -0.088202
0001c0 1e 1a 1c 3e bb 1e 84 3e 69 f1 18 be c2 6a 92 bd
       0.15244338 0.25804695 -0.1493584 -0.07149269
0001d0 24 96 0f 3d 2e 02 86 3e 09 8e c2 3d f2 98 47 3e
       0.035055295 0.26173538 0.09499747 0.19491938
0001e0 87 ad 73 bd 56 4f 09 3e 7c 74 b6 3c 31 84 53 bd
       -0.05949166 0.1340917 0.022272341 -0.05163974
0001f0 a6 1f 00 3e 64 70 fe 3d 1a bb 09 be 1f c2 fe bd
       0.12512073 0.124237806 -0.1345028 -0.124393694
000200 4d 2a c4 ba 9b 0b 70 be 47 71 66 3e 3f 81 5f 3e
       -0.001496622 -0.23441927 0.2250415 0.21826647
000210 b9 91 80 3e 3c 28 3d bd 4e 2e 9b 3d 18 0b 4e 3e
       0.25111178 -0.04618095 0.07577191 0.2012142
000220 d3 a7 f8 bd b9 61 1d be 9d 22 2e 3e 12 e3 99 3e
       -0.12141385 -0.1536931 0.17005391 0.30056053
000230 3b 62 46 be 0a f9 61 be 3f 18 53 bd c5 0c 60 be
       -0.1937341 -0.22067657 -0.051536795 -0.21879871

ConvBase.1.feature.lis.3.Y_conv.conv.bias f4 [16]
000000 36 cb b5 3d 8d 5f 25 be db 91 1b 3e 73 2e d1 bd
       0.0887665 -0.16149731 0.15192358 -0.102139376
000010 41 38 8d be 6d 23 01 be 43 8f 83 3d 0c b2 66 be
       -0.2758198 -0.1261117 0.064238094 -0.22528857
000020 8e 0f 00 3e af e5 db bd 8f f3 78 3d 90 70 1c 3e
       0.12505934 -0.10737168 0.06077915 0.15277314
000030 e9 f9 e8 3d 4a 76 dc bd 09 0a 17 3e f9 ac 7f 3b
       0.113757916 -0.10764749 0.14749922 0.0039013012

ConvBase.1.feature.lis.3.pointwise.weight f4 [16, 16, 1, 1]
000000 86 f8 cb 3d d4 41 75 bb 44 75 3a 3d 1f 2b 8c bd
       0.099595115 -0.003742327 0.04552199 -0.06844162
000010 86 47 4f 3d 55 95 6f bb da 07 8b bd e6 5b a8 3d
       0.05060532 -0.0036557515 -0.06788607 0.08220653
000020 df 08 cb 3d 0c 3f 08 3d db 6d bc 3d 71 ac da 3c
       0.099138014 0.03326325 0.09200641 0.026693555
000030 90 33 4a be 78 0f 03 be ff 22 13 bd 6f 8b d0 3d
       -0.19746232 -0.1279887 -0.035922047 0.10182845
000040 48 8d 81 3e d2 d5 93 bd 1e 10 9f bd 96 4a 04 3e
       0.25303102 -0.07218517 -0.07766746 0.12919077
000050 18 28 bb 3d 78 a1 84 3d 08 a0 71 3e 04 7b 1c 3e
       0.09138507 0.0647611 0.23596203 0.15281302
000060 62 5c 27 be 3b 4f d3 bd 21 94 81 3d 56 a3 8c 3e
       -0.16343835 -0.103178464 0.063270815 0.27468365
000070 ae 73 0b 3c 31 31 4b 3e e5 7e 9a 3d 18 18 a8 bd
       0.008511467 0.19842984 0.075437345 -0.082077205
000080 63 e9 cb 3d a6 4d 9e bd 93 31 7d be ac ab e8 3d
       0.09956624 -0.07729654 -0.24725942 0.11360869
000090 b1 a7 3f be 9d 03 ce 3d 66 d4 2f be d9 ff 43 3e
       -0.18716313 0.10059283 -0.17170867 0.19140567
0000a0 b0 6a af bd cf 51 18 bc d0 5c 2f bd 1a 08 80 be
       -0.08565271 -0.009296848 -0.042813122 -0.2500618
0000b0 f8 93 08 3d 3d 5c 9c 3c 09 1c 2c be ca df 34 be
       0.03334424 0.019086951 -0.1680757 -0.17663494
0000c0 46 33 c2 3d e2 64 e1 bd 81 48 3b be 40 fa cb bd
       0.09482436 -0.1100557 -0.18289377 -0.09959841
0000d0 21 1c 0b be 4e e3 1e 3d 48 38 1d be bc a0 49 be
       -0.13584949 0.038790993 -0.15353501 -0.19690222
0000e0 30 3e bd 3d a6 ce 69 bc 6c 26 22 3e 33 45 3b 3e
       0.09240377 -0.01427046 0.1583497 0.18288116
0000f0 03 83 a3 3b fb 73 1c be 6c 3a 66 3d 44 cd 05 3e
       0.004989983 -0.15278618 0.05620806 0.13066584
000100 63 0e 32 be bd b3 38 3e e9 ba 79 3d e4 4d 83 3c
       -0.173883 0.18037315 0.060969267 0.016028352
000110 05 95 2a bd 23 17 dd bd b0 24 3b 3e 85 8f 61 3e
       -0.041646022 -0.107954286 0.18275714 0.22027405
000120 44 83 a5 bc 0d d2 4a bd ea 80 11 3e 67 89 b3 3d
       -0.020204194 -0.049516726 0.14209333 0.08766442
000130 c7 c6 d8 3d 35 2e b7 bd 9d 54 39 be 3a 16 6a be
       0.10584789 -0.0894436 -0.18098684 -0.22860041
000140 77 b6 6e be cc 31 85 3c 06 d9 2a be 79 4f c1 bd
       -0.23311792 0.016259097 -0.1668435 -0.09438986
000150 f8 ef 4d 3e e3 8a 06 bd 48 b6 63 be 18 e4 80 bc
       0.20111072 -0.032847296 -0.22237504 -0.015733764
000160 7c 53 9b bd ad b8 5d 3c 19 89 c2 bd dc 11 c9 bd
       -0.07584283 0.0135328 -0.094988056 -0.098178595
000170 7a 22 38 be a1 1c 70 be 36 5b e6 bd e4 e2 0f bd
       -0.17981902 -0.23448421 -0.11247866 -0.03512849
000180 29 f6 bc bc bd 13 dc bd 5f e8 2a 3e 96 93 93 bd
       -0.023066597 -0.10745952 0.16690205 -0.07205884
000190 da a7 1d 3e 93 3b 3c 3e 6b 1b 38 3e 9c 90 41 be
       0.15396062 0.18382101 0.17979209 -0.1890282
0001a0 46 1b 69 be 3a 33 d1 bc ef 27 11 3e 38 4e 4c bd
       -0.2276431 -0.025537122 0.1417539 -0.049879283
0001b0 29 bd 7e 3e 0f a2 35 be f7 7e 4e 3e 9b 21 1c bc
       0.24876846 -0.17737602 0.2016562 -0.009529497
0001c0 72 46 2d 3e 20 94 5c be 78 f2 ce 3b ae 54 db bd
       0.16921404 -0.2154088 0.0063155256 -0.10709511
0001d0 ce 95 e8 bc 2d 30 ff bd 8b 05 e6 3d 85 b1 27 be
       -0.028391745 -0.12460361 0.11231526 -0.16376312
0001e0 ad c4 28 be 8b 8a f5 3b 9c 44 31 be 48 d8 e6 3d
       -0.16481276 0.0074933222 -0.17311329 0.11271721
0001f0 73 e9 8f bd 67 05 d2 bd ef d5 23 3e c3 ee 25 3e
       -0.07026949 -0.10254937 0.15999578 0.16204362
000200 27 24 29 be 34 ac cc bc 7f c3 81 3e 37 45 ea 3c
       -0.16517697 -0.024984457 0.25344464 0.028597457
000210 34 25 11 be c5 6f cf bd 4c 6b 26 bd 3a ee 22 3e
       -0.14174348 -0.1012874 -0.04062967 0.15911189
000220 e1 de 77 be ba fd 84 3d ea b2 a0 bc 43 de 7d be
       -0.24206115 0.06493707 -0.019616563 -0.24791817
000230 20 e7 89 3c d6 e7 3d 3e bd c6 c0 3d 32 30 cb bd
       0.016833842 0.1854547 0.09412906 -0.09921302
000240 47 de 30 3d 17 a3 ed bd e7 a4 30 bc f6 2b 9d bc
       0.04318073 -0.116033725 -0.010781503 -0.019186001
000250 ec 7f 85 3e ea 24 26 be 0a 18 0b be 44 6a fb 3c
       0.2607416 -0.16225019 -0.13583389 0.03069032
000260 d7 1d 9a 3b f0 d8 03 bd a1 db 4d 3e 49 21 4c 3e
       0.004703264 -0.03218931 0.20103313 0.19934572
000270 9a 0e 12 3c 7b 54 83 be 16 8c 69 3e 5c b8 f7 3d
       0.008914614 -0.2565039 0.22807345 0.12095711
000280 fa ef 02 3e c7 04 7b bd c8 58 14 3e ec f1 cb 3d
       0.12786856 -0.061283853 0.14486992 0.09958252
000290 27 96 17 3d ed 2f 46 3d 54 96 34 3e 81 48 33 be
       0.03700843 0.04838555 0.1763547 -0.17508127
0002a0 f1 4c cc bd 46 63 3b 3d 49 e2 4d 3e db 3a 6d 3d
       -0.09975613 0.04574897 0.20105852 0.057917457
0002b0 15 70 a2 bd 38 40 ce 3c ff 81 e0 bc 68 19 22 3e
       -0.07931534 0.025177106 -0.027405737 0.15830004
0002c0 e0 1f 1e 3e a4 da 89 3d 3a 05 50 3d 25 ae 12 bd
       0.15441847 0.067311555 0.050786234 -0.03581061
0002d0 9f 46 7e bd 47 b8 23 3e 1e 91 22 be 0c 89 76 be
       -0.06207907 0.15988265 -0.1587567 -0.24075717
0002e0 96 58 30 3e 04 80 0c be 82 c5 7b 3e ce fc ab bd
       0.17221293 -0.13720709 0.24587062 -0.08397828
0002f0 05 e9 89 bc 6e 6a 5d 3e fa e0 2d 3e f4 e3 43 3e
       -0.016834745 0.21622631 0.16980353 0.19129926
000300 31 65 78 be 75 12 51 3d d2 60 5d be 8a 12 8b 3d
       -0.24257351 0.051042993 -0.21618965 0.067906454
000310 c4 1d bb 3d 33 8d 53 3e 6a 20 4a be e9 31 29 3e
       0.09136537 0.20659332 -0.19738927 0.16522945
000320 a5 fc 47 3e 4d 5b a0 3b 48 a9 0f bd 54 96 48 3e
       0.1952997 0.0048936964 -0.03507355 0.19588596
000330 cc 35 0d bd 19 3b 6c be a7 12 3f 3e 3e 7e d2 3c
       -0.034475133 -0.23069419 0.18659459 0.025694963
000340 ed 93 8e 3d bc 3b f1 3d 67 c7 0a 3e e6 64 d7 3d
       0.06961808 0.117789716 0.13552628 0.10517292
000350 8e 91 2e 3e 8c be 13 be e1 ce b8 bd 4c 1a c4 bd
       0.17047712 -0.14428157 -0.09023834 -0.09575328
000360 9e 99 ea 3d fa f5 34 be 49 66 bb 3d 7d 8c 36 be
       0.114550814 -0.17671958 0.09150369 -0.1782703
000370 ee 44 96 bd 16 55 8e bb 41 cf 0d bd 5b 22 e2 bd
       -0.07337366 -0.004343639 -0.03462148 -0.11041709
000380 25 28 cc 3d dc b0 b6 3c b6 b4 65 3e 5b 6a 43 3e
       0.099685945 0.02230113 0.22432217 0.1908354
000390 7b 2a 2f 3e f7 95 5b be 20 16 af 3d 47 75 48 3e
       0.17106049 -0.21443926 0.08549142 0.19575988
0003a0 e4 f5 a5 ba ec b7 46 be ee 8b 7a 3e b2 a0 85 3c
       -0.0012661782 -0.19406098 0.24467441 0.016311977
0003b0 02 12 02 be 0b ab 27 3d 74 bf 77 3e 76 e6 09 3e
       -0.12702182 0.040934604 0.24194127 0.1346682
0003c0 90 6f 80 bc ab 6a 04 3e bd d8 0d 3e ae 93 4f 3d
       -0.015678197 0.12931316 0.1385221 0.050677948
0003d0 12 3a 60 be 68 2c 54 be 12 c5 26 be a3 12 4a be
       -0.21897152 -0.20720065 -0.16286114 -0.19733672
0003e0 f5 9e 40 3c b2 78 20 bd 45 14 10 3e 05 37 bf 3a
       0.011756648 -0.039177604 0.14070232 0.0014588541
0003f0 dc 16 02 be 83 70 57 be 66 9a e7 3c 4f 8f 4b 3e
       -0.12704033 -0.21039014 0.028271865 0.19878887

ConvBase.1.feature.lis.3.pointwise.bias f4 [16]
000000 7b 8f 82 3e 88 35 e3 3d 9a 03 fa bd f5 42 40 be
       0.25500092 0.11094195 -0.12207718 -0.18775542
000010 25 42 d7 bb db e6 39 3e ff 3c 25 3e 64 cc 5b 3e
       -0.0065691643 0.1815447 0.1613655 0.21464688
000020 5f df 22 be 8f ce cd bd fc 8f 0a bc d4 32 2b 3d
       -0.15905522 -0.100491636 -0.00845718 0.04179652
000030 8c 4a e4 bd 6c 11 21 bd 20 c2 a9 3d 0c 40 4f 3e
       -0.11147031 -0.039323255 0.082889795 0.20239276

ConvBase.1.feature.bn.weight f4 [16]
000000 7e a3 7a 3f 0c d8 5f 3f 2b 70 f6 3e 9b d4 06 3e
       0.9790572 0.87439036 0.48132452 0.1316704
000010 22 7b 2b 3f 77 6b 1a 3f 03 ff 63 3f 47 9c 03 3f
       0.6698476 0.6032023 0.8906099 0.51410335
000020 d1 3a 73 3f 7b 97 25 3f e4 9e 79 3e b3 0e 07 3f
       0.9501162 0.64684266 0.24377018 0.52756804
000030 f1 9b 4e 3f 92 eb 10 3e a0 72 5b 3e 93 3d 96 3e
       0.807067 0.14152363 0.21430445 0.29343852

ConvBase.1.feature.bn.bias f4 [16]
000000 a3 4f 85 bb 53 39 43 3c 5c 70 3f bc 79 f8 23 3d
       -0.0040683313 0.011915523 -0.011684503 0.040031884
000010 99 c5 df b9 b6 b1 78 bc 22 21 24 3c a7 ab fe 3c
       -0.00042681096 -0.015179088 0.010017665 0.03108771
000020 5b a4 d5 bc 50 aa b3 3c c4 18 bc 3c 5d 6e 8e 3c
       -0.026079347 0.021931797 0.022961028 0.01738661
000030 6f 21 12 3d 57 ec da 3c 97 23 3a 3d 1c 2c 15 3b
       0.035676416 0.026724024 0.045444097 0.0022761887

ConvBase.1.feature.bn.running_mean f4 [16]
000000 a1 3d 76 3e f3 46 0c be bc 92 aa 3c c8 75 c1 be
       0.24046947 -0.1369894 0.020821922 -0.37785172
000010 27 a9 3e b9 54 fb a0 be 06 85 06 be 81 ca bf 3e
       -0.00018182826 -0.31441748 -0.13136682 0.37459186
000020 8e 61 ab be ab 37 cd 3d e2 13 bf bd 3f 65 e3 bc
       -0.33472866 0.100203834 -0.09329964 -0.027758239
000030 e5 2d 71 bd fc 71 3c 3d 9d fa 59 3b d7 93 0d 3d
       -0.05888166 0.04600714 0.003326095 0.03456482

ConvBase.1.feature.bn.running_var f4 [16]
000000 b0 8c 14 3b 92 36 f7 3a 70 b2 4f 3b c7 6b 32 3b
       0.0022666864 0.0018860868 0.003169205 0.0027224885
000010 80 a1 06 3b 64 ef 8d 3b 5e 1a 74 3b a7 5c 76 3a
       0.002054304 0.004331516 0.0037247161 0.00093979615
000020 0f 9b 62 3b e2 11 10 3b 2f 1e e8 3a c6 3c 3a 3b
       0.0034577285 0.0021983315 0.0017709191 0.0028417571
000030 24 da 1e 3b fc 7d e1 3a ba 54 32 3b 32 a9 1e 3b
       0.0024238909 0.0017203684 0.0027211145 0.0024209735

ConvBase.1.bn.weight f4 [64]
000000 e4 89 df 3e 9a ce d0 3d 2b 2d f3 3d 8f 77 9c 3d
       0.4365989 0.10195656 0.118738495 0.076399915
000010 22 34 be 3e b8 94 42 3f 9d bd 65 3f 1e 8a 92 bb
       0.3714915 0.76008177 0.8974245 -0.0044720313
000020 e2 9a 31 3f 37 a6 64 3f 2c 14 83 3e 51 b3 0d 3f
       0.6937696 0.89316124 0.25601327 0.5535174
000030 e2 72 38 3d 77 c2 02 3e 5e 99 48 3f 9c 15 43 3f
       0.045031436 0.12769495 0.7835902 0.7620485
000040 a4 a1 47 3f fb 0c 4f 3f 30 c0 4b 3f 61 74 d0 3e
       0.7798102 0.8087918 0.7959013 0.4071379
000050 f3 ad b5 3e 07 68 55 3f 5b d5 18 3f 20 dd 88 3e
       0.35484275 0.8336186 0.59700555 0.26731205
000060 64 bc 5a 3f bb 66 1f 3f 63 85 fa 3e e5 d9 13 3f
       0.8544371 0.6226613 0.4892989 0.57754356
000070 75 5f 50 3f a5 95 c2 3e 0b f4 98 3e ad 11 6f 3f
       0.81395656 0.38004795 0.2987369 0.93386346
000080 16 d1 31 3f f8 85 c8 3e 73 0c 06 3e a4 39 70 3f
       0.69459665 0.3916471 0.13090687 0.9383795
000090 f0 00 93 3e 19 da 50 3f 51 4a 98 3e 7c 75 eb 3e
       0.28711653 0.8158279 0.297442 0.4598807
0000a0 8b 9e b6 3e ca 09 3b 3f ab 54 a0 3e b1 7e 02 3e
       0.35667834 0.7306181 0.31314597 0.12743641
0000b0 8f e0 94 3d d4 80 e6 3e b9 ac 3d 3e 26 d0 4d 3f
       0.07269394 0.45020163 0.1852292 0.80395734
0000c0 5a 29 40 3f c8 d8 fc 3e f3 e3 8b 3e 34 20 2e 3f
       0.750631 0.4938414 0.2732235 0.6801789
0000d0 2a 24 a4 3e 8a 31 7c 3f 0b 9b 66 bb a3 67 6e 3f
       0.3205884 0.9851309 -0.0035187628 0.9312689
0000e0 d9 c7 70 3f 36 32 61 3e 3b 2d 98 3e d0 d6 2a 3f
       0.94054943 0.2199181 0.29722008 0.6673403
0000f0 5a 0b ee 3e 3f 5f 13 3e ba 74 5c 3f a7 c4 35 3f
       0.46493036 0.14391802 0.8611561 0.7100319

ConvBase.1.bn.bias f4 [64]
000000 fd ae b2 3c 95 44 72 3c 5a 6c 6b 3c 49 32 2e 3c
       0.021811957 0.014786859 0.014369095 0.010632106
000010 99 15 f4 bc 95 6c d6 bc 1c dd 27 3d 8b 8d 75 bc
       -0.029795455 -0.026174823 0.04098235 -0.01498736
000020 56 a2 a1 3c 4f 0d 68 3b b2 e7 70 bb db e6 90 bc
       0.019730728 0.0035408323 -0.0036759195 -0.017688205
000030 30 9f f6 bb 41 fc 83 3b 2b 43 26 bd 6b bc 27 3d
       -0.007526301 0.0040278737 -0.0405914 0.040951174
000040 fd 5b 3a bb 1f 21 be bc 1b c6 69 bc 2d ad 1b bd
       -0.0028436177 -0.023209153 -0.014268423 -0.03800695
000050 72 02 b6 3c e7 ce 35 bc 8a 7f ba 3c 05 34 fc ba
       0.022217963 -0.011096693 0.022765893 -0.0019241577
000060 88 88 dc bc b8 f5 43 3c 3b 58 ea bc 91 21 b3 3c
       -0.026920572 0.011960439 -0.028606525 0.021866592
000070 ea 91 e6 3a df 06 36 bb f8 0c 02 3c 94 94 dc bb
       0.0017591093 -0.0027775092 0.007937662 -0.006731579
000080 87 51 06 bc fc d8 cd bc a2 45 f1 bc 93 03 42 3d
       -0.008198149 -0.02512788 -0.029452149 0.04736669
000090 2a 4e 84 bb 90 22 48 3c cd ba 34 3a 85 32 bd bb
       -0.004037638 0.012215272 0.00068942906 -0.0057738447
0000a0 fa 87 a7 3c 27 47 38 bd a1 38 c1 3c fe 33 15 bc
       0.02045058 -0.04498973 0.023586573 -0.009106634
0000b0 d8 09 01 3d ab de bc 3c b1 d6 92 bb ac 23 00 3d
       0.03150353 0.023055395 -0.0044811596 0.03128402
0000c0 9b fd 15 bc 1a e2 01 3d a0 8e 38 3c 3a 42 d4 3c
       -0.009154703 0.031709768 0.011264473 0.025910486
0000d0 f5 24 a2 3c 7a 63 18 bd 55 6c 87 bc cc 57 29 3c
       0.019793013 -0.037204243 -0.016531149 0.010335874
0000e0 65 a4 ea bc 85 bc 99 3c bf ff 44 3c ac 88 ca 3c
       -0.028642843 0.01876665 0.012023865 0.024723373
0000f0 ff 3d 88 3b e9 ef e2 3b 05 02 d1 bb 5b ba ef 3b
       0.004157781 0.006925572 -0.0063784146 0.0073159165
