waights/weights10.pth (torch_old, 670822 bytes, 196 tensors)

ConvBase.1.feature.lis.0.X_conv.conv.weight f4 [1, 1, 3, 1]
00000000: 2807 4abc a49c 48be efc2 fcbd
-0.012330808 -0.19591004 -0.12341868

ConvBase.1.feature.lis.0.Y_conv.conv.weight f4 [1, 1, 1, 3]
00000000: 994a 9e3e 449d 9abd a885 0fbe
0.30916288 -0.07549527 -0.1401583

ConvBase.1.feature.lis.0.pointwise.weight f4 [16, 1, 1, 1]
00000000: 5455 b8be 2519 63be 644b 47bf 9280 70bf
00000010: a34f fdbe b4fc b2bd 485f ca3c 1b5d 173f
00000020: 0b5f 543f 25ba 283f 0042 6a3f 8015 573d
00000030: 74fd 313f 09f5 bf3b 2c46 f03e d837 00bf
-0.360026 -0.2217756 -0.7784941 -0.9394618 -0.4947482 -0.087396055 0.024703637 0.5912644
0.82957524 0.65909034 0.9150696 0.05251074 0.69527364 0.005858068 0.46928537 -0.5008521

ConvBase.1.feature.lis.0.pointwise.bias f4 [16]
00000000: dbbb 523f 69d7 94be 13b6 343f 589f 84bf
00000010: 91e8 99be 8e20 50bf 093e abbe 4d1b 6e3f
00000020: 08b2 2ebf e742 883e a870 e7be fa92 0ebf
00000030: 6aff 213d 94fa a1bd 8853 8ebe 8629 d0be
0.82317895 -0.29070595 0.70590323 -1.0361128 -0.30060247 -0.81299675 -0.33445767 0.9301041
-0.68240404 0.26613542 -0.45203137 -0.5569302 0.039550222 -0.07909122 -0.27798104 -0.4065668

ConvBase.1.feature.lis.1.X_conv.conv.weight f4 [16, 1, 5, 1]
00000000: 63d6 713e b523 9bbe 408c 023b 7ee3 b43e
00000010: e30f 813e a931 733c 2c8d a93e 4e3a 02bc
00000020: a731 113e d8a7 8bbe d576 59be 1db1 9cbe
00000030: f606 54bd d5ca 913e a9e0 dbbd 46ed 29bd
00000040: 4417 3e3d ec7e 433e 23fd d63e 3e3a 323c
00000050: 713d c4be 58ed cebd 56ab de3c 0afb a1be
00000060: 2fc4 b53e 74fa fa3d d50d 833e 4d95 c2be
00000070: fa71 643e b6c9 203e 6368 8ebe c87f 30be
00000080: b8f9 36be 75b8 4b3e f0f7 0bbc dff0 963d
00000090: c339 47bd b51e dd3e 78e2 d13e dc9e 073e
000000a0: c13e 463d 20a7 a8be 32c6 b23e 5c74 6d3e
000000b0: c0a1 ce3d f1a9 a0be 4e15 9abe 487f b93d
000000c0: 6f47 063e 99f0 c6be 912f 88bd 861a 8cbd
000000d0: 16bc e9be ff78 c8bc 978d bc3e 69d1 dcbe
000000e0: ea58 e1be 6dad 953e 090b 423e b439 bd3e
000000f0: 95a2 2bbe 6847 72bd e759 80bd e620 ce3e
00000100: 6df3 85be 8436 b6be f934 b03e ae34 38be
00000110: 1fcb b03d d462 9abd 1bad a3bc 6838 52bb
00000120: 581b 94be 4bff e4be f1e5 7e3e 1ba0 b63e
00000130: 072b 63bd 8bf9 263e e7e6 503e f451 cdbe
0.23616938 -0.3030068 0.0019920021 0.35329813 0.25207433 0.014843383 0.33115518 -0.007948471
0.14179097 -0.27276492 -0.21236737 -0.30603877 -0.05176445 0.2847506 -0.1073621 -0.041486047
0.046408907 0.19091386 0.41990003 0.010878144 -0.38328126 -0.101038635 0.027181309 -0.3163684
0.3550124 0.122548014 0.2559649 -0.38004532 0.22309104 0.15701947 -0.27814016 -0.17236245
-0.17868698 0.19894584 -0.008543 0.07370161 -0.04863907 0.4318749 0.40993094 0.13244194
0.04839969 -0.32940006 0.34916836 0.23188919 0.10089445 -0.31379655 -0.3009438 0.0905748
0.13113187 -0.38855436 -0.066496976 -0.068409964 -0.4565131 -0.024471758 0.36826774 -0.43128517
-0.4401315 0.29233876 0.18949522 0.36958086 -0.16761239 -0.05915013 -0.062671475 0.40259475
-0.26162282 -0.35588467 0.34415415 -0.17988846 0.08632492 -0.07538381 -0.019980004 -0.0032077078
-0.28927112 -0.44726023 0.24892403 0.35669026 -0.055460956 0.1630613 0.20400582 -0.40101588

ConvBase.1.feature.lis.1.X_conv.conv.bias f4 [16]
00000000: d49f fa3c dd0e bc3d e42e 513d 7c1f e5be
00000010: adc9 95be 4f95 c9be a3c3 e7be c027 d13d
00000020: 1b18 223e c868 1bbe 6a54 9d3e 4397 953e
00000030: 1f17 8e3d 2357 ef3d c796 d9be be41 abbb
0.03059379 0.091825224 0.05107011 -0.44750583 -0.2925543 -0.39371726 -0.45266446 0.1021266
0.15829508 -0.1517669 0.30728465 0.29216966 0.06938004 0.11686542 -0.42497846 -0.005226343

ConvBase.1.feature.lis.1.Y_conv.conv.weight f4 [16, 1, 1, 5]
00000000: 896f 863e 346c b43e c812 b9be ad26 4abe
00000010: ec5d d23c 7c03 ae3e d8d4 db3e 8374 debd
00000020: fbc4 af3b 2ace d5be 4b98 aabe f693 5d3d
00000030: c6e6 843e 6ee9 9fbe bc49 75be 45e7 89be
00000040: df88 803e 265d eb3e 52c9 56be 53e1 afbe
00000050: b605 88be 7543 c93e 978d c63e 5e29 b4be
00000060: 6426 4b3e bafe 77be ea31 49be 099a b6be
00000070: ee4b f53d 839d c0be 0edb 9b3d 5bb3 d9bd
00000080: 7c1c 3d3d 8796 863e d351 d13d 7401 b5be
00000090: 717f 803e 4c7c 97bd b328 d8bd 2bb6 843d
000000a0: c693 5abd a993 d4be 3b2c b3bd dcf8 2e3e
000000b0: 3637 96be 5a09 533e 82c2 afbe 5ae3 0fbe
000000c0: 88e0 d73e 0913 a43e b113 803e b888 033e
000000d0: a3d4 adbd dacc 423e 4a00 8bbe 3fd3 cc3e
000000e0: 2a7d babe 2656 853e 21a9 e7bd d6a0 f1bd
000000f0: c838 e13e 8ad2 63be 5232 273e 23d4 db3e
00000100: 0792 4dbb 99a7 993e 6ede 9a3c b404 7b3e
00000110: 9ba3 cd3e 89fc 84be 1afd 9abe 91d6 ddbe
00000120: 8ec8 ba3e 3cb0 d5be d659 cf3e a86a a63e
00000130: 53b7 a2bd 1785 ecbe af52 8abe 4e02 35bc
0.2625697 0.35238802 -0.3614714 -0.19741316 0.025679551 0.33987033 0.42935824 -0.108620666
0.005364058 -0.41758853 -0.33319315 0.054096185 0.25957316 -0.3123278 -0.23953909 -0.26934257
0.25104424 0.45969504 -0.20975235 -0.34351596 -0.26566857 0.39309278 0.387799 -0.3518781
0.19838864 -0.24218264 -0.19647947 -0.35664394 0.11977373 -0.37620172 0.07610141 -0.106299125
0.046169743 0.26286718 0.10220685 -0.3535267 0.2509723 -0.073967546 -0.10554638 0.06480058
-0.053363584 -0.41518906 -0.08748671 0.1708712 -0.29338998 0.20609036 -0.34328085 -0.14051571
0.4216349 0.32045773 0.25015023 0.12845123 -0.08487823 0.19023457 -0.27148658 0.40004918
-0.36423618 0.2604229 -0.11311556 -0.11798255 0.43988633 -0.22248283 0.1632779 0.42935285
-0.0031367557 0.3001068 0.01890489 0.24513513 0.40163884 -0.2597392 -0.30271226 -0.43327764
0.36481136 -0.4173602 0.40498227 0.32503247 -0.079451226 -0.4619529 -0.27016208 -0.011047913

ConvBase.1.feature.lis.1.Y_conv.conv.bias f4 [16]
00000000: cb48 463e 2773 823e 4ed6 0ebe b3bf 8e3e
00000010: d515 f93d 2ad3 823d 670b 5a3d 3456 193e
00000020: 4060 b73e 36a7 7d3d 7c6a d8be 2b3e 24be
00000030: c402 bfbe e25e 4d3e 0ef4 aabe 4918 c1be
0.19363706 0.2547848 -0.13948938 0.2788063 0.12162367 0.063879326 0.05323353 0.1497429
0.3581562 0.061927043 -0.4226874 -0.1603934 -0.37306798 0.20055726 -0.33389324 -0.3771384

ConvBase.1.feature.lis.1.pointwise.weight f4 [16, 16, 1, 1]
00000000: 5621 38be a95f 6fbe f585 13be d0a3 303e
00000010: 5dd1 5bbe c8a1 eb3d 8c8a ae3d e8d3 6c3e
00000020: 3c42 1ebd 4209 b9bd 3204 2bbd de01 083e
00000030: db5a 50be 7cae 613e 9827 72be c048 633e
00000040: fbc7 2e3e b455 b43d bdcb 8a3d dd19 4fbd
00000050: 6cd1 4dbe 3a4a 37be 43eb 193e ab75 513e
00000060: ff1c d13c 7aa0 153e b9f0 52be c791 c13d
00000070: 7111 fdbd 40b5 c83d 5084 393e 3735 233c
00000080: 12f0 20be afbb cabd 5abd e9bc 3fdd 4c3d
00000090: f12b 96be 0102 26bc d968 a33d d4b3 43be
000000a0: ae43 0a3e c266 653c 324c 43be 2503 403e
000000b0: 2596 243b caff 1fbe 95e7 bdbd 4b0d 77be
000000c0: 7362 65bc 1c69 41be 3df6 0a3e 8800 c6bd
000000d0: 3187 3bbe 1216 713d 4966 533e d129 803b
000000e0: b6c0 a63d 6060 f73b a3e4 2b3e 94d0 c4bd
000000f0: 5e8d b63d fbc4 88be eefb 96bc 59b2 86be
00000100: 0ef2 2fbe d4ba 523e 9076 663e f785 343e
00000110: 3736 34be 691d 573e f9ad 443e e824 1bbe
00000120: 4c3a 733e 7b28 fe3d 11e5 7c3c bd27 79bc
00000130: 5993 ddbd a1b3 1dbe 6e74 8a3d 944d 04be
00000140: 4e98 db3d 889a e6bd 8064 0fbd eacc a3bd
00000150: 697e afbd c1a6 ca3c 8dbd 523d abdd 83bc
00000160: 66cf 20be 55b4 30bd 6e72 fc3c 4f72 60be
00000170: 0564 d53b 90e6 0ebe 1310 02bd cf44 343e
00000180: 97c3 82be 98eb 0e3d 4184 8ebd cef2 c63c
00000190: f28a a13d aa27 48be 4781 9bbd 3799 213d
000001a0: 85a3 22be 865f 113e 2eba 883e 0e2c bebc
000001b0: c63e 30be 5237 08bd 1cc4 ffbc ef3c 663e
000001c0: 7349 38be 550e 113e 6c99 0bbe 2622 a33d
000001d0: ba4c 363e b4ff 3dbe 3a34 00bd 6ee6 0e3e
000001e0: eaac 0abe 7fa2 0dbd 6b10 fdbd 42bd c0bd
000001f0: 6ae4 f63c 9b11 23be 418b 3fbd bc38 03be
00000200: 83bd 603d 013c 983d b487 64be ab7d 82be
00000210: c7a2 20bd 38af ef3c 51d6 793e 92f6 c5bd
00000220: 92b2 e23d ff6d 16be 5f40 713e f70b 86be
00000230: c7d6 413e 2c9e 41be d833 4a3e a17e 193e
00000240: 13c1 063e fe80 803d 6624 6b3e 58fb bdbd
00000250: aa9c e8bb 3bc8 75bb 742a 5a3e 4f48 febd
00000260: bb5d a9bb 9792 573e ef78 0dbe ba95 913d
00000270: 00ba 09b9 0782 4cbe 78dc 1e3e b5f7 0d3e
00000280: 8ccd 8b3e 459f 723e 6f83 28bd c64e ad3d
00000290: 1abc 063e 5789 1e3d adb7 59be 8cfc 313c
000002a0: 8c5a 29be d33b 593e 6c64 503e 881d 1bbe
000002b0: 56fc 493e 4b56 02be e7e4 6bbe ba69 45be
000002c0: cefe 21be 1d65 5fbc 36e2 5ebd e678 6a3e
000002d0: d6ab a6bb beb1 52bd e643 93bd 9718 2fbe
000002e0: c6f0 853d 1797 023e a0fb 5d3d ba6b d03d
000002f0: 9597 593d 9c68 03be 7c5b 59be 69a2 823c
00000300: ec34 fa3d 705b 6cbe e098 91bd 0aae fcbd
00000310: 1bbf d33d b43f 18be a2ad c43d c787 b73c
00000320: 2d31 153e c2d2 57be 8471 7c3d 2063 153e
00000330: 7610 0c3e 823d a5bd f6b4 9fbc b9b6 87be
00000340: aa21 5dbe 5a8f 3f3e 1eed 15be ebda 7fbd
00000350: 4efd 1e3e f81f d4bd d175 6fbe d3c8 51bd
00000360: d48d d7bd 1676 ebbc e00d 113e 4170 1bbe
00000370: 23ea 113e 1928 333e f1ce eebd dc3b 4bbe
00000380: a518 0c3e c774 42bc d513 fcbd ebb5 153e
00000390: a96b 68bd 766a d93d 4c32 9c3d 875d 5f3e
000003a0: b7dd d23d 2358 47be 3f8b 0ebe ee31 0fbb
000003b0: 06e3 233e 122e 22be bf80 5d3e d89b d0bc
000003c0: 4e40 eebc a772 11be 072b 363e dbf7 61be
000003d0: 7c7d 7abd bff3 723d af19 34bc eaa6 34be
000003e0: c924 e4bd e2c1 a7bd 39b6 42bd 318e 4ebe
000003f0: a268 4fbd 2065 5e3e 1ef7 923e 56df c6bd
-0.17981467 -0.23376335 -0.1440657 0.1724999 -0.21466585 0.11505467 0.085225195 0.23127711
-0.038637385 -0.09034969 -0.041752048 0.13281962 -0.20347159 0.22039217 -0.23647916 0.2219572
0.17068474 0.08805409 0.06777141 -0.050561775 -0.2009942 -0.17899409 0.15031151 0.20455043
0.025526522 0.14611998 -0.20599641 0.09451633 -0.12356842 0.09800196 0.1811688 0.009961418
-0.1571658 -0.09899079 -0.028532673 0.050015684 -0.293304 -0.010132314 0.079789825 -0.19111568
0.1350238 0.01400155 -0.19072035 0.187512 0.0025113907 -0.1562492 -0.092726864 -0.24126165
-0.014000523 -0.18887752 0.13570495 -0.0966807 -0.1831329 0.05885894 0.20644487 0.003911235
0.081422254 0.0075493306 0.16786437 -0.096100956 0.089136824 -0.26712784 -0.018430676 -0.26307943
-0.1718218 0.20579082 0.22506166 0.17629229 -0.17598806 0.21007313 0.1920699 -0.15150797
0.23752707 0.12410065 0.015435473 -0.015207228 -0.1081912 -0.15400554 0.067604885 -0.12920219
0.10722409 -0.11259943 -0.035007954 -0.07998069 -0.08569033 0.024737718 0.0514503 -0.01609691
-0.15704116 -0.043140728 0.030816283 -0.21918605 0.0065121674 -0.1395514 -0.03175361 0.17604373
-0.25539848 0.03489265 -0.06958819 0.0242857 0.0788783 -0.1954638 -0.07593017 0.039452758
-0.1588269 0.14196596 0.26704544 -0.023214366 -0.17211446 -0.033255883 -0.031221442 0.22484182
-0.17996769 0.14165623 -0.13632745 0.07965498 0.17802706 -0.18554574 -0.031299807 0.1395509
-0.13542524 -0.034578796 -0.12356647 -0.09411098 0.030138213 -0.15924685 -0.046763662 -0.12814611
0.054868232 0.0743332 -0.22317392 -0.25486502 -0.039217737 0.029258355 0.24398161 -0.0966617
0.11069216 -0.14690398 0.23559712 -0.26181003 0.18929587 -0.18907994 0.1974634 0.14989711
0.1315959 0.06274603 0.22963104 -0.09276456 -0.007098754 -0.003750338 0.21305257 -0.124161355
-0.0051686442 0.21052013 -0.13815664 0.07108636 -0.00013134629 -0.19971476 0.1551379 0.13864024
0.27305257 0.23693569 -0.04114097 0.084622905 0.13157693 0.038705196 -0.21261473 0.0108634345
-0.16538447 0.21214227 0.20350808 -0.15147984 0.19725165 -0.1272823 -0.23036538 -0.19278613
-0.15819857 -0.013634947 -0.05441495 0.22897682 -0.0050864024 -0.05143904 -0.07190685 -0.17099224
0.065400645 0.12752949 0.054195046 0.10176797 0.053123076 -0.12832874 -0.21226305 0.015946584
0.12217125 -0.23081756 -0.07109237 -0.12337883 0.10339185 -0.14868051 0.0960343 0.02240361
0.1456954 -0.21076491 0.061631694 0.14588594 0.13678154 -0.08068372 -0.019495469 -0.26506594
-0.21594873 0.18707028 -0.14641234 -0.062464636 0.15526316 -0.1035766 -0.23384787 -0.05121691
-0.105250984 -0.028742831 0.14165449 -0.1517954 0.14249472 0.17495765 -0.11660565 -0.19847053
0.13681276 -0.011868662 -0.1230847 0.14620177 -0.056743298 0.10616009 0.07626781 0.21813022
0.10296195 -0.19467215 -0.13920306 -0.0021849829 0.16004571 -0.15837887 0.21631144 -0.025464937
-0.029083397 -0.14203893 0.17789851 -0.22067206 -0.061154827 0.059314486 -0.010992452 -0.17641798
-0.11139829 -0.08191277 -0.047537062 -0.20171429 -0.050636895 0.21718264 0.2870416 -0.09710567

ConvBase.1.feature.lis.1.pointwise.bias f4 [16]
00000000: 692f 793e 29e1 72be 0025 0d3e f368 31be
00000010: 62e5 a8bd 2b37 87be f891 49be 29e1 df3d
00000020: 0fa2 38be 85c6 7f3e 2ab1 69bc 684e 123e
00000030: 4b91 993d 9b4c c83c 068c 013e 45ce 8cbe
0.24334492 -0.23718704 0.13783646 -0.17325191 -0.08246876 -0.26409277 -0.19684589 0.10931618
-0.1803057 0.24978073 -0.014263431 0.14287722 0.074984156 0.02445059 0.12651071 -0.2750112

ConvBase.1.feature.lis.2.X_conv.conv.weight f4 [16, 1, 7, 1]
00000000: 375f 833e b19f b7be 72fb c43e e828 f03d
00000010: 11ff b33e 9dc9 c8bd 5906 9bbe 084f bc3d
00000020: c660 7d3c de44 223e 10e5 c23d 98ae 22be
00000030: 6b58 3f3e 9bfe 9d3e 339f 1abe 6bcc bbbd
00000040: 4b12 acbe 04bd 0f3e 0101 7abe 4095 9a3e
00000050: 23fa b2bc ea09 b6be 55be 1e3e c0cd 4dbe
00000060: 6d99 a53e 5cbf b3bd cd28 3fbe 5034 b93c
00000070: c57a c13d ea60 5a3e eda7 943e 1f50 b53e
00000080: 19b8 433e d651 8ebe 67dc a43e 284e 14bd
00000090: 0b9a f2bd ad56 2ebd d3d8 a53e 9e45 a6be
000000a0: 4232 3fbe f632 47be 4a77 08be dd32 83be
000000b0: 9934 62be f02c 5e3d 04f3 a73d 7ab0 c8be
000000c0: cab8 453e e464 95be 6d7f 64be 2850 b63e
000000d0: 3b44 853e 4b17 8b3e cca2 3f3e 5a04 a93e
000000e0: a804 a0be ae6a 993e dbfd 4d3e 83c7 2abd
000000f0: 98c0 073e 51c1 ac3c b2a5 f9bd fc77 783e
00000100: 27c2 7a3e a334 8f3e 97e4 c03d fba6 b6be
00000110: 8f65 a3bd 307e b7be 3dbe b13e 8a73 a83e
00000120: 9261 5b3e 3d28 2dbe 59af cd3d 1ff4 06be
00000130: 6ff4 843e 9f14 e43d d8c6 1c3d 5326 d43d
00000140: daeb 8b3e 4cd6 f2bd 0e41 68be 22ff 09be
00000150: 4a93 363d 737e 0dbe 42fd b73d b604 063d
00000160: 18ae a63c 61a9 233e 7ccf b0be a9e8 0ebe
00000170: 90ba a53c 469e 643e 86a3 c5be 9daa 46be
00000180: 6600 98be 8324 c0be a908 d03d e5fe c13e
00000190: 9c9e 44bd 97ac 3dbe 2afd 2bbe 7951 edbc
000001a0: 4ead ff3c c2f7 a23e 6652 1f3e d5cd 98be
000001b0: b768 4bbe ce88 193e 118a 88be 6ca4 c7bc
0.2565858 -0.35864022 0.38473088 0.11726552 0.35155538 -0.0980408 -0.3027828 0.091947615
0.015464967 0.15846583 0.095163465 -0.15886915 0.18686073 0.3085831 -0.15099792 -0.09169849
-0.33607706 0.14036947 -0.24414445 0.30191994 -0.02184779 -0.3555444 0.15502293 -0.20098019
0.32343617 -0.08776733 -0.18667908 0.022607952 0.094472446 0.21326032 0.29034367 0.3541269
0.19113196 -0.2779681 0.32199404 -0.036207348 -0.118457876 -0.04256313 0.32391986 -0.3247499
-0.18671516 -0.19453034 -0.13326755 -0.25624743 -0.22090377 0.054242074 0.082006484 -0.3919714
0.19308773 -0.29178536 -0.22314234 0.3560803 0.26028618 0.2716621 0.18714446 0.33011132
-0.31253552 0.29964203 0.2011637 -0.041694175 0.13257062 0.021088274 -0.12189807 0.2426452
0.24488126 0.27969846 0.094186 -0.3567427 -0.07978355 -0.3583846 0.34715453 0.3290065
0.21423939 -0.16909881 0.100432105 -0.13179062 0.25967738 0.11136746 0.03827557 0.10358872
0.27328378 -0.1185728 -0.22681066 -0.13476232 0.04457406 -0.13817768 0.08983852 0.032719336
0.020346686 0.15982582 -0.34533298 -0.1395594 0.020230561 0.22326002 -0.3860132 -0.19401021
-0.29687804 -0.37527856 0.10157902 0.37889782 -0.048002824 -0.18522869 -0.16795793 -0.028969513
0.031210568 0.3182965 0.15558776 -0.29844537 -0.19864164 0.14993593 -0.26667836 -0.024370395

ConvBase.1.feature.lis.2.X_conv.conv.bias f4 [16]
00000000: 46f2 41bd 8564 7a3e 3bdb 15be 3239 1abe
00000010: a016 27bd cd75 483e 3705 613e c1b8 b93d
00000020: b7e1 2b3e 2778 a5bd 4b50 ac3e 3c2c ab3d
00000030: 159d 9b3c ecc1 eabd 803c bb3e 17b3 b4bd
-0.04735019 0.24452408 -0.14634411 -0.15060881 -0.04079306 0.19576187 0.21974646 0.09068442
0.16785322 -0.08079558 0.3365501 0.083580464 0.018995801 -0.11462769 0.36569595 -0.08823221

ConvBase.1.feature.lis.2.Y_conv.conv.weight f4 [16, 1, 1, 7]
00000000: 8ea8 1d3d 70c5 7c3e 79c1 92be 7fb9 01be
00000010: 80f4 823d e9ef abbe dec1 ad3e df91 813d
00000020: 43fc a8be af42 d53d acff 24bc 3bec a0be
00000030: 0e56 393e 3e20 043e ba12 e9bd 4ed0 463d
00000040: 6f1a 71be 29c6 843e 02db a03d d8a1 203e
00000050: 6204 2dbc 425c d0bd 0b64 943e c74c 363d
00000060: 3f78 b23e 21aa 34bb f64e d93d a102 a03e
00000070: 8e01 813e 4e3e 463e a5ab 5f3e 87e6 eebc
00000080: 561e 033e 9e8c 063e 70c0 5e3e babf 153e
00000090: 0fd4 56bd 404a c83d 1224 d4be 161a 073e
000000a0: 7f4c a63d 5e5c 903e 2ff5 393e f505 85be
000000b0: 3e5c b3be ce10 5c3e 8550 a83c 0abb a13e
000000c0: dce3 72bc 3dc5 08be f769 c0bc 7b3b 153e
000000d0: 5593 8abe 42ee 9fbe 6f2e 03bc d7eb e43d
000000e0: 6fd7 b8be 02e4 e53d 0ec7 b4be 8ab4 83be
000000f0: 2cd7 8b3e f8c2 5a3b 1953 91bd 7ad0 92bd
00000100: 91bc bfbe 260f 3bbe 7446 033e 881b 163e
00000110: 12c7 3bbe ba69 8ebe 6180 a6bd 16e8 1b3d
00000120: bd2c 993e 3ea6 163e 4889 e73d a694 8f3e
00000130: d1ec 9fbe 75fb 5a3e 7b99 81be 5268 203e
00000140: 3c3d 17be ce5e 2fbe 093b c1be ae04 b03e
00000150: 572f 073e 02bb 2d3e 630b 02bd 443c 76be
00000160: a044 6a3d 905e 953e 5c38 0cbe 623f 94bc
00000170: a135 a73a aa73 5f3e 7f4d e73d 69a1 cc3e
00000180: c3cc 2d3e 2ee1 3fbe eb19 613e db9d 57bd
00000190: 95ec 06be 0bbc b6bd 1627 893e 8467 b43e
000001a0: b1b8 5e3e 5e60 87be 7edc ba3d 6090 adbe
000001b0: 5798 84be 5005 c1ba d87d 47bd 292b a63e
0.038490824 0.24684691 -0.28663233 -0.12668417 0.06394291 -0.33581474 0.3393697 0.06326651
-0.3300496 0.104131095 -0.010070723 -0.3143023 0.18099234 0.12902924 -0.11380525 0.0485385
-0.2354524 0.25932434 0.078542724 0.15686738 -0.010560127 -0.10173847 0.28982577 0.044506814
0.34857365 -0.0027567225 0.10610764 0.31252006 0.251965 0.19359705 0.21842821 -0.029162658
0.12804541 0.13139579 0.21753097 0.14623919 -0.05244833 0.09779787 -0.4143377 0.13193545
0.08120059 0.2819547 0.18159936 -0.25981107 -0.35031313 0.21490785 0.020546207 0.31588012
-0.014824834 -0.1335649 -0.023488028 0.14573471 -0.2706553 -0.31236464 -0.008006676 0.111777954
-0.36101863 0.1122513 -0.35308117 -0.25723678 0.273126 0.003338037 -0.07095928 -0.0716867
-0.37448552 -0.18267497 0.12819844 0.1465894 -0.18337658 -0.27815038 -0.08129955 0.03806313
0.29916945 0.14711854 0.11305481 0.28043097 -0.31235364 0.21384986 -0.2531241 0.15664795
-0.14769453 -0.17126009 -0.37740353 0.3437857 0.13201652 0.16965869 -0.03174914 -0.24046427
0.057194352 0.29173708 -0.13693374 -0.01809663 0.0012757072 0.21821466 0.11294078 0.39966896
0.16972642 -0.18738243 0.21982543 -0.052640777 -0.13176186 -0.08922585 0.26787633 0.35235226
0.21750142 -0.2644071 0.09124087 -0.33899212 -0.25897476 -0.0014726315 -0.048704 0.32454804

ConvBase.1.feature.lis.2.Y_conv.conv.bias f4 [16]
00000000: b522 b13d 720a 2f3e 5925 b1be 2f22 c1be
00000010: b04b 81be 5a8c 01bd 7d9e 213e f9a6 7fbd
00000020: 8ffa ce3d dbcf ad3e c6fc f0bd 3a55 a43e
00000030: 6dd0 91be 1835 d43d 8c7b ad3e 4979 983e
0.08649198 0.17093828 -0.34598807 -0.37721393 -0.25253057 -0.03162799 0.15783115 -0.062415097
0.10106384 0.33947644 -0.11766963 0.32096273 -0.2847933 0.10361689 0.3388332 0.29780033

ConvBase.1.feature.lis.2.pointwise.weight f4 [16, 16, 1, 1]
00000000: 9b4f bfbd 1f7d bfbd 90ee 5e3e e8ee 5e3e
00000010: 4118 733e 6578 c2ba 4e8c e93d 3142 df3d
00000020: 029c 62be 96d8 803c c68a 0c3e f9ca 4b3e
00000030: da6d 153e d302 7dbd 83a4 4dbe c449 4abe
00000040: de55 303e 9749 01be 28a1 103e d349 d43d
00000050: 675f f7bd 469f 79bd 7bfc 753c cf10 da3b
00000060: 3e51 973d 2030 c33c aade 1bbe 5cc0 40bc
00000070: e051 63bd 9da8 48bd ed47 4d3e 76f5 18be
00000080: 330a 4ebe 5b46 313e 3b71 5d3e 96b6 7b3e
00000090: c80a 37be 9d44 433e f971 ee3d 0019 72bc
000000a0: 6949 fa3d ee2b e03d 8a16 a83d 9c12 903d
000000b0: 1c43 273e 6e19 2f3d 32e6 43be 2bdc 05be
000000c0: 4a29 81be 04b8 2dbe 2fce 613c 2e74 2e3d
000000d0: d890 153d 5b52 25be 77b3 71be ff69 82bd
000000e0: b962 6b3e 9b96 e3bd 646f 0f3e e972 7cbe
000000f0: 2b94 003e 2e47 7a3e 5e5d 8dbd 717f 4cbe
00000100: 0d30 92bd 50dd 463e 1214 7ebe 904d 553e
00000110: 0650 c6bd b5e5 fcbd c9c6 0b3d 9103 8ebd
00000120: 5189 723d 4fb7 2e3e a70f 5fbd 264f 54be
00000130: 5691 23be 02df cbbd 113f 74bb aff4 e63d
00000140: 8a07 e13d 173d 39bd 5632 ca3d 5255 e4bd
00000150: 5884 603e f00b 803e 0c39 403e 7a0a b33d
00000160: bbf6 883e 33fc 9dbd 8f86 7a3e 08a6 d43a
00000170: e238 0a3e b342 293d c568 233e 9ebf 6dbe
00000180: cfc5 023e decf d83d c8c2 ac3c 4fe8 ccbd
00000190: 49d6 10be 208e d9bd 53a0 e9bd 4972 323e
000001a0: 88f8 833e aa9d 1c3d 161f 45be 62f4 2dbe
000001b0: b455 763e d9ad 99bd b39c 973d 0fb1 de3d
000001c0: e374 103e fa75 ee3d 11cf debc 2d59 563d
000001d0: e48f 5ebd 5a55 cebd 44dd 9f3d ea5c 05be
000001e0: b42f ee3d 1deb d73d 1dba 613b 0c70 613e
000001f0: 68a9 8e3d 36df bcbc 64bd 8dbd 9cb8 d43d
00000200: 9857 62be d4fe 233e 09a8 1f3e 80c6 073e
00000210: 25ca 35be d229 6f3d 9ab3 4bbd 3789 3c3e
00000220: 1b8a d4bb 7c0d a23d 0339 79bd e40f bcbd
00000230: 0328 4f3e 5caf 833e 2ffb e3bd d4fb f0bd
00000240: bd94 c4bd b0d0 583e 600c 7abd 7105 0f3e
00000250: f1d7 b13d 5a03 933d f55a 793e 7003 5bbe
00000260: d9f5 a03d 0b2a 673e 262f 4d3e 0783 243d
00000270: 6574 1a3e a0e9 c5bd f018 b839 691a fd3d
00000280: 7504 64be 8e3f a93d e7cc b93c 0362 133e
00000290: 24f2 263d 4aca ddbd a36c 233d 7c63 833d
000002a0: d984 4c3e 9e90 5ebd aa9d 413e 810b 9d3c
000002b0: 5f9a 6c3e 2359 0cbe 0438 1dbe 20fa 4c3e
000002c0: 33ca 7bbe fe5f 12be 6aee 7d3e bc2e cabc
000002d0: a81a 4cbe 2c9b 5cbe 2bb1 66be 94df 8b3c
000002e0: eb4f f9bd 67c7 34bd 6291 5a3c 74a2 673e
000002f0: 62c5 06be b0c3 b23d e832 e83c 23e0 bf3d
00000300: 1c22 963c b43e 823b 4746 363d 1eb8 7fbe
00000310: e478 e13c 7bd9 1bbe c137 c63d 2cbc 31be
00000320: d7fe 973d 1ad2 e7bd d746 13be a5dc 363e
00000330: fe66 03bd a412 8dbd c0a7 273d e43a 063d
00000340: f7e7 41be 75bd b43c 153f 12be 4865 85be
00000350: 578d 42bd 04ba 62bd abc8 7a3c 7cc6 f53d
00000360: 38ae 723e 89a5 583e 6dab 1f3e dbf5 66be
00000370: 93dd 853e 30d3 32be c7d5 de3d 73ad 82be
00000380: 58d0 0c3d 25b8 e6bd de12 663e 93cc 4fbe
00000390: f27b 8abc b375 273e 1a8d 453c 3778 2fbe
000003a0: 22ef 1abb ffc5 49be 8982 1bbe 7481 8ebd
000003b0: 93d4 50be 46da 05be 10b8 043d 5736 c53d
000003c0: 7711 823e a33d 303d 8ad0 ffbd 985f 79be
000003d0: 2ae0 aebd d613 2a3e 2a6e d0bc 92cb 873d
000003e0: f898 8fbd d64f 53be 0ddc 88be d62a e33c
000003f0: 1fab 0abe 0e7e b9bd da6c 683e b5d6 203d
-0.093413554 -0.09350037 0.21770692 0.21770823 0.23739721 -0.0014836906 0.11403714 0.10901297
-0.22129825 0.015728276 0.13724813 0.19901647 0.14592686 -0.06177027 -0.20082287 -0.19754702
0.17220256 -0.12625729 0.14123976 0.10365643 -0.120787434 -0.06094291 0.015013809 0.006654836
0.073885426 0.023826659 -0.15221658 -0.011764612 -0.055498004 -0.048988927 0.20046969 -0.14937386
-0.20121078 0.17311995 0.21625225 0.2458137 -0.17875206 0.19069143 0.11642832 -0.014776468
0.12221033 0.10945879 0.08207424 0.070347995 0.16334194 0.04274886 -0.19130781 -0.13072269
-0.25226814 -0.16964728 0.013782068 0.042591266 0.036515087 -0.16144697 -0.23603617 -0.063678734
0.22986878 -0.1111271 0.14007336 -0.2465321 0.12556522 0.24441215 -0.06902574 -0.1997049
-0.07138071 0.19420362 -0.24812344 0.20830369 -0.09683232 -0.12348501 0.034125123 -0.06934274
0.059212986 0.17062114 -0.054458287 -0.20733318 -0.1597341 -0.09954645 -0.0037269036 0.112771384
0.10987766 -0.045224275 0.09872882 -0.11149086 0.21925485 0.25009108 0.18771762 0.087422326
0.2675074 -0.07714119 0.24465393 0.0016223798 0.13498262 0.041323375 0.15957935 -0.23217627
0.1277077 0.105865225 0.021088973 -0.10005247 -0.14144243 -0.10622811 -0.114075325 0.17426409
0.25775552 0.038236298 -0.1925014 -0.16987756 0.2405613 -0.07503862 0.07402935 0.10873615
0.14107089 0.11643596 -0.027198346 0.05233114 -0.054336444 -0.10074873 0.07805875 -0.13023725
0.116301924 0.10542891 0.0034443208 0.22015399 0.069659054 -0.023055654 -0.06920889 0.10386774
-0.22103727 0.16015178 0.15591444 0.13259315 -0.17752893 0.058389492 -0.04973183 0.18411718
-0.00648619 0.07912728 -0.060845386 -0.091827184 0.20230107 0.25719726 -0.11131894 -0.117667824
-0.09598682 0.21173358 -0.061046958 0.1396692 0.08683766 0.07178374 0.24351104 -0.2138803
0.07859392 0.22574632 0.20037517 0.04016402 0.15083463 -0.09663701 0.00035113795 0.12358553
-0.22267325 0.08264075 0.022680713 0.14392857 0.040758267 -0.10829599 0.039898526 0.064154595
0.19972552 -0.054337136 0.189078 0.019170525 0.23105763 -0.13705878 -0.153534 0.2001729
-0.24588852 -0.1429443 0.24797979 -0.024680488 -0.19932044 -0.21543568 -0.22528522 0.017074384
-0.12173446 -0.044135477 0.013340326 0.22620565 -0.13161233 0.08728731 0.028344586 0.093689226
0.018326811 0.00397476 0.044500615 -0.24972579 0.027523465 -0.15219681 0.09678603 -0.17356938
0.07421654 -0.113193706 -0.14382492 0.17857607 -0.032080643 -0.06888321 0.040931463 0.032771006
-0.18936144 0.022062996 -0.14281876 -0.26053834 -0.047498073 -0.05535318 0.015306632 0.120007485
0.23699272 0.21156897 0.15592737 -0.22554724 0.2614561 -0.17463374 0.108806185 -0.25522956
0.03437838 -0.112655915 0.22468135 -0.20292883 -0.016904805 0.16353492 0.012057567 -0.17135702
-0.002364107 -0.19704436 -0.15186514 -0.06958285 -0.2039359 -0.13071546 0.0324021 0.09629505
0.2540395 0.04302753 -0.124909475 -0.24352872 -0.0853885 0.1660913 -0.025443155 0.06630625
-0.07011598 -0.20635924 -0.26730385 0.027730387 -0.1354184 -0.09057246 0.22697774 0.03926726

ConvBase.1.feature.lis.2.pointwise.bias f4 [16]
00000000: c252 2a3d d258 83be 3fe8 58bd 007a 283d
00000010: 7f24 ce3c 30e4 e4bd 3c54 24be 5eef 323e
00000020: 2879 413e dbe0 283c 73a7 e6ba 61be fcbc
00000030: a45a debd 63cc f73d fdbe 40be dbbb 41bd
0.04158283 -0.25653702 -0.052955862 0.041131973 0.025163887 -0.11176336 -0.16047758 0.17474124
0.18893874 0.010307516 -0.0017597511 -0.030852498 -0.10857132 0.120995305 -0.18822856 -0.047298294

ConvBase.1.feature.lis.3.X_conv.conv.weight f4 [16, 1, 9, 1]
00000000: 67ab 96bd b77f 433d 36d9 a23e a96a 8cbd
00000010: 86e0 53be a706 753e 6112 a1bd 8e92 44be
00000020: c60a 6d3e 1975 163e 6d0a 893e 1872 67be
00000030: b57d 913d ca33 19be adf7 ce3d 55b8 99be
00000040: b9da fcbd da94 26bd 87a9 893e 99d1 843e
00000050: 9e01 913e 2511 e6ba d71d 8b3d cc56 7e3e
00000060: 40e6 a03e 5d26 283e 898f 68be c0fa 4fbe
00000070: 8e29 7fbd a204 a2be b589 0a3e 979c 9c3e
00000080: 1f69 7d3d 7ce5 0ebe cacb a93e 38cd 293d
00000090: dbaa e23d 22cb 20be de73 ab3e 23dc 05be
000000a0: ca6a 9e3e a293 873e f0ff d1bd 4f16 f93d
000000b0: 3030 28be 16ed 843e bc00 8d3e b737 9b3e
000000c0: fdba 02be dc3c 173e 19a8 143d b7c3 22be
000000d0: 5abf a1be 2b4a 763e c6b9 04be 052a 4f3e
000000e0: 1506 413e 7d30 0bbe 1763 43be 9708 503e
000000f0: cb97 8b3e ae4f 9c3e 09e9 0bbe 72bc 45be
00000100: a09b a13e 2955 423e 85ba 363e 368d 823e
00000110: 67d3 243e 9580 fe3d 6365 b8be 3759 5a3e
00000120: 84ad ffbd 831d cd3d b976 1abd b1f9 1ebe
00000130: c101 753e 7d5b 8dbe a013 08bd cbe2 0abe
00000140: 3c77 3dbe 4727 8bbe 803b 88be 88e6 78be
00000150: 2995 0cbd db7b 603e 98e5 e53c 1bfe 59be
00000160: ddd1 9bbe 954b 373e 17dc ab3d c02b 0abe
00000170: 4a3f 893e 5189 7d3e 5fcb 9fbe ad99 9fbd
00000180: cc5b 26be 49ad 933d 0c83 a33e 59a8 3e3e
00000190: 7ea4 2a3e 1210 38be 01f2 31bd 87ac 8c3e
000001a0: 24eb bbbe eb12 81be ce80 35be 841c a93c
000001b0: e0b8 2cbe 7f87 dcbd c681 463d 0ed1 8ebd
000001c0: 825f 34be 1bea 7fbe 0275 1a3d 9325 70be
000001d0: e2a0 343e 135c 9d3e 5a65 66be a22c 33be
000001e0: 9a82 683c ebb6 b0bd 0899 f5bd cdc4 893d
000001f0: 44e7 473e ab52 003e 58cb 7a3c fdac 6dbe
00000200: 6be2 87be 4451 14bd e035 a23d 163e 1b3d
00000210: 478c 963e 1bbc aabe 0cc7 82be 253f 853e
00000220: 75e1 7ebe 8e8d 5c3c af68 c73d b5a9 52be
00000230: cc74 81bb 4796 873e 7acf 2bbe 5c21 8b3e
-0.07356911 0.04772922 0.31806344 -0.06856281 -0.20691118 0.23928319 -0.078648336 -0.19196531
0.23148641 0.14693107 0.26765767 -0.22602117 0.07104055 -0.14961162 0.10105834 -0.30023447
-0.123464055 -0.0406693 0.26887152 0.2594116 0.28321546 -0.0017552717 0.06792801 0.24837798
0.31425667 0.16420884 -0.22711004 -0.20310497 -0.06229549 -0.3164416 0.13529094 0.3058822
0.06186783 -0.13954729 0.3316329 0.041455477 0.11067744 -0.15702489 0.33486837 -0.13072257
0.3094085 0.26479822 -0.10253894 0.12162458 -0.16424632 0.25962132 0.27539623 0.30315945
-0.12766643 0.1476931 0.036293123 -0.15894972 -0.31591302 0.2405173 -0.12961492 0.20230873
0.18849976 -0.13592716 -0.19080769 0.20315777 0.27264246 0.3052954 -0.13663115 -0.19310167
0.31564045 0.18977799 0.17844589 0.2549836 0.16096269 0.12426869 -0.36014852 0.21323095
-0.12484267 0.100153945 -0.03771088 -0.15524937 0.2392645 -0.27608863 -0.03322184 -0.13563077
-0.18502516 -0.27178404 -0.26607895 -0.2430669 -0.034321938 0.21922247 0.02806358 -0.2128834
-0.3043355 0.17899926 0.08391588 -0.13493252 0.26806098 0.24759413 -0.31209847 -0.07792983
-0.16245955 0.07210786 0.31935918 0.18618907 0.16664311 -0.1797488 -0.043443684 0.27475378
-0.36702836 -0.25209746 -0.17724916 0.02064348 -0.16867399 -0.10768031 0.048463605 -0.06973468
-0.17614558 -0.24991648 0.037709244 -0.23451833 0.17639497 0.3073431 -0.224996 -0.17497495
0.014191294 -0.08628639 -0.11992079 0.0672699 0.19521815 0.12531535 0.01530727 -0.23210521
-0.2653993 -0.036210313 0.07920432 0.037901007 0.29403898 -0.33346638 -0.25542486 0.26024738
-0.24890693 0.013461484 0.09736764 -0.2057255 -0.003950691 0.2648184 -0.16778365 0.2717389

ConvBase.1.feature.lis.3.X_conv.conv.bias f4 [16]
00000000: e962 a1bd 69f6 7dbe 6d8b 5e3e e9cf 8b3d
00000010: 99c7 e93d b78b b43d 7a61 93be b85e 603e
00000020: 726e 6e3e 8777 1c3e 94f6 8c3e d509 1d3e
00000030: d3ac 973e 43f9 c53d db39 5fbd 073a 57bc
-0.07880194 -0.2480103 0.21732874 0.06826765 0.11415023 0.08815711 -0.28785306 0.21911132
0.23284319 0.15279971 0.27531874 0.15335782 0.29624042 0.096666835 -0.054498535 -0.013136393

ConvBase.1.feature.lis.3.Y_conv.conv.weight f4 [16, 1, 1, 9]
00000000: 7a76 aabe 1c4f 86bd 4425 83bc b8df a8be
00000010: 5296 2abd b513 983e 02f8 3b3e 412a 17be
00000020: a1f2 12be 127f c83d dfad ccbd b3b1 04be
00000030: 31d9 ce3c 27aa 3ebe c70b 2abe ae1a 7f3e
00000040: 41b0 473c 8998 52be cde4 8ebd b909 3f3e
00000050: a45e a13e 1c2a 85be 6e61 f83d 7832 113e
00000060: 1512 35be 037f db3d a345 593e 4298 843e
00000070: ec9e 623d c3f1 16be 8857 06be e8df 453e
00000080: 4cb7 81be 8b6b 833e 4f8c acbe 1020 903d
00000090: 2170 3e3e d1f2 3fbe 4bd1 05be 8a79 1b3d
000000a0: af2d fbbd 109d a7bc ec1d 1cbd 048e a5bc
000000b0: beac a2bd 15fb 7a3e c864 dfbd 743e f43b
000000c0: c3c8 343e e1b8 133d da29 2abd 60b9 8c3e
000000d0: 2db3 783e 24b3 9ebe 2bcb 87be 3865 173e
000000e0: 14f1 b03d 0d21 abbd d0a6 893e 97bd 073e
000000f0: c0be 97be b0ae 283e a508 52be 0616 3dbe
00000100: 68dd 343e e759 81be 684f 333e 2ccc 973e
00000110: 2710 93be 90d9 1fbe 2339 a53e 7688 68be
00000120: da0f 863e 9f84 1abe c7d9 393e f6ee 90bd
00000130: 2811 6abe f3d8 233c 8d0c e13d 80da 493c
00000140: 8c08 a9be 8379 043e ce5a 233e a3b4 98bd
00000150: a3be 0ebe 8a89 333e ce10 31be 39f6 1c3e
00000160: fb23 22be a1d4 763d fe45 adba 2a5d 213e
00000170: 23d3 40bc 4286 893e 1a57 443e faec f93d
00000180: 70f4 08be 489e a13d f9bb a93e f37b 1f3e
00000190: c8cf aebd f71f 08be 6ee4 5abc fcdc 5a3e
000001a0: caea 3f3e d7be 9cbe 22a3 9c3e c30b ff3c
000001b0: d418 3abd ff05 9c3e 9a7e 423e 2fe8 b0bd
000001c0: 1e3f 203e 880c 863e 8e39 16be 2d9e 88bd
000001d0: 4247 1f3d cd50 843e 64d0 c23d d9da 443e
000001e0: 4415 5dbd 27fc 073e 00c6 a33c 6922 3fbd
000001f0: 32d5 ff3d 8da1 f73d 218c 0abe 3265 fdbd
00000200: 8153 753a 5305 69be 599f 5d3e 2670 5f3e
00000210: 9a14 803e c445 1fbd f645 9b3d 66f3 4a3e
00000220: 9ed8 e7bd 9a9a 29be 5482 293e da28 983e
00000230: 2f66 52be cf50 61be ba2a 41bd 98ed 6abe
-0.33293515 -0.06558058 -0.01600898 -0.32983184 -0.041647263 0.29702535 0.18356326 -0.14762212
-0.14350368 0.09789862 -0.09994101 -0.12958412 0.02525005 -0.18619595 -0.16606055 0.24912521
0.012188018 -0.20566 -0.06977234 0.18656053 0.31517518 -0.2600869 0.12127958 0.14179409
-0.17682679 0.10717585 0.2121797 0.25897413 0.05532734 -0.14740662 -0.13119328 0.19323695
-0.25335157 0.25667986 -0.33700797 0.070373654 0.18597461 -0.18744971 -0.1306812 0.037957706
-0.12264573 -0.020460635 -0.038114473 -0.02020932 -0.07943104 0.24509843 -0.109078944 0.007453734
0.1765471 0.036064986 -0.04154382 0.2748518 0.242871 -0.30996048 -0.26522192 0.14784706
0.08639732 -0.08355913 0.2688508 0.13255917 -0.29637718 0.16472888 -0.2051111 -0.18465433
0.17662585 -0.25263903 0.1751076 0.29647958 -0.2872326 -0.15610337 0.32270154 -0.22708306
0.2618397 -0.15089653 0.18149482 -0.07076828 -0.22858107 0.010000455 0.10988722 0.012320161
-0.33014333 0.12936978 0.15952608 -0.07456329 -0.1393991 0.17532936 -0.17291567 0.15328301
-0.15834038 0.060261372 -0.0013219712 0.15758196 -0.011769089 0.26860243 0.19173852 0.12203403
-0.13374496 0.07891518 0.33151224 0.15574627 -0.08535725 -0.13293444 -0.013360126 0.21373361
0.18741909 -0.3061435 0.3059321 0.031133538 -0.045433834 0.30473325 0.18993607 -0.086380355
0.15649077 0.26181436 -0.14670393 -0.06670795 0.038886316 0.25842896 0.095124036 0.19224109
-0.05397536 0.13279782 0.019991875 -0.046663675 0.12491836 0.1209136 -0.13530017 -0.12372817
0.00093584514 -0.22755937 0.21642818 0.21820125 0.25015718 -0.038884893 0.07581703 0.19819412
-0.11320613 -0.16562882 0.16553622 0.29718667 -0.20546792 -0.22003482 -0.047159888 -0.22942197

ConvBase.1.feature.lis.3.Y_conv.conv.bias f4 [16]
00000000: bd82 b73d d038 20be 1c4d 1d3e 0e95 bebd
00000010: a440 8cbe 1392 06be 05fd 873d d19a 63be
00000020: de08 ff3d a374 f5bd 96f9 893d 6c93 1b3e
00000030: c13d e03d b2b4 dabd 44eb 163e 410f 803b
0.08960483 -0.15646672 0.15361446 -0.09305774 -0.27393067 -0.1314166 0.066400565 -0.22227027
0.12452863 -0.11985137 0.06737058 0.15192956 0.109492786 -0.10678996 0.14738184 0.0039080684

ConvBase.1.feature.lis.3.pointwise.weight f4 [16, 16, 1, 1]
00000000: 923c d33d 2b6e 3ebb 7924 3f3d 1e07 7ebd
00000010: f5ca 5b3d fef8 fbbb 88d4 82bd 1229 a83d
00000020: 9b74 d43d 5575 ff3c 42f5 e23d 9a0b f43c
00000030: b75f 48be 2e25 15be befd 0fbd 1410 e03d
00000040: 23ec 833e d433 a8bd 6370 a2bd c57a 073e
00000050: 20cd c03d bfcd 853d 53ba 693e f684 223e
00000060: ccca 25be 40b9 d0bd b24c 853d 41dc 853e
00000070: ea15 e03b 82b5 4c3e b179 983d 2fc8 95bd
00000080: 6262 ba3d 9403 a2bd 971d 80be f70a 093e
00000090: bddf 44be 69c9 d73d 9d3d 26be 8b27 443e
000000a0: 11cc 89bd bac9 bcbb 05ec 32bd 50ce 7abe
000000b0: 524a e43c 4abc e83c 3adb 2cbe 2d7e 3bbe
000000c0: 307d c73d c709 d5bd fe61 42be 6840 c0bd
000000d0: b46e 03be 8b9b 353d f712 23be 429d 4abe
000000e0: 3536 bf3d 7596 58bc cfff 103e 865c 3a3e
000000f0: 77ab 903b 7e6f 24be 6e24 213d 4829 f43d
00000100: 4095 34be 07bd 383e 5d8a 623d e423 893c
00000110: 161b 0fbd 86e0 edbd f1f9 343e 06b6 613e
00000120: a08c 4cbc 5e55 49bd 04a8 173e 3721 ba3d
00000130: 438e d73d 559a aebd 7aeb 32be 23e2 5fbe
00000140: e4e0 72be 0e86 223c c412 2abe 6024 cdbd
00000150: 1a25 4d3e d9ea ffbc 27b5 5ebe 9ee1 06bd
00000160: 5873 a0bd 81ad e73b 270a c0bd eae7 c0bd
00000170: 1a08 34be 4089 6ebe 4081 dbbd e178 0dbd
00000180: 8031 b1bc e6ef e3bd 4caa 293e 9717 94bd
00000190: b324 1d3e f9c3 363e f569 403e 8039 43be
000001a0: 87eb 6abe 22c7 cdbc e1a3 113e 00eb 3fbd
000001b0: 779e 7d3e 2d3b 3abe 907e 4f3e 9037 8abc
000001c0: 95b6 273e ee0a 59be 1e14 4c3b 8a2f d3bd
000001d0: c154 a6bc 9bb2 fabd 5ac9 ec3d a190 2bbe
000001e0: 89e5 25be a711 f23b 0cc3 2fbe e225 e23d
000001f0: 1c24 8dbd d6f1 c4bd 8e38 233e 19d5 293e
00000200: 2a39 26be 7ab3 9fbc 8077 803e 7830 083d
00000210: e026 11be 1ff8 ccbd 2806 2dbd 2310 2b3e
00000220: 0ce7 72be f795 a03d 3776 b8bc 2eb3 7dbe
00000230: 8d42 953c caab 3e3e 73aa b53d 4b8e c1bd
00000240: 2056 2f3d 0793 dbbd f2bd 52bc bd00 94bc
00000250: 0585 833e 3516 21be 6d99 10be 0f40 db3c
00000260: da63 ad3b d228 e6bc 576f 493e 8878 453e
00000270: ca8f 153c cf31 7bbe dd86 673e c6fc ee3d
00000280: 3938 f83d 2d02 4cbd 817f 133e c22b d33d
00000290: 828a 063d 5f18 413d 81a0 383e 9e5d 31be
000002a0: c624 cbbd b025 3f3d 33ef 4c3e f8df 773d
000002b0: 4a61 afbd f25d f63c cd02 9cbc 7fe0 1e3e
000002c0: d097 183e a018 853d 8a9d 403d 5efb 0cbd
000002d0: c8a4 6cbd e3ea 253e 8fb1 1dbe 8028 76be
000002e0: 0092 2c3e a870 0dbe 062c 7e3e 44ce b6bd
000002f0: 7ff7 a1bc 1691 633e b2df 283e 1ac0 413e
00000300: 9861 6fbe 2f81 473d 825d 61be a490 653d
00000310: 7edc ad3d a37c 4f3e beed 4abe 75dd 2d3e
00000320: b5aa 493e 16c5 f03b 638c 07bd a569 4e3e
00000330: dcb1 17bd f4d2 6bbe 3fdd 393e 20df 0f3d
00000340: 6792 9a3d 1edd 033e 5c98 0c3e dc21 e03d
00000350: 8c72 303e 7b05 18be bb63 c9bd c89e abbd
00000360: ef02 f13d 8c09 2cbe a1ac a53d af43 37be
00000370: 6c01 8cbd 3288 95bc 4c26 4fbd 8cc1 d7bd
00000380: 6943 ca3d 1b47 203d e8a6 623e a3ff 443e
00000390: b219 313e 37e6 5cbe 6d09 ca3d dab6 363e
000003a0: 916f 143b ee9e 47be 2c3c 733e a213 af3c
000003b0: bc9b 07be 06ee 0d3d e5f0 783e 12f4 1a3e
000003c0: d381 e3bc 30a7 013e e330 0b3e 60ea 6d3d
000003d0: c4b5 62be 873a 4ebe c44e 1bbe 3f8a 4bbe
000003e0: 70f3 d53b f943 26bd 41b2 153e 2757 c43b
000003f0: 43df ffbd ecd5 49be 2418 c23c 87c3 5a3e
0.10314287 -0.0029057364 0.046665642 -0.062018506 0.05366035 -0.0076895943 -0.06388193 0.082109585
0.10373803 0.031183878 0.110819355 0.029790688 -0.19567762 -0.14564964 -0.035154097 0.10940567
0.25766096 -0.082130104 -0.07931592 0.13230427 0.094141245 0.065333836 0.22824983 0.15871033
-0.16190642 -0.10191584 0.06508769 0.26144603 0.00683855 0.19991115 0.07445086 -0.073135726
0.09100796 -0.07910839 -0.25022575 0.13383089 -0.19225974 0.10536463 -0.16234441 0.1915571
-0.06728376 -0.0057613524 -0.043682117 -0.24492764 0.02786747 0.028410096 -0.16880503 -0.18309851
0.097406745 -0.104022555 -0.18982694 -0.093872845 -0.12835199 0.04433779 -0.15925203 -0.19786552
0.09336511 -0.0132194655 0.14160083 0.18199357 0.0044149715 -0.16058156 0.039341383 0.11921936
-0.1763506 0.18040858 0.055307735 0.016740747 -0.03493794 -0.1161509 0.1767347 0.22042093
-0.0124846995 -0.049153678 0.14810187 0.090883665 0.10525181 -0.0852553 -0.1747264 -0.21863608
-0.23718601 0.009919656 -0.16608721 -0.100167036 0.20033684 -0.031239914 -0.21748792 -0.03293001
-0.078345 0.007070244 -0.093769364 -0.09419234 -0.17581216 -0.23294544 -0.10718012 -0.034539107
-0.021630049 -0.11129741 0.1656887 -0.07231062 0.15346031 0.17848195 0.1879042 -0.19064903
-0.22941409 -0.025119368 0.14222671 -0.046854973 0.24767481 -0.18186636 0.20263124 -0.016872197
0.16378243 -0.21195576 0.003113992 -0.10311802 -0.020304086 -0.122410975 0.11561842 -0.1675439
-0.16200842 0.007387358 -0.17164248 0.11042382 -0.06891653 -0.09616439 0.15939543 0.16585197
-0.16232744 -0.01949476 0.2509117 0.03324935 -0.14174986 -0.10008263 -0.0422422 0.16705374
-0.2372095 0.078411035 -0.022517307 -0.24775383 0.01822021 0.1862022 0.08870401 -0.09450968
0.042806745 -0.107214026 -0.012862669 -0.018066758 0.25687423 -0.15731128 -0.14121027 0.026763944
0.0052914442 -0.028095637 0.19671379 0.1928426 0.00912852 -0.24530719 0.2261004 0.116693065
0.121200986 -0.049806762 0.14404108 0.103110805 0.032846935 0.047142383 0.18029977 -0.17320868
-0.09919123 0.0466668 0.20013122 0.060516328 -0.08563478 0.030074093 -0.019044304 0.15515326
0.14901662 0.064988375 0.04702524 -0.03441941 -0.057774335 0.16202883 -0.15399764 -0.24038887
0.1685257 -0.13812506 0.24821481 -0.08926061 -0.019771336 0.22223315 0.16491583 0.18920937
-0.23377073 0.048707183 -0.22008327 0.056046143 0.08489321 0.20262389 -0.19817254 0.1697901
0.19694026 0.007347713 -0.033092868 0.20157488 -0.037034854 -0.23029691 0.18150805 0.035124898
0.07547455 0.12877318 0.13729995 0.10943958 0.17231196 -0.1484584 -0.09833475 -0.083798945
0.11768138 -0.16800517 0.08089567 -0.17896913 -0.06836209 -0.01825342 -0.050573632 -0.10534963
0.09876139 0.03913031 0.22133982 0.19238143 0.17294958 -0.21572195 0.09865079 0.1784319
0.0022649507 -0.1949422 0.23753422 0.021371666 -0.13243002 0.034650825 0.24310644 0.15132168
-0.027771866 0.12661433 0.13592868 0.058084846 -0.2213965 -0.20139514 -0.15166765 -0.19876955
0.006529264 -0.040592168 0.1461878 0.0059918347 -0.12493756 -0.19710511 0.023693152 0.2136365

ConvBase.1.feature.lis.3.pointwise.bias f4 [16]
00000000: 4f80 863e 17f2 d83d a642 e8bd 89bc 40be
00000010: e9cf a3bc 6b94 3c3e 9c54 253e 99df 5f3e
00000020: 3a27 25be 35be d9bd 631d 27bc 6733 2c3d
00000030: 4397 debd d694 d3bc d792 b63d a1c5 4f3e
0.26269767 0.1059305 -0.11340837 -0.1882192 -0.0199966 0.18415992 0.16145557 0.2186264
-0.16128245 -0.10631982 -0.010199877 0.04204121 -0.10868695 -0.025827806 0.08914726 0.20290233

ConvBase.1.feature.bn.weight f4 [16]
00000000: 7bb4 783f d5d4 5f3f b53b f73e 145b 083e
00000010: b6bf 2b3f fbf8 1c3f 6245 613f cc45 043f
00000020: dfeb 713f 555f 263f 5bf8 763e 781f 063f
00000030: 578b 4f3f 2f8d 0e3e db35 603e 7780 943e
0.9715039 0.8743413 0.4828774 0.13315994 0.670894 0.61317414 0.87996495 0.51669
0.94500536 0.64989215 0.24118178 0.5239177 0.8107199 0.13921045 0.21895544 0.2900426

ConvBase.1.feature.bn.bias f4 [16]
00000000: 6296 8abb 015a d03b be4d 4cbb 042f 2d3d
00000010: 1dfc d6bb 62db 53bc d13a 573c fd4b f73c
00000020: dd9c babc 2e8a b33c 5154 8a3c 329c 563c
00000030: 2ede e93c a129 053d 67d0 2d3d f8d5 b2b8
-0.004229353 0.0063583856 -0.0031174268 0.042281166 -0.006560816 -0.012930723 0.0131365815 0.030187601
-0.022779876 0.021916475 0.016885908 0.013098763 0.028548326 0.032510404 0.042435076 -8.527556e-05

ConvBase.1.feature.bn.running_mean f4 [16]
00000000: d6e1 7f3e f92c 15be 8509 983c 57a4 c3be
00000010: e27a 3a3a 1de3 a2be 950a 01be 6c8d c03e
00000020: 927e afbe 256d be3d ac42 bdbd efa7 d7bc
00000030: 8f84 5ebd 93de 493d 7077 0d3c e2f8 033d
0.24988493 -0.14567937 0.018559227 -0.3821132 0.0007113648 -0.318139 -0.12601693 0.37607896
-0.34276253 0.092981614 -0.09241232 -0.026325194 -0.054325636 0.04928453 0.008634433 0.032219775

ConvBase.1.feature.bn.running_var f4 [16]
00000000: 7fc8 183b 9fa4 f83a 2d7a 4d3b cb07 2b3b
00000010: b9a1 083b 9cda 8c3b d4c3 833b b620 733a
00000020: 686e 5b3b e130 043b bb9f e53a da03 2d3b
00000030: 6d5e 1b3b 7d81 c43a eba9 2e3b eb57 183b
0.0023312864 0.0018969959 0.003135334 0.0026097174 0.0020848347 0.004298521 0.0040211473 0.00092745887
0.0033482555 0.0020170736 0.0017518917 0.00264 0.0023707405 0.0014992204 0.0026651572 0.0023245763

ConvBase.1.bn.weight f4 [64]
00000000: 8f4d dd3e 7b4d cf3d 74b3 da3d 60a8 a73d
00000010: 1e04 bb3e 180d 443f f929 673f 6889 b3bb
00000020: 6199 313f c681 653f ac76 803e ef08 0e3f
00000030: e6ba 3e3d 3d62 0d3e 9158 483f df65 443f
00000040: 6463 463f df0a 503f c492 4b3f 0961 cf3e
00000050: f70b b83e b371 543f 72df 183f bd52 883e
00000060: 7fc7 5b3f 5ee6 1f3f ff4e fa3e ee4c 143f
00000070: 2020 4f3f d032 c23e ab9e 983e bb3d 6f3f
00000080: 08e6 303f 1b67 c83e 6003 113e a2da 703f
00000090: b74e 933e 36d1 4f3f 5d3b 973e c1ba ec3e
000000a0: 9257 b43e 5018 3b3f 279e 9d3e 4e21 023e
000000b0: 0911 953d 52c9 e73e ea1e 383e 0095 4e3f
000000c0: 5b99 3f3f 185a fa3e fadf 8d3e 487b 2b3f
000000d0: ca2c a33e 021b 7c3f ea45 83bb 078d 6d3f
000000e0: 762f 723f a3e2 6f3e ba9c 993e a159 2c3f
000000f0: a44f ea3e 40f8 123e b79e 5c3f 5d69 373f
0.43223235 0.101222 0.10678759 0.08186412 0.3652658 0.7658248 0.9029842 -0.0054790266
0.6937466 0.89651144 0.2509054 0.5548238 0.04656496 0.13807006 0.7826014 0.7671794
0.7749541 0.8126659 0.7952082 0.4050372 0.35946628 0.8298599 0.5971595 0.26625624
0.8585128 0.6246089 0.48888394 0.57929885 0.80908394 0.37929392 0.29808554 0.9345357
0.69101 0.39141163 0.14161444 0.9408361 0.28770992 0.81178606 0.29537478 0.46236232
0.3522306 0.7308397 0.30784723 0.12708017 0.0727864 0.45270783 0.17980543 0.80696106
0.74843377 0.4889686 0.27709943 0.6698499 0.3187011 0.9847871 -0.004006137 0.92793316
0.9460367 0.23426299 0.30002385 0.6732426 0.45763886 0.14352512 0.8617968 0.71645147

ConvBase.1.bn.bias f4 [64]
00000000: e8ae d73c 6369 333c 8cbd a73b d562 353c
00000010: 2998 e2bc b6e2 c9bc 6b30 263d 1b50 5dbc
00000020: 9559 ca3c 0219 603c c4c5 89bb 5359 62bc
00000030: 4aeb 44bb 79ae 853c ab24 23bd c316 283d
00000040: f000 c0bb 5208 9bbc 4416 b8bc 1819 20bd
00000050: dcc9 9c3c 6595 5dbc b9c1 023c f117 533a
00000060: 4ae2 98bc 41ec 4c3c 1133 92bc f239 b93c
00000070: 3a64 0f3c f118 1dbb 79c0 293c d44a e5bb
00000080: 9fd5 2ebc fc8c ebbc fcb9 d5bc e2f3 593d
00000090: b87e 32bb 6723 4f3c ad2b 03bb 3050 34bb
000000a0: 191f 9c3c 83cf 20bd 29c3 b43c c0b5 4a3b
000000b0: 8eaa fc3c 85b2 d73c 5659 a8bb f455 c53c
000000c0: 9802 fabb 7e4c 093d a1ad 343c 9fe2 fe3c
000000d0: 65d1 db3c e25a 12bd 9420 98bc a67c 543c
000000e0: e236 9cbc 79d7 773c 3a46 613c 23be d93c
000000f0: 5433 83bb 7ed6 943c bcca 21bc 10f5 ff3b
0.026328519 0.010950419 0.0051190313 0.011070927 -0.027660446 -0.024644237 0.04057352 -0.013507868
0.02470092 0.013677837 -0.0042044837 -0.013815242 -0.003004747 0.016318547 -0.03982989 0.041037332
-0.0058594868 -0.018924866 -0.022471555 -0.03908643 0.019139223 -0.013524388 0.007980757 0.0008052579
-0.01866259 0.012507499 -0.017846616 0.022610638 0.008751923 -0.0023971165 0.01036083 -0.0069974456
-0.010671048 -0.02875375 -0.02608966 0.0532111 -0.0027236175 0.012642718 -0.0020015046 -0.0027513616
0.019057797 -0.0392604 0.022065716 0.0030931085 0.030843046 0.026330242 -0.005137603 0.024088837
-0.0076297037 0.033520214 0.0110277245 0.03111392 0.026833246 -0.035731204 -0.018570222 0.012969172
-0.019069139 0.015127056 0.0137496535 0.026579922 -0.0040039215 0.018168684 -0.009874996 0.007811196

ConvBase.1.bn.running_mean f4 [64]
00000000: 84c4 443e 3674 0a3e 2727 f63d 95ad 7f3d
00000010: d12d 183e ddf8 0e3d 263e c53c 8878 0c3e
00000020: c0d2 6c3e db06 2d3e bc71 8f3d b439 e83c
00000030: e49d 5a3e 9e29 053d e21c 903d 7e53 873d
00000040: 781c 673e 4fb9 563e 17fc be3d 516e 953d
00000050: a1f1 473e e92b 413e 3d98 2f3e 94ee ff3d
00000060: a4f9 093e 346d 473e 1b4d 673d dfc6 013e
00000070: e054 093e 70fa 703d 9d73 953d 2d9b 983d
00000080: 7b65 ac3e 7d68 923e 8367 133e ac82 5f3d
00000090: d89c 5d3e 27fb 5b3e 33b5 823e c4b1 4b3e
000000a0: 6a7b 723e ca2f f83d b04f 823d 3a23 293e
000000b0: a872 753e ad2a 603d 0c69 843d 8960 aa3d
000000c0: c3c3 7c3e c011 a03e e761 103e f8af 8b3d
000000d0: 77ba 423e 40e0 233e 6d0b 6b3e 3371 473e
000000e0: afa2 863e b814 613e 62e9 aa3d 4134 2c3e
000000f0: d2e3 953e 981b 883d c4f6 ab3d 7555 df3d
0.1921559 0.13520893 0.120191865 0.0624214 0.14861228 0.034905303 0.024077486 0.13717854
0.2312727 0.16897146 0.07004115 0.028347827 0.21349293 0.032510392 0.07036759 0.06607722
0.22569454 0.20969127 0.09325426 0.07296432 0.19525768 0.18864407 0.17147918 0.12496677
0.13474137 0.19475251 0.056470018 0.1267352 0.13411283 0.058832586 0.07297442 0.074514724
0.33671173 0.28595343 0.14394955 0.054567978 0.21641862 0.21482526 0.2552887 0.19892031
0.23679891 0.1211849 0.063628554 0.16517344 0.23969519 0.0547282 0.064653486 0.08319194
0.24684052 0.31263542 0.14099847 0.06820673 0.19016443 0.16003513 0.22953577 0.19476776
0.26295993 0.2198056 0.083452955 0.16816808 0.29275376 0.06645888 0.08396676 0.109049715

ConvBase.1.bn.running_var f4 [64]
00000000: 4e57 bd3d 1d6b 313d 1895 143d bfde 8c3b
00000010: ee67 663d 8fcc 7e3b ea9b 413b fc1e 0c3e
00000020: 1668 ff3e a0bf 653e ec5a 0f3d 5446 953b
00000030: 17c7 b63e 1c57 c036 4f5b be3c d933 303c
00000040: e87d 9f3e 2941 d83e 5542 d53d bfc7 093c
00000050: 869f c23d 1c78 673e 9b89 243f b889 413e
00000060: d088 173e 5761 823e b846 043d 19ba 143e
00000070: 45df 143d ecfb 453c 6ba5 3a3b f631 853d
00000080: 420e 033f 18f7 803e 1a30 913d 31f6 0f3c
00000090: f74d f23d a72a 2b3e 34ef c33d c1a4 f13d
000000a0: 7102 b73d 0878 b33e 675f 0e3d df31 813d
000000b0: 60e8 ee3e 5843 093c e6a7 143d 7388 b43c
000000c0: 3327 3e3f b829 583e 4fb9 8a3d 3e8d f73b
000000d0: 0b50 093e e72c 523e a369 603e 3438 e33d
000000e0: 19e7 f13e ccd8 9e3d 1c49 183d a96d 283e
000000f0: 9ed2 853e 8b00 393c d63e ec3c a056 363d
0.09245168 0.04331504 0.036275 0.0042990143 0.05625146 0.003887925 0.0029542395 0.13683695
0.498841 0.2243638 0.03499882 0.004555503 0.35698768 5.7321868e-06 0.023236899 0.010754549
0.31150746 0.42237213 0.104130425 0.00840944 0.09503083 0.22604412 0.6427247 0.18900192
0.14798284 0.2546489 0.032294005 0.14524116 0.03634574 0.012083989 0.0028479944 0.0650367
0.5119363 0.25188518 0.07089253 0.008786724 0.11831277 0.1671549 0.09567109 0.117990024
0.089360125 0.35052514 0.03475895 0.0630834 0.46661663 0.008377872 0.036292933 0.02203772
0.74278563 0.21109664 0.06773626 0.007554679 0.1340944 0.20524941 0.21915297 0.11094704
0.47246626 0.077561945 0.037179098 0.16448082 0.2613725 0.011291633 0.028838556 0.044516206
