waights/weights11.pth (torch_old, 670822 bytes, 196 tensors)

ConvBase.1.feature.lis.0.X_conv.conv.weight f4 [1, 1, 3, 1]
-0.01224428 -0.19767249 -0.12364041
00000000: 3c9c 48bc a86a 4abe 2f37 fdbd

ConvBase.1.feature.lis.0.Y_conv.conv.weight f4 [1, 1, 1, 3]
0.3120732 -0.072388835 -0.13719179
00000000: 0fc8 9f3e 9940 94bd 017c 0cbe

ConvBase.1.feature.lis.0.pointwise.weight f4 [16, 1, 1, 1]
-0.3583227 -0.22669846 -0.7743607 -0.9393369 -0.49969977 -0.08102758 0.023626074 0.5892571
0.8312514 0.65874976 0.9261537 0.05120497 0.6950088 0.0006233737 0.46380728 -0.50029206
00000000: 1376 b7be a423 68be 813c 46bf 6278 70bf
00000010: a6d8 ffbe caf1 a5bd 788b c13c 8ed9 163f
00000020: e4cc 543f d3a3 283f 6918 6d3f 4dbc 513d
00000030: 19ec 313f e769 233a 2678 ed3e 2413 00bf

ConvBase.1.feature.lis.0.pointwise.bias f4 [16]
0.82108545 -0.28659046 0.7067352 -1.0359646 -0.3036998 -0.8142498 -0.32957894 0.92790323
-0.6806672 0.26161325 -0.45252785 -0.54912305 0.047423173 -0.077133775 -0.2805978 -0.39830455
00000000: a832 523f fcbb 92be 99ec 343f 7d9a 84bf
00000010: 8a7e 9bbe ad72 50bf 92be a8be 118b 6d3f
00000020: 3540 2ebf 2cf2 853e bbb1 e7be 5493 0cbf
00000030: cd3e 423d 50f8 9dbd 84aa 8fbe 93ee cbbe

ConvBase.1.feature.lis.1.X_conv.conv.weight f4 [16, 1, 5, 1]
0.23314522 -0.307215 -0.0012279043 0.350277 0.2483032 0.019605754 0.33360425 -0.0027569926
0.14602675 -0.26931491 -0.21316785 -0.30646887 -0.049343854 0.2850002 -0.107257396 -0.04176757
0.048013896 0.19154432 0.4194722 0.010129484 -0.39009425 -0.10392175 0.023414463 -0.32514447
0.35010222 0.11604633 0.25095063 -0.38387418 0.2193082 0.15423582 -0.2782351 -0.17420945
-0.18100363 0.1973804 -0.009979307 0.06657786 -0.056178384 0.43100634 0.40808138 0.13017061
0.051370513 -0.3270669 0.3514644 0.23164916 0.09961847 -0.31249973 -0.29980525 0.090349786
0.13177794 -0.39047787 -0.069781296 -0.07182046 -0.4572095 -0.022964314 0.37027848 -0.4328124
-0.44224784 0.29126966 0.18833587 0.3687417 -0.16658664 -0.05807567 -0.06349622 0.40483484
-0.2608376 -0.35413444 0.3454569 -0.18001059 0.08485489 -0.07812884 -0.020365955 2.6995276e-05
-0.28950295 -0.443363 0.25365248 0.35591528 -0.054320186 0.15772568 0.19459361 -0.40846726
00000000: 9fbd 6e3e 494b 9dbe a2f1 a0ba 8257 b33e
00000010: 3243 7e3e 3f9c a03c 2dce aa3e a9ae 34bb
00000020: 0988 153e a5e3 89be ac48 5abe 7de9 9cbe
00000030: c81c 4abd 8ceb 913e c4a9 dbbd 7914 2bbd
00000040: 38aa 443d 3224 443e 0fc5 d63e 23f6 253c
00000050: 6fba c7be edd4 d4bd b0cf bf3c 5679 a6be
00000060: 9940 b33e b3a9 ed3d 9a7c 803e 288b c4be
00000070: 5492 603e ffef 1d3e d574 8ebe f663 32be
00000080: 0459 39be 161e 4a3e 3f80 23bc f959 883d
00000090: 4e1b 66bd ddac dc3e 0bf0 d03e 724b 053e
000000a0: e369 523d 5075 a7be 24f3 b33e 7035 6d3e
000000b0: c504 cc3d f7ff 9fbe 1380 99be 4f09 b93d
000000c0: ccf0 063e b7ec c7be 7fe9 8ebd 9b16 93bd
000000d0: 5d17 eabe a81f bcbc 2495 bd3e 9699 ddbe
000000e0: 4f6e e2be 4c21 953e 1edb 403e b6cb bc3e
000000f0: b095 2abe c1e0 6dbd 4e0a 82bd 8346 cf3e
00000100: 828c 85be 1c51 b5be badf b03e b254 38be
00000110: 67c8 ad3d 0302 a0bd 81d6 a6bc ea73 e237
00000120: bb39 94be 7a00 e3be bdde 813e 873a b63e
00000130: d87e 5ebd d782 213e 8c43 473e 9f22 d1be

ConvBase.1.feature.lis.1.X_conv.conv.bias f4 [16]
0.026039483 0.088311896 0.052185945 -0.45142025 -0.29232255 -0.39355516 -0.4537844 0.100080945
0.15776795 -0.14933027 0.3044388 0.2897324 0.067086205 0.11920203 -0.4189884 -0.004383606
00000000: c150 d53c dedc b43d eec0 553d 8e20 e7be
00000010: 4dab 95be 1080 c9be 6e56 e8be 3df7 cc3d
00000020: ec8d 213e 09ea 18be 67df 9b3e ce57 943e
00000030: 7e64 893d 3220 f43d a685 d6be 5aa4 8fbb

ConvBase.1.feature.lis.1.Y_conv.conv.weight f4 [16, 1, 1, 5]
0.26035497 0.34766534 -0.36376932 -0.19928278 0.02363217 0.3393862 0.42702982 -0.109138235
0.003945317 -0.42219663 -0.3326768 0.05475149 0.25588268 -0.31026933 -0.23944342 -0.26640096
0.2532296 0.46255183 -0.21166587 -0.34261882 -0.25864843 0.39553353 0.39201197 -0.35187185
0.19921663 -0.23985699 -0.19200428 -0.35126227 0.12131619 -0.37599507 0.076143146 -0.108230926
0.046363458 0.26236647 0.10227866 -0.35127282 0.24921599 -0.06608267 -0.10769603 0.061906274
-0.054894403 -0.4160416 -0.08778484 0.1701195 -0.29296446 0.20490968 -0.34333083 -0.13992913
0.41808128 0.3213533 0.25160554 0.13198616 -0.08445141 0.19430768 -0.27844065 0.39949548
-0.36302376 0.25780055 -0.12000197 -0.11843972 0.43936744 -0.22293784 0.16291974 0.42575097
-0.0023291404 0.30075666 0.020871263 0.2454343 0.40262064 -0.26096463 -0.30186397 -0.43317962
0.36247152 -0.42185947 0.39955184 0.326775 -0.078220636 -0.4596309 -0.2668631 -0.008813459
00000000: 3f4d 853e 3101 b23e f93f babe c910 4cbe
00000010: 4198 c13c 07c4 ad3e a7a3 da3e de83 dfbd
00000020: b847 813b 282a d8be 9d54 aabe 1943 603d
00000030: 0e03 833e 9fdb 9ebe a830 75be b565 88be
00000040: 4fa7 813e 98d3 ec3e f0be 58be bc6b afbe
00000050: 916d 84be 5f83 ca3e cbb5 c83e 8c28 b4be
00000060: 72ff 4b3e 129d 75be c59c 44be a6d8 b3be
00000070: 9f74 f83d 6d82 c0be f0f0 9b3d 2da8 ddbd
00000080: 9ce7 3d3d e654 863e 7977 d13d 08da b3be
00000090: 7a32 7f3e 5a56 87bd bc8f dcbd 6f91 7d3d
000000a0: f4d8 60bd 6803 d5be 8ac8 b3bd ce33 2e3e
000000b0: 70ff 95be d8d3 513e 0fc9 afbe 9549 0fbe
000000c0: c00e d63e 6b88 a43e 71d2 803e 6127 073e
000000d0: dcf4 acbd 98f8 463e c68f 8ebe ac8a cc3e
000000e0: 40de b9be 6ffe 833e 98c3 f5bd 8690 f2bd
000000f0: c5f4 e03e d149 64be 6fd4 263e 08fc d93e
00000100: 7ea4 18bb c7fc 993e 36fa aa3c 2153 7b3e
00000110: 4b24 ce3e 289d 85be ea8d 9abe b8c9 ddbe
00000120: de95 b93e f7fd d7be 0f92 cc3e 0e4f a73e
00000130: 2432 a0bd be54 ebbe 48a2 88be 5466 10bc

ConvBase.1.feature.lis.1.Y_conv.conv.bias f4 [16]
0.19538121 0.26035166 -0.13477552 0.2784983 0.123889856 0.060531735 0.052483995 0.14614037
0.35648406 0.06875365 -0.42655635 -0.16304067 -0.36990386 0.19429341 -0.32952672 -0.37715182
00000000: 0312 483e d04c 853e 9802 0abe 5497 8e3e
00000010: f7b9 fd3d 20f0 773d 75f9 563d d2a5 153e
00000020: 1485 b63e b7ce 8c3d 9865 dabe 22f4 26be
00000030: 0a64 bdbe daf4 463e bab7 a8be 0b1a c1be

ConvBase.1.feature.lis.1.pointwise.weight f4 [16, 16, 1, 1]
-0.18286598 -0.2353383 -0.1414492 0.17128688 -0.21995533 0.111714125 0.08845083 0.23359518
-0.03949769 -0.088716224 -0.045193475 0.1322568 -0.201387 0.22375955 -0.23203263 0.21467414
0.17059365 0.0892904 0.07241086 -0.05290591 -0.19729927 -0.18310477 0.15319432 0.20208198
0.025946934 0.14566466 -0.20428975 0.09726982 -0.12126568 0.09842014 0.18143775 0.006370579
-0.15067005 -0.09940976 -0.033294693 0.05704273 -0.29461327 -0.008097278 0.07968793 -0.18654864
0.1365351 0.018989855 -0.19456843 0.18897493 0.007671623 -0.15446953 -0.09452813 -0.24457715
-0.006876431 -0.18397449 0.1389253 -0.0994054 -0.18801314 0.057464305 0.20677309 0.0051519247
0.07885361 0.005147944 0.16919181 -0.09787243 0.088439785 -0.2687997 -0.020314 -0.2616068
-0.17019774 0.20781255 0.2261447 0.17732362 -0.17997013 0.20571473 0.18833618 -0.15398434
0.23566115 0.11948699 0.012895611 -0.014437038 -0.10967927 -0.15435383 0.070867985 -0.1315863
0.10832139 -0.110741414 -0.03432034 -0.080126636 -0.08555709 0.025341742 0.050007526 -0.02083487
-0.15276542 -0.046367314 0.03152 -0.21921574 0.0018767603 -0.13609003 -0.027969649 0.17780152
-0.25014314 0.03909948 -0.06845923 0.018412052 0.08147783 -0.19425279 -0.07879007 0.035711057
-0.16041642 0.14651406 0.2731418 -0.022238607 -0.17302412 -0.033006612 -0.03448656 0.22578448
-0.17770365 0.14086701 -0.13464181 0.075978026 0.17913343 -0.18247055 -0.033156943 0.1360898
-0.13861217 -0.038140573 -0.12144873 -0.096153714 0.02615351 -0.15775195 -0.042929143 -0.12986752
0.049711753 0.078115866 -0.21879579 -0.25175026 -0.04090978 0.028804507 0.24516006 -0.09625805
0.10757444 -0.15078668 0.24623989 -0.2594973 0.19285817 -0.18581441 0.19501436 0.14717077
0.1245217 0.06392533 0.22928412 -0.09217726 -0.0046579554 -0.0016261913 0.21649583 -0.12132807
-0.005297717 0.21472503 -0.13931587 0.06713565 -6.0306527e-05 -0.20543756 0.15485024 0.13482352
0.2692335 0.23376209 -0.041598596 0.08019086 0.13267246 0.040586095 -0.21519364 0.010467323
-0.1676706 0.21510431 0.20243624 -0.15030056 0.19639401 -0.12798946 -0.22913721 -0.19144656
-0.1564906 -0.009638922 -0.05504021 0.2270738 0.0010042143 -0.048188314 -0.0669909 -0.16933332
0.063607104 0.13337055 0.059500612 0.10576778 0.061981175 -0.12851384 -0.20893231 0.01972409
0.12424398 -0.2343415 -0.07019637 -0.12779106 0.09846533 -0.15289931 0.09782377 0.022950051
0.14682889 -0.20326532 0.06315553 0.14461435 0.13837977 -0.081285655 -0.021296836 -0.26446167
-0.21457468 0.19036208 -0.14645931 -0.058912024 0.15148538 -0.10272496 -0.23545441 -0.052795522
-0.10397021 -0.031242887 0.14543392 -0.15330431 0.14065163 0.17612521 -0.1183231 -0.20496935
0.13874236 -0.019126318 -0.121540494 0.15009558 -0.05413485 0.10410943 0.07710673 0.21611273
0.10579842 -0.19192088 -0.13602257 -0.0015747655 0.159809 -0.16061278 0.21547906 -0.022829397
-0.028633839 -0.14340752 0.17983398 -0.22160687 -0.060457494 0.05806496 -0.00871354 -0.17784278
-0.109865084 -0.08151996 -0.04441604 -0.19826044 -0.04613009 0.21704446 0.28178003 -0.09569235
00000000: 3841 3bbe 86fc 70be 0fd8 10be d465 2f3e
00000010: f83b 61be 60ca e43d b525 b53d 9333 6f3e
00000020: 54c8 21bd dab0 b5bd cb1c 39bd 546e 073e
00000030: 6538 4ebe 3921 653e f699 6dbe 8ad3 5b3e
00000040: 1ab0 2e3e e3dd b63d 254c 943d deb3 58bd
00000050: d208 4abe d17f 3bbe f9de 1c3e 94ee 4e3e
00000060: aa8e d43c 1e29 153e 5531 51be 6635 c73d
00000070: 245a f8bd 8090 c93d d1ca 393e 4ac0 d03b
00000080: 4049 1abe 5897 cbbd 0460 08bd a3a5 693d
00000090: 8dd7 96be 72aa 04bc 6d33 a33d 9b06 3fbe
000000a0: dbcf 0b3e 9d90 9b3c f23c 47be a582 413e
000000b0: 3d62 fb3b 432d 1ebe f797 c1bd 6f72 7abe
000000c0: af53 e1bb cf63 3cbe 6f42 0e3e 0f95 cbbd
000000d0: 8486 40be b15f 6b3d 53bc 533e 7ad1 a83b
000000e0: 007e a13d 16b0 a83b 9e40 2d3e 5771 c8bd
000000f0: eb1f b53d 1da0 89be 8c69 a6bc 54f1 85be
00000100: 5148 2ebe d0cc 543e 7a92 673e 5394 353e
00000110: 174a 38be e2a6 523e 33db 403e 12ae 1dbe
00000120: 2851 713e 98b5 f43d 1d48 533c 5489 6cbc
00000130: 869f e0bd ee0e 1ebe 3c23 913d 8fbe 06be
00000140: 9bd7 dd3d 65cc e2bd 7c93 0cbd 6f19 a4bd
00000150: 8e38 afbd 7c99 cf3c b1d4 4c3d e4ad aabc
00000160: 8a6e 1cbe a7eb 3dbd 1e1b 013d 177a 60be
00000170: a0fd f53a 2f5b 0bbe 9b20 e5bc 9a11 363e
00000180: c312 80be c726 203d 5a34 8cbd dfd4 963c
00000190: d9dd a63d 34ea 46be b05c a1bd c245 123d
000001a0: 3444 24be c807 163e 3ed9 8b3e bd2d b6bc
000001b0: 3c2d 31be f131 07bd c741 0dbd 0c34 673e
000001c0: f2f7 35be 713f 103e 8bdf 09be 5e9a 9b3d
000001d0: c16e 373e 8fd9 3abe 93cf 07bd 205b 0b3e
000001e0: 59f0 0dbe 4a39 1cbd 1dba f8bd 3dec c4bd
000001f0: e33f d63c ba89 21be 78d6 2fbd fefb 04be
00000200: 8d9e 4b3d 36fb 9f3d 010c 60be 69e5 80be
00000210: 0391 27bd 6ef7 eb3c 3d0b 7b3e f122 c5bd
00000220: fd4f dc3d d367 1abe 4f26 7c3e d5dc 84be
00000230: 9d7c 453e 2246 3ebe d8b1 473e efb3 163e
00000240: 3c05 ff3d 49eb 823d 75c9 6a3e 6ec7 bcbd
00000250: c3a1 98bb ed25 d5ba 15b1 5d3e da7a f8bd
00000260: 7998 adbb e1e0 5b3e d2a8 0ebe 6a7e 893d
00000270: a4f1 7cb8 395e 52be 1091 1e3e 2d0f 0a3e
00000280: f9d8 893e 545f 6f3e 4a63 2abd 1b3b a43d
00000290: 4adb 073e 9b3d 263d b95b 5cbe 227f 2b3c
000002a0: d7b1 2bbe 4e44 5c3e 724b 4f3e 64e8 19be
000002b0: 831b 493e ab0f 03be f2a2 6abe 910a 44be
000002c0: 123f 20be 92ec 1dbc d871 61bd 0986 683e
000002d0: d79f 833a 1c61 45bd 8632 89bd b765 2dbe
000002e0: 7144 823d 4a92 083e eab6 733d c79c d83d
000002f0: f9df 7d3d 2299 03be 5af2 55be 6a94 a13c
00000300: a173 fe3d 38f7 6fbe 1dc3 8fbd a9db 02be
00000310: 31a8 c93d a391 1cbe d457 c83d bf01 bc3c
00000320: 505a 163e c924 50be b057 813d c915 143e
00000330: 6db3 0d3e 1879 a6bd b476 aebc 8567 87be
00000340: 77b9 5bbe 47ee 423e 6ef9 15be bc4d 71bd
00000350: fc1e 1b3e 7761 d2bd f61a 71be 1e40 58bd
00000360: 55ee d4bd 15f1 ffbc a1ec 143e cefb 1cbe
00000370: fb06 103e 2b5a 343e 6253 f2bd 7ce3 51be
00000380: 7a12 0e3e ccae 9cbc 39ea f8bd a8b2 193e
00000390: 81bc 5dbd 5337 d53d 22ea 9d3d a84c 5d3e
000003a0: d8ac d83d e886 44be 8049 0bbe 5d68 ceba
000003b0: f8a4 233e ad77 24be 8ba6 5c3e b704 bbbc
000003c0: 8391 eabc 6cd9 12be 6626 383e e9ec 62be
000003d0: 47a2 77bd 86d5 6d3d 3cc3 0ebc 6b1c 36be
000003e0: f200 e1bd f0f3 a6bd 98ed 35bd c904 4bbe
000003f0: e8f2 3cbd e740 5e3e 7945 903e 5afa c3bd

ConvBase.1.feature.lis.1.pointwise.bias f4 [16]
0.23933655 -0.23401845 0.14092068 -0.17135927 -0.08367517 -0.2622103 -0.1987472 0.10963716
-0.18014017 0.2558782 -0.013962068 0.14074543 0.069734074 0.025941554 0.13264315 -0.27706885
00000000: a414 753e 88a2 6fbe 834d 103e ce78 2fbe
00000010: e35d abbd 6e40 86be 6384 4bbe 7389 e03d
00000020: aa76 38be 7802 833e 28c1 64bc 921f 103e
00000030: bdd0 8e3d 6283 d43c 9bd3 073e f8db 8dbe

ConvBase.1.feature.lis.2.X_conv.conv.weight f4 [16, 1, 7, 1]
0.26275906 -0.35627702 0.38565004 0.11480286 0.3524878 -0.09603818 -0.29467967 0.087823234
0.010640955 0.15015142 0.08809312 -0.16258542 0.18332776 0.3056526 -0.1466062 -0.08673393
-0.3318073 0.14313163 -0.24119595 0.3050432 -0.02010976 -0.35625303 0.1521879 -0.20416349
0.32323667 -0.088455446 -0.18686292 0.024009546 0.09104012 0.21076103 0.29031283 0.35156012
0.18951519 -0.27993178 0.3178885 -0.038955327 -0.117499806 -0.04178046 0.32217255 -0.32832175
-0.18463127 -0.1909567 -0.1331804 -0.26004303 -0.22580558 0.05196425 0.07856686 -0.394274
0.19276233 -0.28594366 -0.21720074 0.3579738 0.2632866 0.2756787 0.19139469 0.33466056
-0.3146898 0.30028215 0.20073034 -0.042347826 0.13683458 0.02127398 -0.12531638 0.24397276
0.2444599 0.27958786 0.09369651 -0.355181 -0.079085246 -0.35616848 0.3475166 0.3319007
0.21522002 -0.16988473 0.10096856 -0.13104028 0.25851637 0.11857646 0.03943833 0.112712756
0.2833856 -0.11301921 -0.22400802 -0.13413572 0.042721935 -0.13969533 0.08941014 0.031576335
0.02074524 0.16094542 -0.3456399 -0.14196691 0.019696828 0.2245081 -0.38402995 -0.19373679
-0.30023527 -0.37701318 0.10157605 0.38054743 -0.04867619 -0.18698323 -0.17167915 -0.028104201
0.036229216 0.31777674 0.15613972 -0.2965073 -0.19682267 0.15173085 -0.26402816 -0.021208124
00000000: 5b88 863e f169 b6be ec73 c53e c31d eb3d
00000010: 4879 b43e aaaf c4bd 41e0 96be abdc b33d
00000020: 6657 2e3c 4bc1 193e 2a6a b43d cb7c 26be
00000030: 46ba 3b3e 7f7e 9c3e f01f 16be 8fa1 b1bd
00000040: a5e2 a9be 1991 123e 12fc 76be 9f2e 9c3e
00000050: 39bd a4bc cc66 b6be 25d7 1b3e 3c10 51be
00000060: 477f a53e 2128 b5bd fe58 3fbe abaf c43c
00000070: 3e73 ba3d bdd1 573e e2a3 943e b0ff b33e
00000080: 4510 423e 3853 8fbe 48c2 a23e 9f8f 1fbd
00000090: bda3 f0bd fd21 2bbd cdf3 a43e ca19 a8be
000000a0: fb0f 3dbe 278a 43be 7160 08be 5c24 85be
000000b0: 9439 67be 77d8 543d a9e7 a03d 48de c9be
000000c0: 7d63 453e 3567 92be df69 5ebe 5848 b73e
000000d0: 80cd 863e c225 8d3e f8fc 433e a158 ab3e
000000e0: 051f a1be 95be 993e 418c 4d3e ea74 2dbd
000000f0: 5d1e 0c3e c546 ae3c f052 00be ffd3 793e
00000100: b253 7a3e 2426 8f3e f5e3 bf3d 49da b5be
00000110: 72f7 a1bd b75b b6be b2ed b13e e3ee a93e
00000120: a362 5c3e 43f6 2dbe 9bc8 ce3d 6c2f 06be
00000130: 425c 843e 37d8 f23d 168a 213d f2d5 e63d
00000140: eb17 913e 9e76 e7bd 5c62 65be e05a 09be
00000150: 32fd 2e3d 4b0c 0fbe aa1c b73d 3056 013d
00000160: ecf1 a93c e0ce 243e b7f7 b0be c65f 11be
00000170: 3e5b a13c 74e5 653e 939f c4be f062 46be
00000180: 70b8 99be df07 c1be 1b07 d03d 1dd7 c23e
00000190: af60 47bd 8878 3fbe a9cc 2fbe c83a e6bc
000001a0: 1665 143d a2b3 a23e 17e3 1f3e cecf 97be
000001b0: e28b 49be 555f 1b3e b32e 87be a9bc adbc

ConvBase.1.feature.lis.2.X_conv.conv.bias f4 [16]
-0.050265864 0.24743475 -0.14290163 -0.15319449 -0.039627746 0.19484547 0.22148222 0.09125358
0.16984966 -0.077121615 0.3376635 0.08912588 0.015390659 -0.11323568 0.36454284 -0.08942331
00000000: 94e3 4dbd 895f 7d3e ce54 12be 04df 1cbe
00000010: b450 22bd 9285 473e 3ccc 623e 28e3 ba3d
00000020: 12ed 2d3e f0f1 9dbd 3be2 ac3e a187 b63d
00000030: 1a29 7c3c 1ce8 e7bd 5ca5 ba3e 9123 b7bd

ConvBase.1.feature.lis.2.Y_conv.conv.weight f4 [16, 1, 1, 7]
0.036155693 0.24854413 -0.2828528 -0.12700415 0.06373436 -0.33516383 0.3348997 0.06102286
-0.3290633 0.10162155 -0.0062219966 -0.31623846 0.17985488 0.12441492 -0.11660625 0.04950106
-0.23030287 0.2552105 0.07553696 0.15833616 -0.014190007 -0.09600921 0.29574123 0.05162378
0.34727737 -0.0053906706 0.10786103 0.31481826 0.25199494 0.19356416 0.21462221 -0.02927015
0.13125609 0.12896487 0.21677774 0.14488079 -0.05728083 0.09527154 -0.4131881 0.13110572
0.08164518 0.2853175 0.1839422 -0.2628271 -0.35415047 0.2072358 0.018077137 0.31588188
-0.019490112 -0.13206628 -0.02735037 0.14409967 -0.2732317 -0.3170197 -0.011078208 0.10380857
-0.3604165 0.1144196 -0.35342625 -0.26212433 0.2723983 0.0057181846 -0.071014956 -0.07291312
-0.3710713 -0.1821562 0.127224 0.1426036 -0.18298978 -0.27971733 -0.08474271 0.037891056
0.2990569 0.14229317 0.10597706 0.2732544 -0.31892544 0.21746728 -0.25512853 0.15478337
-0.1481889 -0.1704537 -0.38107917 0.35087755 0.12903427 0.17148703 -0.038153835 -0.23930387
0.068160646 0.2976923 -0.13787441 -0.016185043 -0.0015706591 0.21490529 0.113611065 0.4017432
0.17195038 -0.18880625 0.2212652 -0.048394937 -0.13597372 -0.091906205 0.26928678 0.3531708
0.21766695 -0.26191124 0.09604263 -0.33780247 -0.25235254 0.001591834 -0.045744818 0.32727814
00000000: fe17 143d 5a82 7e3e 15d2 90be 600d 02be
00000010: 2987 823d 989a abbe f977 ab3e 1bf3 793d
00000020: fc7a a8be f61e d03d e4e1 cbbb 02ea a1be
00000030: e12b 383e 40cd fe3d 42cf eebd a0c1 4a3d
00000040: 84d4 6bbe f3aa 823e 1fb3 9a3d e022 223e
00000050: 347d 68bc 7aa0 c4bd 656b 973e 7573 533d
00000060: 57ce b13e 39a4 b0bb 3ee6 dc3d dc2f a13e
00000070: 7b05 813e af35 463e edc5 5b3e f4c7 efbc
00000080: ff67 063e 5e0f 043e fcfa 5d3e a15b 143e
00000090: 4e9f 6abd ba1d c33d 648d d3be 9440 063e
000000a0: 9735 a73d 2315 923e 585b 3c3e 4691 86be
000000b0: 3653 b5be 9f35 543e 8116 943c 45bb a13e
000000c0: baa9 9fbc 623c 07be e20d e0bc dd8e 133e
000000d0: 06e5 8bbe 6850 a2be 5f81 35bc 9699 d43d
000000e0: 8388 b8be d354 ea3d 49f4 b4be 2935 86be
000000f0: ca77 8b3e 9c5f bb3b 4a70 91bd 7953 95bd
00000100: 0ffd bdbe 2887 3abe 0247 023e ae06 123e
00000110: ac61 3bbe 1c37 8fbe 968d adbd a733 1b3d
00000120: fc1d 993e 4db5 113e 800a d93d 00e8 8b3e
00000130: 324a a3be beaf 5e3e 35a0 82be 887f 1e3e
00000140: d5be 17be 6a8b 2ebe cf1c c3be 39a6 b33e
00000150: 8f21 043e 4c9a 2f3e 3247 1cbd 130c 75be
00000160: cf97 8b3d 206b 983e f32e 0dbe 7f96 84bc
00000170: 93de cdba 2210 5c3e ebac e83d 49b1 cd3e
00000180: c313 303e 6d56 41be 5893 623e c539 46bd
00000190: b23c 0bbe 5239 bcbd f5df 893e ced2 b43e
000001a0: 16e4 5e3e 3b19 86be 00b2 c43d 72f4 acbe
000001b0: 5a34 81be 16a5 d03a eb5e 3bbd 0091 a73e

ConvBase.1.feature.lis.2.Y_conv.conv.bias f4 [16]
0.08863073 0.16721962 -0.34870264 -0.3765642 -0.2526778 -0.03148899 0.15556094 -0.06285855
0.09995357 0.34008554 -0.11709709 0.31904542 -0.28794888 0.107209586 0.34154382 0.2956948
00000000: 0784 b53d 9f3b 2b3e 2789 b2be 06cd c0be
00000010: fc5e 81be 99fa 00bd 5e4b 1f3e fcbb 80bd
00000020: 75b4 cc3d b11f ae3e 99d0 efbd ec59 a33e
00000030: 096e 93be b390 db3d d5de ae3e 4f65 973e

ConvBase.1.feature.lis.2.pointwise.weight f4 [16, 16, 1, 1]
-0.093744725 -0.091005154 0.21735115 0.21713293 0.23920792 -0.002009277 0.11364703 0.1113977
-0.220342 0.01292274 0.13739738 0.19490224 0.14906953 -0.05830402 -0.20796327 -0.19382145
0.17642577 -0.13055602 0.13455173 0.098176345 -0.11828396 -0.06223205 0.018507708 0.0053560594
0.07240747 0.024352267 -0.15644573 -0.012556844 -0.057355445 -0.049735755 0.20467797 -0.1468613
-0.20026541 0.17296202 0.21061811 0.24627227 -0.17807756 0.18948442 0.12033255 -0.016295146
0.124817446 0.110212944 0.0856879 0.0664731 0.16313283 0.0388334 -0.19370231 -0.12686981
-0.24980189 -0.170365 0.01311309 0.040290665 0.038563702 -0.16229379 -0.23763394 -0.059790302
0.23076653 -0.11600113 0.13879912 -0.25632754 0.124713756 0.24524541 -0.07012629 -0.19489439
-0.070732996 0.19295283 -0.25331053 0.20415418 -0.09604642 -0.12295419 0.034710348 -0.07220579
0.059868056 0.17047846 -0.05257746 -0.21082263 -0.1593809 -0.103547476 -0.006446333 0.11731181
0.102649376 -0.042416945 0.09654856 -0.110428415 0.22049342 0.24924141 0.1864301 0.08624613
0.26685303 -0.08176424 0.2405485 0.0012112092 0.13257474 0.034387764 0.15696855 -0.23161377
0.12843393 0.1062432 0.023425039 -0.101519585 -0.13421561 -0.10252481 -0.10863814 0.17507975
0.25903293 0.04315026 -0.18837483 -0.17027234 0.24062076 -0.07440834 0.07336462 0.105546474
0.14032409 0.116245024 -0.024967672 0.05848881 -0.05369207 -0.093567066 0.075654715 -0.13554877
0.11773358 0.10461362 0.0019392903 0.22813463 0.0692655 -0.025223253 -0.06847082 0.10383314
-0.22024927 0.1589759 0.15643382 0.13509074 -0.18073867 0.056788422 -0.056892194 0.18269564
-0.0026194486 0.08083642 -0.06373112 -0.08643123 0.2037172 0.2557578 -0.106755376 -0.115090534
-0.09481252 0.21215977 -0.059953187 0.1413243 0.08290851 0.07542317 0.24850202 -0.21247986
0.079165906 0.22789499 0.20049082 0.0438235 0.1519877 -0.099854864 -0.0064357445 0.12796071
-0.22041954 0.08309262 0.025850136 0.14803055 0.037088405 -0.11172164 0.037966803 0.06306771
0.20363778 -0.045990065 0.19034237 0.016026782 0.23425567 -0.13840796 -0.1482788 0.20345126
-0.24234995 -0.14466834 0.24923056 -0.026742293 -0.19724561 -0.2193152 -0.22540484 0.014070872
-0.1274599 -0.03637174 0.017163383 0.22536919 -0.13339415 0.090823956 0.028850367 0.09604785
0.021708338 0.003567526 0.03968453 -0.24932472 0.024633931 -0.16144645 0.09933991 -0.17734528
0.067439035 -0.10802563 -0.14655387 0.17715754 -0.030242734 -0.07244585 0.042277414 0.032544494
-0.19481273 0.026547376 -0.14245026 -0.26209798 -0.05002008 -0.05737488 0.013699776 0.12217094
0.23527159 0.20683016 0.15320794 -0.22545514 0.26050523 -0.1742928 0.10952281 -0.25490448
0.03770942 -0.112743296 0.22373329 -0.19979829 -0.015655562 0.15905952 0.007153025 -0.17212723
-0.00011203755 -0.19799301 -0.15063067 -0.07246504 -0.20719552 -0.13388796 0.03534883 0.09543796
0.25399786 0.050197676 -0.12522604 -0.24614519 -0.07825126 0.1708684 -0.027163658 0.06754982
-0.063151 -0.2049292 -0.2711184 0.027793117 -0.14003707 -0.088257976 0.2293481 0.04080089
00000000: 3cfd bfbd e960 babd 4d91 5e3e 1858 5e3e
00000010: ecf2 743e 13ae 03bb c6bf e83d 7a24 e43d
00000020: 55a1 61be e6b9 533c e6b1 0c3e 7494 473e
00000030: afa5 183e 32d0 6ebd 53f4 54be 2179 46be
00000040: f5a8 343e 7ab0 05be eec7 093e ae10 c93d
00000050: dc3e f2bd 09e7 7ebd 7a9d 973c e281 af3b
00000060: 5e4a 943d 687e c73c 4f33 20be 39bb 4dbc
00000070: 8bed 6abd b8b7 4bbd 1a97 513e cf62 16be
00000080: 6012 4dbe f51c 313e 46ac 573e cc2e 7c3e
00000090: f759 36be 3408 423e e970 f63d 667d 85bc
000000a0: 4aa0 ff3d 53b7 e13d 237d af3d 0c23 883d
000000b0: 4b0c 273e c50f 1f3d e659 46be 29ea 01be
000000c0: 11cc 7fbe 2a74 2ebe 49d8 563c d307 253d
000000d0: f9f4 1d3d 5830 26be 5056 73be ade6 74bd
000000e0: 104e 6c3e 0092 edbd 5b21 0e3e 5d3d 83be
000000f0: ed69 ff3d 9d21 7b3e 5f9e 8fbd 6592 47be
00000100: 76dc 90bd 6d95 453e ebb1 81be cb0d 513e
00000110: fcb3 c4bd 68cf fbbd 702c 0e3d a1e0 93bd
00000120: 3538 753d e891 2e3e 765b 57bd e3e1 57be
00000130: bf34 23be b310 d4bd c33b d3bb 2d41 f03d
00000140: d639 d23d 64bd 2dbd 40bb c53d 4b28 e2bd
00000150: 07c9 613e 2439 7f3e 88e7 3e3e d0a1 b03d
00000160: f6a0 883e 0374 a7bd 5952 763e 70c1 9e3a
00000170: acc1 073e 2fda 0c3d 5dbc 203e 292c 6dbe
00000180: 2f84 033e 0996 d93d dee5 bf3c 80e9 cfbd
00000190: d16f 09be 87f8 d1bd ac7d debd 1b48 333e
000001a0: f79f 843e 54be 303d 55e5 40be df5b 2ebe
000001b0: 4a65 763e 6663 98bd 3140 963d c028 d83d
000001c0: 1eb1 0f3e df11 ee3d 0189 ccbc f691 6f3d
000001d0: 37ec 5bbd 17a0 bfbd dcf0 9a3d 4ccd 0abe
000001e0: 4e1e f13d aa3f d63d c92f fe3a 209c 693e
000001f0: 12db 8d3d ffa0 cebc 6e3a 8cbd 78a6 d43d
00000200: 0689 61be 94ca 223e 3030 203e 3a55 0a3e
00000210: 8f13 39be fa9a 683d ca07 69bd 9114 3b3e
00000220: 0eab 2bbb 918d a53d 7685 82bd db02 b1bd
00000230: 3e9b 503e b0f2 823e 90a2 dabd 96b4 ebbd
00000240: 112d c2bd 6940 593e 7991 75bd 51b7 103e
00000250: f0cb a93d 7777 9a3d 5077 7e3e 5294 59be
00000260: bc21 a23d 4e5d 693e 774d 4d3e 4580 333d
00000270: aaa2 1b3e b580 ccbd f0e2 d2bb 2208 033e
00000280: a9b5 61be 772c aa3d aac3 d33c 5295 173e
00000290: 03ea 173d 51ce e4bd 1483 1b3d a529 813d
000002a0: 6c86 503e 1460 3cbd 1ce9 423e 994a 833c
000002b0: b8e0 6f3e d1ba 0dbe 66d6 17be 8755 503e
000002c0: 962a 78be f023 14be 4c36 7f3e a712 dbbc
000002d0: c1fa 49be 2a94 60be 87d0 66be 8489 663c
000002e0: d984 02be 89fa 14bd 399a 8c3c 2ec7 663e
000002f0: 7a98 08be e901 ba3d 9b57 ec3c bcb4 c43d
00000300: afd5 b13c 27cd 693b 3f8c 223d fb4e 7fbe
00000310: 19cd c93c 3852 25be b972 cb3d 009a 35be
00000320: 7a1d 8a3d 8b3c ddbd 3812 16be c968 353e
00000330: 9cbf f7bc 7d5e 94bd 152b 2d3d 604d 053d
00000340: fd7c 47be e279 d93c 7bde 11be b531 86be
00000350: dbe1 4cbd ec01 6bbd 0675 603c c234 fa3d
00000360: 09eb 703e 49cb 533e 8be2 1c3e b6dd 66be
00000370: f160 853e d079 32be 7f4d e03d d782 82be
00000380: 3175 1a3d f5e5 e6bd 571a 653e ec97 4cbe
00000390: 1840 80bc 80e0 223e ec63 ea3b 1f42 30be
000003a0: b4f5 eab8 aebe 4abe ed3e 1abe 8d68 94bd
000003b0: 102b 54be ed19 09be efc9 103d fa74 c33d
000003c0: 020c 823e 149c 4d3d 413b 00be 7c0d 7cbe
000003d0: 3242 a0bd 20f8 2e3e 5286 debc 8f57 8a3d
000003e0: 5055 81bd f6d8 51be 08d0 8abe 64ae e33c
000003f0: e165 0fbe 99c0 b4bd 3ada 6a3e d61e 273d

ConvBase.1.feature.lis.2.pointwise.bias f4 [16]
0.041025296 -0.25630856 -0.061567035 0.040384505 0.023976257 -0.11391195 -0.16474302 0.17638426
0.19259806 0.013665297 -0.0034876377 -0.025389932 -0.115150206 0.12011512 -0.19097441 -0.044970293
00000000: 240a 283d e03a 83be b72d 7cbd 396a 253d
00000010: db69 c43c ab4a e9bd 65b2 28be 139e 343e
00000020: 6d38 453e 69e4 5f3c da90 64bb 8cfe cfbc
00000030: dfd3 ebbd ebfe f53d cc8e 43be c532 38bd

ConvBase.1.feature.lis.3.X_conv.conv.weight f4 [16, 1, 9, 1]
-0.06823696 0.05333702 0.32610837 -0.06274087 -0.2039463 0.24310862 -0.07504809 -0.18902823
0.23533753 0.15007529 0.26584676 -0.2291391 0.07194698 -0.14712867 0.104157686 -0.29891092
-0.12010949 -0.040288802 0.2628146 0.25889674 0.28773025 0.0060986793 0.0710569 0.24793635
0.3124593 0.16796574 -0.22414099 -0.2034203 -0.06324525 -0.317881 0.13020289 0.30201414
0.060023613 -0.14158504 0.32948172 0.041746404 0.11321623 -0.15275288 0.33846754 -0.12785427
0.31346998 0.26696357 -0.10036676 0.12273188 -0.16253948 0.2548799 0.26999176 0.2993774
-0.12980196 0.14539076 0.034888603 -0.15930133 -0.31476402 0.2396072 -0.1309777 0.20276675
0.19096869 -0.13669996 -0.19178422 0.20359503 0.2718671 0.30445647 -0.13852185 -0.19282706
0.3188275 0.18801893 0.17854927 0.25573146 0.16212612 0.121884376 -0.35794914 0.20571879
-0.1311326 0.09407532 -0.041026242 -0.15003815 0.24526994 -0.2762229 -0.03180971 -0.13499975
-0.18356016 -0.26785836 -0.26536492 -0.24419685 -0.038206656 0.21582143 0.025271172 -0.21425287
-0.30581054 0.17765659 0.08007884 -0.13789187 0.26621944 0.24743995 -0.3125417 -0.08218871
-0.16457587 0.06950919 0.31659254 0.18708155 0.16962701 -0.18350747 -0.04589263 0.27506617
-0.36716315 -0.25007278 -0.17682187 0.021254187 -0.168863 -0.10852417 0.04716608 -0.07091458
-0.17370917 -0.2455278 0.040374577 -0.231257 0.17587444 0.3111773 -0.22210912 -0.17039461
0.018917834 -0.086680405 -0.11931676 0.06890725 0.19872838 0.1286711 0.018424686 -0.23270385
-0.26958483 -0.038929258 0.07704177 0.036784686 0.29464886 -0.33263785 -0.25549555 0.25506818
-0.24866168 0.018928451 0.10108371 -0.20599204 -0.009443746 0.26231217 -0.17124042 0.26947865
00000000: d2bf 8bbd eb77 5a3d adf7 a63e 497e 80bd
00000010: 4dd7 50be 77f1 783e d0b2 99bd 9e90 41be
00000020: 52fc 703e 56ad 193e 111d 883e 71a3 6abe
00000030: f058 933d e6a8 16be a050 d53d da0a 99be
00000040: f7fb f5bd df05 25bd a38f 863e 1d8e 843e
00000050: 6151 933e 6ed7 c73b 4886 913d 07e3 7d3e
00000060: aafa 9f3e 36ff 2b3e 3785 65be 694d 50be
00000070: ba86 81bd 4cc1 a2be e853 053e 99a1 9a3e
00000080: 52db 753d abfb 10be d4b1 a83e 47fe 2a3d
00000090: e9dd e73d 406b 1cbe 9e4b ad3e 3bec 02be
000000a0: 237f a03e 73af 883e 168d cdbd da5a fb3d
000000b0: c070 26be 9e7f 823e 5c3c 8a3e ff47 993e
000000c0: ceea 04be 51e1 143e 5ae7 0e3d e31f 23be
000000d0: c028 a1be 975b 753e 051f 06be 16a2 4f3e
000000e0: 4c8d 433e 13fb 0bbe 1563 44be 377b 503e
000000f0: 2a32 8b3e b8e1 9b3e acd8 0dbe 7574 45be
00000100: 5c3d a33e 0988 403e 9fd5 363e 3cef 823e
00000110: 6404 263e 849e f93d 1c45 b7be f2a7 523e
00000120: a047 06be 90aa c03d 220b 28bd 9aa3 19be
00000130: 0b28 7b3e 176d 8dbe e64a 02bd 603d 0abe
00000140: 32f7 3bbe bb24 89be e9dd 87be bd0e 7abe
00000150: 957e 1cbd 4b00 5d3e 7d05 cf3c 1b65 5bbe
00000160: 3393 9cbe 9ceb 353e 6000 a43d 8733 0dbe
00000170: ea4d 883e e660 7d3e 7705 a0be 8e52 a8bd
00000180: 9486 28be d65a 8e3d 6b18 a23e 4e92 3f3e
00000190: b4b2 2d3e 62e9 3bbe e9f9 3bbd 79d5 8c3e
000001a0: cffc bbbe 8a09 80be cb10 35be 431d ae3c
000001b0: 6cea 2cbe ec41 debd 3831 413d aa3b 91bd
000001c0: d1e0 31be a46b 7bbe d05f 253d a3ce 6cbe
000001d0: 6e18 343e a252 9f3e 9370 63be ed7b 2ebe
000001e0: 93f9 9a3c 7f85 b1bd 585c f4bd 3f1f 8d3d
000001f0: 747f 4b3e 5bc2 033e 5eef 963c eb49 6ebe
00000200: 0607 8abe 4974 1fbd 13c8 9d3d 8aab 163d
00000210: 37dc 963e 824f aabe 50d0 82be 4c98 823e
00000220: 2ba1 7ebe d70f 9b3c fa04 cf3d 94ef 52be
00000230: f1b9 1abc c84d 863e a659 2fbe 1bf9 893e

ConvBase.1.feature.lis.3.X_conv.conv.bias f4 [16]
-0.08218704 -0.24433914 0.20925295 0.068342604 0.11257328 0.08755219 -0.28912148 0.22155967
0.23371844 0.14842744 0.27295262 0.15699884 0.29438815 0.09348967 -0.05485652 -0.015500975
00000000: ae51 a8bd 0a34 7abe 6846 563e 35f7 8b3d
00000010: d28c e63d 904e b33d bb07 94be 8ae0 623e
00000020: e353 6f3e 5dfd 173e 72c0 8b3e 4ec4 203e
00000030: 0bba 963e 8377 bf3d 3bb1 60bd cdf7 7dbc

ConvBase.1.feature.lis.3.Y_conv.conv.weight f4 [16, 1, 1, 9]
-0.33949584 -0.06928642 -0.019419955 -0.33743224 -0.041376054 0.29530624 0.17933446 -0.1493272
-0.1428122 0.10562594 -0.0975944 -0.12680925 0.026195996 -0.18425293 -0.16582324 0.25193787
0.01751989 -0.20087442 -0.0676307 0.18674827 0.31657416 -0.2574481 0.122383416 0.14221622
-0.17451577 0.10176863 0.21196453 0.2567575 0.045096274 -0.1429067 -0.1351523 0.19081111
-0.24952185 0.24950737 -0.34167585 0.072081804 0.18530561 -0.18951398 -0.13367076 0.038466882
-0.12666588 -0.023626627 -0.04083233 -0.020887896 -0.08051501 0.24494581 -0.11581393 0.00583515
0.1743289 0.033092134 -0.04400376 0.2700556 0.24007533 -0.31215522 -0.2652366 0.14531223
0.080514506 -0.08626731 0.2692504 0.13052766 -0.29801744 0.16910695 -0.20339741 -0.18168859
0.18008628 -0.2499398 0.17610261 0.29647803 -0.28325075 -0.15832938 0.3252663 -0.2243698
0.26108462 -0.1557202 0.17792061 -0.07093968 -0.22785604 0.013160185 0.11256404 0.01401189
-0.32740933 0.1299858 0.15788846 -0.072430655 -0.14133364 0.17157474 -0.1784499 0.14980856
-0.1607447 0.0590973 0.00082193007 0.15326631 -0.019035319 0.2717481 0.18938366 0.11666141
-0.14046034 0.07575856 0.3295788 0.15872319 -0.08439672 -0.13059217 -0.01839067 0.21592677
0.1851906 -0.30768156 0.3077538 0.028592588 -0.04646614 0.30106798 0.19215788 -0.08269539
0.15771097 0.2625238 -0.1441996 -0.062992804 0.042086307 0.2592466 0.09816934 0.19448392
-0.058695197 0.13622753 0.021691956 -0.05036313 0.122272715 0.12291086 -0.13878193 -0.1210538
-0.003008964 -0.2326765 0.21673019 0.21806899 0.24818003 -0.04420618 0.07550444 0.20234506
-0.1131041 -0.16201732 0.16800746 0.30108285 -0.19891383 -0.21574944 -0.04727378 -0.22529033
00000000: 66d2 adbe 0ae6 8dbd 9916 9fbc ebc3 acbe
00000010: f079 29bd 6132 973e 74a3 373e 3be9 18be
00000020: 5d3d 12be 6a52 d83d 93df c7bd 49da 01be
00000030: fc98 d63c cdac 3cbe 91cd 29be 00fe 803e
00000040: df85 8f3c 06b2 4dbe f781 8abd f03a 3f3e
00000050: 0216 a23e 3dd0 83be 28a4 fa3d 21a1 113e
00000060: 43b4 32be 126c d03d 3b0d 593e b875 833e
00000070: dfb6 383d 2256 12be 5d65 0abe fd63 433e
00000080: a882 7fbe dc7e 7f3e 23f0 aebe a09f 933d
00000090: c1c0 3d3e f40f 42be fde0 08be 738f 1d3d
000000a0: b3b4 01be a18c c1bc cd3f 27bd 181d abbc
000000b0: 0ee5 a4bd 13d3 7a3e db2f edbd c934 bf3b
000000c0: 4683 323e 9e8b 073d 493d 34bd ba44 8a3e
000000d0: 4fd6 753e cfd2 9fbe 17cd 87be bbcc 143e
000000e0: cae4 a43d eaac b0bd 30db 893e 0ba9 053e
000000f0: be95 98be 5f2a 2d3e 6947 50be 930c 3abe
00000100: 8a68 383e 38f0 7fbe 3e54 343e f8cb 973e
00000110: 3e06 91be 1921 22be 4e89 a63e 32c1 65be
00000120: e2ac 853e 1e75 1fbe d230 363e d348 91bd
00000130: 1853 69be d19d 573c fa87 e63d 2092 653c
00000140: 32a2 a7be ff1a 053e 83ad 213e 8656 94bd
00000150: c4b9 10be 4ab1 2f3e 92bb 36be 6a67 193e
00000160: 429a 24be 0310 723d cb76 573a d8f1 1c3e
00000170: f5ef 9bbc 9122 8b3e caed 413e 2dec ee3d
00000180: d6d4 0fbe 4e27 9b3d 8dbe a83e 5588 223e
00000190: 30d8 acbd f4b9 05be 08a8 96bc e81b 5d3e
000001a0: 9ba2 3d3e 7088 9dbe e891 9d3e 013b ea3c
000001b0: 4753 3ebd 9525 9a3e 09c5 443e 335c a9bd
000001c0: fc7e 213e 8569 863e 0fa9 13be 5f02 81bd
000001d0: b162 2c3d f8bb 843e 020d c93d cb26 473e
000001e0: 606a 70bd 3b7f 0b3e 54b3 b13c 9249 4ebd
000001f0: 1e6a fa3d b0b8 fb3d da1c 0ebe 0eeb f7bd
00000200: 0a32 45bb c042 6ebe 85ee 5d3e 7a4d 5f3e
00000210: e822 7e3e 8a11 35bd 12a2 9a3d 8b33 4f3e
00000220: 1fa3 e7bd dee7 25be 260a 2c3e 8827 9a3e
00000230: 11b0 4bbe 6ced 5cbe 27a2 41bd 82b2 66be

ConvBase.1.feature.lis.3.Y_conv.conv.bias f4 [16]
0.09435576 -0.16091903 0.15220425 -0.09903539 -0.27559426 -0.12844816 0.0657571 -0.22761151
0.124633394 -0.11763896 0.06523692 0.15450582 0.11052576 -0.10590188 0.15085353 0.007085835
00000000: 983d c13d f5c7 24be 6edb 1b3e 11d3 cabd
00000010: b11a 8dbe ea87 03be a9ab 863d fe12 69be
00000020: cb3f ff3d b2ec f0bd ef9a 853d c636 1e3e
00000030: 545b e23d 16e3 d8bd 5979 1a3e 4b30 e83b

ConvBase.1.feature.lis.3.pointwise.weight f4 [16, 16, 1, 1]
0.10036957 -0.0015338128 0.04579809 -0.06637594 0.048893906 -0.0065295505 -0.063926026 0.08357269
0.09799473 0.033322934 0.10019878 0.030279515 -0.19697486 -0.14005801 -0.033333674 0.10577719
0.25821304 -0.07679617 -0.07744731 0.12888482 0.09315075 0.061918903 0.23269184 0.1518929
-0.16219103 -0.102371044 0.06478016 0.26992774 0.012849539 0.20175499 0.07561727 -0.07488872
0.09782826 -0.07808195 -0.24411944 0.12892948 -0.19086461 0.099028505 -0.16742586 0.19433582
-0.075680956 -0.008435223 -0.0408448 -0.24931858 0.031746913 0.026998186 -0.16822223 -0.18228109
0.09789299 -0.10805252 -0.18531135 -0.09301436 -0.13434581 0.037281927 -0.15799671 -0.19561446
0.095182896 -0.0154771665 0.15146497 0.18612091 0.007548585 -0.15478477 0.04651463 0.12367068
-0.18055743 0.17929566 0.0562399 0.015635336 -0.03340055 -0.108886816 0.18033135 0.2168786
-0.015775912 -0.048461344 0.13859738 0.09185534 0.10969988 -0.08855456 -0.17409937 -0.22242525
-0.2373041 0.015453026 -0.16775711 -0.09803975 0.20344599 -0.03200492 -0.21808021 -0.027104786
-0.07550432 0.009650438 -0.0965459 -0.09568143 -0.17564957 -0.23076975 -0.108367324 -0.032711707
-0.02284074 -0.11147328 0.1657788 -0.07305621 0.15222138 0.18179232 0.18608472 -0.19114031
-0.23204628 -0.025588866 0.14269778 -0.048772663 0.24652024 -0.18123716 0.20233351 -0.0138561735
0.16564049 -0.21339288 0.0040842067 -0.104342416 -0.025435338 -0.12348188 0.11931362 -0.16549812
-0.16325946 0.006021957 -0.170214 0.1124799 -0.06939938 -0.10178542 0.16245192 0.16337645
-0.16412456 -0.0236226 0.24923761 0.030142862 -0.14550987 -0.100452825 -0.037131745 0.16503026
-0.23991427 0.06997415 -0.01626818 -0.24634734 0.014526921 0.18483621 0.09144982 -0.09621157
0.043875445 -0.11140429 -0.012278263 -0.015759852 0.25742382 -0.15980928 -0.14038587 0.030790437
0.0060357703 -0.030580627 0.19794057 0.19703174 0.008707096 -0.24965715 0.22767022 0.11718593
0.1267265 -0.055353582 0.14622748 0.10048017 0.03216003 0.045448653 0.18183593 -0.17019238
-0.09730504 0.048823267 0.20337266 0.058753934 -0.08100148 0.029181004 -0.023738911 0.15583465
0.15409596 0.06535332 0.052420557 -0.034473415 -0.059622604 0.16079623 -0.15899262 -0.24062106
0.17364623 -0.13466844 0.24227259 -0.0877433 -0.016479816 0.21760239 0.16588941 0.19087781
-0.23426257 0.051003024 -0.21811458 0.0630419 0.084452085 0.20575917 -0.20043194 0.16537242
0.19367251 0.0065718405 -0.034039974 0.19879313 -0.035755582 -0.23406427 0.18087599 0.034074854
0.074541084 0.12326562 0.13700521 0.10645165 0.17087169 -0.1486035 -0.09775749 -0.08842099
0.11575205 -0.17206512 0.0855041 -0.17317298 -0.06947846 -0.0145181315 -0.04337678 -0.10826543
0.10228139 0.027045416 0.22189286 0.19161682 0.17047732 -0.21479441 0.093275234 0.1869205
3.997611e-05 -0.19142166 0.24047881 0.018097198 -0.13284059 0.038706217 0.24214463 0.148313
-0.021263216 0.12876713 0.13351479 0.050176084 -0.22434075 -0.20183092 -0.15441829 -0.1988109
0.004077409 -0.042308457 0.14614233 0.00558176 -0.13069068 -0.20579657 0.023426378 0.20546721
00000000: 908e cd3d 380a c9ba c796 3b3d 1cf0 87bd
00000010: fa44 483d d7f5 d5bb a6eb 82bd 2928 ab3d
00000020: 76b1 c83d a17d 083d 0535 cd3d bf0c f83c
00000030: c7b3 49be 5e6b 0fbe e488 08bd b6a1 d83d
00000040: 8034 843e 4f47 9dbd b29c 9ebd 62fa 033e
00000050: d2c5 be3d ad9e 7d3d c546 6e3e d089 1b3e
00000060: 6815 26be e9a7 d1bd 76ab 843d f833 8a3e
00000070: df86 523c dc98 4e3e 3add 9a3d 425f 99bd
00000080: 2f5a c83d 6ee9 9fbd 72fa 79be 1706 043e
00000090: 0372 43be 75cf ca3d af71 2bbe f8ff 463e
000000a0: 9efe 9abd e433 0abc e14c 27bd 5f4d 7fbe
000000b0: 0d09 023d 4d2b dd3c 7342 2cbe e5a7 3abe
000000c0: 1f7c c83d a44a ddbd 42c2 3dbe 507e bebd
000000d0: f391 09be efb4 183d e4c9 21be 284f 48be
000000e0: 40ef c23d f193 7dbc a219 1b3e 7b96 3e3e
000000f0: 1f5a f73b e67f 1ebe 2086 3e3d 0e47 fd3d
00000100: 0ce4 38be 4899 373e cf5b 663d ad15 803c
00000110: 04cf 08bd 0d00 dfbd c8a8 383e 6c15 5e3e
00000120: 7c3c 81bc 677f 46bd 79ec 0d3e a71e bc3d
00000130: 55aa e03d 185c b5bd 1b47 32be 72c3 63be
00000140: d9ff 72be b02e 7d3c 85c8 2bbe 10c9 c8bd
00000150: 2554 503e 9717 03bd 6b50 5fbe db0a debc
00000160: 02a2 9abd df1c 1e3c dbb9 c5bd a0f4 c3bd
00000170: 7bdd 33be e84e 6cbe b0ef ddbd b6fc 05bd
00000180: 811c bbbc 1a4c e4bd ebc1 293e 7f9e 95bd
00000190: ecdf 1b3e c427 3a3e fe8c 3e3e 49ba 43be
000001a0: 8a9d 6dbe be9f d1bc 5e1f 123e d8c5 47bd
000001b0: cd6f 7c3e 3c96 39be 8430 4f3e 0105 63bc
000001c0: a99d 293e aa83 5abe cfd4 853b 7ab1 d5bd
000001d0: c55d d0bc 11e4 fcbd b35a f43d 5778 29be
000001e0: 7d2d 27be d653 c53b 944c 2ebe dd5b e63d
000001f0: 4321 8ebd e074 d0bd cc59 263e 284c 273e
00000200: 4510 28be 2f84 c1bc 2538 7f3e 2aee f63c
00000210: 8a00 15be 36ba cdbd 7517 18bd b1fd 283e
00000220: 16ac 75be 9b4e 8f3d d944 85bc 7a42 7cbe
00000230: 5302 6e3c b445 3d3e 0b4a bb3d 920a c5bd
00000240: bdb6 333d ef27 e4bd c52a 49bc ce1a 81bc
00000250: 0ecd 833e 0ba5 23be 50c1 0fbe 3a3c fc3c
00000260: b6c7 c53b 3984 fabc efb0 4a3e b0c2 493e
00000270: 35a8 0e3c 20a6 7fbe 6222 693e 2dff ef3d
00000280: 97c4 013e 70ba 62bd a8bc 153e 8cc8 cd3d
00000290: 3cba 033d 5e28 3a3d 3333 3a3e e946 2ebe
000002a0: dd47 c7bd e8fa 473d ec40 503e f7a7 703d
000002b0: 1be4 a5bd 000d ef3c 1b78 c2bc 1e93 1f3e
000002c0: 55cb 1d3e f6d7 853d f0b6 563d ff33 0dbd
000002d0: d536 74bd c4a7 243e f6ce 22be 5e65 76be
000002e0: 51d0 313e 86e6 09be 4e16 783e c2b2 b3bd
000002f0: ae00 87bc 29d3 5e3e eade 293e 7975 433e
00000300: 87e2 6fbe 8ce8 503d 6e59 5fbe 1d1c 813d
00000310: 37f5 ac3d 88b2 523e 083e 4dbe 6357 293e
00000320: 1652 463e 9858 d73b 806d 0bbd 6d90 4b3e
00000330: 7274 12bd 8bae 6fbe 8e37 393e 1392 0b3d
00000340: ffa8 983d af72 fc3d 184b 0c3e 5303 da3d
00000350: fdf8 2e3e 842b 18be 1435 c8bd 1016 b5bd
00000360: 690f ed3d d731 30be c61c af3d 4254 31be
00000370: b94a 8ebd 75dd 6dbc daab 31bd 44ba ddbd
00000380: e878 d13d 598e dd3c e237 633e 3337 443e
00000390: 9b91 2e3e 11f3 5bbe 1607 bf3d 1668 3f3e
000003a0: 05ac 2738 0a04 44be 1440 763e 9340 943c
000003b0: 5d07 08be 698a 1e3d c3f4 773e 5ddf 173e
000003c0: 3230 aebc 88db 033e 1ab8 083e 7085 4d3d
000003d0: 95b9 65be c4ac 4ebe d41f 1ebe 1695 4bbe
000003e0: c99b 853b a24b 2dbd 56a6 153e 32e7 b63b
000003f0: c7d3 05be 56bc 52be ade8 bf3c ff65 523e

ConvBase.1.feature.lis.3.pointwise.bias f4 [16]
0.25858903 0.1087521 -0.11399923 -0.19276659 -0.013913674 0.18234642 0.1613722 0.21868457
-0.15647882 -0.10225417 -0.008163595 0.043283135 -0.11025491 -0.024732266 0.08948693 0.20827559
00000000: c865 843e 6cb9 de3d 6e78 e9bd 9b64 45be
00000010: 2ef6 63bc 05b9 3a3e c13e 253e d9ee 5f3e
00000020: fc3b 20be a26a d1bd 99c0 05bc a849 313d
00000030: 54cd e1bd 529b cabc ec44 b73d 3246 553e

ConvBase.1.feature.bn.weight f4 [16]
0.9730495 0.87340873 0.47858566 0.1364429 0.6721471 0.60505223 0.88574743 0.5175113
0.9480672 0.646438 0.24473205 0.5302843 0.80925304 0.13851397 0.21698275 0.28967986
00000000: c619 793f b797 5f3f 2e09 f53e b0b7 0b3e
00000010: d511 2c3f b4e4 1a3f 58c0 623f 9f7b 043f
00000020: 88b4 723f f67c 253f 0a9b 7a3e b6c0 073f
00000030: 352b 4f3f 9bd6 0d3e ba30 5e3e eb50 943e

ConvBase.1.feature.bn.bias f4 [16]
-0.008251213 0.012803118 -0.009692904 0.037323024 -0.0030912175 -0.018194126 0.015724665 0.03121914
-0.02412458 0.024000224 0.019456198 0.013081463 0.032630228 0.028162442 0.04354723 -0.0029694778
00000000: 1830 07bc 2bc4 513c fcce 1ebc 07e0 183d
00000010: 0696 4abb d90b 95bc 03d1 803c 48bf ff3c
00000020: e9a0 c5bc 1e9c c43c 9b62 9f3c a253 563c
00000030: 46a7 053d ecb4 e63c 955e 323d 929b 42bb

ConvBase.1.feature.bn.running_mean f4 [16]
0.24300586 -0.13943058 0.017022114 -0.37929156 0.0001793001 -0.31987742 -0.12855902 0.37898207
-0.3397694 0.09560262 -0.0938488 -0.024380947 -0.05532444 0.050361216 0.007817584 0.03816514
00000000: 87d6 783e e4c6 0ebe f671 8b3c 8132 c2be
00000010: 8102 3c39 f9c6 a3be faa4 03be f009 c23e
00000020: 41f6 adbe 4ecb c33d cd33 c0bd 8dba c7bc
00000030: e19b 62bd 9047 4e3d 5315 003c 0d53 1c3d

ConvBase.1.feature.bn.running_var f4 [16]
0.0025702226 0.0019381999 0.0032044272 0.002668721 0.0021271668 0.004843382 0.0038323298 0.000967121
0.00343478 0.0021634796 0.0016796265 0.0028323054 0.0024813158 0.0016419797 0.0026614624 0.002522179
00000000: 2e71 283b 320b fe3a 5e01 523b b5e5 2e3b
00000010: f067 0b3b 3cb5 9e3b d327 7b3b 6486 7d3a
00000020: 0c1a 613b 2ac9 0d3b ea26 dc3a 339e 393b
00000030: 929d 223b b237 d73a ee6b 2e3b 244b 253b

ConvBase.1.bn.weight f4 [64]
0.43236616 0.10084668 0.11319782 0.08120871 0.3697208 0.76434946 0.90281856 -0.005018941
0.69367135 0.89556384 0.25287834 0.5544516 0.047442835 0.13170807 0.7789881 0.76688176
0.7747732 0.8109345 0.7981602 0.40412694 0.3593626 0.831385 0.5968811 0.26901487
0.8565811 0.6205012 0.49150738 0.5775966 0.81149787 0.38046667 0.2996401 0.9330517
0.6910291 0.39617243 0.13774961 0.9404937 0.29070732 0.8168073 0.29554665 0.46031252
0.35522065 0.73227555 0.30813882 0.12911993 0.07322973 0.45223454 0.1822515 0.7974062
0.7528677 0.48879865 0.27655792 0.67508864 0.32249796 0.9868946 -0.0039612656 0.9309551
0.9443584 0.22438721 0.29566628 0.67128444 0.45722964 0.14191619 0.8590624 0.71252364
00000000: 195f dd3e b488 ce3d 42d4 e73d c150 a63d
00000010: 0b4c bd3e 68ac 433f 1e1f 673f ee75 a4bb
00000020: 7294 313f ac43 653f 4579 813e 8af0 0d3f
00000030: 6b53 423d 7bde 063e c46b 473f 5d52 443f
00000040: 8957 463f 6799 4f3f 3a54 4c3f bae9 ce3e
00000050: 60fe b73e a6d5 543f 33cd 183f 51bc 893e
00000060: e648 5b3f 2bd9 1e3f dba6 fb3e 5fdd 133f
00000070: 53be 4f3f 87cc c23e 6d6a 993e 7adc 6e3f
00000080: 48e7 303f 1dd7 ca3e 3c0e 0d3e 32c4 703f
00000090: 97d7 943e 491a 513f e451 973e 15ae eb3e
000000a0: 7bdf b53e 6976 3b3f 5fc4 9d3e 0438 043e
000000b0: 78f9 953d 498b e73e 23a0 3a3e d022 4c3f
000000c0: f0bb 403f d143 fa3e 0099 8d3e 9cd2 2c3f
000000d0: 741e a53e 20a5 7c3f 81cd 81bb 1353 6e3f
000000e0: 79c1 713f c3c5 653e 9261 973e 4cd9 2b3f
000000f0: 011a ea3e 7a52 113e 83eb 5b3f f367 363f

ConvBase.1.bn.bias f4 [64]
0.022454672 0.010296411 0.0038854151 0.010117586 -0.027091792 -0.02775404 0.04121561 -0.013151297
0.023513082 0.01096662 -0.005628284 -0.015537776 -0.0048927246 0.012712327 -0.04164972 0.037464462
-0.005517296 -0.021708287 -0.01284216 -0.041070342 0.022030447 -0.010907212 0.012953176 0.0007880949
-0.01990672 0.010957175 -0.020143801 0.020883739 0.007642601 -0.0018602231 0.013116335 -0.005064698
-0.0072619887 -0.023667438 -0.025266638 0.0514464 0.0013491532 0.013713447 -0.0017053006 -0.0046065743
0.014924381 -0.040035933 0.025063878 -0.00014671778 0.030926304 0.033487387 -0.0066255885 0.029141704
-0.008702095 0.029460499 0.014403324 0.033029795 0.026426595 -0.03220868 -0.018575298 0.013899897
-0.025347672 0.01565749 0.010816312 0.027460009 -0.001249883 0.012948428 -0.008633042 0.002951436
00000000: dcf2 b73c 47b2 283c 73a2 7e3b 3bc4 253c
00000010: 9bef ddbc 715c e3bc b3d1 283d 8a78 57bc
00000020: 829e c03c 57ad 333c 786d b8bb 2892 7ebc
00000030: 2653 a0bb 5d47 503c e698 2abd 5674 193d
00000040: 6fca b4bb 94d5 b1bc ec67 52bc 6039 28bd
00000050: 3279 b43c 2ab4 32bc 8f39 543c 2798 4e3a
00000060: 6b13 a3bc b985 333c 9d04 a5bc 6014 ab3c
00000070: c96e fa3b bbd2 f3ba e5e5 563c c4f5 a5bb
00000080: faf5 edbb 37e2 c1bc fbfb cebc 76b9 523d
00000090: 12d6 b03a 5eae 603c 6584 dfba bff2 96bb
000000a0: 6485 743c b8fc 23bd c352 cd3c 41d8 19b9
000000b0: 2959 fd3c 122a 093d 771b d9bb 95ba ee3c
000000c0: 3b93 0ebc 2557 f13c ebfb 6b3c 404a 073d
000000d0: 967c d83c 40ed 03bd 392b 98bc 65bc 633c
000000e0: eca5 cfbc 2344 803c e736 313c d0f3 e03c
000000f0: 1dd3 a3ba a525 543c 9a71 0dbc e16c 413b

ConvBase.1.bn.running_mean f4 [64]
0.2026523 0.15040013 0.12225266 0.061076984 0.16078989 0.032064933 0.026365807 0.1453885
0.24492821 0.1785301 0.075979955 0.029911224 0.2268909 0.02815878 0.07358653 0.06840665
0.2214248 0.22597334 0.102161676 0.07176944 0.20813158 0.19415863 0.17962931 0.13985413
0.13477798 0.20118189 0.05883021 0.14152195 0.1412183 0.05912339 0.07423813 0.07664432
0.35460943 0.29983187 0.14762828 0.05178324 0.23301768 0.21397467 0.266665 0.21097289
0.256855 0.122972324 0.0665866 0.17253087 0.251885 0.051383562 0.06853836 0.07933134
0.26900497 0.31100062 0.13301343 0.06396183 0.20246947 0.16199912 0.25135222 0.20585988
0.25298974 0.22755611 0.09143601 0.18017355 0.3020045 0.06316204 0.08546435 0.10762085
00000000: 1684 4f3e 7e02 1a3e 9a5f fa3d dc2b 7a3d
00000010: 1ba6 243e 8556 033d 1bfd d73c b9e0 143e
00000020: 76ce 7a3e 98d0 363e 619b 9b3d 6208 f53c
00000030: 1756 683e 3ead e63c 89b4 963d c918 8c3d
00000040: 2fbd 623e 8e65 673e 243a d13d dbfb 923d
00000050: 7220 553e 85d1 463e bff0 373e ec35 0f3e
00000060: 3d03 0a3e a002 4e3e f2f7 703d 21eb 103e
00000070: 889b 103e 5e2b 723d 290a 983d b2f7 9c3d
00000080: 5e8f b53e 9083 993e de2b 173e aa1a 543d
00000090: 309c 6e3e 2d1c 5b3e 5188 883e 4709 583e
000000a0: 8082 833e ead8 fb3d 8e5e 883d efab 303e
000000b0: 12f7 803e 9277 523d d75d 8c3d 7878 a23d
000000c0: 05bb 893e 793b 9f3e ac34 083e 6cfe 823d
000000d0: 2854 4f3e 19e3 253e 3db1 803e efcc 523e
000000e0: df87 813e 7804 693e ce42 bb3d 6a7f 383e
000000f0: 55a0 9a3e 1a5b 813d ef07 af3d 5268 dc3d

ConvBase.1.bn.running_var f4 [64]
0.0938539 0.047114212 0.035068948 0.00441925 0.05818083 0.003218504 0.0029011562 0.13591674
0.4932935 0.21966767 0.035739776 0.0045922976 0.35201985 6.796154e-08 0.0227407 0.0107126115
0.32067174 0.41571185 0.09635997 0.0086559085 0.09732813 0.21489558 0.6440549 0.18640287
0.14241688 0.24976785 0.03435469 0.14123143 0.038603336 0.0110123595 0.0030886084 0.062955804
0.48007652 0.25130808 0.075264044 0.009010134 0.122391805 0.16404328 0.09669655 0.11330903
0.102950506 0.35081777 0.03529243 0.06186496 0.45729426 0.008207417 0.03537926 0.021465627
0.71978945 0.21880905 0.06386632 0.0071499394 0.12197694 0.18716182 0.20363517 0.11001315
0.5175639 0.08235124 0.03663079 0.15888514 0.27008492 0.011036223 0.028430576 0.044309348
00000000: 7936 c03d d5fa 403d 75a4 0f3d 5bcf 903b
00000010: 064f 6e3d 89ed 523b 5321 3e3b c22d 0b3e
00000020: f790 fc3e 90f0 603e df63 123d fc7a 963b
00000030: f23b b43e 40f2 9133 b44a ba3c f383 2f3c
00000040: 162f a43e 2fd8 d43e 6058 c53d 83d1 0d3c
00000050: f853 c73d 960d 5c3e c8e0 243f 65e0 3e3e
00000060: bbd5 113e 25c3 7f3e 81b7 0c3d f99e 103e
00000070: 881e 1e3d 2f6d 343c 406a 4a3b f9ee 803d
00000080: 97cc f53e 74ab 803e 0924 9a3d 3e9f 133c
00000090: 8ea8 fa3d f6fa 273e d708 c63d 910e e83d
000000a0: b7d7 d23d 639e b33e cc8e 103d 1d66 7d3d
000000b0: 7922 ea3e 6778 063c d8e9 103d afd8 af3c
000000c0: 1f44 383f 7b0f 603e 58cc 823d 0a4a ea3b
000000d0: 0ccf f93d 59a7 3f3e bd85 503e 934e e13d
000000e0: 117f 043f c4a7 a83d 2b0a 163d c9b2 223e
000000f0: 9248 8a3e 46d1 343c 3de7 e83c b87d 353d
