waights/weights18.pth (torch_old, 670822 bytes, 196 tensors)

ConvBase.1.feature.lis.0.X_conv.conv.weight f4 [1, 1, 3, 1]
00000000: e116 11bc dec8 49be 974f 00be
-0.008855552 -0.19705531 -0.12530361

ConvBase.1.feature.lis.0.Y_conv.conv.weight f4 [1, 1, 1, 3]
00000000: 75cd 9c3e a18f 93bd d32b 12be
0.306255 -0.072051294 -0.1427453

ConvBase.1.feature.lis.0.pointwise.weight f4 [16, 1, 1, 1]
00000000: a3ea b9be 53bc 6abe 4893 45bf 7911 6fbf
00000010: a270 fdbe 80af aabd 2259 ba3c 8e49 153f
00000020: af83 543f 8f6f 283f 2cb9 6c3f acab 6f3d
00000030: 4d45 323f 6059 bbba 6b61 ec3e 340f 01bf
-0.36311826 -0.22923402 -0.7717786 -0.93386036 -0.49499995 -0.08334255 0.02274758 0.5831536
0.83013433 0.65795225 0.9247005 0.05851333 0.69636995 -0.0014293604 0.46168074 -0.50413823

ConvBase.1.feature.lis.0.pointwise.bias f4 [16]
00000000: bf4a 503f cedb 8fbe 2df2 353f b894 85bf
00000010: d2dd 99be 3fd9 4fbf 956a a9be a909 6c3f
00000020: 8b81 2fbf 739a 843e 67aa e3be 04c9 0abf
00000030: cf5f 593d c354 97bd a5d7 90be c63e cabe
0.81364053 -0.28097385 0.71072656 -1.043601 -0.30052048 -0.81190866 -0.33089128 0.9220224
-0.6855704 0.25899085 -0.44465944 -0.54212976 0.053069886 -0.07389214 -0.28289524 -0.39501017

ConvBase.1.feature.lis.1.X_conv.conv.weight f4 [16, 1, 5, 1]
00000000: 0b52 753e d0c6 9abe 4e96 c63b 65ac b63e
00000010: 72b9 813e 69d1 bf3c 93b3 ac3e 3b57 b63a
00000020: 97b8 163e 41cb 8abe 84a0 59be 32c7 9bbe
00000030: b553 4dbd ec5b 913e 4aca dfbd 4b8e 1cbd
00000040: a646 373d b034 3b3e 486e d33e c502 123c
00000050: fee7 c4be 0971 cbbd 3da3 e73c a08f a4be
00000060: 6cd3 b43e 0bcf ed3d 4bf5 803e fed7 c3be
00000070: a57a 623e 77c5 1f3e 9b11 8ebe 891b 34be
00000080: 8d32 3dbe da91 463e 91e5 43bc 935b 863d
00000090: b834 6ebd abd0 da3e d22c ce3e f164 063e
000000a0: 792b 493d 2774 a9be e0ef b03e 4b2c 6c3e
000000b0: 1855 c93d 960a a1be 3f50 99be a3a5 ba3d
000000c0: 9967 083e c86b c8be 6cc4 8cbd 5b29 8dbd
000000d0: 9b53 e8be 8320 a3bc 54a6 bf3e 1657 ddbe
000000e0: f5c3 e1be 3fba 973e bdfb 493e b3fe be3e
000000f0: 50da 2fbe 84e0 71bd 11d4 83bd f7ea ce3e
00000100: d792 86be e186 b4be 4b61 b23e dae8 36be
00000110: bb22 b33d 0dbf 9cbd fb3e ccbc d813 8bba
00000120: 747c 95be fb9a e2be 0444 813e ee5f b73e
00000130: 03e3 55bd abb1 243e 8e34 4a3e 087b d0be
0.23957078 -0.30229807 0.006060398 0.35678402 0.25336796 0.023415284 0.33730754 0.0013911495
0.14718853 -0.27108195 -0.21252638 -0.3042541 -0.050128657 0.28390443 -0.109272555 -0.03822164
0.04474511 0.18281817 0.41295075 0.008911793 -0.38458246 -0.09933669 0.02827608 -0.32140827
0.35317552 0.11611756 0.25187144 -0.38250726 0.22117098 0.1560267 -0.27747807 -0.17588629
-0.18476315 0.19391575 -0.011956588 0.06560435 -0.058155745 0.42737326 0.4026857 0.13124444
0.049113724 -0.3309643 0.3455801 0.23063771 0.098306835 -0.3145339 -0.29944035 0.09113624
0.1332077 -0.3914473 -0.06873402 -0.068926536 -0.45376286 -0.019912964 0.37431586 -0.43230504
-0.44094816 0.29634282 0.19724937 0.37303695 -0.17173123 -0.059052005 -0.06436933 0.4041364
-0.26283905 -0.35259154 0.34839854 -0.17862263 0.08746859 -0.076536275 -0.024932375 -0.0010610772
-0.29196513 -0.44258866 0.25247204 0.35815376 -0.05221845 0.160834 0.1974661 -0.40718865

ConvBase.1.feature.lis.1.X_conv.conv.bias f4 [16]
00000000: b407 a93c 3756 b23d 0a8c 553d 7885 e7be
00000010: 9c8d 95be a4ea c9be eb90 e9be 2667 c93d
00000020: 57fe 213e 577b 16be e86e 9c3e bcc5 933e
00000030: 0bef 853d a78b fd3d f96c d4be 41cb 9139
0.020633556 0.087078504 0.052135505 -0.45219016 -0.29209602 -0.3943683 -0.45618376 0.09834127
0.15819679 -0.14695488 0.30553365 0.28861797 0.065397345 0.12380152 -0.4148939 0.0002780799

ConvBase.1.feature.lis.1.Y_conv.conv.weight f4 [16, 1, 1, 5]
00000000: af55 873e 1eaf b43e 9e74 b9be 682e 4abe
00000010: 19ad cf3c 4eda aa3e dfc9 da3e cd19 d8bd
00000020: b2a9 9db9 3d21 dbbe 92b5 a8be af24 5e3d
00000030: a62b 833e 0f46 9fbe b8ab 72be 321c 8abe
00000040: 8c79 7e3e 1266 ec3e 1d7e 59be 0806 afbe
00000050: 2612 86be d188 c73e 098b c63e 0643 b5be
00000060: 9ce6 4a3e 0ea8 79be 2c53 47be 4699 b5be
00000070: 2014 ef3d a1a2 c2be ca67 943d 8498 e8bd
00000080: 9597 303d ce2c 883e 69fe d03d 9f9b b2be
00000090: f49b 7c3e 30d9 82bd b39a dabd 89fc 763d
000000a0: c40f 4cbd 2258 d4be 77bd b8bd fcd2 303e
000000b0: d984 95be a861 513e 6fec aebe 2856 09be
000000c0: ab87 d83e da09 a53e 714e 7d3e 8bed 063e
000000d0: 3193 adbd f272 4d3e e9bf 8dbe 1a8c ce3e
000000e0: cc64 bbbe a923 853e 1341 01be e0e1 f9bd
000000f0: 483d e43e d68f 65be 95c4 293e 7c20 d93e
00000100: 6cd8 de3a 7442 9c3e 7ae7 c03c fd74 7c3e
00000110: 443c d03e 7f53 84be f679 98be c944 dcbe
00000120: 4bc2 b83e f583 d9be 90d4 cb3e 3e5b a73e
00000130: 1ae1 9fbd 6413 eebe 700d 8abe 9e2f 84bb
0.2643256 0.35289854 -0.36221784 -0.19744265 0.025351094 0.33369678 0.4273214 -0.10551796
-0.00030071806 -0.42798796 -0.32951027 0.054234203 0.2561924 -0.31108138 -0.23698318 -0.26974636
0.24851054 0.46171623 -0.21239515 -0.3418429 -0.2618572 0.3897157 0.3877795 -0.35402697
0.19814533 -0.24380514 -0.19465321 -0.354685 0.116737604 -0.380147 0.07246359 -0.11357215
0.04311331 0.26596683 0.10204775 -0.34884354 0.24668866 -0.063890815 -0.10674038 0.06029943
-0.049819723 -0.4147349 -0.090205126 0.17267984 -0.29202917 0.20447409 -0.3416476 -0.13411772
0.42291006 0.3223408 0.24736954 0.13176553 -0.0847534 0.2006338 -0.27685478 0.40341264
-0.3660034 0.2600377 -0.1262248 -0.12201285 0.44578004 -0.2241815 0.16578896 0.42407596
0.0017001755 0.3051945 0.023547877 0.24654002 0.4067098 -0.25844952 -0.2978055 -0.4302123
0.36085734 -0.42483488 0.3981061 0.326868 -0.078066066 -0.4649917 -0.26963377 -0.0040339967

ConvBase.1.feature.lis.1.Y_conv.conv.bias f4 [16]
00000000: 3be5 483e 3118 863e 392e 0ebe 881b 8c3e
00000010: 6402 f83d 2c60 773d d17e 793d e75d 153e
00000020: f7d5 b63e 452a 883d b0da d8be 8182 2fbe
00000030: 8019 bcbe ae36 403e 8357 a5be ae41 bdbe
0.19618694 0.26190332 -0.1388482 0.27364755 0.12109831 0.06039445 0.060911957 0.14586602
0.35710117 0.06648687 -0.42354345 -0.17139627 -0.36738205 0.18770859 -0.3229333 -0.36964172

ConvBase.1.feature.lis.1.pointwise.weight f4 [16, 16, 1, 1]
00000000: 2774 3fbe b282 71be a8cb 0ebe 4cdd 2b3e
00000010: 77f3 5ebe d4f9 e73d 2cd3 b33d 1553 6c3e
00000020: 20fc 35bd f78e bdbd 138c 3ebd 40ac 0c3e
00000030: 2afd 4ebe 9c5a 693e 4de1 65be 397d 5c3e
00000040: b6ae 2e3e 0f68 bf3d 9780 843d ff5e 4fbd
00000050: aac0 4ebe 5f73 37be caa5 1d3e 2bfe 4c3e
00000060: b2ef e83c 6f82 163e dd00 53be 84a3 cd3d
00000070: af61 efbd 4569 c23d 6168 373e eb80 363c
00000080: 53c2 1ebe b83d cabd 1302 16bd d0ff 773d
00000090: 05da 95be 3992 e2bb fa74 ac3d a834 44be
000000a0: 5dff 023e 07c8 ac3c ea1e 50be 995d 3f3e
000000b0: 000e ed3a 602d 21be 6eec bbbd 53ab 79be
000000c0: a64f b7bb 3a65 38be c63b 133e 1068 c4bd
000000d0: 0581 40be aa49 603d c3b5 573e 4d44 dc3b
000000e0: 2115 a53d 94d7 5d3c 830b 2d3e 4e2e ccbd
000000f0: 9ffd b03d 4a4b 8bbe 1dfe a9bc 12e0 86be
00000100: 2c42 32be 2a32 523e 46cb 673e 1f45 373e
00000110: a6a6 39be 90c9 523e f285 3d3e 1ba0 1dbe
00000120: a4c6 703e 165e f63d b81c 573c 4633 73bc
00000130: 4803 e5bd 56d0 1abe 13af 9a3d 857d 08be
00000140: 25b2 e63d f2b3 d2bd 97ba 10bd 6b92 9fbd
00000150: cc58 adbd 1eea e63c de89 563d 99ff a2bc
00000160: f0e8 15be 5f7d 45bd 5719 ff3c e730 65be
00000170: 1053 5b3b 40ce 0cbe e628 cabc 3d27 3a3e
00000180: 608e 7bbe 7a19 133d ee3c 8ebd a26a 903c
00000190: 2c33 9c3d ab0c 44be cae2 9ebd 1ed7 193d
000001a0: c760 28be eea1 173e 5161 883e a30a c7bc
000001b0: da6c 30be 15f9 f5bc 0f3c 13bd dec7 653e
000001c0: 5099 3ebe 7347 0b3e 71f9 09be 0cff 973d
000001d0: da78 3a3e b1b6 3abe be8d fbbc 4fe3 073e
000001e0: 603b 09be b738 1ebd 5d69 e9bd cffb b9bd
000001f0: c3b5 de3c 8449 25be 65f6 49bd df29 09be
00000200: 88be 473d d23c a23d c045 5ebe 3e9a 80be
00000210: df1b 34bd 2075 d13c 73de 7c3e 3c3f c4bd
00000220: ee3f e53d 337b 1bbe eb9a 823e bf2d 87be
00000230: 562a 403e 4ca3 3cbe 63c0 433e e2c4 1b3e
00000240: 182e f43d 3997 853d a5cf 703e d938 bdbd
00000250: ac62 eb3a c79a 45bb 5158 613e 6ee1 f4bd
00000260: f2b9 d4bb 778e 593e a94f 0bbe 4fc3 923d
00000270: ae34 acbb 3e26 52be b7c7 1a3e c999 093e
00000280: bcd9 883e ccd7 713e c80e 28bd c5bf a33d
00000290: 6ded 003e df44 183d ffb2 55be a690 463c
000002a0: c564 27be 3d5d 613e 4960 553e 471d 10be
000002b0: cafa 513e 7e92 02be fcdf 6ebe f1ec 48be
000002c0: edcb 1fbe 2367 02bc 4f40 53bd a273 653e
000002d0: 4e23 d13b 3eb4 35bd 6418 86bd fb37 2cbe
000002e0: c711 863d 3ace 0b3e 9473 913d de81 ed3d
000002f0: bd01 813d 4f29 00be 00d4 5abe be32 923c
00000300: 5d7a 023e 7c48 71be a7bb 84bd acb2 07be
00000310: 39e7 cd3d 098d 20be 6c83 c93d c753 aa3c
00000320: 7770 153e 48bf 4dbe 557e 793d eb40 1b3e
00000330: 4471 0e3e 3152 a8bd 7eca 6dbc 08a5 84be
00000340: 1ff0 57be 8f37 403e e623 15be d809 5ebd
00000350: e911 163e 7d29 cdbd 9122 74be 2a26 4ebd
00000360: c3c2 d3bd 4644 fbbc ccc4 183e bd50 1dbe
00000370: 6263 103e a9d9 373e 7410 fcbd f3d6 57be
00000380: a7e0 083e de80 a1bc e8ec f8bd b07c 1a3e
00000390: 6d77 67bd 70b3 cd3d a012 a23d 86f1 5f3e
000003a0: 1fb3 db3d d56a 44be 6296 0abe 0f08 34bc
000003b0: d4f6 203e bcd5 2dbe 3cbf 573e 47e6 d1bc
000003c0: 78be 15bd 28b0 0fbe 3744 3b3e b0ac 62be
000003d0: 76d6 84bd 155d 5e3d b95a 21bb d1ec 37be
000003e0: 870c d9bd 26db 9fbd 33d0 4cbd caca 4ebe
000003f0: c12a 34bd d74e 5c3e 42ae 8e3e a918 d4bd
-0.18696652 -0.23585013 -0.13944876 0.16783637 -0.21772562 0.11326948 0.08780512 0.23078568
-0.0444299 -0.09255784 -0.046520304 0.13737583 -0.20213762 0.22788471 -0.22449227 0.21532144
0.17058834 0.093460195 0.06469839 -0.050627705 -0.20190683 -0.17915104 0.15395275 0.20018832
0.028434608 0.14698194 -0.20605798 0.10040954 -0.116885535 0.09492735 0.17910911 0.011139135
-0.15503816 -0.09875053 -0.036623072 0.060546696 -0.29267898 -0.0069144038 0.08420749 -0.19160712
0.12792726 0.021091474 -0.20324293 0.18688048 0.0018085837 -0.15739965 -0.09175955 -0.24381761
-0.0055942116 -0.18007365 0.1437827 -0.09590161 -0.18799217 0.05475775 0.2106543 0.0067220093
0.08060671 0.013540167 0.16898923 -0.099697694 0.086421244 -0.27205878 -0.020751053 -0.26342827
-0.17408055 0.20526949 0.22636136 0.17897461 -0.18129978 0.20584702 0.18508127 -0.15393107
0.23513275 0.12029664 0.013129406 -0.0148437675 -0.111822665 -0.15118536 0.07552924 -0.13329132
0.11264447 -0.10288228 -0.035334196 -0.07791599 -0.08464202 0.028187808 0.052377574 -0.01989727
-0.1463964 -0.048215266 0.031140013 -0.22381936 0.0033466257 -0.13750553 -0.024677705 0.1817903
-0.2456603 0.03591297 -0.06945215 0.017628971 0.07626948 -0.19145457 -0.077581 0.037558667
-0.16443168 0.14807865 0.26636747 -0.024297064 -0.17229024 -0.030025998 -0.03594595 0.22439525
-0.18613172 0.13601474 -0.1347406 0.07421693 0.18210164 -0.18233754 -0.030707236 0.13270305
-0.13401556 -0.038628306 -0.113970496 -0.09081232 0.02718628 -0.16141325 -0.049307246 -0.13394879
0.04876569 0.07921757 -0.21706295 -0.25117677 -0.043971892 0.025568545 0.24694233 -0.095823735
0.11193834 -0.15183716 0.25508818 -0.2640209 0.1876615 -0.18421668 0.19116358 0.15211824
0.11922854 0.06522984 0.2351671 -0.092393585 0.0017958484 -0.003015207 0.22006346 -0.1195706
-0.006491893 0.21245752 -0.13604607 0.071661584 -0.0052553033 -0.205224 0.15115248 0.1343757
0.26728618 0.23617476 -0.04102972 0.079955615 0.12590571 0.037175056 -0.20869063 0.012119448
-0.16347034 0.22008224 0.20837511 -0.14073668 0.20505825 -0.12751195 -0.23327631 -0.19621636
-0.15605135 -0.00795916 -0.051575 0.22407392 0.0063823825 -0.044361345 -0.06547621 -0.1681823
0.065463595 0.13652888 0.07102123 0.11597036 0.0629916 -0.12515758 -0.21369934 0.017846461
0.1274199 -0.23562807 -0.06481104 -0.13251752 0.10053868 -0.156788 0.0983952 0.020791901
0.14593683 -0.200925 0.060911495 0.15161483 0.13910395 -0.08218802 -0.01451361 -0.2590716
-0.21087693 0.18771194 -0.14564475 -0.054208606 0.1465527 -0.10017679 -0.23841311 -0.050329365
-0.10339882 -0.030672204 0.14918822 -0.1536283 0.14100412 0.17954125 -0.12307826 -0.2107809
0.13366948 -0.019714769 -0.12154561 0.15086627 -0.056510378 0.100439906 0.07913709 0.21869478
0.10727524 -0.19181378 -0.13533929 -0.010988249 0.15719157 -0.16976064 0.21069044 -0.0256225
-0.0365586 -0.14032042 0.1828774 -0.22136188 -0.06486218 0.05428799 -0.0024620725 -0.17961432
-0.105980925 -0.07805471 -0.05000324 -0.20194545 -0.043986086 0.2151445 0.27867323 -0.10356266

ConvBase.1.feature.lis.1.pointwise.bias f4 [16]
00000000: e56e 733e b2e2 69be 2267 1a3e 1c64 2abe
00000010: b2ff afbd 714c 82be ff48 4dbe 84e4 e63d
00000020: 6bdb 2cbe 58c3 843e d58b dcbb 6238 103e
00000030: a336 943d 63da ae3c 6f5c 103e de1e 8dbe
0.23772772 -0.22840384 0.15078405 -0.16639751 -0.08593692 -0.25448945 -0.20047377 0.11274055
-0.16880576 0.25930285 -0.0067305365 0.14084008 0.072369836 0.02134437 0.1409776 -0.27562612

ConvBase.1.feature.lis.2.X_conv.conv.weight f4 [16, 1, 7, 1]
00000000: 9371 893e 3de3 b4be b210 c93e 7033 fb3d
00000010: c432 b63e 8446 cabd c526 96be 9551 b23d
00000020: 813c 003c 2f85 143e c905 ad3d 9f32 2abe
00000030: cf82 393e eee1 9a3e 5b9d 17be dafd b5bd
00000040: 4e36 abbe 1463 0f3e 6e33 77be 2d68 9c3e
00000050: 0735 afbc d5e8 b6be c3ab 173e 8731 53be
00000060: b97d a43e 49ec b7bd 80db 3ebe 7063 e33c
00000070: 9d26 ba3d d9e0 573e a521 953e 77c2 b43e
00000080: 67d0 413e efc4 8ebe 008e a23e 7e6d 2abd
00000090: 00a7 eebd 3491 18bd 53ca a63e 4289 a6be
000000a0: d5dc 37be cc57 42be c1d8 0abe 1b19 87be
000000b0: 3c83 6bbe c4e3 513d 602a a43d 35d4 c9be
000000c0: 5ba7 453e 45dc 91be d55e 5dbe e4d1 b73e
000000d0: fc6a 853e db1f 8e3e e55e 473e c445 ae3e
000000e0: 08c1 a1be d7e2 9b3e 69d5 4f3e 1337 31bd
000000f0: 96fd 0a3e 21db a53c d041 04be aef7 7d3e
00000100: 23b6 7c3e 9c57 8f3e ff02 be3d 3aa6 b5be
00000110: f892 a4bd 15ce b6be 010e b23e 461f a83e
00000120: 5b8c 5a3e dc82 2ebe cc7a cd3d 8ff4 09be
00000130: dcd7 833e 2fcb ee3d a99c 183d bbf3 e83d
00000140: 37dd 8f3e a0b7 e3bd 8662 65be 8929 0cbe
00000150: 3351 453d b234 0dbe e385 c03d 2ef3 f33c
00000160: b45d be3c fce3 223e 6e92 aebe 5b29 0fbe
00000170: 1342 ae3c daf1 663e 24ea c4be 8ffa 49be
00000180: 2621 9dbe 7871 c2be 8226 c43d abc4 bf3e
00000190: 43d6 62bd e31a 49be 59c1 3cbe 5991 eabc
000001a0: bbaa 283d f339 a13e 0c4d 1c3e fd20 99be
000001b0: 510d 4bbe ab36 183e 63e5 88be cff6 cebc
0.26844463 -0.3532962 0.3927055 0.1226567 0.35585606 -0.09876731 -0.29326454 0.08706967
0.007826925 0.1450393 0.08448369 -0.16620873 0.18116306 0.30250496 -0.1480612 -0.08886309
-0.3343987 0.14002639 -0.24140713 0.3054823 -0.02138759 -0.35724512 0.14811616 -0.20624362
0.3212717 -0.08980615 -0.1863842 0.027757376 0.09089396 0.21081866 0.2912723 0.35304615
0.18927155 -0.27884623 0.31748962 -0.041608326 -0.116529465 -0.03724785 0.32576236 -0.32526594
-0.17955334 -0.18978804 -0.13559248 -0.2638634 -0.2299928 0.051242605 0.08015895 -0.39419714
0.19302122 -0.28488365 -0.21618207 0.3590232 0.26058185 0.2775868 0.19469793 0.34037602
-0.31592584 0.30446503 0.20296253 -0.043265413 0.13573298 0.02024609 -0.1291573 0.24801514
0.24678855 0.27996528 0.09277915 -0.35478383 -0.080358446 -0.35704103 0.3477631 0.3283636
0.21342604 -0.17042106 0.10033187 -0.13472198 0.25750625 0.11659848 0.037258778 0.11374613
0.2809846 -0.11119008 -0.22400865 -0.1368772 0.04817314 -0.13789633 0.09400537 0.029779043
0.02323804 0.15907282 -0.34096092 -0.1398062 0.021271741 0.22553197 -0.38459885 -0.19724487
-0.30689353 -0.37977195 0.09577657 0.37454733 -0.055380117 -0.19639163 -0.18433131 -0.02863376
0.041178446 0.31489524 0.15263766 -0.2990798 -0.19829299 0.14864604 -0.26737508 -0.025264172

ConvBase.1.feature.lis.2.X_conv.conv.bias f4 [16]
00000000: 4b34 4abd c679 7b3e f658 16be b39e 1abe
00000010: 04e8 21bd 1fdc 4e3e ceab 663e 1fbc bd3d
00000020: 98be 313e af19 9fbd 15ef ac3e d3f9 b93d
00000030: 333c 623c 8993 edbd aeef ba3e 0bf1 babd
-0.049366277 0.24558172 -0.14682373 -0.15099601 -0.039527908 0.20201157 0.22526476 0.09264397
0.17357862 -0.07768571 0.33776155 0.09080853 0.013808298 -0.11600406 0.36510986 -0.091280065

ConvBase.1.feature.lis.2.Y_conv.conv.weight f4 [16, 1, 1, 7]
00000000: 9e59 173d 21e4 7c3e faff 8ebe 2a11 f3bd
00000010: 1bee 7e3d 3370 adbe 0c4e ac3e 6b01 803d
00000020: b9bf a7be 1f87 d23d 7ec1 86bb 9a28 9fbe
00000030: 5030 3b3e ef90 033e adee f8bd 514e 473d
00000040: 55da 6dbe 3b46 843e 4cab 9b3d 0755 203e
00000050: 2dd0 2ebc 2245 c0bd 032a 963e 0434 623d
00000060: f520 b13e 7f31 9cb9 10a4 e73d 1766 a43e
00000070: fe5c 803e e6dc 493e ca3c 583e c3a8 03bd
00000080: e3c9 073e fb8e 023e dcad 613e d9ba 143e
00000090: 6d45 80bd dba1 c13d 6e0c d5be d592 053e
000000a0: f4c9 9f3d 4844 913e 3aad 373e e7cc 85be
000000b0: 589e b5be 38cd 543e eb7a c03c 39b1 a43e
000000c0: bdb6 a0bc 360b 07be 7336 aebc 53c1 103e
000000d0: 9567 8bbe cd5f a3be 5024 16bc ca33 da3d
000000e0: 2679 babe ea69 e03d 2c83 b4be 7a95 86be
000000f0: 7029 8b3e a880 d33b d430 98bd 7cd7 98bd
00000100: 724f bebe da86 3cbe 64a6 f33d d54d 073e
00000110: 7c1a 40be b9a6 91be 6199 aebd ff44 223d
00000120: 253f 9b3e d407 123e 1a37 d53d d8a4 893e
00000130: a298 a1be cdcf 5a3e 1579 82be cafb 243e
00000140: f2ab 1cbe 4b24 30be 77aa c1be 9c3f b13e
00000150: a1ae 003e c096 283e 9cf5 1dbd 4ed1 76be
00000160: e678 893d 82f0 993e 661d 09be b581 a1bc
00000170: 7abf 0fba caa9 593e b450 e63d 5812 cf3e
00000180: 6cc1 303e 5632 42be cd21 5d3e 3f02 42bd
00000190: b2fd 13be fb70 bbbd f552 8b3e 88a8 b53e
000001a0: fcf0 633e 66bc 85be aac3 bc3d 95a8 b0be
000001b0: fbee 81be 15e4 d43a 15fc 48bd d41e a83e
0.0369507 0.246964 -0.2792967 -0.11868508 0.062238794 -0.33874664 0.33653295 0.062502705
-0.3276346 0.102796786 -0.0041124215 -0.31085664 0.18280149 0.12848257 -0.12154899 0.048658673
-0.23227818 0.25834832 0.07601032 0.15657435 -0.01066975 -0.09388186 0.29328927 0.055225387
0.34595457 -0.00029791516 0.11310589 0.32109138 0.25070947 0.19713172 0.21116939 -0.032143366
0.13260607 0.12749855 0.22038978 0.14524402 -0.06263242 0.094546996 -0.41611046 0.13044293
0.078021914 0.28372407 0.17937174 -0.2613289 -0.3547237 0.2078141 0.023496112 0.3216646
-0.019618386 -0.1318787 -0.021266198 0.14136247 -0.27227464 -0.31909028 -0.009163931 0.10654409
-0.36420554 0.109577015 -0.35256326 -0.26285917 0.27180052 0.006454546 -0.07431188 -0.074629754
-0.37169987 -0.18410817 0.11896971 0.13213284 -0.18760103 -0.28447512 -0.085253485 0.03961658
0.30321613 0.14260799 0.104109004 0.26883578 -0.31561762 0.21368332 -0.25483003 0.16111675
-0.15299967 -0.17201345 -0.37825367 0.34618843 0.12566616 0.16463757 -0.03856431 -0.24103281
0.06712513 0.30066305 -0.13390121 -0.01971517 -0.00054835493 0.21256176 0.11245862 0.40443683
0.17261285 -0.18964514 0.21594925 -0.047365423 -0.14452246 -0.09152409 0.2721173 0.35480142
0.22259897 -0.261203 0.092170075 -0.34503618 -0.2537764 0.001624229 -0.04906853 0.3283602

ConvBase.1.feature.lis.2.Y_conv.conv.bias f4 [16]
00000000: f695 b63d 815c 293e 8981 b0be d90a bebe
00000010: 3c47 7dbe b349 afbc 0fa3 263e 0147 78bd
00000020: 01f6 c53d bab6 ae3e 1d27 e1bd b814 a33e
00000030: 5ea7 91be 7d40 e13d 34e7 ae3e 9b90 933e
0.089153215 0.16539194 -0.34473827 -0.3711765 -0.24734205 -0.021397447 0.1627314 -0.06061459
0.09666062 0.34123784 -0.109937884 0.31851745 -0.28448004 0.10998628 0.3416077 0.28821263

ConvBase.1.feature.lis.2.pointwise.weight f4 [16, 16, 1, 1]
00000000: e1a1 c4bd 90a6 b8bd f915 5b3e cc5d 5f3e
00000010: 65a9 713e bd24 8a3b ba5d e93d 923b ec3d
00000020: 7ebd 62be 62ca 0f3c 42e8 0b3e 8de9 433e
00000030: 885e 143e 7d74 6bbd 6ef4 57be d4c1 44be
00000040: 5399 323e 1806 09be 4c88 0e3e 9286 c43d
00000050: adb0 e6bd ef61 65bd 680e ad3c 6d10 003c
00000060: 7e7b 933d 043b cc3c f4f5 24be 4a52 91ba
00000070: 4c2c 85bd c3a7 3cbd 3c84 573e baca 19be
00000080: 184f 4fbe 258b 2f3e a60f 563e dfb5 7e3e
00000090: 645a 36be 7413 433e e908 ed3d eb24 8fbc
000000a0: 2fd1 013e 8c1d ea3d f17c a83d bdaa 923d
000000b0: 784f 263e 01cc 233d 419a 44be d4c9 08be
000000c0: 7511 80be 36f4 31be a56d 1a3c e8e1 263d
000000d0: ed69 223d a0f2 23be de0c 74be a4ef 73bd
000000e0: a501 6e3e 6236 edbd f10b 0f3e 38a0 84be
000000f0: 954a fe3d 925a 7a3e a8ac 96bd e0e3 3ebe
00000100: c909 95bd 7afa 413e f59f 84be fb02 503e
00000110: 914a c8bd be42 f5bd d591 1e3d bcd4 90bd
00000120: 53cb 5f3d 8770 2c3e 6243 4cbd b82b 5abe
00000130: b817 24be a1a4 d2bd d645 72bc 00ab f23d
00000140: c026 d13d a372 31bd 1662 ce3d 54fa e8bd
00000150: 9a52 5f3e 8fca 7d3e 9c3b 3f3e af7d ae3d
00000160: bb83 873e 67d7 aebd 95f8 733e 03e7 ff3a
00000170: 2022 023e 6480 033d fdf0 233e adfe 6ebe
00000180: a93f 033e 1403 d73d e0aa a53c c0ef d7bd
00000190: 2d39 01be e289 debd ed85 e0bd 07d0 353e
000001a0: 34b1 853e 1181 383d 9ae9 3abe 8d77 30be
000001b0: 9958 793e 45df 92bd 488f 973d 7fac cd3d
000001c0: b61d 113e 7088 ea3d 231d d1bc 558d 6c3d
000001d0: 8720 4bbd 70cd b7bd f397 9f3d 794d 0abe
000001e0: 0482 f43d 120a d93d a91e 0a3b 244a 6a3e
000001f0: 6601 923d 8f37 01bd 33cd 92bd 47e5 d53d
00000200: 22ec 5fbe 47a1 213e 216e 1e3e fc31 013e
00000210: a91e 37be dfd3 783d 4fc4 68bd 3ce8 3f3e
00000220: 96ec 3aba 7efb a53d 0d81 7abd 0290 b5bd
00000230: 3008 4f3e a1ba 853e e651 d9bd cbc7 e8bd
00000240: 8858 bdbd 3713 543e 036a 82bd d907 153e
00000250: 50f5 a23d 1871 9f3d e970 803e d9cb 5cbe
00000260: ea60 ad3d 97f5 6f3e 4c90 463e 2e5b 373d
00000270: 9876 173e c2e5 ccbd 6cb1 0fbc 6f3c 033e
00000280: 021f 61be b82b 953d 6b2b aa3c 86c5 133e
00000290: a97d 2c3d 425e edbd 6880 123d 44a2 753d
000002a0: 84b3 4d3e 9620 3dbd 47d9 483e ea9c 593c
000002b0: d72f 713e bd99 09be ccbf 1dbe e592 553e
000002c0: 4e90 79be 1f08 13be 52fd 823e 3613 dcbc
000002d0: 9e07 48be b47c 5fbe 7bbc 69be 6cd0 533c
000002e0: 6bac 09be c0b3 dfbc bf99 ab3c 032f 643e
000002f0: e3cb 08be b59b c43d bace d53c 1ab7 c93d
00000300: 0871 ca3c 98e0 7d3b e013 183d 57c9 7dbe
00000310: bb2c d83c f45c 21be 048a cb3d 5d74 37be
00000320: 6a55 883d bf31 e0bd 89fd 11be 6313 323e
00000330: 8bb7 a9bc f687 8fbd e50c 2e3d 6aaa 0c3d
00000340: a029 48be 4534 ff3c 2fef 1bbe a7da 88be
00000350: 0a5e 50bd c65d 5dbd 7dc7 993c db10 fe3d
00000360: 1ebc 6e3e dbd9 4c3e 16b1 233e 4429 65be
00000370: ea7a 843e 94f0 31be 9ed9 d43d 46a7 84be
00000380: d8e4 0a3d 01d6 e2bd 7556 683e 5657 49be
00000390: fb5c 79bc d70e 1e3e 0fe3 e13b f71d 2dbe
000003a0: 06b0 66bb 7d58 4dbe 75d1 1bbe 4f9a 8abd
000003b0: d6cc 4ebe 4e72 0cbe 6309 163d 532d c43d
000003c0: 679f 833e 9c29 573d 0714 fdbd 14d0 7dbe
000003d0: 8015 96bd 3e37 2c3e 98d9 eebc cdea 803d
000003e0: 015c 8abd 3e42 55be bc52 88be 494c ec3c
000003f0: 266e 0fbe a2fa c0bd ce62 6a3e c97d 203d
-0.096011885 -0.09016144 0.213951 0.21813124 0.23599775 0.0042158053 0.1139483 0.115348
-0.22142598 0.008776279 0.13662818 0.19132061 0.14489186 -0.05748414 -0.21089336 -0.19214565
0.17441301 -0.13381231 0.1391918 0.0959598 -0.11264167 -0.0560016 0.021125033 0.007816416
0.07201289 0.024930485 -0.16109449 -0.0011087146 -0.065025896 -0.046058428 0.21046537 -0.1501874
-0.20245016 0.17142923 0.20904407 0.24874066 -0.17807919 0.1905039 0.11573965 -0.017473659
0.12677453 0.11431417 0.08226956 0.07161472 0.16241252 0.039989475 -0.19199468 -0.13358241
-0.2501332 -0.17378315 0.009425555 0.040742785 0.0396518 -0.16010523 -0.23833033 -0.05955471
0.23242815 -0.11582638 0.13969399 -0.25903487 0.12416569 0.24448612 -0.0735715 -0.18641615
-0.07277257 0.18943205 -0.25903288 0.20313637 -0.097798474 -0.11975621 0.038713295 -0.07071826
0.054637264 0.16839801 -0.04986895 -0.2130574 -0.16024673 -0.10285307 -0.014787158 0.11849022
0.10212469 -0.043322217 0.10077302 -0.11375871 0.21808854 0.24784301 0.18675083 0.08520066
0.2646769 -0.085371785 0.23825295 0.0019523803 0.1270833 0.032104865 0.16009898 -0.23339339
0.12817253 0.10498634 0.020223081 -0.105437756 -0.12619467 -0.10866143 -0.10963044 0.17755137
0.26111758 0.045044962 -0.18253174 -0.17233105 0.24350204 -0.071714915 0.074003756 0.10042667
0.1417149 0.11451805 -0.025526589 0.057751972 -0.049591567 -0.08974731 0.07792654 -0.13506116
0.11938861 0.10597624 0.0021075404 0.22879845 0.07129173 -0.031547125 -0.07168045 0.10444122
-0.21867421 0.15784179 0.15471698 0.12616724 -0.1788279 0.06074893 -0.05682784 0.18740934
-0.0007130591 0.08104609 -0.06115823 -0.08865358 0.20217967 0.2611895 -0.10611324 -0.113662325
-0.092454016 0.20710455 -0.063678764 0.14553775 0.07956946 0.07785243 0.25086144 -0.21562137
0.084657505 0.23433529 0.19390982 0.04476469 0.14791334 -0.1000476 -0.008770328 0.12816022
-0.21984485 0.07283729 0.020772656 0.14430818 0.042112026 -0.11590244 0.03576699 0.0599692
0.20088011 -0.046173654 0.19614135 0.01328204 0.23553406 -0.13437553 -0.15405196 0.20856817
-0.24371454 -0.14358567 0.25583893 -0.02686463 -0.19534156 -0.21824914 -0.22825806 0.01292811
-0.13444678 -0.027307391 0.020947335 0.22283559 -0.13359027 0.09600011 0.026099551 0.09849377
0.0247121 0.0038738605 0.03712833 -0.24783836 0.026388517 -0.15758115 0.09938434 -0.17915483
0.066569164 -0.10946988 -0.14256872 0.17390208 -0.020717403 -0.07008354 0.042492766 0.034342207
-0.19547129 0.031152854 -0.1522796 -0.26729318 -0.050870933 -0.054044507 0.018771881 0.12405559
0.23313949 0.2000498 0.15985522 -0.22379023 0.25875026 -0.1737693 0.1039307 -0.2590887
0.03390965 -0.11075974 0.2268923 -0.19662222 -0.015219922 0.15435348 0.0068935226 -0.16905962
-0.0035200133 -0.20053287 -0.1521662 -0.06767713 -0.20195326 -0.13715479 0.036630046 0.095789574
0.25707552 0.052529916 -0.123573355 -0.24786407 -0.073283195 0.16817948 -0.029156491 0.06294785
-0.067558296 -0.2082605 -0.2662562 0.02884497 -0.14006862 -0.094228044 0.22889253 0.039182458

ConvBase.1.feature.lis.2.pointwise.bias f4 [16]
00000000: bc85 433d b95b 86be d0c5 7bbd bc3f 1c3d
00000010: 9d1d 403c ee30 e5bd c220 30be 2ac3 333e
00000020: 4425 3f3e bb27 813c e628 b1bb 5610 fdbc
00000030: 5784 f2bd 4697 ec3d 3094 47be f981 36bd
0.04773496 -0.26241854 -0.061467946 0.03814672 0.01172581 -0.11190973 -0.17199996 0.17554918
0.1866656 0.015766015 -0.005406487 -0.030891579 -0.11841648 0.115522906 -0.19490123 -0.044557545

ConvBase.1.feature.lis.3.X_conv.conv.weight f4 [16, 1, 9, 1]
00000000: 6717 92bd 8e01 443d 9e4a a43e 228c 8ebd
00000010: bdb4 55be 904e 743e 6939 a3bd f9a5 46be
00000020: 88c8 6c3e eeeb 1a3e 2f6f 863e db49 6abe
00000030: 519e 943d 49e9 15be 6290 d73d c458 9abe
00000040: d92c fcbd 859d 1ebd 7a85 873e e6d2 863e
00000050: 02c5 973e 0992 853b 0ca6 8f3d eb5a 7b3e
00000060: 29da 9f3e c65c 2b3e ead8 68be 51ed 4fbe
00000070: 3869 82bd a331 a5be fd11 033e 1643 973e
00000080: cabb 613d efdb 12be 68e7 a83e 020c 2a3d
00000090: 7b8a ed3d b884 1bbe 5592 ac3e 1f56 05be
000000a0: 0eac a03e d36b 883e da97 ccbd a58b fa3d
000000b0: 7331 29be 99b6 823e 2f73 893e 701a 993e
000000c0: 2db3 01be e5c3 163e 8a1f 173d 6eb7 21be
000000d0: f5d1 9fbe 2f67 773e 9c69 0abe 6219 513e
000000e0: d38a 443e 1d3a 0bbe 57b7 44be 6de3 4f3e
000000f0: 38b2 8a3e f0e4 9e3e 0e92 10be 08bf 46be
00000100: 68d9 a53e acc7 433e a127 413e b91e 833e
00000110: f458 243e 7795 ed3d 7fba b5be 4ace 573e
00000120: 6a9c 06be cf85 bb3d 0427 2bbd 5556 18be
00000130: e946 7f3e a92f 8bbe ad4b e9bc 5f72 06be
00000140: e1e4 3bbe 9bfe 8bbe 1fa4 89be 6224 7cbe
00000150: 39bc 1fbd 6ba9 5b3e a587 c13c 5dfd 5dbe
00000160: 0555 9fbe f319 313e 517e 9e3d 8020 0abe
00000170: fa8c 8a3e b3c0 813e 4de9 9cbe 5495 abbd
00000180: 1b4c 23be 45a1 933d a4ed a33e 15da 3d3e
00000190: 4513 2e3e c0a5 3abe d13b 45bd e4cb 8b3e
000001a0: 8169 bcbe 43f1 7ebe 3735 36be 56b0 a13c
000001b0: f92b 27be cd0a d9bd 20be 483d 733c 87bd
000001c0: b906 2ebe 10a3 7abe d9f1 2c3d b1a1 6abe
000001d0: 2867 353e 465d 9e3e 15a3 66be f348 2fbe
000001e0: 1b24 9f3c 5204 b0bd 44a7 f1bd e755 8d3d
000001f0: c99f 4d3e 3f71 053e ed9c 903c 4e3d 72be
00000200: 4c3a 8dbe 243b 3ebd 2cd0 923d ce83 ff3c
00000210: eac5 943e 3a4c abbe 5a08 83be 360b 833e
00000220: 653b 72be 4f08 bf3c ae63 c93d 24a6 51be
00000230: 180a 11bc be09 8b3e 9ba8 31be d4fc 873e
-0.0713337 0.047853045 0.32088178 -0.06960322 -0.20869727 0.23858094 -0.079699345 -0.19399251
0.23123372 0.15129063 0.262567 -0.22879736 0.07256759 -0.14639772 0.10525586 -0.30145848
-0.123132415 -0.03872444 0.26469022 0.26332778 0.29642493 0.0040762466 0.07014093 0.24546401
0.3122113 0.16734609 -0.22738996 -0.20305373 -0.06367725 -0.32264432 0.1279983 0.2954337
0.05511073 -0.1434171 0.3298905 0.041515358 0.11598679 -0.15187347 0.33705392 -0.13021134
0.31381267 0.26644763 -0.09989901 0.12233666 -0.1652277 0.25529936 0.2684569 0.29902983
-0.12666006 0.14723165 0.036895312 -0.15792629 -0.31214872 0.24160455 -0.1351685 0.20419839
0.19193582 -0.13596387 -0.19210564 0.203016 0.27089095 0.3103404 -0.14118215 -0.1940881
0.3239243 0.19119138 0.18862773 0.25609377 0.16049558 0.11600774 -0.35493848 0.21074787
-0.13145605 0.09156381 -0.041785255 -0.14876683 0.24929394 -0.271848 -0.028478468 -0.13129567
-0.18349029 -0.27342686 -0.26883027 -0.24623254 -0.038997862 0.21451347 0.02362425 -0.21678682
-0.31119552 0.17295055 0.07738937 -0.1348896 0.27060682 0.2534233 -0.30646744 -0.083780915
-0.15947 0.07208494 0.32017243 0.18540223 0.16999538 -0.18227291 -0.04815275 0.27303994
-0.36799243 -0.24896722 -0.17793737 0.019737404 -0.16325368 -0.10597763 0.049009442 -0.06603327
-0.16994752 -0.24476266 0.04222283 -0.22913243 0.17715132 0.30930537 -0.22523148 -0.17117672
0.019426396 -0.08594574 -0.117994815 0.0690115 0.20080484 0.13031481 0.017652953 -0.23656198
-0.2758354 -0.04644312 0.07168612 0.031190779 0.29057246 -0.33456594 -0.2559231 0.2559449
-0.2365547 0.023319392 0.098334655 -0.20473534 -0.008852504 0.2715587 -0.17349474 0.2656008

ConvBase.1.feature.lis.3.X_conv.conv.bias f4 [16]
00000000: af5d a1bd 1475 7cbe 39b1 523e b010 9c3d
00000010: 97a9 d63d 4b76 af3d 5265 92be d734 673e
00000020: c5b3 6d3e 842d 153e 87f2 873e deb4 223e
00000030: 4b52 953e 6abb b93d d154 5dbd 9105 8ebc
-0.07879197 -0.24654037 0.20575418 0.076203704 0.104815654 0.085674845 -0.28592926 0.2257875
0.23213108 0.14568144 0.2655222 0.15889308 0.29164347 0.090689495 -0.054035965 -0.017336639

ConvBase.1.feature.lis.3.Y_conv.conv.weight f4 [16, 1, 1, 9]
00000000: b1d9 acbe 002d 87bd 9b8d a2bc 02b4 a9be
00000010: aa3c 27bd 7fe2 973e ecf7 3c3e bb5c 17be
00000020: 43c2 10be 3b7c de3d 722d c3bd 9df6 02be
00000030: d03b bd3c a99b 39be 6b44 2dbe ac75 803e
00000040: 93c7 b93c f220 51be 75bc 73bd 62f7 403e
00000050: 9aca a33e 40a1 83be f4c5 013e 8f76 163e
00000060: 70de 2dbe 3a80 d33d 70fd 583e afc9 863e
00000070: 580f 343d c9ac 10be 1b50 0cbe b63c 433e
00000080: 9b8b 82be 0c51 7f3e 7ed0 aabe e721 743d
00000090: ad0b 3d3e 4608 43be 1c35 05be 7f8f 183d
000000a0: 39fe 02be bea1 c3bc 15dc 2dbd 0b82 aabc
000000b0: d038 a8bd 7fc2 813e 2cee dabd 8b80 c23b
000000c0: eb6c 313e 7094 153d 013c 1dbd fbc6 8b3e
000000d0: e4bc 753e e63a 9ebe a987 86be 6a21 123e
000000e0: 5f50 a13d 9d60 a5bd 1735 8b3e 422b 013e
000000f0: 3664 99be 9588 2e3e 2fdb 50be 7d96 3bbe
00000100: 9a67 3c3e f9cc 7dbe 7370 363e 9a99 983e
00000110: a7ce 92be ccd5 21be c852 a83e 8414 67be
00000120: a54d 873e 8ec1 1ebe 3cee 3d3e 7109 83bd
00000130: 767e 65be fb12 993c 81f5 f13d 25a9 823c
00000140: 6784 a6be cbec 073e cce2 283e c649 89bd
00000150: 228f 0fbe 0206 303e a634 34be 0f7c 1c3e
00000160: ea55 1cbe 3998 8d3d 59cd 593b 45c4 173e
00000170: e143 8cbc 9f73 8e3e 951a 403e e946 fe3d
00000180: 6aff 0ebe a6ae 963d ca80 ac3e 6076 213e
00000190: 4fff b5bd 1893 05be e5d0 8ebc 7ccd 5a3e
000001a0: e63d 3d3e d963 9cbe dd75 9d3e 0a24 d83c
000001b0: 435d 47bd 8b48 983e a176 3f3e d0aa b3bd
000001c0: a70a 1c3e 2374 843e 6422 18be ce72 90bd
000001d0: 310e 133d 7be7 853e bdef c23d 7ccc 473e
000001e0: a960 76bd 30a1 083e c048 b73c 848c 55bd
000001f0: cda0 fd3d bf95 fe3d 5fb1 09be b43b 00be
00000200: f684 86ba c4d9 70be 183e 653e 5f1f 603e
00000210: 6825 803e 74ea 40bd 5aee 993d 5fd8 4e3e
00000220: 6eda f7bd 5b00 1dbe 578a 2f3e b307 9a3e
00000230: a5be 45be b915 62be 290d 52bd 10cb 5ebe
-0.33759835 -0.0660038 -0.019842913 -0.33145148 -0.040829338 0.2966499 0.1845395 -0.14781468
-0.14136605 0.10863539 -0.095301524 -0.12789388 0.02309981 -0.18125786 -0.1692063 0.25089777
0.022678172 -0.20422724 -0.0595059 0.18844369 0.3199051 -0.2570896 0.1267317 0.14693664
-0.16979384 0.10327192 0.21190429 0.26325747 0.043959945 -0.14128412 -0.13702433 0.19066128
-0.25497136 0.2493326 -0.33362192 0.059602644 0.18461485 -0.19046125 -0.13008541 0.037246224
-0.12792291 -0.023880836 -0.042446215 -0.020813962 -0.08213961 0.253437 -0.10689959 0.0059357337
0.17326705 0.036518514 -0.038387302 0.27300248 0.23997837 -0.3090431 -0.26275375 0.14270559
0.07876658 -0.08075068 0.27188942 0.12614158 -0.29959267 0.1704429 -0.20396112 -0.18319125
0.18398896 -0.24785222 0.17816333 0.2980469 -0.28673288 -0.15804213 0.32875657 -0.2256642
0.26426426 -0.15503523 0.1854791 -0.06398285 -0.22411522 0.018685808 0.11814404 0.015949795
-0.3252289 0.13273923 0.16492766 -0.06703524 -0.14019445 0.17189792 -0.17598209 0.152817
-0.15267149 0.069138 0.003323397 0.14820965 -0.017122211 0.27822587 0.1876014 0.12415869
-0.1396462 0.0735753 0.33692008 0.15767813 -0.08886587 -0.13044393 -0.017433593 0.21367449
0.18480644 -0.30544928 0.30753985 0.026384372 -0.048672926 0.29742846 0.18697597 -0.08772814
0.15238439 0.25869855 -0.14856869 -0.07053147 0.035902206 0.26153168 0.09518383 0.19511598
-0.060150776 0.13342738 0.022373557 -0.05213596 0.12384186 0.124309056 -0.13446568 -0.12522775
-0.0010263014 -0.23520571 0.22386968 0.21886967 0.2502854 -0.047098592 0.07516165 0.20199727
-0.12102209 -0.15332167 0.17142616 0.30084 -0.19311006 -0.22078599 -0.05128208 -0.2175715

ConvBase.1.feature.lis.3.Y_conv.conv.bias f4 [16]
00000000: 2876 b53d 7523 25be f2df 1a3e 1c2d d2bd
00000010: 7071 8dbe e9cb 00be 9743 833d 7b60 66be
00000020: 2a57 003e 3b13 dbbd a1df 753d 566d 1c3e
00000030: d579 e83d d01f ddbd 2b2c 163e bbfc 623b
0.08860427 -0.16126807 0.15124491 -0.1026251 -0.27625608 -0.12577786 0.06409376 -0.22497742
0.1253325 -0.10697027 0.060027722 0.15276083 0.113513626 -0.107970834 0.14665286 0.0034635502

ConvBase.1.feature.lis.3.pointwise.weight f4 [16, 16, 1, 1]
00000000: 5f29 cc3d 6aaf 8dbb 69f7 3b3d e93e 8abd
00000010: 6c1f 4b3d fb94 7dbb e59a 8cbd 9d69 a73d
00000020: 54e2 c93d 5e56 053d cb7d be3d 38b9 d93c
00000030: fbb1 49be e798 03be a9f2 12bd 993f d13d
00000040: e3ef 813e a510 94bd 2448 9ebd afc2 043e
00000050: 6fe6 ba3d 248d 843d d136 723e 7533 1b3e
00000060: 9df0 26be cccd d1bd 670f 823d 2f9c 8c3e
00000070: ee6f 1e3c 3651 4c3e 0a88 9b3d 7db4 a5bd
00000080: 56d9 cd3d 24e7 a0bd 3e1d 7dbe 24e6 e83d
00000090: 55d1 40be 394b d03d f895 2fbe 289f 423e
000000a0: 7245 afbd 2634 0fbc 8697 2fbd 9d5c 80be
000000b0: 3baa 073d 3427 a43c e29c 2cbe a2c4 34be
000000c0: bdc6 c33d 7361 ddbd 2fde 3abe a2ca ccbd
000000d0: 2f1f 0bbe b337 1e3d 8543 1ebe ca80 49be
000000e0: fe87 bd3d d232 61bc aac5 213e 2adc 3b3e
000000f0: ec24 af3b f957 1cbe 847f 663d 1ffa 043e
00000100: fced 30be 6a7f 393e 6328 7b3d 73e7 863c
00000110: 8cd2 25bd d66d e0bd 0ee7 3b3e b25d 603e
00000120: fd17 9ebc 2c17 4cbd 7c6b 113e 441d b73d
00000130: 44b7 d73d f4dc b6bd 252e 39be 74bb 69be
00000140: 44fd 6ebe a82c 813c ce16 2bbe 8dd6 c0bd
00000150: 42f7 4d3e 7b76 0bbd baed 63be cc81 82bc
00000160: c801 9cbd 4203 663c fcc2 c0bd 2f1c c8bd
00000170: cf67 37be 5912 6fbe 6214 e6bd d4de 0fbd
00000180: f6ad c7bc 6ed0 dcbd 6430 2a3e bc21 95bd
00000190: 235c 1e3e a0ed 3c3e a643 373e 2d7d 42be
000001a0: 1a82 6abe f736 d6bc 291a 113e 2ec9 4bbd
000001b0: deb6 7d3e 208b 35be 7ec8 4e3e 662c 1cbc
000001c0: d3cb 2b3e bcea 5bbe 2b6c b43b 1c9c dbbd
000001d0: fc31 ebbc 9624 fdbd 6e7a e43d b587 28be
000001e0: 1f3f 29be cc10 d93b f9df 30be 781d e73d
000001f0: 4a16 95bd 8e45 d2bd 96f9 233e 8baf 253e
00000200: 9f7d 27be 0d81 cbbc 5ad5 813e 151f e83c
00000210: 116a 11be 0693 d0bd 106c 21bd f5fa 223e
00000220: 515b 77be cb3f 843d 7fa7 9fbc fdda 7ebe
00000230: 3127 8e3c 1a76 3e3e ae21 bf3d d487 cbbd
00000240: fd3a 353d c93b edbd 153e 2abc 305d a5bc
00000250: 3064 853e 8abd 26be 6e7f 0bbe 2cc6 fa3c
00000260: 212d a43b fa2a fabc 8567 4d3e c2f4 4b3e
00000270: c2e2 173c b5ab 82be d35c 683e 48e2 f63d
00000280: 7076 033e e052 7cbd 101a 143e 6296 ca3d
00000290: d81e 1a3d c38b 473d 4047 343e 9a5e 33be
000002a0: 1f49 cbbd 3012 393d 4614 4e3e 5bef 6e3d
000002b0: 1c45 a2bd 97e0 cf3c 9bb2 dfbc 14a3 213e
000002c0: 1223 1e3e 5c39 883d edf7 4e3d 0194 15bd
000002d0: 8a9c 7bbd 7671 233e ac4b 23be 3df5 76be
000002e0: e1ce 303e 14b8 0bbe 9bdd 7b3e 8dc4 abbd
000002f0: 67fa 85bc 861e 5e3e 56ce 2d3e 6f9a 433e
00000300: a2de 78be e86d 513d f35b 5dbe 67a5 883d
00000310: 6b7f ba3d 3b15 543e 6676 49be 61fe 283e
00000320: 9e6a 473e 1555 9e3b f5d6 10bd bc26 493e
00000330: c30a 0abd fa39 6cbe 8b27 3f3e a264 d73c
00000340: ad5a 8f3d f4bf f23d 0d86 0a3e 52a9 d83d
00000350: 3587 2e3e 5c0c 14be c3c6 babd 4966 c3bd
00000360: fa97 eb3d e3a8 34be a853 b93d ffbe 35be
00000370: f1aa 94bd 216d 90bb 9637 0fbd 72f8 e3bd
00000380: 8786 ca3d 1c5c b63c 41fa 643e 1833 453e
00000390: 7060 2f3e 7eba 5abe cdf4 af3d 58db 473e
000003a0: 2196 57ba ba23 46be 534b 7c3e fd92 823c
000003b0: ff57 02be ab1d 273d 8ec0 773e 9c28 0b3e
000003c0: 3bcb 7ebc 91e4 043e 176f 0d3e 0fb7 4f3d
000003d0: e9b4 61be debc 53be 26a5 25be f720 4abe
000003e0: fd9f 553c 01ac 21bd a75d 103e 0443 b33a
000003f0: 5146 02be a017 56be 030a df3c f513 4b3e
0.099688284 -0.0043238895 0.045890246 -0.067502804 0.049590513 -0.0038693536 -0.06865481 0.08174441
0.09857622 0.03255307 0.09301337 0.026577577 -0.196968 -0.12851296 -0.03587595 0.102172084
0.25378332 -0.07229737 -0.077286035 0.12964891 0.09125983 0.06472233 0.23653723 0.15156348
-0.16302724 -0.10244331 0.06350594 0.2746291 0.009670241 0.19952855 0.07594307 -0.08091066
0.10051219 -0.078565866 -0.24718186 0.11372021 -0.18829854 0.101705976 -0.17147052 0.19006026
-0.085581675 -0.0087404605 -0.042869113 -0.25070658 0.03312133 0.020038225 -0.16856721 -0.17653134
0.09559391 -0.108096026 -0.18248819 -0.09999587 -0.13586114 0.038627338 -0.15455444 -0.19678035
0.09254454 -0.013745027 0.15798059 0.18345705 0.0053449776 -0.15267934 0.056273952 0.12986039
-0.17278284 0.18115011 0.061317813 0.016467785 -0.040483996 -0.109584495 0.18349859 0.21910742
-0.019298548 -0.049826786 0.14201158 0.08941129 0.10533002 -0.08928862 -0.18084009 -0.22825414
-0.233388 0.015768364 -0.16707918 -0.09415922 0.20113853 -0.03404854 -0.22258654 -0.015931033
-0.07617527 0.014038863 -0.0941219 -0.097710006 -0.17910694 -0.23346843 -0.112343565 -0.035124615
-0.024374943 -0.10781942 0.16620022 -0.07281825 0.15464835 0.18450022 0.178969 -0.18993063
-0.22901192 -0.026149256 0.14170136 -0.049752407 0.2477679 -0.17728853 0.20193669 -0.00953207
0.16776972 -0.21476263 0.0055060587 -0.10723135 -0.028710358 -0.12360494 0.11156164 -0.16458018
-0.16527985 0.006624317 -0.17272939 0.112849176 -0.07279642 -0.10267173 0.16013178 0.16180246
-0.16356514 -0.02484181 0.25358087 0.028335134 -0.14200617 -0.101842925 -0.039409697 0.15916045
-0.24155928 0.0645748 -0.019489048 -0.24888225 0.017352672 0.1859974 0.09332596 -0.099380165
0.04424571 -0.11583669 -0.010390778 -0.020186037 0.26053 -0.16283241 -0.1362283 0.030612074
0.0050102626 -0.030538071 0.20059021 0.19917586 0.009270372 -0.25521627 0.2269166 0.120548785
0.12838149 -0.061602473 0.14463067 0.098919645 0.03762707 0.04871727 0.17605305 -0.17516556
-0.09926056 0.04518336 0.20124921 0.058333736 -0.07923338 0.025375647 -0.027306845 0.15784866
0.15443066 0.066515654 0.05052941 -0.0365181 -0.061428584 0.1596125 -0.15946835 -0.24116988
0.17266418 -0.13644439 0.24596255 -0.083870985 -0.016354753 0.21691331 0.16973242 0.1910188
-0.24303678 0.051130205 -0.21617107 0.06672173 0.09106334 0.20711224 -0.19674072 0.16503288
0.19474265 0.00483192 -0.03536125 0.19643682 -0.03370167 -0.23068991 0.18667428 0.026293103
0.06999717 0.118530184 0.13527699 0.1057917 0.17043765 -0.1445784 -0.09119942 -0.09540994
0.115035966 -0.1764255 0.09049159 -0.1774864 -0.07259167 -0.0044075404 -0.03496512 -0.111313716
0.0988894 0.022260718 0.2236109 0.19257772 0.17126632 -0.21360204 0.08591614 0.19517267
-0.000822397 -0.19349566 0.24638109 0.01593923 -0.1272888 0.040799778 0.24194548 0.1358971
-0.015551384 0.12977816 0.13811909 0.050711688 -0.22041668 -0.20677516 -0.1617628 -0.19739138
0.013038632 -0.039470676 0.14098226 0.0013676588 -0.12722136 -0.2090745 0.027226454 0.19831832

ConvBase.1.feature.lis.3.pointwise.bias f4 [16]
00000000: 4818 833e ccf1 e23d 053e f6bd cf33 40be
00000010: 3960 d4bb e81d 393e f947 253e a4cd 5c3e
00000020: c309 23be 1985 d1bd da53 1bbc e7f3 2a3d
00000030: ea69 e3bd cb98 22bd e197 a93d 001f 503e
0.25604463 0.11081275 -0.12023548 -0.18769763 -0.006481197 0.18077815 0.16140737 0.2156282
-0.15921693 -0.102304645 -0.009480441 0.04173651 -0.11104186 -0.039696496 0.08280922 0.20324326

ConvBase.1.feature.bn.weight f4 [16]
00000000: 77c4 7a3f e6b5 5f3f a3d4 f63e feb9 073e
00000010: d547 2b3f 7a71 1a3f 3d0e 643f 6389 033f
00000020: 9139 733f aab8 253f ff12 7a3e 9212 073f
00000030: 68be 4e3f 8534 103e 559f 5b3e 81d3 953e
0.9795603 0.8738693 0.48209104 0.13254544 0.6690648 0.603294 0.89084226 0.5138151
0.95009714 0.647349 0.24421309 0.5276271 0.80759287 0.14082535 0.21447499 0.29262927

ConvBase.1.feature.bn.bias f4 [16]
00000000: 167c 96bb 064f 493c f026 26bc 5018 233d
00000010: fd93 d1b9 2b3d 82bc 2b1e 123c bda6 003d
00000020: ea41 d2bc 53ab be3c f39a bb3c ca97 8f3c
00000030: 0846 143d a8a3 de3c ebef 3a3d b5f1 2e3b
-0.004592429 0.012286907 -0.010141119 0.039818108 -0.00039973846 -0.015898308 0.008918325 0.031409014
-0.025666196 0.023275053 0.022901034 0.017528433 0.0361996 0.027177647 0.04563896 0.0026694362

ConvBase.1.feature.bn.running_mean f4 [16]
00000000: e399 763e 7aa4 0cbe a975 a63c 4eda c1be
00000010: d148 13b8 c242 a1be ce86 06be 3c14 c03e
00000020: 15e2 aabe de35 ca3d e012 bfbd 5654 e1bc
00000030: b537 6fbd 879f 3b3d 2966 813b d196 103d
0.2408214 -0.13734618 0.020319777 -0.37861866 -3.5115347e-05 -0.31496245 -0.13137361 0.37515438
-0.33375612 0.098735556 -0.09329772 -0.027506035 -0.058402736 0.045806434 0.003948946 0.03530008

ConvBase.1.feature.bn.running_var f4 [16]
00000000: e1f4 133b 33a3 f93a a013 4e3b 4c89 373b
00000010: 621d 083b 7a47 8e3b a0b4 723b 7dfe 7d3a
00000020: 6f46 603b 971b 103b 571a ea3a 8b1a 3f3b
00000030: 144f 213b 67ed e03a d938 303b 9823 243b
0.002257638 0.001904583 0.0031444803 0.002800542 0.0020769467 0.0043420168 0.003703393 0.0009689106
0.003422167 0.00219891 0.0017860633 0.0029160108 0.0024613785 0.0017160595 0.0026889353 0.002504563

ConvBase.1.bn.weight f4 [64]
00000000: d531 df3e bc85 ce3d 3dfa f33d d231 9d3d
00000010: f30a be3e 1a65 423f ddcd 653f 7453 b1bb
00000020: 5e6a 313f 6989 643f 8762 833e 6fdb 0d3f
00000030: 9625 383d 93fc 023e d87f 483f 7dff 423f
00000040: d1dd 473f 2c1a 4f3f 08bd 4b3f fef0 cf3e
00000050: f44d b53e ca65 553f f2f1 183f 0bdc 883e
00000060: c9b7 5a3f 867d 1f3f abf3 fa3e cff2 133f
00000070: d138 503f 2d3f c23e d4b1 983e 0109 6f3f
00000080: a1a6 313f 7fbc c83e 85c4 053e dc32 703f
00000090: 7eeb 923e 30f6 503f 917d 983e a62f eb3e
000000a0: d18c b63e 0413 3b3f 1532 a03e bf3e 033e
000000b0: ccdc 953d 7555 e63e 1e9f 3d3e f473 4d3f
000000c0: 46f7 3f3f 2971 fc3e 32ef 8b3e d226 2e3f
000000d0: 303e a43e c06f 7c3f e814 75bb 9c6c 6e3f
000000e0: f9df 703f 258c 613e 133b 983e 9b01 2b3f
000000f0: 6169 ed3e 635b 143e 5751 5c3f 4228 363f
0.43592706 0.100841016 0.119129635 0.07675518 0.3711773 0.7593552 0.8976725 -0.0054115597
0.6930293 0.8927217 0.25661108 0.55412954 0.04495772 0.12791662 0.78320074 0.76171094
0.7807284 0.8089931 0.79585314 0.4061355 0.35411036 0.8335844 0.5974418 0.2673038
0.85436684 0.6230091 0.4901403 0.5779237 0.81336695 0.37938824 0.29823172 0.93373114
0.6939488 0.3920631 0.13063248 0.93827605 0.2869529 0.8162565 0.297833 0.4593479
0.3565431 0.7307589 0.3128821 0.12816904 0.07317504 0.44987074 0.1851773 0.80255055
0.74986684 0.49305084 0.2733093 0.68027985 0.32078695 0.98608017 -0.0037396494 0.93134475
0.94091755 0.22026117 0.2973257 0.66799325 0.4636946 0.14487986 0.86061615 0.7115518

ConvBase.1.bn.bias f4 [64]
00000000: 4155 b83c be30 703c a186 613c 478f 3a3c
00000010: b9f2 f4bc 3512 dcbc d319 233d 4b84 6dbc
00000020: c1d1 a03c 61d1 883b 31db 00bb e242 8ebc
00000030: 0db9 fdbb 7ee0 ab3b 539a 2abd 5d03 263d
00000040: 2a5b 1abb 3b83 c6bc b65e 62bc f7cc 21bd
00000050: edc6 b53c 946e 33bc c673 b43c 35e9 bdba
00000060: 9c97 debc db43 473c 46d1 ebbc 9916 b53c
00000070: cccf 003b 32fb d5ba 0215 163c 14a1 e3bb
00000080: 8843 0fbc 935a cdbc 3804 f0bc efd6 423d
00000090: 5fc9 86bb 044a 4d3c e622 3d3a 8c1d b6bb
000000a0: d458 a23c 8786 36bd 433f c43c 39ba 11bc
000000b0: 3bd5 013d 13db ba3c 1807 adbb 33c7 f73c
000000c0: 9492 15bc 5df0 013d 1cd3 2a3c 76dd d13c
000000d0: cc92 a43c 0c2a 15bd f877 84bc 319e 163c
000000e0: 8806 eabc 3177 9c3c acf1 4d3c 9e73 ce3c
000000f0: 9eb1 463b 857d 063c 049a e4bb a227 d33b
0.02250159 0.014660059 0.013765008 0.011386699 -0.029900895 -0.02686415 0.03981955 -0.014496873
0.019631268 0.0041753505 -0.0019661898 -0.017365877 -0.007743007 0.0052452674 -0.04165108 0.04053055
-0.0023552873 -0.024232497 -0.013816526 -0.03950211 0.022189582 -0.010951657 0.022027861 -0.0014489057
-0.027171902 0.012162174 -0.028786313 0.022105502 0.0019655107 -0.0016325472 0.009160282 -0.0069466922
-0.008744128 -0.025067603 -0.029298887 0.047568258 -0.004113361 0.012529854 0.0007214978 -0.0055577215
0.019817747 -0.04456189 0.023955947 -0.008894497 0.031697493 0.02280954 -0.0052803867 0.030246353
-0.009129185 0.03172337 0.010426309 0.025618296 0.02008953 -0.036417052 -0.016170487 0.009192989
-0.028567567 0.019099804 0.012569826 0.025201615 0.003031827 0.008208637 -0.006976368 0.0064439336

ConvBase.1.bn.running_mean f4 [64]
00000000: 27a9 463e c079 103e 19a6 ed3d b1dd 773d
00000010: 7156 1b3e da5a fb3c 3d4e a83c 550c 0c3e
00000020: bb46 6d3e 3a29 2d3e 1885 973d 06c4 073d
00000030: 2ecc 5d3e 05a4 de3c 65a3 913d a808 8c3d
00000040: 9ecc 773e 9e92 5f3e 8ad9 be3d d821 913d
00000050: 5311 4b3e c4fe 3e3e bfd7 323e 45fb 093e
00000060: 61d0 083e d58f 463e e02c 843d ad4c 143e
00000070: 900a 153e 699d 613d c563 9c3d 47a7 9c3d
00000080: 47ea af3e 9108 8f3e e37b 103e f6e1 583d
00000090: 8730 653e 09d3 533e 75d7 7c3e 09ad 4a3e
000000a0: 54de 763e d304 fc3d 4cd7 8e3d 7af3 263e
000000b0: 5463 773e 7e76 503d ca9b 8d3d 4f0b a53d
000000c0: 9b72 833e 5966 9f3e 1862 0b3e 082f 893d
000000d0: b807 483e 4fd7 223e 18b2 703e 48a5 483e
000000e0: eac7 8a3e d0f7 623e 021c b43d 8ed2 2b3e
000000f0: b793 993e fea7 7a3d 69b3 ac3d 1da1 e13d
0.19400464 0.14108944 0.11603946 0.060514156 0.15169694 0.03068297 0.02054512 0.1367658
0.23171513 0.16910258 0.073984325 0.033145927 0.2165992 0.02717782 0.07111243 0.068375885
0.24199149 0.21833274 0.09318836 0.07086533 0.19830827 0.18651873 0.17465113 0.13474758
0.1336074 0.19390805 0.06453872 0.14482374 0.1455481 0.05508176 0.07636217 0.07649093
0.34358427 0.27936223 0.14109759 0.05294987 0.22381793 0.20685972 0.24691565 0.1979257
0.24108249 0.12305608 0.06974658 0.16303816 0.24158984 0.050894253 0.0691448 0.080587976
0.25673375 0.31132773 0.13611639 0.066984236 0.19534194 0.15902446 0.23505437 0.195943
0.27105647 0.22164845 0.087944046 0.16779539 0.2999551 0.061195366 0.08432657 0.11017058

ConvBase.1.bn.running_var f4 [64]
00000000: b07e c63d d5d6 3f3d 7d0c 153d 57de 8b3b
00000010: 0fab 6e3d 346c 5d3b ca3b 1f3b d9aa 073e
00000020: 8237 fe3e 34a5 603e bd3b 133d b460 b83b
00000030: bfc1 b33e bbc6 b734 7da3 b33c 8c85 3b3c
00000040: 3239 bf3e 90af d53e 0a41 e43d 9d3a 093c
00000050: 2fc9 d83d 3a47 513e 9dc5 273f 25c2 3a3e
00000060: cdb0 0b3e 319c 803e 2f01 023d a9dd 0d3e
00000070: d6da 323d 6a39 413c 9f98 4c3b 2647 873d
00000080: cfc1 003f 5fbf 773e 52cd 933d 295b 0b3c
00000090: f25a 043e dd2b 2c3e 6d5f bc3d cbad f73d
000000a0: c5e5 c13d 52bb b23e 5545 133d 451d 763d
000000b0: 80d9 f13e 218e 063c 18a7 0e3d ef66 ce3c
000000c0: a3a8 3e3f e8ce 623e d28e 883d 4c7c f33b
000000d0: b2e8 163e 7579 3c3e d931 663e 726b dc3d
000000e0: f007 f63e 47f1 9b3d 2370 183d 3ba0 283e
000000f0: d45d 863e 36ed 403c 6117 e43c 2fd5 3b3d
0.096921325 0.04683574 0.036388863 0.0042684483 0.058268603 0.0033786418 0.0024297112 0.13248767
0.49651724 0.2193802 0.035945643 0.0056267623 0.35108754 3.4231002e-07 0.021928543 0.011445414
0.37348324 0.41735506 0.11145218 0.008375791 0.10585248 0.20437327 0.6553591 0.18238123
0.13641663 0.25119165 0.03173941 0.13854088 0.04366573 0.011793474 0.00312189 0.06605367
0.5029573 0.24194096 0.07216896 0.008505621 0.12925318 0.16813608 0.091978885 0.12093695
0.09467653 0.3490854 0.035954792 0.060086507 0.47236252 0.008212597 0.03482732 0.025195567
0.7447607 0.22149241 0.06667866 0.007430589 0.14737204 0.18405707 0.22479953 0.10762681
0.4805293 0.076143794 0.037216317 0.16467373 0.2624346 0.0117753055 0.02784318 0.045857605
