waights/weights14.pth (torch_old, 670822 bytes, 196 tensors)

ConvBase.1.feature.lis.0.X_conv.conv.weight f4 [1, 1, 3, 1]
00000000: 5445 1bbc 56fa 48be e6a0 00be
-0.009476978 -0.19626746 -0.12561378

ConvBase.1.feature.lis.0.Y_conv.conv.weight f4 [1, 1, 1, 3]
00000000: 2289 9c3e 8078 95bd fd0b 13be
0.30573374 -0.07298374 -0.14360042

ConvBase.1.feature.lis.0.pointwise.weight f4 [16, 1, 1, 1]
00000000: 2a54 babe b07e 6cbe ec98 45bf 84cb 6ebf
00000010: f73e febe 9a2d a9bd 2518 ab3c 48de 143f
00000020: 4d3b 543f 2c83 283f a031 6d3f ecee 783d
00000030: af5b 323f 33b5 a0ba 6bec eb3e cdc3 00bf
-0.36392337 -0.23095202 -0.77186465 -0.9327929 -0.49657413 -0.08260651 0.020885536 0.58151674
0.82902986 0.6582515 0.92653847 0.06077473 0.6967115 -0.0012261033 0.4607881 -0.5029877

ConvBase.1.feature.lis.0.pointwise.bias f4 [16]
00000000: e776 503f 9af3 8fbe 8d9d 353f 6daf 85bf
00000010: 09b6 99be 553e 50bf 05a4 a9be a178 6c3f
00000020: 6196 2fbf 2e94 843e 7860 e3be 87de 0abf
00000030: a399 5e3d 0eb5 9abd f256 91be 6d49 cabe
0.8143143 -0.2811554 0.7094353 -1.0444161 -0.30021694 -0.8134511 -0.3313295 0.92371565
-0.68588835 0.25894302 -0.44409537 -0.542458 0.05434574 -0.07554065 -0.28386647 -0.39509144

ConvBase.1.feature.lis.1.X_conv.conv.weight f4 [16, 1, 5, 1]
00000000: 0dd4 753e c536 9bbe d4da ad3b edf7 b63e
00000010: dac3 813e 119e c83c 787c ad3e 1d4b 2f3b
00000020: 71f2 173e 4883 8abe ada7 59be 74c6 9bbe
00000030: 5ad6 4bbd c56d 913e e863 e0bd e2d2 1fbd
00000040: 3865 2f3d 374c 393e 420b d33e 3dbd 013c
00000050: 577e c5be da84 cdbd ffb4 e33c 780a a5be
00000060: 66cd b43e c42d eb3d fd52 803e e657 c4be
00000070: 7673 613e 6a2d 1f3e 606f 8dbe 4895 32be
00000080: 29c9 3bbe 83bd 473e bf86 31bc 50b8 833d
00000090: 1d68 70bd 43ec d93e 456e cd3e ee5e 063e
000000a0: 49cd 443d 6edb a9be 5015 b13e 29d8 6b3e
000000b0: 5970 c73d 1a61 a1be 82a3 99be 5061 b93d
000000c0: 9399 083e 0e3f c8be a04f 90bd ae0e 90bd
000000d0: 6551 e9be 82f5 adbc bdd5 bf3e a3c4 dcbe
000000e0: d8d3 e1be 3fe7 973e f235 4b3e 0a38 bf3e
000000f0: ab37 31be e845 77bd 1c69 86bd d649 ce3e
00000100: 2afb 86be 2828 b5be 8a26 b23e f0af 36be
00000110: 5f02 b33d e234 9cbd 57f4 c8bc 136a abb9
00000120: 1e0e 95be 5f20 e2be 1414 813e 212f b73e
00000130: 036e 55bd d234 243e d368 493e c899 d0be
0.24006672 -0.30315223 0.0053056274 0.35736027 0.25344735 0.024489434 0.33884025 0.0026747652
0.14838578 -0.27053285 -0.2125537 -0.30424845 -0.04976497 0.2840406 -0.109565556 -0.039019473
0.04282114 0.1809548 0.41219527 0.007918653 -0.38572952 -0.10035105 0.027796267 -0.3223455
0.35312957 0.114833385 0.25063315 -0.3834831 0.22016701 0.15544668 -0.27624035 -0.17439759
-0.18338455 0.19505887 -0.010835349 0.06431639 -0.05869304 0.42563066 0.4012319 0.1312215
0.048047338 -0.33175224 0.34586573 0.23031677 0.097382255 -0.31519395 -0.3000756 0.09051764
0.13339834 -0.39110607 -0.07046437 -0.0703405 -0.45569912 -0.021235231 0.37467757 -0.43118772
-0.44106936 0.29668614 0.19844797 0.37347442 -0.17306392 -0.060369402 -0.06563017 0.40290707
-0.26363498 -0.353822 0.34795028 -0.17840552 0.087406866 -0.07627274 -0.024530573 -0.00032694693
-0.29112333 -0.44165322 0.2521063 0.35778144 -0.05210687 0.16035774 0.19668894 -0.40742326

ConvBase.1.feature.lis.1.X_conv.conv.bias f4 [16]
00000000: 8ef7 a83c a510 b13d 17f7 583d d901 e8be
00000010: 927c 95be 1072 c9be 97c1 e9be 8a3d c83d
00000020: 2908 223e a2b4 16be ae2e 9d3e ce9f 933e
00000030: f60a 853d d959 fe3d d47c d4be 73e1 393a
0.020625856 0.08645753 0.05297002 -0.4531391 -0.29196602 -0.39344835 -0.4565551 0.09777363
0.15823425 -0.14717343 0.30699676 0.2883286 0.06496231 0.12419481 -0.41501486 0.00070907845

ConvBase.1.feature.lis.1.Y_conv.conv.weight f4 [16, 1, 1, 5]
00000000: 77e7 863e f5d2 b33e 38ee b9be d345 4bbe
00000010: c489 c33c 324a ab3e 9012 db3e 9190 d8bd
00000020: f977 0ab9 bc84 dbbe ad2e a9be ec59 5e3d
00000030: 0c3a 833e 4a3a 9fbe f5cc 71be 6261 89be
00000040: 87f1 7f3e e0c2 ec3e ffeb 58be 8278 aebe
00000050: 84a3 85be ba10 c83e 3c63 c73e f921 b5be
00000060: 2baf 4c3e c660 78be cdd5 45be f16e b5be
00000070: 582e f03d d829 c2be 7266 933d ffed e7bd
00000080: 5c01 2b3d a328 883e b591 cf3d b8d4 b1be
00000090: 5b79 7d3e 5a7f 81bd 9cc4 dbbd 36b7 723d
000000a0: d285 4bbd ba16 d4be ae01 b9bd 5a09 323e
000000b0: cbe8 94be 1626 523e 7cd3 aebe 4488 09be
000000c0: e759 d83e 4cae a43e 542c 7f3e d763 093e
000000d0: f08a abbd 4f69 4d3e 5173 8ebe 43c7 ce3e
000000e0: 7f59 bbbe 33b8 853e 594f 00be 071e f8bd
000000f0: 00bb e33e 38ef 65be be8d 2b3e c853 d93e
00000100: 3e3a 053b 6c40 9c3e 9579 be3c f3c8 7d3e
00000110: 7656 d03e fbcc 84be 9b32 98be 702b dcbe
00000120: a3b4 b83e 9120 d9be eecd cb3e 9379 a73e
00000130: 3091 9dbd b152 edbe 6a11 8abe 0c06 43bb
0.2634847 0.35121885 -0.3631456 -0.19850855 0.023869403 0.33455044 0.427876 -0.10574449
-0.00013205399 -0.42874706 -0.33043423 0.054284975 0.25630224 -0.3109916 -0.23613341 -0.2683211
0.24994479 0.46242428 -0.21183775 -0.34076315 -0.26101315 0.3907526 0.38942897 -0.35377482
0.19988696 -0.24255666 -0.1931984 -0.35436204 0.11727589 -0.3792255 0.07197274 -0.11324691
0.041749343 0.26593503 0.10135213 -0.34732604 0.24753325 -0.063231185 -0.1073086 0.059256755
-0.049688168 -0.4142359 -0.090335235 0.1738638 -0.29083857 0.20522341 -0.34145725 -0.13430887
0.4225609 0.32164228 0.24919254 0.13416992 -0.083761096 0.20059703 -0.27822354 0.403864
-0.36591718 0.26117095 -0.12530269 -0.12115102 0.44478607 -0.22454536 0.16753289 0.42446733
0.0020328905 0.305179 0.023251334 0.24783687 0.40690964 -0.25937638 -0.2972611 -0.4300189
0.36075315 -0.4240766 0.3980555 0.3270994 -0.07693708 -0.4635215 -0.2696641 -0.0029758243

ConvBase.1.feature.lis.1.Y_conv.conv.bias f4 [16]
00000000: 3c8b 483e 07a3 853e e08e 0cbe a380 8c3e
00000010: 5cd2 f73d abbf 743d 0015 753d 376a 153e
00000020: 3018 b63e 98b4 8b3d 333d d9be 37d2 2dbe
00000030: 41ce bcbe c9ad 413e f8ea a5be f15f bdbe
0.19584364 0.26100942 -0.13726377 0.27441892 0.1210067 0.0597531 0.05983448 0.14591299
0.3556533 0.06821555 -0.42429504 -0.16974722 -0.3687611 0.1891395 -0.3240583 -0.3698726

ConvBase.1.feature.lis.1.pointwise.weight f4 [16, 16, 1, 1]
00000000: 58c5 3fbe 58f8 72be 1291 0cbe 2e61 2b3e
00000010: 7782 60be 93bb e23d b386 b23d 8da5 6b3e
00000020: fab3 36bd 5baa bebd 29c9 43bd 1965 0c3e
00000030: 201d 4fbe b8b2 693e f45a 65be 70bf 5a3e
00000040: 92a2 2d3e bf26 bc3d 96d4 843d 907d 4fbd
00000050: 8138 4ebe 7f15 37be b929 1e3e 66d2 4e3e
00000060: ee01 e43c ed33 173e 76c8 53be c43c cb3d
00000070: 3da7 efbd d25e c13d d8a7 373e b775 203c
00000080: f829 1fbe 809f c9bd f2c1 17bd dd2e 783d
00000090: 71cf 94be 69a3 e3bb 8f96 ae3d 716d 44be
000000a0: 2eb9 043e efe9 a53c e798 4fbe c900 413e
000000b0: bb0b 243b 18a4 21be 42da bcbd 2f91 79be
000000c0: 2f2f ccbb 72c2 37be 60d4 103e 6c50 c6bd
000000d0: 0d60 42be 35e5 5d3d 9fc6 583e 374f f93b
000000e0: 4006 a63d 501c 5b3c 135b 2d3e 07a5 cabd
000000f0: a605 b03d 78db 8bbe 5c8e aebc 51ca 86be
00000100: 9890 33be c7e4 513e 61ac 683e 0167 373e
00000110: c6e9 39be 321e 523e 7cae 3d3e 7e11 1dbe
00000120: f0f0 6f3e b80e f53d c78b 5a3c 6d19 71bc
00000130: 24ea e5bd 5280 1bbe 2f71 993d 799f 09be
00000140: 8cc6 e93d f820 d1bd 8b28 12bd 6f21 9ebd
00000150: 2c45 afbd 10ca e73c ff24 563d c2e9 a7bc
00000160: 2708 15be aa5b 49bd d17f 043d fa04 65be
00000170: 18eb 343b e8f6 0cbe b279 cfbc 55dd 383e
00000180: b9d5 7cbe cb47 1c3d 5213 8dbd 98c6 943c
00000190: 74d2 9a3d 2b48 45be b454 9cbd a037 183d
000001a0: 6732 26be 0ca0 183e b217 893e 0b75 c3bc
000001b0: b8f1 2ebe d949 f1bc b2fb 13bd ff54 643e
000001c0: 352f 3fbe 94c5 0a3e a3fb 0abe 122d 993d
000001d0: 6e3c 393e 68de 39be 9f62 02bd 9774 073e
000001e0: 793a 08be eab6 22bd be55 ecbd 807c babd
000001f0: 866d d13c 05f2 24be 3988 47bd 0c4b 0abe
00000200: 28c4 443d 6a69 a43d cb9a 5ebe abcf 7fbe
00000210: 6fa3 38bd 1476 d43c a228 7b3e 46d8 c4bd
00000220: 41af e23d 5af8 1dbe 08c7 823e 199c 87be
00000230: 2a63 3e3e eca4 3cbe e0d8 433e af2d 1b3e
00000240: 1e8e f23d 791e 893d 7ea1 6f3e e92d bcbd
00000250: be6a 383b 4865 99ba 11a4 603e 7936 f4bd
00000260: ad60 ecbb 559a 593e 09ef 0bbe b32e 8f3d
00000270: 9882 9ebb ee0b 54be ff27 1b3e da67 0a3e
00000280: 3ce1 893e b35d 733e 1eae 24bd c6ce a43d
00000290: 1d0d 013e ea86 183d b8b3 56be 9ff5 4e3c
000002a0: b25f 27be d204 5f3e bf17 563e 12b9 10be
000002b0: cec5 513e 103d 02be 94ed 6fbe 4e36 48be
000002c0: 1aaa 20be 040b dfbb cea5 4fbd 7b67 653e
000002d0: 8568 d33b b425 33bd f579 88bd dd3b 2bbe
000002e0: 9000 873d b101 0d3e 54fc 923d 2717 ec3d
000002f0: 2769 843d 3634 febd 3c11 5bbe 5294 963c
00000300: e33b 013e 411d 72be caf4 86bd 309b 08be
00000310: 3fa5 d13d 64a5 1fbe 637e cd3d 784f ab3c
00000320: 7aa9 153e cd44 4dbe 7fe7 7b3d d369 1b3e
00000330: 2b3b 103e 461f a9bd c5c0 75bc 6364 84be
00000340: 82ae 58be f2d4 403e 2073 14be 621d 64bd
00000350: b5a2 173e 0026 cfbd 0e66 73be ce17 49bd
00000360: 8206 d4bd b442 f4bc 7104 193e d1a7 1dbe
00000370: 29dd 103e b41b 383e 3e2e fbbd 45bb 57be
00000380: f3ee 0a3e 3e1a 9cbc 24cd f8bd ed3d 1a3e
00000390: 9b39 67bd d76d ce3d 4cb9 a23d 635a 603e
000003a0: 99a6 db3d 22f3 43be f38b 09be 6594 3cbc
000003b0: 34f0 203e 85d9 2ebe 45c3 563e 723f cabc
000003c0: 0e2e 10bd 6553 10be d0c5 3c3e 2736 64be
000003d0: 5b93 83bd 492c 5a3d 2dcc 1dbb 255c 37be
000003e0: 235b d5bd 6c6e 9ebd d6c3 4cbd 0f6a 50be
000003f0: 300a 35bd ab02 5d3e 48a3 8e3e c633 d3bd
-0.18727624 -0.23727548 -0.13727215 0.1673629 -0.21924768 0.11070933 0.08717098 0.23012371
-0.044605233 -0.093098365 -0.047799263 0.1371044 -0.20225954 0.22822082 -0.22397977 0.2136209
0.16956547 0.09187078 0.0648586 -0.050656855 -0.20138742 -0.17879294 0.15445603 0.20197448
0.027832951 0.14765902 -0.20681939 0.099236995 -0.1170182 0.09441914 0.17935121 0.00979369
-0.15543354 -0.09844875 -0.037050195 0.060591567 -0.29064515 -0.0069469702 0.085248105 -0.19182374
0.12961265 0.02025315 -0.20273171 0.18847956 0.0025031406 -0.15785253 -0.09221317 -0.2437179
-0.0062312107 -0.17945269 0.14143515 -0.09683308 -0.18981953 0.054173667 0.21169518 0.00760832
0.08106661 0.013373449 0.16929273 -0.09894758 0.08594827 -0.2731588 -0.021308117 -0.2632623
-0.17535627 0.20497428 0.22722007 0.17910387 -0.18155584 0.20519331 0.18523592 -0.15338704
0.23431754 0.11965698 0.01333899 -0.014715535 -0.112262994 -0.15185669 0.07492291 -0.1343974
0.11414823 -0.102113664 -0.035683196 -0.07721221 -0.08558115 0.028294593 0.052281376 -0.020497207
-0.14553891 -0.049159683 0.032348458 -0.2236518 0.0027605947 -0.13766062 -0.025326584 0.18053181
-0.24690904 0.038154405 -0.06888451 0.018161103 0.07559672 -0.19265811 -0.07633343 0.037162423
-0.16230164 0.14904803 0.2677589 -0.023859521 -0.17084396 -0.029454159 -0.036128707 0.22298048
-0.18670352 0.13551933 -0.13572554 0.074792996 0.18089458 -0.18151248 -0.031832334 0.13228069
-0.13303556 -0.03972522 -0.115397915 -0.09105778 0.02556492 -0.16107948 -0.048713896 -0.1350519
0.04803863 0.08027919 -0.21738736 -0.24981563 -0.045077737 0.02593521 0.24527219 -0.096115634
0.11068583 -0.1542677 0.25542474 -0.2648628 0.18592516 -0.18422288 0.191257 0.15154146
0.11843513 0.06695265 0.23401448 -0.09188444 0.0028139795 -0.0011703158 0.21937586 -0.11924452
-0.007213673 0.21250279 -0.13665403 0.06991329 -0.0048373453 -0.20707676 0.15151976 0.13516179
0.26929653 0.23766212 -0.040205114 0.080472514 0.12602659 0.03723804 -0.20966995 0.012631803
-0.16345099 0.21779183 0.20907496 -0.14133099 0.20485613 -0.12718606 -0.23430473 -0.19551966
-0.15689889 -0.006806733 -0.050695233 0.22402756 0.0064516687 -0.04373713 -0.066638865 -0.16722055
0.06591904 0.13770176 0.07177034 0.115278535 0.06465369 -0.12412302 -0.21393293 0.018381272
0.12620501 -0.23643972 -0.065896586 -0.1334045 0.10236596 -0.15590435 0.10033872 0.020911917
0.14615431 -0.20045777 0.06150007 0.15177087 0.14085071 -0.08257918 -0.014999573 -0.2585784
-0.2116032 0.18831232 -0.14497042 -0.055692084 0.14808162 -0.1011467 -0.237694 -0.049094968
-0.10352804 -0.029816963 0.149431 -0.15396048 0.14146866 0.17979318 -0.12264679 -0.21067531
0.13567714 -0.019055482 -0.121485025 0.15062685 -0.05645142 0.10079544 0.07945499 0.2190948
0.10725135 -0.19135717 -0.13432293 -0.011509989 0.1571663 -0.17075165 0.20972927 -0.024688456
-0.03520017 -0.14094312 0.18434834 -0.22286282 -0.0642459 0.05326489 -0.0024077997 -0.17906244
-0.104177736 -0.07735905 -0.04999145 -0.20352958 -0.04419917 0.21583049 0.2785895 -0.103126094

ConvBase.1.feature.lis.1.pointwise.bias f4 [16]
00000000: 12be 723e d3e6 68be c7d5 1a3e b187 2abe
00000010: 803b b0bd 622d 82be 3b7c 4cbe 126e e63d
00000020: 638f 30be 430f 843e 39d0 cabb a014 113e
00000030: 1216 953d d52d b23c b2b8 0f3e a930 8dbe
0.23705319 -0.22744302 0.15120612 -0.16653325 -0.08605099 -0.2542525 -0.19969265 0.11251463
-0.17242198 0.25792894 -0.006189373 0.14168024 0.072796 0.02175037 0.140353 -0.27576187

ConvBase.1.feature.lis.2.X_conv.conv.weight f4 [16, 1, 7, 1]
00000000: 0a4e 8a3e 0376 b4be 4f36 c93e 9436 fb3d
00000010: 3630 b63e 786e c9bd 72fc 95be 4b0c af3d
00000020: a6a0 c93b 3cb5 123e cc2c aa3d a2ba 2bbe
00000030: cb50 373e 8ae4 993e c0d4 16be f15f b4bd
00000040: 93df aabe 1e58 103e 4519 77be ef4f 9c3e
00000050: f3e0 afbc eb9d b6be baff 173e a6f4 52be
00000060: dea9 a43e 9510 b7bd a979 3ebe 6993 e33c
00000070: 757d b73d 4c1a 573e c33f 953e 49df b43e
00000080: fc32 423e baa4 8ebe 8d9b a23e e59f 26bd
00000090: 6123 eebd 3f5c 17bd a5a4 a63e 6cec a6be
000000a0: 0b03 38be 4c17 42be fde5 0abe 004b 87be
000000b0: 210e 6cbe 5ae9 4f3d c73b a43d 93ed c9be
000000c0: 42d3 443e 7489 91be 09c3 5cbe f151 b83e
000000d0: b45f 853e 550e 8e3e 66b2 473e ef73 ae3e
000000e0: b860 a1be d610 9c3e 6fba 4f3e 030e 31bd
000000f0: 37bf 0a3e 4b05 a73c 611f 03be 2dca 7c3e
00000100: dbb1 7b3e a3f0 8e3e 2097 bb3d 2b29 b6be
00000110: 9df4 a3bd cec3 b6be 4a51 b23e 60b1 a83e
00000120: e2ee 5b3e 7177 2dbe 60ef ce3d 4398 09be
00000130: abee 833e 542a ed3d d553 123d af08 e83d
00000140: 4d19 903e 98ee e4bd 076b 66be 0e56 0cbe
00000150: f3ea 413d c33f 0dbe 7f5a c13d c554 fe3c
00000160: 9d02 c13c cdcc 203e f240 afbe d8f0 0ebe
00000170: 1e52 b53c a56d 683e 1c3f c4be 5293 49be
00000180: 4bda 9cbe 5b46 c2be c5a9 c43d 11c6 bf3e
00000190: 0d02 64bd 1d75 49be 55c2 3cbe b27c e7bc
000001a0: 1fce 283d a5b6 a03e 3774 1b3e 0ba4 99be
000001b0: 014b 4cbe 0bdd 163e ed9e 89be 62e0 d8bc
0.27012664 -0.35246286 0.39299247 0.12266269 0.35583657 -0.09835523 -0.29294163 0.085472666
0.006153184 0.14326948 0.083093256 -0.16770414 0.17901914 0.30057174 -0.14729595 -0.08807362
-0.333737 0.14096114 -0.24130733 0.30529734 -0.021469569 -0.35667357 0.14843646 -0.20601138
0.32160848 -0.0893871 -0.18601097 0.027780252 0.08959476 0.21006125 0.2915021 0.35326603
0.18964761 -0.2786005 0.317593 -0.04067983 -0.11627842 -0.036953207 0.3254749 -0.3260225
-0.17969911 -0.189542 -0.13564296 -0.26424408 -0.23052265 0.05075965 0.08019214 -0.39439067
0.19221213 -0.2842518 -0.21558775 0.36000016 0.26049578 0.2774531 0.19501647 0.34072825
-0.31519103 0.30481595 0.20285963 -0.043226253 0.13549505 0.020388266 -0.12804939 0.24686499
0.24579565 0.27917966 0.09159684 -0.35578284 -0.08005641 -0.35696262 0.34827644 0.32947826
0.21477845 -0.16940095 0.10104251 -0.1343699 0.25768027 0.11580339 0.03572448 0.11329781
0.28144303 -0.11178321 -0.22501765 -0.13704702 0.047343206 -0.13793854 0.09441089 0.03104628
0.023560816 0.15703125 -0.34229237 -0.13959062 0.022133883 0.22698076 -0.383294 -0.19685104
-0.30635294 -0.37944302 0.096026935 0.374558 -0.05566602 -0.19673581 -0.18433507 -0.028257702
0.041212197 0.31389347 0.15181051 -0.30007967 -0.19950487 0.14732759 -0.26879063 -0.026474182

ConvBase.1.feature.lis.2.X_conv.conv.bias f4 [16]
00000000: d2fe 4abd 2314 7d3e 4e62 16be ba58 1abe
00000010: 9178 21bd bf1b 4e3e 8add 673e 320f bc3d
00000020: e2c9 313e 94dd 9ebd d245 ad3e 833b b93d
00000030: 87a2 633c 338a eabd 87a4 ba3e 90fd b7bd
-0.04955942 0.24714713 -0.14685938 -0.15072909 -0.03942162 0.20127772 0.22643104 0.09182586
0.17362168 -0.077571064 0.3384233 0.09044554 0.01389373 -0.11452141 0.3645365 -0.0898391

ConvBase.1.feature.lis.2.Y_conv.conv.weight f4 [16, 1, 1, 7]
00000000: a881 183d c63e 7d3e 0b8d 8ebe f77e f4bd
00000010: 9c19 7f3d 55a6 adbe ae16 ad3e 9bdb 7d3d
00000020: 5b40 a7be d003 d13d 5dea 5cbb a53b 9ebe
00000030: 63ca 3a3e 1a55 033e e529 f6bd 9382 443d
00000040: 33f1 6dbe bfc2 833e 9794 9a3d 532a 213e
00000050: 72af 3ebc 121f c1bd b9b9 953e aa59 5d3d
00000060: d99e b03e 16fb 95b9 3362 e73d 38b3 a43e
00000070: 52e3 7f3e f283 4a3e 48ae 583e b03f 04bd
00000080: 6814 073e fdcc 013e e962 603e 4645 143e
00000090: 7bf3 81bd ccc1 c23d bf21 d5be fc8f 043e
000000a0: 4ed9 9e3d 23f5 903e e985 383e 2fec 85be
000000b0: be7f b5be 743b 543e 17d5 bc3c 292c a53e
000000c0: 2521 a3bc cd1e 06be c51f b7bc d483 113e
000000d0: d36e 8bbe 5c1c a4be 7224 0dbc 0377 d63d
000000e0: 96ed b9be 9b04 dd3d 74a6 b4be c6d7 86be
000000f0: 67f5 8a3e 9cb8 fc3b 7f35 95bd 3554 99bd
00000100: fff1 bdbe a925 3bbe f2e5 f63d d83a 083e
00000110: 277f 40be 7cdd 90be 32a4 acbd 0747 243d
00000120: f4c9 9b3e da19 133e 7679 d63d f7ca 893e
00000130: 2294 a1be bc8c 593e 9bc5 82be 4238 243e
00000140: 32a8 1cbe 3b9b 31be 5811 c2be 4906 b23e
00000150: 5d3c 023e 62ff 283e a9ad 18bd 0251 77be
00000160: 1a2f 863d 65de 9a3e 47aa 07be fd2a a5bc
00000170: bf52 aeba ac93 593e 6744 e83d 4428 ce3e
00000180: 22f5 2f3e 0239 44be bb2a 5e3e ff2f 3ebd
00000190: 73e1 12be 4173 babd 4755 8b3e 1cab b53e
000001a0: af13 633e c582 86be 82f0 be3d 54b6 b0be
000001b0: 65a1 82be 7534 b03a f944 50bd 9481 a73e
0.037233025 0.24730977 -0.27841982 -0.11938279 0.062280282 -0.33915964 0.33806366 0.06197701
-0.32666287 0.10205805 -0.0033709027 -0.3090488 0.18241267 0.12825432 -0.120197095 0.047976088
-0.23236541 0.25734517 0.075478725 0.15738802 -0.011638509 -0.09429754 0.29243258 0.05404059
0.3449619 -0.00028606568 0.11298027 0.32167983 0.2498906 0.19776896 0.21160233 -0.0322873
0.13191378 0.12675853 0.21912731 0.1447955 -0.06345268 0.0950962 -0.4162731 0.1294555
0.07756291 0.28312024 0.18019833 -0.26156756 -0.35449022 0.20725805 0.023050828 0.32260254
-0.019913265 -0.13097687 -0.022354016 0.14210445 -0.2723299 -0.32052886 -0.008614646 0.104719184
-0.36314076 0.10791894 -0.35283244 -0.26336497 0.27140352 0.007712437 -0.07285594 -0.07486764
-0.3709869 -0.18276085 0.12055577 0.13303697 -0.18798505 -0.2829398 -0.08429755 0.0401068
0.30427516 0.1436533 0.104723856 0.26912662 -0.3155833 0.21245092 -0.25541386 0.16037086
-0.15298536 -0.17344372 -0.37903857 0.3477042 0.1271834 0.16503671 -0.03727499 -0.24151996
0.06551953 0.302478 -0.1324855 -0.0201621 -0.0013299807 0.21247739 0.11341172 0.40265095
0.17183354 -0.19162372 0.21695988 -0.04643249 -0.14343815 -0.09104014 0.272135 0.3548211
0.22175477 -0.26271644 0.09323217 -0.34514105 -0.2551376 0.0013443368 -0.050847027 0.32716048

ConvBase.1.feature.lis.2.Y_conv.conv.bias f4 [16]
00000000: c57b b63d fd69 293e 9181 b0be 3840 bebe
00000010: fd6a 7dbe 4ca8 b0bc 1608 263e 7d65 76bd
00000020: cc6e c53d 74a5 ae3e 3cd1 e1bd 91f1 a23e
00000030: 84d9 91be 3726 e13d a705 af3e abaf 933e
0.08910326 0.16544338 -0.3447385 -0.3715837 -0.24747844 -0.021564625 0.16214022 -0.06015538
0.096402735 0.34110606 -0.110262364 0.31824926 -0.28486264 0.10993617 0.34184 0.28844962

ConvBase.1.feature.lis.2.pointwise.weight f4 [16, 16, 1, 1]
00000000: e02b c7bd 6cd6 b4bd 19c7 5b3e 63e1 5f3e
00000010: aebc 703e ed35 563b 6907 ea3d ab42 e93d
00000020: 1149 64be 1ca3 173c 591f 0d3e eea2 443e
00000030: 2a06 153e 0bd4 66bd 2e49 59be 9764 44be
00000040: ce9f 323e 6db7 08be 6715 0d3e b30c c43d
00000050: 5592 e7bd b991 62bd 4347 ba3c 5a8c 083c
00000060: 160b 933d 31a9 c93c bceb 23be f7ad 18bb
00000070: ae15 83bd 97c9 40bd 9897 583e 23f9 19be
00000080: 72f3 4ebe a768 2f3e b0e8 553e 613a 7e3e
00000090: c1ae 35be e100 443e 6c48 ef3d a47c 86bc
000000a0: 7492 013e ffa2 e73d 70cf a93d aee5 923d
000000b0: ef42 263e 7bbb 263d 134a 45be a672 08be
000000c0: 2596 80be 01df 2fbe 4b47 063c a517 223d
000000d0: caf6 233d 9d41 24be c380 74be 149a 73bd
000000e0: 6245 6e3e 2933 f2bd 4268 0d3e 7f87 84be
000000f0: aabc fe3d a6dd 793e 10f9 97bd 3ec6 3fbe
00000100: b2b1 94bd bca9 413e cf4f 84be e4f8 503e
00000110: ecf6 c9bd 0898 f3bd 121a 233d e3ba 8cbd
00000120: a8ea 603d 03f0 2c3e 680e 4bbd 8282 5abe
00000130: 7677 23be bf4a d0bd d505 75bc acf6 f23d
00000140: aa98 d43d 5a1b 31bd 4001 ce3d ed37 e7bd
00000150: bf35 5f3e 13fa 7d3e 16ae 3e3e 910e ab3d
00000160: 4ed0 873e 39d8 b0bd bfcc 733e 3c76 6a3b
00000170: e9c7 013e 3192 003d c8a7 243e 1754 6fbe
00000180: 7756 043e 09ef d63d b87d 9c3c c502 dbbd
00000190: c35c febd bdf0 dabd 7702 e1bd ee7c 363e
000001a0: a2b8 843e 8c80 3e3d 5a66 3abe 8b8d 31be
000001b0: b1eb 793e d82c 94bd ab77 963d 4571 d03d
000001c0: 05f1 103e a1ff e73d b848 d7bc af59 693d
000001d0: 9afc 4cbd 7b70 b9bd 0359 9e3d d5ac 0bbe
000001e0: 9f6d f33d f69b d63d 4e6a 3b3b cfd8 693e
000001f0: 73d3 923d 3a69 01bd 5c6a 90bd 07fb d53d
00000200: d344 60be d27d 213e 8889 1e3e baa5 013e
00000210: 150c 38be ac8e 763d a88c 68bd 605b 3f3e
00000220: 5ca2 beba 784f a53d 44ac 7bbd 78df b4bd
00000230: b0fe 4e3e 53ac 853e ffb3 d6bd 00cf eabd
00000240: cb56 bcbd 22f6 523e 5517 80bd 9c62 153e
00000250: 6fae a33d a300 a03d bec7 803e def7 5bbe
00000260: 6e52 ab3d c36e 6f3e 4349 483e f9b3 353d
00000270: c928 173e 92e5 c8bd 225b 12bc c748 043e
00000280: fb7c 60be f8db 953d 38f7 ae3c 07ee 133e
00000290: 1872 2f3d 1c62 eabd 2832 153d 38a2 763d
000002a0: 9ab8 4d3e 22a8 3abd a5f0 493e afa8 733c
000002b0: d068 723e 27db 09be ba52 1dbe 6a1e 553e
000002c0: d0ad 77be d9cf 11be a9cb 823e 15c2 d3bc
000002d0: 1247 49be cafa 5ebe 6eef 6abe 727d 5b3c
000002e0: 8ef6 09be 7b90 ddbc dbd6 ab3c e1dd 653e
000002f0: 16dc 07be 5fc3 c53d 1abd d23c d722 c73d
00000300: b4de d23c 78a1 823b 93f4 143d 2c6e 7dbe
00000310: 2eb3 d43c 81cf 20be bfeb c83d 0933 38be
00000320: 838f 883d c5a7 dfbd 7de1 13be 65fb 323e
00000330: ca0c acbc 4d3f 92bd ce49 2d3d 57fb 0a3d
00000340: 8350 48be ed1d f83c 7beb 1abe a6bc 88be
00000350: 17ea 4fbd cf4e 5fbd a850 933c 1a88 003e
00000360: b029 6e3e 7394 4e3e 6c55 223e d8a5 65be
00000370: f4eb 843e 3f04 30be 1990 d53d 150d 85be
00000380: 7a25 0e3d dbab e4bd dff4 673e dc6a 49be
00000390: 0e34 7ebc 1fab 1d3e f3b3 013c def5 2cbe
000003a0: 11b4 a1ba ab15 4cbe ad78 1cbe 4968 8cbd
000003b0: daf5 4ebe 80f0 0cbe 64e4 143d 0a13 c63d
000003c0: aa41 833e 6f63 5e3d 00e7 fbbd 5fc4 7bbe
000003d0: 097f 9abd 3228 2c3e ee99 edbc 195d 7e3d
000003e0: e95c 87bd 0af7 53be 5268 89be cfb7 f33c
000003f0: 5810 10be c584 c5bd c402 6a3e 3cbb 273d
-0.09725165 -0.0882996 0.21462668 0.21863322 0.23509476 0.003268595 0.114271946 0.11389669
-0.22293498 0.009255197 0.1378149 0.19202778 0.14553133 -0.056354564 -0.21219322 -0.19178997
0.17443773 -0.13351221 0.13777696 0.09572735 -0.113072075 -0.055314753 0.022739058 0.008334244
0.07179849 0.02461681 -0.16007894 -0.002329705 -0.064006194 -0.04706725 0.21151578 -0.15036444
-0.20210055 0.17129765 0.20889544 0.24826957 -0.17742445 0.1914096 0.11683735 -0.016416855
0.12653524 0.11310386 0.08291519 0.07172714 0.1623647 0.04070614 -0.19266538 -0.13324985
-0.2511455 -0.17174913 0.0081957085 0.03957333 0.04003028 -0.16040654 -0.23877244 -0.059473112
0.23268655 -0.11826164 0.13809302 -0.25884625 0.124383286 0.24400958 -0.07420552 -0.18727967
-0.07260455 0.18912405 -0.2584214 0.20407444 -0.0986155 -0.11894232 0.039819784 -0.06871583
0.054911286 0.16888432 -0.049574286 -0.21338847 -0.1596354 -0.10170507 -0.014955004 0.11863455
0.10380681 -0.043238975 0.10058832 -0.11289964 0.21797846 0.24802427 0.18621096 0.08352388
0.2652611 -0.08634991 0.23808573 0.003577604 0.12673916 0.03138942 0.16079628 -0.23371921
0.12923609 0.10494811 0.019102916 -0.106938876 -0.12420037 -0.106904484 -0.10986798 0.17821094
0.25922114 0.04650931 -0.18203107 -0.1733915 0.24406315 -0.07235116 0.073470436 0.101778544
0.14154442 0.11328054 -0.026279792 0.056970295 -0.050045587 -0.09054657 0.077318214 -0.13640149
0.11886143 0.10478966 0.0028597298 0.22836612 0.07169237 -0.031594492 -0.070515364 0.1044827
-0.21901254 0.15770653 0.15482152 0.12660876 -0.17973359 0.060194656 -0.056774765 0.186872
-0.0014544236 0.08071798 -0.061443582 -0.08831686 0.20214343 0.26108035 -0.1048355 -0.11465263
-0.09196242 0.20601705 -0.0625445 0.14588398 0.07992255 0.078126214 0.2515239 -0.21481273
0.083653316 0.23382096 0.19559197 0.04436109 0.14761652 -0.09809412 -0.008932861 0.12918387
-0.21922676 0.07317346 0.021358117 0.14446269 0.042833418 -0.11444494 0.036424786 0.060213298
0.20089951 -0.0455705 0.19720705 0.01487176 0.23672795 -0.13462506 -0.15363589 0.20812383
-0.24187398 -0.14239444 0.25546005 -0.025849381 -0.19656017 -0.21775356 -0.22942898 0.013396608
-0.1347296 -0.027046433 0.020976475 0.22447921 -0.1326755 0.09656405 0.025724936 0.09723442
0.025740959 0.0039865337 0.036366057 -0.24749058 0.025964346 -0.15704156 0.0981059 -0.17988218
0.06667998 -0.109206714 -0.14441486 0.17478712 -0.021002192 -0.0714098 0.042306714 0.033931103
-0.19561963 0.030287707 -0.15128891 -0.26706427 -0.050760355 -0.054518517 0.017982796 0.12551919
0.2325809 0.20173816 0.15852898 -0.22426546 0.25961268 -0.1718912 0.10427875 -0.25986543
0.03470371 -0.11165591 0.22652005 -0.1966967 -0.0155153405 0.15397309 0.007916438 -0.16890666
-0.0012336989 -0.1993014 -0.15280409 -0.06855828 -0.20210972 -0.13763618 0.036350623 0.096716
0.25636035 0.054294046 -0.12299919 -0.24586628 -0.07543761 0.16812208 -0.029004063 0.062100504
-0.06609518 -0.20699707 -0.26837403 0.029750733 -0.14068735 -0.096444644 0.22852618 0.040950045

ConvBase.1.feature.lis.2.pointwise.bias f4 [16]
00000000: 3a1a 443d 5b50 86be f551 7dbd 52d2 183d
00000010: 0b3d 5d3c 7b9c e7bd 3e18 2fbe e27a 323e
00000020: df4a 3f3e 997b 843c ee03 d1bb 7e22 f1bc
00000030: 968d f4bd 8d95 ea3d d4fd 48be 0167 3bbd
0.047876574 -0.2623318 -0.06184574 0.037309952 0.013503323 -0.11309143 -0.17099091 0.17429689
0.18680905 0.016172217 -0.0063786423 -0.029435392 -0.11941068 0.11454306 -0.19628078 -0.04575253

ConvBase.1.feature.lis.3.X_conv.conv.weight f4 [16, 1, 9, 1]
00000000: 3705 93bd 9da5 453d b67d a43e 0a89 8ebd
00000010: 00a5 55be a4d3 743e 5ee3 a2bd b16a 46be
00000020: edfc 6c3e 7238 1a3e 7575 863e 76e5 6abe
00000030: 8a26 913d 781f 17be 8b02 d53d da37 9bbe
00000040: c839 febd bbca 23bd ea39 873e aa23 873e
00000050: 9d11 983e 661b 903b 719e 8e3d 0681 7b3e
00000060: f3d6 9f3e 9d86 2b3e 0c98 68be 5e7e 51be
00000070: df09 83bd 1b48 a5be f478 023e bb59 973e
00000080: 0d05 623d f2e6 12be 4b13 a93e e764 303d
00000090: 6c7e f03d 1a4d 1abe ae30 ad3e dd58 04be
000000a0: aa00 a13e 91b6 883e 9984 cbbd 4ce4 fb3d
000000b0: 6db5 28be b54b 823e 581f 893e 38a3 983e
000000c0: 91b7 02be 15ff 153e 4858 133d 129b 22be
000000d0: 6e57 a0be 653d 763e 98d7 08be c4d0 513e
000000e0: 6f3a 453e 05de 09be e568 44be cb48 503e
000000f0: 13fd 8a3e 1343 9f3e 1ffd 10be 171f 46be
00000100: f645 a63e 7bfe 433e 355a 403e 002e 833e
00000110: 7875 233e 7c94 ee3d 1c44 b5be cde2 563e
00000120: 7063 07be 56af bb3d 4b46 27bd 3a5d 18be
00000130: 7fbc 7e3e 389d 8bbe 98d3 f1bc d9df 05be
00000140: 7a49 3bbe c6a0 8bbe 0f60 89be 3a2a 7cbe
00000150: 49c8 1fbd 72f4 5b3e f30b c43c a323 5dbe
00000160: 20b9 9ebe 1e1f 323e cfe3 9e3d a75b 0abe
00000170: b56e 8a3e be89 813e c9f2 9cbe 2152 a9bd
00000180: 6861 22be 1a7c 953d b90c a43e 9b0b 3d3e
00000190: 8f03 2e3e 8f2c 3bbe 9560 45bd 9871 8b3e
000001a0: 5eed bcbe cccd 7fbe e2cb 36be 1cdf a03c
000001b0: 0a00 28be 26ba d9bd fa61 473d 107d 89bd
000001c0: 496f 2ebe e7c3 7bbe ca9a 2b3d dd57 6bbe
000001d0: cd80 343e b201 9e3e 9036 68be 7091 2fbe
000001e0: 5747 9d3c 4d5f b2bd f6d1 f4bd 6cd8 8a3d
000001f0: 8aed 4c3e 8f23 043e 2005 913c dd2d 72be
00000200: 7cf3 8cbe 0a18 3bbd 9b9b 933d c8b5 ff3c
00000210: 3ec6 943e 955b abbe 1a56 83be c3c4 823e
00000220: 4347 73be 5582 be3c a539 c93d 1371 51be
00000230: 5799 10bc 5555 8a3e 4bae 32be ce32 883e
-0.07178729 0.048253644 0.3212716 -0.06959732 -0.20863724 0.2390886 -0.07953523 -0.19376637
0.23143359 0.15060595 0.26261488 -0.22939095 0.07087429 -0.14758098 0.10400876 -0.3031605
-0.12413365 -0.03998826 0.26411372 0.26394397 0.29700938 0.0043977974 0.06963814 0.24560937
0.3121868 0.1675057 -0.22714251 -0.20458362 -0.06398367 -0.32281575 0.12741452 0.29560646
0.055180598 -0.14345911 0.33022532 0.043064978 0.11742863 -0.15068474 0.33826202 -0.12924524
0.3144582 0.26701787 -0.099374 0.122994035 -0.16475458 0.25448385 0.26781726 0.29812026
-0.12765338 0.14648087 0.035972863 -0.15879467 -0.31316704 0.24046858 -0.13363492 0.20489794
0.19260572 -0.134636 -0.19180639 0.20340268 0.27146205 0.3110586 -0.14159058 -0.19347797
0.3247525 0.19140045 0.18784411 0.25621033 0.1596278 0.11649415 -0.35403526 0.20984955
-0.13221526 0.09164302 -0.04083852 -0.14879313 0.24876593 -0.27268386 -0.029519841 -0.13073672
-0.18289748 -0.27271098 -0.268311 -0.24625483 -0.039009366 0.21479967 0.02393148 -0.21595626
-0.31000614 0.17394683 0.07758295 -0.13511525 0.27037588 0.253004 -0.3065398 -0.08267618
-0.1585747 0.07299061 0.32040957 0.18461458 0.16993545 -0.18278717 -0.04818781 0.27235103
-0.36899847 -0.24980849 -0.17851213 0.019637637 -0.16406265 -0.10631208 0.048677422 -0.06713307
-0.1703464 -0.2458645 0.041895665 -0.22982736 0.17627259 0.30860668 -0.22677064 -0.17145324
0.019199057 -0.087095834 -0.11954109 0.067795604 0.20012489 0.1290419 0.01770264 -0.23650308
-0.27529514 -0.045677222 0.07207414 0.03121461 0.29057497 -0.3346831 -0.25651628 0.25540742
-0.23757653 0.023255507 0.09825448 -0.2045329 -0.008825622 0.27018228 -0.174493 0.2660126

ConvBase.1.feature.lis.3.X_conv.conv.bias f4 [16]
00000000: 95eb a2bd 1bad 7dbe 76a7 523e 2aa2 9a3d
00000010: fca0 d53d 6dce b03d 134a 92be 2c4a 663e
00000020: ca93 6d3e f817 153e 99d5 883e 1701 233e
00000030: fb1a 963e fae0 b83d c15b 5ebd a141 8abc
-0.0795509 -0.24773066 0.20571694 0.075504616 0.10431096 0.086331226 -0.2857214 0.22489232
0.23200908 0.14559925 0.26725462 0.15918384 0.2931746 0.09027286 -0.054286722 -0.016876997

ConvBase.1.feature.lis.3.Y_conv.conv.weight f4 [16, 1, 1, 9]
00000000: 6efc acbe cab2 87bd 7a00 a5bc dfc9 a9be
00000010: d939 22bd 6028 983e dc94 3d3e 006a 17be
00000020: a0c2 10be a0aa dc3d 3d13 c0bd 318e 03be
00000030: 52d0 b83c 9345 3bbe f922 2dbe d275 803e
00000040: c356 ad3c 702b 51be d2e1 76bd f583 413e
00000050: 5a74 a33e a64d 83be 3bbf 013e 6be3 163e
00000060: 2b07 2dbe 101b d33d 36b0 583e 70c9 853e
00000070: 6faf 373d 63f0 10be 69e5 0ebe b679 443e
00000080: bd0a 82be 2be2 7e3e b5ee abbe 2be7 743d
00000090: ff19 3d3e eb55 43be 4218 06be 29eb 153d
000000a0: 8177 03be 42be c6bc 2d59 30bd 4a4a b3bc
000000b0: 4f41 aabd b8b0 803e 031e ddbd 3f46 d53b
000000c0: ac0f 313e 8cd5 103d 5265 1fbd fcba 8b3e
000000d0: e724 753e 299e 9ebe 5353 86be cd3d 123e
000000e0: 992a a33d ac02 a7bd 0155 8b3e a11e 023e
000000f0: 2522 99be 43f9 2e3e d80f 51be ae1e 3abe
00000100: 0c3a 3b3e f801 7ebe 46f8 363e b4ea 983e
00000110: 368c 92be 2026 22be 7a87 a73e 0f35 66be
00000120: f11d 873e bef1 1ebe 0266 3e3e 0933 84bd
00000130: e415 65be 306c 963c bc70 f23d 556f 873c
00000140: 84a9 a6be 86cc 073e 1533 293e 77ef 84bd
00000150: f07c 0fbe d038 303e 709f 34be 215f 1d3e
00000160: 49ae 1cbe 3f16 8d3d 3eaf 3a3b d436 163e
00000170: 7b52 97bc 6158 8e3e 787e 3f3e 8d9a fd3d
00000180: a6ae 0ebe edcd 993d f7f6 ac3e a349 223e
00000190: 5a25 b4bd 9de6 04be 839a 88bc fb40 5c3e
000001a0: 289a 3e3e 7b0d 9cbe 3d3d 9d3e 317f de3c
000001b0: 5e6b 49bd 9632 983e df1d 413e 43cf b0bd
000001c0: 0998 1c3e 59b9 843e 6223 17be c508 8ebd
000001d0: b0d0 173d f2c3 853e 1edf c23d 6afd 483e
000001e0: d149 78bd 0d0f 083e b00a c43c 3649 52bd
000001f0: a51d fc3d fb4a 003e f3f4 09be 6943 00be
00000200: 4b9b 49ba aabb 70be e951 643e 47b7 5f3e
00000210: 89e5 7f3e b9b7 40bd 7d51 9a3d dda5 4e3e
00000220: fcac f7bd 2e01 1dbe b7fc 2e3e 48e9 993e
00000230: 61b2 45be 5ce3 61be 55c3 50bd d0b7 5fbe
-0.3378634 -0.06625898 -0.020141829 -0.33161828 -0.03960595 0.29718304 0.18513817 -0.1478653
-0.14136744 0.10774732 -0.093786694 -0.1284721 0.022560272 -0.18288259 -0.16907872 0.2508989
0.021159535 -0.20426726 -0.060273953 0.18897994 0.31924707 -0.2564518 0.12670605 0.1473519
-0.16897266 0.10307896 0.21160969 0.26130247 0.04484504 -0.141542 -0.139547 0.19187054
-0.25398818 0.24890964 -0.33580557 0.05979077 0.18466948 -0.19075744 -0.13095191 0.03660122
-0.12838556 -0.024260644 -0.043053795 -0.02188601 -0.08313238 0.25134826 -0.1079674 0.006508618
0.17291135 0.035359904 -0.038914986 0.27291095 0.23939858 -0.30980042 -0.26235446 0.14281388
0.07967109 -0.081548065 0.2721329 0.12706997 -0.29908863 0.17087273 -0.204162 -0.18175766
0.18283862 -0.24805439 0.17868146 0.29866564 -0.28622597 -0.15834856 0.32720548 -0.22481178
0.2639003 -0.15521905 0.185936 -0.06455047 -0.22371632 0.018362135 0.118379086 0.01653258
-0.32551205 0.13261613 0.16523392 -0.06490987 -0.14012504 0.17209172 -0.17638946 0.1536832
-0.1530086 0.06889009 0.00284858 0.14669353 -0.018471947 0.27801803 0.18700588 0.12382994
-0.1393381 0.0750998 0.3378217 0.15848403 -0.08796187 -0.12978597 -0.01667524 0.21509163
0.18613493 -0.30479035 0.30710784 0.027160259 -0.04917466 0.29726094 0.18859051 -0.08633282
0.15292372 0.2592266 -0.14759591 -0.069352664 0.037064254 0.26126057 0.095152125 0.1962792
-0.06061727 0.13286991 0.023930877 -0.05133935 0.12310342 0.12528603 -0.13472347 -0.12525715
-0.0007690682 -0.23509088 0.22296871 0.21847259 0.24989904 -0.04705021 0.07535074 0.2018046
-0.12093541 -0.15332481 0.1708859 0.30060792 -0.19306327 -0.22059387 -0.050967533 -0.21847463

ConvBase.1.feature.lis.3.Y_conv.conv.bias f4 [16]
00000000: a5a0 b53d b947 25be 5f18 1b3e 7385 d1bd
00000010: 42c0 8dbe 6f32 01be 35e4 813d c729 66be
00000020: 3a5c ff3d 5bfd dabd 30ba 773d ac8c 1c3e
00000030: b484 e83d d3d1 dcbd 96f1 163e 7246 653b
0.08868531 -0.16140641 0.15146016 -0.102305315 -0.27685744 -0.12616895 0.06342355 -0.22476874
0.12468763 -0.10692855 0.060480297 0.15288037 0.11353436 -0.10782208 0.14740595 0.0034984616

ConvBase.1.feature.lis.3.pointwise.weight f4 [16, 16, 1, 1]
00000000: 78a1 cc3d f979 7ebb 3b11 403d add4 87bd
00000010: 5fc7 463d 4e2f 88bb 8ee7 8cbd b433 a73d
00000020: 21b7 cc3d 08df 063d cd4e c03d 6387 d83c
00000030: 1bfa 48be c023 04be 08b4 10bd 577a d13d
00000040: a2f2 823e 4710 97bd 85cb 9fbd 47fb 043e
00000050: b6a7 bb3d c890 823d 329d 713e 53c9 1a3e
00000060: a664 28be d0ae d0bd f64f 823d c0a2 8b3e
00000070: 74f3 203c df60 4d3e b9da 9d3d e945 a1bd
00000080: 8c6b ce3d 03aa a3bd 7d02 7cbe 124a ec3d
00000090: 1ca0 43be 4061 cb3d 45cd 2fbe ca03 443e
000000a0: 93c0 aabd 080f 09bc a538 2fbd 4aa7 80be
000000b0: 5bde 063d a903 b43c c140 2cbe 3438 34be
000000c0: 493e c53d 8796 dbbd faca 3bbe a104 cebd
000000d0: de08 0bbe 082d 193d 5200 1ebe fec6 48be
000000e0: 8220 be3d 5080 5bbc 96d1 213e 23d7 3c3e
000000f0: 19d2 d23b c94d 1cbe c102 663d 4357 043e
00000100: 535a 31be 7d57 3b3e 4da7 793d 34f6 703c
00000110: 3f55 23bd c96b e2bd b08b 3b3e 3829 5f3e
00000120: a453 8fbc 100b 4fbd 377a 103e 57a8 b83d
00000130: 972b d63d 1198 b6bd 0661 39be eca4 68be
00000140: 0659 6ebe 9f91 753c ba14 29be 509e bfbd
00000150: bb41 4d3e 6f5a 0dbd a897 64be b01e 88bc
00000160: 80e5 9dbd f09d 5b3c e441 c0bd d4c8 c8bd
00000170: 8d12 38be 079e 6dbe 1929 e6bd 26ca 14bd
00000180: f0f4 c8bc 5c3f e0bd 43a5 293e d96d 96bd
00000190: 2442 1e3e 2732 3d3e 5422 373e a1bc 42be
000001a0: 5805 6cbe 58ba d5bc cb65 113e b215 4bbd
000001b0: 5b14 7d3e 54af 36be efa8 4e3e b7c5 28bc
000001c0: cd0b 2d3e 9c38 5cbe 6f88 d13b 70a5 dbbd
000001d0: f05c e9bc 76f8 fabd 9a9a e53d a750 27be
000001e0: 04bb 28be 54d9 de3b 77f3 2fbe 39a8 e53d
000001f0: 417e 96bd 16ba d0bd 772e 243e 0bf7 243e
00000200: ffc9 26be bdda d4bc ff68 823e 6fbf e23c
00000210: eced 11be 254f d2bd 839a 20bd 3c2a 223e
00000220: 23e4 76be 6e38 853d 095a a3bc 910a 7fbe
00000230: 4dfa 943c fa6e 3e3e dab6 bd3d 5925 cbbd
00000240: ed7b 323d 292b ecbd 5147 3dbc a9dc aabc
00000250: d6bf 853e 5876 25be dc3b 0bbe 207d f43c
00000260: 1e18 9f3b 6aed f1bc 9f0b 4e3e 5b3e 4c3e
00000270: 323c 243c e1f5 82be b5aa 663e e0dc f63d
00000280: 05a7 023e a1ec 7bbd b7b2 133e 5a83 cb3d
00000290: faa4 1b3d 1a33 473d c930 343e d44d 33be
000002a0: 0e8a ccbd c503 3a3d 7049 4d3e 3d9c 6e3d
000002b0: 8636 a2bd 9ad6 d33c f07e dbbc 556d 233e
000002c0: d68f 1d3e 8d5e 853d d956 4e3d 3ee7 19bd
000002d0: c4b9 79bd 995d 243e 33d5 22be 148a 77be
000002e0: 5776 313e b2ad 0bbe 2eb3 7c3e 59b4 aabd
000002f0: e9b6 81bc e8a8 5e3e d117 2d3e f9a5 443e
00000300: c34e 78be 000a 503d 889a 5cbe f8ee 853d
00000310: 63ec b83d b799 553e f2a5 49be 8a5c 283e
00000320: 2982 463e 566f aa3b fbc3 15bd d5ee 493e
00000330: 7884 06bd b30b 6dbe 4e67 3f3e ecc7 da3c
00000340: 25fd 903d c564 f43d 563e 0b3e 4f25 d73d
00000350: 9d2a 2e3e 1708 15be b7ec bcbd 6789 c1bd
00000360: db79 ea3d c1ea 33be 8198 b83d dcb0 35be
00000370: faca 92bd d6ae 8fbb b9d8 10bd 762b e5bd
00000380: e353 c83d d612 b33c 1a45 653e 9979 463e
00000390: a119 303e b130 5bbe 7d7a b33d dd30 473e
000003a0: b394 97ba 378c 46be ce9d 7b3e bfff 843c
000003b0: bf27 02be 0f7f 273d 0d23 793e 1e91 0b3e
000003c0: e34b 70bc 16b9 053e d38e 0d3e 2ed1 4a3d
000003d0: c82b 63be 6164 54be eda2 23be 532b 49be
000003e0: 0779 463c cbbc 22bd 1882 103e 6f61 aa3a
000003f0: 0f84 01be 575c 54be 464d d93c be7c 4b3e
0.09991735 -0.0038830026 0.046891432 -0.066323616 0.04852998 -0.00415603 -0.06880103 0.081641585
0.099958666 0.032927543 0.0939003 0.026431745 -0.19626658 -0.12904263 -0.03532794 0.102284126
0.2557574 -0.073761515 -0.0780249 0.1298648 0.09162848 0.06375271 0.23595122 0.15115862
-0.16444644 -0.10189593 0.063629076 0.27272606 0.009823669 0.20056485 0.07707734 -0.078746624
0.10079107 -0.079914115 -0.24610324 0.11537565 -0.19104046 0.09930658 -0.17168148 0.1914207
-0.08337512 -0.0083654 -0.04277863 -0.2512763 0.0329269 0.021974402 -0.16821577 -0.17599565
0.096310206 -0.1072207 -0.18339148 -0.10059477 -0.13577601 0.03739646 -0.1542981 -0.1960716
0.09283544 -0.013397291 0.15802607 0.18441443 0.006433737 -0.15264048 0.05615497 0.12923913
-0.17319612 0.18295093 0.060950566 0.014707137 -0.03987622 -0.11055715 0.18315005 0.21793067
-0.017495938 -0.05054766 0.14109121 0.09016483 0.10457533 -0.08915723 -0.18103418 -0.22719163
-0.23276147 0.014988332 -0.16511813 -0.093563676 0.20044605 -0.034510072 -0.22323477 -0.016616195
-0.07709789 0.013404354 -0.09387568 -0.0980393 -0.17975827 -0.23204814 -0.112383075 -0.036325596
-0.024530858 -0.10949585 0.16566949 -0.073451705 0.15454918 0.18476163 0.17884189 -0.19017269
-0.23048913 -0.026089832 0.14198987 -0.049581237 0.24714796 -0.1784032 0.2018163 -0.010301045
0.16899033 -0.2150597 0.006394438 -0.10724914 -0.028486699 -0.122544214 0.112111285 -0.1633936
-0.16477591 0.00680081 -0.17182718 0.112137266 -0.073483 -0.10191743 0.1603335 0.16109864
-0.16287993 -0.025983209 0.2547073 0.027679173 -0.14250916 -0.10269002 -0.039209854 0.15836424
-0.24110465 0.06504904 -0.019940393 -0.24906375 0.018185759 0.18597022 0.09263392 -0.09919233
0.043575216 -0.1153167 -0.011552648 -0.020857172 0.26122922 -0.16158426 -0.13597053 0.02984482
0.00485517 -0.029532153 0.2012162 0.19945662 0.010024117 -0.25578216 0.22526057 0.12053847
0.12759025 -0.061504964 0.14423643 0.09937163 0.03799913 0.04863272 0.17596735 -0.17510158
-0.09987269 0.04541375 0.20047545 0.05825447 -0.07920556 0.025859166 -0.026793927 0.15959676
0.153869 0.06512175 0.050375793 -0.037574045 -0.060968176 0.1605133 -0.15901642 -0.24173766
0.173303 -0.13640478 0.24677727 -0.0833518 -0.015834289 0.2174412 0.16903616 0.19203939
-0.24248795 0.050790787 -0.21543324 0.0653972 0.09029462 0.20859419 -0.1969221 0.16441551
0.1938559 0.0052012606 -0.036563855 0.19720013 -0.032841176 -0.23148994 0.18691751 0.026706658
0.070795335 0.11933283 0.13597998 0.10505163 0.17008443 -0.14553867 -0.09224837 -0.094500355
0.11449023 -0.1757002 0.09013463 -0.17743248 -0.07167621 -0.0043848557 -0.035362933 -0.1118993
0.09781625 0.021859568 0.22389641 0.19382323 0.17197277 -0.21405293 0.08763597 0.19452234
-0.0011564702 -0.19389425 0.24571916 0.01623523 -0.12710474 0.040892657 0.24329777 0.13629577
-0.01466653 0.13058886 0.13824014 0.049515896 -0.2218467 -0.20741417 -0.1598012 -0.19645433
0.012113816 -0.03973083 0.14112127 0.0012999008 -0.12648033 -0.2073835 0.026526105 0.19871804

ConvBase.1.feature.lis.3.pointwise.bias f4 [16]
00000000: e600 833e 568d e63d 6506 f7bd 409e 40be
00000010: 05fe dbbb 7996 383e c145 253e 4acc 5d3e
00000020: 3595 21be 4189 cfbd a3d3 10bc 969b 283d
00000030: 6d71 e3bd 5f18 22bd d17f a93d 4916 523e
0.25586623 0.112574264 -0.120617665 -0.18810368 -0.006713631 0.18026151 0.1613989 0.21659961
-0.15779574 -0.10133601 -0.008839521 0.041164003 -0.111056186 -0.039574023 0.08276332 0.20516314

ConvBase.1.feature.bn.weight f4 [16]
00000000: a9fd 7a3f 7bec 5f3f bb51 f63e 8b76 073e
00000010: fb8b 2b3f 1b36 1a3f d801 643f b353 033f
00000020: 6acc 723f 6ab0 253f 207d 7b3e 2f50 073f
00000030: 07fb 4e3f 3319 0f3e 7f45 5b3e 682a 953e
0.98043305 0.87470216 0.4810923 0.13228814 0.6701047 0.6023881 0.89065313 0.5129959
0.9484316 0.6472231 0.2455945 0.52856725 0.8085179 0.13974456 0.2141323 0.29133916

ConvBase.1.feature.bn.bias f4 [16]
00000000: 7b10 cbbb 5165 5d3c 1c6c 28bc 51a6 213d
00000010: b840 0fba 3789 83bc d347 2c3c 4fe8 013d
00000020: 9163 cebc 5ad0 c13c 385e c33c b3d1 863c
00000030: b204 163d 6b24 d73c 23f1 3d3d 3b93 d63a
-0.006197033 0.013512925 -0.0102796815 0.039465252 -0.0005464661 -0.01605664 0.010515171 0.031715687
-0.025193961 0.02365892 0.023848638 0.016457414 0.03662557 0.026262483 0.046372544 0.0016370782

ConvBase.1.feature.bn.running_mean f4 [16]
00000000: 4590 763e fa9a 0bbe 1488 a43c 9b6d c2be
00000010: dec2 be38 9f92 a1be 98ab 05be bdae c03e
00000020: 9769 aabe 7854 cb3d b01a bebd 3def dabc
00000030: 2c8d 6ebd 5e2b 373d f3fd 4b3b 3a35 113d
0.24078472 -0.13633338 0.020084418 -0.37974247 9.096203e-05 -0.31557176 -0.13053739 0.37633315
-0.33283684 0.099282205 -0.09282434 -0.026725406 -0.0582401 0.044719093 0.0031126707 0.03545115

ConvBase.1.feature.bn.running_var f4 [16]
00000000: e6f4 143b ac2e fb3a 5efd 4c3b d1f0 373b
00000010: 8027 073b 10ce 8d3b 2619 713b 7edc 7e3a
00000020: 063d 603b 2cf9 0f3b 987f eb3a 3d6b 3f3b
00000030: 95e6 1f3b e291 de3a ad9f 2c3b d101 243b
0.0022728979 0.001916369 0.0031278948 0.0028067122 0.002062291 0.004327543 0.0036788671 0.0009722187
0.003421606 0.0021968586 0.0017967103 0.0029208206 0.0024398912 0.0016980732 0.0026340291 0.0025025497

ConvBase.1.bn.weight f4 [64]
00000000: 577f df3e 4fb1 cc3d 4127 f43d 9308 9d3d
00000010: b5b8 bd3e 345f 423f 1b28 663f 8584 adbb
00000020: 4b01 313f cab9 643f bd68 833e 8c1b 0e3f
00000030: b48d 3e3d 4395 023e 5524 483f 46de 423f
00000040: 35cd 473f 8e0d 4f3f c869 4b3f 6325 d03e
00000050: 69ff b43e 4b62 553f 8e48 193f 620f 893e
00000060: 64c9 5a3f ff61 1f3f e544 fb3e 55f7 133f
00000070: 70ac 4f3f 4751 c23e a518 993e 7d13 6f3f
00000080: 747d 313f 5ceb c83e db42 053e 7671 703f
00000090: 8de3 923e bc1b 513f 3892 973e afa3 eb3e
000000a0: 42a4 b63e 01fb 3a3f 370d a03e cbad 043e
000000b0: 4e87 953d bcbd e63e d69b 3d3e ea40 4d3f
000000c0: bd37 403f d29c fc3e 12bb 8c3e 4d22 2e3f
000000d0: 4025 a43e c940 7c3f fab1 89bb 403f 6e3f
000000e0: 72da 703f 5592 623e 8ed1 983e 32f7 2a3f
000000f0: 9d9f ec3e aaf7 133e e6fd 5b3f f7e2 353f
0.4365184 0.099947564 0.119215496 0.07667651 0.37054983 0.7592652 0.89904946 -0.0052953386
0.691426 0.8934599 0.25665846 0.55510783 0.046521857 0.12752251 0.7818044 0.7612041
0.78047496 0.8088006 0.79458284 0.40653524 0.35351112 0.8335311 0.59876335 0.2676955
0.8546355 0.62258905 0.49076 0.57799274 0.81122494 0.37952635 0.29901615 0.9338911
0.6933205 0.39242065 0.13013785 0.9392313 0.28689232 0.81682944 0.29603744 0.46023318
0.35672194 0.7303925 0.31260082 0.12956922 0.07301198 0.4506663 0.18516478 0.80177176
0.7508505 0.49338394 0.27486473 0.6802109 0.3205967 0.98536354 -0.0042021247 0.9306526
0.9408332 0.22126134 0.29847378 0.6678344 0.46215525 0.14449945 0.85934293 0.71049446

ConvBase.1.bn.bias f4 [64]
00000000: e354 bb3c fd18 5d3c 406e 4b3c 4ca2 3e3c
00000010: d274 f8bc 4314 dcbc ea03 273d 67c5 56bc
00000020: 3926 9f3c e734 9a3b 7590 b2ba 827a 8fbc
00000030: 8e08 c3bb 78ad cd3b 14f5 2bbd 33bd 273d
00000040: 4c26 7cbb 13b2 c0bc 23a2 66bc efea 22bd
00000050: 1056 b23c fb0e 3abc 8b78 ab3c fadb caba
00000060: 4b13 ddbc 8a45 513c 063f e4bc fb33 b73c
00000070: 9ebe c53a 4b8c 25bb 2730 2b3c cb81 d6bb
00000080: b8c8 17bc 5dbb cfbc 2749 f1bc 925f 403d
00000090: 3c7d 8cbb 0a11 503c 59c8 9039 9b35 93bb
000000a0: b4c9 9a3c 740c 3bbd 588c c33c c402 0cbc
000000b0: 6433 033d 96c9 c43c 854e b6bb de7e f73c
000000c0: 1f9e 10bc 638b 043d 9893 313c 4a7b d33c
000000d0: 790d a23c 4d2a 13bd 7e3b 92bc 6080 1a3c
000000e0: baa4 e8bc 882f a43c 350b 473c 2a1c cc3c
000000f0: 5943 063b bd28 123c 32f4 cdbb 49d1 d53b
0.022867626 0.013494727 0.012416422 0.011635374 -0.030329142 -0.02686513 0.040775217 -0.013108588
0.019427406 0.0047060135 -0.0013623374 -0.017514471 -0.0059519475 0.0062767826 -0.04198177 0.04095192
-0.0038474975 -0.023522412 -0.014076742 -0.03977483 0.021769553 -0.011356111 0.020931503 -0.0015476935
-0.026986739 0.012772927 -0.027862083 0.022363653 0.0015086716 -0.0025260623 0.010448492 -0.0065462342
-0.009264164 -0.025357896 -0.029453827 0.046966143 -0.00428739 0.012699375 0.0002761509 -0.0044924743
0.018895008 -0.045666173 0.023870632 -0.008545581 0.03203143 0.024021905 -0.0055635595 0.030211862
-0.0088267615 0.032359492 0.010838412 0.025815625 0.019781815 -0.035929013 -0.017850634 0.009430021
-0.02839886 0.020042196 0.012148668 0.024915773 0.002048692 0.008920846 -0.006285214 0.006525193

ConvBase.1.bn.running_mean f4 [64]
00000000: 9eb4 443e 03a8 103e dc3c ec3d dcac 753d
00000010: 9fd6 1a3e 22eb f33c 0587 a33c a077 0b3e
00000020: 802b 6c3e 29c7 2c3e 800e 993d c707 083d
00000030: 25a2 5d3e 7b21 d73c f81f 923d 8565 893d
00000040: 2186 783e 45c8 5e3e 5f3d bf3d bccf 8f3d
00000050: cde5 4a3e 0501 3e3e fa4b 323e bd24 0b3e
00000060: d1f7 093e b3e5 443e 2ebf 863d ee1f 163e
00000070: 2465 153e fc76 5b3d 7d00 9e3d b506 9a3d
00000080: fd86 b13e 7dd6 903e 4eca 103e 3d31 573d
00000090: 47f8 663e 5a2f 543e fbc2 7e3e b708 4a3e
000000a0: af74 7a3e b4db fd3d 8a12 913d 8329 283e
000000b0: 0243 773e 85d5 4d3d a40e 8f3d e4fd a33d
000000c0: bf9b 833e db5e 9f3e a30f 093e 3d80 883d
000000d0: 5e41 483e c532 233e e12f 733e fea4 493e
000000e0: a03f 8a3e beb7 653e 75bf b43d 916e 2a3e
000000f0: a8fe 993e 133b 773d 8420 ad3d cddf de3d
0.19209525 0.14126591 0.115350455 0.059979305 0.15120934 0.029775206 0.019961843 0.13619852
0.23063469 0.16872849 0.07473469 0.033210542 0.21643884 0.026261082 0.07135004 0.067088164
0.24269916 0.21756084 0.093378775 0.07022044 0.19814225 0.18555076 0.17411795 0.13588233
0.1347344 0.19228248 0.065794334 0.14660618 0.14589363 0.05358027 0.07714937 0.075208105
0.346733 0.28288642 0.14139673 0.05253719 0.22555648 0.20721188 0.24879067 0.19729887
0.24458574 0.12395421 0.07083614 0.16422085 0.24146655 0.050252456 0.06985214 0.0800741
0.25704762 0.31127056 0.13384871 0.066650845 0.19556186 0.15937336 0.23748733 0.19691846
0.27001667 0.22433373 0.0882558 0.1664374 0.300771 0.060359072 0.084534675 0.1088253

ConvBase.1.bn.running_var f4 [64]
00000000: 697b c63d c376 413d ab6a 153d 2f06 8c3b
00000010: 407e 703d d942 553b bf4f 053b 84d3 053e
00000020: 14a4 fb3e a8d1 5e3e d155 143d ba25 c03b
00000030: ced7 b23e d1c7 8134 241c b13c 062a 393c
00000040: 480d c63e b413 d93e 2b36 e13d d3e5 093c
00000050: ae90 dd3d 6881 4e3e d885 273f a3dd 393e
00000060: 3b12 093e 9a3f 823e a30c 013d 565d 0c3e
00000070: 7c60 343d 830a 3d3c fbd3 503b 6af6 853d
00000080: f428 003f 1c3f 703e 10d5 923d 58c6 093c
00000090: 5203 043e c30a 2c3e 2668 bd3d af0c f63d
000000a0: 5c2d c43d e209 b23e 854b 143d 3847 733d
000000b0: 6d45 f23e f328 013c 5c03 0f3d 8c43 cb3c
000000c0: 5daa 3e3f c60f 663e 658c 883d b613 ef3b
000000d0: 12f1 193e efeb 3c3e 2acb 633e 79b7 db3d
000000e0: 8163 f43e cb57 9e3d 0511 1b3d 1c6f 273e
000000f0: 69cf 863e 326f 3d3c 9b48 e73c 1dca 393d
0.09691507 0.0472324 0.03647868 0.004273198 0.05871415 0.0032541065 0.0020341722 0.13068968
0.4914862 0.21759665 0.036214653 0.0058638724 0.3493027 2.4173508e-07 0.021619864 0.011301523
0.38682008 0.42397845 0.1099666 0.008416611 0.10818611 0.20166552 0.65438604 0.18150954
0.1338586 0.2543915 0.031506192 0.1370748 0.044037327 0.011538151 0.0031864631 0.065411404
0.5006249 0.23461574 0.07169545 0.008409105 0.12891892 0.1680098 0.0924838 0.12014138
0.09578964 0.34773165 0.036204834 0.05939409 0.47318593 0.007883298 0.034915313 0.024812482
0.74478704 0.22466955 0.06667403 0.007296051 0.15033367 0.18449377 0.2224547 0.10728354
0.47732165 0.07731589 0.037858028 0.16350979 0.26330116 0.011562156 0.028232863 0.045358766
