waights/weights0.pth (torch_old, 670822 bytes, 196 tensors)

ConvBase.1.feature.lis.0.X_conv.conv.weight f4 [1, 1, 3, 1]
00000000: 7669 aebc bf43 1abe 0d5b c6bd
-0.021290522 -0.15064906 -0.09685335

ConvBase.1.feature.lis.0.Y_conv.conv.weight f4 [1, 1, 1, 3]
00000000: d11f a23e 6f9d 6ebd 8b39 10be
0.316649 -0.05825561 -0.14084451

ConvBase.1.feature.lis.0.pointwise.weight f4 [16, 1, 1, 1]
00000000: 0660 b6be c595 70be f21f 48bf fd6f 70bf
00000010: f063 f8be 2e14 c4bd 7553 2c3d 5b3e 183f
00000020: ef3f 553f bd6d 2c3f e192 6a3f bbfb 893d
00000030: 052f 303f 80f9 11bb 8e41 ed3e 111f e8be
-0.35620135 -0.23494633 -0.78173745 -0.9392088 -0.48513746 -0.095741615 0.04207178 0.59470147
0.8330068 0.6735495 0.9163037 0.06737467 0.68821746 -0.0022273958 0.46339077 -0.45336202

ConvBase.1.feature.lis.0.pointwise.bias f4 [16]
00000000: 1e5e 563f b742 95be 9fbe 2f3f 6279 7dbf
00000010: 6cb1 8bbe e1d4 4dbf f24d 99be 8a87 693f
00000020: 197a 36bf 7d21 723e 1355 e7be 3cfd 0abf
00000030: b9cb ae3c 778b a1bd 5052 90be 20a2 d6be
0.8373736 -0.29152462 0.6865024 -0.9901334 -0.272838 -0.8040295 -0.2994228 0.9122244
-0.71280056 0.23645587 -0.45182094 -0.54292655 0.021337377 -0.07887929 -0.281878 -0.41920567

ConvBase.1.feature.lis.1.X_conv.conv.weight f4 [16, 1, 5, 1]
00000000: 79d6 7f3e 25b0 93be 1b72 ae3c 77ba af3e
00000010: 30c0 7f3e 3cf4 d03c 3e15 b43e e8bd 533c
00000020: a842 123e c71e 8abe 1800 66be c060 a2be
00000030: 086b 75bd 5247 963e cd0e dbbd ccf5 97bd
00000040: 41b4 af3c d955 323e 631d d43e 7d91 153c
00000050: fed3 bcbe 6237 a6bd 4bfd 1a3d b44f a4be
00000060: bcdc b33e b11c 0a3e 2222 893e 827d bbbe
00000070: 9a68 6d3e 6ee9 303e 3863 93be 6226 3fbe
00000080: d53d 46be 0d8e 423e 33c6 0f3a 9f32 883d
00000090: 08eb 10bd 52f6 e23e 2b26 cd3e ebc0 153e
000000a0: 9a5b 953d 494a a4be 0b63 bd3e 4334 773e
000000b0: 9177 d83d 16a9 a7be 5550 97be 9be0 b73d
000000c0: 1b19 083e 7e6c cabe d0f5 87bd 767a 75bd
000000d0: 8c51 dbbe 4c8f 0bbc f058 c63e 7944 dcbe
000000e0: 9caf e1be 4e87 973e 7814 463e a9fc b23e
000000f0: de10 34be cca0 57bd d74e 4abd a449 c93e
00000100: d91b 8dbe 5e3e b5be 704e ae3e 716c 33be
00000110: 5487 bc3d 268c 80bd e6eb 41bc 202a 0f3c
00000120: 2e3e 96be 1385 dfbe e2f6 7d3e f705 b43e
00000130: c64a b5bd f7c9 0e3e a5a2 493e 9465 c7be
0.24984159 -0.28845325 0.021294644 0.3432195 0.24975657 0.025507085 0.35172457 0.012923695
0.1428324 -0.26976606 -0.22460973 -0.3171444 -0.059916526 0.29351288 -0.106961824 -0.07419929
0.021448256 0.17415561 0.4142867 0.009128925 -0.36880487 -0.08116032 0.037839215 -0.3209206
0.35129344 0.13487507 0.26783854 -0.36619192 0.23184434 0.17276546 -0.28786635 -0.18666986
-0.19359525 0.189995 0.0005484551 0.0665028 -0.035380393 0.44328552 0.40068182 0.14624374
0.07292862 -0.32087925 0.36989626 0.2414103 0.105696805 -0.3274619 -0.29553476 0.08978387
0.13290827 -0.39535898 -0.06638682 -0.05993124 -0.42835653 -0.008518051 0.3873973 -0.4302099
-0.44079292 0.29595417 0.19343746 0.3495839 -0.1758456 -0.052643582 -0.049391594 0.39313996
-0.2756031 -0.35399145 0.34044218 -0.17521836 0.09205499 -0.06276731 -0.011836028 0.008738071
-0.29344314 -0.43656215 0.2480121 0.351608 -0.088521525 0.13944231 0.1969095 -0.38944685

ConvBase.1.feature.lis.1.X_conv.conv.bias f4 [16]
00000000: 07b7 b43c 44eb e33d 068f 103d cc9e dfbe
00000010: b401 98be 072f c5be 8fad e0be 93aa e33d
00000020: 78c2 2c3e 8a41 2abe d4ec a03e 259e 9b3e
00000030: f970 b23d 9e6f e63d 108c dfbe 931d 773a
0.02205993 0.11128858 0.035292648 -0.4367584 -0.296888 -0.38512442 -0.43882415 0.11116519
0.16871059 -0.16626564 0.31430686 0.30394092 0.08712954 0.11251758 -0.43661547 0.0009426709

ConvBase.1.feature.lis.1.Y_conv.conv.weight f4 [16, 1, 1, 5]
00000000: 787d 903e 4575 be3e 4faa b4be 383d 48be
00000010: ef0c 9c3c 01ef a13e 3be7 d73e fdde d1bd
00000020: 4554 823b 76df dcbe 7955 a8be 5c75 163d
00000030: cf74 793e 6d25 a0be 2e3e 83be 9e17 92be
00000040: 3c4a 743e 8472 e33e 29b4 59be 5114 b7be
00000050: 3599 89be 37fb bf3e a158 c53e db5b afbe
00000060: a4cc 4e3e 5e5e 83be c131 57be 05e9 c0be
00000070: 8526 ec3d 5d58 c3be 7b92 b03d 128f a2bd
00000080: 6a26 403d 8e0e 8d3e 0ffd d13d 420e b0be
00000090: 5f72 893e 0ce2 afbd f6c8 cbbd b1a3 9b3d
000000a0: ea4d 04bd 4419 d5be a157 bbbd 4867 153e
000000b0: a175 9fbe b783 693e 7ca2 b0be 04d7 ebbd
000000c0: 0cc2 d13e ec51 983e 385f 823e 8dd6 ff3d
000000d0: df48 abbd 3bcd 333e 10b9 85be 0508 c03e
000000e0: 2c72 cabe 1710 733e 1f19 f7bd fb3d 0cbe
000000f0: 7d7f dd3e 44b2 3ebe 2e55 2f3e 4451 d63e
00000100: 2447 c33c 5793 983e 488c 023c f5c8 713e
00000110: b3b0 c73e 5e5f 8dbe 95bb 91be 9e76 d5be
00000120: ab7e c13e 9edc dbbe 661a be3e 07dc ac3e
00000130: 6b3f 7fbd 11da dfbe 0846 71be c425 aeba
0.28220725 0.37198845 -0.35286185 -0.19554603 0.019049136 0.31627658 0.42168602 -0.1024761
0.003977331 -0.43139237 -0.3287771 0.036733016 0.24360965 -0.31278554 -0.25633377 -0.28533643
0.23856443 0.44423306 -0.21260132 -0.35757688 -0.268747 0.3749635 0.3854418 -0.34249768
0.20195252 -0.25657934 -0.21015073 -0.3767778 0.115307845 -0.38153353 0.08621689 -0.07937445
0.046911635 0.27550167 0.10253345 -0.34385878 0.2684507 -0.08588037 -0.0995044 0.07599581
-0.032300867 -0.4162084 -0.09147573 0.1459018 -0.3114443 0.22804151 -0.34498966 -0.1151562
0.4096836 0.2975 0.2546327 0.12492094 -0.083635084 0.17558758 -0.26117754 0.37506118
-0.3954023 0.23736607 -0.12065338 -0.13695519 0.43261328 -0.1862269 0.17122337 0.41858876
0.023837633 0.2979991 0.007968016 0.23611815 0.39001998 -0.27611822 -0.28463426 -0.4169206
0.37791952 -0.42941755 0.37129515 0.33761618 -0.06231634 -0.4372106 -0.23561871 -0.0013286402

ConvBase.1.feature.lis.1.Y_conv.conv.bias f4 [16]
00000000: 8010 3e3e ff65 7e3e daaf 17be be38 903e
00000010: 40e7 e23d 696b 9e3d 42a0 673d 6170 223e
00000020: 1f32 b53e afcd 473d 93d5 e1be 53c6 1bbe
00000030: b717 c2be b804 533e 781c afbe a50b c2be
0.18560982 0.24843596 -0.14813176 0.2816829 0.11079264 0.077353306 0.056549318 0.15863182
0.35389802 0.04878014 -0.44108257 -0.15212373 -0.37908718 0.20607269 -0.34201407 -0.3789951

ConvBase.1.feature.lis.1.pointwise.weight f4 [16, 16, 1, 1]
00000000: 8efe 49be 0d65 6bbe f0ef f7bd 4a45 293e
00000010: 5a6c 5dbe 45ec cd3d 4af3 d43d 95a6 693e
00000020: 205c 92bd 7bf1 a0bd 6dcf 6abd 4355 113e
00000030: 4b14 34be 07a2 5a3e 4c6b 62be ff60 5a3e
00000040: 5b9e 293e 1624 be3d e785 283d 82ce 7abd
00000050: 7110 49be 66b9 31be 4bcb 253e 39d1 4e3e
00000060: 5234 633d 51a6 0b3e 9c2d 52be 653d c63d
00000070: da05 09be 13cc c53d 70be 3d3e 254b 83bc
00000080: 21cc 45be 06d5 e7bd 42ae 4dbd 09fc 803d
00000090: b107 77be e431 093d 4a54 b43d 136f 4dbe
000000a0: 96c0 2f3e 89d9 f73c 6d39 3fbe e500 5c3e
000000b0: 1020 003c b3e8 3bbe 4848 cabd 27ef 5cbe
000000c0: 8b5e 4f3b e8c4 29be f328 113e 300e acbd
000000d0: ce3a 43be 1c9a 673d 8334 3c3e fde8 983c
000000e0: 4355 b93d 7adc 1e3b 4bb1 2f3e 5830 c8bd
000000f0: 33aa b53d 5880 79be 2ba5 35bd efb5 73be
00000100: 02f7 49be 820c 3c3e f065 593e 2392 2b3e
00000110: 3edf 0dbe d0ad 573e 8e26 493e 45a8 32be
00000120: 0db7 7f3e befa 0c3e 4f9f 303d f0aa e4bc
00000130: de01 f4bd 47db 28be 1507 383d fa82 f8bd
00000140: 00e5 9e3d 69df 03be b6f6 56bd 018b 94bd
00000150: 7d69 6ebd e169 673d 645e 183d 044e b9bc
00000160: a7d9 39be da25 2bbd 7c23 c33c 3bf0 60be
00000170: 6933 9abb b291 06be 80c6 fabc 6380 213e
00000180: 5414 78be f9f7 e03c 896c adbd d327 273c
00000190: 4f02 aa3d 2bee 46be 975a 94bd 5820 d03c
000001a0: 0039 24be 0ad3 f23d 0bbd 7e3e 4c9d 14bc
000001b0: c66e 3dbe b9a9 1cbd 71f4 1fbc a676 5b3e
000001c0: 5619 09be 9fa7 f23d f998 1dbe 4d43 913d
000001d0: f56e 403e 29ca 26be 444f 97bc 55ba 153e
000001e0: 194b ebbd d1ea 38bd a591 d2bd 7977 c1bd
000001f0: c3a4 be3c 898e 13be 1cfb 04bd 0637 18be
00000200: 3542 6b3d a792 903d 29e3 54be 3c9c 60be
00000210: 79fe 87bc 3e35 113d 56b0 7f3e 8083 e7bd
00000220: 3b17 cf3d 7ba2 1dbe cb85 813e 37ea 82be
00000230: 3b60 2c3e 14f0 26be 0bd4 5e3e e6dc 263e
00000240: bc4c d43d a749 6b3d e2f4 643e 26a3 9abd
00000250: 44cb 18bd c053 1cbc cc9b 633e 130b 0abe
00000260: 4b38 23bd 1bca 763e 2daa fabd 5dfc 183d
00000270: 4ccb 893c 3722 61be 90fc 093e bc33 ae3d
00000280: 60a0 603e ebe4 723e b29c 04bd d168 8b3d
00000290: 381d 203e a3f2 303d aa2e 6abe 1f05 853c
000002a0: e05e 3dbe 79d6 573e b4f0 463e e594 30be
000002b0: 435d 2e3e 4920 fcbd cf29 60be 8f5e 27be
000002c0: dc23 01be 5f50 e2bb 90d4 7cbd 8226 643e
000002d0: 3815 3e3c 3e73 65bd 8066 b2bd 67dd 2cbe
000002e0: 5955 8f3d 5357 093e 9d7b 003d 1c1a c73d
000002f0: e5d7 973d bb87 13be d8c4 4bbe 3d91 053d
00000300: f88e 043e d4eb 53be bc54 82bd 91ad 1abe
00000310: af31 f13d 2e0d 49be 4ab4 e53d 6d2d 50bb
00000320: ca9b 1a3e 4e7d 61be c10d 333d 0688 2d3e
00000330: fdd3 ef3d 4089 a7bd 6d8e 97ba e5b1 75be
00000340: 8008 6bbe ab6e 3b3e 7404 01be 16f8 c5bd
00000350: 1027 0d3e fc98 f5bd 0cbb 66be 5425 51bd
00000360: e233 aebd 22b3 93bc f80b 1f3e 8d3d 13be
00000370: 5e1c 163e f16b 373e 03ce 02be 7466 56be
00000380: a4a2 f33d b7e7 b53c a9db 02be b7a0 083e
00000390: 2df7 e8bc 5fea 003e dc88 a63d f60a 783e
000003a0: 0ceb de3d 4ae0 41be 90dd febd 41fc 5c3c
000003b0: e3ca 2d3e aa00 17be 29d2 5f3e 28f2 703c
000003c0: 0f57 7fbc 2884 21be d37f 373e 5dce 61be
000003d0: 095e 8dbd 9311 683d 7d0e a6bc 1e59 36be
000003e0: f36f ddbd f21d c2bd 61f4 3bbd a309 45be
000003f0: db8a 2dbd 742c 5a3e 9d39 7e3e bb38 b3bd
-0.19726011 -0.22987767 -0.12106311 0.16530338 -0.21623364 0.100548305 0.10397966 0.22817452
-0.07146478 -0.07858559 -0.057326723 0.14192681 -0.17585866 0.21350871 -0.22111243 0.21326064
0.16564314 0.092842266 0.041143324 -0.061232097 -0.19635178 -0.1735588 0.16190831 0.20197
0.05546982 0.13637663 -0.20525211 0.09679679 -0.13381138 0.09658065 0.18529677 -0.016027043
-0.1931615 -0.11319928 -0.050215013 0.06298072 -0.24124028 0.033494845 0.08805139 -0.20061903
0.1716331 0.030255096 -0.1867425 0.21484716 0.007820144 -0.18350486 -0.09877068 -0.21575604
0.0031642045 -0.1657902 0.14175777 -0.084011436 -0.19065401 0.056543455 0.18379407 0.018665785
0.090494655 0.00242403 0.17157476 -0.09774846 0.088703535 -0.24365366 -0.04434697 -0.23799871
-0.19723132 0.18364146 0.21230292 0.16754965 -0.13854691 0.21062398 0.19643614 -0.17447002
0.24972172 0.13767526 0.04312068 -0.02791354 -0.11914419 -0.16489898 0.04492863 -0.12134357
0.07758522 -0.12878193 -0.052481376 -0.072530754 -0.05820607 0.05649746 0.037199393 -0.022620209
-0.18149434 -0.041784145 0.023820631 -0.2196664 -0.0047058356 -0.13141516 -0.03061223 0.15771632
-0.24226505 0.027461993 -0.08467967 0.010202366 0.083012216 -0.19426791 -0.07243841 0.025406048
-0.16037369 0.11856659 0.24876802 -0.009070706 -0.18499288 -0.038247798 -0.009762869 0.2143198
-0.13388571 0.118483774 -0.15390386 0.07092915 0.18792327 -0.16288055 -0.018470414 0.14621861
-0.11488933 -0.045145813 -0.10281686 -0.09446616 0.023271924 -0.14409842 -0.03246604 -0.1486474
0.057436187 0.07059222 -0.2078978 -0.21934599 -0.016600834 0.035451166 0.2496961 -0.113043785
0.10111853 -0.15394013 0.25297388 -0.25569317 0.16833584 -0.1630252 0.21760575 0.16295204
0.103661984 0.057443287 0.2235904 -0.07550649 -0.037303224 -0.009541452 0.222274 -0.13480787
-0.039848607 0.24100535 -0.1223949 0.037350047 0.016820572 -0.21985708 0.13475251 0.08505961
0.21936178 0.23720138 -0.032376 0.068071015 0.15636146 0.043200146 -0.22869363 0.016237793
-0.18493223 0.21077909 0.19427758 -0.17244299 0.17027764 -0.123108454 -0.21890949 -0.16344665
-0.12611336 -0.0069065536 -0.061726153 0.22280315 0.011601739 -0.056018107 -0.087109566 -0.16881333
0.06998701 0.13412218 0.031367887 0.09721777 0.074142255 -0.14407246 -0.19899309 0.032609213
0.12945163 -0.2069543 -0.06363818 -0.15105273 0.117770545 -0.19633934 0.11216028 -0.0031765357
0.15098491 -0.22020456 0.04371429 0.1694642 0.117103554 -0.08180475 -0.0011562832 -0.23993643
-0.22952461 0.18303935 -0.12599355 -0.09666459 0.13784432 -0.1199207 -0.2253229 -0.05106099
-0.085059896 -0.018029753 0.1553191 -0.14378949 0.14659259 0.1791227 -0.127739 -0.2093752
0.118962556 0.022205217 -0.12779106 0.13342558 -0.028438175 0.12589405 0.081315726 0.24222931
0.108846754 -0.18933216 -0.124446034 0.013487876 0.16971926 -0.14746347 0.21857513 0.014706172
-0.015584721 -0.1577307 0.17919855 -0.22051378 -0.069027014 0.056657385 -0.02027058 -0.17807433
-0.10812368 -0.09478368 -0.045887355 -0.19241957 -0.04236875 0.2130602 0.24826665 -0.08751055

ConvBase.1.feature.lis.1.pointwise.bias f4 [16]
00000000: 3b69 7b3e 58f7 6dbe 4e58 1e3e 089b 41be
00000010: 376c bfbd 463b 80be 46b5 55be fb92 043e
00000020: 2267 45be d97e 713e e47e dcbc 6a19 f13d
00000030: 8423 b73d f936 8e3c 516b 033e 0e89 7cbe
0.24551861 -0.23238885 0.15463373 -0.18906796 -0.09346812 -0.25045222 -0.20869932 0.12946694
-0.19277623 0.23583545 -0.026915975 0.117724255 0.08942321 0.017360197 0.12833907 -0.24661657

ConvBase.1.feature.lis.2.X_conv.conv.weight f4 [16, 1, 7, 1]
00000000: fa4f 853e 5495 b3be 2641 c03e 8700 ff3d
00000010: 6beb b23e 99f0 cdbd 57ea 9cbe a585 cc3d
00000020: 0ead 153d 2d1d 3c3e d0bf df3d 11cd 21be
00000030: eb83 403e 5b98 a03e 8730 13be a011 bfbd
00000040: c823 b1be 95d7 093e 5b6c 80be e739 903e
00000050: 4132 13bd d176 b8be f469 1a3e 584f 52be
00000060: 69de a33e c10b adbd 5322 35be 2b43 223d
00000070: cd2e e03d 72a9 523e b179 8d3e bf8a af3e
00000080: c853 4e3e 5bb3 7fbe 9e29 b23e 4a24 01bd
00000090: 7d4f eabd f6fd 68bd f617 9b3e 86ac a3be
000000a0: 05c6 40be a77b 53be 1ab4 f5bd 00c0 7ebe
000000b0: cc16 57be 8d3e 663d 4b55 c23d f730 bfbe
000000c0: 3cea 563e a3c1 8fbe 4a8c 61be 4301 ba3e
000000d0: 0ced 893e ed86 8b3e 3f0e 333e e73a a63e
000000e0: 6fe2 a4be 5d7f 953e a529 473e f43c 2ebd
000000f0: 4336 f53d 5e8a 303c 2317 f7bd 948e 6f3e
00000100: 6043 803e 85e0 8d3e 2e3d c53d 7db1 bcbe
00000110: dc84 b0bd 92e5 b6be 209f ab3e 23a0 a13e
00000120: 1adf 4f3e a274 46be 1637 9a3d 45b0 26be
00000130: 793e 763e dc42 f73d 3b82 0d3d 7b09 e43d
00000140: 08dc 963e ccf1 d4bd fec7 6abe 41ee f5bd
00000150: 0e45 013d bc8f 0dbe a7c3 af3d 3ed7 073d
00000160: e7c4 393c de57 0b3e 8a1f b2be d2e0 03be
00000170: f533 b33c f045 673e c410 bfbe 93b5 3bbe
00000180: 60d0 91be e2da bebe ad27 bd3d e66a bd3e
00000190: cf6d 4bbd 9fd5 45be 71b7 48be 67f0 3ebd
000001a0: 9224 213d e72f 973e ee8e 043e d897 a9be
000001b0: e748 6bbe d0e9 003e 0e77 93be 0f4a 41bd
0.2603758 -0.35074866 0.37549704 0.124512725 0.34945235 -0.10055656 -0.30647537 0.09986428
0.03654199 0.18370505 0.10925257 -0.15800883 0.18800323 0.31366238 -0.1437398 -0.093295336
-0.3459761 0.13461144 -0.2508267 0.28169176 -0.035936598 -0.3602815 0.1507948 -0.2053808
0.32005623 -0.084495075 -0.17688875 0.039614838 0.109464265 0.20572451 0.27631906 0.34285542
0.20149148 -0.24970762 0.34797376 -0.03152875 -0.114409424 -0.05688282 0.30291718 -0.31967562
-0.18825538 -0.20652638 -0.11997242 -0.2487793 -0.2100479 0.056211997 0.094889246 -0.37342045
0.20987791 -0.2807742 -0.22026172 0.36329088 0.26938665 0.27251378 0.17485903 0.32466814
-0.32204005 0.29198733 0.1944948 -0.0425386 0.1197324 0.010775177 -0.1206496 0.23394233
0.25051403 0.27710357 0.0963081 -0.36854163 -0.08619091 -0.35722023 0.3351984 0.31567487
0.2029995 -0.1938043 0.07530038 -0.16278179 0.24047269 0.12073299 0.034548026 0.11134621
0.29464746 -0.103976816 -0.22927853 -0.12008334 0.031559996 -0.13824362 0.085822396 0.033164255
0.011338449 0.13607737 -0.34789687 -0.12878731 0.021875361 0.22585273 -0.3731748 -0.18330984
-0.2847929 -0.3727637 0.09236083 0.3699562 -0.04966527 -0.19319771 -0.19601227 -0.046615984
0.039341517 0.29528734 0.12945148 -0.3312366 -0.22977029 0.12589192 -0.2880177 -0.04718977

ConvBase.1.feature.lis.2.X_conv.conv.bias f4 [16]
00000000: 9424 30bd 2c69 663e 3eed 1dbe e7b5 2cbe
00000010: df12 39bd e656 523e d111 603e dfa8 b63d
00000020: 7831 223e d398 87bd 239d 9f3e e40b c53d
00000030: dbda 143d 4bdd e9bd 12fb be3e f849 b3bd
-0.043003634 0.22501057 -0.15422532 -0.16866265 -0.045184013 0.20540962 0.21881796 0.08918928
0.15839183 -0.06620946 0.31174573 0.096214086 0.03634153 -0.114191614 0.37300926 -0.08754343

ConvBase.1.feature.lis.2.Y_conv.conv.weight f4 [16, 1, 1, 7]
00000000: de47 ab3d 8770 7c3e 6e84 87be 3e87 03be
00000010: 7c7f 943d d32a a0be d265 ac3e e9de 903d
00000020: 803a adbe 16a3 a43d 41ed edbc 3b43 a4be
00000030: 7a47 433e 83a7 de3d 2f2d d5bd 7e27 d13c
00000040: cdb2 70be 62b6 903e ce7d 8e3d 21a5 313e
00000050: f283 1dbd fec5 d2bd 82a0 893e 6c24 d23c
00000060: be95 b83e b005 6abc e5bc d73d 734e a13e
00000070: 3095 813e 9c8f 393e f310 4d3e 1f80 0dbd
00000080: 6cb4 f93d 0586 183e 7c74 733e 54a4 213e
00000090: 26dd 79bd 8440 bf3d 9a10 c9be 9be1 ef3d
000000a0: c389 973d 98ae 8d3e bf40 4a3e 1ee2 67be
000000b0: 83c4 a8be 7102 7e3e acbd 063d 27ff 9f3e
000000c0: df9d e8bc ae4d 05be ac63 6bbc d785 123e
000000d0: f56a 8cbe b902 a1be 2efb 02b8 c666 c23d
000000e0: ca28 c1be db8d 883d 6f43 babe 709b 73be
000000f0: 895d 773e f6ac 98bb aa80 74bd aa83 98bd
00000100: b795 c5be 86a3 23be 68ce e13d 42a8 023e
00000110: 8d4c 3fbe 4c79 8fbe e569 68bd 8695 313d
00000120: 9cd8 8e3e 00d8 f53d a3db db3d 3218 8f3e
00000130: 40f9 a4be 3d3f 5c3e 7738 74be ddbd 293e
00000140: 4ec1 03be e7d9 2cbe d675 bebe 0009 bc3e
00000150: 1da3 1e3e c8b4 183e ae84 12bd 7457 74be
00000160: 72d5 a03d 0aa0 8e3e 7452 0bbe f175 09bd
00000170: c65e 4ebc 75ce 673e bbc1 ea3d 846f c23e
00000180: a6ab 2a3e a4e3 4abe e412 5c3e ff36 6ebd
00000190: 823d f0bd ce47 68bd 5ea4 953e 4db6 b53e
000001a0: 6169 5d3e 5f0d 90be 9342 903d 591e b3be
000001b0: 8b19 83be eab1 35bc 84f7 4fbd 69f0 a53e
0.08363317 0.24652301 -0.26468223 -0.1284456 0.07250878 -0.31282672 0.33671433 0.07073767
-0.33833694 0.08038919 -0.029043796 -0.32082543 0.19070235 0.10871794 -0.10409009 0.025531527
-0.23505707 0.28264147 0.06957589 0.17348148 -0.03845591 -0.1029167 0.2688027 0.025652133
0.36051744 -0.014283583 0.10534076 0.31505165 0.25309134 0.18121189 0.20025997 -0.034546014
0.12192616 0.14894874 0.23774904 0.15785342 -0.06100192 0.09338477 -0.39270478 0.11712953
0.07399323 0.27672267 0.19751261 -0.2264485 -0.32962427 0.24805619 0.03289573 0.31249353
-0.028395591 -0.13017914 -0.014367025 0.14308868 -0.27425352 -0.3144739 -3.1228345e-05 0.09492259
-0.37726432 0.06667682 -0.36379573 -0.23789763 0.24156775 -0.0046592904 -0.059693016 -0.07446988
-0.38590786 -0.15980348 0.11025697 0.12759498 -0.18681546 -0.2802223 -0.056741614 0.043355487
0.27899635 0.12004089 0.10735252 0.27948147 -0.32221413 0.21508498 -0.23849665 0.16576333
-0.12866709 -0.16879998 -0.37199277 0.36725616 0.1549191 0.14912713 -0.035771064 -0.23861486
0.078532115 0.27856475 -0.13605672 -0.033559743 -0.012595838 0.22637351 0.114627324 0.37975705
0.16667041 -0.198134 0.21491581 -0.058157917 -0.11730482 -0.056709103 0.29226965 0.35490647
0.2162223 -0.281352 0.07043948 -0.3498409 -0.25605425 -0.011089781 -0.05077316 0.3240998

ConvBase.1.feature.lis.2.Y_conv.conv.bias f4 [16]
00000000: 8685 8c3d 1400 213e 6e3f abbe 633d b3be
00000010: d795 6bbe 5d47 14bd 864a 273e 5503 81bd
00000020: 206c 8e3d 6aa6 aa3e 1752 cebd 2231 ab3e
00000030: 0b16 97be fc3a 023e ca99 9e3e 0124 953e
0.06861405 0.15722686 -0.3344683 -0.35007772 -0.23006378 -0.03620087 0.16337022 -0.06299464
0.06954217 0.3333009 -0.10074251 0.33435923 -0.29509005 0.12717813 0.30976707 0.2912903

ConvBase.1.feature.lis.2.pointwise.weight f4 [16, 16, 1, 1]
00000000: 3148 c4bd c7ef 9dbd 8353 753e 6bb9 493e
00000010: 0903 7a3e 52fc 833c c70b e73d b1e4 003e
00000020: 46ab 5bbe 730b 873c 07be df3d 6218 613e
00000030: f071 e63d 53a6 08bd 7247 37be 2aed 54be
00000040: 0dad 2d3e e757 e0bd 9e17 f93d 5e37 bc3d
00000050: 46c5 c4bd f007 1bbc b8f2 ea3c 8b88 a03c
00000060: 83b7 763d e0d9 043d 8b3a 12be d61f 77bc
00000070: 2035 44bd b8d1 b2bc ef82 443e 33dc 2fbe
00000080: 9d96 39be 173d 313e 263d 623e f26f 693e
00000090: 23a7 26be c661 6c3e 5f81 f73d faf5 073c
000000a0: 96fa 073e 4204 e43d 6cc2 9a3d 50f4 9a3d
000000b0: fb63 233e 79aa 8a3d 6991 4dbe 604e 1fbe
000000c0: c267 70be 5a4b 2fbe 6c3c 0c3c a15e 783d
000000d0: 1518 cf3c 4203 3fbe 412c 73be c78f 8bbd
000000e0: 643a 7e3e 6c2f 02be d71b 1b3e dd16 5abe
000000f0: 8b2d cc3d 6c6f 683e a34e b4bd 962f 36be
00000100: e432 aebd 68eb 563e 8e3e 77be 929c 4a3e
00000110: 302d c3bd 74cd 03be 4148 853c 4abf 91bd
00000120: 4fd2 9e3d 236d 203e 1866 a4bd ab9b 6dbe
00000130: ab58 28be 48be a5bd b8bf 4d3c a9cc c03d
00000140: 66b6 003e fd4d 64bc 694f b53d 853e f6bd
00000150: 7916 5e3e 66de 723e eb68 3c3e 4d9c eb3d
00000160: 21ee 7f3e 4fc2 adbd 671b 743e 525b b2bb
00000170: dbd6 1f3e 7028 3c3d 6474 fd3d 1103 7dbe
00000180: 90fa dd3d 5ff7 0c3e bd42 643d e37c c6bd
00000190: 68c5 28be 4107 a2bd fac8 efbd dc29 403e
000001a0: cfec 7c3e 24b9 103d 464c 61be 1430 21be
000001b0: f690 7b3e d968 87bd 0612 9d3d 86fd 2d3d
000001c0: 20ed 023e 88e8 d83d 3a01 c2bc c8ea 993d
000001d0: 48a4 a0bd 9138 07be 1296 673d 04c1 1abe
000001e0: b196 ff3d b950 913d 8dfc 29bc f8a5 543e
000001f0: 0c4f 6a3d 5fb8 00bd 4cd0 a9bd 367c e63d
00000200: 12b8 5bbe 3303 393e 0cd1 163e 3583 093e
00000210: 4367 36be aaef 1a3d 6457 1abd 7f7f 3b3e
00000220: b5f3 a5bc 48db a33c 4bb8 9ebd 6db8 f3bd
00000230: 1b38 4d3e 3d84 793e 67e4 cbbd bb8a e1bd
00000240: 7e7a f9bd c879 593e 7ea7 73bd 459f 1d3e
00000250: 93ba 923d 74c0 5c3d ea5f 5c3e a06c 5dbe
00000260: 5a7a b93d fbf9 633e bc4f 463e 0d03 1d3d
00000270: 2843 243e b275 e0bd d8c1 31bc 9c77 e63d
00000280: 24f8 36be dd56 953d f7d9 073c 1f04 163e
00000290: d865 333d 6814 01be f6c6 883d 976c 653d
000002a0: cb84 583e 9338 cfbd 549e 353e 4ed6 0e3d
000002b0: 25b8 733e 95fe 0ebe 05ad 19be ebcd 4c3e
000002c0: 80ec 6dbe 1780 03be 5066 653e 3922 aebc
000002d0: 314c 40be 74c8 4abe 560a 73be d801 633c
000002e0: d5e6 01be fafb f1bb f1c4 19bc d6f9 743e
000002f0: 450a 48be be12 b63d 0bbd 173d 0f6c af3d
00000300: 55af a33c 9dd6 ad3c 48a5 6a3d 07db 81be
00000310: 5b0e c43c 8e3c 0bbe 1234 fa3d 7d3a 0bbe
00000320: 3247 ae3d 2788 0bbe 8a5b 17be f7e5 6a3e
00000330: 70dd 79bc 2d7b 71bd 7d98 423d 0644 ba3c
00000340: ef6f 17be fb6c 863c 1027 13be af74 81be
00000350: 69dc 2dbd f277 9fbd 70ad b63c 2e9f f23d
00000360: 2c77 6a3e 091a 603e 4b9d 263e f478 6ebe
00000370: 99aa 763e 1e0d 45be 9dad ea3d 3263 71be
00000380: 0e74 8b3d 4d92 09be 5942 5e3e ce80 75be
00000390: 68c5 983b ef0c 393e 8430 063c c4e5 1ebe
000003a0: 8272 d7bc 3cba 33be f1ed 0cbe 6a30 86bd
000003b0: 1326 67be 6b67 cebd 38dd d13c 25a7 a43d
000003c0: 97bb 853e e38b d83c 4a42 11be d7ea 6fbe
000003d0: e7a9 8ebd 2b5d 1f3e 3054 b3bc 379f 893d
000003e0: 0073 94bd 37ec 46be 95eb 77be 171f dd3c
000003f0: ecbd dfbd b897 a8bd dd52 4d3e 667f 473d
-0.09584082 -0.077117495 0.23957638 0.19699638 0.2441522 0.016111527 0.11281543 0.12587239
-0.21452054 0.016484952 0.10924917 0.21981958 0.112522006 -0.033361744 -0.17898348 -0.20793596
0.16960545 -0.10954266 0.12162708 0.09190248 -0.096079394 -0.009462342 0.02868019 0.019596359
0.060233604 0.032434344 -0.14280145 -0.015083274 -0.047902226 -0.021828517 0.19190572 -0.17173843
-0.1812386 0.1730846 0.22093639 0.2279661 -0.16274695 0.23084173 0.120852225 0.0082983915
0.13279185 0.111336246 0.07556614 0.0756613 0.15956108 0.06770796 -0.20075001 -0.15557241
-0.2347708 -0.17118588 0.008559328 0.06063712 0.025280038 -0.18653587 -0.2374735 -0.06814533
0.24826962 -0.12713403 0.15147339 -0.21297784 0.09969624 0.22698754 -0.08804061 -0.1779159
-0.085058 0.20988238 -0.24144956 0.1978629 -0.09530103 -0.12871343 0.016269805 -0.071165636
0.07754957 0.15666632 -0.08027285 -0.23203914 -0.16440074 -0.08092934 0.012557916 0.09414036
0.1256958 -0.0139346095 0.08853037 -0.120236434 0.2168826 0.23717651 0.18399398 0.115044214
0.24993183 -0.08484327 0.23838578 -0.005443015 0.15609305 0.045937 0.123757154 -0.24708201
0.10838807 0.1376624 0.05572771 -0.09691789 -0.16481555 -0.0791154 -0.11708255 0.18765968
0.2469971 0.035332814 -0.22001752 -0.15740997 0.24567017 -0.06611795 0.07669453 0.042478107
0.12785769 0.10591227 -0.023682225 0.07515484 -0.07843834 -0.13205172 0.056539603 -0.15112692
0.12479914 0.07095475 -0.010375154 0.20766437 0.05720429 -0.03142583 -0.082916826 0.1125416
-0.21456936 0.18067627 0.14728183 0.13428958 -0.17812829 0.037826218 -0.037681 0.18310355
-0.02025781 0.020002022 -0.07749995 -0.11900411 0.20040934 0.24366851 -0.09955674 -0.11012789
-0.12181567 0.21237862 -0.059485905 0.15392788 0.071644925 0.053894475 0.21520963 -0.21623468
0.0905654 0.22263329 0.19366354 0.038332988 0.16041243 -0.109599486 -0.010849439 0.112532824
-0.17868096 0.072919585 0.008291713 0.1465001 0.043798298 -0.1260544 0.06678574 0.056011762
0.21144406 -0.101182126 0.17736179 0.034872346 0.23800714 -0.13964303 -0.15007408 0.20000426
-0.23234749 -0.12841831 0.2240231 -0.021256553 -0.18779065 -0.1980303 -0.23734412 0.01385542
-0.12685712 -0.0073847743 -0.009385333 0.2392343 -0.19535168 0.088902935 0.03704552 0.085655324
0.019981066 0.0212205 0.05728653 -0.25362417 0.023932626 -0.13597319 0.12216963 -0.1359653
0.08509673 -0.13626157 -0.14781013 0.22939287 -0.015250549 -0.05895536 0.047508705 0.022737514
-0.14788793 0.016409388 -0.1437037 -0.25284335 -0.042446528 -0.0778655 0.022299498 0.11846767
0.22897023 0.21884932 0.1627094 -0.23288327 0.24088515 -0.19243285 0.11458895 -0.23572996
0.06809245 -0.13434716 0.21704997 -0.23974916 0.0046622045 0.1807134 0.008190278 -0.15517336
-0.026299719 -0.17551512 -0.13762642 -0.06552203 -0.22573118 -0.10078319 0.02561818 0.08039693
0.26119682 0.02643389 -0.14185444 -0.23429428 -0.06966 0.15562885 -0.02189073 0.06719821
-0.07248497 -0.19426046 -0.24210961 0.026992364 -0.109248966 -0.08232063 0.20051141 0.04870548

ConvBase.1.feature.lis.2.pointwise.bias f4 [16]
00000000: a7e0 453d 4362 78be e66f 8bbd 77ae 3c3d
00000010: ec2c dd3c fb74 0cbe ea9b 32be ec47 3c3e
00000020: cb03 4a3e d6c2 873c 0565 973c 0c61 37bd
00000030: aeb8 d6bd 3458 d93d 849f 48be dcbc 87bd
0.04830995 -0.24256234 -0.06808452 0.04606482 0.02699896 -0.137165 -0.17442289 0.18386811
0.1972801 0.016572397 0.018480787 -0.044770285 -0.104844436 0.106125265 -0.195921 -0.06627819

ConvBase.1.feature.lis.3.X_conv.conv.weight f4 [16, 1, 9, 1]
00000000: 44e7 afbd 97f9 2f3d 1601 9e3e 6e86 95bd
00000010: af7e 4dbe f9be 6b3e 96f8 c1bd 24a8 50be
00000020: 1aa7 683e 46a8 113e 2afb 863e a9be 4abe
00000030: 3e4e 933d 14f5 16be 3d02 d03d 6b35 a0be
00000040: 68dd 09be b72d 65bd 71e1 8f3e 3dfc 8a3e
00000050: 37aa 923e af9a 5b3c 05da 863d acf9 773e
00000060: 8062 a43e 7161 373e f269 6ebe 8afc 4cbe
00000070: c59e 66bd 27fa 9dbe 67da 233e f314 a43e
00000080: b84b 8b3d 6cb7 15be 7c79 a93e c7e7 2a3d
00000090: b32d eb3d 0907 31be 1b0d a03e f617 14be
000000a0: 3cce 9e3e c98e 843e d097 d5bd 94e1 f43d
000000b0: da09 2abe 7a07 913e ae3d 963e 18cb a53e
000000c0: 5847 dcbd ab8d 213e 2bad 1d3d 4436 29be
000000d0: daf2 9bbe 25c5 873e d83b f7bd cd9d 453e
000000e0: 11f8 2f3e c697 ccbd afb7 22be a17a 563e
000000f0: 0f4e 7a3e a23a a03e 186c f2bd ee5e 50be
00000100: 691f 963e a328 413e ee96 353e 958f 823e
00000110: 5409 163e 0fe0 db3d 6f0d a7be 8d95 503e
00000120: 5635 04be 1a5a ff3d a834 7dbc 3607 12be
00000130: 3088 843e dcd6 8cbe 3fbf 25bd dab6 01be
00000140: 97e7 0fbe 15c9 96be b5f2 8cbe b475 83be
00000150: fcea 46bd 098d 4d3e bef9 9b3c 00a7 53be
00000160: cd92 9fbe 758f 2e3e fff2 983d 2ed7 06be
00000170: abda 8c3e c938 7a3e c2c3 97be a63d a5bd
00000180: 7583 28be 1d1e 9b3d 5e6c a03e c6a4 553e
00000190: c484 413e d3e9 27be c5d1 c3bc f2a0 963e
000001a0: 87f8 b1be 3c08 5abe 02cf 23be e8f9 083d
000001b0: aebd 28be 0465 cbbd 3641 633d 4761 9cbd
000001c0: e9ba 20be ff64 79be 22f1 0e3d 119b 7fbe
000001d0: 5040 493e 25ee 9b3e 39f9 68be 3aa2 20be
000001e0: 8476 b93c b244 a2bd 369d f3bd 7424 6d3d
000001f0: b443 453e e71b ed3d 6dc3 533c ee04 69be
00000200: 6adf 81be 615b 2dbd 7672 8d3d 7c5a de3c
00000210: 7365 983e 9c2a a5be 360c 72be a9f7 7d3e
00000220: e9a5 75be 096a 95bb fad2 b33d 766e 67be
00000230: 4c8d 483c 38e8 993e c97d 28be faac 843e
-0.08589032 0.042962637 0.30860204 -0.07301031 -0.20067857 0.23022069 -0.09471242 -0.2037664
0.22719994 0.14224347 0.26363498 -0.19799294 0.07192658 -0.14741927 0.10156677 -0.31290755
-0.13463366 -0.0559518 0.28101686 0.27145568 0.2864549 0.013403579 0.06584553 0.24216336
0.321064 0.17908265 -0.23282602 -0.20018211 -0.05630376 -0.30854914 0.16001283 0.32047233
0.068015516 -0.14620751 0.33100498 0.041724946 0.11483326 -0.1728784 0.3126 -0.14462265
0.3101672 0.25890186 -0.104293466 0.11957088 -0.1660532 0.28326017 0.29343933 0.3238151
-0.10755795 0.15776698 0.038495224 -0.16524607 -0.3045872 0.26517597 -0.12071961 0.19298477
0.17184474 -0.09989886 -0.15890382 0.20945217 0.2444384 0.31294733 -0.118370235 -0.20348713
0.2932084 0.18863158 0.17733356 0.2550017 0.14651996 0.10736095 -0.32627437 0.20369549
-0.12910971 0.124683574 -0.015454449 -0.14260563 0.25885153 -0.27507675 -0.04046559 -0.12667409
-0.14053188 -0.29450288 -0.2752892 -0.25675738 -0.048563942 0.20073332 0.019039985 -0.20669174
-0.31166688 0.17046912 0.07468223 -0.13168022 0.2751058 0.24435724 -0.2964154 -0.08068399
-0.16456397 0.07574103 0.31332678 0.20863637 0.18898302 -0.1639779 -0.023903737 0.29419667
-0.34759924 -0.21292204 -0.15996936 0.033441454 -0.16478607 -0.099313766 0.055482112 -0.07635742
-0.156963 -0.24354933 0.03489793 -0.24961497 0.1965344 0.30455127 -0.22751321 -0.15686885
0.02263952 -0.07923259 -0.1189522 0.057896093 0.19264108 0.115775876 0.012925011 -0.22755787
-0.25365764 -0.042323474 0.06906597 0.027142756 0.297649 -0.3225907 -0.2363747 0.24801506
-0.23989071 -0.0045597595 0.08780475 -0.22600731 0.012240719 0.3005998 -0.16454233 0.2591322

ConvBase.1.feature.lis.3.X_conv.conv.bias f4 [16]
00000000: 36be 8ebd 9c3c 86be 648d 6d3e ee5f 253d
00000010: 1669 073e 916b df3d 9438 7ebe 56fc 693e
00000020: 1383 603e 8358 163e a26d 913e 3be7 183e
00000030: c0db 933e d254 c83d 0a92 85bd 8fdd 16bb
-0.069698736 -0.26218116 0.23198467 0.04037469 0.13223681 0.109091885 -0.2482627 0.22850165
0.21925001 0.14682202 0.28403956 0.14931957 0.28878593 0.09781803 -0.06521995 -0.0023020243

ConvBase.1.feature.lis.3.Y_conv.conv.weight f4 [16, 1, 1, 9]
00000000: 942a 94be 2e65 a5bd 2054 62bc 1908 a2be
00000010: 02af 18bd 5b00 9d3e 3bb5 3b3e c846 1cbe
00000020: ce17 2fbe b3f6 af3d 8f6a cfbd fd63 0cbe
00000030: 94d8 eb3c e099 47be f347 19be 811d 903e
00000040: ce23 103a 9234 4dbe 4e1f f8bc 7508 353e
00000050: 2640 ab3e 61d6 83be 7381 013e 1380 1f3e
00000060: 7dc6 30be 0b63 f03d 891b 663e 9446 823e
00000070: 544f ab3d 5f3d 0cbe 6f4c ebbd 8ef5 5a3e
00000080: 32a9 96be c161 903e 51f6 9ebe 0407 b03d
00000090: c8d6 2e3e dca7 40be a313 09be c447 303d
000000a0: a7bd 00be fb2f dabc 14e9 98bc b5d6 ae38
000000b0: e4de 99bd c88e 893e 9f8e c7bd 718b 7e3c
000000c0: 3506 443e b48f ab3c 0227 2fbd cbe9 943e
000000d0: 8216 893e cf10 99be 171e 93be 2755 d93d
000000e0: 5b16 ae3d 3fde cabd 22a5 823e 7a28 f73d
000000f0: 4792 9abe 0b1b 0b3e 6b97 53be 870b 33be
00000100: 8e32 3e3e ef13 76be 856b 3c3e f3ef a33e
00000110: d077 8ebe bec5 22be 974c 993e 361a 6ebe
00000120: 4f87 7e3e 85e4 30be f505 1f3e 708e b3bd
00000130: c855 69be ddd7 7b3c 36b8 ce3d 689b e13c
00000140: 5eaa a4be 809c 003e 7d04 283e 123b 4ebd
00000150: 4586 05be 2be4 5a3e fee8 1cbe 03ba 373e
00000160: 73fb 1abe 4ac8 953d 038e 403b 1ddd 2c3e
00000170: c241 86bc 7182 883e 2f71 5c3e 9f8f d43d
00000180: bf24 bebd cac0 a03d 978f a73e 7c75 133e
00000190: 4dcf c3bd 6d19 29be e3c9 74bc 4a54 563e
000001a0: 9e3f 103e 1fce 99be 7011 933e 3dce 063c
000001b0: 04d1 97bb 9162 9d3e cfc0 4b3e 0260 b0bd
000001c0: bcbf 2e3e bcce 873e 9256 13be 2179 a5bd
000001d0: 6a2a 613d 64db 6f3e 5360 ea3d 4eb7 473e
000001e0: 290c a7bd 8910 163e 4108 ffba 519f 4bbd
000001f0: 32b8 fd3d 6cbe b93d 379e 1cbe 59c5 0cbe
00000200: 5aec 8ebc d086 76be 9e01 4d3e d485 423e
00000210: 1674 6e3e ced7 83bd 4320 963d 7b7b 463e
00000220: c518 02be 33b0 1ebe e050 303e 31b5 933e
00000230: 3ff1 58be 2194 5ebe ab73 febc 5bb6 71be
-0.28938735 -0.08075939 -0.013814002 -0.31646803 -0.037276275 0.30664334 0.18330853 -0.15261376
-0.17098925 0.08591976 -0.10127746 -0.13710018 0.028789796 -0.19492292 -0.14968853 0.2814751
0.00054984994 -0.20039585 -0.030288365 0.17679007 0.3344738 -0.25749496 0.12647037 0.155762
-0.17263217 0.11737641 0.22471441 0.25444472 0.0836474 -0.13695286 -0.11489188 0.21382734
-0.2942596 0.2819958 -0.310473 0.08595088 0.1707412 -0.18814033 -0.13386397 0.04303719
-0.12572347 -0.026634207 -0.018665828 8.336959e-05 -0.07513216 0.26866746 -0.09744 0.015536175
0.19142993 0.020942546 -0.04276181 0.2908462 0.26774985 -0.29895636 -0.28733894 0.10611945
0.08500358 -0.09905671 0.2551661 0.12068267 -0.30189726 0.13584535 -0.2066323 -0.17484866
0.18573973 -0.24031042 0.1840039 0.32019004 -0.27825785 -0.15895745 0.29941246 -0.23252186
0.24856304 -0.17274673 0.15529616 -0.08767402 -0.22786629 0.01537129 0.10093729 0.027539924
-0.3216123 0.125597 0.16407962 -0.050349303 -0.13039501 0.21376102 -0.15323254 0.17942052
-0.15134983 0.07313593 0.002938152 0.16881223 -0.016388778 0.2666202 0.21527551 0.10378956
-0.092843525 0.078492716 0.32726738 0.14400285 -0.09561024 -0.16513605 -0.014940712 0.20930591
0.14086768 -0.3004007 0.2872424 0.008227882 -0.004633071 0.30739263 0.1989777 -0.08612062
0.17065328 0.26524913 -0.14388493 -0.08079744 0.05497209 0.23423535 0.11444154 0.19503519
-0.08156616 0.14654745 -0.0019457416 -0.049712483 0.12388648 0.09069523 -0.15294729 -0.13747157
-0.017446686 -0.24074864 0.20020148 0.18996364 0.23286471 -0.06437646 0.07330372 0.19383042
-0.12704761 -0.15496902 0.17218351 0.28849176 -0.21185778 -0.21736194 -0.031061014 -0.2360472

ConvBase.1.feature.lis.3.Y_conv.conv.bias f4 [16]
00000000: afe5 b93d 5af5 0fbe 30ce 193e f62d 8dbd
00000010: 2b25 92be fa42 f5bd 290f ae3d 8df2 6ebe
00000020: 6ee0 033e fc1f 0bbe 2e3d 8f3d 8ada 1f3e
00000030: 989a fa3d 5d7a b8bd aeba 0f3e a13b ee3a
0.09077012 -0.14058438 0.1502006 -0.06893532 -0.28543982 -0.119756654 0.08498985 -0.23334713
0.12878582 -0.1358642 0.06994091 0.1561071 0.12236518 -0.09007714 0.14036056 0.001817573

ConvBase.1.feature.lis.3.pointwise.weight f4 [16, 16, 1, 1]
00000000: 7271 133e 8d7b ac3b 1764 8b3d f22a 93bd
00000010: 8c65 af3d a16d 603c f56d bbbc ef52 853d
00000020: abcf b73d 0056 c53c dc79 083e 43ea 903d
00000030: 0176 3fbe 11f5 eebd f633 18bd 93f2 a23d
00000040: 201b 7f3e 8750 dabd bc48 80bd ab25 053e
00000050: 2392 a13d 2d9b 7b3d 7ede 2f3e fe7e 303e
00000060: 8bb5 1abe 773d adbd e350 e53d 9546 663e
00000070: c149 b2bc 63db 453e 129d 763d dc81 a6bd
00000080: 8e01 c23d f790 ccbd a43c 6cbe 3c96 003e
00000090: 68c9 50be d8b5 e83d 7168 17be b23e 673e
000000a0: 3d2e 8dbd 21f5 133c c092 cdbc a67b 6abe
000000b0: 677d 763d cf1b 423d e9e1 0abe 248d 3cbe
000000c0: 6840 bb3d 5ba4 eebd aabf 38be 2574 b0bd
000000d0: 40b4 08be d6d6 5c3d 4af6 39be 0049 47be
000000e0: 6577 003e dfd3 c9bc d649 093e 3774 243e
000000f0: 7b45 91bb 7541 2fbe b630 fe3c 7bec d23d
00000100: a449 2ebe ccce 363e e9dc 7c3d 917a 2b3d
00000110: 6f3a 7dbd 966d d1bd 9de4 1a3e c154 513e
00000120: cdfd 99bc 22ed 5bbd 8cb9 3e3e 1c55 6a3d
00000130: 83ed e93d 7b3b d8bd d3db 12be 085a 4bbe
00000140: 3a99 4fbe b349 843c 94ee 22be 9c6b 97bd
00000150: 5e91 5f3e 3075 1ebd 8d97 64be 4135 8bbd
00000160: 378b 82bd 5b4c 513d 8796 d1bd 0be7 98bd
00000170: 88a5 18be fd0f 80be c1b9 fabd 825c 63bc
00000180: 8409 0bbd 0834 cdbd 91b6 303e 7dd0 86bd
00000190: e529 123e 95f4 2c3e 665d 3a3e e981 47be
000001a0: e84f 5cbe 16e8 10bd 8f48 033e d943 53bd
000001b0: 435e 743e 15ac 30be 2479 543e 8462 d0bc
000001c0: 38c0 273e 26d5 6fbe 09c4 293b 53c8 07be
000001d0: 9ae1 fcbc b98b 07be 8d0c 133e 34ac 2fbe
000001e0: de20 1bbe 22c9 153c 9a42 18be e360 e93d
000001f0: cf7d 94bd 2687 6fbd fd03 283e 1243 263e
00000200: 3871 1bbe 4d33 adbc 247c 6d3e 0067 f83c
00000210: a8ed 08be ab9e e0bd 3861 68bd fdfc 523e
00000220: 9fc0 68be 4c0a 8b3d 01f4 66bc 784f 65be
00000230: 12b8 583c e116 393e a1a4 9c3d 164f fcbd
00000240: ee04 0b3d 4881 b9bd c721 15bc d2d2 26bc
00000250: 3958 833e 0457 2cbe 7a4f e6bd 749d 3b3d
00000260: cf64 e23b e701 8cbc 65df 523e 6e82 383e
00000270: 3bf7 103d eaf0 62be bf35 763e 6842 e33d
00000280: db78 f13d 3e11 7dbd 4c6a 203e 9360 d53d
00000290: fb67 973d 6975 8e3d 5c4c 413e e942 03be
000002a0: fcf4 02be 216f 8c3d 7c80 343e e035 483d
000002b0: d372 83bd a855 b93c c851 e13b 7021 123e
000002c0: b24c 123e d792 b13d 636f 903d 89ff 3dbd
000002d0: a031 97bd 79d4 313e b4cc 12be b35f 6bbe
000002e0: 7414 293e a61a 15be acca 683e 19fb bdbd
000002f0: a294 e5bc 4274 7d3e bceb 213e 2504 433e
00000300: ea3b 62be 9961 2a3d da42 70be 21b9 953c
00000310: bf1f a63d 894e 2f3e e4dc 76be 5c45 433e
00000320: 1e63 3b3e bc0a bf3c f924 35bd ee04 443e
00000330: c85e e5bc 751f 6fbe 2bf8 313e 7594 1c3d
00000340: 8dff 853d 8a7f e63d eaef 163e 2b9b cc3d
00000350: 813f 213e e87e fdbd 17c3 b9bd c0b5 81bd
00000360: 5071 c83d 4038 4ebe e4f8 7b3d 56bf 26be
00000370: cc54 c1bd d04e c9bc 49f4 37bd 9685 e1bd
00000380: a561 cd3d 488d 1f3d 5f5e 6e3e 56f1 4b3e
00000390: ba30 2d3e fc57 55be 5549 c63d 3411 073e
000003a0: 0f14 553d 2ce2 62be b18c 723e 6ffe ed3c
000003b0: b0c6 16be a505 d23c 883b 723e 5437 463e
000003c0: d50d 5abc 81d6 0f3e 2561 083e b2d9 093d
000003d0: 2352 62be fd7b 4ebe 504e edbd fe3b 58be
000003e0: 8e0b 403a 99f0 83bc 90c8 143e 725f 86bc
000003f0: cc44 cdbd 211b 37be 108e 1abc 4357 633e
0.14398745 0.005263752 0.068062 -0.071859255 0.085642904 0.013698013 -0.02287958 0.06509959
0.089751564 0.02408886 0.13327736 0.07075932 -0.18697359 -0.116678365 -0.03715893 0.079564236
0.24912691 -0.106598906 -0.06263873 0.1300265 0.078892015 0.061427284 0.17174718 0.17235944
-0.15108316 -0.08458989 0.111970685 0.22487862 -0.021763684 0.1932197 0.060208388 -0.081302375
0.09472953 -0.09988587 -0.23070008 0.1255731 -0.2038933 0.11362809 -0.14785935 0.2258251
-0.06893585 0.009030611 -0.02509439 -0.2289873 0.060178187 0.0473898 -0.1356274 -0.18413216
0.09143144 -0.11652442 -0.18041864 -0.08615903 -0.1335001 0.05391582 -0.18160358 -0.19461441
0.12545545 -0.02463716 0.13407072 0.16059957 -0.0044333315 -0.17114814 0.031029087 0.10299011
-0.17020279 0.17852324 0.061734114 0.041864935 -0.061823305 -0.1022598 0.15126272 0.20442487
-0.01879778 -0.053692944 0.18625468 0.057210073 0.11422255 -0.1055822 -0.14341669 -0.19858563
-0.20273295 0.016148424 -0.15911323 -0.07393572 0.21832797 -0.038685977 -0.22323437 -0.06797267
-0.063742094 0.05109821 -0.10233789 -0.07465943 -0.14906895 -0.25012198 -0.12242461 -0.013877036
-0.03394462 -0.1001969 0.17257144 -0.06582735 0.14273794 0.16890176 0.18199691 -0.1948315
-0.21514857 -0.035377584 0.12820648 -0.051578376 0.23864083 -0.17253144 0.20749336 -0.0254376
0.1638192 -0.23421153 0.00259042 -0.13260011 -0.030869294 -0.13236894 0.14360256 -0.17155534
-0.15149257 0.009142192 -0.14869156 0.11395433 -0.072505586 -0.058478497 0.16407771 0.16236523
-0.15179908 -0.021142626 0.23191887 0.030322552 -0.13371909 -0.109677635 -0.05673334 0.2060432
-0.22729729 0.06789073 -0.014096261 -0.22393596 0.0132274795 0.18075134 0.07648588 -0.12319772
0.03394025 -0.090578616 -0.009102291 -0.010182099 0.25653246 -0.16830069 -0.11245628 0.045804456
0.00690899 -0.01709075 0.20593031 0.18018505 0.035392027 -0.22162214 0.2404394 0.1109665
0.117906295 -0.06178402 0.15665549 0.10418811 0.073928796 0.06955988 0.18876785 -0.12818493
-0.12788767 0.06857134 0.17627138 0.048879504 -0.06418385 0.022623852 0.006876204 0.14270568
0.1428707 0.086705856 0.07052495 -0.046386275 -0.07382512 0.17366208 -0.143359 -0.22985725
0.16511708 -0.14560947 0.22733563 -0.09276409 -0.028024975 0.2475138 0.15812582 0.1904455
-0.22093168 0.041596983 -0.23463002 0.018276753 0.08111524 0.17119803 -0.241077 0.19069427
0.18299529 0.023320548 -0.044224713 0.19142506 -0.027999297 -0.23351844 0.17379825 0.038227517
0.06542883 0.11254795 0.14739957 0.099905334 0.15746881 -0.12377721 -0.090704136 -0.06333494
0.09787238 -0.20138645 0.061516657 -0.16283926 -0.09440002 -0.024573714 -0.044910703 -0.110118076
0.1002839 0.038953096 0.23278187 0.19916281 0.16913119 -0.20834345 0.09681956 0.13190156
0.052021082 -0.2215659 0.23686482 0.029051987 -0.14724231 0.025637457 0.23655522 0.19357044
-0.013308962 0.1404667 0.13318308 0.033654876 -0.22101645 -0.20164485 -0.115872025 -0.21116635
0.00073259405 -0.016105937 0.14529634 -0.016402934 -0.100228876 -0.17881443 -0.009433284 0.22201256

ConvBase.1.feature.lis.3.pointwise.bias f4 [16]
00000000: 2581 7d3e 2e74 e63d ca3c fdbd f561 3dbe
00000010: 0891 babc 195d 343e 1d4a 263e 5975 373e
00000020: 4ff1 2cbe 48b3 d1bd 5cb8 3abc 84ae 1a3d
00000030: 53c3 f2bd 7a35 0dbd 4f3e dd3d 65d4 533e
0.24756296 0.11252628 -0.1236511 -0.18494399 -0.022774234 0.17613639 0.1623921 0.17915858
-0.16888927 -0.10239273 -0.011396494 0.037764087 -0.118536614 -0.034474827 0.108029 0.20686491

ConvBase.1.feature.bn.weight f4 [16]
00000000: 7e6b 773f e80c 643f f035 063f 3f66 0c3e
00000010: 6b0d 2b3f ee1c 223f 9f93 5d3f 4cb2 fe3e
00000020: f96f 743f dd1d 283f 6501 6c3e 112d 073f
00000030: 79d4 4b3f 1429 f53d 9b96 503e 9bd8 8e3e
0.96648395 0.89082193 0.5242605 0.13710879 0.6681735 0.63325393 0.86553377 0.49745405
0.95483357 0.6567057 0.23047407 0.5280314 0.7962108 0.11970726 0.20369951 0.27899632

ConvBase.1.feature.bn.bias f4 [16]
00000000: f32e f6bb de11 423c 245c 48bb 877b 4b3c
00000010: c399 c7bb 42c8 52bb 223b 273b 674a cdbb
00000020: c84b eabb b278 453a 2a30 48bb ebd7 6e3b
00000030: 062a f53b b458 123c 1646 11bb d40f 73bc
-0.007512921 0.01184508 -0.0030572498 0.012419588 -0.006091328 -0.003216282 0.0025517424 -0.006264973
-0.007150147 0.00075329386 -0.0030546286 0.0036444615 0.007481816 0.008932281 -0.0022167019 -0.014835317

ConvBase.1.feature.bn.running_mean f4 [16]
00000000: dbad 873e 7a55 02be d512 9e3c 153c bdbe
00000010: 4476 593b d445 aabe 426f 06be 5824 ba3e
00000020: 6c9a b7be 0c4b 863d db0a cfbd 172c 52bc
00000030: e2fe 9cbd f74c fa3c 54c6 d83c 7130 ba3c
0.2649983 -0.12727919 0.01929609 -0.369599 0.0033182064 -0.332564 -0.13128379 0.36355853
-0.35860002 0.06557283 -0.101094924 -0.012827895 -0.076658025 0.030554278 0.026461758 0.022728177

ConvBase.1.feature.bn.running_var f4 [16]
00000000: 84be e23a 1197 b83a 70e9 4d3b 5140 143b
00000010: f602 0e3b 051e 3f3b 53c7 473b 86cb 553a
00000020: 7cfd 813b 4b23 e03a 4d37 ec3a 9fa4 0f3b
00000030: c2db e03a f2e4 f83a d5d6 6c3b 2a8f 033b
0.001729921 0.0014083107 0.0031419657 0.0022621343 0.0021669245 0.002916218 0.0030483797 0.00081556325
0.0039669853 0.0017100362 0.0018021852 0.002191819 0.0017155337 0.001898913 0.0036138792 0.0020074346

ConvBase.1.bn.weight f4 [64]
00000000: 3cb7 d23e 9d8c ea3d 50b5 f63d 69b6 b93d
00000010: 6cce b63e a571 413f 3031 653f b3b6 e6b8
00000020: a512 313f 04b5 6b3f 9693 853e c092 083f
00000030: 7034 8b3d c9d3 243e 2758 523f 1a37 413f
00000040: 42bf 423f ee03 573f 62df 463f 0570 d43e
00000050: 4c46 ba3e 92d4 553f 936c 173f ab1a 843e
00000060: 9b38 573f b007 1c3f 3403 013f 06df 123f
00000070: a141 453f 47c0 b93e ab60 933e a538 753f
00000080: 8366 333f 09c3 d23e d607 113e fda2 743f
00000090: 1330 9b3e cf7b 4f3f aed8 983e 134a e73e
000000a0: 1da5 a53e 5113 3c3f 2591 963e 70c8 1a3e
000000b0: 3ecb 9f3d c528 e83e 2f9e 463e 9b8b 523f
000000c0: ec7b 413f aae0 f83e 2ad2 913e c298 283f
000000d0: 60d6 9f3e 2e34 7e3f 4ea0 423c b6ee 703f
000000e0: bb44 733f 84cf 593e fa7a 9e3e 3ce9 283f
000000f0: 52ae f03e 92dd 173e 11ea 533f d4b8 373f
0.41155422 0.11452601 0.12046301 0.09067995 0.35704362 0.7556403 0.8952818 -0.00011001285
0.69169074 0.9207308 0.26089162 0.5334892 0.06797111 0.16096415 0.8216576 0.75474703
0.76073086 0.8399037 0.77684605 0.41491714 0.36381757 0.8352748 0.59150046 0.25801596
0.8407075 0.6094923 0.5039551 0.57371557 0.77053267 0.36279508 0.2878469 0.9578956
0.70078295 0.41164425 0.14163145 0.955612 0.30310115 0.8104829 0.29852813 0.45173702
0.32352534 0.73466974 0.2940761 0.15115523 0.07802437 0.45343605 0.1939628 0.8224427
0.75579715 0.48608905 0.28480655 0.6585809 0.31218243 0.9929837 0.01187904 0.94114244
0.9502675 0.21270567 0.309532 0.6598089 0.47007996 0.14830616 0.8277903 0.717664

ConvBase.1.bn.bias f4 [64]
00000000: 1673 29bb 0bd8 743b d5bc ca3b 2dd9 823c
00000010: 3351 14bc 7881 b3bb 7ca1 e3b9 6747 cdbb
00000020: a784 183c 2441 babb 3500 a7bb 5b77 06bb
00000030: 964b 433c 8d81 8f3b 4af5 083b b081 123b
00000040: c136 40bc cf98 6cbc 4a8a 27ba 7bc6 86bc
00000050: 5c05 823c 71f1 c4bb d33f b33c 68b8 2d3c
00000060: ca3c 1fba 1b07 a13b d9d3 41bb 781f e73b
00000070: 167f 103c fd40 533c abda b2bb 2f98 d539
00000080: 6b73 22bb f821 e9bb cb2d 2abc 14fc af3b
00000090: 8ea0 913b f4a8 f23b a0ab 3dbb ae88 813a
000000a0: 21d4 233b 2a7c ccbb 7562 ac3a 54b6 ae3b
000000b0: 4581 d6bb 6e5e 0e3c a09e 15bc 7afe 063c
000000c0: 3877 b83b 6d5d 833c 7c39 963b 2473 2f3c
000000d0: 72ee 93bb 1311 a6bb 83bf 00bc 8dab a93c
000000e0: 4b53 03bc 7cdc d23b 7fb9 1e3b cb1a 5f3c
000000f0: 16e6 863a 70dd 113c 2818 81ba 3bfc 61b9
-0.002585595 0.0037360217 0.0061870613 0.015972698 -0.0090525625 -0.0054780804 -0.0004341713 -0.0062646153
0.0093089705 -0.005684035 -0.00509646 -0.0020517919 0.011919877 0.0043794573 0.0020898157 0.0022355132
-0.011731804 -0.014440729 -0.0006391151 -0.016452065 0.015871696 -0.0060102274 0.02188102 0.010603048
-0.0006074427 0.004914177 -0.0029575734 0.007053312 0.008819362 0.012893912 -0.005458196 0.00040739911
-0.0024788033 -0.007114645 -0.010386894 0.005370626 0.0044441884 0.0074053947 -0.0028941408 0.0009882653
0.0024998265 -0.0062403874 0.0013151901 0.005331794 -0.006546172 0.008689506 -0.009132057 0.008239383
0.0056294464 0.01603576 0.0045844894 0.010708604 -0.004514509 -0.0050679534 -0.00785816 0.020711685
-0.008015464 0.006434975 0.002421945 0.013617228 0.001029196 0.0089028925 -0.0009849118 -0.00021551635

ConvBase.1.bn.running_mean f4 [64]
00000000: e2f4 273e 4bcc 053e 2b63 e43d 673d 1b3d
00000010: 9af5 013e b150 273d a3ab e23c a731 cc3d
00000020: 62f5 513e 5135 0e3e 76b7 4a3d e5db de3c
00000030: 05fe 2f3e 3d68 123c b4b8 1c3d 6474 383d
00000040: 8448 693e c211 523e 8ed3 ad3d 22ff 573d
00000050: 8026 2a3e 38e1 3f3e 22fd 2b3e 1e17 cc3d
00000060: 69c5 e33d b509 213e 98e3 d73c d999 f03d
00000070: 3184 c93d 59aa 0f3d 08ce fd3c 9a95 6b3d
00000080: 7ff2 ac3e 9421 513e 0b52 f13d 60d2 ef3c
00000090: 9c17 353e 4c93 5f3e d830 593e d02c 3d3e
000000a0: 6a4a 4c3e 0725 d03d fd4d 1a3d 0ef3 1b3e
000000b0: b702 5f3e 3419 e03c b145 083d 6116 6a3d
000000c0: 02b2 8a3e 3b81 a33e 8af7 2a3e 2a0f 263d
000000d0: 1ef0 413e a120 263e 27e9 7e3e b0e5 203e
000000e0: b222 7e3e d2ae 373e c5d8 593d d699 0a3e
000000f0: c8d9 913e 9bf8 253d 1b59 5d3d 2cf2 ca3d
0.16402009 0.13066213 0.11151727 0.037900355 0.12691346 0.040848438 0.027669733 0.09970408
0.20503762 0.13887526 0.04949137 0.027204463 0.17186745 0.008935985 0.038262084 0.045032874
0.22781569 0.20514587 0.084876165 0.052733548 0.16616249 0.18738258 0.16795781 0.09965347
0.111216374 0.15726359 0.026353642 0.11748094 0.09839667 0.035074566 0.030982032 0.057515718
0.3377876 0.20422965 0.117832266 0.02927512 0.17684788 0.21833533 0.21210039 0.18474126
0.19950262 0.101633124 0.03767203 0.15229437 0.2177838 0.027355768 0.033269588 0.05715025
0.27088934 0.31934533 0.16695991 0.040541805 0.18939254 0.16223384 0.24893628 0.15712619
0.24817923 0.17937782 0.053185243 0.13535246 0.28486466 0.04052029 0.054040056 0.09909472

ConvBase.1.bn.running_var f4 [64]
00000000: ea50 b03d 46f4 453d 5c70 203d f2c4 4e3b
00000010: 9283 533d b5ef b33b c43a 1b3c d425 0e3e
00000020: 8432 133f 7bf8 823e 5cfb 0b3d a5d6 103c
00000030: 63ab c23e 62ab 2a35 c9df a63c 966d 043c
00000040: d415 f23e 7967 ce3e 1a4f b53d 5e77 c13b
00000050: eea5 813d b69a 8f3e 683d 273f 377f 2f3e
00000060: f2b9 353e 07ac a33e d97c 0e3d f5d6 0a3e
00000070: 0f0b 3d3d 542b 1b3c c70b 853a a7c3 813d
00000080: 6a05 c93e 1f2e 873e 3c62 8a3d d149 3c3c
00000090: 854f c03d 446b 113e 0d18 923d cef4 e43d
000000a0: d068 8e3d cb5e a03e a8bf 153d 3ebe 9c3d
000000b0: ca79 b03e 5bb3 ae3b c8a5 033d 3940 ba3c
000000c0: b761 2f3f 81f9 923e 1883 b33d 732a e13b
000000d0: 8f5c 0b3e 518b 2f3e 8d4e 493e fb55 bc3d
000000e0: cc47 053f c7b0 703d 4285 0a3d deeb 483e
000000f0: dd58 6f3e 4a0b 213c 2766 d83c c26b 0f3d
0.08609183 0.04832866 0.039169654 0.0031550494 0.051639147 0.005491222 0.00947446 0.13881618
0.57498956 0.255802 0.03417526 0.008840238 0.38021383 6.357933e-07 0.020370381 0.008082768
0.4728228 0.40313318 0.08852978 0.0059041223 0.06330477 0.28047723 0.65328074 0.17138372
0.17746714 0.31967184 0.034787033 0.13558562 0.046153124 0.009470779 0.0010150605 0.06336146
0.39261943 0.26402375 0.06757018 0.011492209 0.09390167 0.14201075 0.071334936 0.11179505
0.06953585 0.3132232 0.03655973 0.07653473 0.34467918 0.0053314394 0.032140523 0.022735702
0.68508476 0.2870598 0.087652385 0.0068715154 0.13609527 0.17142989 0.19658871 0.09196087
0.5206268 0.058762338 0.03381849 0.19621226 0.23373742 0.009829352 0.026415898 0.035014875
